PPO_preTrained/50/PPO_4_0_200.pth (torch, 239887 bytes, 15 tensors)

actor.0.weight f4 [128, 30]
0	0xbe1ec21e	-0.15503737
1	0xbe44b811	-0.19210841
2	0xbe1e8e7a	-0.15484038
3	0x3d8f7a1f	0.070057146
4	0x3d8dfaf7	0.06932633
5	0xbf07d9bf	-0.5306663
6	0x3c01cbbf	0.007922112
7	0xbdcfff5e	-0.10156129
8	0xbe15936f	-0.14607023
9	0xbe67cbf3	-0.22636394
10	0x3c74c8ad	0.014940423
11	0x3dccc5c3	0.099986576
12	0xbdc75790	-0.09733498
13	0xbd15977c	-0.03652142
14	0xbe5710dc	-0.21002525
15	0x3db6b11e	0.08920501
16	0x3d842949	0.06453187
17	0x3d1ce5a6	0.038304947
18	0x3ea2c0a3	0.31787595
19	0x3d8b3cb9	0.06798691
20	0xbe9dc210	-0.3081212
21	0xbdd7a320	-0.105291605
22	0x3def8e2a	0.116970375
23	0x3e05d4c3	0.13069443
24	0xbcfb3a2f	-0.030667393
25	0x3e3771af	0.1791446
26	0x3ea640bd	0.32471266
27	0xbd6b2cef	-0.0574159
28	0x3eb08fea	0.34484798
29	0x3ea14a8b	0.31502184
30	0xbe3ea69e	-0.18618247
31	0xbe14ebf7	-0.14543138
32	0xbdf7f7bd	-0.12107799
33	0xbe8e1094	-0.27747023
34	0xbe499ad3	-0.19687967
35	0x3ee1e8c5	0.44122902
36	0x3daff757	0.08592098
37	0xbd56c842	-0.052437074
38	0x3e39a5ab	0.18129604
39	0xbd02637e	-0.031833164
40	0xbdc77159	-0.09738416
41	0x3df846de	0.12122892
42	0xbd33839a	-0.043826677
43	0x3e110e9a	0.14165726
44	0x3d099c9c	0.03359662
45	0xbd7d1ae9	-0.06179324
46	0x3d9ffcf7	0.07811921
47	0x3d950176	0.07275669
48	0xbe736207	-0.23767863
49	0xbcf82b62	-0.030294124
50	0xbceca2a8	-0.028886154
51	0xbd810d6b	-0.063013874
52	0x3e186f4f	0.14886211
53	0xbdff1007	-0.12454229
54	0x3e15c96c	0.14627618
55	0x3ed6eee4	0.41979134
56	0x3e77514f	0.2415211
57	0xbe1c7c27	-0.15281735
58	0xbe8acc81	-0.2710915
59	0x3d0066b8	0.03134796
60	0x3c29f655	0.010373672
61	0xbe3b33db	-0.182815
62	0x3d943246	0.072361514
63	0xbd7b0f56	-0.061293922
64	0xbda51657	-0.080609016
65	0xbe87d3e7	-0.26528856
66	0x3d4c1036	0.049820147
67	0xbd879ed0	-0.06622088
68	0x3e452a12	0.1925433
69	0x3d9deeb1	0.077115424
70	0xbdbaa343	-0.09113171
71	0xbc90e712	-0.017688308
72	0x3e808ec4	0.25108922
73	0x3e4f7d95	0.2026275
74	0x3de8d931	0.11369551
75	0x3e203c04	0.15647894
76	0xbdde4570	-0.10853088
77	0x3c207baa	0.009795109
78	0xbdf14b78	-0.11781973
79	0xbe383a83	-0.1799107
80	0xbe3c9ba7	-0.18418752
81	0x3dfb8574	0.122813135
82	0xbc237f1f	-0.0099790385
83	0xbe22bc3d	-0.1589212
84	0x3e5c561d	0.21517225
85	0xbeb85601	-0.36003116
86	0xbde06ad9	-0.109578796
87	0x3e231413	0.15925626
88	0x3e953bd0	0.29147196
89	0x3c0016ad	0.007817906
90	0x3e02cd4d	0.12773629
91	0x3d160f3c	0.036635622
92	0xbddb76cf	-0.1071602
93	0xbdcec8a6	-0.100968644
94	0xbcd2689c	-0.025684647
95	0xbed7dfea	-0.4216302
96	0x3d001810	0.031272948
97	0x3dae0102	0.08496286
98	0x3e29284e	0.16519281
99	0x3e20f088	0.15716755
100	0x3e5ef4d5	0.21773084
101	0xbe1cf66d	-0.15328379
102	0x3e439286	0.19098863
103	0xbd986d8d	-0.0744277
104	0xbdb671f3	-0.08908453
105	0x3e6b4f1f	0.22979401
106	0xbdb3435e	-0.08753084
107	0xbdf4ff68	-0.119627774
108	0xbbb115f8	-0.00540423
109	0x3e1c1edb	0.15246145
110	0x3e414c1c	0.1887669
111	0x3c827238	0.015923604
112	0xbce79547	-0.028269423
113	0x3e506882	0.20352367
114	0x3de17576	0.11008732
115	0xbdaf9e16	-0.085750744
116	0x3e65fdb6	0.22460064
117	0xbc9b3725	-0.018947193
118	0xbe093d70	-0.13402343
119	0x3e915582	0.2838555
120	0xbd8bae16	-0.06820314
121	0x3cf29a38	0.029614553
122	0x3e3f8cb4	0.18706018
123	0x3e8120c8	0.25220323
124	0x3e1e23f4	0.15443403
125	0x3e8020f3	0.25025138
126	0x3e8003fe	0.25003046
127	0x3ea82c29	0.32846192
128	0x3e4f2ea0	0.2023263
129	0x3df0bf33	0.11755218
130	0xbd8c10e8	-0.06839162
131	0x3e4648a2	0.19363645
132	0x3e8f7c94	0.28024733
133	0xbe068e22	-0.13140157
134	0x3e131b20	0.14365816
135	0xbc9d3e0f	-0.01919463
136	0xbdd80dba	-0.10549493
137	0xbd181bd3	-0.03713591
138	0x3e389be9	0.18028225
139	0xbe3ceccf	-0.1844971
140	0x3d72ead0	0.059305966
141	0x3e816ada	0.25276834
142	0x3d839229	0.06424362
143	0x3e0721d8	0.13196504
144	0x3df1287d	0.11775301
145	0x3ddc7e4b	0.10766276
146	0xbe95e787	-0.29278204
147	0x3d8cfeb0	0.06884515
148	0x3e9a60e9	0.30152062
149	0xbe5e4127	-0.21704541
150	0xbe2963e9	-0.16542019
151	0xbe60ad50	-0.21941113
152	0x3db4a7cd	0.08821068
153	0xbe2c4288	-0.16822255
154	0x3e10336a	0.14082113
155	0x3f254dc1	0.6457177
156	0xbd909435	-0.07059518
157	0x3e47baed	0.195049
158	0x3e75620c	0.23963183
159	0x3dfc969b	0.12333413
160	0x3da0f7ed	0.07859788
161	0x3e09d15e	0.13458773
162	0x3d82f813	0.06394973
163	0x3e8fd850	0.2809472
164	0x3c4d0b9a	0.012514973
165	0xbdaee444	-0.08539632
166	0xbe4eed13	-0.20207624
167	0x3e6607bd	0.2246389
168	0x3d7a843a	0.061161257
169	0x3e01ac73	0.1266344
170	0x3e86eb5f	0.2635145
171	0x3dbd0c7a	0.09230895
172	0x3cc2f297	0.023797316
173	0x3d8cd7b0	0.068770766
174	0xbd8643ed	-0.065559246
175	0x3e0a3eca	0.13500515
176	0x3e13079b	0.1435837
177	0x3e31ef0c	0.17376345
178	0xbd7bcbed	-0.061473776
179	0xbe2f5c12	-0.17124966
180	0xbecd4cf2	-0.40097767
181	0xbe2e1393	-0.16999654
182	0x3c9bf149	0.019035952
183	0xbe206b51	-0.15665938
184	0x3db5e052	0.08880676
185	0xbe07ae08	-0.13249981
186	0x3e75bca5	0.23997743
187	0x3dcecc82	0.100976005
188	0x3c8f7393	0.017511165
189	0xbd6bb8d0	-0.057549298
190	0x3e1d857c	0.15382951
191	0x3e852eeb	0.26012358
192	0x3dc63773	0.09678545
193	0x3e1dfe26	0.15428981
194	0xbb7ac157	-0.0038262212
195	0xbea590ee	-0.32337135
196	0xbdc2e385	-0.09516052
197	0x3e330903	0.17483906
198	0xbe652a4f	-0.2237942
199	0xbebb35f4	-0.365646
200	0x3ce5c6d2	0.028048906
201	0x3e4fa647	0.20278274
202	0x3e57205c	0.21008438
203	0x3e8fb6ec	0.28069246
204	0xbdaef2d4	-0.085424095
205	0x3de7e397	0.11322706
206	0xbda74039	-0.081665464
207	0xbeb382f4	-0.35060847
208	0x3eb4bf6a	0.35302287
209	0xbeaf7f8b	-0.34276995
210	0xbe13d28f	-0.1443579
211	0xbec54725	-0.3853084
212	0x3db2d0d5	0.08731238
213	0xbda22977	-0.07918065
214	0x3e81e149	0.2536719
215	0x3da0152d	0.07816539
216	0x3d46f4d7	0.04857334
217	0xbd3a30f2	-0.045456834
218	0xbe10fec3	-0.14159684
219	0xbdaa6bca	-0.083213404
220	0x3d6ed18d	0.058305312
221	0x3e52a53a	0.20570841
222	0x3c45854a	0.012055704
223	0x3ca4590a	0.020061988
224	0xbdeafa38	-0.11473507
225	0x3eaeb332	0.3412109
226	0x3da3f121	0.08004976
227	0x3e8a9531	0.2706695
228	0x3df724d6	0.12067573
229	0xbe525659	-0.20540752
230	0x3cb2b5c8	0.021815196
231	0x3e56a19b	0.20960085
232	0x3d723663	0.0591339
233	0x3e59242b	0.21205203
234	0xbdfd84c3	-0.12378838
235	0x3d0a568d	0.033773948
236	0xbf1916d1	-0.5980044
237	0x3ba09d2f	0.0049015502
238	0xbe0a3a70	-0.13498855
239	0x3da942e9	0.08264715
240	0xbec44f47	-0.38341734
241	0xbe691760	-0.22762823
242	0x3da34feb	0.079742275
243	0x3cf56221	0.029954018
244	0xbe36a3f7	-0.17835985
245	0x3ed0490b	0.40680727
246	0xbdce8dd4	-0.10085645
247	0x3c510b3b	0.012759025
248	0xbe069a7a	-0.13144866
249	0x3c3976c7	0.011319823
250	0xbe69eb6b	-0.22843711
251	0x3d4e6d87	0.050397422
252	0xbddbc907	-0.10731702
253	0x3dc2bd84	0.095088035
254	0xbe20047a	-0.15626708
255	0x3c478725	0.012178217

actor.0.bias f4 [128]
0	0x3d86ac65	0.065758504
1	0x3e07048a	0.13185325
2	0xbd7a427c	-0.06109856
3	0x3ca66b6a	0.02031489
4	0x3e299b61	0.16563179
5	0x3d19c81f	0.037544366
6	0x3e7eaf90	0.2487166
7	0x3e0e088a	0.13870445
8	0xbe60a14e	-0.21936533
9	0xbc15bbba	-0.009138996
10	0x3e06ff6d	0.13183375
11	0x3dd1fa15	0.102527775
12	0xbcc81410	-0.024423629
13	0x3d893db1	0.0670122
14	0xbe22e4a4	-0.15907532
15	0xbd040337	-0.03222963
16	0xbbf8d563	-0.007593797
17	0xbdb0f037	-0.08639567
18	0x3e7e75af	0.2484958
19	0x3cc5d2ac	0.024148308
20	0xb951bc3f	-0.0002000192
21	0x3e039cc9	0.12852778
22	0x3d9ecbc3	0.07753708
23	0x3dc8f4e7	0.098123364
24	0xbe17bb3e	-0.14817521
25	0xbd5c80c3	-0.053833734
26	0xbd6f3e3f	-0.058408972
27	0x3e1956a6	0.1497446
28	0xbe2f5a10	-0.171242
29	0xbd9d38ca	-0.07676847
30	0x3d868dc1	0.06570006
31	0x3d64894f	0.05579501
32	0x3d8b45d7	0.0680043
33	0xbdbd18a6	-0.09233217
34	0xbdbbbac7	-0.09166484
35	0xbb638e96	-0.003472244
36	0xbd67edd2	-0.056623287
37	0x3e2e6ff1	0.1703489
38	0x3d65e985	0.056130905
39	0x3de0eb7e	0.109824166
40	0x3dbb0ccb	0.091332994
41	0xbd80d35e	-0.06290315
42	0xbd913fd8	-0.07092255
43	0x3e6b4094	0.22973853
44	0x3d96d188	0.07364184
45	0xbdc4af1a	-0.096037105
46	0x3d1a5109	0.037674937
47	0x3e23ce7b	0.15996735
48	0x3d46d948	0.04854706
49	0x3e4894dc	0.19588035
50	0x3c188110	0.009308115
51	0x3e0c6119	0.13708915
52	0xbd2d7483	-0.042347442
53	0x3d58278b	0.052772086
54	0x3d9dc9e3	0.077045225
55	0xbe059303	-0.13044362
56	0xbdb9c783	-0.09071257
57	0x3df8828b	0.12134274
58	0xbda80b51	-0.082052834
59	0xbd51a812	-0.051185675
60	0x3e2079c5	0.15671451
61	0x3dcdd02d	0.10049472
62	0x3dc35ed0	0.095395684
63	0x3dddeb47	0.10835891
64	0x3ba812e9	0.0051292074
65	0xbe637b1a	-0.22214928
66	0x3e2bf0a2	0.16791013
67	0x3de58455	0.11206881
68	0x3dc2af5e	0.09506105
69	0x3e213599	0.15743102
70	0x3d854c58	0.06508702
71	0xbb8e6cd5	-0.00434647
72	0xbca3c243	-0.019990092
73	0x3d9f676d	0.07783399
74	0xbd107b96	-0.03527411
75	0xbd0cb608	-0.034353286
76	0x3e3017d4	0.1719659
77	0xbe1842da	-0.14869252
78	0x3dd9916c	0.1062344
79	0x3e338ce4	0.17534214
80	0xbe1cffd2	-0.15331963
81	0xbd14a3c3	-0.036288988
82	0x3d992b47	0.074789576
83	0x3db9e854	0.09077516
84	0x3de66c47	0.11251121
85	0xbe079f74	-0.1324442
86	0x3df1e951	0.1181208
87	0x3e22048c	0.15822047
88	0xbca5453b	-0.020174613
89	0x3d98bf79	0.074583955
90	0xbd88001f	-0.06640648
91	0xbd0d3d67	-0.034482386
92	0x3c11564a	0.008870671
93	0x3dc745da	0.0973012
94	0xbdc0daea	-0.094167545
95	0xbd9b2e09	-0.0757714
96	0x3d689cdf	0.05679023
97	0x3dd786ef	0.105237834
98	0xbccb6cae	-0.024832096
99	0x3be5c619	0.0070121405
100	0x3cd2209f	0.02565032
101	0x3d507ee8	0.050902277
102	0xbe780c8b	-0.24223535
103	0xbd416d44	-0.047223344
104	0x3e08fe56	0.13378271
105	0x3dc41436	0.095741674
106	0x3d71abf6	0.059001885
107	0x3d5eb1de	0.054368846
108	0x3db42a2b	0.087971054
109	0xbb934d4c	-0.0044952985
110	0x3d74061b	0.059576135
111	0x3e2ce83d	0.16885467
112	0xbca19800	-0.0197258
113	0xbe0747dd	-0.13211007
114	0x3e214ed4	0.15752727
115	0xbd057311	-0.03258044
116	0x3df047b3	0.117324255
117	0x3e2f8c1d	0.17143293
118	0xbdb2e80c	-0.08735666
119	0xbdc5bb20	-0.09654832
120	0xbb8c2ace	-0.0042775637
121	0x3e3220f7	0.17395388
122	0x3dbef34e	0.093237504
123	0xbdc02538	-0.09382099
124	0xbe1e1976	-0.154394
125	0xbd38ccb2	-0.045117088
126	0xbe0a72ad	-0.13520308
127	0x3e80a98c	0.25129354

actor.2.weight f4 [128, 128]
0	0x3e06bbda	0.13157597
1	0xbc20a215	-0.009804268
2	0x3de92cad	0.11385474
3	0x3e0c553e	0.13704392
4	0xbe1c9c5c	-0.15294021
5	0x3ceb67ce	0.028736021
6	0xbc03aecf	-0.008037283
7	0x3e483075	0.19549735
8	0xbcfed309	-0.031106489
9	0xbd19f9d7	-0.03759178
10	0xbe13b736	-0.14425358
11	0x3da3703f	0.079803936
12	0x3dffe765	0.12495307
13	0xbc036afc	-0.0080211125
14	0x3e0127a1	0.12612773
15	0x3dc1142b	0.09427675
16	0xbe576754	-0.2103551
17	0xbd8c71cb	-0.06857642
18	0xbe1f3325	-0.15546854
19	0x3d8c592e	0.06852947
20	0x3df0c627	0.117565446
21	0x3cbc8cdb	0.023016384
22	0x3df64b1b	0.12026044
23	0x3d8e868c	0.069592565
24	0xbe5b477a	-0.21413985
25	0x3c1a3bf4	0.009413708
26	0xbd0d7129	-0.034531746
27	0xbe1cd9b4	-0.15317422
28	0x3ea78c92	0.32724434
29	0x3ec889df	0.39167687
30	0x3e0c768f	0.13717102
31	0x3d034c87	0.032055404
32	0xbc329697	-0.010900161
33	0x3e2aacbf	0.1666746
34	0x3d2e78a5	0.042595524
35	0x3bc25d9a	0.0059315683
36	0xbcb39f79	-0.021926628
37	0xbd08b515	-0.03337582
38	0x3c124144	0.008926693
39	0x3eaad7dd	0.33367816
40	0xbe8929f9	-0.26789835
41	0x3db9bad3	0.09068837
42	0x3d054d26	0.032544278
43	0x3dc28a63	0.094990514
44	0x3e3871e5	0.18012197
45	0x3d6c5faf	0.05770844
46	0xbf0361c4	-0.51321054
47	0x3e003352	0.12519577
48	0xbd6ee15b	-0.058320384
49	0x3da69f92	0.08135904
50	0xbd09030f	-0.033450183
51	0xbcce913e	-0.025215741
52	0xbe509f4c	-0.20373267
53	0x3e754946	0.23953733
54	0xbdd4972e	-0.10380398
55	0x3d56873f	0.052375074
56	0xbe221018	-0.15826452
57	0xbc9bd92c	-0.019024454
58	0xbd12c32c	-0.03583066
59	0xbde0748a	-0.10959728
60	0x3e4eef60	0.20208502
61	0x3c44f08a	0.01202024
62	0x3da47fd1	0.080321915
63	0x3e051e85	0.12999924
64	0xbd2e4662	-0.04254759
65	0x3e2455a2	0.16048291
66	0xbe80fae0	-0.25191402
67	0xbd473b54	-0.048640564
68	0xbde26246	-0.110539004
69	0xbe02da4c	-0.12778586
70	0x3d74b1f0	0.059740007
71	0xbdd9737b	-0.10617729
72	0xbb187ad4	-0.002326657
73	0xbddc8058	-0.10766667
74	0x3cbc8acc	0.023015402
75	0xbd9c9143	-0.07644894
76	0x3e0500c1	0.12988569
77	0xbcb4182e	-0.021984186
78	0xbdbfa338	-0.093573034
79	0x3e0d1d75	0.13780768
80	0x3cec0545	0.028811106
81	0xbd95c5aa	-0.07313092
82	0x3e19e585	0.15028961
83	0x3e294a24	0.16532189
84	0x3dc1c82c	0.09462008
85	0xbc4b7561	-0.012418122
86	0xbe41c1f7	-0.18921648
87	0xbd96cc1a	-0.07363148
88	0xbdd2a616	-0.10285585
89	0xbc668c94	-0.014071602
90	0xbc81b52e	-0.015833464
91	0x3d23ccc5	0.039990205
92	0xbb5b8565	-0.0033496257
93	0x3e3f91ff	0.18708037
94	0xbd4e3c54	-0.050350502
95	0x3d824d33	0.06362381
96	0xbe894d87	-0.2681696
97	0x3ebeca5b	0.3726376
98	0x3e900bb3	0.28133926
99	0x3ea56907	0.32306692
100	0x3c927d77	0.017882092
101	0xbe2c14fb	-0.16804878
102	0x3ebef887	0.37298986
103	0xbd8c6d32	-0.06856765
104	0x3d8d794b	0.069079004
105	0x3dc31d07	0.09527021
106	0x3e0a47d8	0.13503969
107	0x3d02cdee	0.03193467
108	0xbd93e832	-0.07222022
109	0x3d4cc56a	0.049992956
110	0x3d75e8ed	0.06003659
111	0xbde1a641	-0.110180385
112	0xbdd37967	-0.1032589
113	0xbe40b05e	-0.18817279
114	0xbd00c0fb	-0.03143404
115	0x3e534679	0.20632352
116	0x3cc6ca63	0.024266427
117	0xbca989f9	-0.020695673
118	0x3f095adf	0.53654283
119	0x3e0eede5	0.13957937
120	0xbe6261a7	-0.22107564
121	0xbc45e875	-0.012079348
122	0x3e0efce4	0.13963658
123	0x3e02234e	0.1270878
124	0x3afa7ae1	0.0019110107
125	0x3d05a451	0.032627407
126	0xbc9e21d1	-0.019303234
127	0xbe2e6750	-0.17031598
128	0xbe1c0488	-0.15236104
129	0x3cc1703e	0.023613092
130	0x3e1bc4ff	0.15211867
131	0xbdd4877c	-0.10377404
132	0x3db65548	0.08902985
133	0xbdbff401	-0.09372712
134	0x3e08a5ca	0.13344494
135	0xbc56f887	-0.013120777
136	0xbe5964a3	-0.21229796
137	0xbd801b09	-0.062551565
138	0x3e30c78b	0.1726362
139	0xbd649260	-0.055803657
140	0x3e09d9ca	0.13461986
141	0xbda65c93	-0.08123126
142	0xbcfb23f1	-0.030656787
143	0xbd8c3384	-0.06845763
144	0x3e71cd02	0.2361336
145	0x3b0401e0	0.002014272
146	0x3d43fa58	0.04784617
147	0xbde273fe	-0.1105728
148	0xbe12177b	-0.1426677
149	0x3e307725	0.1723295
150	0x3e5e31ca	0.2169868
151	0x3e1f6f0e	0.15569708
152	0xbb9f6ed0	-0.004865505
153	0x3cfc467c	0.030795328
154	0x3d1973d8	0.037463993
155	0x3e1e3f95	0.15453942
156	0xbd1a35d5	-0.037648994
157	0x3df98621	0.12183786
158	0xbb7ba527	-0.0038398
159	0xbda82240	-0.08209658
160	0xbca3ec7c	-0.020010225
161	0xbd943cb7	-0.07238143
162	0x3cfc73a9	0.03081687
163	0x3e30120c	0.17194384
164	0x3d1515aa	0.036397614
165	0x3e144787	0.1448041
166	0xbe0ce857	-0.13760506
167	0xbde07402	-0.10959627
168	0xbe01c25e	-0.12671801
169	0x3ce6e967	0.028187467
170	0x3d017daa	0.031613983
171	0x3e4c3c7f	0.19944952
172	0xbe62dcdf	-0.22154568
173	0xbe7de151	-0.24792983
174	0xba9e7319	-0.0012088745
175	0xbcaf66f7	-0.021411402
176	0x3dea390e	0.114366636
177	0xbe941533	-0.28922424
178	0x3e6ef491	0.23335482
179	0x3cec52ff	0.02884817
180	0x3d9703ac	0.07373747
181	0x3e7b0563	0.24513774
182	0x3cd5a241	0.026078345
183	0xbdd06874	-0.10176173
184	0x3e55af57	0.20867668
185	0x3dae6e03	0.08517077
186	0xbe04c085	-0.12964065
187	0x3d4d149f	0.050068494
188	0xbe4227c1	-0.18960477
189	0x3da9d374	0.082922846
190	0xbd392753	-0.045203518
191	0xbc22e271	-0.009941683
192	0x3e14cff3	0.14532451
193	0xbd290961	-0.04126871
194	0xbe020de5	-0.12700613
195	0x3e3126c7	0.17299949
196	0xbec7b602	-0.39006048
197	0x3d27429a	0.040835
198	0x3d3d69f7	0.046243634
199	0xbc6ebe5d	-0.014571753
200	0x3d336eaf	0.043806728
201	0xbd9bd231	-0.0760845
202	0x3d96b4dc	0.07358715
203	0xbd600193	-0.054689
204	0x3d874094	0.06604114
205	0xbd3ea5bd	-0.04654478
206	0xbe32c3cc	-0.17457503
207	0xbd55f7b6	-0.05223819
208	0x3e33d467	0.17561494
209	0xbe165cac	-0.14683789
210	0xbdd86cc6	-0.10567622
211	0xbd897b3c	-0.06712958
212	0x3df95022	0.12173487
213	0xbdbdd5a1	-0.09269262
214	0x3e0c7afc	0.1371879
215	0x3aeff182	0.0018306228
216	0xbde257d2	-0.11051907
217	0xbda23988	-0.079211295
218	0x3e8db9e7	0.27680895
219	0xbd585cf5	-0.052823026
220	0x3d2dcddd	0.042432655
221	0xbe747da1	-0.23876049
222	0xbd730ac9	-0.059336457
223	0x3daa308b	0.0831004
224	0x3d640477	0.05566832
225	0xbdafb9cf	-0.08580362
226	0xbe239adb	-0.15977041
227	0xbc7e091a	-0.0155051
228	0xbd536af9	-0.05161569
229	0xbe1598f0	-0.14609122
230	0x3d888b89	0.06667239
231	0x3ca4da48	0.020123616
232	0x3d35bb73	0.04436822
233	0x3cce31f4	0.025170304
234	0xbd065c71	-0.032803003
235	0xbb526783	-0.0032105155
236	0xbde33131	-0.11093367
237	0xbdecfdf1	-0.11571873
238	0xbe8b639c	-0.27224433
239	0x3df0009e	0.11718868
240	0xbe2803e3	-0.16407733
241	0xbd5d734a	-0.054065026
242	0x3ddd47ad	0.10804687
243	0xbd2a526b	-0.041582506
244	0xbea44722	-0.3208552
245	0xbdab0c85	-0.08351997
246	0x3e40f69d	0.18844076
247	0x3d0a002b	0.033691566
248	0xbe1f110c	-0.15533847
249	0x3c444f25	0.01198176
250	0xbe0c6d51	-0.13713576
251	0xbd457811	-0.048210207
252	0x3e474f7d	0.19463916
253	0x3e513b81	0.20432855
254	0x3e424238	0.18970573
255	0x3e735759	0.23763789

actor.2.bias f4 [128]
0	0x3d3a163e	0.045431368
1	0x3ba22766	0.0049485443
2	0x3d161ebb	0.0366504
3	0x3d8edf07	0.06976133
4	0x3d632799	0.055457685
5	0x3d92386d	0.071396686
6	0x3c4c8ac9	0.012484261
7	0xbd013480	-0.03154421
8	0x3cec3bc3	0.02883709
9	0x3d1804d6	0.037113987
10	0xbdbcd15a	-0.09219618
11	0x3c084722	0.008317741
12	0xbdf1d704	-0.11808589
13	0xbc275b9b	-0.010214712
14	0xbdb3b023	-0.0877383
15	0x3ba81856	0.005129854
16	0x3dc2538e	0.09488593
17	0xbdb613b6	-0.08890478
18	0xbc72dbdb	-0.014822925
19	0xbdcfd6a3	-0.101483606
20	0x3d7e7898	0.062126726
21	0x3d968270	0.07349098
22	0xbd50e1cd	-0.05099659
23	0x3df7c8c1	0.12098838
24	0x3dfc6d4b	0.123255335
25	0xbd2d0d70	-0.042249143
26	0xbda33688	-0.079693854
27	0x3da1eae5	0.07906131
28	0x3e052dd0	0.13005757
29	0xbd787ee2	-0.06066788
30	0xbd224a32	-0.03962154
31	0x3d02ae1b	0.03190432
32	0xbc3f4bf8	-0.011675827
33	0xbd135bb3	-0.035976123
34	0x3d3444eb	0.044011038
35	0x3cf44ca3	0.0298217
36	0xbbf1a11f	-0.0073739435
37	0xbd7c77ab	-0.06163756
38	0xbda4ffca	-0.080566004
39	0x3d852010	0.06500256
40	0xbdb810ab	-0.08987554
41	0x3c8ff335	0.017572025
42	0xbcccc9c5	-0.024998555
43	0x3cafadc8	0.02144517
44	0xbdf62e86	-0.120205924
45	0x3d3c4e3c	0.045973048
46	0x3d142bfc	0.03617476
47	0xbd5b8079	-0.053589318
48	0x3b78587f	0.0037894545
49	0x3db94a2e	0.09047352
50	0xbd7a759e	-0.061147325
51	0x3c632dcc	0.013865899
52	0xbdbf31e9	-0.093356915
53	0x3d144fa8	0.03620878
54	0xbb7fde8d	-0.0039042563
55	0x3d74cf6d	0.05976813
56	0xbca9c708	-0.020724788
57	0x3d2aeb46	0.04172828
58	0xbc440f23	-0.0119664995
59	0x3c3b085f	0.01141557
60	0x3cffecf1	0.031240912
61	0x3d173e02	0.03692437
62	0xbd4e720b	-0.05040173
63	0xbdae4f16	-0.08511178
64	0x3c75f831	0.015012787
65	0x3d553404	0.05205156
66	0x3dc5c99d	0.09657595
67	0x3d4952bd	0.04915117
68	0x3db06d7c	0.086146325
69	0x3d2de1f4	0.042451814
70	0xbba6190a	-0.005068903
71	0xbc89a346	-0.016801488
72	0xbc884558	-0.016634628
73	0xbc2a9dc4	-0.010413591
74	0x3dd14c11	0.10219587
75	0x3cd1a137	0.025589569
76	0xbbcce049	-0.006252323
77	0xbcc76f16	-0.024344962
78	0x3ae33978	0.0017335853
79	0x3cfb6879	0.030689465
80	0xbc4b23e1	-0.012398691
81	0xbb95e788	-0.00457472
82	0x3d9199fa	0.07109447
83	0xbda14e65	-0.07876281
84	0x3c698a86	0.014254218
85	0xbdbd4f77	-0.09243672
86	0x3cf67239	0.030083762
87	0x3da3ba29	0.079944916
88	0xbd5b9dc2	-0.053617246
89	0x3dc20f92	0.09475626
90	0x3ba04082	0.0048905024
91	0xbce7ce6c	-0.028296672
92	0x3c6e2461	0.014535041
93	0xbb5e26a0	-0.0033897534
94	0x3c1841f5	0.009293069
95	0x3b55eea1	0.0032643455
96	0x3db6b90a	0.08922012
97	0x3c5f19b7	0.013616971
98	0xbdb4f9e8	-0.08836728
99	0x3d8439ce	0.06456338
100	0x3d82efbf	0.06393384
101	0xbbebf2d1	-0.007200577
102	0xbdcbbddb	-0.099483214
103	0x3de8a6b2	0.113599196
104	0x3b8e5c05	0.0043444657
105	0xbda47c39	-0.08031506
106	0x3d505adc	0.0508679
107	0xbcc668fd	-0.024219984
108	0xbb6aad0b	-0.0035808708
109	0xbdbb1ffa	-0.091369584
110	0xbc8a2b0e	-0.016866233
111	0xbe04a513	-0.12953596
112	0xbd4dbabb	-0.05022691
113	0x3c0930a2	0.008373411
114	0x3b2552bc	0.0025226315
115	0xbdc9a7f9	-0.09846491
116	0xbd832dc4	-0.064052135
117	0x3d7c2ec4	0.061568037
118	0x3d57a304	0.0526457
119	0xbd9aed0b	-0.075647436
120	0x3d6da33d	0.058017004
121	0xbd021cb4	-0.031765655
122	0xbd9120d3	-0.07086339
123	0x3dffa643	0.12482884
124	0xbdf53ddd	-0.1197469
125	0xbd18112d	-0.037125755
126	0x3d196fd1	0.037460152
127	0xbc822268	-0.015885547

actor.4.weight f4 [64, 128]
0	0xbe6fd846	-0.23422346
1	0x3e3861c0	0.18006039
2	0x3d184fcf	0.037185486
3	0x3daa8c45	0.083275355
4	0x3cf7ea77	0.030263169
5	0xbe1a65ba	-0.15077868
6	0x3bb22b3e	0.005437284
7	0xbdb55cae	-0.08855568
8	0xbafce31e	-0.001929376
9	0x3dbbbac7	0.09166484
10	0xbe936edd	-0.2879552
11	0x3b172fdd	0.00230693
12	0x3d0f132c	0.034930393
13	0xbaf84cde	-0.0018943807
14	0xbc378704	-0.011201624
15	0xbe15a316	-0.14612994
16	0xbd7c8d4e	-0.061658196
17	0xbe8cb211	-0.27479604
18	0xbdc725b6	-0.0972399
19	0x3e1cc6d0	0.15310216
20	0x3dd5120f	0.10403835
21	0x3dad08d7	0.08448952
22	0xbd246bdf	-0.040141936
23	0x3da66bbc	0.081260175
24	0x3de458fe	0.111497864
25	0xbdc346e7	-0.09535008
26	0x3cb67ef2	0.02227733
27	0x3e18c65f	0.14919423
28	0x3e1d8f0f	0.15386604
29	0xbdaad294	-0.08340946
30	0x3e2f0713	0.17092542
31	0x3e36a123	0.17834906
32	0x3c8c6ad0	0.017140776
33	0x3b89c9ac	0.0042049494
34	0x3e3d5d7f	0.18492697
35	0xbd4340ca	-0.04766921
36	0xbc6558ae	-0.013998194
37	0x3d776a80	0.0604043
38	0xbe4d078d	-0.20022412
39	0x3e08eebd	0.13372321
40	0xbe354e2c	-0.17705601
41	0x3e1af369	0.15131916
42	0x3e056b63	0.13029246
43	0x3cd9768b	0.026545784
44	0xbe3bc05b	-0.18335097
45	0xbd0d758f	-0.03453594
46	0x3d13fa3e	0.03612732
47	0x3d8efccc	0.06981811
48	0x3af73902	0.0018861594
49	0xbd9826ab	-0.0742925
50	0xbe5a7976	-0.21335396
51	0x3d2861d8	0.041108936
52	0xbe3472c2	-0.17621902
53	0x3cc574db	0.024103573
54	0x3e0e8242	0.13916877
55	0x3e578268	0.2104584
56	0xbcae1488	-0.021250024
57	0x3e09cf43	0.1345797
58	0x3da0d9ce	0.07854043
59	0xbcdf217b	-0.027237644
60	0x3d8b8226	0.06811933
61	0x3e8677ab	0.26263174
62	0x3df3eb73	0.11910143
63	0x3c4fea59	0.01269015
64	0xbdbb5e7c	-0.09148881
65	0x3c5c2de0	0.013438672
66	0x3d976dca	0.073939875
67	0xbe0167db	-0.12637274
68	0xbe806026	-0.25073355
69	0x3d2f2ff8	0.042770356
70	0xbca77be8	-0.020444825
71	0xbb260df1	-0.00253379
72	0xbdb55c94	-0.088555485
73	0xbe936101	-0.28784946
74	0x3e02cead	0.12774153
75	0x3d410818	0.04712686
76	0x3e06ce5d	0.13164659
77	0xbd30e9fd	-0.0431919
78	0xbd634ae5	-0.055491347
79	0xbe8a7a55	-0.27046457
80	0x3e4a2636	0.19741139
81	0xbd658a48	-0.05604008
82	0xbe63645d	-0.22206254
83	0x3d37a5d9	0.0448359
84	0x3e2f23d3	0.1710351
85	0xbe2d21a1	-0.1690736
86	0xbc928f76	-0.017890673
87	0x3d3142d3	0.04327662
88	0x3cd7557a	0.026285876
89	0x3e3a1c3c	0.18174833
90	0xbe2c68b6	-0.16836819
91	0x3c6f94db	0.014622892
92	0x3d9e9337	0.07742923
93	0xbd715660	-0.058920264
94	0xbcc332b8	-0.023827896
95	0x3e03f81e	0.12887618
96	0xbafae626	-0.0019142076
97	0xbcdea09e	-0.027176198
98	0x3e402627	0.18764554
99	0x3d5c30c4	0.053757444
100	0xbe149115	-0.1450847
101	0x3dfe6e0a	0.12423332
102	0x3cbb281c	0.022846274
103	0x3ce42866	0.027851295
104	0x3e38183b	0.17977993
105	0x3e1ea8de	0.15494105
106	0xbd1112de	-0.035418384
107	0x3d2265a5	0.039647717
108	0x3e1080aa	0.14111581
109	0x3e469e55	0.19396336
110	0x3da9971a	0.082807735
111	0xbd38c55a	-0.045110084
112	0x3bdfdb4e	0.006831563
113	0xbde90a3c	-0.11378905
114	0x3d8ceaae	0.06880699
115	0xbe0e8a29	-0.13919891
116	0xbccaa335	-0.024736026
117	0x3a3c8bcd	0.0007192463
118	0xbe3bd8a7	-0.18344365
119	0xbd87b415	-0.06626145
120	0xbe1176cd	-0.14205475
121	0x3e2095be	0.15682122
122	0x3d358485	0.044315834
123	0x3d770609	0.06030849
124	0xbd5350d2	-0.051590748
125	0xbe27f3d0	-0.16401601
126	0xbd8d2f35	-0.0689377
127	0xbdb9662a	-0.090526894
128	0xbb0536b3	-0.0020326793
129	0x3d6845dc	0.056707248
130	0x3cd8befe	0.02645826
131	0x3bec43a1	0.0072102104
132	0xbdec13ae	-0.11527191
133	0x3d45db37	0.048304763
134	0x3cf970e8	0.030449346
135	0x3da830f2	0.082124606
136	0x3dc8356c	0.097758144
137	0x3d7242b7	0.059145655
138	0x3d03c19c	0.032167062
139	0xbdeacd5a	-0.11464949
140	0x3d708806	0.058723472
141	0xbd66001c	-0.056152448
142	0xbe903f35	-0.28173223
143	0xbe979a4b	-0.29609904
144	0x3d0ebc01	0.034847263
145	0xbc9e629b	-0.019334128
146	0x3d9c0e33	0.07619896
147	0x3d990308	0.07471281
148	0xbdb5cf65	-0.08877448
149	0x3c318a95	0.010836263
150	0xbe6af9d5	-0.22946866
151	0xbc80df3c	-0.015731446
152	0x3e1a8d43	0.1509295
153	0xbd415888	-0.04720357
154	0xbd0e2ed1	-0.034712616
155	0xbe5b93dc	-0.21443123
156	0x3e3221e3	0.1739574
157	0xbe42a2a4	-0.19007355
158	0xbcd1c732	-0.025607679
159	0xbd5b9c0f	-0.053615626
160	0xbe34f060	-0.17669821
161	0x3d37dd00	0.044888496
162	0x3e103c40	0.14085484
163	0xbe04b20f	-0.12958549
164	0xbe22d835	-0.15902789
165	0xbd9facab	-0.07796606
166	0xbea2170f	-0.31658217
167	0x3bb012c2	0.00537333
168	0xbe880551	-0.26566556
169	0xbe4eda42	-0.20200446
170	0x3d178060	0.036987662
171	0x3e36d811	0.1785586
172	0xbeaa4e64	-0.33262932
173	0xbd511a64	-0.05105056
174	0xbe006aa9	-0.12540688
175	0xbd7ad947	-0.061242368
176	0xbd47cfcd	-0.04878216
177	0xbcb0c566	-0.021578502
178	0xbde67ca8	-0.11254245
179	0x3d4ec440	0.050480127
180	0x3c3151b1	0.010822699
181	0x3dc0e0f8	0.094179094
182	0xbe08e523	-0.13368659
183	0xbb07b395	-0.0020706404
184	0xbd87b52d	-0.066263534
185	0x3e2dd811	0.16976954
186	0x3d1aaeac	0.037764236
187	0x3ddbf6be	0.10740422
188	0x3d6d5c57	0.05794939
189	0xbd96ce5e	-0.0736358
190	0xbe3c2611	-0.18373896
191	0xbeb65563	-0.3561202
192	0xbe7cf47d	-0.2470264
193	0xbe8ba362	-0.2727309
194	0x3e9dc5ff	0.30815122
195	0x3df23d35	0.118280806
196	0xbc269e19	-0.010169529
197	0xbd8da5af	-0.06916367
198	0xbdcdd81b	-0.100509845
199	0x3c1af0f0	0.009456858
200	0x3cb48c2f	0.022039501
201	0xbe1ec9ea	-0.15506712
202	0xbd8b1d34	-0.067926794
203	0x3e58eeea	0.21184888
204	0x3de78fa7	0.113066964
205	0xbe299776	-0.16561684
206	0xbd104e68	-0.035231024
207	0x3e8551c7	0.26038954
208	0x3e20d962	0.15707925
209	0x3e168e23	0.14702658
210	0xbe9a117c	-0.30091465
211	0xbdb2175d	-0.086958624
212	0x3ea2ac48	0.31772065
213	0x3e336b06	0.17521295
214	0xbd7f3c27	-0.062313225
215	0xbd78049a	-0.060551263
216	0x3e861177	0.261852
217	0x3babbd9f	0.0052411105
218	0x3d24bac0	0.04021716
219	0x3d45f677	0.04833075
220	0xbcf5ee7f	-0.03002095
221	0x3ecc2b12	0.3987661
222	0x3d154a80	0.036448
223	0x3e28c4f0	0.16481376
224	0xbcad5fcb	-0.021163842
225	0x3e08de4c	0.1336605
226	0x3f161fc8	0.58642244
227	0x3e1e66da	0.15468922
228	0xbc8641cf	-0.016388802
229	0xbd765b6a	-0.060145773
230	0x3e2e8b2c	0.17045277
231	0x3e8a419a	0.27003175
232	0xbd7384dd	-0.05945288
233	0x3d94e1d0	0.07269633
234	0x3dadefb7	0.084929876
235	0x3e999e14	0.30003417
236	0x3dcbb42d	0.09946475
237	0x3dda5806	0.106613204
238	0xbea4ffb0	-0.32226324
239	0xbce154dc	-0.027506284
240	0xbeaf0d27	-0.34189722
241	0x3da9c2d0	0.08289111
242	0xbd50f1cf	-0.051011857
243	0xbe54730f	-0.20747016
244	0xbd89a115	-0.06720177
245	0xbe20b821	-0.1569524
246	0x3df7e67f	0.121045105
247	0xbe070c3d	-0.13188262
248	0x3e352876	0.17691216
249	0x3df09840	0.117477894
250	0xbd8ce85e	-0.06880258
251	0xbe77fab2	-0.24216726
252	0xbd14a52e	-0.03629034
253	0x3df877ac	0.121322006
254	0x3de165d0	0.11005747
255	0x3d1fcecf	0.039015587

actor.4.bias f4 [64]
0	0x3cee62f7	0.029099924
1	0xbc80e63c	-0.015734784
2	0x3d5b73ac	0.05357711
3	0x3d207bb8	0.039180487
4	0x3dd2d64b	0.102947794
5	0x3d066e57	0.032820072
6	0x3b0b2147	0.0021229552
7	0x3df98afe	0.12184714
8	0x3e0a77fa	0.1352233
9	0x3d8d1446	0.068886325
10	0xbcecddca	-0.028914351
11	0x3e18b8fe	0.14914319
12	0x3bfd92e4	0.007738458
13	0x3c261eb6	0.010139158
14	0x3d2b3e1e	0.041807286
15	0x3e05963b	0.1304559
16	0x3cc1b433	0.023645496
17	0xbc440788	-0.011964686
18	0x3dd7d8a5	0.105393685
19	0x3d8f86ea	0.07008155
20	0x3da05d21	0.07830263
21	0x3d57e9d6	0.052713238
22	0x3ba562c1	0.005047173
23	0xb9ce94ce	-0.0003940225
24	0xbaad3f0e	-0.0013217644
25	0x3ccc97f1	0.024974795
26	0x3da5532b	0.08072504
27	0x3dd9b601	0.106304176
28	0x3dc6f70e	0.09715091
29	0x3dab1498	0.08353537
30	0x3d3f4a14	0.046701506
31	0x3d8e68da	0.069535926
32	0x3da92425	0.08258847
33	0x3e04610c	0.12927645
34	0x3e12c154	0.14331561
35	0x3bc923d2	0.0061383033
36	0x3e147101	0.14496233
37	0x3c7bbf12	0.015365379
38	0xbd4489d3	-0.047983002
39	0xbd077740	-0.03307271
40	0x3d94b179	0.07260413
41	0x3bf33428	0.007421989
42	0x3e080335	0.13282473
43	0x3d0e40eb	0.03472988
44	0xbc1d7d16	-0.009612342
45	0x3b6501aa	0.0034943619
46	0x3dfaf414	0.122535855
47	0x3ded21be	0.115787014
48	0x3ca28f4b	0.019843718
49	0x3dac4b9b	0.08412858
50	0x3b669538	0.0035184156
51	0x3d4fa1cd	0.050691415
52	0x3db597a9	0.088668175
53	0x3d11e035	0.03561421
54	0xbc9ea53f	-0.019365905
55	0x3e12a0d9	0.14319171
56	0x3d960c5a	0.073265746
57	0x3e01bce8	0.12669718
58	0x3d09bf82	0.0336299
59	0x3cb8e263	0.022568887
60	0x3dc8e1c5	0.09808687
61	0x3c3610f8	0.011112444
62	0x3d0b1461	0.03395498
63	0xbd29a8fd	-0.041420925

actor.6.weight f4 [16, 64]
0	0x3e04cde4	0.12969166
1	0xbd52d0f3	-0.0514688
2	0xbdaa68a4	-0.0832074
3	0x3e689a14	0.22715026
4	0x3e804842	0.25055128
5	0x3e63fd3c	0.2226457
6	0x3c8b8383	0.017030483
7	0x3d803219	0.06259555
8	0xbd6803b2	-0.05664415
9	0x3d83b32c	0.06430659
10	0x3d829f46	0.06378035
11	0xbe7e42fe	-0.24830243
12	0x3dc366c5	0.09541086
13	0xbd385811	-0.04500586
14	0xbed482e2	-0.41506106
15	0xbe33df3c	-0.17565626
16	0xbef73bdf	-0.48287866
17	0xbefae81f	-0.4900522
18	0xbd9bde05	-0.07610706
19	0x3ea2c83e	0.31793398
20	0x3df2144e	0.11820279
21	0x3e74b76e	0.23898098
22	0xbe32e5f5	-0.17470534
23	0xbea275c2	-0.31730467
24	0x3e267306	0.16254815
25	0x3e5f0181	0.21777917
26	0x3e5828d6	0.21109328
27	0xbe66fba1	-0.22556926
28	0x3e1f0a5d	0.15531297
29	0xbead21a3	-0.33814725
30	0x3e179ce4	0.14805943
31	0x3d4d9ad8	0.0501965
32	0x3e486062	0.19568017
33	0xbbbca993	-0.0057575195
34	0xbe991505	-0.2989885
35	0xbd8a8419	-0.06763477
36	0xbeae66ce	-0.3406281
37	0xbe4fe548	-0.20302308
38	0x3e1b5d24	0.15172249
39	0x3d9d7d5b	0.07689925
40	0x3e463380	0.19355583
41	0x3e24c064	0.16089016
42	0xbe2db52f	-0.16963647
43	0xbe72b31f	-0.23701142
44	0x3eb87e28	0.3603375
45	0x3deba543	0.115061305
46	0xbca2cc2d	-0.01987275
47	0xbeb66345	-0.35622612
48	0x3e111d4b	0.1417133
49	0x3dfa8a52	0.12233414
50	0x3e32049e	0.17384574
51	0x3e127e00	0.14305878
52	0x3d240e1d	0.040052522
53	0xbe7222cf	-0.23646091
54	0x3efc476e	0.49273247
55	0xbee5d309	-0.4488757
56	0x3d7691a2	0.06019748
57	0x3e1db18e	0.15399763
58	0xbed31f98	-0.41235042
59	0x3d5be692	0.053686686
60	0xbe292c15	-0.16520722
61	0x3d88e705	0.066846885
62	0xbd8e8391	-0.06958688
63	0x3e79b5a0	0.2438569
64	0x3e32c3d8	0.17457521
65	0x3ea4114f	0.32044455
66	0x3e15fb32	0.14646605
67	0x3e4f4a36	0.20243153
68	0xbe86a260	-0.26295757
69	0xbeb4c89b	-0.353093
70	0xbea73358	-0.3265636
71	0xbeb4bc64	-0.3529998
72	0x3e5a14a2	0.21296933
73	0x3d52aee6	0.051436327
74	0x3e2cc373	0.16871433
75	0x3e5e5dc6	0.21715459
76	0x3e8e73c7	0.27822706
77	0x3d2e8d02	0.042614944
78	0xbe36c95b	-0.17850249
79	0xbe41fdaf	-0.18944429
80	0x3d6d6b95	0.057963926
81	0x3eac6c8f	0.33676574
82	0xbd70d5a1	-0.058797482
83	0xbe8d5ae0	-0.27608395
84	0x3e157575	0.14595588
85	0x3dc8c0e0	0.09802413
86	0xbeac7fb5	-0.33691183
87	0x3e41218d	0.18860455
88	0xbe8a3e21	-0.27000526
89	0x3d0afe3f	0.033933874
90	0xbe4172cf	-0.18891452
91	0x3ded10ed	0.11575494
92	0x3ddf302d	0.10897861
93	0xbe19a368	-0.15003741
94	0xbe51620f	-0.20447563
95	0x3e92a7e2	0.2864371
96	0x3e13f6f4	0.14449674
97	0x3e3c5c79	0.1839465
98	0x3e7b1ebc	0.24523443
99	0xbea31929	-0.31855133
100	0xbe8c25e5	-0.2737266
101	0x3eaf096a	0.3418687
102	0x3eb22a26	0.34797782
103	0xbe9a271c	-0.30107963
104	0x3e59c094	0.21264869
105	0x3de2c22e	0.11072193
106	0x3e549eb8	0.20763671
107	0x3ecac6b3	0.3960472
108	0x3d20ab6b	0.039225977
109	0x3eb316a2	0.34978205
110	0xbebfae1b	-0.3743752
111	0xbe5afa3d	-0.21384521
112	0xbe8260a7	-0.25464365
113	0x3e2107d1	0.15725638
114	0xbea2e1de	-0.31812948
115	0xbf02ba94	-0.51065946
116	0x3c344b88	0.011004336
117	0x3e24352d	0.1603591
118	0xbeb8a6ec	-0.3606485
119	0x3e8c6ec0	0.27428246
120	0xbed5d633	-0.41764984
121	0x3c93d985	0.018048057
122	0x3e04f50e	0.12984106
123	0x3e6df266	0.23236999
124	0xbd6e008c	-0.05810599
125	0xbe9bf8df	-0.3046331
126	0x3e9c1f80	0.30492783
127	0x3e5cbca6	0.21556339
128	0xbe986226	-0.2976238
129	0x3d02c039	0.0319216
130	0x3e55e8c9	0.20889582
131	0xbe7ac924	-0.24490792
132	0xbec4981f	-0.3839731
133	0xbe0812e2	-0.13288453
134	0x3ce7d7d0	0.02830115
135	0x3eb01c5c	0.34396636
136	0xbe3890bb	-0.1802396
137	0xbe6bf380	-0.23042107
138	0x3ebc4138	0.36768508
139	0x3d0b0c03	0.033947002
140	0xbe9e63b9	-0.30935457
141	0xbeb43cdc	-0.35202682
142	0x3ed5e628	0.41777158
143	0xbd543770	-0.05181068
144	0x3e77c0f4	0.241947
145	0xbe50d49e	-0.20393607
146	0x3e127721	0.14303257
147	0xbef22e45	-0.47300926
148	0xbe92fc7d	-0.28708258
149	0xbeb5b43e	-0.35489076
150	0x3c63010d	0.013855231
151	0xbe8327fa	-0.25616437
152	0xbe950c19	-0.29110792
153	0x3d5e1fd2	0.054229565
154	0xbbc286bb	-0.0059364713
155	0xbdbeb944	-0.0931268
156	0xbea1c042	-0.31591994
157	0x3e85fab6	0.2616784
158	0xbde7d278	-0.113194406
159	0x3de12728	0.109937966
160	0xbdf60bd3	-0.12013974
161	0xbeb74e8d	-0.35802117
162	0x3e30852b	0.172383
163	0xbe86ab02	-0.26302344
164	0x3e8fac15	0.28060976
165	0x3ea28b3e	0.31746858
166	0xbe2735c1	-0.16329099
167	0x3e8677aa	0.2626317
168	0xbe2d9c03	-0.16954045
169	0xbe889c52	-0.26681763
170	0xbe7463ab	-0.23866145
171	0x3f0097c3	0.5023157
172	0xbeabc423	-0.33548078
173	0x3e88b260	0.2669859
174	0xbe601214	-0.21881896
175	0x3e867064	0.26257622
176	0xbe54c3d5	-0.20777829
177	0x3e270a17	0.16312443
178	0x3c2bc896	0.010484835
179	0x3e5584ce	0.20851442
180	0x3d284de8	0.041089922
181	0x3e6e9315	0.23298295
182	0x3db54422	0.08850886
183	0x3e27b2de	0.16376826
184	0x3e5fedea	0.21868101
185	0xbdc621e9	-0.096744366
186	0x3c8a0ddf	0.016852317
187	0x3e5a62b8	0.2132672
188	0x3cb4066c	0.021975718
189	0x3e1a29a0	0.15054941
190	0xbe8d89cf	-0.27644202
191	0xbeba8567	-0.36429903
192	0x3df1698a	0.11787708
193	0x3eb4f13c	0.35340297
194	0x3e88341f	0.26602265
195	0xbea445eb	-0.32084593
196	0x3ea8f118	0.3299644
197	0xbe2606b5	-0.16213496
198	0x3e7b51e9	0.24542965
199	0x3e914bdd	0.28378192
200	0x3eadb140	0.33924294
201	0x3e2ba982	0.16763881
202	0xbecf02e4	-0.40431893
203	0xbde2c890	-0.110734105
204	0xbe7c7408	-0.24653637
205	0x3e151708	0.14559567
206	0xbf0c89d3	-0.54897803
207	0x3ec6397e	0.38715738
208	0x3cde76c8	0.027156249
209	0xbe1dfb68	-0.15427935
210	0xbd0e73b6	-0.03477832
211	0xbeb00469	-0.34378365
212	0x3cb7b85f	0.022426782
213	0x3c39378d	0.011304748
214	0x3de31643	0.110882305
215	0xbdfce908	-0.12349135
216	0xbefa8327	-0.48928186
217	0x3e939269	0.2882264
218	0x3ebcee17	0.36900398
219	0xbda0fa44	-0.078602344
220	0xbe0372fc	-0.12836832
221	0x3ec19668	0.37810063
222	0xbe8d179a	-0.2755707
223	0xbdeac890	-0.114640355
224	0xbd16934c	-0.036761567
225	0x3c845d93	0.0161579
226	0x3da58574	0.08082095
227	0xbe85c693	-0.26128063
228	0x3d5f2cc0	0.054486036
229	0xbe66fa6a	-0.22556463
230	0xbeab1ce3	-0.33420476
231	0xbd777ab8	-0.060419768
232	0xbdb5676c	-0.08857617
233	0x3e950be1	0.29110625
234	0x3f158a1b	0.5841386
235	0xbf1449c3	-0.5792505
236	0x3e683978	0.22678173
237	0x3eb64053	0.3559595
238	0xbe9b34f1	-0.3031383
239	0x3e8c6e78	0.2742803
240	0xbe3f052a	-0.18654314
241	0x3eea2888	0.45734048
242	0xbe562962	-0.20914224
243	0x3e7904a4	0.24318177
244	0xbde069d3	-0.10957684
245	0xbe11510b	-0.14191072
246	0xbebf90cc	-0.3741516
247	0xbe0e8da3	-0.13921218
248	0x3d89cb33	0.0672821
249	0xbea0a750	-0.3137765
250	0xbea502b0	-0.32228613
251	0x3de95e9e	0.11395
252	0xbe915638	-0.28386092
253	0xbe44a978	-0.19205272
254	0x3e2a1122	0.16608098
255	0xbe8cd8da	-0.27509195

actor.6.bias f4 [16]
0	0xbc68265c	-0.014169302
1	0xbdc071b2	-0.09396686
2	0xbdae3eed	-0.08508096
3	0xbcfbba3e	-0.030728456
4	0x3d92a9d9	0.07161302
5	0xbc4e4f4d	-0.012592149
6	0xbd6f4852	-0.05841858
7	0x3dad1da5	0.0845292
8	0xbd5b52a6	-0.053545617
9	0x3d823a36	0.06358759
10	0xbdf95b17	-0.12175577
11	0xbd564967	-0.052316096
12	0xbd1cd3d8	-0.038287967
13	0xbd9b73e9	-0.075904675
14	0xbd6f7d8a	-0.058469333
15	0xbd1d37f6	-0.038383447

critic.0.weight f4 [128, 30]
0	0xbe64be72	-0.22338274
1	0xbe4d5b3f	-0.20054339
2	0xbe87f0f7	-0.2655103
3	0xbd800922	-0.06251742
4	0x3dd9ddc9	0.10638005
5	0xbef2881b	-0.47369465
6	0xbe93a697	-0.28838035
7	0x3d8d3afc	0.06896016
8	0x3de2ea00	0.11079788
9	0xbc9b5f96	-0.018966477
10	0xbf26fc28	-0.6522851
11	0xbc9952e3	-0.018716281
12	0xbd721e54	-0.059110954
13	0x3de32fda	0.11093111
14	0x3dc832b2	0.09775294
15	0x3d76ec7f	0.060284134
16	0xbe8b6836	-0.27227944
17	0xbcef7a8a	-0.029233236
18	0xbe998fb6	-0.29992455
19	0x3ea28ccd	0.31748047
20	0x3e784ffd	0.24249263
21	0xbe3970ec	-0.18109483
22	0x3dd4d58b	0.103922926
23	0xbe14d9ca	-0.14536205
24	0xbf0a801a	-0.5410172
25	0xbe694fcb	-0.22784345
26	0x3f81b9f7	1.0134877
27	0x3f06188c	0.52381206
28	0xbfb30400	-1.3985596
29	0x3e7f4c44	0.24931437
30	0xbd8166a7	-0.063184075
31	0x3ea32859	0.3186672
32	0x3f0508d9	0.51966625
33	0x3f245090	0.6418543
34	0x3f5f352e	0.8719052
35	0x3ee8d82a	0.4547742
36	0x3c35474d	0.011064363
37	0x3e873b83	0.2641259
38	0xbcf3bc6c	-0.029752932
39	0xbd57c9c2	-0.052682646
40	0x3ee8cc3d	0.4546832
41	0x3e2df54f	0.16988109
42	0x3eb2652c	0.34842813
43	0x3e5fd5bf	0.21858881
44	0x3e64ed6a	0.22356191
45	0xbe50d374	-0.20393163
46	0xbd781452	-0.060566254
47	0x3e2619c9	0.16220774
48	0xbf7288b3	-0.94739836
49	0x3e1a4c93	0.15068273
50	0xbde34420	-0.11096978
51	0x3e25203e	0.1612558
52	0x3e168b43	0.14701562
53	0x3e90ed5c	0.2830609
54	0x3d4c0286	0.049807094
55	0x3cf8346f	0.03029844
56	0xbe89f67c	-0.26945865
57	0xbe26d120	-0.16290712
58	0xbf9b2649	-1.2121059
59	0xbdfccfa6	-0.12344293
60	0x3e18140d	0.14851399
61	0x3e63a204	0.22229773
62	0x3ea4a89b	0.32159886
63	0x3e686f73	0.22698765
64	0x3e6af59f	0.2294526
65	0x3e15b705	0.14620598
66	0xbf016626	-0.5054649
67	0xbdc2a0ba	-0.095033124
68	0x3dc95708	0.09831053
69	0xbd9919b5	-0.07475606
70	0x3e86f343	0.2635747
71	0x3afa56be	0.0019099338
72	0x3e28e242	0.1649256
73	0x3de35d4b	0.111017786
74	0x3e0d7de5	0.13817556
75	0x3d71a240	0.058992624
76	0xbc49ccb0	-0.012316868
77	0xbe1e2029	-0.15441956
78	0xbe130332	-0.14356688
79	0x3e83cac7	0.25740644
80	0x3c4a2a8a	0.012339244
81	0xbe111294	-0.14167243
82	0x3e012212	0.12610653
83	0xbe487707	-0.19576655
84	0x3ea6d2af	0.32582614
85	0xbe45737f	-0.1928234
86	0xbeb0f00e	-0.34558147
87	0x3d0a270d	0.033728648
88	0xbfb19071	-1.3872205
89	0xbea03747	-0.31292173
90	0xbe32b353	-0.1745122
91	0xbddf0533	-0.108896635
92	0xbe8399f3	-0.2570339
93	0xbe433cac	-0.19066113
94	0xbeb2431f	-0.34816834
95	0x3f56db75	0.83928615
96	0xbdba5726	-0.090986535
97	0x3e11ca3a	0.142373
98	0xbe7537d5	-0.2394708
99	0xbe8d3696	-0.27580708
100	0x3f04e3ab	0.51909894
101	0xbe5bf717	-0.21480976
102	0x3e0010d6	0.12506422
103	0xbf101d3f	-0.56294626
104	0xbee1f174	-0.44129527
105	0xbd938f02	-0.07205011
106	0x3e1e000e	0.15429708
107	0x3e5888a2	0.21145871
108	0x3e3b747f	0.18306158
109	0x3e299a38	0.16562736
110	0xbf633cc7	-0.88764614
111	0x3ce968ce	0.028492358
112	0xbd8213f0	-0.06351459
113	0xbf0fd2d3	-0.5618107
114	0x3d937308	0.07199675
115	0x3e410e7a	0.18853179
116	0xbf8aa75a	-1.0832322
117	0x3e1dc222	0.15406087
118	0x3e553912	0.20822552
119	0x3e9d27ee	0.30694526
120	0x3eb82be9	0.35971
121	0x3f005fca	0.5014616
122	0x3ec4237c	0.38308322
123	0x3e2a5c6c	0.16636819
124	0x3e9a51c8	0.3014052
125	0x3ee5c070	0.4487338
126	0x3f47b171	0.7800513
127	0x3e66cc95	0.2253898
128	0x3f0af6f9	0.542831
129	0x3f21bcfb	0.63178986
130	0xbee18014	-0.44043028
131	0x3e9fe0ab	0.31226096
132	0x3ee9913f	0.45618626
133	0x3ed95cc3	0.42453584
134	0x3e419aec	0.18906754
135	0x3da030a5	0.07821778
136	0xbcd70cb6	-0.026251178
137	0x3e9e5ffc	0.30932605
138	0xbe95b699	-0.29240873
139	0x3de304a1	0.11084867
140	0x3e137b3f	0.14402483
141	0xbd9fe92f	-0.07808148
142	0x3e648230	0.22315288
143	0x3e523d44	0.20531183
144	0x3e6c096a	0.23050466
145	0x3e053f7d	0.130125
146	0xbe86887f	-0.26276013
147	0xbeaa0c9c	-0.33212745
148	0xbedb36db	-0.4281529
149	0x3eea7a0a	0.45796233
150	0xbe458a3f	-0.19291018
151	0xbe3d8038	-0.18505943
152	0xbea8d30d	-0.3297352
153	0xbc8c6620	-0.01713854
154	0xbedffb38	-0.43746352
155	0x3f20c4d3	0.6280033
156	0x3e309107	0.17242824
157	0xbc24cee7	-0.010059095
158	0xbeeb9a96	-0.46016377
159	0x3cdd1593	0.026987826
160	0xbd7bc219	-0.061464403
161	0xbe0d0731	-0.13772275
162	0x3e6b48fe	0.22977063
163	0xbe590c3f	-0.21196078
164	0xbda9817a	-0.08276649
165	0x3d52b598	0.051442713
166	0x3e0ec14b	0.13940923
167	0xbea715b0	-0.32633734
168	0xbea18170	-0.31544065
169	0xbe1ed741	-0.155118
170	0xbf7451ca	-0.954373
171	0xbd01d818	-0.031700224
172	0x3e3ee095	0.18640359
173	0xbebb899c	-0.36628425
174	0x3d3ba4d4	0.04581149
175	0x3eaf50f6	0.34241456
176	0xbd5c19d8	-0.053735584
177	0xbe81d880	-0.2536049
178	0xbeae3a42	-0.34028822
179	0xbb04d542	-0.0020268713
180	0x3ea0807a	0.3134802
181	0x3e85b815	0.26117006
182	0x3eec5a34	0.4616257
183	0x3dff46df	0.124646895
184	0xbedf8a12	-0.43660027
185	0x3f70b5cb	0.94027394
186	0x3ef4f524	0.47843277
187	0x3f13bcfe	0.57710254
188	0x3f1dadd0	0.6159334
189	0x3f7162ec	0.9429157
190	0x3e0f51b3	0.1399601
191	0x3e09a7de	0.13442943
192	0x3ed545ec	0.4165491
193	0x3f32a657	0.69785064
194	0x3f39cd88	0.7257924
195	0xbe1e1079	-0.15435971
196	0x3da232a1	0.07919813
197	0x3d76e243	0.060274374
198	0xbee02849	-0.43780735
199	0xbf01b06c	-0.50659823
200	0xbe7c8dca	-0.24663463
201	0xbdf23c1b	-0.118278705
202	0x3e868fce	0.2628159
203	0x3f0482bc	0.51761985
204	0x3e5bdf4d	0.21471901
205	0x3e1ca42a	0.15296999
206	0x3ed6e010	0.4196782
207	0x3e2be5c0	0.16786861
208	0xbeb9bb20	-0.36275578
209	0x3ec1df5b	0.3786572
210	0xbf1515b2	-0.5823623
211	0xbf36bac5	-0.7137874
212	0xbf14420c	-0.5791328
213	0xbf2d14b6	-0.6760973
214	0xbf3af4fb	-0.7303006
215	0x3e864f5e	0.26232427
216	0xbd4f67f3	-0.050636243
217	0xbeae410d	-0.34034005
218	0x3d9e1c72	0.07720269
219	0xbe316995	-0.17325433
220	0xbeecb2d4	-0.46230185
221	0xbe37a1c4	-0.17932802
222	0xbf2436cd	-0.6414612
223	0xbe63e710	-0.22256112
224	0x3da4f3d0	0.08054316
225	0x3d60a526	0.054844998
226	0xbdf61ebf	-0.12017583
227	0xbca2f5b0	-0.019892544
228	0x3e027d9e	0.12743232
229	0xbe32ce77	-0.17461573
230	0x3ecfbf21	0.40575507
231	0xbdb91eec	-0.09039101
232	0xbec31408	-0.3810122
233	0xbecfd86b	-0.405948
234	0x3e12a2cb	0.14319913
235	0x3ec3a1a7	0.38209268
236	0x3d6fe4df	0.058567878
237	0x3f86c816	1.0529811
238	0x3eea459f	0.45756242
239	0xbd125c8f	-0.035732802
240	0x3c9e938d	0.019357467
241	0xbdcca771	-0.099928744
242	0xbeedf0cb	-0.46472773
243	0xbf199156	-0.5998739
244	0xbf80c706	-1.0060737
245	0x3dff6ff7	0.124725275
246	0x3e8cb4b5	0.2748162
247	0x3e55d9a3	0.20883803
248	0x3c4b85b5	0.012422015
249	0xbe281de2	-0.1641765
250	0xbbd081bc	-0.006363122
251	0x3d15874d	0.036505986
252	0x3e18ee73	0.14934711
253	0xbef1ad1a	-0.4720238
254	0xbe16f960	-0.14743567
255	0xbf666630	-0.89999676

critic.0.bias f4 [128]
0	0xbed2878b	-0.41119036
1	0x3d4a7e1d	0.049436677
2	0x3e6893c9	0.22712626
3	0xbe1181b8	-0.1420964
4	0x3eb91d22	0.3615504
5	0x3e442318	0.19154012
6	0x3daa61c1	0.08319426
7	0xbdf3bdaf	-0.11901414
8	0xbe93aba0	-0.28841877
9	0xbe868f17	-0.26281044
10	0x3d84b29b	0.06479379
11	0xbd7aa19d	-0.061189283
12	0x3b8bd8c8	0.0042677857
13	0x3e902c24	0.28158677
14	0xbdfc6624	-0.12324169
15	0xbe415aed	-0.18882342
16	0xbd8c0eb9	-0.068387456
17	0x3d9d20c0	0.07672262
18	0xbda6572b	-0.08122095
19	0xbea0a239	-0.31373766
20	0x3ef16565	0.4714767
21	0x3e498c90	0.19682527
22	0xbebc38ad	-0.3676199
23	0xbea693d6	-0.32534665
24	0x3e808f79	0.2510946
25	0x3db4b95b	0.08824416
26	0xbe9907c2	-0.2988873
27	0xbe335a8f	-0.17515014
28	0xbdf73f39	-0.12072606
29	0xbed39478	-0.4132421
30	0x3d726ccf	0.0591858
31	0xbf0ad626	-0.54233015
32	0xbe871ce3	-0.26389226
33	0xbbfca413	-0.007709989
34	0xbd88a8eb	-0.066728435
35	0xbda55359	-0.08072538
36	0xbe713cb1	-0.23558308
37	0x3f3c19a7	0.7347664
38	0xbd76499d	-0.060128797
39	0xbe98d614	-0.2985083
40	0x3e306ea2	0.17229703
41	0x3edc3d9d	0.43015757
42	0xbe2e2a4a	-0.1700832
43	0xbd5e7af7	-0.054316487
44	0xbdc28b46	-0.094992206
45	0xbe85c727	-0.26128504
46	0x3dc13d60	0.094355345
47	0x3e7faa44	0.24967295
48	0xbf1ef5bd	-0.62093717
49	0xbddbd0eb	-0.10733207
50	0xbc93cad8	-0.01804106
51	0x3d1e8e39	0.038709853
52	0xbea056c8	-0.3131621
53	0x3dd8b9fc	0.10582349
54	0xbe8b82d5	-0.27248254
55	0xbabf21b0	-0.0014582183
56	0x3eb8172d	0.35955182
57	0xbeabebad	-0.33578244
58	0x3eb81ad0	0.35957956
59	0x3e12d71e	0.14339873
60	0xbb8dc01f	-0.004325881
61	0x3a7d3c7f	0.00096601987
62	0xbe41ebab	-0.18937556
63	0xbd93b442	-0.07212116
64	0xbe06bde3	-0.13158374
65	0xbf0c5c7f	-0.5482864
66	0xbe618386	-0.22022828
67	0x3d4b18e7	0.049584296
68	0xbcfd3eb5	-0.03091369
69	0x3bf680c9	0.0075226766
70	0xbef6fbe1	-0.48239043
71	0x3e6eee08	0.23332989
72	0x3dad60ba	0.08465715
73	0xbdc4fc60	-0.09618449
74	0xbe010708	-0.12600338
75	0xbd8eb3b6	-0.06967871
76	0x3bb60767	0.0055550816
77	0xbe28c7d3	-0.16482477
78	0xbeaabaf8	-0.3334577
79	0x3e7a90f0	0.24469352
80	0xbf0654e8	-0.52473307
81	0xbeaa3968	-0.33246922
82	0xbdf7b86f	-0.12095725
83	0xbccd0c0d	-0.02503016
84	0xbe10ecd8	-0.14152849
85	0xbe2c0daa	-0.16802087
86	0x3ebb061e	0.36528105
87	0xbe27ddce	-0.16393206
88	0x3d35a6fd	0.044348706
89	0x3e98220d	0.2971348
90	0xbe3efdbc	-0.1865148
91	0xbe873206	-0.26405352
92	0xbeaa71f8	-0.33290076
93	0xbe9c4066	-0.30517882
94	0x3e81d927	0.25360987
95	0xbdf1d492	-0.11808123
96	0xbe5e0ca1	-0.21684505
97	0x3c89f7ab	0.01684173
98	0xbd72d51c	-0.05928527
99	0xbefa2578	-0.4885671
100	0xbecb67aa	-0.39727527
101	0x3eacec31	0.3377395
102	0xbda6ab7b	-0.08138176
103	0xbdb53065	-0.08847121
104	0xbd9612df	-0.07327818
105	0x3f10b069	0.5651918
106	0xbe2d6b9e	-0.16935584
107	0x3e9c81ff	0.3056793
108	0xbed9874c	-0.42486036
109	0xbea07cff	-0.31345364
110	0xbe153daa	-0.14574304
111	0xbc1f6231	-0.0097280005
112	0xbd732e75	-0.059370477
113	0xbe683fd6	-0.22680601
114	0x3e63d93b	0.22250836
115	0x3ddca2b9	0.107732244
116	0xbe4b0b8f	-0.19828628
117	0x3ddab986	0.10679917
118	0x3e839459	0.25699118
119	0xbea29b28	-0.31759
120	0x3d9979f0	0.07493961
121	0x3e2ccc07	0.16874705
122	0xbe9f0496	-0.31058186
123	0x3dad9b51	0.0847689
124	0x3e86970d	0.26287118
125	0x3e3ff0a6	0.18744144
126	0xbed80433	-0.42190704
127	0x3f1c304e	0.6101121
