PPO_preTrained/lstm/PPO_lstm_0_125.pth (torch, 126353 bytes, 27 tensors)

lstm_actor.weight_ih_l0 f4 [40, 1]
00000000: 204d 233e 6372 43be 4f3a 06be b37c 8dbe
00000010: 9018 333e d906 97be 1e52 273e ae7c 483e
00000020: c279 743e b21f ddbd 3ed8 553e fb37 07be
00000030: c958 9a3e e8d2 573d 3823 4cbd e0b9 e13d
00000040: 4e35 4e3e 9635 513e 58d9 e43d 0018 1dbc
00000050: 95fb 87be b642 07be 98ed 613d a218 8cbe
00000060: c0eb ac3d 7636 453e ac72 d8bd c2b0 99be
00000070: dc8b fcbd 3eea 4f3e 42d5 563e c5b9 9c3e
00000080: 008a 8a3b 43e7 0ebe 4ec3 48be 68bb 373d
00000090: e8b0 3abe 1a99 1fbe a6e7 50be 00ed 4fbe
0.1594739 -0.19086604 -0.1310818 -0.276342 0.17489839 -0.29497412 0.16339919 0.19578812
0.23874572 -0.10797061 0.20883271 -0.13204949 0.30145863 0.05269137 -0.049838275 0.11021781
0.20137522 0.20430598 0.111742675 -0.009588242 -0.2655913 -0.13209042 0.055158228 -0.27362543
0.08443403 0.19259056 -0.10568747 -0.30017668 -0.123313636 0.203042 0.20979789 0.3061048
0.0042278767 -0.13955407 -0.19605753 0.04485646 -0.18231547 -0.15585747 -0.20400867 -0.20305252

lstm_actor.weight_hh_l0 f4 [40, 10]
00000000: e2d1 623e 80bc 06bc 823a 783e 7004 58bd
00000010: 9553 813e 268c 6f3e b23e 89be 6401 e83d
00000020: 3093 0abd 28c9 93bd 203e 0fbd a143 02be
00000030: 3cb7 7ebe eada 523e b084 843c 5b58 8c3e
00000040: e829 af3d 4e58 533e 62bd 393e c4a0 be3d
00000050: 9854 ec3d e05a 0abe 63c4 34be e57b 913e
00000060: ffa3 95be 12ee d0bd 4efc 62be 95e8 15be
00000070: 5bea 883e 6641 4fbe c9cd 853e efca 8e3e
00000080: 2ab6 8dbd cb61 6bbe 7d1c 05be 5ccd c93d
00000090: 4a0c 25be 51df 9abe 4829 70bd 709d 4fbd
000000a0: 56ac 463e dc80 963d 00b0 7fbb a5f1 3abe
000000b0: d9ec 1ebe bfa2 963e d8d9 9cbe 00d0 8db9
000000c0: 9804 f0bd 400d 0a3d b0eb 8a3d 971e 91be
000000d0: 9f79 833e 7c24 11be 3132 8e3e 4c78 853d
000000e0: 5b5f 35be 179b 9c3e d305 823e 27f3 55be
000000f0: 2062 7a3c 0a79 08be 1022 343e 58c7 89be
00000100: bdf3 9e3e b887 a63d 8851 e33d c81a 04bd
00000110: ecb5 36be 0048 8e3c 860a 27be c2cc 673e
00000120: d386 a0be e6ea 5bbe e5f6 5bbe f27d 6ebe
00000130: 4b13 953e e09e 09bc 2c4b 7bbe 5018 813c
00000140: c7da 8f3e f855 2e3d 50d9 603d 28d9 f9bd
00000150: 8003 033d 36c8 63be 9e0e 8cbe 5863 2b3d
00000160: c00a 173e deba 6fbe 3c5a 2bbe b06e 51be
00000170: c0d6 5abe c9e4 42be 9000 ef3c e6d1 87bd
00000180: d064 65bd 80ae 243e f87b 95be c8a2 8fbe
00000190: 780b bc3d ad89 44be 4fe0 42be b0ae 173d
000001a0: 2cbd e33d 4d9c 8dbe 600c 09be 282e fd3d
000001b0: 5e87 523e 706b 62bd 96e4 213e 9050 00be
000001c0: 34cc eebd 02f2 063e d2f1 4c3e 7362 23be
000001d0: 70df f53d 54a6 9d3d d43b 153e cea2 bcbd
000001e0: a60f 6e3e c4eb 44be 9cf1 bd3d ddb6 9f3e
000001f0: 5036 97bd faae 573e 30fb cbbc 126c 5d3e
00000200: 67b2 8c3e c07f 8abd 10a7 92be 537d 8c3e
00000210: 70da 9bbe d0bc b8bc 0462 fd3d 9285 713e
00000220: 94d8 bf3d 76e3 4b3e 0308 a13e 7889 083e
00000230: 4ea2 cebd 0811 463d a628 bdbd a8d5 e6bd
00000240: 7cbf a03d 30ae bf3d e8f4 fd3d e269 c9bd
00000250: 6cdf c9bd d16a 963e 9cef ecbd 64c2 46be
00000260: 63bd 8f3e 4ee9 3d3e cd05 90be 10f7 9ebc
00000270: 7e43 76be cea2 6c3e 58b2 4ebe d581 833e
00000280: 98e8 57bd fd46 933e 081d 6cbd 5449 88bd
00000290: e420 53be 30a8 5a3d 7947 20be 50ee 70bd
000002a0: c20e b0bd 4e53 f4bd 3ac5 9ebd 16ef 0f3e
000002b0: 183d 313e 1ce7 e93d 004a 64ba 7637 7d3e
000002c0: c8a6 353d 782a e83d 820f 303e 2cda f7bd
000002d0: aa07 253e 7493 b3bd e68e 92bd b1a7 a03e
000002e0: 2271 433e 008f 26bb eaa3 29be 80b4 62bc
000002f0: c233 013e f870 173d e02e 773d 4fee 43be
00000300: 5a9e f2bd e34f 903e e25b 0abe 30a0 ca3d
00000310: ab52 5abe d007 b6bc 80ce d23b d0d1 cb3c
00000320: f646 373e 5027 753d 3069 b5bc c21c 273e
00000330: 7b12 873e 1d1c 9d3e 7075 c23d ce3d 1c3e
00000340: 840e 6ebe 0091 4d3c 7122 923e 42d7 3a3e
00000350: 741f 12be 481a 9c3d be62 4d3e 9a9d abbd
00000360: d40b 063e 1ca1 e0bd b0a8 373e 0870 81be
00000370: 26b1 a1be 78b3 53be 72d0 9cbd b20b aabd
00000380: b265 463e 0cb6 cf3d 0d38 14be b2f7 0c3e
00000390: 5c4e 90be 7684 88be 147a ba3d fef0 3fbe
000003a0: 0040 d5b9 46ba 583e 89e7 32be d2d1 5d3e
000003b0: 1ac1 423e b444 cf3d e0d4 3e3c d0af 2dbd
000003c0: 6011 6d3d 92af 693e 2fbc 8a3e 20be 293e
000003d0: 20f2 163c 9aff 86be 5edc c4bd e929 9d3e
000003e0: 2c70 7ebe 48dd 2fbd 680d a23d f8a7 e63d
000003f0: 0851 183d ac79 d73d b136 6abe 36dd 9ebe
0.22150376 -0.008223653 0.24241069 -0.052738607 0.2525908 0.23393306 -0.26805645 0.1132839
-0.033831775 -0.07216102 -0.034971356 -0.12721111 -0.24874586 0.20591322 0.016176552 0.2741116
0.08552915 0.20639154 0.1813865 0.09308007 0.115395725 -0.13511229 -0.1765304 0.28414837
-0.29226682 -0.10201658 -0.22166559 -0.14639504 0.267413 -0.20239791 0.26133564 0.278892
-0.06919511 -0.22986524 -0.12999149 0.09853622 -0.16117969 -0.30248502 -0.05863312 -0.050687253
0.19401678 0.07348797 -0.0039014816 -0.18256243 -0.15520038 0.2942104 -0.30634952 -0.00027048588
-0.11719626 0.033704042 0.06783235 -0.2834365 0.25678727 -0.14174074 0.27772668 0.065170854
-0.17712156 0.30587074 0.2539507 -0.20893537 0.015282184 -0.13327423 0.17591119 -0.269099
0.31045333 0.08131355 0.11099535 -0.032252103 -0.17842835 0.017368317 -0.16312608 0.22636703
-0.31352863 -0.21476325 -0.21480902 -0.23290232 0.29116282 -0.008399695 -0.24540395 0.015758663
0.280966 0.042562455 0.054894745 -0.121996224 0.03198576 -0.22244343 -0.27354902 0.04184279
0.14750195 -0.23411128 -0.1673364 -0.2045238 -0.21370983 -0.19032587 0.029175073 -0.06631832
-0.056004345 0.16082191 -0.29196143 -0.2805388 0.09181875 -0.19193144 -0.1903088 0.03703183
0.11120066 -0.2765831 -0.13383627 0.12362319 0.20559451 -0.05527824 0.15809855 -0.12530732
-0.116600424 0.13178256 0.20014122 -0.15955524 0.12005508 0.0769774 0.14573604 -0.0921074
0.23248157 -0.19230562 0.09274599 0.311942 -0.07383406 0.21062842 -0.024900049 0.21623257
0.2747986 -0.06762648 -0.28643084 0.27439365 -0.30440092 -0.02255097 0.123722106 0.2358611
0.09367481 0.19910988 0.31451425 0.1333369 -0.10089551 0.048356086 -0.09236269 -0.112712204
0.07849023 0.093593955 0.12400228 -0.09834649 -0.098570675 0.2937837 -0.11569139 -0.19410092
0.28074178 0.1854603 -0.28129426 -0.019404918 -0.24049184 0.2310898 -0.2018522 0.2568499
-0.052712053 0.28765097 -0.057644874 -0.06654611 -0.20618016 0.053383052 -0.15652265 -0.058821023
-0.08596565 -0.119299516 -0.07752462 0.14056048 0.17308462 0.11421034 -0.00087085366 0.24728188
0.044348508 0.11336225 0.17193416 -0.1210216 0.16116205 -0.08768359 -0.07156162 0.31377938
0.19086125 -0.0025414824 -0.16566435 -0.01383698 0.126174 0.03697297 0.060347438 -0.19133876
-0.118466094 0.2818595 -0.13511613 0.098938346 -0.21320598 -0.022220522 0.006433308 0.02488032
0.17898163 0.059851944 -0.022144884 0.16319564 0.26381287 0.3068551 0.09495056 0.15257952
-0.23247725 0.012546778 0.28541902 0.18246177 -0.14269811 0.076222 0.20057198 -0.083796695
0.1309045 -0.10968229 0.17935443 -0.25280786 -0.31580466 -0.2067393 -0.07656945 -0.08303012
0.19374731 0.101421446 -0.14474507 0.13766363 -0.28184783 -0.2666356 0.09105316 -0.18744275
-0.0004067421 0.21164808 -0.17471136 0.21662071 0.19018975 0.10120526 0.011647433 -0.042403996
0.0578779 0.22820881 0.27096698 0.16576433 0.009213001 -0.26366884 -0.09612344 0.30696037
-0.24847478 -0.04293564 0.07912713 0.11262506 0.037186652 0.10521254 -0.22872426 -0.31028146

lstm_actor.bias_ih_l0 f4 [40]
00000000: 9c57 973d 08a7 6c3d d7ad 35be 4a3a 733e
00000010: 9e57 52be a256 703e f70b 0abe e8e6 9a3d
00000020: 2a20 c5bd 80ae 6f3d 2a35 92be 155a 1fbe
00000030: 069c 87be c0fe 893b c0f4 453d 268e 753e
00000040: 6008 62bd ec1c 80be f50b 11be 6c65 b03d
00000050: 08ae d53d 63ba 99be 10cd fabc a942 853e
00000060: 201e 023c b024 32be 2e5a 81be f8b4 22be
00000070: b09c a43c 8c6d 123e 480e 963d ca53 e9bd
00000080: 60af 1f3e 70dd e4bc 6011 16bc ae43 5cbe
00000090: b20e 9cbd 03ae 9fbe 0c78 eebd aea0 c1bd
0.07389757 0.05777648 -0.17742096 0.23752704 -0.20541236 0.23470548 -0.13481127 0.07563573
-0.096252754 0.058516026 -0.28556186 -0.15561707 -0.26486224 0.004211277 0.048329115 0.23980007
-0.05518377 -0.25022066 -0.14164717 0.08613095 0.104335845 -0.30025014 -0.03061536 0.2602742
0.007941753 -0.17396808 -0.25264114 -0.15889347 0.020094246 0.14299601 0.07326943 -0.113929346
0.15594244 -0.02793762 -0.009159416 -0.21510193 -0.076199904 -0.31187448 -0.11643991 -0.09454475

lstm_actor.bias_hh_l0 f4 [40]
00000000: 0dd3 41be 3cf1 f63d 9205 45be 9cdd f73d
00000010: febc 033e 16d9 1d3e a41f 84be 003a b63b
00000020: 2f4b 73be d0b8 86bd c6dc 433e 2eb3 96be
00000030: fca0 2d3e 404c f8bb e7ba 983e 5a1f 3e3e
00000040: ede2 833e cfd6 5bbe c854 373d 9028 77bd
00000050: 18dc 0f3d f4ec 83be e095 f43c 1033 cdbc
00000060: c41e eb3d 4ad9 cbbd 726e 18be 72c5 a0be
00000070: 5889 2d3d 146f 913d 26af 5a3e 0294 98be
00000080: fecb 5dbe b0d9 1bbe 78a0 87bd 682b 74bd
00000090: 8014 7abe df09 953e 5993 9a3e 8a3a 5e3e
-0.18928166 0.120577306 -0.19240406 0.121028155 0.12865064 0.15414843 -0.2580539 0.0055611134
-0.23759149 -0.06578219 0.19127187 -0.29433578 0.16955942 -0.007577449 0.29830095 0.18566647
0.25759068 -0.21468662 0.044758588 -0.060341418 0.035122007 -0.25766718 0.029856622 -0.025048763
0.114804775 -0.09953554 -0.14885882 -0.3140064 0.04236731 0.071012646 0.21355876 -0.2980042
-0.21659848 -0.1521976 -0.06622404 -0.059611708 -0.24421883 0.29109094 0.30190542 0.21702018

lstm_actor.weight_ih_l1 f4 [40, 10]
00000000: c953 2abe 7ddb 8b3e b28b 7f3e e149 31be
00000010: decb 223e c5c7 89be b432 363e 863d aebd
00000020: f806 6dbe 0ccc 853d 5743 9d3e 2222 593e
00000030: 00fb 343b f6fa 4e3e a894 c63d 3e44 dabd
00000040: dbd1 39be c67d 163e edce 84be 2ec6 a0be
00000050: e78f 3cbe b8cd 4b3d f6ff 3d3e b27e 463e
00000060: 6119 8f3e 00c1 16bd fede 213e 4a22 6f3e
00000070: dc84 3abe 80b1 b83c f8ef 623d 52ff f6bd
00000080: 42f0 1d3e fab4 643e 3cc5 a0be 1ea7 4bbe
00000090: f39d 98be bdbb 89be 4874 fdbd 8cb4 98bd
000000a0: faf3 4b3e 908f 94be f61c 383e 8797 853e
000000b0: 91a7 37be 40cd 6fbd fc76 8e3d e06b 653d
000000c0: 689a 4fbe 3264 6c3e 788c 3abd 4829 adbd
000000d0: 1ab1 3e3e fcb7 8ebe 5350 86be 002f 663b
000000e0: 920b 143e 47cc 03be 40e4 c03d 3030 503d
000000f0: 016e 983e ad2f 9cbe f603 5cbe 242f 13be
00000100: 98b6 1cbd 0b84 9a3e 807c d53b d709 943e
00000110: b3e6 a03e 576b 823e 9329 8a3e c607 4c3e
00000120: f425 b33d 9e02 623e abf6 9f3e 18e1 9bbe
00000130: 6691 2ebe faed 5f3e c07f 3ebd 0370 31be
00000140: 8077 92be c815 8bbd 44df 813d df4c 29be
00000150: 3290 42be 309d b13d 9e29 4abe f0dd f03c
00000160: f0c1 fabc 1851 50be efa2 8bbe 24b0 84bd
00000170: 6028 0e3d f0a4 ecbc 80b7 4bbb 72b8 6cbe
00000180: 7406 65be 9c7d 123e 6aa3 493e eae5 7b3e
00000190: fe9c 0e3e a081 433c ecf4 64be 28a4 823d
000001a0: f70d 78be 80a2 bb3d e4bc fc3d a164 8e3e
000001b0: fefd b4bd 8b0d 8a3e b08b 21bd c241 763e
000001c0: c4ca f03d 80c5 b7bb e0a0 8d3d 266f 1dbe
000001d0: 9eac 1dbe 00f6 01ba c28e 06be b4df 903d
000001e0: 4c95 b63d 9ed5 f2bd 42fc 193e b66e 293e
000001f0: 58fb 7abe ca15 553e 684a 95be 70fc 8cbe
00000200: 107a a13c 4340 893e b167 a0be ddcb 9b3e
00000210: 6890 2cbe d04a 00be 76f9 403e 7a41 eebd
00000220: 2219 133e b8de febd 9266 253e 05b5 4ebe
00000230: c7a6 02be b0ee e0bc 5b10 963e 5cf6 e8bd
00000240: 1e75 3f3e 6d07 8dbe b574 6ebe e8e0 94be
00000250: 44bb b03d 42e1 273e 3496 44be 8f32 92be
00000260: 1b0f 933e c0c7 333c 305d e5bd d5ad a0be
00000270: 4963 3ebe a160 13be 20c3 a6bd 6665 4a3e
00000280: beee 39be 97c4 9b3e b91a 36be f83e a53d
00000290: 7e2d 0f3e 00bb dcbb 9014 e93d 8058 2f3c
000002a0: 9d1d 8b3e d64c 6e3e 9bd6 89be ebd7 883e
000002b0: a2a8 00be 38b2 4abd 6d77 78be aaf3 523e
000002c0: c6b6 083e 15a3 9bbe ac60 9cbe 1cce 373e
000002d0: 15fd 53be 1869 4abe 7aff 6dbe 14e4 2c3e
000002e0: d355 913e 983b a93d 0411 a23d faa8 463e
000002f0: b0fe af3d fc73 5fbe d281 e0bd 02fd 603e
00000300: 0977 833e 00aa 723d 724d 563e 90f3 c5bc
00000310: e0cb b0bc 5bde 8c3e 0083 eeba 0425 ce3d
00000320: 68e9 1c3e ed2e 8d3e e81f 79be 880c cf3d
00000330: 8f0f 993e 40c2 363c 808e c23d fec4 52be
00000340: 400f 69bd ebb2 8a3e a033 8abd 9817 8c3d
00000350: 9fb2 973e f07b eb3c d2e2 e5bd e32f 86be
00000360: 8ecb d5bd bb67 8a3e 9a50 3e3e 7803 473d
00000370: 3616 1d3e 3e48 483e 4baf 23be dc91 4bbe
00000380: c1a2 813e ba53 5b3e 40a7 193d d323 873e
00000390: b6ad 5fbe 0b8c 983e 707f 54bd 3bed 9d3e
000003a0: 40ef 813d c46f 9a3d fafa 263e 3dbd 963e
000003b0: 9a20 70be fb97 62be 9ab4 77be 2ba3 99be
000003c0: a885 f03d 18ae 6cbd 666c 65be 5019 283d
000003d0: d175 903e 7ab1 c6bd a9b4 973e 78df 9cbe
000003e0: ec8c 233e aa9b 88bd cea7 3c3e a864 9b3d
000003f0: 5980 7bbe d5a2 91be da60 15be 04a9 f63d
-0.16633524 0.27315894 0.24955633 -0.17313339 0.15898082 -0.26910225 0.17792779 -0.085078284
-0.2314719 0.065330595 0.3071544 0.21204427 0.0027615428 0.20212922 0.09696323 -0.106575474
-0.1814646 0.14696416 -0.25939122 -0.314012 -0.1841427 0.049756736 0.18554673 0.19384268
0.2794905 -0.036805153 0.15807721 0.23352924 -0.18214744 0.022545576 0.055404633 -0.12060417
0.15423682 0.22334662 -0.31400478 -0.19887969 -0.29808006 -0.26901045 -0.123756945 -0.074563116
0.19917288 -0.2901578 0.17979798 0.2609217 -0.17935015 -0.05854535 0.06956288 0.05601108
-0.20273745 0.23085096 -0.045544118 -0.084551394 0.18622246 -0.27874744 -0.26233158 0.003512323
0.14457539 -0.12870894 0.09418535 0.050827205 0.29771426 -0.30505124 -0.21485886 -0.14373451
-0.038260072 0.30178866 0.0065150857 0.28913757 0.3142601 0.2547252 0.26984844 0.1992484
0.08747473 0.22071311 0.3124288 -0.3044517 -0.17047653 0.21868125 -0.04650855 -0.17327885
-0.28606796 -0.06791264 0.06341413 -0.1653323 -0.19000319 0.08672559 -0.19742438 0.029402703
-0.030610055 -0.20343435 -0.27272746 -0.06478909 0.034706473 -0.028887242 -0.0031084716 -0.23117235
-0.22365743 0.14305729 0.19691244 0.24599424 0.13927075 0.0119327605 -0.22359055 0.063789666
-0.24224077 0.09161854 0.123407155 0.2781115 -0.08837508 0.26963457 -0.039439857 0.24048522
0.117574245 -0.0056082606 0.0691545 -0.15374431 -0.1539788 -0.00049576163 -0.13140395 0.07073918
0.08915195 -0.118571505 0.15037635 0.16546139 -0.24509943 0.20809093 -0.2915833 -0.27536345
0.019711524 0.2680684 -0.3132911 0.30428973 -0.16851962 -0.12528539 0.18845162 -0.116335824
0.14365056 -0.12444824 0.16152409 -0.20186241 -0.12758933 -0.027457565 0.29309353 -0.11375114
0.1869702 -0.27544728 -0.23286708 -0.2907784 0.08629468 0.16394523 -0.19197923 -0.28554198
0.28722462 0.010972917 -0.11199415 -0.31382623 -0.18592562 -0.1439233 -0.08142686 0.19765243
-0.18157479 0.30423424 -0.17783631 0.08068651 0.13982198 -0.0067361593 0.11380875 0.010702252
0.2717103 0.23271498 -0.26921543 0.26727232 -0.12564328 -0.04948637 -0.24264307 0.20600763
0.13350973 -0.3039786 -0.30542505 0.17949718 -0.20702012 -0.19766653 -0.23241988 0.1688388
0.2838579 0.0826332 0.07913402 0.19400397 0.085935 -0.21821588 -0.10962261 0.21971515
0.25676754 0.059244156 0.2092798 -0.024163991 -0.02158159 0.27513394 -0.0018197 0.10065654
0.15323412 0.27574864 -0.24328578 0.10109812 0.29894683 0.011154711 0.09499836 -0.20582959
-0.05689931 0.2708963 -0.06748128 0.06840438 0.29628465 0.028745621 -0.11224903 -0.2620841
-0.104392156 0.27032265 0.18585435 0.048587292 0.15340504 0.19558808 -0.15984838 -0.1987986
0.25319484 0.21418658 0.037513018 0.2639452 -0.21843609 0.29794344 -0.051879346 0.30845055
0.063444614 0.07540849 0.16306677 0.29441252 -0.23449937 -0.22128288 -0.24189988 -0.300073
0.11744243 -0.057783216 -0.22404632 0.041039765 0.28214887 -0.0970182 0.2963002 -0.30639243
0.15971726 -0.066703156 0.18423387 0.07587558 -0.2456068 -0.28444543 -0.14587727 0.12043956

lstm_actor.weight_hh_l1 f4 [40, 10]
00000000: 9cf0 cf3d 8019 33bd 6cb8 82be 0834 613d
00000010: 3f2d 893e 071c 8b3e 48f8 0e3d 5630 643e
00000020: 1e84 063e f88b 5a3d aea0 623e 269c 023e
00000030: 7a1a 7abe eb6e 8c3e 9dfc 37be 18ec 16be
00000040: 30c0 dbbd d235 d8bd 68fb 7fbe 2aba 9bbd
00000050: 5c18 243e 4bc4 9f3e 660c 92be 4e60 8bbe
00000060: 2845 803d aa05 99bd e891 013d afeb 3fbe
00000070: 980a fbbd ceda 87be 409d 203e 2860 bf3d
00000080: 26c0 673e eacc 85be dad5 7abe d0e7 bd3c
00000090: c5dc 35be 08fe 7e3d eaa6 98be c2b1 763e
000000a0: 9430 223e 7210 643e 0e04 583e c526 813e
000000b0: 70e2 2f3e 90d8 34bd a86d 363d f7e7 9f3e
000000c0: 14d9 bb3d 72c9 97be 66b7 653e 279c 8d3e
000000d0: 4575 49be 8ce6 1fbe 53ea 93be 30e9 45bd
000000e0: 7aa6 67be f360 90be 776c 863e 5c2c 6cbe
000000f0: 2865 1fbd a8dc 763d eb62 953e 7a4c 27be
00000100: e2e3 3d3e 9c39 a83d ec17 9c3d 4b4f 1cbe
00000110: e897 6b3d 7b61 853e d489 87be 0044 873a
00000120: ca34 5c3e 5193 863e dbf6 873e 1b2d 913e
00000130: 3456 923d ea57 ecbd d5d2 893e 40fa 353d
00000140: 0003 2ebb bc62 58be 3a0b 8abe 2637 773e
00000150: 64a1 7ebe 64b9 78be 2c11 d13d c0e4 aebd
00000160: 5e89 5b3e 8015 b93c 1864 64bd 0010 c63b
00000170: 000e 68bb 5c95 be3d 7975 25be 991b 17be
00000180: 4d03 98be 50e3 00bd 96cc 88be baf7 60be
00000190: 10b6 2dbe f52f 6bbe 22b8 023e 07c7 96be
000001a0: 10ed d9bc ffe8 8f3e 0884 82bd d861 173e
000001b0: e71f 933e ca7f 253e fb07 823e ae88 7ebe
000001c0: a4a1 b53d da2b f0bd 40e1 54bc 90eb 9d3c
000001d0: 30b9 9b3d 8855 8cbd ccaa c13d aacb 453e
000001e0: ee5d 2cbe 1e16 693e 482f 683d 263f 423e
000001f0: 0faf 9bbe 5d55 9e3e 64e0 393e 125b 433e
00000200: e997 953e 514f 803e 0098 fc3c b7e5 873e
00000210: 06e4 48be 3537 67be 70a1 27bd 78f7 3bbd
00000220: 00d5 603b 799a 9a3e 7ee9 debd 580b 313d
00000230: 89d9 933e 9808 023d 7e3a 4c3e 6ed3 6d3e
00000240: 8937 9abe ba58 50be 6f37 05be 9872 d73d
00000250: 58ea 58be 9cbc 1e3e 0051 423c 092b 9dbe
00000260: f297 79be a6e1 76be 601f 8abe 4e00 483e
00000270: 00f5 873a 0ee0 153e e040 063e d8ad 38bd
00000280: 13cc 843e fbab 28be 78f8 fb3d 007e a73a
00000290: 39d2 80be 4815 98be c66c 293e 40a7 e4bb
000002a0: fdf8 903e e022 3fbd 996e 6cbe 7bba 893e
000002b0: 1250 3dbe 641b f83d a133 94be 974e 843e
000002c0: 98c6 73bd 0064 b2ba 06b8 94be 5247 3f3e
000002d0: f675 3d3e eeb3 033e 2fed 933e 9e30 253e
000002e0: 90e7 50be bf52 28be 68b4 1f3d a1ee 20be
000002f0: 9457 cb3d bfe4 9c3e 1a6e 383e 7f30 863e
00000300: 0cee 80be c09b 923d a6dd 4e3e 0ba5 0ebe
00000310: a2a9 033e 4649 8cbe e63e 92bd c430 54be
00000320: 503d 38be f086 903c 1fce 46be 1879 71be
00000330: 4c7f d43d 0c0e 57be e588 9c3e 0417 0e3e
00000340: 3eb1 ebbd 9d20 5dbe 876f 92be 7a8a 423e
00000350: 30e0 db3d 9e1f 6e3e a18c 9e3e 39ff 32be
00000360: 4293 783e b20b 0dbe 90ae 20bd e03f 8b3c
00000370: 447a f5bd 9ba0 88be 9793 24be 0068 b6bc
00000380: a9c7 943e 1952 87be 2092 8fbc 3d87 8d3e
00000390: f0b3 56bd 2c8e 3a3e 387f 103e 90b2 a6bd
000003a0: cc65 d3bd c875 63bd b817 5f3d 70ba 72bd
000003b0: 4025 1dbc c03b 3a3e e28e 9cbe bd98 8dbe
000003c0: b045 293d ad27 94be 602c a13d 6728 2abe
000003d0: ae9c b2bd e0d8 83bc a0fe 4fbd 7793 9d3e
000003e0: 47b7 90be a033 f8bc 2c7c c7bd cede 06be
000003f0: 0051 65bc a4eb 11be 98f0 03be e889 0bbd
0.101533145 -0.04372549 -0.25531328 0.05498126 0.26792333 0.2716982 0.03490475 0.22284064
0.13136336 0.05335614 0.22131607 0.12754878 -0.24424163 0.27428374 -0.17967458 -0.147385
-0.10730016 -0.105571404 -0.24998248 -0.07603867 0.16024917 0.31204447 -0.28525084 -0.27221912
0.062631905 -0.074717835 0.031633288 -0.1874225 -0.1225788 -0.26534122 0.15684986 0.09344512
0.22631893 -0.261329 -0.2449564 0.023181826 -0.17759998 0.06225398 -0.29814845 0.24091247
0.15838844 0.22271898 0.21095297 0.2522489 0.17176223 -0.044151843 0.04453817 0.31231663
0.09172264 -0.29645878 0.22433242 0.27658197 -0.19673641 -0.1561529 -0.28889713 -0.048318088
-0.226221 -0.28198966 0.26254627 -0.23063797 -0.03891483 0.060269028 0.2917703 -0.16337767
0.18543962 0.08214113 0.0762175 -0.15264623 0.057517916 0.26050934 -0.26472342 0.0010319948
0.21504512 0.26284268 0.26555523 0.28354725 0.07145348 -0.11540206 0.26918665 0.04442811
-0.002655208 -0.21131414 -0.2696169 0.24142131 -0.24866253 -0.24289471 0.102083534 -0.08539724
0.2143912 0.02259326 -0.05575952 0.006044388 -0.0035408735 0.09305832 -0.16158094 -0.14756621
-0.29690018 -0.031466782 -0.26718587 -0.219695 -0.16963983 -0.22967513 0.12765554 -0.2944872
-0.026602298 0.2810745 -0.06372839 0.14783418 0.28735277 0.16162029 0.25396714 -0.24856827
0.08868721 -0.11727114 -0.012993157 0.019277364 0.07603681 -0.06852251 0.09456405 0.19315973
-0.16832706 0.22762343 0.056685716 0.18969402 -0.30406997 0.30924502 0.18152004 0.1907771
0.2921746 0.25060514 0.030834198 0.26542446 -0.19618234 -0.22579654 -0.040925443 -0.0458903
0.0034306645 0.30195978 -0.10884379 0.04322371 0.28876904 0.031746477 0.19944188 0.23225185
-0.30120495 -0.20346346 -0.13009427 0.10519904 -0.21183145 0.15501636 0.011860132 -0.30696896
-0.24374369 -0.24109516 -0.26977062 0.19531366 0.0010372698 0.14636251 0.13110685 -0.045087665
0.25936946 -0.16471855 0.12303251 0.001277864 -0.25160387 -0.29703736 0.165454 -0.0069779456
0.28314963 -0.04666412 -0.23089065 0.26900086 -0.18487576 0.12114599 -0.2894564 0.2584121
-0.059515566 -0.0013610125 -0.2904665 0.1867955 0.1850203 0.12861606 0.28891894 0.16131827
-0.20400834 -0.16437815 0.03899041 -0.1571603 0.099288136 0.3064327 0.1801075 0.26208875
-0.25181615 0.07158613 0.2020174 -0.13930146 0.12857679 -0.27399653 -0.07140903 -0.20721728
-0.17992139 0.017642468 -0.19414566 -0.2358135 0.103758425 -0.21001452 0.30573192 0.13875967
-0.11508416 -0.21594472 -0.28600714 0.18998137 0.1073612 0.23254248 0.30966666 -0.17480172
0.24274924 -0.13773993 -0.039228976 0.016998231 -0.11986211 -0.26685032 -0.16071926 -0.022266388
0.2905858 -0.26429823 -0.017525733 0.2764224 -0.052417696 0.18218297 0.1411103 -0.08139527
-0.103221506 -0.055532247 0.05446598 -0.059259832 -0.009591401 0.18186855 -0.3057776 -0.27655593
0.041326225 -0.2893652 0.07869792 -0.16616975 -0.087212905 -0.016094625 -0.05077994 0.3077657
-0.2826483 -0.030298054 -0.09740481 -0.1317093 -0.013996363 -0.14250046 -0.12884748 -0.034067065

lstm_actor.bias_ih_l1 f4 [40]
00000000: 213e 8e3e 8f58 9cbe 4a15 6e3e f65e 2b3e
00000010: da5e 583e 7421 77be f027 ae3c b67c 66be
00000020: aaf9 593e a482 c13d f59a 00be e4b4 cf3d
00000030: 64f2 30be efb0 67be 708d 8fbc 0137 963e
00000040: 7810 043d fcd4 f93d 20fe 893d 00cd 5cbd
00000050: b955 88be a547 29be 6844 873d f07f f2bc
00000060: 6860 39bd 343c 8b3d ddb3 76be 6059 52bc
00000070: b8ec c73d f4de f4bd 52f6 613e 2821 92be
00000080: 7de3 9b3e c870 c6bd 6bb9 9b3e 0c19 88bd
00000090: c06f 94bd 5c98 0fbe 38ec 513d e2a8 703e
0.27781776 -0.30536315 0.23250309 0.16735443 0.21129933 -0.24133855 0.021259278 -0.22508511
0.21286646 0.09448746 -0.12559111 0.10141924 -0.17279965 -0.22626089 -0.017523497 0.2933884
0.03224227 0.12198827 0.067379236 -0.05390644 -0.266279 -0.16531236 0.06604844 -0.029602021
-0.045257956 0.06798592 -0.2409205 -0.0128386915 0.097619474 -0.119565874 0.2206662 -0.2854092
0.30446997 -0.0968948 0.304149 -0.06645402 -0.07247877 -0.14022964 0.051250666 0.23501924

lstm_actor.bias_hh_l1 f4 [40]
00000000: 3001 89be 90d1 7d3d 901b 22bd e748 13be
00000010: c402 eb3d 7c51 ac3d bee6 6b3e 95ee 953e
00000020: 9519 97be f404 b23d d834 413d 1bb7 36be
00000030: 2865 1dbd 5221 453e 263a 03be 204a 653d
00000040: ca3b 4e3e b831 a23d 8cd8 c93d 1aa4 51be
00000050: 80eb 66bc 766d fcbd ec80 873d 733f 903e
00000060: 226e 313e f820 1cbd 7ab6 7fbe 66b2 3d3e
00000070: 4ec2 423e 4052 75be 7600 6e3e f034 88be
00000080: 8c81 8abe d4d2 8bbd 7e53 623e 86b0 053e
00000090: 98a0 c73d 942c 80be 5064 b63d c24c eabd
-0.26758718 0.061967432 -0.039577067 -0.14383279 0.11475137 0.084139794 0.2303724 0.29283586
-0.29511705 0.08692351 0.047169536 -0.17843287 -0.03842655 0.19250992 -0.1281515 0.055978894
0.20139995 0.07919639 0.09855756 -0.20472756 -0.0140942335 -0.123255655 0.06616387 0.28173408
0.17327169 -0.03811738 -0.24971953 0.18525085 0.19019434 -0.23957157 0.23242363 -0.26602888
-0.2705196 -0.06827322 0.22102162 0.1305562 0.09747428 -0.2503401 0.08905852 -0.11440422

actor.0.weight f4 [128, 35]
00000000: b3e6 edbd da74 5dbc 3644 b5bc d052 3ebe
00000010: 401f b43e d1ff a43f 3a1e 33be 306e 67be
00000020: cc40 6d3e 4107 333c 485d 143f bb2c c43e
00000030: f2cc 0bbe 7490 f93c 4a9d ba3e 1abe 713e
00000040: c05d d4bc 7a9b f83d db63 ed3d 6439 4cbc
00000050: c6c9 aabd f217 573d 8a24 02be de89 b13d
00000060: 39fc 6d3d 7f57 d2bd 60f1 053c bc20 463d
00000070: 72a0 fe3d ee70 dd3d 0ee3 6bbe a81e 703e
00000080: 9d93 54bc 9233 53be e08e 90bd 9564 c6bd
00000090: 736f 903d cf36 b7bc db09 3d3e 31c9 ba3d
000000a0: d192 a9be 0c06 ccbd bf5a 3c3e 485a a5bc
000000b0: 8057 5b3a 0eb9 0d3f 35b4 c3be 3483 0abf
000000c0: 7939 7cbf a3e4 1fbf 23b9 a2bd ac6c 343d
000000d0: 1c27 bebd d48b a1bc 1617 6e3e 3989 2e3e
000000e0: b2f8 a4bb 1bcc fcbc 8ec1 033e 9709 93bd
000000f0: 0738 a2bc dc2d 753d 486b 1f3d f679 06bd
00000100: 2442 353e 5574 7ebd 63a8 f53d 3022 b93e
00000110: 0370 b33e e3f0 9ebc aa73 bfbc 5b05 1cbe
00000120: 566b 31bd 7a35 5d3d 4f1d ccbc 433e e7bd
00000130: 4515 f03d 7668 f3bd 2ee2 cebc 12f1 27be
00000140: 10a9 b13d 9779 193e c771 043f 879f e5bc
00000150: c622 40bd e486 57ba 9fe9 ed3d 4aca 033d
00000160: 292a 78bd 872f bfbe f379 693d 91d0 693d
00000170: b66c 85be d406 d0be 6053 933d ae09 03be
00000180: a770 1fbe 9fa0 cdbd 8835 9e3d c9b8 7bbe
00000190: 419f cc3d 1939 c23d 7d0c 4d3e 9a0b 34be
000001a0: 63bc a7be eb63 b2bd aeeb 193d 9e88 cf3c
000001b0: 4bd9 fd3d 99c5 3d3c 30f5 19bf 40ce 903d
000001c0: 8daf 3b3d 9d08 0bbe fdff ffbc d957 943e
000001d0: 3ed7 7ebe 843b 72bf fca6 dabe 67d7 4fbe
000001e0: 8fe5 4cbe d097 623e d69d 7c3d 5691 72be
000001f0: 4e14 313e e602 423e b58f 58be a5e2 31be
00000200: 62eb db3d 011e 193c dbf2 42bd 782d 39bc
00000210: 10f7 573e cd77 6dbd 38da b73d d86a 043e
00000220: ba11 5f3d 7507 933d 6b93 f3bc 4095 da3b
00000230: 0bd5 0f3d a8cf 373e d178 dabd 25f0 3ebe
00000240: 38be 5e3e c8d5 ad3f d335 7dbe 12f0 7dbc
00000250: c738 4c3e 0a31 4a3d 3985 7e3f b629 483f
00000260: c1a6 053e 59e8 7b3f acdf 003e c108 2dbe
00000270: 9f24 9c3d 9455 bd3d c332 9b3d eff5 923d
00000280: 2052 7ebe 675b 193d a3b1 a83c 634d d8bc
00000290: c63e 213d e1fb c73d e0cb 9b3d dc72 013d
000002a0: 854c 44bd 8b24 f83d f41d 70be 1342 3ebe
000002b0: 5d8a 2e3e 348e 2cbe 7054 0bbe 2f51 0b3e
000002c0: 19d8 28be ba3c 193e faa4 3bbc d1f0 59bd
000002d0: 34c3 d5bc 1cb5 d13d c46e 013e e5aa 0d3e
000002e0: 1e40 10be 2cd9 38bd 6f66 03bf 6be6 cc3e
000002f0: df2d 81bd 1cf5 6c3f 962f 37be 17c5 213e
00000300: a727 1d3e c1c9 a2bd 3886 99bd 4da5 a93d
00000310: 0d1c aebd 7371 993d 4daf fa3d 9733 653d
00000320: 91a3 46bb 1cfe 56bd 0d17 8c3d d747 5d3d
00000330: 5605 273e eff3 d83c 8813 a1be 6352 543c
00000340: 516a 673e 8f2d d33b 1763 46bd 8d3c ba3d
00000350: e552 17bd 7e9b 37bb 0275 c9bb f53a 6dbe
00000360: 1b36 b9bd e89d b53d 512b 823d 2108 fbbc
00000370: 988f 233f d10b 0bbe 0495 9cbd 92c9 643f
00000380: dde2 41bf 3246 febe b604 45be df8b 2dbe
00000390: 0f40 973d 2206 ea3d dd21 7d3e 254f d6bc
000003a0: 5b23 e63c a76f 173e 3a14 71bd 7d78 bb3d
000003b0: 2a7a c03c 1d0b 0f3c 0e7f fc3d 5a73 3fbd
000003c0: 11cc 9abd 60fd d83e dc57 683d d62a 20bc
000003d0: b0fb bfbd 096f 443d a058 68bc f9aa 12bd
000003e0: 4750 06be cc80 9f3d b940 93be 3ef1 823a
000003f0: db9c 183e ecbe bbbd b977 c1bd 4a74 a03e
-0.11616268 -0.013516629 -0.022127252 -0.18586278 0.35180092 1.2890569 -0.17492 -0.22600627
0.2316925 0.010927022 0.57954836 0.38315377 -0.13652399 0.030464388 0.36448127 0.23607674
-0.02592361 0.1213903 0.115913115 -0.012464855 -0.083392665 0.05251307 -0.12709251 0.08668874
0.058101866 -0.10270595 0.008175224 0.04837106 0.12432946 0.10812555 -0.23035833 0.23449194
-0.012974647 -0.20625141 -0.07058501 -0.09687153 0.07052507 -0.022365002 0.18460791 0.091204055
-0.33119825 -0.09962091 0.18393992 -0.020184651 0.00083672255 0.55360496 -0.38223425 -0.5410645
-0.98525196 -0.62458247 -0.07945468 0.04404895 -0.09284803 -0.019719996 0.23250994 0.17044534
-0.0050345296 -0.030859044 0.12866804 -0.071795635 -0.019802107 0.059858188 0.03892067 -0.032831155
0.17701012 -0.06212266 0.11995008 0.36158895 0.35046396 -0.019401973 -0.023370583 -0.15236418
-0.043315254 0.054006077 -0.02491632 -0.11291172 0.11722807 -0.11885159 -0.025254335 -0.16400555
0.08674824 0.14987789 0.5173611 -0.02803017 -0.046908163 -0.00082216994 0.11616825 0.03217534
-0.060587082 -0.37340948 0.057001065 0.05708367 -0.26059502 -0.4063021 0.07193637 -0.12796661
-0.15570317 -0.10040402 0.07725054 -0.24582209 0.09991313 0.09483547 0.20024295 -0.1758255
-0.32760915 -0.08710464 0.037578277 0.025333699 0.12394961 0.0115827555 -0.6013975 0.07070589
0.045821715 -0.13577504 -0.031249994 0.28973272 -0.24886796 -0.94622064 -0.42705524 -0.20297013
-0.20009445 0.22128224 0.06167396 -0.23688254 0.17292902 0.18946418 -0.2114857 -0.17371614
0.10738255 0.009345532 -0.047594886 -0.0113023445 0.2109034 -0.05797558 0.08977169 0.12931383
0.054460265 0.07179157 -0.02973338 0.006670624 0.035115283 0.17950308 -0.10667575 -0.18646295
0.2175225 1.3580866 -0.24727564 -0.015499132 0.19943534 0.049363174 0.9942203 0.78188646
0.13051893 0.9840141 0.12585324 -0.1689787 0.076241724 0.09244838 0.075780414 0.07175814
-0.24836016 0.037440684 0.020592516 -0.026404088 0.039366506 0.09764839 0.076072454 0.03160368
-0.047924537 0.12116345 -0.23448926 -0.18579893 0.17044969 -0.16851121 -0.13606429 0.13605188
-0.16488685 0.14964572 -0.011452908 -0.053208176 -0.026094057 0.10239622 0.1263991 0.13834722
-0.14086959 -0.045128986 -0.51328176 0.40019545 -0.06307577 0.9256151 -0.17889246 0.1579784
0.15347157 -0.07948638 -0.07496303 0.08283482 -0.08501444 0.07492342 0.12240467 0.055957403
-0.0030309896 -0.05248843 0.06840334 0.05402359 0.16310629 0.026483504 -0.31460214 0.012959096
0.2259915 0.00644464 -0.048434343 0.090935804 -0.03694429 -0.0028016265 -0.0061479816 -0.23167022
-0.09043523 0.08868009 0.06355918 -0.030643525 0.6389098 -0.13578726 -0.0764561 0.8937007
-0.7573679 -0.4966293 -0.19240078 -0.16947888 0.07385265 0.11426951 0.24719949 -0.026160786
0.02809303 0.14788686 -0.05885718 0.09153841 0.023495752 0.008730677 0.12328921 -0.046740867
-0.07558454 0.4238081 0.056724414 -0.009775838 -0.093741775 0.047957454 -0.014181286 -0.035807583
-0.13116561 0.07788238 -0.28760317 0.0009990109 0.14903586 -0.09167275 -0.094466634 0.31338722

actor.0.bias f4 [128]
00000000: a306 30bb 5ede 38bd 5baf 08be 6b52 e5bc
00000010: 8f68 483e e927 f43c 8ee1 bfbc 9e5f 163a
00000020: 176c 5f3d d116 7f3d 4f67 d5bc 92e8 013c
00000030: 8b59 5e3d c978 fdbd 001f 243d 8711 353e
00000040: 9596 b1bd 2ea5 673d 91d3 e03d 44c7 01bb
00000050: c903 823e b631 513e 605c 0e3e 7f4b c73d
00000060: 9088 c3bd 2b73 503e 462c 253d 324e 383d
00000070: dd18 2d3c e3b8 debd 7a7d 453e 8611 b3bd
00000080: ef55 013e a01a 1a3e 6216 ab3d 122f dbbc
00000090: 2f49 143d 90bf 9dbc 1df5 3cbd 82c6 283e
000000a0: e6ec 36ba 888f bb3d 8d9a edbc 8f55 323e
000000b0: 345f 2a3e d0ff 203d 1986 ae3e d4b1 603e
000000c0: aafd e0bd 36ea b3bb f194 093d 8d90 03be
000000d0: 9172 1bba 9530 f23c 0998 673e 9d62 333c
000000e0: 68cf 80bc 9cb8 04be 6dce 93bd 4da2 fabd
000000f0: 2cd3 d4bd ab9b 9c3d e4f9 0b3e 0140 f13d
00000100: 2be1 44be 1a24 78bc b3b6 433d 4e1b 103d
00000110: f6e9 493e f285 ff3d 2270 20be 7d44 1ebd
00000120: 1052 9c3e 30dd 8c3d b936 bd3c 7f17 b43d
00000130: 022e 023d 4097 573d e22f 183e ebf1 183e
00000140: 40b9 fdbd a61f a8bd 888b 413e 6048 423d
00000150: 3d2b 49bd b18c 85bd 98b3 2ebe 7007 07bd
00000160: a76e 4f3d 63fd 833d b99d 5a3e db17 1a3e
00000170: cf5a d8bd 81a2 b33d cf95 4f3e 0e84 973d
00000180: b625 3a3e 7e8a 8cbd 442f 3a3e a4dd 273e
00000190: 6ecf 003e 8bcf 2f3e d297 c3bd 1c97 76bd
000001a0: 1514 41bd 0c8e 683e c688 16be 3d2f e93d
000001b0: f868 8fbd 72b2 133e 4fd8 39bb 14c3 e2bc
000001c0: ff4d 9d3d c05e f5bd 4f8c 87bd 8b3e bf3d
000001d0: 52ec 043e 6f63 033e 1b5a dfbd bbd9 473d
000001e0: cf38 ca3d 0116 06be 8225 b4bd d7eb 04be
000001f0: 701f 0e3e eb3f a9bd bc2b 413e 5aa7 0f3e
-0.0026859425 -0.04513394 -0.13348143 -0.027993402 0.19571136 0.029804187 -0.023422983 0.0005736294
0.054546442 0.06227762 -0.026050238 0.007928984 0.054284614 -0.123765536 0.040068626 0.17682467
-0.08671299 0.056554012 0.10977853 -0.001980261 0.25393513 0.2042912 0.13902426 0.097311966
-0.095475316 0.20356433 0.040325426 0.044996448 0.01056501 -0.10875108 0.19286147 -0.08743577
0.12630437 0.15049219 0.083538786 -0.026755843 0.036202606 -0.019256383 -0.046132196 0.16481975
-0.00069780496 0.09158236 -0.02900436 0.1741545 0.1663788 0.03930646 0.34086683 0.21942836
-0.109858826 -0.0054905666 0.033589307 -0.1284811 -0.00059298525 0.029564181 0.2261659 0.010948804
-0.015723899 -0.12961048 -0.07217107 -0.12237988 -0.1039184 0.07646879 0.13669544 0.11779786
-0.1922652 -0.015145326 0.047781657 0.03518229 0.19718155 0.1247672 -0.15667775 -0.038639534
0.3053136 0.06878126 0.023097383 0.08793544 0.031782158 0.052634478 0.14862016 0.14936034
-0.12388849 -0.082091615 0.18900883 0.047432303 -0.0491135 -0.065209754 -0.17060697 -0.032966077
0.050642636 0.06444814 0.21349229 0.15048163 -0.10564195 0.087712295 0.20271991 0.07398234
0.18178448 -0.06862353 0.18182093 0.16393143 0.12579128 0.17169015 -0.09550442 -0.060202703
-0.047138292 0.22710437 -0.14700612 0.11385963 -0.07002443 0.1442354 -0.002835769 -0.027680911
0.07680892 -0.11980963 -0.066185586 0.09338101 0.12980774 0.128309 -0.10905858 0.04879163
0.09874117 -0.13094331 -0.087962165 -0.12980591 0.1387918 -0.082641445 0.1886434 0.14028683

actor.2.weight f4 [64, 128]
00000000: 51eb 953c 2693 a6bc b0a3 993e fe5e 0c3d
00000010: a43b 5b3e dbb2 0a3d 9d55 323d dc7b a63d
00000020: 0a41 6b3d c304 0b3e f187 c93d 9a90 0cbd
00000030: b577 1e3e 7519 66bd 0a62 a43c 318b 933d
00000040: 0a03 67bc e89c 143e 4c66 113e bd4f 123c
00000050: c450 cf3d 73c5 aebd 1c34 713d 0500 5bbd
00000060: c838 593d 566e eebd a7b5 973d 705a 8e3c
00000070: fc66 0b3e e8a4 fa3d 3aaa 0e3e 1eb0 09be
00000080: e899 c63d 7847 fabd 70b7 c4bc 63d0 04be
00000090: c793 27bd e2ae 88bd 1811 583e 70a0 353e
000000a0: 20a3 0b3c f99b 3abc fb21 0bbc 810d f13d
000000b0: e2f7 a43d 65fb ab3e b51b 56be 071a 013e
000000c0: 8b41 a43c 55a4 d03d d2ad 4f3d ba16 bfbc
000000d0: 3f35 a13c 5ca1 febd d7db 873d a2e4 4bbe
000000e0: 6783 be3c 57d8 b2bc e452 8bbe 1c1d a4bd
000000f0: d078 4c3e 35a2 a7bd ca43 e1bd 45a2 1bbe
00000100: 6048 003e ca23 953d 831b c53c d9fa bfbb
00000110: 7762 d53d 09ae 803d 633b 1c3a c088 4bbe
00000120: 5747 fabd 6d3a 2fbe 80d7 3dbd 7afe f5bd
00000130: 0a9a 1f3e d15f e5ba 65c8 abbd af75 35bd
00000140: 0dc4 553c fc6f 9bbc cc73 9ebd 2cfb 583e
00000150: abd7 a1bc 4a1d 37bd 7341 88bd f95f b43d
00000160: 06de 47bd 15f2 44bd a8e4 453e c2a5 d33d
00000170: 0668 303e eb95 343d d799 e1bd 4348 06bd
00000180: baa3 98bd 9349 5cbe 515e 8c3d ce37 4dbd
00000190: 684c 84bd 77a4 f0bd bc2d aebe 58f5 babd
000001a0: 12d6 703d abb8 5bbe 186c 4ebd b9af 083d
000001b0: a583 803e 0299 36bd 693a e3bd c2a2 24be
000001c0: 9a12 2739 462c d3bd 2af7 e43c dc17 b63c
000001d0: 41a1 5f3e 6717 24be c0f7 453c ea90 d33c
000001e0: 0fe7 6f3e cf6a 043e a351 433d 43b8 a1bd
000001f0: 8230 0c3e 0b07 403e aa0d 4dbc 92ac 54be
00000200: d113 1d3e 1bf1 203e 3c8b b43e 70d2 08be
00000210: 9d5e aabe 567e d33c 24a5 443c 5003 60bd
00000220: 267b 0cbe 9152 fdbc 1273 a13e ac8c bd3c
00000230: d19c 86bd 0648 56be 3ad4 c43d 7f73 77be
00000240: fa1f 973d be0d 60bb 4691 07be 9627 093e
00000250: 3440 f93e 18e9 22be ca25 6ebb cb98 dcbd
00000260: b0e3 b4bb bfaf 5abd 0595 343e ab5d b43d
00000270: b2f8 f6bc 7ca9 3f3c 7b8e df3d 1acc 693e
00000280: f849 cb3d f3f6 fb3d e907 b43d 8cea a4bc
00000290: 0956 8a3c b71c e5bd e20b 5e3e 3bfe 3e3e
000002a0: 775e 273c 188a 283c f6fa cabd 71f1 0fbe
000002b0: 73d9 e63d 9bab 983e 0f63 fe3d 9704 1a3d
000002c0: b274 2b3e 7b30 9abd f018 efbd eaf5 a8bd
000002d0: 666b 0abe 1c23 563d 1d4b 90bd 41f6 2cbe
000002e0: 35cd 353d a3b4 483d 35b2 513e f0ab 43be
000002f0: 86fe 18bd c501 a5bd 3369 d4bd ad24 813e
00000300: 9a8b 59be 8aad 18bd be4c e8bd 2666 9bbd
00000310: 5dc0 123c acca efbc fd74 02bd 1d4f 613e
00000320: 0f74 103e 2d75 6bbd 4958 65bb 696b af3c
00000330: e991 d8bd 1920 a4bd 20c1 a13d 07fe c33d
00000340: 3794 36be 9b2b adbd 6816 46bd 8cab cdbd
00000350: 3fb9 acbd b040 1a3d 1d15 e2bd b5f3 77bd
00000360: 6609 48be a3c8 503e 86aa 85be dc69 5c3d
00000370: 721a 23be 68d9 043e 2d32 32bc c333 3e3c
00000380: b82d 25bd a5f0 283e ccb2 8bbc c956 13be
00000390: 7b44 a8bd d496 643c cf3b 833d 4ad3 1a3e
000003a0: 204a 393d aa7b ea3d 60d4 4f39 8009 c63d
000003b0: 329e 4f3e 15db 45bd 9ae1 493c 0039 4f3e
000003c0: 67f2 0fbd bbba 673d c052 863d aca9 9cbc
000003d0: 87fa 253e ec30 78be 3c1d 8639 0fc0 5bbe
000003e0: b02e 9dbe d088 44be 3aa1 673d e403 30bd
000003f0: 5d12 20bb e856 363d 6e24 07be a1c1 983b
0.018300684 -0.020333838 0.30007696 0.03427028 0.2140947 0.033861976 0.04353868 0.08129093
0.057435073 0.13576035 0.09840382 -0.03431759 0.15475352 -0.05617662 0.02006628 0.07204283
-0.014099846 0.1451298 0.1419918 0.008930144 0.10122827 -0.08533754 0.058887586 -0.053466816
0.053032666 -0.11642139 0.07407694 0.017377108 0.13613504 0.122384846 0.13932124 -0.1344609
0.09697324 -0.12220663 -0.024013251 -0.12970118 -0.040912416 -0.06673981 0.21100271 0.17736983
0.008522779 -0.011389726 -0.008491988 0.11770154 0.080550924 0.33590236 -0.20909007 0.12607585
0.020050785 0.10187594 0.050702877 -0.023326267 0.01967871 -0.124331206 0.06633728 -0.19911435
0.023256017 -0.021831675 -0.27211678 -0.08013365 0.19967961 -0.081852354 -0.10999258 -0.1519862
0.12527609 0.07282217 0.02406097 -0.005858761 0.10419171 0.062831946 0.0005959777 -0.19876385
-0.12220638 -0.17112131 -0.046348095 -0.12011428 0.15586105 -0.0017499869 -0.083878316 -0.044301685
0.01304723 -0.018974297 -0.0773693 0.21189564 -0.019756159 -0.044705667 -0.066531084 0.08807368
-0.048795722 -0.04808243 0.19325507 0.1033435 0.17227182 0.044088285 -0.11015671 -0.032783758
-0.07453103 -0.21512441 0.06853927 -0.050102048 -0.06459886 -0.11750119 -0.34019268 -0.09128827
0.058797903 -0.21457164 -0.050396055 0.033370707 0.25100437 -0.044579513 -0.11095125 -0.16077712
0.0001593329 -0.10311179 0.027949888 0.022228174 0.21838857 -0.16024552 0.012082994 0.025825936
0.23427986 0.12931369 0.047685277 -0.07896473 0.1369038 0.18752687 -0.012515465 -0.20768955
0.1533959 0.15716974 0.35262477 -0.13361526 -0.3327531 0.025817078 0.012002263 -0.05469066
-0.13718852 -0.03092316 0.31533104 0.023138367 -0.06572879 -0.20925912 0.096107915 -0.24165152
0.07379146 -0.0034187878 -0.13239011 0.13394007 0.48681796 -0.1590923 -0.0036338442 -0.107713304
-0.0055203065 -0.05339026 0.17634971 0.08806928 -0.030147884 0.011698123 0.10915848 0.22831765
0.09926218 0.12302961 0.08790571 -0.020131372 0.016886728 -0.111871175 0.2168422 0.18651669
0.010215393 0.01028683 -0.09911148 -0.14056946 0.11271944 0.29818425 0.12421238 0.037602033
0.16743734 -0.07528778 -0.11674678 -0.082500294 -0.13517532 0.052279577 -0.07045577 -0.16890813
0.044385154 0.049000394 0.20478137 -0.19108558 -0.037352107 -0.08056978 -0.10371628 0.25223294
-0.2124466 -0.037274875 -0.113427624 -0.07587843 0.008956996 -0.029271446 -0.03184985 0.22002836
0.14106773 -0.057484794 -0.003499525 0.021413522 -0.10574705 -0.08013935 0.07898164 0.09569936
-0.17829977 -0.08455583 -0.048361212 -0.100424856 -0.084337704 0.037659347 -0.11039183 -0.06053515
-0.19534835 0.20389037 -0.26106662 0.053811893 -0.15928057 0.12973559 -0.010876221 0.011609021
-0.040326804 0.16498049 -0.01705303 -0.14388575 -0.082161866 0.013951976 0.06407892 0.15119663
0.045236707 0.11449368 0.00019820174 0.09669781 0.2027519 -0.048304636 0.012321854 0.20236588
-0.035143282 0.056574564 0.06558752 -0.019123875 0.1620885 -0.24237412 0.00025580253 -0.21459983
-0.30699682 -0.19192815 0.056550242 -0.04297246 -0.0024425008 0.044516474 -0.1319749 0.0046617542

actor.2.bias f4 [64]
00000000: a68c 5c3d 63e0 1dbd 569f 733c a929 debd
00000010: cf41 cb3d fe3f cabc 4a08 81bd bd88 0cbe
00000020: 57c4 ddbc 9938 423c 0e5f 873d d5f1 dfbc
00000030: 0128 dcbd 698a d0bd 826d f83d 7aa6 05bd
00000040: 5890 74bd 6ee4 993d ac06 153d f58a cd3d
00000050: 173a ee3d fb85 103e 78ab 84bb 0dce 6ebd
00000060: 77f3 2a3c 4142 593d 7bce 87bb 44e9 863c
00000070: bd16 f83d 715b 483d 7eb4 083d 7861 d6ba
00000080: e6c8 c5bd eecd 95bc 4c5a c0bc 120f f13a
00000090: a201 ad3d 6c13 d4bc 06a3 debb 81ad c43b
000000a0: e94f ae3c 6a54 90bc 8a56 3bbd c395 653d
000000b0: 1162 16bd 2d58 243d 55fb d33d 165c 523d
000000c0: 71d1 bd3c 9ca5 bd3d ff65 88bb 97c0 60bd
000000d0: ecdd a5bd e86e d7bd 0f8a 013d f853 7a3d
000000e0: c5e1 69bd ee70 7d3d fcc2 eabb 6f41 963d
000000f0: 145e 19bd 81f6 473c 84c7 b33d d581 e7bd
0.05384507 -0.03854407 0.014869532 -0.1084779 0.09924661 -0.024688717 -0.06300409 -0.13724037
-0.027071161 0.011854314 0.06609927 -0.027336994 -0.10749818 -0.1018265 0.12130262 -0.032629468
-0.05970797 0.07514273 0.036383316 0.100362696 0.116321735 0.1411361 -0.004048761 -0.058301974
0.010434023 0.0530417 -0.0041444874 0.016468652 0.12113712 0.04891533 0.033375256 -0.0016355952
-0.09657459 -0.018286671 -0.023480557 0.0018391332 0.08447577 -0.025888167 -0.0067943363 0.0060021286
0.021278339 -0.017618377 -0.045736827 0.056051027 -0.036714617 0.040123153 0.10350672 0.05135735
0.023171159 0.09260103 -0.0041625495 -0.054871168 -0.08098969 -0.105192006 0.031625804 0.061115235
-0.057100076 0.061875276 -0.007164357 0.07336699 -0.037443236 0.012204767 0.08778289 -0.1130406

actor.4.weight f4 [16, 64]
00000000: c10c 5ebe 4532 ca3d 9a07 92be e1e5 dcbd
00000010: 9252 8cbd 1cbe 04bf 1f5a 81be f046 293e
00000020: 9753 133f 5afc a9bd 55cb de3d 5d5b b83e
00000030: 6543 ccbe b6c9 b43e a99b 01be 240a a03e
00000040: 2244 233f 8241 a5be f81d c1bd 96af 913e
00000050: ee13 9c3e 7d84 ec3e fcef e7be 7595 673d
00000060: 043e 803e 1302 553d 0375 073f 98e7 2cbf
00000070: 0bed 313e 538f a83e a091 c2bc 1c5f 933e
00000080: 5c82 013f 6a5c 00be 66e3 3ebe 262d 203f
00000090: 13b5 763d 9f89 e83d 26e5 8c3e 7786 0c3e
000000a0: 0a57 773e 3579 4c3e f205 8ebe f352 ac3e
000000b0: ad19 d3bc 8e0c e4be 9148 963e c88c 973c
000000c0: 6071 7abe bb98 c83e 532a 0c3f 964b 8bbe
000000d0: 580e 09be 47fa 143d 40d0 9dbe ce82 eebd
000000e0: 0297 b83e 3c77 f53e 5a2a 6abd dc45 953d
000000f0: 5430 47be 9257 bd3e 52ad 503e 0b64 aabe
00000100: ad91 15bf d4b1 76be ae50 383f d48a 1ebd
00000110: 2f5a 11be 8f24 d03e 2045 2d3e 44be 433e
00000120: 9456 d0be 84a6 763e 4538 1abf ed43 363f
00000130: aa09 67be 10a0 a53e 668f 50ba 606c f5be
00000140: d5a1 07bf 7c31 14be 80e3 ff3e af6d 083e
00000150: 27c9 6ebe 4eaa 34bd 3c99 a0be 15df bf3e
00000160: 3f65 0e3c 8efb 2ebf fb77 6abe 0f8b 9a3d
00000170: 38b6 3abe 8040 833e a9ce 7b3e e844 cfbe
00000180: 4aa8 a1be bcba 43be 2333 acbe 24a9 f5be
00000190: c5ad 08bf 3cac 303e a692 46bf 8363 4e3e
000001a0: 1de1 cf3d 15e1 ff3d da08 fd3a 3225 92be
000001b0: 838a 94bd 8406 7e3e 112f 12bf 46c5 6dbf
000001c0: 6ccc 0a3f b488 c53e 2541 2cbf f90b de3d
000001d0: 8c8f a8bd 4f93 9a3e 4906 afbe b825 cebd
000001e0: 78a9 563e d86a b2be 5b5e 593e c60a 1b3d
000001f0: c399 69be 9cef debd 6662 663e 7695 023e
00000200: 392e 4fbd 94ce 763e 1ee0 52be a3bd e13e
00000210: 30c5 1f3f 6568 cf3d 439c 183e 47c7 2bbe
00000220: ea3f 063d 6d70 0cbd 3d0b 99be c6e0 30bb
00000230: 2073 273e 16ce 363d 6124 8c3e 64c7 483d
00000240: 31d1 ecbd 43be 223c 77e6 073e 3fa7 90be
00000250: b668 41be f389 02bf 4732 853d 3de4 2bbe
00000260: e8b4 ff3c ea59 9b3d efcd 4d3e b387 2e3d
00000270: 0c20 33be 8b98 dbbd 8478 cabd 7bcb 9c3d
00000280: 32d5 283e 70e4 853e 55d8 9cbc b089 86be
00000290: 6973 82be 65f6 16be 7502 f4be cc05 c6be
000002a0: 6a65 00bf 11dd 6cbe 60a3 6d3a e396 833e
000002b0: 1206 56be 9b4b 5d3e 59ae 97be 92d5 82be
000002c0: 7108 2c3e c8ee 5ebc 6396 49be 3314 5b3d
000002d0: e4a6 013f 9921 263e 0974 4e3e bc94 373e
000002e0: 971f b0be 3ac3 4a3d e07c 033e bdc7 dbbe
000002f0: b999 ab3e 15f3 723e 7ee7 87be 56b3 a63d
00000300: f6e8 2c3f 5254 343f 7918 ed3e 279e 4cbe
00000310: 28f4 37be 711a 9e3e 1a7c 623f 18a9 1bbe
00000320: 1849 033d 86c3 0fbf d9db 4cbe 0ac2 dfbe
00000330: 315e a63e 7ba6 1c3f d1d0 e7be 183b b03e
00000340: 8e3d 1cbe 021f be3e 3343 4b3f 5dcd c93e
00000350: ab08 6a3f 8daa 053f 999b 2e3f 3041 873e
00000360: 4b31 3dbe b8bf 3cbf 1e41 e33e 8d5f 433f
00000370: 35d0 0b3f b646 843d c1f7 03be 7f38 fb3e
00000380: e943 1ebf 288d 743e b589 813e afcb ff3d
00000390: 125b 053f ee7a aa3e 54f0 173e 68e5 a0bd
000003a0: bdf0 4a3e 7a8f debd 2d88 0bbe 5945 ef3d
000003b0: 8cae 9b3e bd5c 8abe 2926 aa3e 16fe 0a3f
000003c0: dff3 3ebd 773a eebe d43e 093e d973 38be
000003d0: 8ea0 b9bd 808a b5be 0e80 db3d 1247 3e3f
000003e0: 27df bcbd 39ac 193f c5e7 57bf bb1e 90bc
000003f0: 5afb 4dbd a5f6 873e c5f8 98be 33c9 1bbf
-0.21684553 0.098728694 -0.28521425 -0.107860334 -0.068516865 -0.51852584 -0.2526407 0.16530967
0.5754942 -0.08300085 0.10878626 0.36007205 -0.39895168 0.35310143 -0.12657036 0.31257737
0.6377584 -0.3227654 -0.09429544 0.28454274 0.30483955 0.4619483 -0.4530028 0.056539018
0.25047314 0.05200393 0.5291292 -0.67540884 0.17375581 0.32921848 -0.02375108 0.287835
0.5058954 -0.12535253 -0.18641433 0.6256889 0.06023128 0.11354374 0.27518576 0.1372317
0.24154297 0.19968112 -0.2773891 0.33657035 -0.02576908 -0.44540828 0.2935224 0.018499747
-0.24457312 0.39179024 0.5475208 -0.27206105 -0.13384378 0.036371496 -0.30822945 -0.11646043
0.3605271 0.4794253 -0.057169296 0.07288715 -0.1945203 0.36980873 0.20378616 -0.33279452
-0.5842541 -0.24091274 0.7199811 -0.038706616 -0.14194559 0.40652892 0.169209 0.1911555
-0.40691054 0.24086958 -0.6024211 0.71197397 -0.2256228 0.3234868 -0.00079559383 -0.47934246
-0.5298131 -0.14472002 0.49978256 0.13323091 -0.23318921 -0.044107728 -0.3136691 0.37474886
0.008691131 -0.6835259 -0.22897331 0.075460546 -0.18233573 0.25635147 0.24590553 -0.4048226
-0.31573707 -0.19114202 -0.33632764 -0.47980607 -0.5339015 0.17253202 -0.7756752 0.20155148
0.10150359 0.12494103 0.0019305006 -0.28544003 -0.072529815 0.24807173 -0.5710307 -0.9287914
0.54218173 0.3858086 -0.672869 0.10842127 -0.082305044 0.30190513 -0.34184483 -0.10065788
0.20963085 -0.3484714 0.212274 0.03785207 -0.22812562 -0.108855456 0.22498474 0.12752327
-0.05058119 0.24102241 -0.20593306 0.44089994 0.6241026 0.101273336 0.14903359 -0.16775237
0.032775797 -0.034286905 -0.29891387 -0.0026989444 0.1635251 0.044630133 0.27371505 0.04901828
-0.115633376 0.009933057 0.13271509 -0.282526 -0.188876 -0.50991744 0.0650373 -0.16786285
0.031214193 0.07585509 0.20098089 0.04260988 -0.17492694 -0.10722455 -0.09886268 0.07655998
0.16487578 0.26150846 -0.019146124 -0.26276922 -0.25478676 -0.1474243 -0.47658125 -0.38676298
-0.50154746 -0.23131205 0.00090651773 0.25701055 -0.20900753 0.21610872 -0.29625204 -0.25553566
0.16800095 -0.013606735 -0.19686274 0.05348606 0.5064528 0.16223754 0.20161451 0.17927831
-0.343991 0.04950259 0.12840605 -0.42925826 0.3351572 0.23725541 -0.26543802 0.08139674
0.6754297 0.7044116 0.46307734 -0.19982205 -0.17964232 0.30879548 0.88470614 -0.15201223
0.03205213 -0.5615772 -0.2000574 -0.43702728 0.32493737 0.6119153 -0.45276502 0.34420085
-0.15257856 0.37133032 0.7939941 0.39414492 0.91419476 0.52213365 0.68206173 0.26416922
-0.18475835 -0.7373004 0.44385618 0.76317674 0.54614574 0.064587995 -0.1288748 0.4906654
-0.6182237 0.23881972 0.25300375 0.124900214 0.5209209 0.33296913 0.14837772 -0.07856256
0.19818397 -0.1086721 -0.13626166 0.11683149 0.30406606 -0.2702388 0.3323224 0.54293954
-0.046619292 -0.4652898 0.13402873 -0.18012942 -0.090638265 -0.3545723 0.10717784 0.74327195
-0.092222504 0.60028416 -0.8433803 -0.017592778 -0.050288536 0.26555362 -0.29877296 -0.6085388

actor.4.bias f4 [16]
00000000: 8ca4 eabc 96e7 a03d a905 52be 552b 103e
00000010: 6f0e 123d 84e8 cdbe 708a 343e e65d 2abd
00000020: 704a dcbe 71c9 d3bd 5318 b43d 2854 a3be
00000030: b50b 0bbe 2d16 893d d197 a8be 95bf 883d
-0.028642915 0.078566715 -0.20509972 0.1407903 0.035658296 -0.40216458 0.17630935 -0.041593455
-0.4302554 -0.10341156 0.08793702 -0.31900144 -0.13578685 0.06693683 -0.32928327 0.066771664

lstm_critic.weight_ih_l0 f4 [40, 1]
00000000: 03e9 9a3e 21d5 933e 9b17 9dbe 8838 e93d
00000010: e060 53be e4d2 a43d ea60 743e e6fb 413e
00000020: ee0e f9bd a2f5 5f3e 4877 36bd 5af3 2abe
00000030: e664 7abe d645 97be c05f ebbc 2e38 5a3e
00000040: 845b 89be 6472 9abd 2420 823d 1c30 a1be
00000050: 19f0 1ebe 0b8f 09be 4776 9c3e 0dec 9dbe
00000060: 2190 833e 3861 333d c000 4bbc 2623 8cbd
00000070: 9139 98be 9888 2f3d 2154 9bbe 905d 2bbd
00000080: 2474 b33d caad c5bd e1f6 8a3e 4011 d7bd
00000090: a89f 84bd 741f b9bd 87fe 853e a044 413d
0.302559 0.28873542 -0.30682072 0.113877356 -0.20642424 0.08048037 0.23865095 0.18943748
-0.12161051 0.21871045 -0.04454735 -0.16694394 -0.24452552 -0.29545468 -0.02873218 0.21310493
-0.26827633 -0.075413495 0.063537866 -0.31482017 -0.15521277 -0.13433473 0.30558988 -0.30844155
0.256959 0.043793887 -0.0123903155 -0.068426415 -0.2973142 0.042854875 -0.30337623 -0.041837275
0.087623864 -0.09652288 0.2714148 -0.10501337 -0.064757645 -0.09039202 0.2617075 0.047184587
