PPO_preTrained/lstm/PPO_lstm_0_150.pth (torch, 126353 bytes, 27 tensors)

lstm_actor.weight_ih_l0 f4 [40, 1]
00000000: 204d 233e 6372 43be 4f3a 06be b37c 8dbe
00000010: 9018 333e d906 97be 1e52 273e ae7c 483e
00000020: c279 743e b21f ddbd 3ed8 553e fb37 07be
00000030: c958 9a3e e8d2 573d 3823 4cbd e0b9 e13d
00000040: 4e35 4e3e 9635 513e 58d9 e43d 0018 1dbc
00000050: 95fb 87be b642 07be 98ed 613d a218 8cbe
00000060: c0eb ac3d 7636 453e ac72 d8bd c2b0 99be
00000070: dc8b fcbd 3eea 4f3e 42d5 563e c5b9 9c3e
00000080: 008a 8a3b 43e7 0ebe 4ec3 48be 68bb 373d
00000090: e8b0 3abe 1a99 1fbe a6e7 50be 00ed 4fbe
0.1594739 -0.19086604 -0.1310818 -0.276342 0.17489839 -0.29497412 0.16339919 0.19578812
0.23874572 -0.10797061 0.20883271 -0.13204949 0.30145863 0.05269137 -0.049838275 0.11021781
0.20137522 0.20430598 0.111742675 -0.009588242 -0.2655913 -0.13209042 0.055158228 -0.27362543
0.08443403 0.19259056 -0.10568747 -0.30017668 -0.123313636 0.203042 0.20979789 0.3061048
0.0042278767 -0.13955407 -0.19605753 0.04485646 -0.18231547 -0.15585747 -0.20400867 -0.20305252

lstm_actor.weight_hh_l0 f4 [40, 10]
00000000: e2d1 623e 80bc 06bc 823a 783e 7004 58bd
00000010: 9553 813e 268c 6f3e b23e 89be 6401 e83d
00000020: 3093 0abd 28c9 93bd 203e 0fbd a143 02be
00000030: 3cb7 7ebe eada 523e b084 843c 5b58 8c3e
00000040: e829 af3d 4e58 533e 62bd 393e c4a0 be3d
00000050: 9854 ec3d e05a 0abe 63c4 34be e57b 913e
00000060: ffa3 95be 12ee d0bd 4efc 62be 95e8 15be
00000070: 5bea 883e 6641 4fbe c9cd 853e efca 8e3e
00000080: 2ab6 8dbd cb61 6bbe 7d1c 05be 5ccd c93d
00000090: 4a0c 25be 51df 9abe 4829 70bd 709d 4fbd
000000a0: 56ac 463e dc80 963d 00b0 7fbb a5f1 3abe
000000b0: d9ec 1ebe bfa2 963e d8d9 9cbe 00d0 8db9
000000c0: 9804 f0bd 400d 0a3d b0eb 8a3d 971e 91be
000000d0: 9f79 833e 7c24 11be 3132 8e3e 4c78 853d
000000e0: 5b5f 35be 179b 9c3e d305 823e 27f3 55be
000000f0: 2062 7a3c 0a79 08be 1022 343e 58c7 89be
00000100: bdf3 9e3e b887 a63d 8851 e33d c81a 04bd
00000110: ecb5 36be 0048 8e3c 860a 27be c2cc 673e
00000120: d386 a0be e6ea 5bbe e5f6 5bbe f27d 6ebe
00000130: 4b13 953e e09e 09bc 2c4b 7bbe 5018 813c
00000140: c7da 8f3e f855 2e3d 50d9 603d 28d9 f9bd
00000150: 8003 033d 36c8 63be 9e0e 8cbe 5863 2b3d
00000160: c00a 173e deba 6fbe 3c5a 2bbe b06e 51be
00000170: c0d6 5abe c9e4 42be 9000 ef3c e6d1 87bd
00000180: d064 65bd 80ae 243e f87b 95be c8a2 8fbe
00000190: 780b bc3d ad89 44be 4fe0 42be b0ae 173d
000001a0: 2cbd e33d 4d9c 8dbe 600c 09be 282e fd3d
000001b0: 5e87 523e 706b 62bd 96e4 213e 9050 00be
000001c0: 34cc eebd 02f2 063e d2f1 4c3e 7362 23be
000001d0: 70df f53d 54a6 9d3d d43b 153e cea2 bcbd
000001e0: a60f 6e3e c4eb 44be 9cf1 bd3d ddb6 9f3e
000001f0: 5036 97bd faae 573e 30fb cbbc 126c 5d3e
00000200: 67b2 8c3e c07f 8abd 10a7 92be 537d 8c3e
00000210: 70da 9bbe d0bc b8bc 0462 fd3d 9285 713e
00000220: 94d8 bf3d 76e3 4b3e 0308 a13e 7889 083e
00000230: 4ea2 cebd 0811 463d a628 bdbd a8d5 e6bd
00000240: 7cbf a03d 30ae bf3d e8f4 fd3d e269 c9bd
00000250: 6cdf c9bd d16a 963e 9cef ecbd 64c2 46be
00000260: 63bd 8f3e 4ee9 3d3e cd05 90be 10f7 9ebc
00000270: 7e43 76be cea2 6c3e 58b2 4ebe d581 833e
00000280: 98e8 57bd fd46 933e 081d 6cbd 5449 88bd
00000290: e420 53be 30a8 5a3d 7947 20be 50ee 70bd
000002a0: c20e b0bd 4e53 f4bd 3ac5 9ebd 16ef 0f3e
000002b0: 183d 313e 1ce7 e93d 004a 64ba 7637 7d3e
000002c0: c8a6 353d 782a e83d 820f 303e 2cda f7bd
000002d0: aa07 253e 7493 b3bd e68e 92bd b1a7 a03e
000002e0: 2271 433e 008f 26bb eaa3 29be 80b4 62bc
000002f0: c233 013e f870 173d e02e 773d 4fee 43be
00000300: 5a9e f2bd e34f 903e e25b 0abe 30a0 ca3d
00000310: ab52 5abe d007 b6bc 80ce d23b d0d1 cb3c
00000320: f646 373e 5027 753d 3069 b5bc c21c 273e
00000330: 7b12 873e 1d1c 9d3e 7075 c23d ce3d 1c3e
00000340: 840e 6ebe 0091 4d3c 7122 923e 42d7 3a3e
00000350: 741f 12be 481a 9c3d be62 4d3e 9a9d abbd
00000360: d40b 063e 1ca1 e0bd b0a8 373e 0870 81be
00000370: 26b1 a1be 78b3 53be 72d0 9cbd b20b aabd
00000380: b265 463e 0cb6 cf3d 0d38 14be b2f7 0c3e
00000390: 5c4e 90be 7684 88be 147a ba3d fef0 3fbe
000003a0: 0040 d5b9 46ba 583e 89e7 32be d2d1 5d3e
000003b0: 1ac1 423e b444 cf3d e0d4 3e3c d0af 2dbd
000003c0: 6011 6d3d 92af 693e 2fbc 8a3e 20be 293e
000003d0: 20f2 163c 9aff 86be 5edc c4bd e929 9d3e
000003e0: 2c70 7ebe 48dd 2fbd 680d a23d f8a7 e63d
000003f0: 0851 183d ac79 d73d b136 6abe 36dd 9ebe
0.22150376 -0.008223653 0.24241069 -0.052738607 0.2525908 0.23393306 -0.26805645 0.1132839
-0.033831775 -0.07216102 -0.034971356 -0.12721111 -0.24874586 0.20591322 0.016176552 0.2741116
0.08552915 0.20639154 0.1813865 0.09308007 0.115395725 -0.13511229 -0.1765304 0.28414837
-0.29226682 -0.10201658 -0.22166559 -0.14639504 0.267413 -0.20239791 0.26133564 0.278892
-0.06919511 -0.22986524 -0.12999149 0.09853622 -0.16117969 -0.30248502 -0.05863312 -0.050687253
0.19401678 0.07348797 -0.0039014816 -0.18256243 -0.15520038 0.2942104 -0.30634952 -0.00027048588
-0.11719626 0.033704042 0.06783235 -0.2834365 0.25678727 -0.14174074 0.27772668 0.065170854
-0.17712156 0.30587074 0.2539507 -0.20893537 0.015282184 -0.13327423 0.17591119 -0.269099
0.31045333 0.08131355 0.11099535 -0.032252103 -0.17842835 0.017368317 -0.16312608 0.22636703
-0.31352863 -0.21476325 -0.21480902 -0.23290232 0.29116282 -0.008399695 -0.24540395 0.015758663
0.280966 0.042562455 0.054894745 -0.121996224 0.03198576 -0.22244343 -0.27354902 0.04184279
0.14750195 -0.23411128 -0.1673364 -0.2045238 -0.21370983 -0.19032587 0.029175073 -0.06631832
-0.056004345 0.16082191 -0.29196143 -0.2805388 0.09181875 -0.19193144 -0.1903088 0.03703183
0.11120066 -0.2765831 -0.13383627 0.12362319 0.20559451 -0.05527824 0.15809855 -0.12530732
-0.116600424 0.13178256 0.20014122 -0.15955524 0.12005508 0.0769774 0.14573604 -0.0921074
0.23248157 -0.19230562 0.09274599 0.311942 -0.07383406 0.21062842 -0.024900049 0.21623257
0.2747986 -0.06762648 -0.28643084 0.27439365 -0.30440092 -0.02255097 0.123722106 0.2358611
0.09367481 0.19910988 0.31451425 0.1333369 -0.10089551 0.048356086 -0.09236269 -0.112712204
0.07849023 0.093593955 0.12400228 -0.09834649 -0.098570675 0.2937837 -0.11569139 -0.19410092
0.28074178 0.1854603 -0.28129426 -0.019404918 -0.24049184 0.2310898 -0.2018522 0.2568499
-0.052712053 0.28765097 -0.057644874 -0.06654611 -0.20618016 0.053383052 -0.15652265 -0.058821023
-0.08596565 -0.119299516 -0.07752462 0.14056048 0.17308462 0.11421034 -0.00087085366 0.24728188
0.044348508 0.11336225 0.17193416 -0.1210216 0.16116205 -0.08768359 -0.07156162 0.31377938
0.19086125 -0.0025414824 -0.16566435 -0.01383698 0.126174 0.03697297 0.060347438 -0.19133876
-0.118466094 0.2818595 -0.13511613 0.098938346 -0.21320598 -0.022220522 0.006433308 0.02488032
0.17898163 0.059851944 -0.022144884 0.16319564 0.26381287 0.3068551 0.09495056 0.15257952
-0.23247725 0.012546778 0.28541902 0.18246177 -0.14269811 0.076222 0.20057198 -0.083796695
0.1309045 -0.10968229 0.17935443 -0.25280786 -0.31580466 -0.2067393 -0.07656945 -0.08303012
0.19374731 0.101421446 -0.14474507 0.13766363 -0.28184783 -0.2666356 0.09105316 -0.18744275
-0.0004067421 0.21164808 -0.17471136 0.21662071 0.19018975 0.10120526 0.011647433 -0.042403996
0.0578779 0.22820881 0.27096698 0.16576433 0.009213001 -0.26366884 -0.09612344 0.30696037
-0.24847478 -0.04293564 0.07912713 0.11262506 0.037186652 0.10521254 -0.22872426 -0.31028146

lstm_actor.bias_ih_l0 f4 [40]
00000000: 9c57 973d 08a7 6c3d d7ad 35be 4a3a 733e
00000010: 9e57 52be a256 703e f70b 0abe e8e6 9a3d
00000020: 2a20 c5bd 80ae 6f3d 2a35 92be 155a 1fbe
00000030: 069c 87be c0fe 893b c0f4 453d 268e 753e
00000040: 6008 62bd ec1c 80be f50b 11be 6c65 b03d
00000050: 08ae d53d 63ba 99be 10cd fabc a942 853e
00000060: 201e 023c b024 32be 2e5a 81be f8b4 22be
00000070: b09c a43c 8c6d 123e 480e 963d ca53 e9bd
00000080: 60af 1f3e 70dd e4bc 6011 16bc ae43 5cbe
00000090: b20e 9cbd 03ae 9fbe 0c78 eebd aea0 c1bd
0.07389757 0.05777648 -0.17742096 0.23752704 -0.20541236 0.23470548 -0.13481127 0.07563573
-0.096252754 0.058516026 -0.28556186 -0.15561707 -0.26486224 0.004211277 0.048329115 0.23980007
-0.05518377 -0.25022066 -0.14164717 0.08613095 0.104335845 -0.30025014 -0.03061536 0.2602742
0.007941753 -0.17396808 -0.25264114 -0.15889347 0.020094246 0.14299601 0.07326943 -0.113929346
0.15594244 -0.02793762 -0.009159416 -0.21510193 -0.076199904 -0.31187448 -0.11643991 -0.09454475

lstm_actor.bias_hh_l0 f4 [40]
00000000: 0dd3 41be 3cf1 f63d 9205 45be 9cdd f73d
00000010: febc 033e 16d9 1d3e a41f 84be 003a b63b
00000020: 2f4b 73be d0b8 86bd c6dc 433e 2eb3 96be
00000030: fca0 2d3e 404c f8bb e7ba 983e 5a1f 3e3e
00000040: ede2 833e cfd6 5bbe c854 373d 9028 77bd
00000050: 18dc 0f3d f4ec 83be e095 f43c 1033 cdbc
00000060: c41e eb3d 4ad9 cbbd 726e 18be 72c5 a0be
00000070: 5889 2d3d 146f 913d 26af 5a3e 0294 98be
00000080: fecb 5dbe b0d9 1bbe 78a0 87bd 682b 74bd
00000090: 8014 7abe df09 953e 5993 9a3e 8a3a 5e3e
-0.18928166 0.120577306 -0.19240406 0.121028155 0.12865064 0.15414843 -0.2580539 0.0055611134
-0.23759149 -0.06578219 0.19127187 -0.29433578 0.16955942 -0.007577449 0.29830095 0.18566647
0.25759068 -0.21468662 0.044758588 -0.060341418 0.035122007 -0.25766718 0.029856622 -0.025048763
0.114804775 -0.09953554 -0.14885882 -0.3140064 0.04236731 0.071012646 0.21355876 -0.2980042
-0.21659848 -0.1521976 -0.06622404 -0.059611708 -0.24421883 0.29109094 0.30190542 0.21702018

lstm_actor.weight_ih_l1 f4 [40, 10]
00000000: c953 2abe 7ddb 8b3e b28b 7f3e e149 31be
00000010: decb 223e c5c7 89be b432 363e 863d aebd
00000020: f806 6dbe 0ccc 853d 5743 9d3e 2222 593e
00000030: 00fb 343b f6fa 4e3e a894 c63d 3e44 dabd
00000040: dbd1 39be c67d 163e edce 84be 2ec6 a0be
00000050: e78f 3cbe b8cd 4b3d f6ff 3d3e b27e 463e
00000060: 6119 8f3e 00c1 16bd fede 213e 4a22 6f3e
00000070: dc84 3abe 80b1 b83c f8ef 623d 52ff f6bd
00000080: 42f0 1d3e fab4 643e 3cc5 a0be 1ea7 4bbe
00000090: f39d 98be bdbb 89be 4874 fdbd 8cb4 98bd
000000a0: faf3 4b3e 908f 94be f61c 383e 8797 853e
000000b0: 91a7 37be 40cd 6fbd fc76 8e3d e06b 653d
000000c0: 689a 4fbe 3264 6c3e 788c 3abd 4829 adbd
000000d0: 1ab1 3e3e fcb7 8ebe 5350 86be 002f 663b
000000e0: 920b 143e 47cc 03be 40e4 c03d 3030 503d
000000f0: 016e 983e ad2f 9cbe f603 5cbe 242f 13be
00000100: 98b6 1cbd 0b84 9a3e 807c d53b d709 943e
00000110: b3e6 a03e 576b 823e 9329 8a3e c607 4c3e
00000120: f425 b33d 9e02 623e abf6 9f3e 18e1 9bbe
00000130: 6691 2ebe faed 5f3e c07f 3ebd 0370 31be
00000140: 8077 92be c815 8bbd 44df 813d df4c 29be
00000150: 3290 42be 309d b13d 9e29 4abe f0dd f03c
00000160: f0c1 fabc 1851 50be efa2 8bbe 24b0 84bd
00000170: 6028 0e3d f0a4 ecbc 80b7 4bbb 72b8 6cbe
00000180: 7406 65be 9c7d 123e 6aa3 493e eae5 7b3e
00000190: fe9c 0e3e a081 433c ecf4 64be 28a4 823d
000001a0: f70d 78be 80a2 bb3d e4bc fc3d a164 8e3e
000001b0: fefd b4bd 8b0d 8a3e b08b 21bd c241 763e
000001c0: c4ca f03d 80c5 b7bb e0a0 8d3d 266f 1dbe
000001d0: 9eac 1dbe 00f6 01ba c28e 06be b4df 903d
000001e0: 4c95 b63d 9ed5 f2bd 42fc 193e b66e 293e
000001f0: 58fb 7abe ca15 553e 684a 95be 70fc 8cbe
00000200: 107a a13c 4340 893e b167 a0be ddcb 9b3e
00000210: 6890 2cbe d04a 00be 76f9 403e 7a41 eebd
00000220: 2219 133e b8de febd 9266 253e 05b5 4ebe
00000230: c7a6 02be b0ee e0bc 5b10 963e 5cf6 e8bd
00000240: 1e75 3f3e 6d07 8dbe b574 6ebe e8e0 94be
00000250: 44bb b03d 42e1 273e 3496 44be 8f32 92be
00000260: 1b0f 933e c0c7 333c 305d e5bd d5ad a0be
00000270: 4963 3ebe a160 13be 20c3 a6bd 6665 4a3e
00000280: beee 39be 97c4 9b3e b91a 36be f83e a53d
00000290: 7e2d 0f3e 00bb dcbb 9014 e93d 8058 2f3c
000002a0: 9d1d 8b3e d64c 6e3e 9bd6 89be ebd7 883e
000002b0: a2a8 00be 38b2 4abd 6d77 78be aaf3 523e
000002c0: c6b6 083e 15a3 9bbe ac60 9cbe 1cce 373e
000002d0: 15fd 53be 1869 4abe 7aff 6dbe 14e4 2c3e
000002e0: d355 913e 983b a93d 0411 a23d faa8 463e
000002f0: b0fe af3d fc73 5fbe d281 e0bd 02fd 603e
00000300: 0977 833e 00aa 723d 724d 563e 90f3 c5bc
00000310: e0cb b0bc 5bde 8c3e 0083 eeba 0425 ce3d
00000320: 68e9 1c3e ed2e 8d3e e81f 79be 880c cf3d
00000330: 8f0f 993e 40c2 363c 808e c23d fec4 52be
00000340: 400f 69bd ebb2 8a3e a033 8abd 9817 8c3d
00000350: 9fb2 973e f07b eb3c d2e2 e5bd e32f 86be
00000360: 8ecb d5bd bb67 8a3e 9a50 3e3e 7803 473d
00000370: 3616 1d3e 3e48 483e 4baf 23be dc91 4bbe
00000380: c1a2 813e ba53 5b3e 40a7 193d d323 873e
00000390: b6ad 5fbe 0b8c 983e 707f 54bd 3bed 9d3e
000003a0: 40ef 813d c46f 9a3d fafa 263e 3dbd 963e
000003b0: 9a20 70be fb97 62be 9ab4 77be 2ba3 99be
000003c0: a885 f03d 18ae 6cbd 666c 65be 5019 283d
000003d0: d175 903e 7ab1 c6bd a9b4 973e 78df 9cbe
000003e0: ec8c 233e aa9b 88bd cea7 3c3e a864 9b3d
000003f0: 5980 7bbe d5a2 91be da60 15be 04a9 f63d
-0.16633524 0.27315894 0.24955633 -0.17313339 0.15898082 -0.26910225 0.17792779 -0.085078284
-0.2314719 0.065330595 0.3071544 0.21204427 0.0027615428 0.20212922 0.09696323 -0.106575474
-0.1814646 0.14696416 -0.25939122 -0.314012 -0.1841427 0.049756736 0.18554673 0.19384268
0.2794905 -0.036805153 0.15807721 0.23352924 -0.18214744 0.022545576 0.055404633 -0.12060417
0.15423682 0.22334662 -0.31400478 -0.19887969 -0.29808006 -0.26901045 -0.123756945 -0.074563116
0.19917288 -0.2901578 0.17979798 0.2609217 -0.17935015 -0.05854535 0.06956288 0.05601108
-0.20273745 0.23085096 -0.045544118 -0.084551394 0.18622246 -0.27874744 -0.26233158 0.003512323
0.14457539 -0.12870894 0.09418535 0.050827205 0.29771426 -0.30505124 -0.21485886 -0.14373451
-0.038260072 0.30178866 0.0065150857 0.28913757 0.3142601 0.2547252 0.26984844 0.1992484
0.08747473 0.22071311 0.3124288 -0.3044517 -0.17047653 0.21868125 -0.04650855 -0.17327885
-0.28606796 -0.06791264 0.06341413 -0.1653323 -0.19000319 0.08672559 -0.19742438 0.029402703
-0.030610055 -0.20343435 -0.27272746 -0.06478909 0.034706473 -0.028887242 -0.0031084716 -0.23117235
-0.22365743 0.14305729 0.19691244 0.24599424 0.13927075 0.0119327605 -0.22359055 0.063789666
-0.24224077 0.09161854 0.123407155 0.2781115 -0.08837508 0.26963457 -0.039439857 0.24048522
0.117574245 -0.0056082606 0.0691545 -0.15374431 -0.1539788 -0.00049576163 -0.13140395 0.07073918
0.08915195 -0.118571505 0.15037635 0.16546139 -0.24509943 0.20809093 -0.2915833 -0.27536345
0.019711524 0.2680684 -0.3132911 0.30428973 -0.16851962 -0.12528539 0.18845162 -0.116335824
0.14365056 -0.12444824 0.16152409 -0.20186241 -0.12758933 -0.027457565 0.29309353 -0.11375114
0.1869702 -0.27544728 -0.23286708 -0.2907784 0.08629468 0.16394523 -0.19197923 -0.28554198
0.28722462 0.010972917 -0.11199415 -0.31382623 -0.18592562 -0.1439233 -0.08142686 0.19765243
-0.18157479 0.30423424 -0.17783631 0.08068651 0.13982198 -0.0067361593 0.11380875 0.010702252
0.2717103 0.23271498 -0.26921543 0.26727232 -0.12564328 -0.04948637 -0.24264307 0.20600763
0.13350973 -0.3039786 -0.30542505 0.17949718 -0.20702012 -0.19766653 -0.23241988 0.1688388
0.2838579 0.0826332 0.07913402 0.19400397 0.085935 -0.21821588 -0.10962261 0.21971515
0.25676754 0.059244156 0.2092798 -0.024163991 -0.02158159 0.27513394 -0.0018197 0.10065654
0.15323412 0.27574864 -0.24328578 0.10109812 0.29894683 0.011154711 0.09499836 -0.20582959
-0.05689931 0.2708963 -0.06748128 0.06840438 0.29628465 0.028745621 -0.11224903 -0.2620841
-0.104392156 0.27032265 0.18585435 0.048587292 0.15340504 0.19558808 -0.15984838 -0.1987986
0.25319484 0.21418658 0.037513018 0.2639452 -0.21843609 0.29794344 -0.051879346 0.30845055
0.063444614 0.07540849 0.16306677 0.29441252 -0.23449937 -0.22128288 -0.24189988 -0.300073
0.11744243 -0.057783216 -0.22404632 0.041039765 0.28214887 -0.0970182 0.2963002 -0.30639243
0.15971726 -0.066703156 0.18423387 0.07587558 -0.2456068 -0.28444543 -0.14587727 0.12043956

lstm_actor.weight_hh_l1 f4 [40, 10]
00000000: 9cf0 cf3d 8019 33bd 6cb8 82be 0834 613d
00000010: 3f2d 893e 071c 8b3e 48f8 0e3d 5630 643e
00000020: 1e84 063e f88b 5a3d aea0 623e 269c 023e
00000030: 7a1a 7abe eb6e 8c3e 9dfc 37be 18ec 16be
00000040: 30c0 dbbd d235 d8bd 68fb 7fbe 2aba 9bbd
00000050: 5c18 243e 4bc4 9f3e 660c 92be 4e60 8bbe
00000060: 2845 803d aa05 99bd e891 013d afeb 3fbe
00000070: 980a fbbd ceda 87be 409d 203e 2860 bf3d
00000080: 26c0 673e eacc 85be dad5 7abe d0e7 bd3c
00000090: c5dc 35be 08fe 7e3d eaa6 98be c2b1 763e
000000a0: 9430 223e 7210 643e 0e04 583e c526 813e
000000b0: 70e2 2f3e 90d8 34bd a86d 363d f7e7 9f3e
000000c0: 14d9 bb3d 72c9 97be 66b7 653e 279c 8d3e
000000d0: 4575 49be 8ce6 1fbe 53ea 93be 30e9 45bd
000000e0: 7aa6 67be f360 90be 776c 863e 5c2c 6cbe
000000f0: 2865 1fbd a8dc 763d eb62 953e 7a4c 27be
00000100: e2e3 3d3e 9c39 a83d ec17 9c3d 4b4f 1cbe
00000110: e897 6b3d 7b61 853e d489 87be 0044 873a
00000120: ca34 5c3e 5193 863e dbf6 873e 1b2d 913e
00000130: 3456 923d ea57 ecbd d5d2 893e 40fa 353d
00000140: 0003 2ebb bc62 58be 3a0b 8abe 2637 773e
00000150: 64a1 7ebe 64b9 78be 2c11 d13d c0e4 aebd
00000160: 5e89 5b3e 8015 b93c 1864 64bd 0010 c63b
00000170: 000e 68bb 5c95 be3d 7975 25be 991b 17be
00000180: 4d03 98be 50e3 00bd 96cc 88be baf7 60be
00000190: 10b6 2dbe f52f 6bbe 22b8 023e 07c7 96be
000001a0: 10ed d9bc ffe8 8f3e 0884 82bd d861 173e
000001b0: e71f 933e ca7f 253e fb07 823e ae88 7ebe
000001c0: a4a1 b53d da2b f0bd 40e1 54bc 90eb 9d3c
000001d0: 30b9 9b3d 8855 8cbd ccaa c13d aacb 453e
000001e0: ee5d 2cbe 1e16 693e 482f 683d 263f 423e
000001f0: 0faf 9bbe 5d55 9e3e 64e0 393e 125b 433e
00000200: e997 953e 514f 803e 0098 fc3c b7e5 873e
00000210: 06e4 48be 3537 67be 70a1 27bd 78f7 3bbd
00000220: 00d5 603b 799a 9a3e 7ee9 debd 580b 313d
00000230: 89d9 933e 9808 023d 7e3a 4c3e 6ed3 6d3e
00000240: 8937 9abe ba58 50be 6f37 05be 9872 d73d
00000250: 58ea 58be 9cbc 1e3e 0051 423c 092b 9dbe
00000260: f297 79be a6e1 76be 601f 8abe 4e00 483e
00000270: 00f5 873a 0ee0 153e e040 063e d8ad 38bd
00000280: 13cc 843e fbab 28be 78f8 fb3d 007e a73a
00000290: 39d2 80be 4815 98be c66c 293e 40a7 e4bb
000002a0: fdf8 903e e022 3fbd 996e 6cbe 7bba 893e
000002b0: 1250 3dbe 641b f83d a133 94be 974e 843e
000002c0: 98c6 73bd 0064 b2ba 06b8 94be 5247 3f3e
000002d0: f675 3d3e eeb3 033e 2fed 933e 9e30 253e
000002e0: 90e7 50be bf52 28be 68b4 1f3d a1ee 20be
000002f0: 9457 cb3d bfe4 9c3e 1a6e 383e 7f30 863e
00000300: 0cee 80be c09b 923d a6dd 4e3e 0ba5 0ebe
00000310: a2a9 033e 4649 8cbe e63e 92bd c430 54be
00000320: 503d 38be f086 903c 1fce 46be 1879 71be
00000330: 4c7f d43d 0c0e 57be e588 9c3e 0417 0e3e
00000340: 3eb1 ebbd 9d20 5dbe 876f 92be 7a8a 423e
00000350: 30e0 db3d 9e1f 6e3e a18c 9e3e 39ff 32be
00000360: 4293 783e b20b 0dbe 90ae 20bd e03f 8b3c
00000370: 447a f5bd 9ba0 88be 9793 24be 0068 b6bc
00000380: a9c7 943e 1952 87be 2092 8fbc 3d87 8d3e
00000390: f0b3 56bd 2c8e 3a3e 387f 103e 90b2 a6bd
000003a0: cc65 d3bd c875 63bd b817 5f3d 70ba 72bd
000003b0: 4025 1dbc c03b 3a3e e28e 9cbe bd98 8dbe
000003c0: b045 293d ad27 94be 602c a13d 6728 2abe
000003d0: ae9c b2bd e0d8 83bc a0fe 4fbd 7793 9d3e
000003e0: 47b7 90be a033 f8bc 2c7c c7bd cede 06be
000003f0: 0051 65bc a4eb 11be 98f0 03be e889 0bbd
0.101533145 -0.04372549 -0.25531328 0.05498126 0.26792333 0.2716982 0.03490475 0.22284064
0.13136336 0.05335614 0.22131607 0.12754878 -0.24424163 0.27428374 -0.17967458 -0.147385
-0.10730016 -0.105571404 -0.24998248 -0.07603867 0.16024917 0.31204447 -0.28525084 -0.27221912
0.062631905 -0.074717835 0.031633288 -0.1874225 -0.1225788 -0.26534122 0.15684986 0.09344512
0.22631893 -0.261329 -0.2449564 0.023181826 -0.17759998 0.06225398 -0.29814845 0.24091247
0.15838844 0.22271898 0.21095297 0.2522489 0.17176223 -0.044151843 0.04453817 0.31231663
0.09172264 -0.29645878 0.22433242 0.27658197 -0.19673641 -0.1561529 -0.28889713 -0.048318088
-0.226221 -0.28198966 0.26254627 -0.23063797 -0.03891483 0.060269028 0.2917703 -0.16337767
0.18543962 0.08214113 0.0762175 -0.15264623 0.057517916 0.26050934 -0.26472342 0.0010319948
0.21504512 0.26284268 0.26555523 0.28354725 0.07145348 -0.11540206 0.26918665 0.04442811
-0.002655208 -0.21131414 -0.2696169 0.24142131 -0.24866253 -0.24289471 0.102083534 -0.08539724
0.2143912 0.02259326 -0.05575952 0.006044388 -0.0035408735 0.09305832 -0.16158094 -0.14756621
-0.29690018 -0.031466782 -0.26718587 -0.219695 -0.16963983 -0.22967513 0.12765554 -0.2944872
-0.026602298 0.2810745 -0.06372839 0.14783418 0.28735277 0.16162029 0.25396714 -0.24856827
0.08868721 -0.11727114 -0.012993157 0.019277364 0.07603681 -0.06852251 0.09456405 0.19315973
-0.16832706 0.22762343 0.056685716 0.18969402 -0.30406997 0.30924502 0.18152004 0.1907771
0.2921746 0.25060514 0.030834198 0.26542446 -0.19618234 -0.22579654 -0.040925443 -0.0458903
0.0034306645 0.30195978 -0.10884379 0.04322371 0.28876904 0.031746477 0.19944188 0.23225185
-0.30120495 -0.20346346 -0.13009427 0.10519904 -0.21183145 0.15501636 0.011860132 -0.30696896
-0.24374369 -0.24109516 -0.26977062 0.19531366 0.0010372698 0.14636251 0.13110685 -0.045087665
0.25936946 -0.16471855 0.12303251 0.001277864 -0.25160387 -0.29703736 0.165454 -0.0069779456
0.28314963 -0.04666412 -0.23089065 0.26900086 -0.18487576 0.12114599 -0.2894564 0.2584121
-0.059515566 -0.0013610125 -0.2904665 0.1867955 0.1850203 0.12861606 0.28891894 0.16131827
-0.20400834 -0.16437815 0.03899041 -0.1571603 0.099288136 0.3064327 0.1801075 0.26208875
-0.25181615 0.07158613 0.2020174 -0.13930146 0.12857679 -0.27399653 -0.07140903 -0.20721728
-0.17992139 0.017642468 -0.19414566 -0.2358135 0.103758425 -0.21001452 0.30573192 0.13875967
-0.11508416 -0.21594472 -0.28600714 0.18998137 0.1073612 0.23254248 0.30966666 -0.17480172
0.24274924 -0.13773993 -0.039228976 0.016998231 -0.11986211 -0.26685032 -0.16071926 -0.022266388
0.2905858 -0.26429823 -0.017525733 0.2764224 -0.052417696 0.18218297 0.1411103 -0.08139527
-0.103221506 -0.055532247 0.05446598 -0.059259832 -0.009591401 0.18186855 -0.3057776 -0.27655593
0.041326225 -0.2893652 0.07869792 -0.16616975 -0.087212905 -0.016094625 -0.05077994 0.3077657
-0.2826483 -0.030298054 -0.09740481 -0.1317093 -0.013996363 -0.14250046 -0.12884748 -0.034067065

lstm_actor.bias_ih_l1 f4 [40]
00000000: 213e 8e3e 8f58 9cbe 4a15 6e3e f65e 2b3e
00000010: da5e 583e 7421 77be f027 ae3c b67c 66be
00000020: aaf9 593e a482 c13d f59a 00be e4b4 cf3d
00000030: 64f2 30be efb0 67be 708d 8fbc 0137 963e
00000040: 7810 043d fcd4 f93d 20fe 893d 00cd 5cbd
00000050: b955 88be a547 29be 6844 873d f07f f2bc
00000060: 6860 39bd 343c 8b3d ddb3 76be 6059 52bc
00000070: b8ec c73d f4de f4bd 52f6 613e 2821 92be
00000080: 7de3 9b3e c870 c6bd 6bb9 9b3e 0c19 88bd
00000090: c06f 94bd 5c98 0fbe 38ec 513d e2a8 703e
0.27781776 -0.30536315 0.23250309 0.16735443 0.21129933 -0.24133855 0.021259278 -0.22508511
0.21286646 0.09448746 -0.12559111 0.10141924 -0.17279965 -0.22626089 -0.017523497 0.2933884
0.03224227 0.12198827 0.067379236 -0.05390644 -0.266279 -0.16531236 0.06604844 -0.029602021
-0.045257956 0.06798592 -0.2409205 -0.0128386915 0.097619474 -0.119565874 0.2206662 -0.2854092
0.30446997 -0.0968948 0.304149 -0.06645402 -0.07247877 -0.14022964 0.051250666 0.23501924

lstm_actor.bias_hh_l1 f4 [40]
00000000: 3001 89be 90d1 7d3d 901b 22bd e748 13be
00000010: c402 eb3d 7c51 ac3d bee6 6b3e 95ee 953e
00000020: 9519 97be f404 b23d d834 413d 1bb7 36be
00000030: 2865 1dbd 5221 453e 263a 03be 204a 653d
00000040: ca3b 4e3e b831 a23d 8cd8 c93d 1aa4 51be
00000050: 80eb 66bc 766d fcbd ec80 873d 733f 903e
00000060: 226e 313e f820 1cbd 7ab6 7fbe 66b2 3d3e
00000070: 4ec2 423e 4052 75be 7600 6e3e f034 88be
00000080: 8c81 8abe d4d2 8bbd 7e53 623e 86b0 053e
00000090: 98a0 c73d 942c 80be 5064 b63d c24c eabd
-0.26758718 0.061967432 -0.039577067 -0.14383279 0.11475137 0.084139794 0.2303724 0.29283586
-0.29511705 0.08692351 0.047169536 -0.17843287 -0.03842655 0.19250992 -0.1281515 0.055978894
0.20139995 0.07919639 0.09855756 -0.20472756 -0.0140942335 -0.123255655 0.06616387 0.28173408
0.17327169 -0.03811738 -0.24971953 0.18525085 0.19019434 -0.23957157 0.23242363 -0.26602888
-0.2705196 -0.06827322 0.22102162 0.1305562 0.09747428 -0.2503401 0.08905852 -0.11440422

actor.0.weight f4 [128, 35]
00000000: 636a c6bd 456f 9b3b 6ae3 39bd 5c95 55be
00000010: feca b53e a10a af3f 7d3d 28be 0129 7dbe
00000020: 4d0e 693e 6a10 d93c 3d8a 123f fe17 c03e
00000030: 0e9b e6bd cac5 11bd dcb2 9a3e 23a9 623e
00000040: e756 65bd c541 ae3d a11d c43d 03d1 41bd
00000050: a3e8 e1bd 3aff 593d 38d3 06be e09f b93d
00000060: 230a 8f3d 5a08 02be 9963 073c e607 293d
00000070: 5f1b fa3d 0d2f c33d a625 78be a2f9 723e
00000080: 7dae 3abd 3d02 5dbe 0c1d ecbd 410a e6bd
00000090: c425 6d3d 572f 2dbc d7f3 4d3e 08b4 be3d
000000a0: 099f cebe 3c6c dfbd ac4f 4b3e 74a9 6bbc
000000b0: 368f 2dbc b45e 113f 3629 b0be 9880 05bf
000000c0: e15a 79bf dc32 25bf 1883 a3bd 88e2 6e3d
000000d0: 9f76 a2bd ba4c 8c3c a02b 713e 57de 313e
000000e0: b699 e6bb c598 d4bc 3dfc 023e 25c9 7fbd
000000f0: 25ed 9fbc f825 883d bead 3a3d bfc5 a9bc
00000100: cf0e 2c3e d14f 92bd 98a5 fd3d 56e1 be3e
00000110: 0bf8 c23e 6849 b8bc 2d6d 1abc faf5 0ebe
00000120: dec8 4dbd fe68 333d d721 3cbd ef26 28be
00000130: dc4e 083e 3c75 04be b819 2cbd fdc3 1abe
00000140: 7f0b d23d 8728 183e 8edf d73e b731 90bd
00000150: 9fa7 81bc df1f 56bc e540 8b3d 3e04 97bc
00000160: 0675 ddbd 2326 a1be b059 563d 0aa8 883d
00000170: 2a8d 69be 7636 b4be d0c8 333d 6957 4bbe
00000180: 5fe1 f9bd 95ed f4bd 5815 fe3d b160 5fbe
00000190: a9c5 dfbb 36b1 d33d 3280 1c3e 0192 f5bd
000001a0: 7d20 a2be ec59 d3bd 2b3c cb3c 1c11 173d
000001b0: eebf 103e fc6a 383c f71c 2cbf fb19 7d3d
000001c0: 9061 793d e9dd 05be f67d 2ebd d6e5 c53e
000001d0: fdc9 41be f39e 86bf 6897 d7be c977 40be
000001e0: 447a 37be c2aa 603e 73ea 6c3d ac37 4abe
000001f0: cb95 333e 8c41 4e3e b55d 52be 1983 11be
00000200: 1093 db3d 40bc ba3c ea00 48bd b3b9 6cbc
00000210: 4473 4e3e 56d2 eabc 3af0 c83d ce43 253e
00000220: 2135 4f3d 0573 d93d ca6f c6ba b78e 283d
00000230: e2cb 183d 6b5c 393e 563e ebbd 0cda 45be
00000240: 850f 743e 66e4 bb3f 74b3 81be 9313 abbc
00000250: f82e 593e 7921 483d 7831 813f 509e 533f
00000260: 2158 e33d b0e4 7f3f 50c9 fe3d e161 24be
00000270: a75b 8b3d e329 af3d d251 973d 8c49 a53d
00000280: 4038 6ebe 580a 423d e17f 023d d3e0 bcbc
00000290: 73b2 263d 130a bf3d 0f5e a93d 0102 003d
000002a0: 820c 4bbd 77a9 003e c1bd 6cbe 34fe 4ebe
000002b0: a7bf 3d3e 2f7b 20be 428b 04be ccd2 083e
000002c0: 6489 2cbe 7c1a 293e c71d a13a 3d21 90bd
000002d0: 9ce3 31be 1abe d53d a8df 0b3e e80d 073e
000002e0: 01e2 15be ebdc 2cbd b8f1 13bf b8f5 d43e
000002f0: 6390 92bd 79c8 793f c3e2 34be 0063 1b3e
00000300: 584d 243e d657 9bbd b934 adbd 13fc 9f3d
00000310: 00ea 9dbd 5397 ad3d 41cb 023e d856 823d
00000320: ba8a a7bc b9d5 5fbd cfd8 713d 4f28 6a3d
00000330: d8f9 283e f61b 113d aa88 b3be 8958 523d
00000340: f11f 5b3e e4d6 d73c 3619 4bbd 4585 bb3d
00000350: 6b69 20bd 4693 00bb f581 08bc 8b5e 82be
00000360: a6a7 b7bd 13c5 b53d be56 7d3d 17e4 f5bc
00000370: 2b26 263f c000 00be 4c9d f3bd 2dab 693f
00000380: cef0 3dbf e5e7 02bf 549a 3fbe d540 29be
00000390: 667a b53d e2f0 033e d14d 803e b40a d3bc
000003a0: 8313 f23c fb65 153e 9c3a 82bd 8bde b73d
000003b0: 3db8 a63c f839 803c dd03 da3d 2919 31bd
000003c0: f328 97bd 5fd3 da3e 1d02 843d ec31 92bc
000003d0: 0fc4 b5bd 0215 4a3d ae6a 1fbc 9504 44bd
000003e0: eeed 0abe ff3b 9c3d 7d54 81be b8eb 8f3b
000003f0: 3839 123e df9e c4bd 19f3 b5bd 96b2 a43e
-0.096882604 0.004743489 -0.045382895 -0.20857757 0.35506433 1.3675119 -0.16429706 -0.24722673
0.22759362 0.026497085 0.57242185 0.37518305 -0.11260043 -0.035589017 0.30214584 0.22134833
-0.05599108 0.08508638 0.09575964 -0.04731847 -0.110307 0.05322192 -0.13166511 0.09063697
0.06984355 -0.12698498 0.008263492 0.0412673 0.12212252 0.095304586 -0.24233112 0.2372804
-0.04557656 -0.21582885 -0.11528978 -0.112324245 0.057897344 -0.010570369 0.20112549 0.09311682
-0.4035571 -0.10909316 0.19854611 -0.0143836625 -0.010593226 0.5678513 -0.3440644 -0.52149343
-0.97404295 -0.6453073 -0.079839885 0.058321506 -0.079327814 0.01712643 0.23551798 0.17369972
-0.0070373667 -0.025951752 0.12791534 -0.062447686 -0.019522259 0.06647867 0.04557585 -0.020724175
0.16802524 -0.0714413 0.123851 0.37281293 0.38079867 -0.02249594 -0.009425444 -0.1396102
-0.05024039 0.0438013 -0.04593071 -0.16421102 0.13311332 -0.12935346 -0.042016715 -0.15113826
0.10256099 0.1485921 0.42162746 -0.07040732 -0.015826998 -0.013069122 0.06799487 -0.01843464
-0.10813336 -0.31474409 0.052331626 0.06672676 -0.22807756 -0.351978 0.04389268 -0.19857563
-0.12201189 -0.11959378 0.12406415 -0.21814229 -0.006828983 0.10336535 0.15283278 -0.11990739
-0.31665412 -0.103198856 0.024808964 0.03688155 0.14135715 0.011255976 -0.67231697 0.061792355
0.06088406 -0.13072933 -0.042600594 0.38651913 -0.18924709 -1.0517257 -0.421077 -0.18795694
-0.17917734 0.21940139 0.057840776 -0.197478 0.1753761 0.20142192 -0.20543559 -0.14210166
0.10721409 0.022794843 -0.048828997 -0.014448571 0.20161158 -0.02866475 0.098114446 0.16139147
0.050587777 0.10617641 -0.0015139517 0.04115173 0.037303813 0.18101661 -0.11486499 -0.1932146
0.23834045 1.4679077 -0.25332224 -0.020883357 0.21209323 0.048860047 1.0093222 0.8266344
0.11100794 0.99958324 0.12440741 -0.16052963 0.06804591 0.08552911 0.07388653 0.080706686
-0.23263645 0.047373146 0.031860236 -0.023056423 0.040697526 0.093280934 0.082698934 0.03125191
-0.049572475 0.12564646 -0.2311926 -0.20214158 0.18530141 -0.15671991 -0.12943748 0.13361663
-0.16849285 0.16514009 0.00122922 -0.0703759 -0.17371982 0.104366496 0.13659537 0.13188899
-0.14636995 -0.04220287 -0.5779071 0.4159372 -0.07156446 0.9757152 -0.17664628 0.15174484
0.1604513 -0.07585113 -0.08457322 0.07811751 -0.077106476 0.084761284 0.12772848 0.063642204
-0.020451892 -0.05464718 0.059044655 0.057167348 0.16501558 0.035427056 -0.35065204 0.051353965
0.21398903 0.026347585 -0.04958459 0.091562785 -0.039163034 -0.0019619032 -0.008331765 -0.25462756
-0.08967523 0.088754795 0.061850302 -0.030015988 0.6490199 -0.12500286 -0.118952364 0.9127682
-0.74195564 -0.5113509 -0.18711215 -0.16528638 0.08861236 0.12884858 0.2505937 -0.02576194
0.02955032 0.14589684 -0.06358835 0.089779936 0.020351524 0.015652642 0.10645268 -0.043236885
-0.07380857 0.42739388 0.064457156 -0.01784607 -0.08875286 0.04933644 -0.009730024 -0.047855932
-0.13567325 0.07628631 -0.25259772 0.0043921135 0.1427964 -0.09600615 -0.08884258 0.321675

actor.0.bias f4 [128]
00000000: 96fa 80bc f4f9 0abd c5e1 17be 5c07 8bbc
00000010: d5eb 4b3e 3720 fe3c b611 c2bc 94e4 34bb
00000020: 5b43 583d c122 673d da5c ccbc 8de6 b63b
00000030: 3a4c 743d 326c fcbd e3a4 2f3d 2589 353e
00000040: 973d b3bd 3a72 453d e683 003e d7ed 81bb
00000050: 2b6f 7f3e 0874 573e 2d56 113e 251d d73d
00000060: 537c c5bd e068 463e ce13 153d 1e2f 543d
00000070: fb7e 023b 385a eebd 72ca 463e 4b45 c7bd
00000080: eb53 033e ede7 123e 4907 a93d 47e6 fdbc
00000090: b87e 7d3c 581f a9bc 39e3 18bd 0ae7 253e
000000a0: f538 ea3b 1f54 c03d 1479 ccbc a4af 293e
000000b0: f206 253e 5799 2c3d e360 b63e d633 513e
000000c0: db83 e7bd de44 67bc 1418 243d f3b9 01be
000000d0: 18d6 4b3a 88ca 0a3d e959 6c3e 1834 513b
000000e0: c805 adbc b49c 05be 3ea4 92bd 591d febd
000000f0: ee4d b9bd 3af5 913d c88c 403e f5e2 f93d
00000100: 26a3 49be f4c0 88bc 83fe 4a3d b948 073d
00000110: b514 423e d976 f83d a35c 23be dcce 19bd
00000120: 1429 9a3e e956 833d ca0e 503d 2ca8 b03d
00000130: ef78 c73c 0016 563d fb6b 173e f52e 133e
00000140: cc45 02be 1307 9dbd b8b7 403e aa7e 4a3d
00000150: 3aa9 53bd 71fe 99bd e4b0 33be 54fd 18bd
00000160: d983 4f3d c034 b23d 38b1 623e 5edb 183e
00000170: c1ba d3bd 35e7 af3d 08d0 583e 718b 9c3d
00000180: 931b 3d3e b1da a8bd a2f8 3a3e 94ec 203e
00000190: 184b 093e 8050 313e d99f c3bd da5d 81bd
000001a0: abff 54bd dc8f 623e 894f 1bbe d520 ef3d
000001b0: 40d1 3ebd 7cb6 123e 1483 efbc c5eb eebc
000001c0: 6bba 913d 2066 f4bd 868c 64bd 259b bb3d
000001d0: 732f 113e ac72 fc3d bce3 e8bd 8dc1 5e3d
000001e0: 5cbf c03d 14d0 01be 95fc 9bbd eb60 f0bd
000001f0: c967 013e 5433 a1bd 29b1 443e 61b9 1b3e
-0.015744489 -0.03392978 -0.14832218 -0.016971283 0.19914182 0.03102122 -0.023690086 -0.0027602063
0.05279861 0.05642963 -0.024946619 0.005581683 0.059643008 -0.12325324 0.042881858 0.17728098
-0.08751982 0.048204638 0.12550315 -0.0039651203 0.24944751 0.21040356 0.1419303 0.10503606
-0.096428536 0.19375944 0.03639584 0.051802747 0.0019912112 -0.116383016 0.19413164 -0.097300135
0.12824981 0.14346285 0.08253343 -0.030993594 0.015472107 -0.020644829 -0.03732607 0.16201416
0.007147903 0.09391045 -0.024960078 0.16570908 0.1611593 0.042138424 0.35620794 0.2042993
-0.11304446 -0.01411554 0.040062025 -0.1266859 0.0007775738 0.033884555 0.23081173 0.003192192
-0.02112092 -0.13048059 -0.07160233 -0.12407941 -0.09048067 0.071268514 0.18803704 0.12201492
-0.19691142 -0.01669357 0.049559128 0.033028338 0.18953212 0.121320434 -0.15953307 -0.037550792
0.30109465 0.06413061 0.050795354 0.08625826 0.024349658 0.052267075 0.14787285 0.14373381
-0.12721938 -0.07667365 0.18820083 0.049437203 -0.05167506 -0.07519234 -0.17547947 -0.037350968
0.05066285 0.087014675 0.22137916 0.14927432 -0.10338355 0.08589021 0.21173108 0.07643784
0.1846755 -0.08244837 0.18258908 0.15715247 0.13407552 0.17315865 -0.09551973 -0.06316729
-0.052001636 0.2212519 -0.15167059 0.11676184 -0.046586275 0.14327425 -0.029237308 -0.029165158
0.071156345 -0.11933541 -0.055798076 0.09160451 0.14178257 0.123265594 -0.11371562 0.054383803
0.09411499 -0.12677032 -0.076165356 -0.11737236 0.12637247 -0.07871118 0.19208206 0.15207435

actor.2.weight f4 [64, 128]
00000000: 1c2f a83c 5adc d9bc 8ab5 a23e 3495 193d
00000010: 18ef 6a3e 7bf8 c53c 946c 293d 3eab aa3d
00000020: 229f 683d 3c3c 0d3e df35 bc3d 5e38 43bd
00000030: d4ea 223e 30a9 68bd 485e 583c 98cf 673d
00000040: ca7a 59bc 6fae 0f3e 22f9 003e 0d06 553c
00000050: 7746 dc3d 8ef4 eabd de8f 583d 9263 13bd
00000060: 0980 4d3d 280a e3bd 41e7 633d 0a74 e83b
00000070: 7d30 0d3e 1d8d dc3d fa28 203e 9544 edbd
00000080: 2e47 c53d 58be ffbd 36a9 80bc abf0 18be
00000090: 5640 09bd 76e2 79bd b407 573e 7700 353e
000000a0: 18b0 b33b 15a4 1cbc d48c b2bb ae31 f73d
000000b0: fe53 a73d 7aa1 b73e 3cfe 3abe d777 fd3d
000000c0: 3b6c 2e3c f10b ba3d 7307 783d 0f49 e2bc
000000d0: 7b29 443c 0a4c ffbd 11e7 913d 7158 47be
000000e0: 7141 bd3c da55 c7bc 66f7 8fbe 21e4 aebd
000000f0: d0b5 4e3e f005 bcbd 82e1 07be c130 25be
00000100: 0b09 f63d 5179 9f3d ecf4 4f3c 4b00 67bc
00000110: 43ee da3d 2cac 6f3d 78d9 d4bb 8dc5 44be
00000120: dadf e0bd 4dcd 6cbe 6130 893d bfc9 12be
00000130: 2021 293e 2011 4cba b92e acbd 6ea5 f03a
00000140: 8615 413c cd07 c5bc 073b a5bd b040 593e
00000150: 32be dabc 3194 50bd 5f4b 96bd 5768 ad3d
00000160: 3327 5dbd e9da a5bd 409b 593e fafa cd3d
00000170: aa3b 323e 84bb bc3c 6422 f2bd eade 0cbd
00000180: 907f 9abd f47c 53be a724 803d 9cd3 94bd
00000190: 861e aabd 05d3 12be 7d38 afbe a9c3 b6bd
000001a0: da05 643d 31e7 68be 3899 65bd 6807 3f3d
000001b0: 71c4 723e 408c 3fbd 3e2c cabd 95ee 21be
000001c0: 12fc a039 b77d dcbd e44e b93c 454b c33c
000001d0: ff0e 5f3e 461f 35be e894 7e3c 6a6d 11bd
000001e0: 7841 783e 3023 053e 0c83 073d 5317 9cbd
000001f0: 4c14 eb3d 7c88 213e 12f2 dcbb 31f5 4dbe
00000200: 2fb8 0e3e 4a30 173e 4309 813e 466a 13be
00000210: ed13 b4be 3bf7 133d fd81 7d3c df7a 61bd
00000220: dba1 22be ca91 19bd 6523 a63e bc1b 093d
00000230: 3612 8fbd b21d 51be 434d dd3d 8046 6fbe
00000240: 42e9 903d 0427 1a3c 0362 12be 366a 053e
00000250: caae 013f 73a5 5cbe e4c9 183d 3aea bfbd
00000260: d997 ff3a 0423 81bd 36ed 3e3e 612e b63d
00000270: 6ecf 0fbd 5307 043b 7ad1 b13d 2d6d 5d3e
00000280: 027b cd3d 8fc5 063e 88d5 b23d 8bbb 01bd
00000290: 7ba6 a0ba 86db e7bd 6698 633e 50dd 443e
000002a0: de18 0cbc cd0a db3b d7e9 e4bd 182c 21be
000002b0: 160d 053e 5fb9 833e 7ea8 d23d 7a67 2e3c
000002c0: 49b1 283e 69ec acbd 7521 e5bd a3a8 c2bd
000002d0: d9a0 14be 99ac 4b3d 341e 81bd 4a1d 5dbe
000002e0: c78d ac3c 52d1 4d3d 0b2b 543e 8932 43be
000002f0: 7c95 adbc 7ab6 b8bd 0ec9 d5bd 3897 8a3e
00000300: 499c 64be 0b80 a6bc e453 02be 75cf abbd
00000310: 39ef 7fbb 9dd0 e5bc 5fda e8bc 7b01 623e
00000320: cac4 1a3e 5f69 1fbe 4c90 12bd da5b 393d
00000330: f120 edbd 1f79 9abd a4fd 9a3d 7d43 2a3e
00000340: a502 2fbe 5558 b9bd 8207 3dbd c373 adbd
00000350: c7fb a7bd da65 0a3d 9d87 ecbd 4dca 93bd
00000360: a5e9 f8bd f7aa 863e cd6b 77be 3c88 5d3d
00000370: 5a29 1ebe 2c20 0b3e 4641 ddb9 e64b b83b
00000380: bce1 07bd 69b0 db3d 92fb bdbc f5a9 febd
00000390: 22c3 8fbd aec3 073d 59fb 803d 02bb 173e
000003a0: 29d1 8f3d 3aab df3d ee25 d6b9 030b d23d
000003b0: c135 833e f069 46bd ceeb c73c 5b23 5d3e
000003c0: 967e 1bbd 4b03 7c3d 01c8 893d 827c 31bc
000003d0: 8083 303e e575 83be 540b cebb f26c 24be
000003e0: 7594 a5be f15d 3bbe c786 693d 86fb 98bd
000003f0: 4f34 22bd 3337 823d 107b 17be d401 cdbc
0.020530276 -0.02659433 0.31779128 0.037495807 0.2294277 0.024166336 0.041363314 0.08333443
0.056792386 0.13792509 0.091899626 -0.047661178 0.15909892 -0.056801975 0.013206072 0.05659446
-0.013273904 0.14031385 0.12595037 0.013001931 0.107556276 -0.11472426 0.052871577 -0.03598363
0.050170932 -0.110859215 0.055640463 0.007093911 0.13788028 0.10769103 0.15640631 -0.115853466
0.09632717 -0.12487477 -0.015705686 -0.14935558 -0.03350862 -0.061006986 0.20999032 0.17675959
0.0054836385 -0.009560605 -0.005448917 0.120700225 0.08170317 0.35865384 -0.18261045 0.12376373
0.010645921 0.09084309 0.06055398 -0.027622728 0.01197278 -0.12465675 0.071241505 -0.19467331
0.023102494 -0.02433293 -0.28118438 -0.08539606 0.20186543 -0.0918082 -0.13269618 -0.1613188
0.120134436 0.07786811 0.012692671 -0.014099191 0.10689976 0.058513805 -0.006495651 -0.19215985
-0.10980196 -0.23125191 0.06698681 -0.14334773 0.16516542 -0.0007784534 -0.08407349 0.0018359849
0.011784917 -0.024051571 -0.08067899 0.21216083 -0.02670202 -0.050922576 -0.07338595 0.08467167
-0.05399246 -0.080983944 0.2125063 0.100576356 0.17405573 0.023038633 -0.11822966 -0.034392275
-0.07543862 -0.20653135 0.06256991 -0.07266924 -0.08306603 -0.1433831 -0.34222785 -0.08924038
0.055669643 -0.22744443 -0.056054324 0.046637923 0.23707749 -0.046764612 -0.0987172 -0.15813668
0.00030705385 -0.10766166 0.022620626 0.023839602 0.21783064 -0.17687711 0.015538432 -0.035504736
0.24243724 0.13001704 0.03308396 -0.07621636 0.11478481 0.15774721 -0.006742724 -0.20113064
0.13937448 0.14764515 0.2520238 -0.14396009 -0.35171452 0.03612445 0.015472886 -0.05504882
-0.15882055 -0.03749255 0.3244888 0.033473715 -0.06985895 -0.20421484 0.10805752 -0.23366737
0.070757404 0.009408716 -0.14295201 0.13028798 0.5065733 -0.21547489 0.037301913 -0.09370847
0.001950021 -0.06305507 0.18645176 0.08895565 -0.03510993 0.0020145967 0.086825326 0.21623679
0.100332275 0.131613 0.08732134 -0.031672996 -0.0012256646 -0.11321168 0.22226104 0.19225049
-0.008550851 0.006684637 -0.11177414 -0.15739477 0.12993273 0.25727364 0.102860436 0.010644788
0.16473879 -0.08443529 -0.11188022 -0.09504821 -0.14514484 0.04972515 -0.06304589 -0.21593204
0.021063698 0.05024845 0.20719545 -0.19062246 -0.021189444 -0.0901918 -0.10438739 0.27068496
-0.22325243 -0.020324728 -0.12727314 -0.08389179 -0.00390525 -0.028053576 -0.02842444 0.22070877
0.15114132 -0.1556754 -0.035782143 0.045253612 -0.11578549 -0.07542633 0.07567909 0.16627307
-0.17090853 -0.09050051 -0.046149738 -0.084693454 -0.082023196 0.03378854 -0.11549304 -0.0721632
-0.12153939 0.2630231 -0.24162216 0.054085 -0.15445462 0.13586491 -0.00042201037 0.005624282
-0.03317426 0.10727007 -0.023191247 -0.124347605 -0.070196405 0.0331456 0.06297941 0.14817432
0.07022316 0.10921331 -0.0004084552 0.102560066 0.25626948 -0.048440874 0.024404433 0.21595518
-0.03796252 0.061526578 0.06727601 -0.010832908 0.17237663 -0.25675884 -0.0062879715 -0.16057184
-0.32339826 -0.18297555 0.0570133 -0.07469849 -0.039600667 0.06358185 -0.14793038 -0.025025286

actor.2.bias f4 [64]
00000000: 9cdd 653d 7f77 22bd 0235 363c 40cc e8bd
00000010: 8d59 803d e4bd 00bd f7e9 87bd 159d d5bd
00000020: dc92 dfbc 47c8 f23b cb9e 8f3d 162e fbbc
00000030: c95c ecbd f58e dbbd 7ff4 033e 1c78 00bd
00000040: 5b6b 99bd 1e07 8a3d c205 183d 667f b23d
00000050: c576 ea3d 0081 2a3e e6ca 9cba a18a 8abd
00000060: 2c88 e93c 00db 583d a151 26bb f66d 833c
00000070: 4de1 063e 6a9a 323d e6e1 2c3d 8eab 203c
00000080: f155 debd 67d3 2abd 77a6 afbc b04b 74bb
00000090: cebe b23d 63d0 d2bc d650 0ebb e8eb 07bb
000000a0: 5727 673c d816 a7bc e169 f7bc 4e94 423d
000000b0: d857 09bd 17b6 023d b80f c53d cd6b 673d
000000c0: dd91 b03c 0b39 a53d 56f6 22bc 19e9 75bd
000000d0: a580 a9bd 824b d3bd 4de7 453d ae84 ac3d
000000e0: 277c 55bd d07e 7f3d 9f9c 65bc 9abb 2c3d
000000f0: 7b22 a7bc e5ee 8d39 a4b8 a83d dded b4bd
0.056119546 -0.03966474 0.0111210365 -0.113670826 0.062670805 -0.031431094 -0.06636422 -0.10430352
-0.027291708 0.007409129 0.07012709 -0.030661624 -0.11541135 -0.10720626 0.12886237 -0.031364545
-0.074911796 0.06739639 0.037114866 0.087157056 0.11448435 0.16650772 -0.0011962324 -0.067647226
0.028507315 0.05294323 -0.0025378244 0.016043644 0.13171883 0.043604292 0.04220762 0.009806527
-0.10856236 -0.041705515 -0.021441681 -0.0037276559 0.08727799 -0.025734132 -0.0021715662 -0.0020739976
0.0141085 -0.020396635 -0.030201854 0.047504716 -0.03353104 0.031911936 0.09622139 0.05649929
0.021553928 0.08067521 -0.009946426 -0.060036752 -0.0827649 -0.10317136 0.04831629 0.08423744
-0.052120354 0.062376797 -0.014014392 0.0421711 -0.020402184 0.00027071606 0.082383424 -0.08834431

actor.4.weight f4 [16, 64]
00000000: 8d1c 4fbe b88c ea3d 6ce3 70be 2690 dcbd
00000010: 5723 9bbd 1f64 0dbf 8289 5abe f802 263e
00000020: 1cad 203f 240d 2cbd c4fb 8e3d 5c1c e63e
00000030: 6954 d4be 371b ba3e 457c 2bbe 9860 a93e
00000040: ea21 273f 7781 98be 9ac6 cebd b05d 8a3e
00000050: ac14 b13e a996 ed3e b311 05bf fa67 323e
00000060: 3355 7e3e cebd 97bc f7df 113f 9b5a 2fbf
00000070: 6e07 0c3e fe89 bd3e d36f 303d 2997 a33e
00000080: 854e 0d3f f5b1 16be 2f95 53be 11da 2e3f
00000090: 5703 793d 42f5 f73d f313 853e 72e0 0f3e
000000a0: 949d 883e b429 6e3e acfa 84be 4a1f b03e
000000b0: 6686 35bd 9783 e7be 2dc4 8e3e adf5 d43c
000000c0: 4aeb 5bbe cece c43e 8750 1b3f ddf6 80be
000000d0: 4078 0abe c710 5f3d f014 a0be 5fa5 03be
000000e0: e9dd bd3e bfa6 033f b3f6 6dbd b4d7 893d
000000f0: 4b70 5ebe 6448 e33e 4c59 5e3e 5902 b3be
00000100: ad85 16bf aa60 8bbe f72e 413f 792a 15bd
00000110: 63e4 0fbe cf17 dc3e 5144 533e 2112 403e
00000120: 2333 ddbe 046f 823e 3868 2fbf 02f2 383f
00000130: 5fd8 74be 3ef9 de3e 8053 d83c 69c7 fcbe
00000140: 5cad 0bbf f88c 16be e8b0 053f 2c1f 1c3e
00000150: ee8f 5ebe 247a 7abd 5d15 b3be 2c1c cc3e
00000160: bec7 d83c cc68 3bbf c7d7 8fbe 9f8d 503d
00000170: f1ee 5abe 090a 853e e6d9 793e b805 d6be
00000180: 13fb abbe 3da6 48be 4dec b0be 8686 ffbe
00000190: 3ea4 0cbf 5852 543e 184c 4dbf db57 5a3e
000001a0: 89ab ac3d 0fdd 1a3e 95e5 35bd 40c6 90be
000001b0: 0f53 95bd a5a6 7a3e b409 1abf 8b81 72bf
000001c0: 7dc7 143f cdbf e33e 6e5d 34bf 87bb 873d
000001d0: e0c0 b6bd e149 a63e 6d34 bdbe e0fd c8bd
000001e0: dff9 6a3e 0122 bcbe 03ef 523e 5798 8e3b
000001f0: 0bfd 6bbe 722f dfbd 763e 763e 97c3 0c3e
00000200: 2e28 acbc e378 0a3e 6012 a6bd 1a31 e33e
00000210: 6ce5 1d3f 133c b23d 529d 463e 0504 23be
00000220: 0e71 1d3d 2f8d 4d3d 3c56 dfbe 5fd9 2dbc
00000230: b582 143e d10c 113c 9f07 d83e ed34 c0bc
00000240: 3d62 00be c648 5f3d 6fea 0c3e c82e abbe
00000250: 1f83 56be 55f9 f1be 4758 6d3d 07f3 34be
00000260: 701a b0bc 9219 ad3d 88d4 883d d8c8 1ebd
00000270: 7c07 83be cf0b e3bd 6ab9 9bbb 240f c13d
00000280: a36e 3b3e 96bc 863e 65f8 93bc c2f9 89be
00000290: 4867 9abe e1da f2bd a6a8 0ebf c4a1 a8be
000002a0: b9ff 08bf c710 67be 7b62 043e a474 833e
000002b0: 2d28 46be eccf 4a3e f286 94be a073 86be
000002c0: 9cd8 543e 674d cfbc c50f 6dbe a160 163e
000002d0: 53b1 023f 450a 223e 6ea3 413e e278 093e
000002e0: bf35 adbe 9b8f a83d 2f66 0f3e 4212 b6be
000002f0: 7842 ab3e 44a4 843e 97f3 75be 0ea9 e83d
00000300: 4a0f 283f 035e 373f 6d14 f33e 66f2 3bbe
00000310: ae02 3dbe 2620 c33e bb7e 583f b44b 05be
00000320: e3c3 823c 6cea 2dbf daf0 8cbe 3a00 e4be
00000330: 7fa4 c23e 5650 3a3f 5f0b 07bf 985e 9d3e
00000340: 1cff 44be 1ff7 993e 1c20 5b3f 6f4b d53e
00000350: 63d9 843f 3d56 003f 19e6 343f 5fb4 9a3e
00000360: 9358 07be 5e42 4dbf dca7 d73e 46f6 423f
00000370: 8cc9 1b3f 7084 0a3e bca4 d0bd 034e 0b3f
00000380: 649e 1abf 93f4 b53e bd74 303e 86ae 9c3d
00000390: d20e ea3e c7aa 973e a206 103e 1703 46be
000003a0: 2f6f 283e 59eb 76be c0b6 1ebe 56f2 8f3d
000003b0: f124 ba3e 2d01 82be 4c16 a13e 55ce 0f3f
000003c0: 07a3 57bd f998 04bf aa68 103d 291d 39be
000003d0: ebd7 84bd cde7 96be 077d a33d 43cd 483f
000003e0: b6c6 0bbe 9571 293f 0bec 60bf 27d9 903d
000003f0: bae2 ce3b 12d3 273e 1e9a abbe 8b57 26bf
-0.20225735 0.11452621 -0.23524255 -0.10769682 -0.075751 -0.552309 -0.21341518 0.1621207
0.62764144 -0.04200472 0.06981614 0.4494351 -0.4147065 0.36348888 -0.16746624 0.33081508
0.65286124 -0.29786274 -0.10096474 0.27024603 0.34586084 0.46404007 -0.5198013 0.17422476
0.24837188 -0.018523123 0.5698237 -0.6849763 0.13674709 0.37019342 0.043075394 0.31951264
0.55197936 -0.14716323 -0.20662378 0.6830149 0.0607942 0.12107326 0.25991783 0.14050463
0.26682723 0.23258096 -0.25972497 0.34398872 -0.044317625 -0.45217583 0.27884045 0.025996054
-0.21476474 0.3843903 0.6066975 -0.25188342 -0.13522434 0.05445936 -0.31265974 -0.12856053
0.37083367 0.5142631 -0.0580966 0.06730595 -0.21722524 0.44391167 0.21713752 -0.3496273
-0.58797723 -0.27222186 0.7546229 -0.03641746 -0.14051966 0.42986915 0.2063153 0.18756916
-0.43203077 0.25475323 -0.685184 0.72244275 -0.23910664 0.43549532 0.026407003 -0.49370888
-0.545614 -0.14702213 0.5222306 0.15246266 -0.21734592 -0.06115164 -0.34977236 0.39865243
0.026462432 -0.7320678 -0.28094313 0.05091631 -0.21380211 0.2598422 0.24399528 -0.41801238
-0.33589992 -0.19594665 -0.34555283 -0.4990732 -0.54938114 0.20734537 -0.80194235 0.21322577
0.08431155 0.1512339 -0.0444084 -0.28276253 -0.07291233 0.24477632 -0.60171056 -0.94728917
0.58116895 0.4448227 -0.7045506 0.06627565 -0.08923507 0.3247824 -0.3695406 -0.09814048
0.22946881 -0.36744693 0.20598988 0.0043516564 -0.23045747 -0.10897721 0.24047264 0.13746487
-0.021015253 0.13522677 -0.081089735 0.443734 0.61678195 0.087028645 0.1939595 -0.15919502
0.038437895 0.05018347 -0.4362048 -0.010610907 0.14502986 0.008853153 0.42193314 -0.023462737
-0.12537475 0.05451276 0.13761304 -0.3343413 -0.20948456 -0.47260538 0.057945516 -0.17670833
-0.021496981 0.08452143 0.06681162 -0.03876576 -0.25591648 -0.11086237 -0.0047523277 0.09426716
0.18303923 0.26315755 -0.01806278 -0.26948363 -0.30156922 -0.11858154 -0.5572609 -0.32935917
-0.535152 -0.22564994 0.12928192 0.25674927 -0.19351263 0.19805878 -0.29009205 -0.2626009
0.20785755 -0.025305463 -0.23150547 0.14685299 0.51051825 0.1582423 0.1891 0.1342502
-0.33830068 0.082305156 0.14003824 -0.35560805 0.3344915 0.25906575 -0.24018703 0.113603696
0.6564833 0.71627825 0.4747652 -0.18354186 -0.18458053 0.38110465 0.84568375 -0.1301716
0.015962547 -0.67935824 -0.27527505 -0.44531423 0.38016126 0.7277883 -0.52751726 0.30736232
-0.19237942 0.3007135 0.8559587 0.41659114 1.0378841 0.5013159 0.706636 0.30215737
-0.13217382 -0.80179393 0.42120254 0.76157033 0.6085441 0.13527083 -0.101876706 0.5441591
-0.60397935 0.35538158 0.17232032 0.07650475 0.45714432 0.2962248 0.1406503 -0.19337116
0.16448663 -0.24113216 -0.15499401 0.07028644 0.3635631 -0.25391522 0.31462324 0.5617421
-0.05264571 -0.5179592 0.035256065 -0.1807753 -0.064864956 -0.29473725 0.079828314 0.78438205
-0.13650021 0.6618894 -0.87860173 0.070726685 0.006313649 0.1638911 -0.3351602 -0.6497733

actor.4.bias f4 [16]
00000000: 5cd2 eebc b25d 9c3d 3a6e 55be ff58 ff3d
00000010: d6f8 933d 1b8c e3be 6604 273e fe97 c6bc
00000020: 3975 f5be 61dc 0fbe 63da 973d f7e9 9dbe
00000030: b363 f0bd e3a4 a43d 3124 ccbe 299b 983d
-0.029153042 0.076350585 -0.2084283 0.124681465 0.07225196 -0.4444283 0.16310272 -0.024242397
-0.47940996 -0.14048912 0.07414701 -0.30842564 -0.11737766 0.08039262 -0.39871362 0.074514695

lstm_critic.weight_ih_l0 f4 [40, 1]
00000000: 03e9 9a3e 21d5 933e 9b17 9dbe 8838 e93d
00000010: e060 53be e4d2 a43d ea60 743e e6fb 413e
00000020: ee0e f9bd a2f5 5f3e 4877 36bd 5af3 2abe
00000030: e664 7abe d645 97be c05f ebbc 2e38 5a3e
00000040: 845b 89be 6472 9abd 2420 823d 1c30 a1be
00000050: 19f0 1ebe 0b8f 09be 4776 9c3e 0dec 9dbe
00000060: 2190 833e 3861 333d c000 4bbc 2623 8cbd
00000070: 9139 98be 9888 2f3d 2154 9bbe 905d 2bbd
00000080: 2474 b33d caad c5bd e1f6 8a3e 4011 d7bd
00000090: a89f 84bd 741f b9bd 87fe 853e a044 413d
0.302559 0.28873542 -0.30682072 0.113877356 -0.20642424 0.08048037 0.23865095 0.18943748
-0.12161051 0.21871045 -0.04454735 -0.16694394 -0.24452552 -0.29545468 -0.02873218 0.21310493
-0.26827633 -0.075413495 0.063537866 -0.31482017 -0.15521277 -0.13433473 0.30558988 -0.30844155
0.256959 0.043793887 -0.0123903155 -0.068426415 -0.2973142 0.042854875 -0.30337623 -0.041837275
0.087623864 -0.09652288 0.2714148 -0.10501337 -0.064757645 -0.09039202 0.2617075 0.047184587
