PPO_preTrained/2/PPO_2_0_50.pth (torch, 453647 bytes, 15 tensors)

actor.0.weight f4 [256, 55]
0.17450899 -0.055771474 0.053230654 -0.09497419 0.0962268 0.008360135 0.123395644 -0.09418319
0.0692301 -0.026745759 0.022443047 0.00041950482 0.17986287 0.030275002 0.1682162 -0.058734212
-0.10994149 0.14997071 -0.10332943 0.17742002 -0.19278817 -0.14946568 -0.11390254 -0.10629541
-0.06007567 0.052093472 -0.05749087 0.18718909 0.03325458 -0.050148893 -0.057085406 -0.0999337
-0.04819069 -0.044594746 0.1378906 -0.090912335 0.005786752 0.13391359 0.06179277 -0.027867991
0.15884672 -0.08619708 -0.042907637 -0.22023273 -0.12622404 -0.085158564 -0.050663702 0.13902383
-0.064008676 -0.02967727 0.029370459 -0.06905622 0.2583581 0.05780692 0.100890584 0.107054286
0.14395691 0.11704508 0.0030769217 -0.04229075 0.16468231 -0.094851665 0.078583926 0.0548435
0.025479406 -0.17511581 -0.09810657 0.056910038 -0.024486715 0.1557146 -0.16752528 -0.11493093
-0.033941247 0.023016855 0.20497544 0.08292772 0.10093314 -0.03265766 0.13449499 -0.047476225
0.14182527 0.088077195 -0.05172459 0.036652565 -0.11504328 -0.080831274 -0.049942035 -0.014886858
0.05371113 -0.03452228 0.07163898 -0.023808876 0.13385306 -0.11387842 -0.048082888 -0.037208095
-0.03948051 -0.10002894 -0.009534718 0.013837531 0.024188172 0.14101055 -0.1455911 0.15149185
0.0075608715 0.0026702438 -0.07870032 0.100304365 0.032911487 -0.23642386 -0.0016707866 0.10840897
0.1302728 -0.104508534 0.06973549 -0.008855453 0.041950334 -0.12214657 -0.124899715 0.10920295
-0.10270372 0.12489431 0.08265447 0.13109304 0.16484827 0.10557938 -0.076141424 0.13008535
-0.14159352 -0.12661754 0.244733 0.022460792 0.22451691 -0.028626643 -0.14245994 -0.023817433
0.15726191 0.08853289 0.15696791 0.029323671 0.06058877 -0.047100835 -0.002246475 0.12453397
-0.08417544 -0.109752156 0.087668784 0.13345596 -0.09610451 0.10405685 -0.03378911 -0.030136524
-0.017478853 0.05334979 -0.09845326 0.07845397 0.07012931 0.07717687 6.393986e-05 0.08098224
0.18936981 0.040336296 0.10207643 -0.13358739 -0.025324317 -0.037372462 -0.07444529 0.03944598
0.00016764677 -0.08223583 0.13822767 0.031772733 -0.00434422 0.08300031 0.115585774 0.042673767
0.13521826 0.11016384 0.034957092 0.06293343 -0.06287421 0.09606939 -0.047559235 -0.09158519
-0.12226486 0.12785871 0.21000342 0.039210994 -0.07276037 0.139347 0.15829706 0.11533273
0.041221514 0.116099015 -0.08311884 -0.023538617 -0.06281256 0.14660673 0.14354716 0.03360976
0.096683495 -0.10732616 0.06749039 0.025704538 0.080857836 0.20329365 0.12568644 0.041393757
-0.0992058 -0.117396556 -0.116907746 0.05038011 -0.02596993 -0.017378194 0.0093194395 0.009402026
0.12281372 0.15766922 -0.10623407 0.12525296 0.05470371 -0.034956243 -0.14904901 0.08478562
-0.0857715 0.057113178 -0.050185498 -0.04118975 -0.059256196 0.13358991 -0.016811505 0.016003108
0.039468236 -0.047727 -0.11956468 -0.04249884 -0.13619205 0.07510008 -0.030954896 0.005452824
-0.09398237 0.0032920297 0.04075174 -0.018054504 0.1391377 0.10893009 0.14407614 -0.06638497
0.12892787 -0.090423554 0.029850744 0.13277236 0.023607926 0.046231225 -0.008317101 0.006939167
00000000: 7cb2 323e a170 64bd 6308 5a3d d481 c2bd
00000010: 8e12 c53d f3f8 083c dbb6 fc3d 1ee3 c0bd
00000020: 83c8 8d3d ec19 dbbc 7bda b73c fcf0 db39
00000030: f92d 383e 4803 f83c de40 2c3e 4993 70bd
00000040: 0129 e1bd ec91 193e 619e d3bd 98ad 353e
00000050: 436a 45be 880d 19be bc45 e9bd 68b1 d9bd
00000060: e811 76bd f75f 553d 8c7b 6bbd 7fae 3f3e
00000070: f435 083d ed68 4dbd 63d2 69bd 0aaa ccbd
00000080: 9a63 45bd fba8 36bd 3233 0d3e 3f30 babd
00000090: cb9e bd3b a520 093e 6a1a 7d3d 6a4b e4bc
000000a0: b7a8 223e 1888 b0bd ebbf 2fbd b084 61be
000000b0: e040 01be 9d67 aebd be84 4fbd 435c 0e3e
000000c0: fb16 83bd bf1d f3bc 519a f03c 596d 8dbd
000000d0: 8347 843e f3c6 6c3d b99f ce3d 473f db3d
000000e0: 7169 133e 55b5 ef3d 2ea6 493b 1139 2dbd
000000f0: 7ba2 283e 9741 c2bd 9cf0 a03d 94a3 603d
00000100: 30ba d03c 8f51 33be 19ec c8bd 801a 693d
00000110: 5d98 c8bc a673 1f3e bf8b 2bbe e860 ebbd
00000120: fa05 0bbd d88d bc3c 15e5 513e 02d6 a93d
00000130: 09b6 ce3d 0ac4 05bd 0eb9 093e 6e76 42bd
00000140: a53a 113e d161 b43d 2add 53bd 0021 163d
00000150: d09b ebbd de8a a5bd 0590 4cbd 02e8 73bc
00000160: 3400 5c3d 3c67 0dbd 75b7 923d d50a c3bc
00000170: c710 093e 1739 e9bd 90f2 44bd 8467 18bd
00000180: 51b6 21bd f9db ccbd 8137 1cbc d0b6 623c
00000190: 4626 c63c 1265 103e d515 15be ae20 1b3e
000001a0: 30c1 f73b 42ff 2e3b a22d a1bd 606c cd3d
000001b0: 32ce 063d 1919 72be 4cfe daba 8605 de3d
000001c0: 3c66 053e 9208 d6bd 7bd1 8e3d 7616 11bc
000001d0: 1dd4 2b3d fb27 fabd 6ccb ffbd cca5 df3d
000001e0: 5456 d2bd 97c8 ff3d bf46 a93d 413d 063e
000001f0: fccd 283e 013a d83d 09f0 9bbd 1835 053e
00000200: e4fd 10be 07a8 01be 4a9b 7a3e b2ff b73c
00000210: c3e7 653e 6c82 eabc 05e1 11be c71c c3bc
00000220: 4409 213e bb50 b53d 32bc 203e 3238 f03c
00000230: ee2b 783d ceec 40bd 9939 13bb ab0b ff3d
00000240: 2c64 acbd bdc5 e0bd b18b b33d aea8 083e
00000250: 71d2 c4bd c21b d53d 7366 0abd dfe0 f6bc
00000260: d02f 8fbc 4f85 5a3d dda1 c9bd 7aac a03d
00000270: f59f 8f3d e80e 9e3d 7317 8638 04da a53d
00000280: 29ea 413e ac37 253d 730d d13d 22cb 08be
00000290: f174 cfbc de13 19bd c676 98bd 1c92 213d
000002a0: 56ca 2f39 426b a8bd 8e8b 0d3e 2024 023d
000002b0: f559 8ebb 11fc a93d 3cb8 ec3d b0ca 2e3d
000002c0: a876 0a3e 949d e13d 2b2f 0f3d 3ee3 803d
000002d0: 32c4 80bd 07c0 c43d 79cd 42bd 0491 bbbd
000002e0: 0066 fabd 65ed 023e 230b 573e b59b 203d
000002f0: 6403 95bd fbb0 0e3e a018 223e 9133 ec3d
00000300: e4d7 283d 52c5 ed3d 363a aabd 0fd4 c0bc
00000310: dfa3 80bd 1320 163e 07fe 123e 63aa 093d
00000320: ff01 c63d d1cd dbbd 6738 8a3d 5392 d23c
00000330: cb98 a53d 362c 503e f2b3 003e 808c 293d
00000340: 692c cbbd 9b6d f0bd 546d efbd 605b 4e3d
00000350: e4be d4bc b75c 8ebc 90b0 183c f50a 1a3c
00000360: c285 fb3d 0a74 213e 4091 d9bd 5042 003e
00000370: ff10 603d 472e 0fbd 4ea0 18be 15a4 ad3d
00000380: f8a8 afbd 82ef 693d 4f8f 4dbd 95b6 28bd
00000390: a0b6 72bd cbcb 083e 48b8 89bc f318 833c
000003a0: 72a9 213d 637d 43bd 54de f4bd 4313 2ebd
000003b0: ee75 0bbe 12ce 993d 1f95 fdbc 9aad b23b
000003c0: d479 c0bd 18bf 573b 4ceb 263d 0ae7 93bc
000003d0: 1d7a 0e3e bd16 df3d b288 133e d8f4 87bd
000003e0: ab05 043e fc2f b9bd 8c89 f43c 7af5 073e
000003f0: 6965 c13c f45c 3d3d 7344 08bc f461 e33b

actor.0.bias f4 [256]
-0.07678877 0.12073113 -0.073082246 -0.0028370158 0.054340996 -0.061696246 0.09857413 0.052092373
-0.005727503 0.014855287 -0.18284217 -0.13628146 -0.0077111884 0.04582575 0.06967732 0.1285549
0.002327667 0.045059156 -0.10885042 -0.012663609 -0.12093967 0.012015954 -0.11396575 0.034568332
0.054873154 0.040083524 -0.0072708866 -0.100161456 -0.07004018 -0.06729713 -0.043976784 -0.044135172
0.088187724 0.082704715 -0.0034741175 0.028976977 0.03895878 -0.0652958 -0.06059107 0.122769825
-0.12950021 -0.028982943 0.038990986 -0.040052712 -0.06220288 0.12648314 0.013076712 -0.019172695
0.117304996 -0.07450399 -0.0006953029 -0.041803647 0.14570752 0.076015204 -0.044901103 0.11742516
0.026738947 -0.060859818 0.05669113 0.12656252 -0.08403228 -0.13106932 0.09588902 0.00647171
-0.10163833 0.014799889 0.09671161 -0.070940234 0.11659596 0.10424337 0.04203701 0.038824372
0.09537733 -0.008172881 -0.11545471 -0.049715586 -0.02852361 0.03757043 -0.08870823 -0.093016036
-0.0021123616 0.09982152 0.040401172 0.064472064 -0.04712015 0.11600546 0.104937315 -0.124328844
0.039668344 0.05873327 0.14694402 0.054948293 -0.102436155 0.05960206 -0.018290821 0.03691397
-0.09150016 0.1687252 0.059169568 0.04317781 0.085593015 -0.12689117 -0.08046268 -0.026328556
0.09172503 -0.08486584 0.0068914085 0.100044295 0.051883593 0.062080797 -0.12622988 0.071582586
-0.002680277 0.10464631 -0.04276087 0.084810294 -0.05356121 0.07795485 -0.07631259 0.015024813
0.0040934193 -0.07411827 0.09610925 0.032085143 -0.060877897 0.087992586 -0.056460902 -0.13835281
-0.07086925 -0.072667055 0.035613656 -0.02597066 -0.00981074 0.045970168 0.071520925 -0.00111252
0.0019656438 -0.025526103 0.07633139 0.0018006868 0.05147765 -0.04950896 -0.073134884 0.08456757
0.0255951 0.033690058 0.099684045 0.104334705 -0.10617809 0.112647764 -0.013276109 -0.12429325
-0.03952204 -0.11807784 -0.08978521 0.03011132 0.14670146 0.1298902 0.014147535 0.13056587
-0.040034648 -0.0077141197 -0.024959033 0.07013695 0.00583072 0.07320773 -0.13756302 -0.06611392
0.04244808 0.15497144 0.115618005 -0.036746144 -0.06325011 -0.026982605 0.12509954 0.058149848
0.04633338 0.10348658 -0.10353707 -0.05966584 -0.12095381 0.029325373 0.03433699 -0.12727961
-0.00799516 -0.0009433925 -0.11453623 0.030328335 0.066376746 -0.07080562 0.113625236 -0.12588635
-0.0780543 0.089856625 -0.025930211 -0.052339822 -0.10502389 -0.06735984 0.060590997 0.09074428
0.072372496 0.088862665 -0.085836716 -0.06726723 -0.06365487 -0.046526592 0.036377918 0.044138517
-0.08411193 0.0027604615 -0.08757449 0.14430398 -0.06622933 0.06184492 0.04626231 -0.13497572
0.024982635 0.051782418 0.061162855 0.12989503 -0.13977093 -0.107325695 -0.014342897 0.09709844
-0.0233158 0.023181241 -0.11371763 -0.044709004 -0.00035469397 0.08525179 -0.10288741 -0.08754621
-0.103075564 -0.06185159 -0.0094180275 0.004430305 0.14288881 0.10891316 0.03194674 0.14743648
-0.12319269 -0.06405286 -0.031223219 0.09207861 0.11165547 -0.041504543 -0.11254917 0.1035673
-0.020775795 0.018190842 0.15178418 -0.06814691 -0.0024086132 -0.028071573 -0.08408748 0.09017836
00000000: 6e43 9dbd e241 f73d 25ac 95bd 3aed 39bb
00000010: aa94 5e3d 34b5 7cbd 3ce1 c93d d05e 553d
00000020: c7ad bbbb 9763 733c fa3a 3bbe 5e8d 0bbe
00000030: 23ae fcbb c8b3 3b3d fcb2 8e3d e5a3 033e
00000040: c68b 183b f38f 383d f8ec debd 077b 4fbc
00000050: 38af f7bd 90de 443c e066 e9bd 8697 0d3d
00000060: acc2 603d 9f2e 243d 9e40 eebb 7321 cdbd
00000070: 3a71 8fbd 14d3 89bd 0021 34bd 15c7 34bd
00000080: c49b b43d 1761 a93d 05ae 63bb 2061 ed3c
00000090: 3e93 1f3d ceb9 85bd 582e 78bd bf6e fb3d
000000a0: b49b 04be a36d edbc 03b5 1f3d 500e 24bd
000000b0: 72c8 7ebd cc84 013e b53f 563c 0e10 9dbc
000000c0: 9a3d f03d 8c95 98bd fd44 36ba 4d3a 2bbd
000000d0: 5a34 153e dcad 9b3d 38ea 37bd 9a7c f03d
000000e0: a30b db3c 2548 79bd f534 683d 9b99 013e
000000f0: 1e19 acbd 0937 06be 7661 c43d a310 d43b
00000100: c227 d0bd 3c7b 723c bd10 c63d 1d49 91bd
00000110: ddc9 ee3d 8c7d d53d 002f 2c3d 4e06 1f3d
00000120: 3155 c33d 8ce7 05bc 8573 ecbd 92a2 4bbd
00000130: 59aa e9bc 74e3 193d a9ac b5bd 317f bebd
00000140: 8c6f 0abb 3a6f cc3d b37b 253d ee09 843d
00000150: 0f01 41bd 4594 ed3d 60e9 d63d 1fa0 febd
00000160: 467b 223d 4c92 703d 7e78 163e 7611 613d
00000170: 0cca d1bd 4a21 743d a2d6 95bc 1a33 173d
00000180: 7064 bbbd 4dc6 2c3e ca5b 723d 37db 303d
00000190: 644b af3d c2ef 01be 9ec9 a4bd fcae d7bc
000001a0: 55da bb3d 24ce adbd 53d1 e13b 06e4 cc3d
000001b0: e483 543d 6f48 7e3d 6842 01be e499 923d
000001c0: 96a7 2fbb ce50 d63d 0626 2fbd 05b1 ad3d
000001d0: 0063 5bbd cba6 9f3d c649 9cbd a22a 763c
000001e0: 1722 863b 52cb 97bd edd4 c43d b66b 033d
000001f0: 1a5b 79bd 7535 b43d 8c43 67bd 5cac 0dbe
00000200: e623 91bd 77d2 94bd a0df 113d 6cc0 d4bc
00000210: 3abd 20bc 374b 3c3d 9079 923d fad1 91ba
00000220: 08d2 003b 1e1c d1bc a253 9c3d 0605 ec3a
00000230: 3ada 523d e8c9 4abd bec7 95bd c331 ad3d
00000240: d1ac d13c 96fe 093d 2627 cc3d 6fad d53d
00000250: e673 d9bd dfb3 e63d 0984 59bc 768d febd
00000260: dde1 21bd cbd2 f1bd 4fe1 b7bd 04ac f63c
00000270: e838 163e f001 053e 10cb 673c 0fb3 053e
00000280: 5ffb 23bd bac6 fcbb e376 ccbc f6a3 8f3d
00000290: a00f bf3b efed 953d 52dd 0cbe bc66 87bd
000002a0: 0ade 2d3d d5b0 1e3e 22c9 ec3d 2083 16bd
000002b0: 4689 81bd a00a ddbc 181a 003e 892e 6e3d
000002c0: 12c8 3d3d c6f0 d33d 3e0b d4bd 2b64 74bd
000002d0: a2b6 f7bd c43b f03c f2a4 0c3d 9655 02be
000002e0: 22fe 02bc 004e 77ba f991 eabd 2173 f83c
000002f0: 88f0 873d 8902 91bd 59b4 e83d 5ae8 00be
00000300: efda 9fbd c006 b83d 986b d4bc 4862 56bd
00000310: c416 d7bd f5f3 89bd 442e 783d 23d8 b93d
00000320: 0838 943d a1fd b53d 29cb afbd 67c3 89bd
00000330: 7c5d 82bd ab92 3ebd 0301 153d 97ca 343d
00000340: e042 acbd dce8 343b 415a b3bd 6cc4 133e
00000350: 3ea3 87bd 1951 7d3d 8c7d 3d3d 1337 0abe
00000360: 62a8 cc3c cd19 543d e785 7a3d 3403 053e
00000370: 1c20 0fbe 93cd dbbd 78fe 6abc 8cdb c63d
00000380: c700 bfbc 96e6 bd3c cae4 e8bd ca20 37bd
00000390: 38f6 b9b9 7e98 ae3d a2b6 d2bd 6d4b b3bd
000003a0: 4819 d3bd 1858 7dbd 124e 1abc 182c 913b
000003b0: 7251 123e dd0d df3d 96da 023d 97f9 163e
000003c0: 734c fcbd 252e 83bd d6c7 ffbc b693 bc3d
000003d0: a0ab e43d ab00 2abd 2e80 e6bd 181b d43d
000003e0: 0032 aabc f604 953c 506d 1b3e 9b90 8bbd
000003f0: d3d9 1dbb 5bf6 e5bc 0f36 acbd 6faf b83d

actor.2.weight f4 [128, 256]
-0.0011146609 0.1554207 -0.011958415 0.03312361 -0.15964386 -0.06675767 0.051264282 0.0034178614
-0.0077445935 -0.05677892 0.07220446 0.055688545 0.029316321 -0.07216543 0.0104904035 -0.04142159
0.0487038 0.06274839 0.0631906 -0.025054183 0.008161659 0.03489441 -0.0029824115 0.09790745
-0.026215719 0.07113948 -0.027615169 -0.009671918 0.045519955 0.0075305644 0.0042465706 -0.03189582
-0.06568975 -0.04887737 -0.030727664 0.092137575 0.0018564954 -0.020080065 0.037150215 0.019481335
-0.0043518096 0.07141699 -0.023068897 -0.028880391 0.03365771 -0.009460664 -0.0722211 -0.05081864
-0.03703512 -0.023333456 -0.007548534 0.026489481 0.017288115 0.03892812 0.021420188 -0.043609858
0.09180013 0.0650489 -0.04905508 0.011456473 -0.022624658 -0.07025229 -0.081582345 -0.01890024
0.061285213 0.0056576454 -0.073166505 -0.020090094 -0.066004954 -0.0130118625 0.035321884 0.02157155
0.00875146 -0.019532949 -0.16181809 0.021604452 -0.05557406 0.04369495 -0.010437476 0.008757452
0.055679966 0.0285823 -0.13363485 -0.0066619674 0.1831591 -0.0007499231 0.05090724 -0.0060497946
-0.06594672 0.010912271 0.013077767 -0.02407403 0.0055938815 0.08628947 -0.014369236 -0.012663785
0.14228563 -0.05617302 0.05905402 0.21111369 -0.0083059035 -0.15647088 -0.0073392135 0.024943614
0.041560814 -0.0040395795 0.050955635 0.09320789 0.011067189 -0.076875806 -0.045046665 -0.043921206
-0.027757986 -0.08282123 -6.506957e-05 -0.008129437 -0.031682204 0.057362717 -0.030596549 -0.009434278
0.07893134 0.046048004 0.052102838 -0.036030654 -0.058251426 0.023137096 -0.03954079 0.025218248
-0.08767826 -0.042899653 -0.06796358 -0.04152611 -0.06108923 0.06689837 0.046191387 0.0038430956
-0.051105253 -0.037310045 -0.1272421 -0.04053564 0.08422312 -0.054091536 0.024177454 -0.015243875
0.044904407 0.04249092 0.011350103 -0.027161814 0.061399404 -0.06340878 0.044068385 0.09849946
-0.022210633 0.0023807257 0.029112479 0.04181792 -0.032943405 -0.03043032 -0.075408384 -0.09847023
0.05462516 -0.05807534 -0.07663356 0.0120002655 -0.108232304 0.062496405 -0.12636398 -0.012297793
0.06972315 0.041920293 -0.07796314 -0.04984757 -0.0014035511 -0.06818823 0.07058748 0.03884545
-0.0034348965 0.051770046 0.099011555 -0.09638973 -0.01811666 -0.11240095 0.09562918 0.040150587
0.018800048 -0.050741673 -0.053745784 -0.06590514 0.0652578 -0.090632215 0.016234292 -0.002544671
-0.0111840945 0.014859473 -0.0046617747 0.05453764 0.009278997 -0.04238129 0.025096433 0.033167627
-0.06040305 0.017964825 -0.01854682 -0.08880615 -0.039317895 0.03873859 0.034971286 -0.023705298
-0.003910327 -0.04503692 -0.025749698 -0.01076386 -0.019472534 0.026929028 0.026857028 0.026152724
0.05578925 0.16896756 0.010417648 0.043297544 -0.03175739 -0.06309595 0.04952297 0.0011764918
-0.010924973 -0.023209782 -0.06524632 -0.08076667 -0.0067143217 0.0072049573 -0.000112544745 -0.06589924
0.054596692 -0.02791574 -0.0022778797 -0.12046176 0.00057579513 -0.02490366 0.007863867 -0.016585108
-0.042200416 -0.007924029 -0.0003408305 -0.071446516 -0.03234832 0.00734005 0.0073617217 0.08007748
0.0045791483 -0.009876881 0.1404099 0.015354866 -0.017569102 -0.040318407 -0.023827685 0.032128345
00000000: d019 92ba 9b26 1f3e 3aed 43bc 9fac 073d
00000010: ae79 23be 3fb8 88bd 7ffa 513d 33fe 5f3b
00000020: 5cc6 fdbb 0391 68bd efdf 933d ac19 643d
00000030: c828 f03c 78cb 93bd f1df 2b3c afa9 29bd
00000040: a37d 473d 3a82 803d 136a 813d 6e3e cdbc
00000050: 7bb8 053c 71ed 0e3d 9074 43bb b383 c83d
00000060: 59c2 d6bc 93b1 913d 3539 e2bc f776 1ebc
00000070: 2273 3a3d f4c2 f63b d126 8b3b 31a5 02bd
00000080: 5988 86bd a333 48bd 95b8 fbbc a0b2 bc3d
00000090: a655 f33a f37e a4bc d32a 183d 5297 9f3c
000000a0: a099 8ebb 1243 923d fcfa bcbc 9296 ecbc
000000b0: abdc 093d e700 1bbc a8e8 93bd 3527 50bd
000000c0: 23b2 17bd ce25 bfbc b159 f7bb 7800 d93c
000000d0: ce9f 8d3c 1873 1f3d 6479 af3c 40a0 32bd
000000e0: b501 bc3d 5c38 853d fbed 48bd eeb3 3b3c
000000f0: 5957 b9bc 6fe0 8fbd a514 a7bd add4 9abc
00000100: 3406 7b3d c563 b93b 52d8 95bd fb93 a4bc
00000110: 9b2d 87bd b52f 55bc aead 103d d2b6 b03c
00000120: 4962 0f3c 9003 a0bc a4b3 25be d2fb b03c
00000130: a0a1 63bd 7af9 323d f301 2bbc 6a7b 0f3c
00000140: ad10 643d 6d25 ea3c 93d7 08be a24c dabb
00000150: 0f8e 3b3e 7d96 44ba 1c84 503d 5b3d c6bb
00000160: 130f 87bd 62c9 323c 2144 563c e636 c5bc
00000170: e14c b73b 89b8 b03d f26c 6bbc c47b 4fbc
00000180: 53b3 113e ae15 66bd a1e2 713d 302e 583e
00000190: 7c15 08bc e739 20be c97d f0bb 8d56 cc3c
000001a0: ac3b 2a3d 735e 84bb dbb6 503d c7e3 be3d
000001b0: 2853 353c 1071 9dbd da82 38bd b9e6 33bd
000001c0: b764 e3bc 2d9e a9bd f675 88b8 5531 05bc
000001d0: 33c5 01bd 2bf5 6a3d 9da5 fabc 3b92 1abc
000001e0: c1a6 a13d d59c 3c3d c969 553d e194 13bd
000001f0: 0c99 6ebd 028a bd3c 86f5 21bd 8096 ce3c
00000200: a990 b3bd 8cb7 2fbd 7d30 8bbd 4817 2abd
00000210: b338 7abd 0302 893d 2e33 3d3d 72dc 7b3b
00000220: be53 51bd 6bd2 18bd c14b 02be b308 26bd
00000230: 2c7d ac3d 168f 5dbd cc0f c63c 72c1 79bc
00000240: afed 373d f50a 2e3d c8f5 393c 7482 debc
00000250: f17d 7b3d 76dc 81bd 0d81 343d 16ba c93d
00000260: 13f3 b5bc f305 1c3b 4b7d ee3c 4449 2b3d
00000270: aaef 06bd 0249 f9bc b66f 9abd c3aa c9bd
00000280: a2be 5f3d 68e0 6dbd 0ef2 9cbd c39c 443c
00000290: e6a8 ddbd 3bfc 7f3d 8f65 01be af7c 49bc
000002a0: 03cb 8e3d 9db4 2b3d 24ab 9fbd f72c 4cbd
000002b0: 5cf7 b7ba 45a6 8bbd 2b90 903d 681c 1f3d
000002c0: 001c 61bb d40c 543d 92c6 ca3d fb67 c5bd
000002d0: 6469 94bc 7832 e6bd 3bd9 c33d f174 243d
000002e0: 8f02 9a3c 80d6 4fbd 8a24 5cbd 46f9 86bd
000002f0: e2a5 853d 629d b9bd c7fd 843c 7fc4 26bb
00000300: 7e3d 37bc 2675 733c cdc1 98bb dc62 5f3d
00000310: ef06 183c 0198 2dbd 0997 cd3c c7da 073d
00000320: 3069 77bd f82a 933c 80ef 97bc 00e0 b5bd
00000330: cd0b 21bd 5bac 1e3d 0d3e 0f3d 9d31 c2bc
00000340: 3322 80bb a278 38bd 08f1 d2bc e75a 30bc
00000350: dd84 9fbc 449a dc3c 4503 dc3c 3d3e d63c
00000360: 4583 643d d505 2d3e c8ae 2a3c c458 313d
00000370: 0914 02bd 7338 81bd 99d8 4a3d 8434 9a3a
00000380: a8fe 32bc 7122 bebc dd9f 85bd ff68 a5bd
00000390: d003 dcbb 9017 ec3b 0006 ecb8 2ef6 86bd
000003a0: c8a0 5f3d 8daf e4bc 7b48 15bb a8b4 f6bd
000003b0: f5f0 163a c302 ccbc 73d7 003c 7edd 87bc
000003c0: 58da 2cbd c9d3 01bc 7fb1 b2b9 8d52 92bd
000003d0: ac7f 04bd cd84 f03b 993a f13b a9ff a33d
000003e0: ae0c 963b a4d2 21bc 9dc7 0f3e fa92 7b3c
000003f0: 14ed 8fbc ea24 25bd 4732 c3bc 0399 033d

actor.2.bias f4 [128]
0.037440903 -0.04628764 -0.042580478 0.01338512 0.013982487 -0.060538646 -0.032833952 -0.032549288
-0.035518736 -0.056435134 0.03626297 -0.020879462 -0.043461382 0.013651408 -0.04076459 0.049912352
-0.014290675 -0.05501921 -0.055159464 0.03074423 0.05934006 0.030712077 0.055202153 -0.029737128
0.02427771 -0.013321545 0.004276315 0.057923555 0.06964303 -0.021287255 0.032401863 -0.009937272
-0.011687803 0.05419158 -0.029891264 -0.041664723 -0.01927435 0.05672996 0.0050134277 0.02452168
0.026919626 -0.004098022 -0.052312057 -0.054478258 -0.039581027 -0.071015 -0.073723145 0.012984674
0.018365398 -0.037697632 0.002122844 0.003744676 -0.033977345 -0.030663803 0.05474426 -0.057056475
0.006487904 0.038646113 -0.031707097 -0.061863262 -0.021938913 -0.04386726 -0.05802572 -0.012981564
-0.05285498 -0.0034534791 -0.014621046 -0.03253279 0.06159174 0.033175595 0.040643103 0.034031484
-0.03406061 0.038773965 -0.012142421 -0.058819383 -0.037967905 -0.02899549 -0.032190036 0.042006526
0.015244644 -0.0007334526 0.011338917 0.0409313 -0.049079865 -0.0075500486 -0.024370786 0.004330055
-0.061118342 0.047650598 -0.025394531 -0.025206944 -0.003944075 -0.05002525 0.04493563 -0.010927823
0.049471725 -0.04225242 0.06862329 0.0127482405 0.00271982 -0.032213338 0.03525813 -0.004244694
-0.030803116 0.054030113 -0.012151118 0.021255638 0.038904466 -0.025526255 0.015649283 0.047920182
-0.008840971 -0.039853137 0.0055743 0.051814 -0.019814672 -0.0291697 -0.06901815 -0.017822092
0.038973205 -0.0044895196 -0.04399191 -0.032027103 0.019783301 -0.01641884 0.0522217 -0.03402329
00000000: a25b 193d 1c98 3dbd de68 2ebd 434d 5b3c
00000010: cd16 653c 5ff7 77bd e57c 06bd 6752 05bd
00000020: 187c 11bd 8728 67bd 7b88 143d 680b abbc
00000030: 9004 32bd 28aa 5f3c c5f8 26bd e570 4c3d
00000040: 6f23 6abc d35b 61bd e4ee 61bd 53db fb3c
00000050: 900e 733d e597 fb3c a71b 623d 479b f3bc
00000060: 0ce2 c63c 9c42 5abc 5520 8c3b 4041 6d3d
00000070: 01a1 8e3d 9c62 aebc d1b7 043d f1cf 22bc
00000080: 337e 3fbc fdf7 5d3d 86de f4bc a1a8 2abd
00000090: 3ee5 9dbc ad5d 683d ae47 a43b b1e1 c83c
000000a0: 8c86 dc3c b348 86bb 2b45 56bd 9824 5fbd
000000b0: b71f 22bd 5070 91bd 29fc 96bd acbd 543c
000000c0: 0873 963c d568 1abd 6a1f 0b3b 3d69 753b
000000d0: d42b 0bbd a832 fbbc 843b 603d 0db4 69bd
000000e0: 7c98 d43b 634b 1e3d 4ddf 01bd 5564 7dbd
000000f0: 3cb9 b3bc 28ae 33bd 61ac 6dbd a0b0 54bc
00000100: 777e 58bd c453 62bb 1d8d 6fbc 1a41 05bd
00000110: 9f47 7c3d 22e3 073d 6279 263d 9964 0b3d
00000120: 2383 0bbd 73d1 1e3d 01f1 46bc 98ec 70bd
00000130: 3c84 1bbd f387 edbc b3d9 03bd 090f 2c3d
00000140: acc4 793c 2c45 40ba ddc6 393c 94a7 273d
00000150: f807 49bd 6666 f7bb 3ea5 c7bc 22e3 8d3b
00000160: 3a57 7abd 462d 433d 3108 d0bc cb7e cebc
00000170: 4d3d 81bb 47e7 4cbd 6c0e 383d 9d0a 33bc
00000180: dda2 4a3d e010 2dbd 5e8a 8c3d ffdd 503c
00000190: 023f 323b 22f2 03bd d46a 103d 1317 8bbb
000001a0: d156 fcbc ae4e 5d3d 7c15 47bc 4e20 ae3c
000001b0: 4a5a 1f3d 701c d1bc ed32 803c f447 443d
000001c0: b8d9 10bc 0b3d 23bd 9ea8 b63b eb3a 543d
000001d0: 6152 a2bc 4bf5 eebc 6359 8dbd a3ff 91bc
000001e0: 5ea2 1f3d d21c 93bb dc30 34bd da2e 03bd
000001f0: 9710 a23c ce80 86bc 6ce6 553d 015c 0bbd

actor.4.weight f4 [64, 128]
-0.13535415 -0.07414189 0.0013667757 -0.07387902 -0.023982061 -0.11184735 -0.08346678 0.012566245
-0.042470098 -0.09812093 -0.004471556 -0.05505601 -0.010024108 -0.19066271 0.09445901 -0.18392187
-0.07019093 0.0053698146 -0.015206746 0.0622148 -0.06973159 -0.07271485 0.039757516 -0.0476165
-0.044626243 0.026800618 0.050231066 -0.043271843 -0.014697902 0.068909 0.06255205 0.053097315
-0.10610172 0.07134402 0.22558683 0.04316024 -0.103933014 -0.046467487 -0.05863639 -0.07427344
-0.106794104 0.06889349 -0.10899764 0.15506606 -0.018342031 0.0967142 -0.08635075 0.19013931
-0.115600735 -0.16652723 0.16148429 0.032022238 0.13028395 0.14574718 0.11546265 0.072786205
-0.13041413 0.097097985 0.13527682 0.08326696 0.064023554 -0.07441573 0.013399526 0.008632213
0.018914098 0.010037003 0.019445673 0.032720756 -0.030270075 0.08610401 0.046981078 0.1270523
0.06767823 -0.19691885 0.1506356 -0.044573333 0.07300381 -0.034784883 -0.07297585 0.049374834
0.09975805 -0.030401457 0.1767632 -0.09444501 0.0032557594 -0.01260471 0.21595338 0.10318915
-0.04492406 -0.14232504 -0.09238021 0.10757091 0.011625473 -0.06925353 -0.12361401 0.110167235
0.12086122 0.020492155 -0.060768973 -0.0077947797 0.007086735 0.23264906 0.09888185 -0.10540301
0.065936886 -0.10111237 -0.005970172 0.078453034 0.0052977493 -0.13066864 0.0007551773 0.16571972
-0.109313905 -0.055948574 -0.08884923 -0.07017034 -0.010292511 -0.014405235 0.11713452 -0.09152673
0.09344287 0.08588982 -0.09140205 -0.023276377 0.055738587 -0.14098614 0.105273396 -0.027590927
0.1440417 0.09598885 -0.12295768 0.021058707 0.042128418 0.12102359 0.029897723 -0.08412015
0.08364521 -0.12159946 -0.03446017 -0.01883042 -0.13846889 0.00431846 0.046026815 -0.046580736
-0.13824567 -0.19276391 0.03641491 0.11126243 0.11201937 0.15699714 -0.09798297 0.15744932
-0.15707849 -0.0016928692 0.031914517 0.064611055 -0.0035306136 -0.047136508 -0.076042354 -0.006387971
-0.08160269 0.04778369 -0.083967276 0.045982882 0.062165134 -0.1051864 -0.18022102 -0.122575834
-0.04982344 -0.10732459 -0.10068444 0.115646265 -0.04162617 0.118565425 0.07648917 0.042271856
-0.04214108 0.0412779 -0.03908231 0.13625774 -0.13890742 -0.0005649337 -0.024656074 -0.09922024
0.045412265 -0.083601765 0.033959232 -0.20586078 0.017704988 0.13945773 0.0060705766 0.14177793
0.05830962 -0.05677271 0.04540268 0.038912985 -0.055839192 -0.058395807 0.05365908 -0.0062479605
-0.12809813 -0.21656309 -0.05692736 -0.04256517 -0.029734617 0.16704243 -0.051313102 -0.13784353
0.08130326 0.016559059 -0.23593372 0.10724863 0.20063424 -0.03881393 -0.04803827 0.095411204
0.011873347 -0.117810465 -0.043416772 -0.11594605 0.09788384 0.08823042 0.05757536 -0.23148027
0.083281495 0.021791331 0.024397373 0.0963915 -0.07130738 -0.032092392 -0.18648067 0.17516947
-0.0009881747 -0.12614916 0.14066522 -0.06210889 -0.034855507 0.051729362 0.17190284 0.10718483
0.1942836 -0.19789174 -0.055542093 0.060292713 0.10655072 0.03705085 0.0044841412 0.17043297
-0.03275039 0.04805473 0.16310143 -0.07804865 0.12913026 0.011801642 -0.121111065 0.028698446
00000000: 479a 0abe b4d7 97bd 6225 b33a e24d 97bd
00000010: 0776 c4bc 3910 e5bd a2f0 aabd a7e2 4d3c
00000020: 20f5 2dbd a0f3 c8bd 2186 92bb 6982 61bd
00000030: 283c 24bc 163d 43be ba73 c13d 0456 3cbe
00000040: 43c0 8fbd 45f5 af3b b725 79bc f2d4 7e3d
00000050: 70cf 8ebd 86eb 94bd c7d8 223d 8509 43bd
00000060: 02ca 36bd f88c db3c 17bf 4d3d d13d 31bd
00000070: 78cf 70bc 2920 8d3d 4a1b 803d 927c 593d
00000080: dc4b d9bd d01c 923d 3c00 673e cbc8 303d
00000090: d5da d4bd b154 3ebd b62c 70bd ac1c 98bd
000000a0: deb6 dabd 0818 8d3d 283a dfbd a3c9 1e3e
000000b0: 0742 96bc 1812 c63d a9d8 b0bd e1b3 423e
000000c0: 14c0 ecbd 1d86 2abe 235c 253e c029 033d
000000d0: 2869 053e c03e 153e af77 ec3d ef10 953d
000000e0: 488b 05be 4fdb c63d 0286 0a3e de87 aa3d
000000f0: c81e 833d 4667 98bd af89 5b3c 206e 0d3c
00000100: bdf1 9a3c 3e72 243c 884c 9f3c 3306 063d
00000110: f3f8 f7bc 4d57 b03d 3b6f 403d 001a 023e
00000120: e29a 8a3d 18a5 49be 3840 1a3e 8792 36bd
00000130: 0683 953d 987a 0ebd 5d74 95bd 443d 4a3d
00000140: f34d cc3d 7a0c f9bc 6a01 353e 636c c1bd
00000150: 945e 553b fc83 4ebc e222 5d3e d554 d33d
00000160: 4b02 38bd a8bd 11be d631 bdbd 234e dc3d
00000170: c578 3e3c cbd4 8dbd 5829 fdbd 5c9f e13d
00000180: 1686 f73d 2adf a73c e3e8 78bd 5a6b ffbb
00000190: d837 e83b 8e3b 6e3e 9182 ca3d 89dd d7bd
000001a0: eb09 873d 0114 cfbd 6fa1 c3bb fcab a03d
000001b0: be98 ad3b 00ce 05be 17f7 453a 6eb2 293e
000001c0: f8df dfbd 552a 65bd 96f6 b5bd 78b5 8fbd
000001d0: eca1 28bc ef03 6cbc 39e4 ef3d 5e72 bbbd
000001e0: fa5e bf3d 00e7 af3d ff30 bbbd 1aae bebc
000001f0: 254e 643d ac5e 10be 9499 d73d 5e06 e2bc
00000200: ab7f 133e cd95 c43d 3cd1 fbbd 4f83 ac3c
00000210: d98e 2c3d 37db f73d 12ec f43c 2f47 acbd
00000220: 2e4e ab3d 2309 f9bd 1b26 0dbd 4142 9abc
00000230: caca 0dbe de81 8d3b 9d86 3c3d 71cb 3ebd
00000240: 4690 0dbe e763 45be cd27 153d 8fdd e33d
00000250: 696a e53d dcc3 203e 4cab c8bd 653a 213e
00000260: 2fd9 20be 44e3 ddba ccb8 023d cd52 843d
00000270: de61 67bb 3612 41bd 18bc 9bbd 2f52 d1bb
00000280: 501f a7bd d5b8 433d 09f7 abbd 8c58 3c3d
00000290: dea0 7e3d f86b d7bd dc8b 38be 0a09 fbbd
000002a0: aa13 4cbd ffcc dbbd a533 cebd f3d7 ec3d
000002b0: 3480 2abd 6ed2 f23d 5ba6 9c3d 4125 2d3d
000002c0: 209c 2cbd 0413 293d c614 20bd 2687 0b3e
000002d0: bf3d 0ebe 0f18 14ba 89fb c9bc fb33 cbbd
000002e0: 3602 3a3d 6737 abbd d618 0b3d 2bcd 52be
000002f0: 0d0a 913c 02ce 0e3e b0eb c63b 3c2e 113e
00000300: 11d6 6e3d 808a 68bd 29f8 393d 3963 1f3d
00000310: a3b7 64bd 7130 6fbd a0c9 5b3d b1bb ccbb
00000320: 282c 03be b7c2 5dbe aa2c 69bd d158 2ebd
00000330: 0396 f3bc 2c0d 2b3e b02d 52bd db26 0dbe
00000340: 5382 a63d dda6 873c 9c98 71be 2ba5 db3d
00000350: 1073 4d3e 5bfb 1ebd c7c3 44bd f366 c33d
00000360: 6d88 423c 9d46 f1bd c9d5 31bd 1f75 edbd
00000370: 5377 c83d 27b2 b43d 24d4 6b3d 2a09 6dbe
00000380: 7d8f aa3d bc83 b23c 00dd c73c e868 c53d
00000390: 9b09 92bd 5073 03bd caf4 3ebe a05f 333e
000003a0: a485 81ba 3f2d 01be 8b0a 103e e465 7ebd
000003b0: a6c4 0ebd 2be2 533d 4c07 303e b883 db3d
000003c0: 48f2 463e 22a4 4abe 1b80 63bd 7ef5 763d
000003d0: 4437 da3d a2c2 173d b4ef 923b fb85 2e3e
000003e0: 4625 06bd 09d5 443d 1004 273e f8d7 9fbd
000003f0: b93a 043e ad5b 413c 1409 f8bd 0119 eb3c

actor.4.bias f4 [64]
0.09047668 -0.022155808 0.10967443 0.017508956 -0.03886137 -0.061593354 -0.049892854 0.045295876
0.04740231 -0.030959722 0.0246164 -0.05492373 0.006573645 0.026136702 0.103793025 0.043870665
-0.022964926 0.017675411 0.093713954 0.09278195 0.09274964 0.07759222 0.0379491 -0.057624787
0.05377053 0.09375611 -0.07514843 0.095047824 -0.018284284 0.02450759 0.015787272 -0.04582343
-0.09025215 0.044851024 -0.039127164 0.04475047 -0.008647062 -0.0136939725 0.039246455 -0.022977492
-0.069048904 0.064793386 0.11728453 -0.043402284 0.043311648 -0.0059946952 -0.040235456 0.014900944
0.08307079 0.027452659 0.095447384 0.044605587 0.0768652 -0.00043099237 0.08296466 -0.067501836
0.04052338 -0.06542397 0.0565454 0.06832429 -0.033294845 0.018693611 0.063661166 0.08382207
00000000: d64b b93d 1980 b5bc fd9c e03d f16e 8f3c
00000010: 1a2d 1fbd 5049 7cbd 735c 4cbd 2b88 393d
00000020: ed28 423d 3e9f fdbc 55a8 c93c b5f7 60bd
00000030: bb67 d73b a31c d63c 7091 d43d bab1 333d
00000040: f120 bcbc 06cc 903c 1aed bf3d 7704 be3d
00000050: 86f3 bd3d abe8 9e3d 8470 1b3d f807 6cbd
00000060: 7d3e 5c3d 3403 c03d 6ce7 99bd 6fa8 c23d
00000070: ecc8 95bc 24c4 c83c 4f54 813c 59b1 3bbd
00000080: 1fd6 b8bd b5b5 373d ce43 20bd 454c 373d
00000090: 68ac 0dbc af5c 60bc e4c0 203d 4b3b bcbc
000000a0: 8369 8dbd 65b2 843d df32 f03d 98c6 31bd
000000b0: 8e67 313d 266f c4bb efcd 24bd 1723 743c
000000c0: 0521 aa3d 66e4 e03c eb79 c33d 59b4 363d
000000d0: 816b 9d3d d1f6 e1b9 60e9 a93d 673e 8abd
000000e0: d8fb 253d 01fd 85bd 269c 673d 9bed 8b3d
000000f0: 2d60 08bd 5823 993c c960 823d e8aa ab3d

actor.6.weight f4 [15, 64]
-0.10689212 0.20837744 0.0067087784 -0.09298949 -0.009913752 -0.12148487 0.23474257 -0.10437151
-0.14607094 0.14929163 -0.0921785 -0.14616235 -0.24894987 0.23587258 0.1231357 -0.10790113
0.21113616 -0.14494696 0.0075391517 0.23231381 -0.24412182 0.09193894 -0.13638368 -0.17083465
0.12419616 -0.17385049 0.23679617 0.053784866 -0.034831047 0.118482776 -0.122234054 -0.15533853
0.21685937 -0.1113925 0.063127734 0.29110816 -0.14076157 0.07958144 0.0591303 -0.26228118
-0.026860196 -0.092098005 0.10106665 -0.18058427 0.21542667 0.09006851 0.020018358 0.2046532
-0.1746881 -0.047265276 0.174784 -0.031708628 -0.13965705 0.16494648 -0.036758747 0.100862466
-0.14466491 0.020226063 0.23580174 0.13606873 -0.09925952 0.16257985 0.023457546 -0.18574739
0.1685867 0.16634066 -0.030942176 -0.009621829 0.0719536 -0.10549572 0.005862437 0.17547119
-0.0037835557 0.024228828 0.20124078 0.11153903 0.0025581901 -0.060724482 0.048896782 0.03854535
0.12666129 0.052577626 -0.09495964 -0.087620296 0.047876276 0.15728582 -0.0053817714 0.13026759
-0.19193165 -0.057359114 -0.35144013 -0.07593086 0.06892952 -0.033980653 -0.04792417 -0.2201639
-0.028042583 0.20696206 -0.32477286 -0.24461214 -0.26645714 0.17685492 0.18357015 0.058258377
0.18326694 -0.07791402 0.014072471 0.23014212 -0.058819097 -0.25899506 0.20620406 -0.09200497
0.05903224 0.038877297 0.14785449 0.07096732 0.19402833 -0.21899953 0.18133026 -0.26064733
0.20302694 -0.32435346 -0.19715329 0.14693214 0.035504185 -0.2327171 -0.2422093 0.08982487
0.010410853 -0.06702352 0.13746458 0.081300765 0.20683636 -0.07665782 -0.16732278 -0.2626946
0.19078624 -0.39696494 -0.19889186 -0.27734295 -0.16585542 -0.2225399 0.06822517 0.23450926
-0.055402745 0.1754571 -0.15844692 0.029297078 -0.048465565 0.14304735 0.2398176 0.11700255
0.019795984 -0.15934727 0.36056384 -0.26309788 0.08347871 -0.018063035 -0.15365054 0.28995994
-0.21953219 -0.12077751 0.2736718 -0.020940142 0.16803393 -0.04784315 -0.053826086 -0.04674922
0.0149371745 0.18999872 0.01366392 0.09029193 -0.23955388 0.26362142 0.008840413 -0.046378583
0.17720649 0.13357466 -0.103001684 0.057790827 0.022667006 -0.030211717 0.17630908 0.16545968
-0.00063037797 0.22118051 -0.068194725 -0.11095619 0.15062372 0.20153832 0.18766792 -0.029821308
-0.22541371 0.082436435 -0.030752536 0.23173732 0.20537092 0.045600846 -0.28169438 0.08702206
-0.29625708 0.06958765 0.27392823 -0.04829913 0.22038877 -0.14612892 0.17028543 -0.3134363
0.07035841 -0.34209287 0.27175918 0.13994572 -0.099645294 -0.0669724 0.18262963 -0.17183304
-0.13301402 0.28558022 -0.02237283 0.121885695 0.22360955 0.02117219 0.20980977 0.045270853
0.008190493 -0.1944686 0.36337146 0.095099956 -0.060986273 0.038052566 -0.07010711 0.008567341
0.045007676 -0.3713364 0.05600918 -0.09689842 -0.0124707995 -0.08095366 -0.030154495 -0.18869857
-0.13865559 0.1341409 -0.057333086 -0.17367615 -0.13606335 -0.23457047 0.06391101 0.09612644
0.10027526 0.12561071 0.017241782 -0.20187825 0.07882962 0.22114187 0.049813315 -0.04868209
00000000: 41ea dabd e560 553e 50d5 db3b 4671 bebd
00000010: 4a6d 22bc 0fcd f8bd 5b60 703e bbc0 d5bd
00000020: 9f93 15be e8df 183e 15c8 bcbd 95ab 15be
00000030: b7ec 7ebe 9588 713e 922e fc3d 45fb dcbd
00000040: 1434 583e fa6c 14be fd0a f73b ace3 6d3e
00000050: 12fb 79be 7c4a bc3d 2aa8 0bbe 47ef 2ebe
00000060: 8e5a fe3d dd05 32be b27a 723e 854d 5c3d
00000070: 00ab 0ebd 19a7 f23d d955 fabd 1011 1fbe
00000080: 6210 5e3e c021 e4bd 1d49 813d 210c 953e
00000090: cd23 10be 98fb a23d 9d32 723d b849 86be
000000a0: ea09 dcbc e19d bcbd 08fc ce3d 15eb 38be
000000b0: cf98 5c3e d775 b83d 8afd a33c 9c90 513e
000000c0: 70e1 32be 3c99 41bd 94fa 323e e8e0 01bd
000000d0: 4202 0fbe bbe7 283e 5790 16bd fb90 ce3d
000000e0: 0a23 14be 21b1 a53c 0376 713e 9a55 0b3e
000000f0: 9348 cbbd 557b 263e 0a2a c03c 9034 3ebe
00000100: fea1 2c3e 3555 2a3e 727a fdbc e0a4 1dbc
00000110: 695c 933d 240e d8bd b019 c03b b8ae 333e
00000120: 88f5 77bb 897b c63c 1012 4e3e 936e e43d
00000130: 4fa7 273b 3cba 78bd fe47 483d bbe1 1d3d
00000140: 7fb3 013e a35b 573d 337a c2bd 4572 b3bd
00000150: ea19 443d 890f 213e 9259 b0bb de64 053e
00000160: bb89 44be 64f1 6abd f6ef b3be a481 9bbd
00000170: ec2a 8d3d 4c2f 0bbd 224c 44bd a572 61be
00000180: 8fb9 e5bc dded 533e a148 a6be 9b7b 7abe
00000190: 126d 88be 7519 353e d0f9 3b3e 56a0 6e3d
000001a0: 54aa 3b3e 6391 9fbd 3990 663c 60aa 6b3e
000001b0: 4bec 70bd 009b 84be 2827 533e 1a6d bcbd
000001c0: cacb 713d cd3d 1f3d 2b67 173e 5057 913d
000001d0: 5daf 463e 6a41 60be a4ae 393e 9173 85be
000001e0: 4be6 4f3e a811 a6be 8de2 49be 6175 163e
000001f0: d66c 113d 644d 6ebe b705 78be 1af6 b73d
00000200: 4892 2a3c a143 89bd 84c3 0c3e 0481 a63d
00000210: e9cc 533e c6fe 9cbd aa56 2bbe e87f 86be
00000220: 785d 433e fd3e cbbe 4faa 4bbe e5ff 8dbe
00000230: 01d6 29be 80e1 63be a3b9 8b3d 3223 703e
00000240: fded 62bd 07ab 333e e93f 22be 6d00 f03c
00000250: d483 46bd 017b 123e bf92 753e 089f ef3d
00000260: 302b a23c ee2b 23be d39b b83e c4b4 86be
00000270: e3f6 aa3d eef8 93bc 9156 1dbe a175 943e
00000280: 0ccd 60be 335a f7bd b61e 8c3e a98a abbc
00000290: 1611 2c3e 2ef7 43bd be78 5cbd 1c7c 3fbd
000002a0: 0dbb 743c 068f 423e a2de 5f3c faea b83d
000002b0: 9d4d 75be 63f9 863e 61d7 103c 78f7 3dbd
000002c0: 9e75 353e ccc7 083e 8cf2 d2bd 13b6 6c3d
000002d0: 28b0 b93c 907e f7bc 5e8a 343e 436e 293e
000002e0: f33f 25ba 257d 623e ada9 8bbd 003d e3bd
000002f0: 1b3d 1a3e 1060 4e3e 052c 403e d14b f4bc
00000300: dad2 66be 6fd4 a83d beec fbbc 8c4c 6d3e
00000310: c14c 523e f4c7 3a3d 3f3a 90be 9f38 b23d
00000320: 02af 97be f883 8e3d 5240 8c3e 4fd5 45bd
00000330: 98ad 613e d2a2 15be 4e5f 2e3e b97a a0be
00000340: 1218 903d cc26 afbe 0524 8b3e ee4d 0f3e
00000350: d512 ccbd d328 89bd 4303 3b3e 00f5 2fbe
00000360: d434 08be 9237 923e 3a47 b7bc 359f f93d
00000370: e7f9 643e 4d71 ad3c 5fd8 563e ee6d 393d
00000380: 6b31 063c c722 47be d30b ba3e c4c3 c23d
00000390: becc 79bd 02dd 1b3d 5194 8fbd 085e 0c3c
000003a0: f859 383d ce1f bebe e269 653d ae72 c6bd
000003b0: 5352 4cbc 08cb a5bd 8f06 f7bc 333a 41be
000003c0: bbfb 0dbe 3b5c 093e 19d6 6abd 29d8 31be
000003d0: 3154 0bbe 3e33 70be c7e3 823d f0dd c43d
000003e0: 1e5d cd3d 18a0 003e a33e 8d3c 2cb9 4ebe
000003f0: 6c71 a13d 0473 623e 0c09 4c3d df66 47bd

actor.6.bias f4 [15]
-0.07922488 0.030638888 -0.13479365 0.069873445 0.045952614 0.013514437 0.020755375 0.041981675
-0.043005235 -0.0043105646 0.051372793 -0.09522443 0.021531446 -0.072910115 0.07117923
00000000: a740 a2bd 68fe fa3c 5907 0abe cf19 8f3d
00000010: cf38 3c3d a86b 5d3c 2d07 aa3c faf4 2b3d
00000020: 4226 30bd a33f 8dbb 476c 523d 0705 c3bd
00000030: b762 b03c e651 95bd 6bc6 913d

critic.0.weight f4 [256, 55]
-0.047654815 -0.025350388 0.06800016 -0.025944214 -0.027302248 -0.047182363 -0.072416894 0.0068677175
-0.004977757 -0.10040492 -0.1452791 -0.14794578 0.039398026 -0.06999898 -0.12252135 -0.057035323
-0.049497355 -0.06000223 0.013019108 -0.14671932 -0.16272248 -0.1550657 0.015019851 -0.021568982
0.07418548 0.042971678 -0.16642347 0.071177654 -0.100456156 0.032522514 0.11266455 0.008265207
0.005065207 -0.1303661 -0.061634403 0.3036959 -0.09766222 -0.03939423 0.08800197 0.033427708
-0.04518275 -0.16547894 -0.2682222 -0.075711906 -0.012725949 0.03110189 -0.13943191 -0.028035285
-0.023680575 0.14292835 -0.113342844 0.31927764 -0.15442337 -0.029129691 -0.2312188 0.0129384855
0.045466743 0.12150916 -0.124626815 -0.12773216 -0.23911253 -0.21748537 -0.16340151 -0.096247695
-0.05124464 0.147112 0.12056597 0.015331691 0.038114224 0.07942538 -0.016459042 -0.031477753
-0.1365597 -0.0017678661 -0.05191891 0.0167516 -0.13890135 0.0028501353 -0.023659434 -0.054981943
-0.077025086 -0.04008092 -0.12188797 -0.037396703 -0.026093533 -0.17532434 -0.0065704067 -0.011692651
-0.08139202 -0.017131677 -0.026510768 0.02869927 -0.09262869 0.043491714 0.07912869 -0.06523389
-0.021131696 0.25143906 -0.05778923 -0.04719161 0.044495806 -0.12944119 -0.04798948 -0.1512225
-0.12004245 -0.17995651 0.08604575 -0.19411276 -0.1916605 0.4128335 0.050665718 0.1461443
-0.00050433655 0.03776992 -0.039727453 -0.015659 -0.065785766 -0.06116222 -0.07471274 0.046860397
-0.11764343 -0.10760644 -0.04947298 -0.033242006 -0.10275534 -0.025271773 -0.14213164 -0.17423165
-0.0431594 -0.16913486 -0.09338677 0.041021552 -0.11192969 -0.050042823 -0.19857891 -0.17568816
-0.031769875 0.00036456092 0.050826054 0.06013602 -0.0072079017 -0.02894357 -0.04131913 -0.07564013
-0.16381374 -0.021142773 -0.035760783 0.020588392 0.020758323 -0.10721243 0.02268371 0.14476794
0.13660918 -0.12661512 0.17931329 0.09165474 -0.06554794 -0.10634072 -0.20639396 -0.05055108
-0.1748318 0.031987514 0.13963526 0.025258822 0.0671606 0.014510279 0.038222536 0.00814647
-0.024624301 -0.027354794 -0.019756429 0.015076225 0.050369352 -0.14952497 -0.076804616 0.012181956
-0.12704265 0.062136058 0.07204763 -0.1647877 0.075708315 -0.16167286 0.043555386 0.0135782445
-0.101103745 -0.10201277 -0.10414916 0.009283982 -0.08113328 -0.27088118 -0.1982284 -0.20571052
-0.23553187 -0.089416765 0.01957909 -0.13724598 -0.06376843 -0.08335631 -0.017915132 -0.056398727
-0.08555622 -0.1280803 -0.10698993 -0.10427442 -0.2281339 0.076505 0.05426164 0.12900054
-0.16951858 -0.15136722 0.1622811 -0.18520066 -0.06500937 -0.096143804 0.04201042 -0.028033523
-0.02915686 0.108233534 0.067692965 -0.052414153 -0.1308599 -0.078272544 -0.034058772 0.052687246
-0.09207036 0.042215064 0.23522341 -0.020371415 -0.10499017 -0.040667824 0.046840068 0.020572059
-0.048542786 -0.012963608 0.035053547 -0.080067135 -0.028440908 0.061430342 0.015241793 0.05594012
0.024351694 -0.15410694 0.0069052945 0.036214516 0.033259876 -0.05603659 -0.1063062 -0.09695112
0.048131187 -0.09412641 -0.24638742 -0.20016007 -0.29442945 -0.28552163 -0.11245111 -0.29425526
00000000: b231 43bd 9eab cfbc ab43 8b3d f688 d4bc
00000010: f7a8 dfbc 4b42 41bd 4f4f 94bd 970a e13b
00000020: 741c a3bb 18a1 cdbd 0bc4 14be 197f 17be
00000030: d35f 213d a05b 8fbd 79ec fabd df9d 69bd
00000040: bdbd 4abd e6c4 75bd 194e 553c 973d 16be
00000050: b9a0 26be 8bc9 1ebe d215 763c 6fb1 b0bc
00000060: 8fee 973d 1203 303d ea6a 2abe 97c5 913d
00000070: f5bb cdbd 5436 053d acbc e63d ca6a 073c
00000080: 09fa a53b b17e 05be 5b74 7cbd 077e 9b3e
00000090: 2103 c8bd d85b 21bd 603a b43d 7eeb 083d
000000a0: 8c11 39bd 5073 29be 6c54 89be d80e 9bbd
000000b0: 8080 50bc 64c9 fe3c 3dc7 0ebe 41aa e5bc
000000c0: c4fd c1bc cf5b 123e 4b20 e8bd 5c78 a33e
000000d0: 2921 1ebe 64a1 eebc 9fc4 6cbe f1fb 533c
000000e0: 563b 3a3d cbd9 f83d 583c ffbd 38cc 02be
000000f0: ead9 74be 7cb4 5ebe ba52 27be 831d c5bd
00000100: e6e5 51bd 87a4 163e 4beb f63d c631 7b3c
00000110: a91d 1c3d c6a9 a23d 1dd5 86bc d1ee 00bd
00000120: 4ed6 0bbe beb7 e7ba eca8 54bd a73a 893c
00000130: 283c 0ebe 56c9 3a3b 6ed1 c1bc bf34 61bd
00000140: 54bf 9dbd e42b 24bd 66a0 f9bd 492d 19bd
00000150: 1bc2 d5bc 3988 33be 914c d7bb 8892 3fbc
00000160: dcb0 a6bd bb57 8cbc 1c2d d9bc bb1a eb3c
00000170: 1cb4 bdbd 5e24 323d 390e a23d 5999 85bd
00000180: 611c adbc 9fbc 803e 66b4 6cbd fd4b 41bd
00000190: 3c41 363d 3b8c 04be 9e90 44bd 12da 1abe
000001a0: d1d8 f5bd 8546 38be c138 b03d 7fc5 46be
000001b0: a642 44be ea5e d33e db86 4f3d daa6 153e
000001c0: 7435 04ba a2b4 1a3d 41b9 22bd 4e47 80bc
000001d0: b0ba 86bd 3c85 7abd fe02 99bd b0f0 3f3d
000001e0: 0aef f0bd c460 dcbd 2ea4 4abd c528 08bd
000001f0: 6471 d2bd c006 cfbc f58a 11be c869 32be
00000200: e9c7 30bd b031 2dbe 9041 bfbd 3706 283d
00000210: 653b e5bd b4f9 4cbd 4558 4bbe 99e7 33be
00000220: 2121 02bd 8a22 bf39 fb2e 503d 3051 763d
00000230: 4330 ecbb 111b edbc 403e 29bd 36e9 9abd
00000240: cabe 27be 9c33 adbc e679 12bd fda8 a83c
00000250: 5c0d aa3c 3192 dbbd 30d3 b93c 0c3e 143e
00000260: 47e3 0b3e 65a7 01be e79d 373e 7bb5 bb3d
00000270: 003e 86bd 2ac9 d9bd f058 53be a60e 4fbd
00000280: 1b07 33be 5705 033d 8cfc 0e3e 97eb ce3c
00000290: 7f8b 893d 85bc 6d3c 3c8f 1c3d c678 053c
000002a0: e7b8 c9bc 2917 e0bc 3cd8 a1bc 4502 773c
000002b0: 1850 4e3d 131d 19be bd4b 9dbd d496 473c
000002c0: 7817 02be 6182 7e3d b58d 933d 1bbe 28be
000002d0: f60c 9b3d 928d 25be 2267 323d 4977 5e3c
000002e0: 7b0f cfbd 12ec d0bd 284c d5bd d81b 183c
000002f0: 3529 a6bd f0b0 8abe 63fc 4abe c7a5 52be
00000300: 442f 71be 2320 b7bd 5464 a03c 368a 0cbe
00000310: 0699 82bd b7b6 aabd c1c2 92bc 5a02 67bd
00000320: 1938 afbd 7b27 03be 891d dbbd d48d d5bd
00000330: ef9b 69be a7ae 9c3d 7441 5e3d b818 043e
00000340: 4796 2dbe 0200 1bbe 042d 263e 3ea5 3dbe
00000350: a223 85bd 0be7 c4bd 1e13 2c3d 8fa6 e5bc
00000360: 5eda eebc 8ba9 dd3d 9ca2 8a3d 39b0 56bd
00000370: 2300 06be 5b4d a0bd 3681 0bbd 95ce 573d
00000380: 638f bcbd b4e9 2c3d 68de 703e f4e1 a6bc
00000390: 1605 d7bd 4e93 26bd 5fdb 3f3d bc86 a83c
000003a0: cdd4 46bd 5065 54bc 4f94 0f3d 3dfa a3bd
000003b0: e8fc e8bc 629e 7b3d b7b8 793c 7821 653d
000003c0: 347d c73c 36ce 1dbe cf45 e23b ac55 143d
000003d0: 823b 083d a086 65bd 11b7 d9bd 4f8e c6bd
000003e0: 3525 453d 59c5 c0bd fc4c 7cbe c3f6 4cbe
000003f0: 75bf 96be e42f 92be c44c e6bd a0a8 96be

critic.0.bias f4 [256]
0.09269743 -0.09223336 0.07369017 0.09335216 0.0125294635 -0.17838943 0.048508227 -0.16489863
0.2513558 -0.013691841 -0.2064895 0.15219097 -0.07447958 -0.07635308 0.08855409 -0.018139085
0.12035214 -0.13561572 0.06477069 0.07674873 -0.020582527 -0.17648362 -0.111995175 0.2700479
0.10330513 -0.13548867 0.09945462 0.025266265 -0.08469361 -0.0036456082 -0.14701991 -0.14755304
0.09161745 -0.02370503 0.008440731 0.026519926 -0.072519355 0.116418205 -0.07082687 0.056496017
0.011335309 -0.010175575 0.06797773 -0.08116503 0.017603526 -0.11039304 0.11483623 0.10709119
0.022876345 -0.041636545 0.08245993 -0.011036143 -0.08328523 0.038526565 0.08872839 0.06943539
0.15835743 0.13583513 0.11179457 -0.0400432 -0.10832683 0.110830635 0.026031578 0.107275665
-0.054518577 -0.09773151 -0.06482244 -0.11381626 -0.14595279 0.036391806 0.014708327 -0.012996028
0.031399943 -0.0052317907 0.02338869 0.087793276 -0.005380931 0.1272912 -0.011073309 0.2115079
0.008081623 0.11903728 0.037229188 0.16631371 -0.033751164 -0.10898068 -0.026279593 0.21083848
-0.10469744 0.08925252 -0.012210326 -0.12974119 -0.1572292 0.11670447 0.051195946 0.042287752
0.01073048 -0.018927071 -0.12121979 0.001514222 0.0779634 -0.17882505 -0.0041021337 -0.050144996
-0.15030375 0.023995817 0.008624614 -0.014154183 0.16719851 -0.0698812 -0.056299634 0.046223197
-0.027045146 0.019396644 0.08601582 -0.03117656 -0.117360726 -0.037175797 -0.059831474 0.07589394
0.24871136 -0.036836118 0.044346135 0.06682128 -0.25059417 -0.06238541 -0.022744317 -0.13290189
0.09737339 0.079202935 0.27309003 -0.023046736 -0.11260726 -0.007776031 -0.16727823 -0.07198884
-0.082816616 0.1338081 -0.092114195 0.082973756 -0.06261382 0.004175339 -0.12611675 0.15731105
0.16052532 -0.14888564 0.07167784 0.056973077 -0.010994234 -0.12255755 -0.05753067 -0.08610963
-0.088881575 -0.2452217 0.00041087522 -0.081212014 -0.0059194355 0.0032017236 -0.23701811 0.029398287
-0.15609953 -0.08783293 -0.0021112908 -0.17314532 0.013175853 -0.084557936 0.05424159 0.1103058
0.04383454 0.0007088294 0.08746162 -0.065939456 -0.024518779 0.106943525 -0.038075972 0.06422138
0.094110936 -0.17227958 -0.019003175 -0.1400436 0.0725333 0.014330799 -0.05484833 -0.091335684
-0.13629308 0.038069025 0.035254985 0.18421206 -0.016671317 -0.05054119 -0.09853954 0.02211025
0.14759251 -0.27398235 -0.13004395 0.0136291785 -0.1241178 0.0619286 -0.080801524 -0.056299493
-0.093907155 -0.07974507 0.2003438 0.09196031 -0.20054251 -0.055034686 -0.14557357 -0.04002396
0.16492282 -0.13765007 0.11663208 -0.041706044 -0.11815623 -0.07346167 -0.06689483 -0.08930556
-0.16458699 -0.0008360389 -0.083286576 -0.15507391 -0.13245125 -0.090052366 -0.03970561 0.015283967
-0.09081598 0.13798407 0.16349176 -0.22211155 -0.01452777 -0.13170563 0.17762558 -0.065880865
0.02988639 -0.0117566455 0.040797815 0.051422074 -0.05851051 0.12774259 -0.112268776 0.018349703
-0.0792475 0.1375224 -0.07775276 0.16989638 0.05106046 -0.14023148 0.16719717 0.11340871
-0.11962175 0.111557044 0.02798174 -0.30730024 -0.1042714 0.10963604 0.09276992 -0.12462949
00000000: 26d8 bd3d d8e4 bcbd dfea 963d 6b2f bf3d
00000010: 6148 4d3c b8ab 36be 90b0 463d 30db 28be
00000020: b5b1 803e be53 60bc fc71 53be f3d7 1b3e
00000030: c088 98bd 015f 9cbd d95b b53d 6b98 94bc
00000040: 2f7b f63d d9de 0abe 7fa6 843d 702e 9d3d
00000050: b09c a8bc 1fb8 34be ba5d e5bd b843 8a3e
00000060: a491 d33d 8bbd 0abe ddae cb3d 33fb ce3c
00000070: d873 adbd 28eb 6ebb 638c 16be 2518 17be
00000080: eea1 bb3d 0d31 c2bc fe4a 0a3c 5140 d93c
00000090: 0785 94bd ab6c ee3d ae0d 91bd 5e68 673d
000000a0: bbb7 393c 74b7 26bc e837 8b3d da39 a6bd
000000b0: 4535 903c bf15 e2bd 422f eb3d a052 db3d
000000c0: 2c67 bb3c 158b 2abd c0e0 a83d f0d0 34bc
000000d0: 7291 aabd 08ce 1d3d 3bb7 b53d 2434 8e3d
000000e0: 7328 223e 5d18 0b3e 8df4 e43d 5704 24bd
000000f0: 75da ddbd 2cfb e23d 2d40 d53c 58b3 db3d
00000100: df4e 5fbd 7527 c8bd a1c1 84bd 8018 e9bd
00000110: a674 15be 930f 153d 32fb 703c 4bed 54bc
00000120: 3a9d 003d 716f abbb a399 bf3c f6cc b33d
00000130: 8552 b0bb a058 023e d36c 35bc 8795 583e
00000140: c968 043c d1c9 f33d a27d 183d 244e 2a3e
00000150: a93e 0abd 4331 dfbd 4d48 d7bc 0be6 573e
00000160: 9d6b d6bd 06ca b63d d20d 48bc e0da 04be
00000170: b100 21be c102 ef3d d7b2 513d ec35 2d3d
00000180: e5ce 2f3c f20c 9bbc 1542 f8bd dc78 c63a
00000190: 46ab 9f3d ea1d 37be 316b 86bb d764 4dbd
000001a0: 3ae9 19be e092 c43c 414e 0d3c f2e6 67bc
000001b0: 1636 2b3e e01d 8fbd 729a 66bd 8954 3d3d
000001c0: c88d ddbc b6e5 9e3c 1029 b03d fc65 ffbc
000001d0: d25a f0bd a645 18bd d911 75bd 486e 9b3d
000001e0: 31ae 7e3e 78e1 16bd 4ba4 353d 98d9 883d
000001f0: e14d 80be d887 7fbd 4a52 babc 6f17 08be
00000200: b36b c73d 2635 a23d 75d2 8b3e 82cc bcbc
00000210: a39e e6bd 13ce febb fc4a 2bbe e36e 93bd
00000220: c29b a9bd fe04 093e 5ea6 bcbd 25ee a93d
00000230: ad3b 80bd 48d1 883b c024 01be 2616 213e
00000240: c060 243e 7a75 18be d5cb 923d 9a5c 693d
00000250: 2921 34bc 74ff fabd 48a5 6bbd 3f5a b0bd
00000260: 8b07 b6bd 661b 7bbe bd6a d739 7c52 a6bd
00000270: d3f7 c1bb 02d4 513b e0b4 72be add4 f03c
00000280: 8ed8 1fbe c0e1 b3bd 955d 0abb 024d 31be
00000290: 88df 573c b62c adbd 6e2c 5e3d 02e8 e13d
000002a0: d98b 333d bcd0 393a 141f b33d 440b 87bd
000002b0: 9bdb c8bc 3505 db3d 8df5 1bbd 8086 833d
000002c0: 3cbd c03d 0f6a 30be 8cac 9bbc 9767 0fbe
000002d0: 578c 943d bacb 6a3c a4a8 60bd 340e bbbd
000002e0: 6a90 0bbe 44ee 1b3d 8867 103d 16a2 3c3e
000002f0: 4992 88bc 4704 4fbd 19cf c9bd 8e20 b53c
00000300: 7e22 173e 6a47 8cbe 3e2a 05be eb4c 5f3c
00000310: 7931 febd d8a8 7d3d 457b a5bd 4c9a 66bd
00000320: 6552 c0bd 6251 a3bd ed26 4d3e b055 bc3d
00000330: 045b 4dbe 0d6c 61bd 3d11 15be 2af0 23bd
00000340: 87e1 283e 24f4 0cbe cddc ee3d f5d3 2abd
00000350: e5fb f1bd 1273 96bd 2800 89bd d5e5 b6bd
00000360: 7e89 28be 9f29 5bba 2792 aabd b2cb 1ebe
00000370: 4da1 07be 606d b8bd 5aa2 22bd 9b69 7a3c
00000380: bbfd b9bd b24b 0d3e 626a 273e 3671 63be
00000390: e205 6ebc d7dd 06be 7be3 353e 8cec 86bd
000003a0: 4dd4 f43c f29e 40bc 9c1b 273d f49f 523d
000003b0: b7a8 6fbd f4ce 023e 2ced e5bd 1e52 963c
000003c0: 834c a2bd acd2 0c3e d73c 9fbd 51f9 2d3e
000003d0: c624 513d d798 0fbe bc35 2b3e d342 e83d
000003e0: 40fc f4bd 0578 e43d f639 e53c 7556 9dbe
000003f0: 3e8c d5bd dc88 e03d 28fe bd3d bf3d ffbd
