PPO_preTrained/2/PPO_2_0_100.pth (torch, 453647 bytes, 15 tensors)

actor.0.weight f4 [256, 55]
00000000: a9d2 443e d6b5 9bbd 35b0 af3d 3bd6 93bd
00000010: 7ebc ae3d 80f9 92bc a0c9 f23d 33ef b3bd
00000020: a998 503d 7d52 b4bd 8748 353c c25d 07bd
00000030: abc0 db3d 35e2 123d 1235 1f3e 3464 d2bd
00000040: 38d6 26be 0f79 0d3e 8bc2 1bbe 320e 6b3e
00000050: 034d 74be dcda 43be 7294 19be a7f1 fabd
00000060: 12e0 a0bd b902 0b3d 4012 8dbd 379d 353e
00000070: 4dac f43c bc82 7ebd 38ec 90bd 0337 e3bd
00000080: 173a 78bd 7d16 6bbd cc63 fc3d a225 f6bd
00000090: fbbf bcbb 1122 003e 0360 633d e603 0abd
000000a0: a1c6 493e 8063 69bd 0927 04bd 6c55 84be
000000b0: a841 4dbe b456 cfbd 1bb0 dcbd 5b60 023e
000000c0: 296d 61bd ecfe 74bd 7883 d13d f419 913c
000000d0: 0dce 903e a813 e9bd d17b 233c 20b1 ee3d
000000e0: 89fc 063e 2b84 d13d 3f18 1b3c 8b8d 55bd
000000f0: 50a8 183e c9f7 e6bd 7976 813d 0f5d a63d
00000100: fb9c 1e3d 0d41 2bbe 762d acbd 2193 b43d
00000110: ba6b 21bd 85b8 1d3e cc01 27be 258d d8bd
00000120: 7071 f7bc 900a 8f3c 7414 713e 9353 c83d
00000130: 00ab ed3d 2c1a 9cbc ecb6 0a3e 74c9 40bd
00000140: dc36 113e 64d7 b23d 1ebd 59bd 2029 0c3d
00000150: 2bbc d5bd d9fd 8fbd 4828 2abd f36f 60bc
00000160: 7e48 5e3d 7916 0dbd 1e2e 993d 4989 a9bc
00000170: b2e0 0b3e 3b99 e3bd 4dd1 2dbd 5464 91bd
00000180: d004 32bd 15c9 dbbd ed64 edbc 75e5 c3bb
00000190: 3487 593c 0add 083e 7d88 11be 3281 1f3e
000001a0: 54bc c13b 1738 b83b eafc c2bd b79c 1a3e
000001b0: 1f98 323d d699 6cbe fb13 52bc b5b6 0d3e
000001c0: 99a1 fd3d a8ce b7bd 4ca7 1a3d 42e0 20bd
000001d0: 2ca5 e23c 3bb2 20be 73d6 11be 761a a93d
000001e0: a729 f7bd 716c f23d 0c63 723d 76ba 083e
000001f0: 0c05 263e fb1e d53d 5175 bdbd 99a4 fd3d
00000200: 412c 13be c819 08be d101 973e e77b 9c3d
00000210: abd3 8d3e 30db 58bd 6446 2abe d0a0 4fbd
00000220: f188 163e 4463 a13d 2431 1c3e d82f 3e3d
00000230: cbb6 9e3d fb6d febc ea76 f93b 638c 0a3e
00000240: b516 a5bd d2cb d2bd 3a08 ae3d 2c57 053e
00000250: 22a9 d6bd 44e5 c43d f800 02bd b1af 00bd
00000260: 8f3a e8bc 45fc 293d dced f2bd 8c8c 973d
00000270: 7057 7d3d dc60 ad3d b2d7 0cbc 2b80 9a3d
00000280: 8371 673e 2181 a63d cc79 c13d 4df5 18be
00000290: e8a7 79bd f0bb 223c 30b9 8ebd 4de6 9f3c
000002a0: 846c 553c 2c1b 41bd 0c49 0e3e 53af 403d
000002b0: 8def ddbc c002 e13d 6033 f33d 642b 0c3d
000002c0: 4ed3 123e dfdc bf3d a344 4a3d f4c6 a43d
000002d0: dd8e b6bd b759 ab3d 3111 bebd 7387 b3bd
000002e0: 5c33 0bbe 84ad 143e 93d8 683e 6076 543d
000002f0: 58c1 9fbd 7713 0a3e 2494 223e ecfc d23d
00000300: b13b f93c 50d9 d83d dfe6 a3bd b965 a9bc
00000310: 10cf 5dbd 1034 1f3e d117 1d3e 0df0 193d
00000320: c3d7 f63d 7c6a dabd ef5a 8c3d 16e2 f93c
00000330: 5f0c bf3d ca5a 643e 2375 0b3e 3fd7 1f3d
00000340: 4b69 debd c6b9 07be 054e 20be c6ee 3a3d
00000350: e746 dabc e7ec bfbc 91ca 503c 5125 0dbc
00000360: 4002 093e 2724 123e 5dba 54bd 9512 063e
00000370: 5774 5b3d 3d2d f13a ce81 e8bd 72be d73d
00000380: 5f52 84bd baa9 853d 0a3d a23c 9c0e 3d3c
00000390: 2b96 32bd 386e 173e ce6c e9bc 9ac9 0b3b
000003a0: 422e 413d 92ac 8bbd 7858 c8bd 0746 b0bc
000003b0: 56d8 1abe 0ffb a03c 8a48 5bbd 295a 443c
000003c0: 8850 a0bd d523 6a3c 3642 6a3d 93cc 97bc
000003d0: 8a2f 0e3e 7f33 d93d f206 2a3e 1f85 38bd
000003e0: 633e 1a3e 5a51 95bd 827e 4a3d 8dce 143e
000003f0: 5c59 853d b43b b53d 178d 0c3d 3e6a 1a3c
0.19220985 -0.07603042 0.08578531 -0.072185956 0.08532046 -0.017941236 0.11854863 -0.08785858
0.050926838 -0.08804796 0.011064655 -0.0330484 0.10730108 0.03586026 0.15547588 -0.102730185
-0.16292655 0.13815711 -0.15210931 0.22954634 -0.23857503 -0.19126457 -0.14998034 -0.12253123
-0.07855238 0.033938143 -0.068882465 0.17735754 0.029867316 -0.062136397 -0.07076305 -0.11094477
-0.060602274 -0.057394493 0.12323722 -0.12018897 -0.0057601905 0.12512995 0.055511486 -0.033695124
0.19704677 -0.056979656 -0.03226379 -0.25846422 -0.20044577 -0.10123959 -0.10775777 0.12732069
-0.055035744 -0.059813425 0.10230154 0.01771257 0.28282204 -0.11380702 0.009978251 0.11654878
0.13182272 0.10230287 0.00946623 -0.05213694 0.14907956 -0.1127773 0.06321425 0.08123218
0.038723927 -0.16724034 -0.084071085 0.08817125 -0.039409377 0.1540242 -0.16309279 -0.10573796
-0.030205458 0.017461091 0.23542958 0.097815655 0.11604881 -0.019055448 0.13546342 -0.04706712
0.14181083 0.08732489 -0.05315887 0.034218907 -0.10436281 -0.070308395 -0.04154232 -0.013698566
0.054268353 -0.03444526 0.07479499 -0.020695345 0.13659933 -0.11113211 -0.042435933 -0.07099214
-0.04346162 -0.10731713 -0.02897879 -0.005978281 0.013276864 0.1336557 -0.14212222 0.15576628
0.005912343 0.005621921 -0.09520896 0.15098844 0.043602105 -0.23105559 -0.0128221465 0.13839228
0.12384338 -0.089749634 0.037757203 -0.03927637 0.02766665 -0.1569299 -0.14241962 0.08257
-0.120684914 0.1183709 0.05917649 0.13352379 0.16212863 0.104063 -0.09250892 0.1238491
-0.1437235 -0.13291085 0.29493573 0.0764082 0.27700552 -0.05294341 -0.16628414 -0.050690472
0.14700677 0.078802615 0.1525312 0.046432346 0.07749709 -0.031058302 0.0076130526 0.13530116
-0.08060972 -0.10292782 0.08497663 0.13021535 -0.10481478 0.096140414 -0.031739205 -0.031417552
-0.028348235 0.04150035 -0.11861774 0.07399854 0.061850965 0.0846574 -0.008596348 0.07543977
0.22601895 0.08130098 0.09447059 -0.14937325 -0.060951144 0.009932503 -0.069689155 0.019518996
0.01302636 -0.047145054 0.13895053 0.047042202 -0.027091766 0.10986853 0.118750334 0.034221068
0.14338419 0.093683 0.049381863 0.0804576 -0.08913968 0.08366721 -0.09280623 -0.08766069
-0.13593811 0.14519316 0.22738867 0.051870704 -0.07800549 0.13483988 0.15876824 0.10302147
0.03042397 0.10588324 -0.080030195 -0.020678388 -0.05415255 0.15547204 0.15341116 0.037582446
0.12052872 -0.106648415 0.06853282 0.030503314 0.093285315 0.22300258 0.13618903 0.039023634
-0.10859927 -0.1325446 -0.15654762 0.04563787 -0.026645137 -0.023428394 0.012743608 -0.008614854
0.13379765 0.14271604 -0.051935542 0.13093026 0.053577747 0.0018400323 -0.11352883 0.105343714
-0.064610235 0.065265134 0.019804496 0.011539128 -0.043600243 0.14788139 -0.028494265 0.002132988
0.047163256 -0.068200245 -0.09782499 -0.021517767 -0.15121588 0.019650964 -0.053535976 0.0119843865
-0.0782786 0.01429077 0.05719205 -0.018530166 0.13885322 0.10605525 0.16604212 -0.04504883
0.15062861 -0.07290907 0.049437054 0.14531918 0.065111846 0.08849278 0.03431424 0.009424744

actor.0.bias f4 [256]
00000000: f6ae b2bd 2930 f73d 7335 9dbd 7326 3cbb
00000010: 0353 873d 1b9c 6ebd 42b8 d83d 6a36 443d
00000020: 8f3e ffb9 c4c9 5a3c a7ed 44be a859 2cbe
00000030: f252 1bbc 8b8e 533d 5326 813d 08d9 043e
00000040: a9ba 19bb b878 403d 690d d0bd 43e6 823a
00000050: 46c8 0abe ee91 c43b 0916 f9bd 1d3e f73c
00000060: f9cf 0f3d 076b 243d 1a3a 75bc 35b5 b9bd
00000070: 4570 62bd b8bc 81bd 0b43 3ebd 55d2 60bd
00000080: 6b61 d33d 66a0 af3d 354e b9bb d24b c53c
00000090: 1aaa 853d a01b 7cbd cce3 82bd dc8f fc3d
000000a0: 1e9d 1abe 4841 e8bc 74c3 f13c e629 dabc
000000b0: 412b 58bd ea34 f83d 6b8d f73b 0e7f 84bc
000000c0: c775 003e b300 8fbd 2d5b 03bb 1f6c 4cbd
000000d0: 811f 173e bbe8 8f3d a740 37bd cad7 033e
000000e0: e8bf 0d3d 696f 1dbd 456d 343d f33e f93d
000000f0: 465d abbd 12e7 febd 552d c33d 41b6 473c
00000100: 3975 fdbd edbf c03b 5bcc 943d 7cb3 bbbd
00000110: bf56 043e e7e6 d13d bf26 233d f328 333d
00000120: e98d ac3d 2fce 4fbc f7be 04be 4f52 78bd
00000130: 38a8 19bd 6616 113d cd5a 00be f346 b3bd
00000140: be02 f63a 7ade be3d 8aef 183d b7c5 713d
00000150: fae8 38bd 202a e53d 015c d33d 4004 0ebe
00000160: 280a 463d 304b 493d fd00 1a3e e8a9 033d
00000170: b239 b4bd 85de 733d 827e c6bc 8525 603d
00000180: b4af b9bd 3463 2b3e 9c1d 6c3d d064 273d
00000190: c20e 993d c54a f4bd 6227 91bd a409 21bd
000001a0: babd b33d 077b b1bd 667f ddbb 2938 d03d
000001b0: 453c 6f3d 5f4c 8a3d 5195 ecbd e266 6c3d
000001c0: cd5f 323c 13b2 f03d d67c 15bd cf9a 963d
000001d0: e4e7 51bd 452d ae3d 8a95 86bd 11b7 b43c
000001e0: 0fd9 a73a d460 98bd 723f be3d 1835 793c
000001f0: f363 a3bd 8c27 9e3d 4417 81bd fada 0fbe
00000200: da43 81bd 892d 92bd d6ce 283d 7f6a 39bd
00000210: 7643 49bd 638f 693d 9ede 9d3d 5efc 66bb
00000220: a960 2b3c b57e 04bb 0b13 853d a59b c23b
00000230: eb3b 853d cc80 49bd 9f9e 87bd 2a4a bb3d
00000240: 0b7e e23c 37a3 9e3b 2dbe c83d 5f7c d93d
00000250: 1b2c f2bd 7e40 d43d da58 b9bc a026 f9bd
00000260: 02d9 00bd 5924 01be 7de3 edbd e25b 033d
00000270: 6014 173e a8a2 0d3e 5c3f ae3c 439f 073e
00000280: 9217 3ebd b3e3 a3bb 01b3 3bbc d219 663d
00000290: d1d7 06bb 69b3 673d d726 06be 7f9e 91bd
000002a0: 8440 cf3c fdd7 1e3e c120 ef3d 7b74 0cbd
000002b0: a975 83bd 54ea cdbc 1f3f 073e f496 893d
000002c0: b3ab 583d 071a cb3d 172b d5bd ceac 7bbd
000002d0: 5210 ffbd bdfb c83c c9dc 373d 298e ecbd
000002e0: 5334 99bc 004e 77ba d2c3 dbbd a356 d83c
000002f0: 5b15 943d e899 8abd cf52 fc3d ce43 00be
00000300: 04b1 9cbd a050 ba3d fc48 8dbb e11b 24bd
00000310: 8169 e0bd 5c7e 7ebd 5d03 923d edc7 bc3d
00000320: 1f08 983d 8139 d33d a952 97bd 39c5 84bd
00000330: e41b 99bd 1eae 44bd b7cb f83c da26 4e3d
00000340: 9e8f 7abd 7a01 433c 6204 cbbd 0d4f 1c3e
00000350: 36de 8ebd 89cd 833d 3a3d 683d d9a6 14be
00000360: 710b ee3c c635 633d 8f91 7e3d 2b64 0f3e
00000370: b90b 16be 152e d5bd d53f c6bc 37a9 c53d
00000380: 8aec 19bd ceb5 e73c 87d5 f3bd 5f54 59bd
00000390: 723b 0c3c cfb9 a03d bf31 fbbd 759e 9fbd
000003a0: 8cdb b1bd 92ef 65bd 0472 cc3b b64b 953b
000003b0: 5a5f 123e 955c f23d ba08 923c a763 143e
000003c0: 6735 03be 0569 87bd a166 dabc 49dc a33d
000003d0: ed7b e93d 83c7 01bd b8df 06be 01e2 c23d
000003e0: 88ea 34bd fd6a ac3c bf85 0e3e 1476 a3bd
000003f0: 1960 9d3a 452c 1abd 6521 aabd 6e9b c23d
-0.087247774 0.12069733 -0.0767621 -0.002870944 0.0660763 -0.058254343 0.105820194 0.047903456
-0.00048684 0.013353769 -0.19231282 -0.16831076 -0.009480225 0.05164961 0.06306138 0.12973416
-0.0023457205 0.046990126 -0.10158808 0.0009986836 -0.13552961 0.0059988415 -0.12162406 0.030180985
0.035110448 0.04014113 -0.014967466 -0.090677656 -0.05528285 -0.06334823 -0.046450656 -0.05488809
0.103213154 0.085755154 -0.005655075 0.024084006 0.06526585 -0.061549783 -0.06391105 0.123321265
-0.15098998 -0.028351441 0.029512145 -0.026631307 -0.052775625 0.121194676 0.0075547 -0.016173866
0.12544928 -0.06982555 -0.0020043359 -0.0499078 0.14758112 0.07026812 -0.04473939 0.12875286
0.034606844 -0.038436327 0.04404952 0.1217021 -0.083674 -0.12446417 0.09530131 0.012189449
-0.12375874 0.0058822543 0.0726554 -0.09165093 0.12923716 0.10249119 0.039831873 0.043740224
0.08425505 -0.012683435 -0.12963472 -0.06062537 -0.03751394 0.03542175 -0.12534638 -0.08753767
0.0018769128 0.09319778 0.037337817 0.059026446 -0.04514406 0.11189675 0.10320283 -0.13868809
0.04834953 0.04914397 0.1503944 0.032144457 -0.08800067 0.059538383 -0.024230246 0.05472328
-0.09066716 0.16737062 0.057645425 0.040867627 0.07473518 -0.11928324 -0.0708759 -0.039315835
0.08776422 -0.08666044 -0.006759572 0.10166962 0.058407087 0.06752848 -0.11551917 0.057715304
0.0108870985 0.11752715 -0.036496006 0.07353746 -0.05124654 0.08504728 -0.06571491 0.02205995
0.0012805777 -0.074403435 0.09289445 0.015210412 -0.07978048 0.07722387 -0.06303266 -0.14048377
-0.0631177 -0.071375914 0.04121288 -0.04526758 -0.0491366 0.05702151 0.077084765 -0.0035245637
0.010460057 -0.0020217125 0.06497773 0.0059389644 0.06505569 -0.049195096 -0.066220514 0.09145005
0.027647993 0.004841234 0.09801898 0.10619425 -0.11824819 0.103638634 -0.022625376 -0.1216557
-0.031456955 -0.12611522 -0.116156556 0.03207005 0.14753866 0.1383158 0.021270446 0.13244347
-0.046409197 -0.005001509 -0.011456252 0.056176968 -0.0020575414 0.056567583 -0.13100754 -0.07110309
0.025299318 0.1551208 0.11676169 -0.034290772 -0.06418926 -0.02513615 0.13207673 0.06718245
0.05289812 0.09917074 -0.10408609 -0.061444096 -0.12454285 0.0245341 0.04488829 -0.115505524
-0.018701708 -0.0009433925 -0.10730709 0.0264085 0.07230636 -0.067676365 0.12320482 -0.12525865
-0.076509506 0.09097409 -0.004311679 -0.04006565 -0.10957623 -0.062132224 0.07129548 0.0921782
0.07423424 0.103137024 -0.07388813 -0.0648293 -0.07476023 -0.048017614 0.030370576 0.05033002
-0.06117212 0.0119022075 -0.09912945 0.1526453 -0.06975977 0.06435687 0.056699015 -0.14516772
0.02905819 0.055471204 0.062150534 0.14003055 -0.1465291 -0.1040918 -0.02420036 0.09651416
-0.037579097 0.028284933 -0.119059615 -0.05305898 0.008559095 0.0784794 -0.12265348 -0.07793895
-0.08684453 -0.056136675 0.0062391777 0.0045561446 0.14294186 0.11834065 0.017826427 0.1449114
-0.1281334 -0.06611828 -0.026660265 0.080010004 0.1140059 -0.03168441 -0.1317128 0.09515763
-0.04416898 0.02104711 0.13918208 -0.07981506 0.0012006789 -0.037639875 -0.08307151 0.09502302

actor.2.weight f4 [128, 256]
00000000: 08b5 b63b 1902 273e cd7b 7cbc 7c03 f43c
00000010: 12e3 2abe 2211 77bd 2b1c 3e3d 6c82 54bc
00000020: 1288 11bc d020 78bd 440f 8d3d a6f4 763d
00000030: 4ffb df3c b5f6 89bd a499 8c3a fb28 09bd
00000040: 0e13 553d d711 3a3d 8701 b73d c4e6 efbc
00000050: ec0c 3f3c 144c df3c 6e9e 223b 068d c63d
00000060: e2d9 08bb 03a1 9d3d 424b 30bd 3f14 12bd
00000070: 2c2b 303d dafe afba a062 083c ab69 e4bc
00000080: cb96 8dbd c69e 3abd 0685 11bd 6243 a83d
00000090: aae7 d8ba dd4b d2bc 191e f03c c76f 9f3c
000000a0: 922d 40bd 233a db3d b559 e5bc a79f d3bc
000000b0: 0322 eb3c c868 58bc a458 a6bd aa85 5bbd
000000c0: e3bd e3bc 6059 16bd 4fb2 1dbc 7711 ee3c
000000d0: bb6d d73c 490b 163d 297a c53c 6e3f 1ebd
000000e0: 1707 f43d a4c9 803d d79a 17bd ce28 473c
000000f0: 0dc7 0bbd 8d96 dabd b4a9 a7bd 4335 8ebc
00000100: b63a 823d 2466 0c3b 737a 8fbd 5bcd 8b3c
00000110: 3075 8dbd a78a 5ebc 84f9 383d 497a 083d
00000120: f9cb c63b f683 c2bc b36e e7bd 338f a43c
00000130: 95bd 57bd a721 253d a4a9 a5bc bfec ca3c
00000140: e354 8a3d 9f28 b03c d1b6 31be 6077 343c
00000150: ab8a 293e ef36 7c3a 45d1 9f3c 1b0c 8f3b
00000160: f75e 8bbd 0edd 3d3c 177d 7d3c d9a5 cbbc
00000170: cd45 643c ca79 933d 002c a5bc 0220 40bc
00000180: 7fe7 213e 8e6c 5dbd 2a87 633d 8843 563e
00000190: ae12 c5bb 5067 6fbe 70ca 62bc b456 083d
000001a0: bfc8 2a3d 07eb 003d 82d4 513d 14e6 be3d
000001b0: ae45 f83b b894 95bd 5bd8 c0bc 27fc d3bc
000001c0: a3fa eabc 4e43 92bd d995 2c3d bde5 f9bb
000001d0: cd30 9bbc 95b1 663d afc1 ddbc 1dba ef3b
000001e0: 8297 ad3d 9f7b 2c3d c5dd 473d 8d90 84bc
000001f0: 208b 71bd dfeb a93c 6bfb 26bd 6c48 4d3d
00000200: 097c bfbd 4fdc 2bbd 504e bfbd c7d0 07bd
00000210: b247 52bd 409a 823d 891c 483d 5311 083a
00000220: e1fd 7fbd eef6 4cbd 4469 2bbe 55be 53bd
00000230: 7dca b33d e739 5ebd 7f6b 8c3c 6d4d 1cbc
00000240: 36c9 4f3d b96f bb3d ebba b83b 13e6 d2bc
00000250: 8e84 8e3d f6f4 59bd 51dc 7f3d 7cad d53d
00000260: fe15 a2bc 3ab1 2b3b 9a1f 453d 11aa 313d
00000270: 029c ffbc a8c8 13bd 04ce 84bd dce4 cbbd
00000280: 6c5f 903d 54ea 81bd 5a8b 9dbd 10c0 553c
00000290: b210 0ebe a62d 5d3d 75c5 a9bd 9541 75bc
000002a0: dbc2 8e3d 442e 373d ea7e a5bd 905f 5bbd
000002b0: 6036 443a 6229 94bd 83a3 ad3d b188 253d
000002c0: 2d67 ce3b 42e8 503d 8b61 cf3d d0a6 d0bd
000002d0: 1697 c2bc 3cae e3bd 46cf d73d 5364 123d
000002e0: 4ab4 ba3c 80d6 4fbd 4787 61bd f96e 90bd
000002f0: 0674 5e3d ad20 0abe 6eec 8a3c a3e5 0bbb
00000300: d436 4dbb acd6 653c ee42 21bc aafa 403d
00000310: 1362 023c bc80 40bd 4b32 e43c 837d 433d
00000320: a728 33bd ea28 8e3c 8af7 cdbd ab94 b2bd
00000330: d829 19bd 7a98 283d e2c1 1c3d 467f 01bd
00000340: 733b 5b3c 34ec 45bd 6ade 11bd d37e 20bc
00000350: 1eec adbc f172 a73c 0831 de3c 64b1 b33c
00000360: 1c8b 7d3d d0e0 873e 0032 b13b 3086 363d
00000370: 31a3 d9bc bc10 75bd 49ca 553d 300c beba
00000380: b39f 17bc ca8e c2bc 2fd6 77bd 6770 75bd
00000390: d694 12bc d8bb d03c e627 97bb 15a5 91bd
000003a0: 4eda 5d3d b83a debc e12b b8bb dee1 17be
000003b0: 6bf7 13bb ee11 bdbc c9ec d03b 6f79 9bbc
000003c0: 3519 3cbd f3dd bdbb 9416 cab7 9a10 7bbd
000003d0: 0cd7 e9bc e0fa 77bc a7a1 553b 1689 903d
000003e0: 1588 ef3b 6e72 b9bb 1b2f 153e a34a 8d3b
000003f0: 2569 d8bc 5e6c 4abd 9e4c eebc 46b1 343d
0.00557578 0.16309394 -0.015410376 0.029786818 -0.16688183 -0.060319073 0.04641358 -0.012970548
-0.008882539 -0.060578167 0.06887677 0.06029191 0.027341513 -0.06736509 0.0010726941 -0.033486348
0.052020125 0.04542717 0.08935838 -0.029284842 0.011660796 0.027257957 0.002481367 0.09694867
-0.0020881821 0.07696726 -0.04304052 -0.03566384 0.043009922 -0.0013427392 0.008324295 -0.027882418
-0.06913527 -0.045561574 -0.03552725 0.08215977 -0.0016548533 -0.02567094 0.029311227 0.01946248
-0.04691846 0.10704448 -0.027996877 -0.025832964 0.028702741 -0.013208576 -0.081223756 -0.05359427
-0.027800506 -0.03670633 -0.009625032 0.029061062 0.02629744 0.036631856 0.024106102 -0.03863471
0.11915415 0.0628846 -0.0370129 0.012155725 -0.034125376 -0.106732465 -0.08186665 -0.017359382
0.063588545 0.0021423185 -0.07005777 0.017065695 -0.06907117 -0.013582862 0.04515983 0.033319745
0.006066796 -0.023744565 -0.11300411 0.020087814 -0.052671034 0.040315297 -0.020222493 0.024771092
0.06754472 0.021503745 -0.17354895 0.011014789 0.16556804 0.0009621223 0.019508967 0.0043654568
-0.068052225 0.011588348 0.015471718 -0.024859356 0.013932657 0.07200964 -0.020162582 -0.011726381
0.15810965 -0.054058604 0.055548824 0.20924199 -0.0060141897 -0.23379254 -0.01384221 0.03328581
0.041695353 0.03147414 0.051228054 0.09321228 0.007576666 -0.073037565 -0.023540666 -0.025877072
-0.028683966 -0.071417436 0.042135093 -0.007626264 -0.018944168 0.0563217 -0.027069895 0.0073158876
0.084761634 0.04211008 0.04879548 -0.016182208 -0.05897057 0.020742355 -0.040767115 0.050117895
-0.0934983 -0.04195815 -0.09341109 -0.03315809 -0.051337905 0.06377077 0.04885534 0.000519057
-0.062497977 -0.050040178 -0.16739374 -0.051695187 0.08778856 -0.05425444 0.017141102 -0.009539944
0.050729 0.09152169 0.0056375167 -0.025744474 0.069588766 -0.05321213 0.06246597 0.1043348
-0.019785877 0.0026198165 0.04812584 0.04337508 -0.03120232 -0.036080033 -0.06484607 -0.09955761
0.0704945 -0.06343523 -0.07692595 0.01304628 -0.13873556 0.053998612 -0.08289615 -0.014969249
0.069707595 0.044721857 -0.080808476 -0.053557932 0.0007484909 -0.07234456 0.08478453 0.040413562
0.0062989206 0.05100275 0.10126027 -0.10188067 -0.023753684 -0.11117217 0.10537581 0.035740208
0.022791047 -0.050741673 -0.05506065 -0.07052416 0.054309867 -0.13489027 0.016958442 -0.002134659
-0.0031313198 0.014028233 -0.009842617 0.047114052 0.007957953 -0.04699777 0.027856013 0.04772712
-0.04373994 0.017353494 -0.1005698 -0.087197624 -0.03739342 0.041161038 0.03827084 -0.031615518
0.013380873 -0.048320964 -0.0356125 -0.009795862 -0.021230754 0.02044055 0.02712299 0.021935172
0.061900243 0.26538706 0.005407572 0.044561565 -0.026567074 -0.059830412 0.052194867 -0.0014499482
-0.009254384 -0.023749728 -0.060506996 -0.05992165 -0.008946618 0.025480196 -0.0046129106 -0.07111565
0.05416327 -0.027127609 -0.005620465 -0.14832255 -0.0022577893 -0.023079839 0.0063758832 -0.018978802
-0.045922477 -0.0057942807 -2.409079e-05 -0.06129513 -0.028544925 -0.015135497 0.0032597573 0.07057397
0.0073099234 -0.005659393 0.1456875 0.004311876 -0.026417324 -0.049419753 -0.029089268 0.044114374

actor.2.bias f4 [128]
00000000: 6979 1a3d 643a 02bd 34ef 8abd 99af 6a39
00000010: 553d 573c 9349 84bd 12f4 0dbd 2e6c 0ebd
00000020: 4a66 42bd 0cdf 64bd 04d9 063d fab0 95bb
00000030: f1a5 46bd d374 da3b 6cc0 57bd 5d1f 4a3d
00000040: c7be 85bc 1ade 1fbd 2d7b 30bd 6628 fa3c
00000050: bbca 583d cefe d13c 2b79 563d b744 c6bc
00000060: 1517 9e3c e6ec 6ebb 3bb2 463a cefc 093d
00000070: 73fd 963d c90a 67bc fd68 193d 0b6d ee3b
00000080: 4789 07bc e760 483d 2f9f fbbc 1df7 52bd
00000090: ba3b 91bb c7f4 733d 33ed 41ba ea6a de3c
000000a0: 1df6 eb3c 8446 c7bb 369c 55bd fa4f 6ebd
000000b0: 508f 0cbd 9bf2 81bd 7520 97bd 4a08 633c
000000c0: 73f6 373c 3020 45bd 315a 3a3c 8881 5bbc
000000d0: 7e64 10bd 2f51 edbc 895c 953c f5ae 54bd
000000e0: 376d e23b 8f46 1e3d 940f f9bc dc90 70bd
000000f0: 7a5f 11bd 5e27 72bd cc26 84bd 83e7 88bc
00000100: 6ebe 84bd 747d a039 d376 81bc 4415 2abd
00000110: c963 893d 7e5a 033d a23d 053d 2647 c83c
00000120: 90b2 27bd 9919 143d 3a26 38bb b8a4 64bd
00000130: 5860 17bd b0a4 3cbc 7bdf 09bd 301d 153d
00000140: cfa9 e43b 6418 1cbc 6b3b d03c 12ec 223d
00000150: f40e eebc 93eb ffbb c93a cabc aa50 04bc
00000160: 8009 5ebd 4438 723c 0feb 3bbd ce81 cbbc
00000170: 8c83 00bb 6f16 35bd e5fd 093d 20d1 1fbc
00000180: 32ba 613d e4c7 34bd 5e1d 923d 95f5 6d3c
00000190: 0afa 953b cdbf 03bd 19b7 203d a609 03bb
000001a0: 7362 02bd 6130 313d 5a3c 62bc 8382 a83c
000001b0: e939 123d 228c fbbc 339a 4a3c 4a11 383d
000001c0: 9af0 ddbb aba4 42bd 0d5a 6bbc 89a5 133d
000001d0: 20dd 71bc 26f8 c4bc 2edc 8cbd f6d3 4dbc
000001e0: 2ec8 273d 86a8 4aba 1864 5bbd 92e1 03bd
000001f0: 1b24 943c d852 f2bb f047 443d 3b11 5abd
0.037713442 -0.031793967 -0.067839056 0.00022381394 0.013137181 -0.06459346 -0.03465659 -0.034771137
-0.04746083 -0.055876777 0.032921806 -0.0045682164 -0.048498098 0.0066667586 -0.052673742 0.049346317
-0.016326321 -0.039030172 -0.04308622 0.030536842 0.052927714 0.025634196 0.05236165 -0.024202688
0.019298116 -0.003645712 0.0007579659 0.03368836 0.0737256 -0.0141016925 0.03745364 0.0072761825
-0.008272476 0.04892054 -0.030715553 -0.051505197 -0.004432169 0.05955961 -0.0007397711 0.02715059
0.02880388 -0.006081404 -0.052150927 -0.05818174 -0.03431636 -0.063451014 -0.073792376 0.013856957
0.011228192 -0.0481264 0.011374042 -0.013397582 -0.035252087 -0.028969375 0.0182326 -0.051924665
0.006909992 0.03864151 -0.030402936 -0.0587319 -0.035491444 -0.059119575 -0.064527124 -0.016711956
-0.06481634 0.00030611048 -0.01580373 -0.041524187 0.06708486 0.032068722 0.03252948 0.024447989
-0.040941775 0.036157224 -0.0028098957 -0.05582115 -0.036957115 -0.011513874 -0.033660393 0.03640479
0.0069782506 -0.0095273 0.025418958 0.039775915 -0.029059865 -0.007810065 -0.024686234 -0.008075872
-0.05420828 0.014783923 -0.045878466 -0.02484217 -0.0019609658 -0.044210847 0.0336894 -0.009754449
0.05510921 -0.044135943 0.071345076 0.014523883 0.004576926 -0.032165337 0.039237116 -0.0019994765
-0.03183217 0.04325903 -0.013808334 0.020570045 0.03569976 -0.030706469 0.0123658655 0.044938363
-0.0067730667 -0.04752032 -0.0143647315 0.03604654 -0.014762193 -0.024044108 -0.068779334 -0.012562742
0.04096239 -0.00077308004 -0.053562254 -0.032197542 0.018083623 -0.0073951297 0.047920167 -0.05323909

actor.4.weight f4 [64, 128]
00000000: a36d 29be 3408 bbbd 977a ad3b a0b5 8fbd
00000010: aea0 e5bc b099 d4bd 0bdd 01be a790 2b3c
00000020: a963 b5bd bee2 f0bd 5335 74bc ff9c 49bd
00000030: 9a99 d5bc d156 60be 2640 f03d e397 39be
00000040: 732f c8bd 5f82 833d 0d66 61bd 5008 b43d
00000050: 15b9 aebd 56f3 bebd 7a36 89bb 89ff afbd
00000060: 81d2 55bd 5999 ff3c f785 733b 036b babb
00000070: 7342 8ebb 235d f03d d89b ba3d 1253 303d
00000080: ffce ffbd 74ac 9a3d e841 703e 88f4 123b
00000090: a43e f9bd 51f8 92bd 4649 1dbd 0b3a b0bd
000000a0: e3e9 13be ff5c bc3d 0210 10be 9343 5d3e
000000b0: 3226 f4bb 905c c43d 7936 c3bd 119a 543e
000000c0: 7907 f8bd dca4 21be 25f3 533e 4132 143d
000000d0: 3c8b 2c3e 3efd 033e 077f b73d 1f36 da3d
000000e0: f23e 1bbe 68eb f13d 66d9 193e 6e8b c53d
000000f0: bfa8 b13d 4103 ecbd 7b48 3f3c b3e4 3a3a
00000100: 6b85 1e3c 7c65 9d3c 1c3a 8a3b 744a 8c3d
00000110: 4c70 5abd 8907 b23d f17b 563d 25e8 c03d
00000120: 2e64 a53d d878 66be ae5a 4e3e 80c2 59bd
00000130: 6959 ed3b 0c0a 63bd f236 a0bd 7da6 d33c
00000140: 9eec ea3d 9d27 dbbc cbcd 3d3e 8e29 9cbd
00000150: e945 e73c 6212 cbbc cb84 5c3e 1cd7 d63d
00000160: f00d 71bd acd1 3bbe 2626 d0bd 0f27 db3d
00000170: 6266 133d 0f79 bebd a63a 07be 0548 123e
00000180: ad1d 723d 7a85 9e3c ba81 65bd d5f6 b33c
00000190: 1390 cd3b e721 953e 2d7e e93d f5fc b2bd
000001a0: 9c18 a63d ef2f dfbd cc79 413a 5efa d43d
000001b0: 0cf9 cfbc 9cf2 12be 9fa3 ce3b ce7f 3c3e
000001c0: b33e 02be e9f3 59bd 660d f6bd 249f 80bd
000001d0: ddef 4abd bb0a dcbb 45e9 f53d 4235 cabd
000001e0: 6642 f33d 2a88 f93d e3ab eebd 870e 0cbd
000001f0: 1eb8 653d 29ff 21be 784d bf3d 27e3 16bd
00000200: c5e2 003e cc3f 3f3e 180e 1dbe 27ca 993d
00000210: eae7 a83d 3d31 073e c377 b6bc 3e61 27be
00000220: cca8 8a3c d769 b3bd 14d8 a0bd 5e83 503d
00000230: 27c3 28be 3d23 9e3c ccf6 103d f296 3cbd
00000240: a4e8 02be 2dd4 72be e446 46bc 4194 3c3e
00000250: 3ac0 023e 76e0 683e 081d 80bc be09 523e
00000260: 74bf 52be c86e 1f3c 4533 33bd bda5 f93d
00000270: 4287 2ebd 4517 f3bc 5e39 953c b3d9 bdbc
00000280: 35d6 26be 8ca7 6c3d 60bc dcbd a861 a9bc
00000290: 6e91 9b3d 56bb c4bd 1efc 0cbe 417e d3bd
000002a0: e4a5 b2bd 8d69 c9bd 8fda 17be 3e0e 393e
000002b0: 9bb3 1f3a 7223 633e f70f d83d 3de9 e13c
000002c0: d13c 233d e42f f73c 6011 4dbd feef d63d
000002d0: ce5c e4bd 0cd4 9dbc 9476 86bd 8c19 54bd
000002e0: 34da 023e 671b 14bd 7240 613d 3fb1 68be
000002f0: fd3d f63d 00d7 283e 487e 9f3c 2922 a13d
00000300: c280 c53d 934c 1fbd 24ff 073d 3e84 4a3d
00000310: 91a1 3cbd c9e3 a0bd 9d63 963d 9c5e d4bc
00000320: 3594 2bbe 30a7 3ebe 1533 fabd 908b b2bd
00000330: badc fcbd 3cfc 3d3e 15e3 8ebd dc5d 49be
00000340: 821e 1e3e 342e c73c 812a a3be b974 e33d
00000350: 7046 6a3e 3d94 2bbd f204 dfbd 4bd0 ea3c
00000360: e847 c43b 3596 4dbe 1380 6ebd 97a0 1abe
00000370: 6d0b ec3d f90a 7b3d bb53 e23d 612f 2dbe
00000380: 7c16 dd3d 79ce febc 955c 793d f4b2 f63d
00000390: 3f17 c5bd 25ad f73b 60ab 8cbe 57a2 543e
000003a0: 8d66 0f3b 0d5d 25be cf1e 7b3d da15 7cbd
000003b0: d947 f3bc 053e 1b3d 8343 3e3e 7ba7 183e
000003c0: 47cb d13d ea5f 4fbe 36f7 bdbd 7b2b 963d
000003d0: 5602 aa3d 2b36 a33d bde6 013d aa02 133e
000003e0: d693 003d 1d6e 2a3d 4314 e33d 194d 40bd
000003f0: 6520 1a3e 9b62 a13c cfda cbbd 75dc df3c
-0.1654573 -0.09132424 0.005294155 -0.07017064 -0.02803072 -0.10380876 -0.12681977 0.0104714995
-0.08856899 -0.11761998 -0.014905292 -0.04922199 -0.02607422 -0.21908118 0.11730985 -0.18124346
-0.09774675 0.06421351 -0.055028964 0.08790648 -0.08531395 -0.093237564 -0.0041874023 -0.08593661
-0.052202705 0.031201052 0.0037158707 -0.0056890263 -0.0043414175 0.117365144 0.09111756 0.043047972
-0.12490653 0.07552424 0.23462641 0.0022423584 -0.12170151 -0.07176269 -0.038399957 -0.08604821
-0.1444469 0.09197425 -0.14068606 0.21607809 -0.0074508423 0.095879674 -0.09531874 0.20761897
-0.121108 -0.15785545 0.20698221 0.03618074 0.16849989 0.12889573 0.089597754 0.10654854
-0.1516073 0.11812478 0.15024337 0.09645735 0.08674764 -0.11524058 0.0116749955 0.0007129416
0.009675364 0.01921343 0.004218353 0.06850138 -0.05332975 0.086928435 0.052364293 0.09419278
0.080757484 -0.22507036 0.20151779 -0.053164005 0.0072433245 -0.055429503 -0.0782298 0.025836224
0.114709124 -0.026752288 0.18535535 -0.076251134 0.028231578 -0.024789039 0.21535031 0.104902476
-0.058851182 -0.18341702 -0.10163526 0.10700809 0.03598631 -0.09300434 -0.13205966 0.14285286
0.059110332 0.019350756 -0.05603192 0.021968285 0.0062732785 0.29127428 0.11401019 -0.08739654
0.081101626 -0.108978145 0.0007380515 0.10399316 -0.02538731 -0.1435036 0.0063061262 0.18408129
-0.1271923 -0.053211126 -0.12014274 -0.06280354 -0.049545158 -0.0067151464 0.12007383 -0.09873439
0.11877899 0.12184174 -0.116538785 -0.03419354 0.05608379 -0.15819992 0.09340948 -0.036837723
0.12586506 0.1867668 -0.15337408 0.075092606 0.08247359 0.13202377 -0.022273904 -0.16345689
0.016926192 -0.08760422 -0.07853714 0.05090653 -0.16480695 0.019303912 0.035391614 -0.04604239
-0.12784058 -0.23713751 -0.012101863 0.1841593 0.12768641 0.22741875 -0.015638843 0.20511529
-0.20580846 0.009731002 -0.043750066 0.12189815 -0.04260946 -0.029674182 0.018215831 -0.023175096
-0.16292651 0.057776973 -0.10778117 -0.020676449 0.07596098 -0.09606044 -0.1376805 -0.103268154
-0.087230474 -0.09834585 -0.14829467 0.18071839 0.0006092132 0.2218149 0.1054992 0.027577037
0.03985292 0.030174203 -0.0500654 0.104949936 -0.111505136 -0.01926615 -0.06565586 -0.051782176
0.1277855 -0.036158945 0.0549931 -0.22723864 0.12023542 0.16488266 0.019469395 0.07867844
0.09643699 -0.038891386 0.033202305 0.049442522 -0.04605252 -0.078559466 0.073432185 -0.02592402
-0.16755755 -0.18618464 -0.122167744 -0.08718026 -0.12346788 0.18553251 -0.06976906 -0.19664711
0.15441325 0.024314024 -0.31868365 0.111062475 0.22878432 -0.041889418 -0.10889615 0.028663775
0.005990017 -0.2007683 -0.05822761 -0.15100323 0.11525617 0.06128976 0.110511266 -0.16912605
0.10795304 -0.031104313 0.06087931 0.12045851 -0.096235745 0.0075584822 -0.274745 0.20765053
0.0021881193 -0.16148777 0.06130868 -0.061544277 -0.029697346 0.037900943 0.18580441 0.14907639
0.1024385 -0.20251432 -0.09275667 0.07332512 0.08301227 0.07969316 0.03171419 0.14356485
0.031390987 0.04160892 0.11087849 -0.046948526 0.1505142 0.019700339 -0.09953844 0.027326802

actor.4.bias f4 [64]
00000000: 6dda ca3d 08aa 1ebc 32f7 e83d c7ef 4d3d
00000010: e708 37bc a777 67bd dde3 08bd c25c 4f3d
00000020: 5cd0 923d 3d84 a5bc e271 093d 0344 0abd
00000030: ae38 643c 16bb d53c edcb 093e ca9a 333d
00000040: 9953 b0bc 71f5 2b3d 0ad1 d33d 5992 d23d
00000050: 618d c83d 19b0 7a3d be32 5c3d eac8 3ebd
00000060: 2702 6a3d 1819 c63d 525e a3bd b3fb df3d
00000070: 8ff9 0a3c 791d 453c 91a2 8f3c 2fdc 2ebd
00000080: 5e5f 95bd e000 3e3d 5a3f 05bd 75fa 733d
00000090: f004 44ba f6d3 6abb 845a 083d 3719 9b3c
000000a0: 2cd3 95bd 59fb 9d3d 6ff3 fb3d e273 22bd
000000b0: 736c 753d 392a 723b eff9 2cbd aeea d03c
000000c0: f7bb bd3d a2e7 1e3d 4356 e93d dd98 3e3d
000000d0: 2a98 913d a22c bf3b 0511 c83d 900d 4bbd
000000e0: c369 183d 4a37 87bd a33f 3c3d 5d42 9a3d
000000f0: e5ae 90bc 362f f63c 0b07 743d b197 bb3d
0.09904943 -0.009684093 0.11375274 0.050277498 -0.011171556 -0.056510594 -0.033420432 0.05062557
0.07168648 -0.020204658 0.033555873 -0.033756267 0.013929529 0.026090186 0.13456698 0.04384879
-0.021524237 0.041982118 0.103426054 0.1028182 0.09792591 0.061203096 0.05375933 -0.046578325
0.05713096 0.09672755 -0.079769745 0.1093668 0.008482351 0.012030953 0.017533572 -0.042690452
-0.072935805 0.046387553 -0.03253112 0.059565026 -0.00074775424 -0.0035831905 0.033289447 0.018932922
-0.073156685 0.077139564 0.12302291 -0.039661296 0.05991788 0.0036951436 -0.042230543 0.025502529
0.09264367 0.03879512 0.11393406 0.0465325 0.07109101 0.005834178 0.09768871 -0.04957348
0.037210237 -0.066023424 0.045959126 0.07532189 -0.017661521 0.030051809 0.05957703 0.09159792

actor.6.weight f4 [15, 64]
00000000: f939 e2bd bfd2 603e 7447 663c ea3b 0fbe
00000010: f47c 88bc 4681 14be 8e77 873e 4475 02be
00000020: 4404 16be 8996 383e 6113 f1bd f0f2 29be
00000030: 3212 97be 0d34 843e a5f2 0e3e 5734 18be
00000040: 60b1 683e 5afe 20be da44 c23c b65a 8c3e
00000050: ba1c 98be 61b2 f23d 28ca 1ebe 3ce0 5bbe
00000060: 6c75 f63d d9e9 68be 489f 8e3e 25e0 813d
00000070: 68db debc 785d 043e 0007 f9bd 2381 3ebe
00000080: a679 863e c97e ffbd 8a41 8d3d dff7 a73e
00000090: fa38 1bbe 1668 ba3d 1ea9 883d 9e50 9ebe
000000a0: 7518 7fbc ae98 b8bd 44b7 e93d 66c3 4dbe
000000b0: b5ba 6d3e d2f2 123e af7c d13c 89eb 663e
000000c0: 6978 4ebe a032 45bd c6e7 443e ef71 10bd
000000d0: 99ff 1ebe 1398 4f3e 946a 22bd 6431 af3d
000000e0: b281 4dbe ee24 6b3c 29cf 7b3e 8c56 183e
000000f0: d618 b2bd 19d6 303e 0d88 313d 34d2 55be
00000100: fb22 3f3e 9af3 283e 7739 3cbd 9bff ffbb
00000110: 6500 553d 8cd1 fdbd 6cb6 5d3b 2133 4d3e
00000120: 76c1 7dbc 9706 9a3b 9bc0 5f3e 9316 023e
00000130: a9de 473c e253 abbd aba4 2e3d b902 2f3d
00000140: 1695 073e 06a5 603d 14bc dabd c3a9 dbbd
00000150: f957 863d 06d3 3f3e 2031 21bc 712f 0e3e
00000160: 2fb4 68be 4f45 74bd 76c2 ccbe 57c9 dfbd
00000170: b6a9 9a3d e951 17bd 2934 68bd 16a9 89be
00000180: c974 88bd 7c5c 743e c2db b5be 4935 92be
00000190: 448d a2be 1195 433e 8ca4 593e 857b 933d
000001a0: 85ec 533e 0e74 c8bd 56b8 c63b f415 793e
000001b0: f576 84bd 4970 97be 4a2a 6c3e 2dd4 e8bd
000001c0: 14e2 993d 3b7a 433d b183 233e e29b 733d
000001d0: a7c6 613e 26f3 81be b464 443e ec5b a2be
000001e0: 68b2 833e b904 c6be a155 71be ef0d 2a3e
000001f0: f608 5c3d 183b 8abe 63e6 8bbe 1eae dd3d
00000200: 1b4d c8bc 26ea bbbd 5c9e 313e 99c7 f93d
00000210: d840 6d3e 3caa 78bd 209c 52be a27d a8be
00000220: 0154 613e b79b e5be 1946 98be f84c b9be
00000230: 8bc6 39be 3946 92be 4ff9 213d c5c8 873e
00000240: 89a8 d6bd 4339 163e c358 64be 4de6 75bb
00000250: 938c 5fbd a098 1c3e 09ad 773e a551 0c3e
00000260: bceb 863b acce 3bbe 78bd cd3e fbf8 aabe
00000270: 610d b13d 944a 6fbd 17fe 4dbe f66f c53e
00000280: 8d84 82be 95b3 09be 7653 a53e e578 96bd
00000290: ba24 4f3e 93bc bfbd cbc1 4bbd ed82 bebd
000002a0: b209 5e3c ddf7 733e 6059 663b 9bf7 083e
000002b0: 2c4d b8be 02db a53e 503f 9cbc 659f 91bd
000002c0: ee0a 563e 262d 023e 6a45 1ebe 8252 c23d
000002d0: c190 463c d049 4ebd 0483 3e3e 2015 3a3e
000002e0: 1baf 44bc b272 563e 2c18 c7bd f389 5bbe
000002f0: c5fa 413e 2f83 723e 1a6b 573e 3f19 53bd
00000300: dc2f 90be a6e7 e23d b1e5 95bd 9b9a 923e
00000310: 1e00 813e 69fb 413e e3b8 8ebe fb81 953d
00000320: 6f1a bbbe 1e74 b73d 8b5e 9a3e c3fd 15bd
00000330: 5d09 713e c270 00be 4053 583e 129b e4be
00000340: 30a2 e03d 4a80 dabe 0b79 933e 044a 2c3e
00000350: 81a8 66bd 7081 b4bd 27dd 6e3e 6d8f 37be
00000360: a73a e6bd 47d9 a13e 7bee e6bc 72a9 1f3e
00000370: 0c27 8a3e c05d e63c fea1 933e 6868 4a3d
00000380: 84aa 253d ae5b 78be fb99 d93e 2e33 fb3d
00000390: 5430 6dbd 7b31 783d 2739 8ebd 2f15 bfbc
000003a0: dfec 6e3d a988 c1be 20ff 493d b437 e6bd
000003b0: eddf af3c 793e d4bd 6f6c 12bd 2d48 5ebe
000003c0: fb77 3abe d476 013e 5cd1 43bd 4c57 5abe
000003d0: 67d7 0cbe ba93 80be a664 c63d a31f d83d
000003e0: ef80 0e3e 2afc 823e f646 bb3b e838 6abe
000003f0: 1c84 b03d 7b8c 823e 6fc6 673d dc5d 24bd
-0.11046214 0.21955393 0.014055122 -0.13987699 -0.016661145 -0.14502439 0.264584 -0.12740046
-0.14650065 0.18026175 -0.11771274 -0.1659658 -0.2950607 0.25820962 0.13959749 -0.14863716
0.22723913 -0.15722027 0.023714472 0.27412957 -0.29709417 0.11850429 -0.15506804 -0.21472257
0.12034115 -0.22745456 0.27855897 0.0634158 -0.02720423 0.1292628 -0.12159538 -0.18603949
0.26264685 -0.12475354 0.06897266 0.32806298 -0.15158454 0.09101884 0.066728815 -0.3092088
-0.015569796 -0.09013496 0.11411908 -0.2009407 0.23215754 0.14350441 0.02557215 0.22550787
-0.2016312 -0.048143983 0.1922904 -0.035264906 -0.1552719 0.20272855 -0.039652422 0.085543424
-0.20069006 0.014352066 0.24590744 0.14876765 -0.08696143 0.17269172 0.04334264 -0.20880967
0.18665688 0.16499177 -0.04595324 -0.007812453 0.05200233 -0.123934835 0.0033830656 0.20039035
-0.015488019 0.0047004926 0.21850817 0.12703924 0.012199082 -0.08365609 0.04263751 0.042727206
0.13240466 0.05484488 -0.10680404 -0.10725739 0.06559748 0.18732843 -0.0098383725 0.13885285
-0.22724985 -0.05963641 -0.39992112 -0.109270744 0.07551901 -0.03694335 -0.05669037 -0.26886815
-0.066629 0.23863405 -0.35519224 -0.28556278 -0.31748402 0.19099833 0.21254176 0.07201294
0.20695694 -0.09787761 0.006064455 0.2432478 -0.06468002 -0.29577854 0.23063007 -0.11368594
0.07513824 0.04772399 0.15968205 0.059474833 0.22048436 -0.2538082 0.1917904 -0.31710756
0.2572205 -0.38675478 -0.23567821 0.16606878 0.053719483 -0.2699821 -0.2732421 0.10824226
-0.02445083 -0.0917552 0.17345566 0.12196273 0.23169267 -0.060709223 -0.2056737 -0.3290835
0.22004701 -0.44845363 -0.2974098 -0.36191535 -0.18142144 -0.285692 0.0395444 0.26520362
-0.10481364 0.14670281 -0.22299485 -0.0037521303 -0.05457742 0.15292597 0.24187101 0.1370302
0.004117457 -0.18340558 0.40183616 -0.33393082 0.0864513 -0.058420733 -0.20116459 0.38561982
-0.25491753 -0.13447411 0.32290238 -0.073472776 0.20228854 -0.093621396 -0.049745362 -0.09302316
0.013552116 0.23825021 0.0035148486 0.13375704 -0.35996377 0.32393652 -0.019073159 -0.0711048
0.20902607 0.12712535 -0.15456167 0.09488393 0.012119473 -0.05036336 0.18604666 0.18172121
-0.012004639 0.2094219 -0.09721407 -0.21439342 0.18943317 0.23682855 0.2103695 -0.05153775
-0.28161514 0.1107934 -0.07319201 0.2863358 0.25195402 0.18943562 -0.27875432 0.073001824
-0.36543605 0.089576945 0.30150256 -0.03661896 0.23538728 -0.12543014 0.21125507 -0.4464956
0.10968435 -0.42676002 0.28803286 0.1682511 -0.05631304 -0.08813751 0.2332655 -0.17925806
-0.11241656 0.31611082 -0.028189888 0.15591982 0.26982915 0.028120875 0.28834528 0.049415976
0.04044582 -0.24253723 0.4250029 0.12265621 -0.057907417 0.060594063 -0.06944495 -0.02332553
0.058331367 -0.37799576 0.04931557 -0.11241093 0.02146908 -0.10363478 -0.03574794 -0.2170722
-0.18209831 0.12642986 -0.047807083 -0.21322364 -0.13754044 -0.25112706 0.09687166 0.10552909
0.13916372 0.2558301 0.0057152463 -0.2287327 0.08618948 0.25497803 0.056585725 -0.040128574

actor.6.bias f4 [15]
00000000: a54c 9fbd 2b9b c13c 2893 10be 30db 923d
00000010: c761 133d 4a45 ff3c b646 1f3d 9b11 253d
00000020: 40b8 7ebd 7827 73bc 2056 793d cda5 aabd
00000030: 2fac 543d c06e 7bbd 2642 8e3d
-0.07778291 0.02363356 -0.14118636 0.07170713 0.03598192 0.03116097 0.038885795 0.040299993
-0.062187433 -0.014840953 0.06087315 -0.08332405 0.05192202 -0.061384916 0.069462106

critic.0.weight f4 [256, 55]
00000000: 7bca d9bd 47e4 c3bd 2de3 3ebc 05f0 c7bd
00000010: 7253 b2bd e18a f3bd f750 e4bd 85a8 0fbd
00000020: 9c14 17bd 9a63 fcbd bc28 72be fe53 78be
00000030: 0a58 57bd c0ee 2abe 9774 3ebe c170 26be
00000040: 2c6c 20be 3064 21be 0210 83bd 4175 63be
00000050: d6ae 5fbe 3109 58be 937e 2cbd 0de8 9ebd
00000060: dd99 813c 21e6 49bc d849 58be 1399 cb3c
00000070: b8fe 16be 8bba c9bd ddba 87bc 18a8 f4bd
00000080: 1fdc 18bd 3673 34be bb63 f4bd 1d2f 833e
00000090: 7980 13be a8ab afbd 1804 303d 86da 3bbc
000000a0: 593e 93bd b7e9 3abe e5b7 97be 21ef 68be
000000b0: cbc4 b13d fbbd 5dbc 7f9d 05be efd4 97bd
000000c0: 5452 cabd a352 203e 45d2 44bd 9882 013f
000000d0: 29a6 afbe a924 07be a30a c8be 3abd 8fbe
000000e0: a4b3 80be 44b3 f5bd 52c2 a9be 2e0a aabe
000000f0: 596e 87be 3de8 7abe 3ef5 75be 97d5 87be
00000100: abdd 98be 01df 303d 5f17 213d 3899 81bd
00000110: 7e7a 44bd 6231 a9bc 0e70 b9bd 903e d8bd
00000120: 80dc 17be 991e 48bd fc12 aebd ba44 073d
00000130: 1497 f6bd b82b fa38 b1b4 39bd af31 a1bd
00000140: 6033 c4bd ec65 f8bd 57e0 54be a989 e3bd
00000150: a0fd c7bd 0f53 7dbe 6d76 9cbd f94b 55bd
00000160: bd18 f2bd 1155 79bd 5989 93bd 7c38 67bd
00000170: 2170 36be 600b 69bc ab0d 8b3c 454d f33c
00000180: b6f2 e3bd 095f 883e 6b1f d1bd 86c1 43be
00000190: 1e3f 823d bdf6 45be e05c 1bbe 0838 33be
000001a0: 72b4 01be 3191 49be de88 123e 635f 42be
000001b0: 8509 0abe 8dfd 813e 596f f5bd 70cb 22bd
000001c0: b75c 03be 3373 d8bd 6391 18be 6869 d0bd
000001d0: 63d3 d4bd 9ebd 0dbe a8e8 55be b8ee e8bd
000001e0: 8449 43be 79ad 50be ee56 e9bd 9035 e2bd
000001f0: 7721 18be 314f cbbd 5d3d 40be 4639 3cbe
00000200: 8bae 26be 9e1c 95be 02b9 96bd 6462 893d
00000210: a7b1 d4bd a5a5 ddbd 5fab 83be 59e2 6cbe
00000220: 41da 2abe 1028 0ebe 744f 32bd 569e 4ebd
00000230: 3997 fdbd 3bff 23be 8349 ae3c 8f41 80bc
00000240: b8f1 cbbd 9944 80bd fad2 11be c4f3 d7bd
00000250: 8781 6cbd a1ed 1dbe 20f4 163c 7beb 253e
00000260: 664c 593e 8ae3 bfbd d800 7d3e df28 5c3e
00000270: cc96 99bd 6fae 95be 5e3f 9ebe 6cfa 23bd
00000280: dece f2bd b716 e63e b6fe e83d 7529 fbbd
00000290: 05b8 7a3e 2948 8bbd 1495 4bbd 3070 77bd
000002a0: 5208 dcbd 08c2 d6bd 7885 a7bd 28b5 27bd
000002b0: 1827 afbc cbc8 78be 2764 47be b4d9 8ebd
000002c0: 5625 6dbe 0cbb 20bb 12ab 3f3b 92bd 70be
000002d0: f7de a83c 2959 72be 31e3 8bbc f87b 56bd
000002e0: 8608 1cbe 4b56 23be fb44 23be 2fd3 3ebd
000002f0: cc1c 9cbd 2a6d 88be dea5 41be 3b95 87be
00000300: fe80 97be a909 16be d896 2ebc f00d 2cbe
00000310: 7d7e c4bd 61f3 c3bd b1f9 eebc 9af7 85bd
00000320: e3bb 0fbe 84bd 41be e65b 2cbe 2b4b 02be
00000330: 14ae 76be 776f 26bc d9f1 823b a516 e63d
00000340: 605f 41be cbf8 5fbe aaef d63c c172 5bbe
00000350: 5ab1 17be 59e5 f2bd 363d e33c bee1 18bd
00000360: 227c c2bd 8bc2 fa3c fcb8 103d 2de8 0ebe
00000370: 199b 18be eac4 ccbd d19a e0bd 5cbc 0e3c
00000380: b3c7 bcbd 81b2 2d3d 7dc2 7d3e 9ccc f3bd
00000390: 66aa 49be c0f5 00bd 0a39 4e3d d8b7 ae3c
000003a0: c91a babc 0c2b b4bb a598 493d c99b 1cbc
000003b0: 35b2 57ba 85f6 2e3e 8e5d f63d fdbf 673d
000003c0: 4ad5 243d feb0 0bbe cd4b 2d3c 2b0f 333e
000003d0: 7aa9 313e dfe0 b73d d925 10be a377 07be
000003e0: d8e2 21bc 0eeb 28be 0c53 a4be 97c1 8ebe
000003f0: 8e7c b4be 5d39 b0be 08ec 2fbe ef19 b4be
-0.10634323 -0.09565025 -0.011650843 -0.09762577 -0.08707322 -0.118917234 -0.11148255 -0.035072822
-0.03688489 -0.12323685 -0.23648351 -0.2425079 -0.052574195 -0.16692638 -0.18599163 -0.1625395
-0.15666264 -0.15760875 -0.063995376 -0.22212698 -0.21844038 -0.21097256 -0.042112898 -0.07759104
0.015820438 -0.012322933 -0.21121919 0.024853265 -0.14745605 -0.098500334 -0.016568596 -0.11946124
-0.0373193 -0.17622074 -0.119330846 0.25621882 -0.14404477 -0.08577663 0.042972654 -0.011465674
-0.07189626 -0.18253218 -0.29632488 -0.2274747 0.086801134 -0.013534064 -0.13048361 -0.07413661
-0.09878984 0.15656523 -0.04805209 0.50589895 -0.34306458 -0.13197578 -0.39070615 -0.28074056
-0.25137055 -0.11997083 -0.33156067 -0.3321089 -0.26451376 -0.24502654 -0.24019334 -0.26530144
-0.2985662 0.043181423 0.03932893 -0.06328052 -0.04796838 -0.02065343 -0.09054576 -0.10558808
-0.14830208 -0.048857305 -0.08499715 0.033024527 -0.120405346 0.00011929072 -0.045338336 -0.078708045
-0.095801115 -0.12128815 -0.20788704 -0.11110241 -0.09765172 -0.24738716 -0.076397754 -0.052074406
-0.11821125 -0.06087214 -0.07203931 -0.056450352 -0.17816211 -0.014223903 0.01697429 0.02969993
-0.11130278 0.26635006 -0.102110706 -0.19116792 0.06359695 -0.19332404 -0.15172148 -0.17501843
-0.1266649 -0.19684292 0.14310023 -0.189817 -0.13480194 0.25388756 -0.119841285 -0.039744794
-0.12828337 -0.105688475 -0.1489921 -0.10176355 -0.10391881 -0.13841864 -0.20889533 -0.11373657
-0.19071013 -0.20378675 -0.11393534 -0.110453725 -0.14856516 -0.09927214 -0.18773408 -0.18381223
-0.1627752 -0.29123396 -0.07359506 0.0670822 -0.10385447 -0.1082261 -0.25716683 -0.2313322
-0.1668482 -0.1388247 -0.043532804 -0.05044397 -0.12382359 -0.16015331 0.021275287 -0.01565626
-0.099582136 -0.06263084 -0.14240637 -0.105445415 -0.057740714 -0.1542268 0.009213477 0.1620311
0.2122055 -0.093695715 0.24707353 0.21499966 -0.07499465 -0.29234645 -0.3090772 -0.040033743
-0.11855863 0.44939205 0.11376707 -0.12263767 0.2448426 -0.06800873 -0.04970272 -0.060409725
-0.107437745 -0.10486227 -0.08179754 -0.04094425 -0.021380946 -0.24295346 -0.19471799 -0.06975117
-0.23158774 -0.002452555 0.0029246253 -0.23509815 0.02061413 -0.23666824 -0.017076107 -0.05236432
-0.15237626 -0.15950887 -0.15944283 -0.04658812 -0.0762268 -0.26645786 -0.1891093 -0.2648104
-0.295906 -0.14652123 -0.010656081 -0.16802192 -0.09594438 -0.09567905 -0.029171797 -0.06541367
-0.14036517 -0.1891995 -0.16831931 -0.12723987 -0.24089843 -0.010158411 0.0039961156 0.11234788
-0.18884039 -0.2187225 0.026237328 -0.21430494 -0.14813748 -0.11860151 0.027739149 -0.03732466
-0.09496333 0.030610343 0.035332665 -0.13955756 -0.14902915 -0.09998496 -0.10967029 0.008711901
-0.09217777 0.042406563 0.24781223 -0.119042605 -0.19693908 -0.031484365 0.050347365 0.021327898
-0.02271785 -0.0054982956 0.04921784 -0.009558626 -0.0008228154 0.17086227 0.12029563 0.05657958
0.04024247 -0.13641736 0.010577154 0.17486255 0.17349806 0.08978438 -0.14076938 -0.13229232
-0.009880744 -0.16495916 -0.3209461 -0.27882072 -0.35251278 -0.34418765 -0.17179883 -0.35176036

critic.0.bias f4 [256]
00000000: 43e3 003d d5bc 55be 207f 86bd 6b7d 0dbc
00000010: 5d5c 473c 3350 d4bd 3d41 34bc 6e71 51be
00000020: 482b 863e 5e99 cabd 4d50 55be 9efc 2c3e
00000030: db08 7fbd 37bf ddbd 5f06 8f3d 8c27 90bd
00000040: ae63 dd3d bed3 babd 5edd dc3d 6217 5f3e
00000050: bc1a 85bd 1fb8 34be 6303 a4be b7a2 6a3e
00000060: a693 ee3d 6f21 36be 1fab 813d ea6a d33c
00000070: dabf babd 667e aebc bdd0 2cbe cc44 a4bd
00000080: a161 123e 0228 c8bc 940a 43bd e82f 653d
00000090: 0a00 b8bd 2e1b 8d3d 2133 e0bd a4fe d83d
000000a0: 8b7e 6a3b 732c b4bc d558 653e 447f ffbd
000000b0: 2c8a 783d 142d 1ebe 77c1 143e 8051 c53d
000000c0: 5afe f63c b1d4 2abd 6cb0 963d 6243 493d
000000d0: 699f ffbd e7bd 1f3d 11fe b53c 0fa1 7d3d
000000e0: d795 273e fbe2 133e cbf6 9f3c 2bbc 5e3c
000000f0: 7065 efbd fcc7 bd3d 0f34 1b3d 4ef3 99bb
00000100: fa2f 02be ce5c 07be 8f72 99bd 39e3 00be
00000110: d464 37be 4177 b03b 0b58 1d3c 3fc4 2dbd
00000120: 1392 b33d 0860 89bd 07fe a33c 67d6 923d
00000130: 7864 7abc 68e5 d33d 46bb 743b a5e4 1d3e
00000140: e748 4cbc 36e4 193e 9872 a43c a216 503e
00000150: 46dc 3cbd 9779 a8bd 19da 18bd d861 5f3e
00000160: 4c17 24be 5d5d ba3d ec46 13bd b7a4 12be
00000170: b523 35be 3cf8 163e ecff 453d f419 3ebd
00000180: a1e9 223d 224c 9cbd b3a3 34be 1bf7 94bc
00000190: 4c48 e33d 0bc4 55be 71b8 d0bc f97e a33c
000001a0: 6837 12be 4e26 b53b 1f30 16bd 836a 5cbc
000001b0: 5da3 383e ead8 a6bd 09af 59bd be25 06bd
000001c0: e7fb 84bb 92fa 563b 85c0 303d 4c66 27bd
000001d0: b236 2abe e8df 70bd f94d ddbd 8d4c ad3d
000001e0: c3aa 883e 6526 abbc 7725 5f3c 56bb 9b3d
000001f0: 5d37 93be f727 dabd 224c d5bd bdef 44be
00000200: d6a2 dd3d cf68 cb3c b135 8f3e 8709 2abd
00000210: a059 08be a2c5 89bd 7e0a 7cbe e36e 93bd
00000220: d83a 05be 546b 8f3d a192 b3bd c910 da3c
00000230: 2e06 d2b8 ca8c 5cbd 4a64 00be ffd5 063e
00000240: 1383 d93d 7a75 18be ca2e b23b d07d 063e
00000250: f45f 49bd b4b3 dcbd 723e e7bd b001 aebd
00000260: 2fd5 57bd bb22 bfbe 19e5 9a3d 220f cebd
00000270: d982 923c a14f a63a 447b c5be 3c94 803c
00000280: 7b62 27be ae57 35bd fb0c 11bd e877 bbbd
00000290: cf01 163e d570 90bd fd30 6d3d 8508 f73d
000002a0: 97d0 be3c 16cb d23a e991 453e 3b4a cabd
000002b0: 7231 113d 4cea 843d 2570 1fbd 3735 353d
000002c0: 5257 c03d d226 4ebe cd81 93bc e9c3 31be
000002d0: 578c 943d e841 5e3e 6ae5 97bd 9760 06be
000002e0: 81af 90bd 227c 16bd d1da 9e3c 09a0 ef3d
000002f0: 35d3 393d d743 09be c75d 85bd 77e3 e4bb
00000300: dc77 3a3e 690c b8be fa5b 24be 8c7a 3d3c
00000310: c474 35be 95b3 0e3e e1ec 9fbd 0de3 90bd
00000320: 5901 9bbd da40 d3bd abb1 2c3e c523 e53d
00000330: 5131 6ebe fcaf c5bd 34b3 24be e888 80bd
00000340: c5e4 2d3e 24f4 0cbe 5b29 e63d 0e98 733d
00000350: 0403 1ebe 48ce a7bd b523 07be 567d 45bd
00000360: b194 20be 5e44 f6bb 384a adbd c3ae fcbd
00000370: 97e7 e9bd 09fd 04be 1671 96bd 1834 e4bc
00000380: 653c 6e3d 9e4a 163e c471 513e af36 afbe
00000390: eb5f 0cbd 9f03 22be c628 e83d d38b 0cbd
000003a0: d54c 9dbc 6c86 47bd 71c6 f03b 0d90 903d
000003b0: d62b 14bd 5cd3 e63d 8a44 c5bd ff79 023c
000003c0: a773 a4bd 3999 a43d 7c6d d0bd 32e8 4d3e
000003d0: 3eee 483c 5286 28be 4eed de3d e550 e13d
000003e0: f944 8dbd 61e3 c43d 618e 9b3d 3de9 e4be
000003f0: a801 91bd dc83 173e 7c62 cf3d 7b37 fdbd
0.031466734 -0.20872815 -0.06567216 -0.008635859 0.012168017 -0.10366859 -0.011001882 -0.20453426
0.26204896 -0.09892534 -0.20831414 0.16893241 -0.062264305 -0.10827487 0.06983637 -0.07038793
0.10810028 -0.09122418 0.1078441 0.21786264 -0.0649924 -0.17648362 -0.32033834 0.22913633
0.116492555 -0.17786191 0.06331467 0.025807817 -0.09118624 -0.021300506 -0.16876502 -0.080209345
0.14295055 -0.02443314 -0.04761751 0.05595389 -0.089843825 0.0688995 -0.10947252 0.10595444
0.0035780992 -0.021993851 0.22397168 -0.12475446 0.060678646 -0.15446883 0.14526926 0.096346855
0.030150581 -0.041706745 0.073578686 0.049136527 -0.12481577 0.038999464 0.022215875 0.061921176
0.16365753 0.14442055 0.01952686 0.013594667 -0.116892695 0.092666596 0.037891444 -0.0046981936
-0.12713614 -0.13218996 -0.074925534 -0.12586679 -0.17909557 0.00538531 0.009603511 -0.042423483
0.08768096 -0.0670777 0.02001859 0.071698 -0.015282743 0.1034649 0.003734307 0.15419252
-0.012468553 0.15028462 0.020074174 0.20321134 -0.046108507 -0.082263164 -0.03731737 0.21814668
-0.16024512 0.09099839 -0.03595631 -0.14320646 -0.17689402 0.14743131 0.04833977 -0.04641147
0.039773587 -0.07631709 -0.17640571 -0.018184235 0.11097774 -0.20875566 -0.025478574 0.019958006
-0.14278948 0.005528248 -0.036666986 -0.013453129 0.18031068 -0.08146842 -0.053145442 -0.032750838
-0.0040583494 0.003280316 0.04315235 -0.040869042 -0.16622427 -0.058807284 -0.10805888 0.084618665
0.2669278 -0.020892331 0.013619772 0.07604091 -0.28753176 -0.10652154 -0.10414912 -0.19232078
0.10822074 0.02483025 0.2797065 -0.041512992 -0.13315439 -0.067271486 -0.24613377 -0.07198884
-0.13010728 0.07002893 -0.087682016 0.026619332 -0.000100147314 -0.053845204 -0.12538257 0.1316757
0.106207035 -0.14888564 0.0054377066 0.13133931 -0.049163774 -0.10776463 -0.112912074 -0.084964156
-0.052693542 -0.37331185 0.07563228 -0.1006148 0.017884659 0.0012688526 -0.38570607 0.015695684
-0.16346161 -0.04427307 -0.03541277 -0.0915373 0.14649127 -0.07052771 0.057908047 0.12062172
0.023292823 0.0016082253 0.19293942 -0.098774396 0.035447545 0.06490001 -0.03892531 0.044240203
0.09391655 -0.20131996 -0.01800623 -0.1735989 0.0725333 0.21704829 -0.07416804 -0.13122784
-0.07064725 -0.036739476 0.01939145 0.11700446 0.04536744 -0.13404785 -0.06512027 -0.0069851237
0.18209785 -0.35946968 -0.16050711 0.011564862 -0.17720324 0.13935693 -0.07808853 -0.070745565
-0.075686164 -0.10315104 0.1686465 0.11188463 -0.23261 -0.09652707 -0.16083986 -0.06276113
0.169818 -0.13765007 0.11238357 0.059471183 -0.15430838 -0.08193642 -0.13197215 -0.048215233
-0.15681721 -0.007515474 -0.08461422 -0.12338021 -0.114211254 -0.1298715 -0.07345788 -0.027856871
0.058163065 0.14676902 0.20453554 -0.34221408 -0.034271162 -0.15821694 0.11335902 -0.034313034
-0.019201675 -0.04871218 0.007347875 0.070587255 -0.036174618 0.11270782 -0.096322134 0.007963656
-0.080298714 0.080370374 -0.101771325 0.20108107 0.012263833 -0.16457489 0.10885106 0.110017575
-0.06897921 0.096136816 0.07595516 -0.44709197 -0.07080394 0.14796394 0.10126206 -0.12364098
