PPO_preTrained/3/PPO_3_0_600.pth (torch, 239631 bytes, 15 tensors)

actor.0.weight f4 [128, 30]
-0.116669916 -0.15051419 -0.064180784 -0.11250427 -0.07084481 -0.28693396 -0.040531345 -0.07173249
0.061749488 -0.11333725 -0.27731737 0.09566422 0.02538618 -0.056832936 -0.049789965 0.30171323
0.28549945 -0.2569867 0.22080171 0.07804183 -0.27720943 -0.18662508 0.066681325 0.17630915
0.05003495 0.10923641 -0.2684176 0.07837848 -0.47346184 0.11519478 0.2325753 -0.011510545
0.089359194 0.2284386 0.28341252 -0.23301327 -0.2611105 -0.10484554 0.17430098 -0.10272347
-0.107349455 -0.03235753 -0.17885514 -0.0022353125 -0.09743354 0.35233188 -0.12644763 0.14491485
0.22800823 -0.24102974 -0.09476894 -0.14794771 0.10378578 -0.027640719 0.07137152 0.35149917
0.11369664 0.08396027 0.15676548 -0.24078561 0.10681246 0.14469793 -0.018201454 0.17444369
0.24602976 0.062283784 -0.1406945 0.117730476 0.15187092 0.05847371 -0.06344381 -0.07949341
-0.18188089 -0.06882006 -0.08113504 0.3291604 -0.012758082 0.22354542 0.10525107 0.5952488
-0.028342031 0.050387945 -0.17050529 0.06325842 0.13558546 0.7490417 0.85262674 0.17617805
0.009485815 0.5421488 -0.32095605 -0.070643835 0.16013828 -0.20855415 0.10665958 -0.35328904
-0.13332535 0.06903279 -0.0131299 -0.0013831048 0.059694406 0.09496177 -0.01962411 -0.049630754
-0.044741325 0.3158217 0.18482709 -0.0075202677 0.095509164 -0.28642052 0.13393706 -0.18455118
-0.064354375 -0.050341573 0.10215841 0.34875855 -0.12653302 -0.4855938 -0.5916584 0.18237229
-0.233044 -0.0036981984 -0.004653734 -0.098769 -0.3284306 0.3701755 0.08003525 -0.014738924
-0.0685408 0.043229382 -0.07342585 -0.095015936 -0.13830349 0.15579768 -0.124163315 -0.20264384
-0.101143464 0.1799895 0.30917194 0.6374365 0.1574516 -0.17244318 0.14300409 0.033914
0.032091554 0.08108799 0.30226722 0.5672452 -0.10804015 0.0045760223 -0.14847982 0.2679932
0.13069022 0.12794293 0.26758006 -0.40825036 -0.17372276 -0.1607956 -0.11480684 -0.03619516
-0.08885571 -0.08392 0.111944385 -0.111842826 0.022246424 0.19001767 0.3654643 0.2838533
0.057463296 0.19866939 -0.08512129 0.0012902151 -0.13627101 0.004830498 0.08811966 -0.020697061
0.13534555 0.24693044 -0.32348064 0.30455813 0.22279389 0.28660202 -0.11631767 -0.120153114
0.008641978 0.30328962 0.17339163 -0.2080927 0.07429197 -0.06928508 -0.092287265 -0.012593896
0.16794956 0.015236919 -0.121336 -0.3133717 0.232707 0.18643387 -0.30681112 0.13080454
0.11605293 -0.06431303 -0.0962716 0.18651123 0.04833009 0.28852114 -0.12602001 0.13639723
-0.09635096 0.16704369 0.5028862 0.37211043 0.4983311 0.8072077 0.33687007 -0.10064741
-0.14593045 -0.0535052 0.011469365 0.1900165 0.21620011 0.09079119 0.11243036 -0.03917045
0.10334274 0.13189618 -0.12193204 0.17091198 0.096513264 0.6215636 0.14296281 0.030532561
-0.059274666 0.01246344 -0.068425804 0.5288128 0.51759326 0.20646204 0.36197072 0.07547125
0.1422221 0.117505185 0.042084347 0.14296563 0.17601253 0.75209457 0.2907813 0.112385005
0.05203091 0.097181946 0.40547165 0.16933486 -0.065512486 0.19649449 0.2663104 -0.31061852
00000000: a3f0 eebd 6420 1abe 3771 83bd a468 e6bd
00000010: 1517 91bd 02e9 92be 3204 26bd 7ce8 92bd
00000020: 08ed 7c3d 5c1d e8bd 8bfc 8dbe 9aeb c33d
00000030: aef6 cf3c a7c9 68bd 90f0 4bbd 287a 9a3e
00000040: fc2c 923e c393 83be d819 623e 65d4 9f3d
00000050: 65ee 8dbe a51a 3fbe 3890 883d 638a 343e
00000060: 73f1 4c3d 57b7 df3d 086e 89be e684 a03d
00000070: 9769 f2be 3eeb eb3d 3828 6e3e ba96 3cbc
00000080: f401 b73d cfeb 693e 721b 913e 089b 6ebe
00000090: 47b0 85be 42b9 d6bd f57b 323e af60 d2bd
000000a0: 08da dbbd 5489 04bd cd25 37be 527e 12bb
000000b0: 3c8b c7bd d864 b43e 7d7b 01be 8f64 143e
000000c0: fd7a 693e 80d0 76be 3816 c2bd 9b7f 17be
000000d0: a48d d43d ca6e e2bc 3b2b 923d b3f7 b33e
000000e0: c9d9 e83d 5df3 ab3d 2187 203e 8190 76be
000000f0: 7ec0 da3d b22b 143e 371b 95bc 5ea1 323e
00000100: 3aef 7b3e 481d 7f3d 3812 10be ad1c f13d
00000110: 0d84 1b3e 2182 6f3d d4ee 81bd 71cd a2bd
00000120: fc3e 3abe 88f1 8cbd 212a a6bd b687 a83e
00000130: 4607 51bc 17e9 643e df8d d73d 3a62 183f
00000140: 8c2d e8bc 9763 4e3d f098 2ebe a18d 813d
00000150: ead6 0a3e 32c1 3f3f bf45 5a3f 0568 343e
00000160: 646a 1b3c 44ca 0a3f 5a54 a4be b7ad 90bd
00000170: 4afb 233e 388f 55be 5670 da3d 4de2 b4be
00000180: 7186 08be 1061 8d3d cb1e 57bc 4c49 b5ba
00000190: 1f82 743d 517b c23d bec2 a0bc 9e49 4bbd
000001a0: ae42 37bd 62b3 a13e 5043 3d3e 946c f6bb
000001b0: 4f9a c33d b6a5 92be cc26 093e fcfa 3cbe
000001c0: 3acc 83bd f732 4ebd 6e38 d13d 7b90 b23e
000001d0: df91 01be c09f f8be ed76 17bf cdbf 3a3e
000001e0: 16a3 6ebe 795d 72bb 5a7e 98bb 6747 cabd
000001f0: 0e28 a8be a587 bd3e 85e9 a33d 877b 71bc
00000200: 1e5f 8cbd 4b11 313d 4b60 96bd b797 c2bd
00000210: 6e9f 0dbe 6d89 1f3e 5649 febd de81 4fbe
00000220: 4e24 cfbd 2b4f 383e c94b 9e3e 0a2f 233f
00000230: fe3a 213e f294 30be aa6f 123e 68e9 0a3d
00000240: 6f72 033d 7611 a63d c5c2 9a3e fb36 113f
00000250: 2744 ddbd 75f2 953b 180b 18be 6836 893e
00000260: a8d3 053e 7903 033e 4100 893e 3106 d1be
00000270: 61e4 31be 9aa7 24be d91f ebbd 6041 14bd
00000280: fcf9 b5bd 40de abbd 1943 e53d da0d e5bd
00000290: 223e b63c fe93 423e 231e bb3e 3855 913e
000002a0: a25e 6b3d fd6f 4b3e 1254 aebd 6f1c a93a
000002b0: a18a 0bbe 2749 9e3b 1578 b43d e28c a9bc
000002c0: 0698 0a3e 55db 7c3e 419f a5be 0bef 9b3e
000002d0: 1524 643e 80bd 923e f537 eebd d612 f6bd
000002e0: 1597 0d3c c748 9b3e 938d 313e 4116 55be
000002f0: 6326 983d 56e5 8dbd 1b01 bdbd a156 4ebc
00000300: f8fa 2b3e 45a4 793c 027f f8bd 4172 a0be
00000310: be4a 6e3e 85e8 3e3e 5916 9dbe a0f1 053e
00000320: 29ad ed3d 8db6 83bd 0b2a c5bd cdfc 3e3e
00000330: c6f5 453d 0bb9 933e 640b 01be b7ab 0b3e
00000340: a753 c5bd 800d 2b3e 26bd 003f 4285 be3e
00000350: 4125 ff3e 2aa5 4e3f 3c7a ac3e 3b20 cebd
00000360: cb6e 15be 4528 5bbd 01ea 3b3c af93 423e
00000370: 9063 5d3e bbf0 b93d e341 e63d 3271 20bd
00000380: 5ca5 d33d cb0f 073e 81b7 f9bd 8d03 2f3e
00000390: bfa8 c53d cb1e 1f3f d864 123e 6c1f fa3c
000003a0: fec9 72bd 7533 4c3c d422 8cbd 4760 073f
000003b0: fe80 043f c96a 533e 3a54 b93e ac90 9a3d
000003c0: aca2 113e 8fa6 f03d a360 2c3d 9565 123e
000003d0: a13c 343e 4589 403f 49e1 943e 1c2a e63d
000003e0: 5d1e 553d 5407 c73d fb99 cf3e 1e66 2d3e
000003f0: 692b 86bd da35 493e d659 883e 6409 9fbe

actor.0.bias f4 [128]
0.052009895 -0.09898711 -0.12011374 0.13062063 -0.1411465 -0.0033673595 -0.11405481 0.1343155
0.27626538 0.053237103 0.3716434 -0.030189628 -0.08578539 -0.00076251396 -0.086398005 -0.01996883
0.093529 -0.06459034 -0.0453528 0.05952128 0.02403709 0.03818711 -0.07607713 0.080946825
0.14391579 -0.038149245 -0.028138677 0.14453149 0.14543362 0.074322686 -0.10228454 0.15668552
0.21497181 0.081956446 0.06764914 0.08695226 0.00023419487 0.09481698 -0.06712524 -0.016150948
-0.025612848 -0.14489014 -0.002887401 0.09819517 0.033844598 0.11809258 0.06492768 0.045957528
-0.0032804692 0.06505167 -0.13442677 0.076090656 0.10208343 0.055064898 0.16604002 -0.1520118
0.119020455 0.034804128 0.288728 0.12774009 0.45551914 0.1974061 0.00839628 -0.10504671
0.017555578 -0.09250648 -0.13441521 0.13402174 -0.13624227 -0.0074159475 0.04406699 -0.15118302
0.18084061 -0.015433021 -0.2017534 0.1440381 -0.12732163 -0.091278516 -0.051585343 0.03508404
0.13629301 0.18836941 0.16006032 -0.11775192 0.08453538 0.15151724 -0.011595187 -0.17893538
0.116057955 0.2564678 -0.019240355 0.11738317 0.14145368 0.20251551 0.10016983 -0.004158428
-0.085681066 -0.018809479 0.19874184 -0.10435773 -0.07058527 -0.0698185 0.08530802 -0.13355699
-0.11815834 0.055630255 0.22658026 -0.11066011 -0.14966404 -0.06086567 -0.16614732 0.09260412
0.14469126 0.15695186 0.2999384 -0.14232014 -0.042292673 0.10234512 -0.067618 -0.03204788
0.153173 0.12731098 0.10726186 0.16587272 0.16178256 0.15068299 0.23001921 0.11664189
00000000: 5408 553d c1b9 cabd 31fe f5bd 6ac1 053e
00000010: b588 10be ebae 5cbb 9195 e9bd 018a 093e
00000020: a872 8d3e 260f 5a3d 0b48 be3e 3d50 f7bc
00000030: 40b0 afbd 72e3 47ba 70f1 b0bd ac95 a3bc
00000040: 228c bf3d f147 84bd dcc3 39bd 96cc 733d
00000050: 6ee9 c43c 166a 1c3d 54ce 9bbd 73c7 a53d
00000060: a95e 133e 6242 1cbd 1583 e6bc 1000 143e
00000070: 8dec 143e 7e36 983d 8f7a d1bd 2b72 203e
00000080: 9221 5c3e c8d8 a73d a28b 8a3d 0714 b23d
00000090: 3592 7539 682f c23d f578 89bd fe4e 84bc
000000a0: 09d2 d1bc 155e 14be 8d3a 3dbb 8d1a c93d
000000b0: a2a0 0a3d 86da f13d cef8 843d f63d 3c3d
000000c0: 24fd 56bb cf39 853d 2ca7 09be 6bd5 9b3d
000000d0: 1e11 d13d bb8b 613d 6506 2a3e fba8 1bbe
000000e0: ffc0 f33d c68e 0e3d 28d4 933e 4cce 023e
000000f0: ce39 e93e d324 4a3e 8d90 093c bb22 d7bd
00000100: b7d0 8f3c 0a74 bdbd 24a4 09be ff3c 093e
00000110: 1883 0bbe 7a01 f3bb 977f 343d b9cf 1abe
00000120: 482e 393e c8da 7cbc 7198 4ebe b97e 133e
00000130: 9a60 02be 3bf0 babd 274b 53bd 48b4 0f3d
00000140: 6590 0b3e e9e3 403e dae6 233e eb27 f1bd
00000150: e320 ad3d 5627 1b3e bdf9 3dbc d63a 37be
00000160: cbaf ed3d bf4f 833e f39d 9dbc 9666 f03d
00000170: 3cd9 103e 3a60 4f3e d725 cd3d 6c43 88bb
00000180: 8e79 afbd 5616 9abc fb82 4b3e 81b9 d5bd
00000190: 038f 90bd 00fd 8ebd f9b5 ae3d 2ac3 08be
000001a0: 00fd f1bd 8ddc 633d a804 683e c5a1 e2bd
000001b0: 8841 19be 484e 79bd 8622 2abe 3ba7 bd3d
000001c0: f229 143e fdb7 203e 8791 993e 5fbc 11be
000001d0: 153b 2dbd 519a d13d 4e7b 8abd a344 03bd
000001e0: 62d9 1c3e cf5d 023e 1bac db3d 8ada 293e
000001f0: 54aa 253e a44c 1a3e 288a 6b3e f1e1 ee3d

actor.2.weight f4 [128, 128]
-0.05851587 0.093064934 -0.036529988 -0.116681695 0.1603981 0.12701936 0.21815288 0.1294139
0.009729858 -0.015000782 0.5310187 -0.039622765 0.066396415 0.015174782 -0.12144125 0.19557914
0.29517862 0.049441 0.009709409 0.04011277 0.046415195 -0.023000395 -0.08317572 -0.16264418
-0.03297222 0.02836891 -0.012996024 -0.05052229 -0.038686305 0.01603813 -0.20141116 0.041678034
-0.053340115 0.08439091 -0.01787848 -0.2546258 -0.036604922 -0.022468766 -0.0014084554 0.15078367
-0.13623285 -0.17185247 -0.044173647 -0.40250233 -0.11379252 -0.0982619 0.10758265 0.0044433125
-0.14081304 0.0670289 -0.1655855 0.16859259 -0.05554165 -0.03765276 -0.01968808 -0.067948245
0.11143739 -0.008599519 -0.05245445 -0.1570338 0.19825281 -0.1426215 -0.09527162 -0.116667874
0.23013604 -0.12815067 0.011993926 0.066128366 0.10496039 -0.044739306 -0.10038908 0.021777103
0.15257204 0.015307707 -0.013846758 -0.17542462 -0.14222997 -0.10760021 -0.045548845 -0.08015669
-0.072933674 0.19757006 0.026312066 -0.31972668 -0.10877843 0.018298488 -0.04463928 -0.010379723
-0.017942218 -0.10772421 -0.06704868 -0.04525525 0.0014754991 0.013039687 -0.04670473 -0.19377656
-0.042302847 0.13021562 -0.11679361 0.084549546 0.09843756 -0.07944658 -0.2528686 0.10482448
-0.15440865 0.24588569 0.27700055 0.20615429 -0.10891238 -0.16367091 0.1599587 -0.104644634
0.017076772 -0.23055828 0.11628051 0.054004684 -0.011800782 0.05416535 0.071529314 0.09592935
0.1938005 0.17340446 0.14344318 -0.05250614 0.15613241 0.019325359 -0.29925758 0.016879091
-0.075169526 -0.07320328 0.155524 -0.021903945 0.07869201 0.010103157 0.10012313 -0.014078753
0.060903274 -0.075792365 -0.13290483 0.005699955 -0.032457534 -0.08512221 -0.0010187251 0.032074593
-0.03285177 0.05294486 0.0019339845 0.24127671 -0.022392679 -0.11061793 -0.13004379 -0.1161978
0.04732271 0.11347513 0.04113684 -0.13003793 -0.06192016 -0.009332805 0.06982338 0.27552712
0.047091804 0.065422155 0.048654325 0.014471134 0.018640174 0.059318934 -0.022807404 0.039859325
0.050691042 -0.02938443 0.05204369 0.035298336 0.040835775 0.06496865 -0.12012813 0.5886514
0.061036523 0.0015251416 0.017086925 0.21267632 0.2313994 -0.007836383 0.023804488 0.053465623
-0.071892835 0.07449886 0.09371044 0.07111711 -0.27347118 -0.12266129 0.020493519 -0.05191022
0.01942371 -0.04774749 -0.33858988 0.06714507 -0.3216809 -0.005637217 0.106761284 0.012899387
0.09763334 0.025014812 0.015492081 -0.009032165 0.1524951 0.033493426 0.002499185 0.017375868
-0.102106504 0.23418088 -0.040548842 0.3235976 0.29715255 0.049315196 -0.14169972 -0.055213932
-0.0074005104 0.04056207 0.070338264 0.08231367 -0.11111241 -0.087647855 0.042416077 -0.031170854
0.07198261 -0.05949133 0.012561521 0.0023510675 0.018694665 0.051671788 0.14551336 -0.055618722
-0.054522898 -0.015530158 -0.1550393 -0.0022715933 -0.1186064 -0.00881064 -0.23123614 -0.030367838
0.035724487 -0.16029066 -0.22418247 -0.036818173 -0.06010242 -0.12328895 -0.06578617 -0.14355636
-0.10273755 -0.06750316 -0.13347726 0.017830096 -0.0043893177 -0.027206209 0.03719433 0.10430176
00000000: 56ae 6fbd d498 be3d 78a0 15bd d0f6 eebd
00000010: 663f 243e 5d11 023e 7863 5f3e 1485 043e
00000020: fb69 1f3c d7c5 75bc d7f0 073f 7b4b 22bd
00000030: d8fa 873d a69f 783c 31b6 f8bd e645 483e
00000040: a721 973e a582 4a3d 3714 1f3c 4a4d 243d
00000050: dc1d 3e3d 536b bcbc 0858 aabd 328c 26be
00000060: e10d 07bd eb65 e83c 47ed 54bc 76f0 4ebd
00000070: 8875 1ebd 6562 833c ba3e 4ebe 96b6 2a3d
00000080: 2a7b 5abd 24d5 ac3d e475 92bc 505e 82be
00000090: 0bef 15bd 6b10 b8bc ec9b b8ba 0967 1a3e
000000a0: a080 0bbe 18fa 2fbe 6def 34bd c914 cebe
000000b0: 0d0c e9bd 893d c9bd 4b54 dc3d 3599 913b
000000c0: 4b31 10be 7346 893d 3f8f 29be 89a3 2c3e
000000d0: a47f 63bd c839 1abd e548 a1bc 7328 8bbd
000000e0: 4939 e43d ffe4 0cbc 7ada 56bd 78cd 20be
000000f0: c902 4b3e 5f0b 12be c41d c3bd 91ef eebd
00000100: c8a8 6b3e ee39 03be 2c82 443c 4f6e 873d
00000110: 79f5 d63d 9040 37bd ca98 cdbd e565 b23c
00000120: d83b 1c3e 2dcd 7a3c 83dd 62bc 83a2 33be
00000130: bca4 11be 805d dcbd 6d91 3abd 3129 a4bd
00000140: 405e 95bd ce4f 4a3e 678c d73c 37b3 a3be
00000150: 3ac7 debd b6e6 953c add7 36bd b70f 2abc
00000160: 8ffb 92bc 839e dcbd d150 89bd 925d 39bd
00000170: 8965 c13a 69a4 553c 754d 3fbd 5d6d 46be
00000180: c045 2dbd 3e57 053e 7d31 efbd 5028 ad3d
00000190: a299 c93d e3b4 a2bd fe77 81be 38ae d63d
000001a0: 4d1d 1ebe 75c9 7b3e 04d3 8d3e 1c1a 533e
000001b0: 740d dfbd 5999 27be 37cc 233e ed4f d6bd
000001c0: 96e4 8b3c 7817 6cbe 7a24 ee3d 0434 5d3d
000001d0: 1158 41bc 7cdc 5d3d f67d 923d 9b76 c43d
000001e0: a373 463e f090 313e c5e2 123e ae10 57bd
000001f0: 2de1 1f3e 3750 9e3c 4a38 99be 0546 8a3c
00000200: 7bf2 99bd 9aeb 95bd af41 1f3e e76f b3bc
00000210: 4729 a13d b687 253c 5b0d cd3d 92aa 66bc
00000220: b675 793d 0739 9bbd 3418 08be b0c6 ba3b
00000230: 31f2 04bd 8e54 aebd be86 85ba a660 033d
00000240: 948f 06bd b6dc 583d c07d fd3a 3e11 773e
00000250: da70 b7bc a78b e2bd 332a 05be 1df9 edbd
00000260: 75d5 413d a665 e83d 1a7f 283d aa28 05be
00000270: fe9f 7dbd 9fe8 18bc 8fff 8e3d e411 8d3e
00000280: 56e3 403d 0dfc 853d c249 473d 5618 6d3c
00000290: 47b3 983c 69f8 723d 98d6 babc 8843 233d
000002a0: 69a1 4f3d 9eb7 f0bc c42b 553d fd94 103d
000002b0: 6a43 273d 490e 853d bd05 f6bd dcb1 163f
000002c0: 6f01 7a3d 43e7 c73a e1f9 8b3c d2c7 593e
000002d0: f7f3 6c3e 2c64 00bc a101 c33c c5fe 5a3d
000002e0: 8d3c 93bd dc92 983d 42eb bf3d d9a5 913d
000002f0: 6a04 8cbe d835 fbbd 06e2 a73c d09f 54bd
00000300: 791e 9f3c df92 43bd a75b adbe 5b83 893d
00000310: 5cb3 a4be 67b8 b8bb a9a5 da3d f357 533c
00000320: fdf3 c73d ddeb cc3c 7fd2 7d3c a5fb 13bc
00000330: ad27 1c3e 6730 093d 5ec9 233b d657 8e3c
00000340: 371d d1bd 1dcd 6f3e 8b16 26bd 96ae a53e
00000350: 6124 983e bbfe 493d bb19 11be 0128 62bd
00000360: fb7f f2bb 6a24 263d 820d 903d 1294 a83d
00000370: e78e e3bd b880 b3bd 7bbc 2d3d 055a ffbc
00000380: 9e6b 933d 2ead 73bd d6ce 4d3c 5e14 1a3b
00000390: 8e25 993c cca5 533d 7401 153e 75d0 63bd
000003a0: 6753 5fbd 3472 7ebc 9fc2 1ebe 03df 14bb
000003b0: eae7 f2bd 815a 10bc 2bc9 6cbe f9c5 f8bc
000003c0: d753 123d 3c23 24be 1790 65be a7ce 16bd
000003d0: f52d 76bd eb7e fcbd e6ba 86bd 7000 13be
000003e0: 1168 d2bd 193f 8abd 43ae 08be 6c10 923c
000003f0: 44d4 8fbb 8edf debc 1559 183d 299c d53d

actor.2.bias f4 [128]
-0.03949929 -0.027754625 0.115215115 0.02803161 0.041385606 0.053614978 0.097707115 -0.05956439
0.04333119 0.1099226 -0.02857847 -0.0075063403 -0.06363318 0.033547368 -0.084448546 -0.08332575
0.07805249 0.05306493 0.13237317 0.17715049 -0.032299206 0.06736385 0.1246635 0.11090179
0.014848451 -0.081153184 -0.037138596 0.021945912 0.08203607 0.013297806 0.0012338932 0.03012993
0.023452193 -0.010007006 -0.08023346 -0.0066297962 -0.04848845 0.068030514 -0.0651078 0.0096572125
-0.008114456 -0.005963339 -0.03635642 -0.026408702 -0.08804587 0.120729856 0.027102739 0.027526004
0.113179035 0.0029306603 0.089228526 -0.1304097 -0.09239057 -0.008564856 0.09546416 -0.12710215
-0.036328267 0.048866693 0.049072362 0.12894222 0.1865906 -0.11356744 0.08894343 -0.1021869
0.06463946 0.040539317 0.08157691 -0.0047442615 -0.045696862 -0.10627011 -0.08874343 -0.0479375
-0.030845694 0.056067884 -0.17386445 0.04693967 -0.049359925 0.0033171624 0.04242451 -0.050762154
0.14778645 0.07423289 0.16804588 -0.0007834027 0.091304265 -0.07580264 -0.08084416 -0.060717124
-0.07148669 -0.031505108 0.031214481 0.010816347 -0.08543825 0.10549611 0.05698294 -0.07825727
0.009251702 0.04905919 -0.0031115497 0.08236274 -0.055295236 0.02696606 -0.037349604 0.060295187
0.019185951 0.06976828 0.032888096 0.06438108 0.058749255 -0.093222 -0.013786908 0.01788979
-0.168077 -0.01742118 -0.017535195 0.044283602 0.04155545 -0.08243382 0.082996994 -0.08196486
-0.18523602 -0.05992383 -0.034953613 0.08419287 0.033690494 0.074195646 -0.0019159472 -0.075914875
00000000: 02ca 21bd ab5d e3bc e7f5 eb3d 8ca2 e53c
00000010: f483 293d 619b 5b3d ab1a c83d caf9 73bd
00000020: 0c7c 313d 1a1f e13d 651d eabc bff7 f5bb
00000030: 1d52 82bd f768 093d 5cf3 acbd b1a6 aabd
00000040: fcd9 9f3d 9d5a 593d d58c 073e f066 353e
00000050: 2c4c 04bd 0ff6 893d 944f ff3d 7a20 e33d
00000060: eb46 733c a433 a6bd a41e 18bd eac7 b33c
00000070: 8702 a83d 0adf 593c 96ba a13a 0bd3 f63c
00000080: d01e c03c 6df4 23bc 7151 a4bd c33e d9bb
00000090: d39b 46bd 9553 8b3d 3d57 85bd 4939 1e3c
000000a0: 7ff2 04bc 1d68 c3bb 78ea 14bd 1057 d8bc
000000b0: 6551 b4bd 3741 f73d 9006 de3c 377e e13c
000000c0: 69ca e73d 5210 403b 72bd b63d 1f8a 05be
000000d0: 4437 bdbd 9c53 0cbc b782 c33d 1127 02be
000000e0: f3cc 14bd 7128 483d 1a00 493d 6e09 043e
000000f0: 9b11 3f3e 0c96 e8bd f927 b63d 5e47 d1bd
00000100: b161 843d 8e0c 263d cc11 a73d c075 9bbb
00000110: a22c 3bbd 25a4 d9bd 1ebf b5bd 1d5a 44bd
00000120: 1cb0 fcbc 70a7 653d 8609 32be d043 403d
00000130: a22d 4abd c064 593b 53c5 2d3d faeb 4fbd
00000140: 5555 173e 6a07 983d 3814 2c3e 445d 4dba
00000150: bbfd ba3d 6a3e 9bbd 9f91 a5bd 85b2 78bd
00000160: 9d67 92bd 800b 01bd 83b5 ff3c 0c37 313c
00000170: 40fa aebd 580e d83d f166 693d 5945 a0bd
00000180: 7394 173c 4af2 483d 24eb 4bbb ccad a83d
00000190: 427d 62bd ede7 dc3c e6fb 18bd 16f8 763d
000001a0: db2b 9d3c ace2 8e3d abb5 063d 3ada 833d
000001b0: 0fa3 703d 2deb bebd 7ce2 61bc 9c8d 923c
000001c0: 611c 2cbe ddb6 8ebc f8a5 8fbc b962 353d
000001d0: 0c36 2a3d 10d3 a8bd 54fa a93d 31dd a7bd
000001e0: 83ae 3dbe b172 75bd 852b 0fbd 506d ac3d
000001f0: 0bff 093d e3f3 973d 8520 fbba 4279 9bbd

actor.4.weight f4 [64, 128]
-0.026034271 -0.058629088 -0.0381631 -0.38441914 -0.32291734 -0.045990862 -0.03346393 0.11570484
-0.055868372 0.18296322 -0.3249303 -0.15549986 0.13168345 0.09911019 0.15213864 0.059655663
0.07785799 -0.44789422 0.18612121 -0.17212011 0.2538163 0.53582937 0.3546481 0.1911004
-0.005319697 -0.2565644 -0.15403803 -0.10428575 -0.1671272 0.2128254 0.06384897 0.29382536
-0.00040943632 -0.12672181 0.07529411 -0.00032373925 -0.24936406 0.090682596 0.2594215 0.27476433
-0.005669511 -0.04213588 -0.27534634 -0.22341031 0.35097042 0.07967664 0.28131697 0.19868053
-0.30097806 -0.27878407 0.021047356 -0.16394529 -0.070358135 0.03824861 -0.030154003 -0.017236315
0.06217057 -0.269393 -0.22509733 -0.40967602 0.33923733 -0.102466986 -0.33156916 0.23150097
0.36464173 -0.2319408 0.1981049 -0.08647188 -0.09100751 0.18482828 0.15735807 -0.449141
0.029138029 0.032964166 -0.112157315 0.17699052 -0.27883038 0.17874779 -0.16127306 0.049114257
-0.012862828 0.31290236 -0.06680315 -0.33159167 -0.25496793 0.12937036 0.425273 -0.02823567
0.15351263 0.34494668 -0.01933514 -0.23637442 0.5132221 0.34560326 -0.013439169 0.07343447
-0.07399899 -0.0008580662 0.3225391 -0.0912851 -0.008733953 0.23380874 0.021434704 0.15737788
0.24581191 0.009678045 -0.16514255 -0.045667157 -0.04021573 0.031280883 0.23969746 -0.38508275
-0.023805823 0.35114145 -0.024618449 0.20795995 0.13341635 -0.28453228 -0.0028342903 0.27712843
0.14535238 -0.20259915 -0.180708 0.1628453 -0.30578998 -0.08714833 -0.13017294 0.13474634
0.16265516 -0.024187502 0.24382897 -0.3994112 0.24786259 0.05375066 0.039522205 0.2576082
0.0050066775 0.18714052 -0.10563613 -0.24987113 -0.24834213 0.012074529 -0.03172572 0.06897622
0.0011176259 -0.0965447 -0.074877776 0.116110295 0.10736693 0.25672907 0.15256038 0.23451425
0.28074762 -0.11842648 -0.47071636 -0.19129743 -0.33609927 -0.2967845 0.029094089 0.15187827
-0.08482782 -0.13726613 0.073422134 -0.0713424 -0.14616916 0.1891866 -0.032361187 0.03744891
0.051459003 -0.13692284 -0.15594444 -0.47298938 -0.17936917 0.082207955 0.29692698 -0.10746647
0.027703878 -0.107594386 -0.09419131 -0.22989383 -0.27222037 -0.05755248 -0.028176319 -0.0017930057
0.0357084 -0.18003514 -0.23485263 0.13260499 -0.13585998 -0.07935106 0.055823136 -0.30410057
0.22233477 0.083482824 0.15858164 0.08683127 -0.16069466 0.11906746 0.18676542 0.04410309
0.14301808 0.21735322 -0.12774517 0.20202309 -0.35453779 -0.34369114 0.06606939 0.1034772
-0.15815796 -0.05114003 -0.01908176 0.17521697 -0.06182065 -0.40974864 -0.019835379 -0.027168846
0.19734466 0.35437247 0.15134004 0.38608593 0.07744013 0.008423601 0.24227539 0.3338912
0.01767174 -0.25789025 0.09052227 0.034874424 -0.42896107 -0.036880437 0.24005073 0.010386288
0.030453965 -0.026672497 0.08497387 0.25469223 0.15309677 -0.05126138 -0.027403114 0.23668887
-0.17253307 0.050560195 0.454466 0.09640498 0.35597333 -0.31330243 0.0565938 0.25009835
-0.1542886 -0.085606866 0.060207196 -0.15892525 0.0973879 0.230181 0.09527353 -0.0059003793
00000000: d345 d5bc 0e25 70bd e950 1cbd 96d2 c4be
00000010: 6c55 a5be ea60 3cbd 7911 09bd a9f6 ec3d
00000020: 3cd6 64bd b65a 3b3e 445d a6be 5b3b 1fbe
00000030: 07d8 063e 49fa ca3d 3bca 1b3e 7f59 743d
00000040: 0374 9f3d 6452 e5be 8f96 3e3e 4140 30be
00000050: 36f4 813e 1d2c 093f 7094 b53e d3af 433e
00000060: da50 aebb 695c 83be 25bc 1dbe c493 d5bd
00000070: 6523 2bbe e7ee 593e 40c3 823d 4770 963e
00000080: 9da9 d6b9 5dc3 01be cc33 9a3d 8cbb a9b9
00000090: 4b59 7fbe ccb7 b93d e5d2 843e e9ad 8c3e
000000a0: 4ec7 b9bb ac96 2cbd 32fa 8cbe acc5 64be
000000b0: 65b2 b33e 822d a33d c708 903e e972 4b3e
000000c0: cc19 9abe c9bc 8ebe 816b ac3c 46e1 27be
000000d0: ed17 90bd 93aa 1c3d 8705 f7bc 2c33 8dbc
000000e0: 91a6 7e3d e1ed 89be ea7f 66be 0ec1 d1be
000000f0: 84b0 ad3e 36da d1bd 6fc3 a9be 970e 6d3e
00000100: 52b2 ba3e e481 6dbe 03dc 4a3e 2b18 b1bd
00000110: 2562 babd a043 3d3e 7922 213e cff5 e5be
00000120: e0b2 ee3c 6f05 073d bcb2 e5bd 013d 353e
00000130: dbc2 8ebe a909 373e c424 25be 082c 493d
00000140: 9cbe 52bc bd34 a03e 17d0 88bd 62c6 a9be
00000150: 288b 82be aa79 043e 62bd d93e 7e4e e7bc
00000160: 6a32 1d3e da9c b03e ba64 9ebc 230c 72be
00000170: 8662 033f e9f2 b03e f62f 5cbc d064 963d
00000180: c88c 97bd d9ef 60ba d823 a53e aff3 babd
00000190: db18 0fbc 8f6b 6f3e d597 af3c ab27 213e
000001a0: 1eb6 7b3e aa90 1e3c 211b 29be 7c0d 3bbd
000001b0: 40b9 24bd 6220 003d 4073 753e 9129 c5be
000001c0: 6e04 c3bc d0c8 b33e a1ac c9bc 74f3 543e
000001d0: 4c9e 083e 37ae 91be 80bf 39bb c7e3 8d3e
000001e0: 41d7 143e 2776 4fbe 850b 39be ebc0 263e
000001f0: 8190 9cbe d37a b2bd 0e4c 05be f2fa 093e
00000200: 138f 263e de24 c6bc 4dae 793e a07f ccbe
00000210: b1cf 7d3e a729 5c3d 09e2 213d 39e5 833e
00000220: 0e0f a43b c4a1 3f3e c157 d8bd 38de 7fbe
00000230: 664d 7ebe 3fd4 453c d4f2 01bd 6843 8d3d
00000240: 4d7d 923a 3ab9 c5bd 8559 99bd 3ccb ed3d
00000250: 31e3 db3d fe71 833e ca38 1c3e 8124 703e
00000260: 27be 8f3e 9589 f2bd bc01 f1be 79e3 43be
00000270: 3415 acbe 23f4 97be ba56 ee3c fa85 1b3e
00000280: 35ba adbd 7e8f 0cbe 585e 963d f71b 92bd
00000290: 5ead 15be 22ba 413e 2a8d 04bd 0764 193d
000002a0: adc6 523d 8035 0cbe e6af 1fbe aa2b f2be
000002b0: 8dac 37be a55c a83d d006 983e 6117 dcbd
000002c0: 3ef3 e23c 725a dcbd 60e7 c0bd 4a69 6bbe
000002d0: 7860 8bbe 26bc 6bbd 06d2 e6bc 4a03 ebba
000002e0: f942 123d 225b 38be 357d 70be 9ac9 073e
000002f0: e11e 0bbe cf82 a2bd cda6 643d 12b3 9bbe
00000300: baab 633e 0bf9 aa3d 3a63 223e 98d4 b13d
00000310: 248d 24be a4d9 f33d 6f3f 3f3e 71a5 343d
00000320: 5573 123e d891 5e3e a1cf 02be 24df 4e3e
00000330: fa85 b5be 49f8 afbe 634f 873d dbeb d33d
00000340: 29f4 21be 3578 51bd 5a51 9cbc 146c 333e
00000350: a637 7dbd 93ca d1be ce7d a2bc 3391 debc
00000360: b814 4a3e 4f70 b53e e2f8 1a3e 0ead c53e
00000370: ee98 9e3d 2503 0a3c 0a17 783e caf3 aa3e
00000380: 53c4 903c 310a 84be bd63 b93d 7cd8 0e3d
00000390: c9a0 dbbe f10f 17bd dccf 753e 402b 2a3c
000003a0: 987a f93c 4880 dabc c806 ae3d 0567 823e
000003b0: 66c5 1c3e 74f7 51bd 7f7c e0bc 915e 723e
000003c0: 82ac 30be 3518 4f3d c4af e83e f96f c53d
000003d0: 2342 b63e 2d69 a0be e7ce 673d e40c 803e
000003e0: d5fd 1dbe a752 afbd d29b 763d 4dbd 22be
000003f0: 4f73 c73d 91b4 6b3e c51e c33d f857 c1bb

actor.4.bias f4 [64]
0.09538264 0.112755895 -0.23918226 0.10489075 0.008940674 -0.024227241 0.0920276 0.099325664
0.031795416 0.1606544 0.11697834 0.017812727 -0.1383384 -0.009220812 -0.02203074 0.1288556
0.021357466 0.040347423 0.006322504 -0.043167517 0.0009932199 -0.07922284 0.049536586 0.05724212
0.08190024 -0.056995463 0.022708902 0.10049204 -0.09743385 0.069316015 -0.033464387 0.075007774
0.10825836 0.10091174 0.0025418832 0.1449949 0.08371717 -0.0051329127 0.1451367 -0.046342287
0.02123936 -0.023450911 0.010698375 0.07753936 0.022724697 0.02343949 0.11851344 0.11204594
0.10609945 -0.024995804 0.07716258 0.09459267 0.12129991 0.20142293 -0.071164355 0.06429064
0.00027487078 0.010046518 0.10360244 -0.035823043 0.17088997 0.11333234 0.056151755 -0.007815464
00000000: f957 c33d 90ec e63d 32ec 74be f6d0 d63d
00000010: e87b 123c 3578 c6bc f778 bc3d 416b cb3d
00000020: e93b 023d 9682 243e 5792 ef3d ffeb 913c
00000030: 95a8 0dbe e312 17bc cf79 b4bc b9f2 033e
00000040: daf5 ae3c 5743 253d 022d cf3b 6cd0 30bd
00000050: ee2e 823a 963f a2bd e0e6 4a3d b776 6a3d
00000060: 50bb a73d 1374 69bd 0508 ba3c c5ce cd3d
00000070: 668b c7bd 8ef5 8d3d f411 09bd ad9d 993d
00000080: 8fb6 dd3d d0aa ce3d b995 263b 8b79 143e
00000090: e873 ab3d fe31 a8bb b79e 143e 69d1 3dbd
000000a0: 2bfe ad3c 201c c0bc 3d48 2f3c f5cc 9e3d
000000b0: 2529 ba3c 2c04 c03c 2db7 f23d 5778 e53d
000000c0: ab4a d93d 00c4 ccbc 6a07 9e3d cdb9 c13d
000000d0: 166c f83d d041 4e3e 9ebe 91bd d0aa 833d
000000e0: 881c 9039 279a 243c 842d d43d 2fbb 12bd
000000f0: c8fd 2e3e c91a e83d 62ff 653d 6f0c 00bc

actor.6.weight f4 [15, 64]
0.12044987 -0.13720605 -0.36530328 0.34914684 0.5678811 -0.4872245 0.08987372 -0.11592316
-0.10518831 0.3691079 0.21459047 0.29281643 -0.2858326 0.3909009 0.42256325 0.21896812
0.17208524 -0.23399718 0.03630717 0.4084103 0.4480131 0.13047345 0.22374487 0.2828939
-0.1997734 -0.58656543 -0.19750078 -0.4572403 -0.10030633 0.03675771 -0.5878408 0.19671616
0.3205587 -0.100370675 0.36294168 -0.08320918 -0.41562414 0.3856139 0.026662188 -0.37897605
0.100486726 -0.055412456 0.17541195 -0.26701522 -0.37023064 0.26799524 -0.30113068 0.14883782
0.24010618 -0.4894652 -0.59956497 0.27196607 0.286151 0.17530817 -0.7642011 0.040621288
-0.20902574 0.20238373 -0.5681511 -0.37751356 0.18110998 0.33957896 0.14528455 0.2107327
0.047690835 0.4094751 0.5484853 -0.39425102 -0.38516545 0.21668802 -0.20737298 0.30753624
-0.21044175 -0.2352235 0.37500444 0.22634354 -0.017155288 -0.21370423 0.173781 -0.24904905
0.052258927 0.3822745 0.27422392 -0.18009026 -0.5552617 0.29365107 -0.48538554 0.25370258
0.4663158 0.40875244 -0.23539712 0.38158575 -0.49801847 0.5312771 0.27861145 -0.42538878
-0.22979237 -0.009465368 0.0137871485 0.36168838 0.4087433 -0.2489324 0.042860314 -0.49083823
0.13569652 -0.33250517 -0.3438252 0.049647417 0.29409558 -0.5172285 0.45350078 0.13131647
-0.13152137 0.38656598 0.24958381 -0.23998463 -0.5373182 0.05515776 0.3347433 0.37705633
0.010009977 0.05629753 -0.34142724 -0.14757293 0.2468894 0.0623047 -0.48748353 -0.14412688
0.12505177 -0.15084991 0.03882039 -0.08418785 0.2486069 0.11568426 -0.20033988 0.0010474419
0.4621195 -0.31342852 -0.7753075 -0.45314917 0.21787392 -0.17730372 -0.5820651 -0.5237827
0.28018835 -0.3231548 -0.05904074 0.06848783 0.28642645 -0.20144644 0.3531739 -0.24752873
-0.27448228 -0.090802185 0.38431886 -0.92646 -0.054153528 -0.25166658 -0.1184336 -0.037037328
-0.6386575 -0.23909824 -0.76241624 -0.62327605 -0.32142517 0.025546685 0.20217232 0.19180435
-0.5460218 0.18951532 -0.7007119 -0.5428581 -0.35117364 0.06390338 -0.25937176 -0.11768081
-0.2170356 -0.004582202 0.34688967 0.040084332 0.061349265 -0.38316944 0.24727502 0.27842724
0.23354477 0.167086 0.30072254 0.10134831 -0.3252461 -0.21578297 0.070931695 0.67130846
0.53194964 0.45700938 -0.37764704 0.11092101 -0.6801254 0.41074795 -0.042207498 -0.2394504
0.30072832 0.14487661 -0.16301757 0.40535685 -0.3632097 -0.10761804 0.03889071 0.23379983
-1.4277263 -0.34580043 -0.5991722 -0.031575337 0.12463203 -0.39090225 0.071499266 -0.31101146
0.20270512 0.4029388 0.47059408 0.3513139 0.64217925 -0.031435017 0.25950623 -0.29065213
-0.20106208 -0.37685716 -0.4844348 -0.6377488 0.052326385 -0.095831804 0.2849015 0.52009535
-0.3791079 0.27901173 -0.42344052 -0.05377685 0.5207498 -0.03562205 0.28998175 0.2786018
0.026083224 0.29460642 0.11909774 0.28469208 0.15510406 0.266433 0.66560876 -0.851262
-0.6833271 0.11657535 0.3795928 0.51771635 -0.29245797 -0.36508518 -0.11408843 -0.17836778
00000000: 6cae f63d be7f 0cbe 0809 bbbe 60c3 b23e
00000010: a860 113f 7d75 f9be b70f b83d 1f69 edbd
00000020: f86c d7bd b6fb bc3e 9bbd 5b3e 09ec 953e
00000030: a758 92be 2a24 c83e 365a d83e 2e39 603e
00000040: 1d37 303e f59c 6fbe d4b6 143d 281b d13e
00000050: f961 e53e d59a 053e 601d 653e 78d7 903e
00000060: 6691 4cbe 2729 16bf a53d 4abe 671b eabe
00000070: 686d cdbd 418f 163d bc7c 16bf f66f 493e
00000080: 4520 a43e 248f cdbd 7ed3 b93e 9369 aabd
00000090: b0cc d4be 2f6f c53e a96a da3c 2609 c2be
000000a0: fccb cd3d 2cf8 62bd 319f 333e 38b6 88be
000000b0: df8e bdbe ac36 893e cd2d 9abe f168 183e
000000c0: 65de 753e 2f9b fabe 177d 19bf 233f 8b3e
000000d0: 6282 923e fc83 333e afa2 43bf 8262 263d
000000e0: d80a 56be ae3d 4f3e 5a72 11bf 7549 c1be
000000f0: e574 393e 4bdd ad3e 79c5 143e 50ca 573e
00000100: 7757 433d b8a6 d13e 8869 0c3f 45db c9be
00000110: 6834 c5be 77e3 5d3e 9559 54be 6475 9d3e
00000120: 0b7e 57be 6ede 70be 9500 c03e 9ac6 673e
00000130: 3f89 8cbc 48d5 5abe a5f3 313e b706 7fbe
00000140: 750d 563d 7cb9 c33e 1467 8c3e 9569 38be
00000150: a125 0ebf 6f59 963e 7484 f8be 4ee5 813e
00000160: f2c0 ee3e 0048 d13e f10b 71be 355f c33e
00000170: 47fc febe c701 083f 29a6 8e3e 8fcc d9be
00000180: b14e 6bbe a214 1bbc 7ee3 613c 382f b93e
00000190: cd46 d13e 23e8 7ebe 4c8e 2f3d 264f fbbe
000001a0: 07f4 0a3e 1e3e aabe db09 b0be 175b 4b3d
000001b0: b293 963e 1669 04bf 4131 e83e d377 063e
000001c0: 8aad 06be faeb c53e e692 7f3e 88be 75be
000001d0: b08d 09bf 1aed 613d 7963 ab3e 870d c13e
000001e0: e300 243c 3d98 663d 8dcf aebe 5c1d 17be
000001f0: 93d0 7c3e 3733 7f3d 7197 f9be ff95 13be
00000200: 920d 003e 6678 1abe 2102 1f3d ae6a acbd
00000210: cf92 7e3e dfeb ec3d e625 4dbe 514a 893a
00000220: ed9a ec3e b479 a0be 8d7a 46bf 2b03 e8be
00000230: 571a 5f3e 1b8f 35be 3802 15bf 9f16 06bf
00000240: d974 8f3e 8c74 a5be b4d4 71bd 5943 8c3d
00000250: 7da6 923e fa47 4ebe 36d3 b43e 2c78 7dbe
00000260: f188 8cbe 7ff6 b9bd 71c5 c43e 7c2c 6dbf
00000270: 17d0 5dbd 71da 80be 518d f2bd 74b4 17bd
00000280: 0f7f 23bf 2bd6 74be b62d 43bf 058f 1fbf
00000290: d791 a4be 4847 d13c 4306 4f3e 5c68 443e
000002a0: 16c8 0bbf 4e10 423e db61 33bf c0f8 0abf
000002b0: 08cd b3be c6df 823d 60cc 84be a302 f1bd
000002c0: 953e 5ebe 4c26 96bb 869b b13e 782f 243d
000002d0: 5e49 7b3d c92e c4be aa35 7d3e 048e 8e3e
000002e0: 5c26 6f3e 9818 2b3e 4ef8 993e b48f cf3d
000002f0: a886 a6be 36f6 5cbe a344 913d dfda 2b3f
00000300: da2d 083f 22fd e93e f45a c1be 8e2a e33d
00000310: b31c 2ebf 8e4d d23e c5e1 2cbd 7c32 75be
00000320: 10f9 993e 895a 143e 14ee 26be ef8a cf3e
00000330: 9ff6 b9be d966 dcbd dd4b 1f3d 3969 6f3e
00000340: bcbf b6bf c10c b1be 5963 19bf 2455 01bd
00000350: 143f ff3d 5724 c8be 356e 923d e53c 9fbe
00000360: ee91 4f3e ff4d ce3e b5f1 f03e 6adf b33e
00000370: dc65 243f 01c2 00bd 00de 843e 5bd0 94be
00000380: 38e3 4dbe 6cf3 c0be d707 f8be 8143 23bf
00000390: 3154 563d 7743 c4bd 9cde 913e f824 053f
000003a0: 6e1a c2be a0da 8e3e 32cd d8be 1d45 5cbd
000003b0: dc4f 053f 6de8 11bd 7d78 943e e5a4 8e3e
000003c0: 7cac d53c a7d6 963e 84e9 f33d 29c3 913e
000003d0: 99d3 1e3e e869 883e 5665 2a3f 4eec 59bf
000003e0: 86ee 2ebf 0fbf ee3d fd59 c23e 0f89 043f
000003f0: 0dbd 95be 72ec babe 32a7 e9bd 0ba6 36be

actor.6.bias f4 [15]
0.0982232 0.025274346 -0.12320492 0.16924009 0.040171295 -0.04292129 -0.0635637 0.06401541
-0.18564181 0.19831356 -0.038527243 -0.2041799 0.03517145 0.08115413 -0.051784284
00000000: 3f29 c93d 250c cf3c dc52 fcbd 464d 2d3e
00000010: a88a 243d 3cce 2fbd af2d 82bd 831a 833d
00000020: e318 3ebe b612 4b3e bece 1dbd 8914 51be
00000030: f00f 103d 2334 a63d c21b 54bd

critic.0.weight f4 [128, 30]
-0.5765731 -0.6925598 -0.6969601 -0.71294224 -0.48412097 -0.039919935 0.031024028 -0.17065264
0.08847222 -0.27925786 -0.20445232 -0.34264264 -0.238273 -0.17530368 -0.036300596 -0.2579525
-0.50158995 -0.28071445 -0.2752023 0.50032395 -0.5798284 -0.09181297 -0.14012536 0.06641817
-0.6621363 0.046420667 0.16322425 -0.2891969 -0.19458176 -0.17349811 -0.86988777 -0.648636
-0.40207782 -0.21242383 0.35729262 -0.3913171 -0.690881 -1.276387 -1.3205956 -0.2638136
1.054533 -0.8512865 -1.0029829 -0.7791434 -0.32082394 -0.80537623 -0.42235065 0.10568344
0.8444215 0.63444245 -0.12708756 -0.49332026 -0.7862286 -0.48758593 0.04728079 0.090536855
-1.4349192 0.42070353 0.73767495 -0.41265997 -0.14775251 -0.55832416 -0.39291728 -0.7018148
-0.33790857 -0.40382785 -0.32058442 -0.10972515 0.20958638 -0.26524308 -0.3690707 -0.37450445
-0.28887796 -0.13026543 -0.08691327 -0.71690065 0.07955491 0.11018552 -0.024825143 0.7992648
-1.2126544 -0.30062726 -0.2007077 0.2534312 -0.14074233 0.14220105 0.77632326 -0.8514814
-0.7437987 -0.4398495 -0.07600913 -0.11526804 0.047113914 -0.2606989 -0.22229692 -0.17497374
-0.014345716 0.14841379 0.07765081 0.11127739 0.001997726 -0.21931465 -0.03662835 -0.00776039
0.08773821 -0.10619558 0.03795891 -0.21971208 0.007203196 0.031565595 -0.1359336 -0.21600355
-0.17297411 -0.07823871 -0.19768178 -0.095779546 -0.20227511 0.09193042 -0.10980143 0.11407878
-1.1020919 -1.380825 -1.1531637 -1.2216754 -1.2826387 0.65492487 0.7754527 -0.031173842
0.69350415 0.44407916 0.24919865 0.13877666 0.27983332 0.2933949 0.60180646 -0.04940082
0.05565717 -0.03159174 0.2058129 -0.74333394 -1.4877934 0.22194552 0.5342107 -0.10289897
0.36320144 -0.6542219 -0.580586 0.37353745 1.0931315 -0.10711136 0.66419435 0.8236337
0.5699158 0.585906 1.0151987 0.8071457 -0.066096805 0.5166549 0.14361072 0.1848116
1.0313458 -0.27164063 -0.04704063 0.35554856 0.3359167 -0.40402195 -0.7341631 -0.23815103
0.24871181 -0.22070783 -0.25153252 -0.24098854 0.028541526 0.38706037 0.07963029 0.5696084
0.047204748 -0.012229333 -0.4521321 0.16444807 -0.062987246 -0.25366718 -0.22500928 -0.07213162
-0.315504 -0.148149 -0.19194025 -0.21410987 -0.18680343 -0.34760714 -0.13370694 -0.099850595
-0.056844193 -0.39294663 -0.3762844 -0.1232695 -0.28697708 -0.09367946 -0.0020048507 -0.14823017
-0.09057761 -0.33056766 -0.07488946 0.06877321 -0.18599305 -0.0023924937 -0.10635447 0.57838386
0.17665093 0.04029584 0.95834666 1.2279739 1.1775432 1.3615263 1.827328 -0.60788506
0.8828141 0.27384457 -0.1178719 0.059877843 -1.0340911 0.3550907 0.4764013 0.46769366
0.36790425 0.23752426 0.14115284 -0.23226722 0.3915475 0.19724227 0.061566684 0.6755556
0.1763178 0.1733913 0.24239522 -0.84333515 -0.0027614504 -0.48818922 -0.6144851 0.7002434
-0.12129984 -0.36151963 -0.4635213 -0.9388416 -1.5020379 -0.12208012 -0.99597394 -0.49514666
0.106176965 0.24306421 -0.43205005 0.16883083 0.22180897 0.22632843 0.40021697 0.48388118
00000000: 4b9a 13bf 994b 31bf fa6b 32bf 6283 36bf
00000010: b4de f7be 1683 23bd 1a26 fe3c 91bf 2ebe
00000020: ec30 b53d e3fa 8ebe f35b 51be db6e afbe
00000030: d6fd 73be cf82 33be efaf 14bd 5a12 84be
00000040: 3368 00bf ceb9 8fbe 51e7 8cbe 3b15 003f
00000050: a26f 14bf 7008 bcbd 067d 0fbe 4006 883d
00000060: c481 29bf 9923 3e3d 4224 273e 9e11 94be
00000070: 7140 47be 7da9 31be f7b0 5ebf 020d 26bf
00000080: 25dd cdbe a285 59be 0fef b63e b75a c8be
00000090: 94dd 30bf a660 a3bf 4709 a9bf 9412 87be
000000a0: f0fa 863f e9ed 59bf be61 80bf f175 47bf
000000b0: 0943 a4be 232d 4ebf 583e d8be 8f70 d83d
000000c0: 022c 583f d26a 223f 3e23 02be 7994 fcbe
000000d0: 4746 49bf dda4 f9be 80a9 413d 636b b93d
000000e0: 6fab b7bf 7466 d73e 44d8 3c3f 2b48 d3be
000000f0: 6f4c 17be 55ee 0ebf 742c c9be 22aa 33bf
00000100: 5a02 adbe 86c2 cebe a423 a4be 94b7 e0bd
00000110: d09d 563e f1cd 87be d6f6 bcbe 0cbf bfbe
00000120: d0e7 93be 4d64 05be 96ff b1bd cd86 37bf
00000130: afed a23d f2a8 e13d 195e cbbc 9e9c 4c3f
00000140: 4238 9bbf d1eb 99be 5286 4dbe bcc1 813e
00000150: c21e 10be 279d 113e 1fbd 463f affa 59bf
00000160: 9769 3ebf f433 e1be adaa 9bbd a611 ecbd
00000170: 85fa 403d 547a 85be cea1 63be 512c 33be
00000180: 4b0a 6bbc c9f9 173e 6307 9f3d 66e5 e33d
00000190: 48ec 023b 0594 60be 9c07 16bd df4a febb
000001a0: 17b0 b33d 117d d9bd cd7a 1b3d 34fc 60be
000001b0: ca08 ec3b ed4a 013d 2d32 0bbe 0930 5dbe
000001c0: 2020 31be 9e3b a0bd 186d 4abe 1128 c4bd
000001d0: 3521 4fbe 0446 bc3d 92df e0bd 23a2 e93d
000001e0: 5911 8dbf e0be b0bf de9a 93bf dc5f 9cbf
000001f0: 812d a4bf 28a9 273f 1184 463f 4960 ffbc
00000200: 7d89 313f 585e e33e ee2d 7f3e 781b 0e3e
00000210: 5046 8f3e db37 963e fd0f 1a3f 8458 4abd
00000220: c6f8 633d 5766 01bd 9ec0 523e 224b 3ebf
00000230: 0470 bebf b045 633e 08c2 083f b2bc d2bd
00000240: 8af5 b93e 167b 27bf 49a1 14bf 4d40 bf3e
00000250: bceb 8b3f 335d dbbd a408 2a3f a8d9 523f
00000260: 00e6 113f f0fd 153f 08f2 813f 1aa1 4e3f
00000270: c35d 87bd 7f43 043f b00e 133e 413f 3d3e
00000280: 2403 843f 7b14 8bbe adad 40bd 760a b63e
00000290: 46fd ab3e f7db cebe 1df2 3bbf dddd 73be
000002a0: 4fae 7e3e 3c01 62be dfc8 80be b3c5 76be
000002b0: ebcf e93c c72c c63e 3515 a33d dbd1 113f
000002c0: c459 413d 8a5d 48bc dc7d e7be 1365 283e
000002d0: 75ff 80bd aae0 81be d568 66be beb9 93bd
000002e0: be89 a1be 5fb4 17be fc8b 44be 9e3f 5bbe
000002f0: 6649 3fbe 90f9 b1be 79ea 08be 787e ccbd
00000300: 75d5 68bd 4d30 c9be 59a8 c0be b874 fcbd
00000310: a9ee 92be 04db bfbd d063 03bb a6c9 17be
00000320: c180 b9bd 2a40 a9be a55f 99bd f8d8 8c3d
00000330: f674 3ebe 62cb 1cbb 5fd0 d9bd f710 143f
00000340: fbe3 343e 400d 253d 3556 753f 402e 9d3f
00000350: bcb9 963f 7e46 ae3f e2e5 e93f 5b9e 1bbf
00000360: 1b00 623f 5b35 8c3e d366 f1bd 7842 753d
00000370: 195d 84bf 73ce b53e dfea f33e 8b75 ef3e
00000380: f25d bc3e 8f39 733e 5f8a 103e 75d7 6dbe
00000390: ea78 c83e e1f9 493e 592d 7c3d 36f1 2c3f
000003a0: a78c 343e 7d8d 313e 7436 783e d0e4 57bf
000003b0: 73f9 34bb f0f3 f9be e54e 1dbf 2743 333f
000003c0: 0d6c f8bd 1a19 b9be aa52 edbe ec57 70bf
000003d0: c742 c0bf 2405 fabd 26f8 7ebf dd83 fdbe
000003e0: 4f73 d93d d3e5 783e aa35 ddbe fde1 2c3e
000003f0: e421 633e a4c2 673e 3de9 cc3e 46bf f73e

critic.0.bias f4 [128]
-0.08023331 -0.6969617 -0.18641143 -0.21175507 0.2543961 0.12570792 -0.09928699 -0.3225963
0.07374927 -0.78256345 -0.53165853 -0.118848056 -0.1175934 1.4821181 -0.25468796 -0.10893328
-0.07976197 -0.59120893 -0.39623097 0.60153717 -0.6167815 0.4455411 -0.23888241 0.06738108
0.045687724 1.0991504 -0.23442288 0.24584855 -1.1437107 0.45007688 -0.4713596 0.23042588
-0.068618305 -0.28158486 0.2344143 -0.42891908 0.3367945 -0.7285924 -0.16462271 0.34225097
-0.27604228 -0.4017133 -0.13962391 -0.09341947 -0.6222122 -0.8232351 -0.39833054 0.032596916
0.16170679 -0.51965433 -0.6776721 -0.15933704 -0.22277401 0.09256324 -0.012426157 0.009938298
-0.11185581 -0.037970413 -1.264126 -0.35560903 -0.092377156 -0.56505543 -0.22321516 0.50804037
-0.16372932 -0.5529417 -0.3876292 -0.5822895 -0.3650584 0.024999361 -0.41884324 0.6781114
-0.13443488 0.0444285 0.18889518 -0.19459681 -0.6663094 -0.14177273 -0.44927084 0.021231554
-0.31061524 0.024772163 0.37724367 -0.09062188 -1.054539 -0.15781079 0.18837288 -0.256864
0.14509188 -0.31831977 0.123598576 0.00026031284 -0.006829437 -0.71436054 -0.14025715 0.15508829
-0.049748622 -0.04229187 -0.15270755 -0.23933853 0.23907386 -0.2762563 -1.0600159 0.28449425
1.2417935 -0.045005098 0.16751394 0.04605875 -0.16979374 -0.29526332 0.09377009 0.12773968
-0.15534222 -1.3640339 -0.9790458 -0.0031858105 0.73440593 0.00983365 0.3871294 -0.02652551
-1.0367329 -0.1610747 -0.0307124 0.18848605 0.080171295 -0.0685227 0.01639864 0.91386014
00000000: 5d51 a4bd 156c 32bf a3e2 3ebe 52d6 58be
00000010: 3540 823e 94b9 003e fa56 cbbd 582b a5be
00000020: db09 973d 1456 48bf c61a 08bf 9c66 f3bd
00000030: cfd4 f0bd 0cb6 bd3f 7666 82be 6918 dfbd
00000040: 3e5a a3bd 7859 17bf c9de cabe 57fe 193f
00000050: 64e5 1dbf f71d e43e 979d 74be 17ff 893d
00000060: 0d23 3b3d f6b0 8c3f 8d0c 70be b9bf 7b3e
00000070: 1d65 92bf 7a70 e63e 0c56 f1be c3f4 6b3e
00000080: c187 8cbd e42b 90be 4d0a 703e 489b dbbe
00000090: 5470 ac3e 0885 3abf db92 28be 853b af3e
000000a0: 6a55 8dbe 5ead cdbe 92f9 0ebe b552 bfbd
000000b0: 4c49 1fbf 89bf 52bf fbf1 cbbe 5884 053d
000000c0: 7796 253e 1108 05bf eb7b 2dbf 4029 23be
000000d0: df1e 64be cc91 bd3d 1497 4bbc 3ed4 223c
000000e0: a914 e5bd dd86 1bbd e1ce a1bf 6312 b6be
000000f0: 3c30 bdbd 79a7 10bf 8492 64be ef0e 023f
00000100: a9a8 27be 968d 0dbf 5677 c6be ed10 15bf
00000110: efe8 babe 76cb cc3c 9f72 d6be b598 2d3f
00000120: 4ca9 09be a9fa 353d bd6d 413e 6344 47be
00000130: 4193 2abf df2c 11be d406 e6be cced ad3c
00000140: f608 9fbe feee ca3c 1526 c13e f797 b9bd
00000150: 22fb 86bf 2799 21be d2e4 403e ae83 83be
00000160: f792 143e cffa a2be 4021 fd3d 997a 8839
00000170: 78c9 dfbb 55e0 36bf 929f 0fbe 77cf 1e3e
00000180: 36c5 4bbd 3d3a 2dbd 5e5f 1cbe 2915 75be
00000190: c7cf 743e 7771 8dbe 9aae 87bf 3ba9 913e
000001a0: 17f3 9e3f 4457 38bd c688 2b3e 1aa8 3c3d
000001b0: 69de 2dbe c12c 97be 880a c03d 31ce 023e
000001c0: 0812 1fbe aa98 aebf bfa2 7abf 08c9 50bb
000001d0: 0702 3c3f 511d 213c d335 c63e 074c d9bc
000001e0: aab3 84bf c4f0 24be 9298 fbbc 7d02 413e
000001f0: d930 a43d a155 8cbd 7156 863c bdf2 693f

critic.2.weight f4 [128, 128]
-0.01591327 0.007389095 -0.015278775 0.06682731 0.0039391946 -0.112648316 -0.05315681 -0.053241383
-0.08346637 -0.10789212 -0.16983534 -0.07767816 -0.03650835 -0.054914035 0.046791095 0.09945796
-0.06653816 -0.009127036 -0.11648096 -0.23175345 -0.05227125 0.00039298253 -0.032443613 0.053291485
-1.6072385e-05 -0.09142726 0.06948237 -0.07272557 -0.06762424 -0.0715416 0.028257634 -0.020393742
-0.00061301974 -0.048511863 -0.07114763 0.042177513 -0.0017470943 0.044178076 -0.11752893 0.075066425
-0.032093503 -0.046252705 -0.08205669 -0.037692267 -0.052022107 -0.1267358 -0.106716365 0.0006594267
0.02349707 0.10713281 0.004601663 -0.08913191 -0.08921429 -0.06837161 0.06172506 0.05507306
-0.08863906 -0.008784704 -0.07514995 -0.07684316 -0.03930634 0.097780675 -0.020513548 -0.17777917
-0.04607276 -0.028108358 -0.097215 -0.025225589 -0.009261831 -0.06311289 0.008992919 -0.014251337
-0.1509913 0.01761931 0.024513192 0.072289124 -0.034652513 -0.046211433 0.057964038 0.043467835
0.06781984 -0.015332092 -0.00040340115 -0.041809056 -0.07913035 -0.10220053 -0.07138206 0.006193628
-0.10647525 0.011585328 0.07844055 -0.08544811 0.05496001 -0.049349744 0.0248528 -0.09542115
-0.121268965 0.02545209 0.028003432 -0.10614314 -0.06633975 -0.006990196 -0.06944052 -0.12969032
0.005013932 -0.07220711 -0.059963707 -0.061920594 -0.2863422 -0.03414714 -0.103222 -0.04198166
0.08805677 0.017917313 -0.11512769 0.015519014 -0.06280679 0.0017963519 0.029372219 0.05532433
-0.00014873456 -0.08946869 0.028174149 0.0070574307 -0.019799972 0.020407489 -0.026936641 -0.3737459
0.071112595 0.1510133 0.47506562 0.029581903 -0.2679273 0.29969057 0.038435034 -0.11155653
0.23033533 -0.6154156 -1.0352645 0.026415749 0.1101923 0.9611372 0.17022584 0.5693195
0.08856688 0.3035674 -0.23963103 1.195535 -0.10325833 0.21484879 -0.114906274 0.2531892
0.010786361 0.36996493 -0.2800637 -0.4104537 0.032111935 -0.5669576 -0.1508767 -0.43072012
-0.028703375 -0.8671724 -0.010964721 0.5756541 -0.9991585 0.025132077 -0.10325319 0.13208167
0.42204773 0.3007908 -0.030349879 -0.8147635 -0.29376197 -0.27443436 0.0038353042 0.10527664
-0.8477444 -0.27190205 0.002604293 -0.36247697 -0.363011 -0.04552285 0.18107681 -0.066376075
-0.18843877 0.22829819 -0.47985378 -0.33645776 -0.12889671 -0.31823227 0.2701382 0.20859465
-0.009041101 0.19312724 0.4778827 -0.14534546 -0.15129937 -0.50032616 0.098211624 -0.4248045
-0.026789691 -0.50535053 0.21612044 -0.2555398 -0.3955376 -0.0618232 0.08602521 -0.11446898
-0.040836338 0.008577521 -0.9161549 -0.45671335 -0.16138987 0.16922513 -1.013878 0.5791976
0.16554075 0.24847487 0.7628875 -0.42476153 -0.2379404 -0.39591047 -0.23567839 -0.20934266
0.14560574 1.2501898 0.03957171 0.003016921 0.463499 -0.16834305 -0.624809 -0.32022265
-0.10552856 0.4609685 -0.052322727 -0.09043736 0.1281673 -0.12027188 0.41982362 1.2122226
0.05452425 -0.22002803 -0.6263595 -0.09537201 0.13177602 0.39409745 -0.071313746 -0.786434
-0.1598115 -0.104744375 0.74709976 0.055779953 -0.026197333 -1.0728967 0.12576725 -0.18141197
00000000: 8c5c 82bc 3920 f23b d453 7abc c2dc 883d
00000010: 5c14 813b 29b4 e6bd f5ba 59bd a313 5abd
00000020: 6bf0 aabd 8bf6 dcbd 51e9 2dbe ba15 9fbd
00000030: c889 15bd 8aed 60bd 05a8 3f3d 9db0 cb3d
00000040: 2945 88bd 9089 15bc 928d eebd c750 6dbe
00000050: 611a 56bd 3909 ce39 98e3 04bd 2c48 5a3d
00000060: 2fd3 86b7 373e bbbd c64c 8e3d 25f1 94bd
00000070: 947e 8abd 6784 92bd 8e7c e73c c710 a7bc
00000080: 0fb3 20ba 60b4 46bd d9b5 91bd 54c2 2c3d
00000090: c2fe e4ba 12f4 343d 02b3 f0bd 6dbc 993d
000000a0: 7a74 03bd 7a73 3dbd 560d a8bd 3563 1abd
000000b0: 2215 55bd 08c7 01be 1c8e dabd 60dd 2c3a
000000c0: ed7c c03c 7268 db3d 8cc9 963b ca8a b6bd
000000d0: fbb5 b6bd 6a06 8cbd 6bd3 7c3d 4a94 613d
000000e0: 6588 b5bd b8ed 0fbc 38e8 99bd f25f 9dbd
000000f0: afff 20bd 3c41 c83d 070c a8bc be0b 36be
00000100: cab6 3cbd 8043 e6bc a818 c7bd e5a5 cebc
00000110: efbe 17bc 5541 81bd 0957 133c 717e 69bc
00000120: 779d 1abe 5f56 903c e4cf c83c 520c 943d
00000130: cbef 0dbd 3348 3dbd b36b 6d3d 540b 323d
00000140: 21e5 8a3d 7433 7bbc 967f d3b9 f93f 2bbd
00000150: 180f a2bd 834e d1bd c230 92bd ebf3 ca3b
00000160: b20f dabd 63d0 3d3c 70a5 a03d 6bff aebd
00000170: bf1d 613d f522 4abd 1998 cb3c 2a6c c3bd
00000180: dd5b f8bd e780 d03c 7467 e53c 9361 d9bd
00000190: 23dd 87bd 040e e5bb d536 8ebd 8acd 04be
000001a0: e94b a43b 52e1 93bd 819c 75bd 73a0 7dbd
000001b0: 729b 92be dfdd 0bbd 0e66 d3bd f6f4 2bbd
000001c0: 1c57 b43d 54c7 923c 11c8 ebbd 7643 7e3c
000001d0: d9a0 80bd 9173 eb3a 029e f03c c49b 623d
000001e0: a1f5 1bb9 5c3b b7bd 79cd e63c 0542 e73b
000001f0: 8d33 a2bc 9b2d a73c 3baa dcbc 9f5b bfbe
00000200: 7ba3 913d 3ba3 1a3e cd3b f33e bf55 f23c
00000210: c42d 89be 0b71 993e 0e6e 1d3d c077 e4bd
00000220: 06dd 6b3e e08b 1dbf 8c83 84bf d765 d83c
00000230: 80ac e13d 160d 763f af4f 2e3e ecbe 113f
00000240: 8d62 b53d 306d 9b3e d661 75be 4a07 993f
00000250: 1a79 d3bd 5201 5c3e fb53 ebbd 04a2 813e
00000260: 47b9 303c 0b6c bd3e 8264 8fbe fd26 d2be
00000270: ce87 033d 2224 11bf 6c7f 1abe 5987 dcbe
00000280: 5723 ebbc 03ff 5dbf 60a5 33bc 115e 133f
00000290: dac8 7fbf c9e1 cd3c 6976 d3bd 6b40 073e
000002a0: a416 d83e 4001 9a3e 4fa0 f8bc 5794 50bf
000002b0: f867 96be a982 8cbe ba59 7b3b 479b d73d
000002c0: c705 59bf bf36 8bbe c9ac 2a3b 9596 b9be
000002d0: 94dc b9be 2b76 3abd 336c 393e 2ef0 87bd
000002e0: 18f6 40be 00c7 693e 65af f5be 3144 acbe
000002f0: 80fd 03be 57ef a2be 8e4f 8a3e d699 553e
00000300: 2021 14bc 26c3 453e 0bad f43e 71d5 14be
00000310: 39ee 1abe 6015 00bf 2d23 c93d fa7f d9be
00000320: 0e76 dbbc a75e 01bf ad4e 5d3e 1dd6 82be
00000330: e883 cabe 533a 7dbd fc2d b03d b66e eabd
00000340: 0144 27bd bb88 0c3c 2189 6abf 55d6 e9be
00000350: 6343 25be 5a49 2d3e c1c6 81bf 4b46 143f
00000360: 8483 293e 3270 7e3e 984c 433f 587a d9be
00000370: a6a6 73be c7b4 cabe ad55 71be ec5d 56be
00000380: ac19 153e 3806 a03f f215 223d 89b7 453b
00000390: be4f ed3e 1f62 2cbe 7cf3 1fbf 39f4 a3be
000003a0: 5c1f d8bd 1004 ec3e 5b50 56bd 3937 b9bd
000003b0: 4a3e 033e 1a51 f6bd 1ff3 d63e 1c2a 9b3f
000003c0: d254 5f3d 074f 61be 1959 20bf 6652 c3bd
000003d0: 4bf0 063e 24c7 c93e f10c 92bd bd53 49bf
000003e0: a0a5 23be 3884 d6bd ee41 3f3f 8579 643d
000003f0: ca9b d6bc ae54 89bf 21c9 003e 0fc4 39be
