PPO_preTrained/3/PPO_3_0_680.pth (torch, 239631 bytes, 15 tensors)

actor.0.weight f4 [128, 30]
0	0xbdd2f25f	-0.10300135
1	0xbe182787	-0.14858828
2	0xbd983d90	-0.07433617
3	0xbe272df4	-0.16326123
4	0xbdcd6e87	-0.10030847
5	0xbea9352e	-0.33048385
6	0xbcb85740	-0.022502542
7	0xbded1c6f	-0.11577689
8	0x3d66b924	0.056328908
9	0xbe0258c8	-0.1272918
10	0xbe997ea6	-0.29979438
11	0x3dd50697	0.104016475
12	0x3cb7347a	0.02236389
13	0xbd89d825	-0.067306794
14	0xbd84982c	-0.06474337
15	0x3ea09137	0.3136079
16	0x3e8896b1	0.26677468
17	0xbe8e83fa	-0.27835065
18	0x3e6957f3	0.22787456
19	0x3d19a2a9	0.03750864
20	0xbe8f49eb	-0.27986082
21	0xbe6fb970	-0.23410583
22	0x3d7f37b6	0.06230899
23	0x3e53f040	0.20697117
24	0x3a404a9d	0.0007335337
25	0x3e7c24c8	0.24623406
26	0xbdfa5d75	-0.12224857
27	0x3e5703cc	0.20997542
28	0xbf279ab1	-0.65470415
29	0x3e65e75f	0.22451542
30	0x3e6afcaf	0.22947954
31	0xbcc5714c	-0.024101876
32	0x3d90739d	0.070533015
33	0x3e4b2dc2	0.19841674
34	0x3e9dd96f	0.3082995
35	0xbe7f57b2	-0.24935797
36	0xbe8a7000	-0.27038574
37	0xbde289de	-0.11061452
38	0x3e2d63d0	0.16932607
39	0xbdddd6d9	-0.108319946
40	0xbde389ef	-0.11110293
41	0xbd09af83	-0.033614647
42	0xbe419bf6	-0.1890715
43	0xbbf12213	-0.0073587983
44	0xbdd1299e	-0.10213016
45	0x3eb61489	0.35562542
46	0xbe03b844	-0.1286326
47	0x3e135ae3	0.1439014
48	0x3e732130	0.23743129
49	0xbe8ac69f	-0.2710466
50	0xbdedae17	-0.11605471
51	0xbe1ed4d1	-0.1551087
52	0x3dc28bfe	0.09499358
53	0xbcca8d85	-0.024725685
54	0x3d88771e	0.06663345
55	0x3eb58401	0.35452273
56	0x3e30041b	0.17189066
57	0x3d7fb72b	0.062430542
58	0x3e2e5143	0.17023186
59	0xbeb9679e	-0.36211866
60	0x3da7810b	0.0817891
61	0x3e29c845	0.16580303
62	0xbda934b5	-0.08262006
63	0x3e37ea7f	0.17960547
64	0x3e98bef5	0.2983319
65	0x3d523be0	0.051326632
66	0xbe2c8cef	-0.16850637
67	0x3e1c67cf	0.15273975
68	0x3e047594	0.12935477
69	0x3d90792d	0.070543624
70	0xbdcfc6fc	-0.10145375
71	0xbd988c4f	-0.07448637
72	0xbe30b2bc	-0.17255682
73	0xbd9d7d60	-0.07689929
74	0xbd859ac1	-0.065236576
75	0x3ec02e14	0.37535155
76	0xbb61ea42	-0.0034471904
77	0x3e4ec3e9	0.20191921
78	0x3e05f3c0	0.13081264
79	0x3f14f7c0	0.58190536
80	0xbc4b6e73	-0.01241647
81	0x3d3778fe	0.04479312
82	0xbe1375e5	-0.14400442
83	0x3cf090fc	0.029366009
84	0x3e2d1b49	0.1690494
85	0x3f4ef2a8	0.80839014
86	0x3f6adf56	0.91747034
87	0x3db487ac	0.0881494
88	0xbc316a8a	-0.010828624
89	0x3ef5eaa7	0.48030588
90	0xbeb4a137	-0.35279247
91	0xbd22b9ac	-0.03972785
92	0x3dd2f4eb	0.10300621
93	0xbe3944db	-0.18092673
94	0x3dde637a	0.108588174
95	0xbec7fac0	-0.39058495
96	0xbdfad51a	-0.12247677
97	0x3d90e0fe	0.07074164
98	0x3c7fab4b	0.015604804
99	0x3d03e066	0.032196425
100	0x3d89131f	0.066931
101	0x3df296b8	0.118451536
102	0xbb8795b0	-0.004137717
103	0xbccc46e2	-0.024936143
104	0xbcb2c51f	-0.02182251
105	0x3ebd0142	0.36915022
106	0x3e4b55a8	0.19856894
107	0x3cab88f2	0.020939324
108	0x3dec2ef6	0.115323946
109	0xbe2da99b	-0.1695923
110	0x3e16f370	0.14741302
111	0xbe23ce5e	-0.15996692
112	0xbd18e8cb	-0.037331384
113	0xbce6a923	-0.028156823
114	0x3dcdc4bd	0.100472905
115	0x3eab2a69	0.33430794
116	0xbe0652ed	-0.13117571
117	0xbed84d50	-0.42246485
118	0xbef843c5	-0.48489204
119	0x3e71e0f8	0.23620975
120	0xbe7626fb	-0.24038307
121	0xbd212e7b	-0.039350968
122	0x3ce002e3	0.027345126
123	0xbd989836	-0.07450907
124	0xbebca3a8	-0.3684361
125	0x3ed62481	0.41824725
126	0x3dd48ee0	0.10378814
127	0x3bbdb9bd	0.005789964
128	0xbd8d890a	-0.06910904
129	0x3d782f6f	0.06059211
130	0xbdb9e852	-0.09077515
131	0xbdb3818c	-0.087649435
132	0xbe07b14c	-0.13251227
133	0x3e1f5cba	0.15562716
134	0xbdccaf6b	-0.09994396
135	0xbe627ad1	-0.22117163
136	0xbdf4a9d1	-0.119464524
137	0x3e2951b8	0.1653508
138	0x3ea80b7f	0.3282127
139	0x3f28603b	0.65771836
140	0x3e0e31c6	0.13886175
141	0xbe362454	-0.17787296
142	0x3e0ff559	0.14058436
143	0x3c1f7b2c	0.009733956
144	0x3d41e464	0.04733695
145	0x3d92cb30	0.07167661
146	0x3e841f25	0.2580501
147	0x3f19d68d	0.60093004
148	0xbe095a1d	-0.13413282
149	0x3da6b13e	0.08139275
150	0xbe05b4c9	-0.13057245
151	0x3e8ffd1c	0.28122795
152	0x3e0af819	0.13571204
153	0x3e06db38	0.13169563
154	0x3e950e91	0.29112676
155	0xbee0c2d2	-0.43898636
156	0xbe3399a5	-0.1753908
157	0xbe29cac5	-0.16581257
158	0xbdfe3487	-0.124123625
159	0xbd12a7f8	-0.03580472
160	0xbdac127a	-0.084019616
161	0xbda1419a	-0.07873841
162	0x3deca1f1	0.11554325
163	0xbdf28827	-0.11842375
164	0x3cc8582e	0.02445611
165	0x3e454f2d	0.19268484
166	0x3ebe5d70	0.37180662
167	0x3e923808	0.28558373
168	0x3d7bf495	0.06151255
169	0x3e2ef962	0.1708732
170	0xbdb23f22	-0.08703448
171	0xbb916858	-0.0044374876
172	0xbdeec87b	-0.11659332
173	0xbc503bee	-0.012709601
174	0x3dba7fad	0.091063835
175	0xbc80f55d	-0.015741998
176	0x3e8e5334	0.27797854
177	0x3e385b42	0.18003562
178	0xbec36822	-0.38165385
179	0x3e9b6519	0.3035057
180	0x3e6fae21	0.23406269
181	0x3e9ac368	0.30227208
182	0xbdc6d3f1	-0.09708393
183	0xbdb5e636	-0.088818
184	0xbb352418	-0.0027639922
185	0x3e9744e8	0.2954476
186	0x3e3e82f2	0.18604639
187	0xbe608e8f	-0.21929382
188	0x3d874962	0.066057935
189	0xbd9889ce	-0.07448159
190	0xbdb95158	-0.09048718
191	0xbca56e6c	-0.020194255
192	0x3e2643fe	0.16236874
193	0x3c410960	0.01178202
194	0xbe02100b	-0.12701432
195	0xbea9a73e	-0.33135408
196	0x3e6bb9b3	0.23020057
197	0x3e575f8d	0.21032543
198	0xbeaa5631	-0.33268884
199	0x3e2bc628	0.1677481
200	0x3dfd655a	0.12372847
201	0xbd83bf81	-0.06433011
202	0xbdb9a379	-0.09064383
203	0x3e36fee9	0.17870678
204	0x3d0bf2be	0.034167044
205	0x3e9d3043	0.30700883
206	0xbedda0a4	-0.43286622
207	0x3e0f25f9	0.13979329
208	0xbd75be56	-0.05999597
209	0x3e478222	0.19483235
210	0x3f07c22f	0.53030676
211	0x3ece1f60	0.40258312
212	0x3f0803dc	0.5313089
213	0x3f54793e	0.829975
214	0x3ec6704f	0.3875756
215	0xbdc2ea91	-0.09517396
216	0xbe1524c2	-0.14564803
217	0xbd369238	-0.04457304
218	0x3d10268e	0.03519302
219	0x3e5c7394	0.21528465
220	0x3e55aa7f	0.2086582
221	0x3dc8633a	0.09784551
222	0x3de2fc43	0.11083271
223	0xbd0d29ab	-0.034463566
224	0x3e07943a	0.13240138
225	0x3def9d25	0.11699895
226	0xbe0598e9	-0.13046612
227	0x3e2b6799	0.16738738
228	0x3dfc5155	0.123202
229	0x3f27f259	0.6560417
230	0x3e1b330b	0.1515619
231	0x3bf968bb	0.007611362
232	0xbd6a8c82	-0.057262905
233	0x3bbb7aa5	0.0057214075
234	0xbd8b94c7	-0.068154864
235	0x3f19e759	0.60118634
236	0x3f05266d	0.5201176
237	0x3dfe4184	0.1241484
238	0x3eec3bad	0.4613928
239	0x3bd34885	0.006447854
240	0x3e1344e1	0.14381744
241	0x3d5f6635	0.05454083
242	0xbb1c5914	-0.0023856806
243	0x3e2e9169	0.17047657
244	0x3e174a14	0.14774352
245	0x3f4400ee	0.7656392
246	0x3e99abf8	0.30014014
247	0x3dc9b65d	0.09849236
248	0x3d429c8f	0.047512587
249	0x3daeb636	0.08530848
250	0x3ececab2	0.4038902
251	0x3e2fd588	0.171713
252	0xbd8529ab	-0.06502088
253	0x3e431fc3	0.19055085
254	0x3e852634	0.2600571
255	0xbea5b447	-0.32364103

actor.0.bias f4 [128]
0	0x3d60755a	0.054799415
1	0xbdd77447	-0.10520225
2	0xbdef4bfc	-0.11684415
3	0x3e20df82	0.15710261
4	0xbe13e8fa	-0.14444342
5	0xba3c7659	-0.0007189266
6	0xbdef8542	-0.11695339
7	0x3e09cb95	0.13456567
8	0x3e89bdaf	0.2690253
9	0x3d889f17	0.06670969
10	0x3eb9c753	0.36284885
11	0xbcdd61fb	-0.02702426
12	0xbdab9b72	-0.08379258
13	0xbbbbf884	-0.0057364125
14	0xbdab8520	-0.08375001
15	0xbc7c20d5	-0.015388687
16	0x3dddd027	0.108307175
17	0xbd5f8533	-0.054570388
18	0xbd44e9b2	-0.04807443
19	0x3da80dba	0.08205743
20	0x3d0f8e12	0.0350476
21	0x3d197162	0.037461646
22	0xbdb3fa25	-0.08787946
23	0x3d9f09a7	0.07765513
24	0x3e14edef	0.1454389
25	0xbcec0e67	-0.028815461
26	0xbc963818	-0.018337294
27	0x3e1b824e	0.15186426
28	0x3e186e77	0.14885889
29	0x3d7464a2	0.059666283
30	0xbdbfdaad	-0.09367881
31	0x3e22241d	0.15834089
32	0x3e5dcf64	0.21661144
33	0x3dc1c8ce	0.094621286
34	0x3d8a472b	0.067518555
35	0x3dabdfd3	0.083923005
36	0xbb7a619a	-0.0038205148
37	0x3ddb00bb	0.10693499
38	0xbd92929d	-0.071568705
39	0xbc6818b6	-0.014166048
40	0xbcecb43a	-0.028894532
41	0xbe1b6fef	-0.15179418
42	0x3c1dd356	0.009632906
43	0x3e02481f	0.12722825
44	0x3d3e5e11	0.046476427
45	0x3df5eba8	0.120078385
46	0x3d1dd8b3	0.03853674
47	0x3d8e01ce	0.06933938
48	0x3c161a58	0.009161554
49	0x3d853c6b	0.065056644
50	0xbdf0d2c5	-0.11758951
51	0x3d86b2ac	0.06577048
52	0x3dd35e93	0.10320773
53	0x3d84410e	0.06457721
54	0x3e2ac9e6	0.1667858
55	0xbe1b65b6	-0.15175518
56	0x3df8334c	0.12119159
57	0x3d1ebc6b	0.038753908
58	0x3e93cfee	0.28869575
59	0x3e01ebe3	0.1268764
60	0x3ef119a1	0.47089866
61	0x3e3c5caf	0.18394731
62	0xbbef1763	-0.007296489
63	0xbde2deb1	-0.11077631
64	0x3c97aa6c	0.01851388
65	0xbdb5d9ed	-0.08879457
66	0xbe108ad6	-0.14115462
67	0x3e092f65	0.13396986
68	0xbe06831d	-0.13135953
69	0x3aec62e4	0.0018034843
70	0x3d2b03b2	0.04175157
71	0xbe15e389	-0.14637579
72	0x3e3a6a04	0.18204504
73	0xbc45c39f	-0.0120705655
74	0xbe71cfb5	-0.2361439
75	0x3e1bd4e9	0.15217938
76	0xbe04bfd2	-0.12963799
77	0xbdbbe18a	-0.091738775
78	0xbd37d0cb	-0.044876855
79	0x3ce0e325	0.027452061
80	0x3e0dbd0a	0.13841644
81	0x3e53bef0	0.20678306
82	0x3e1f9d0e	0.15587255
83	0xbe04c2f3	-0.12964992
84	0x3da3cca6	0.07998018
85	0x3e1b7845	0.15182598
86	0x3ac09f7e	0.001469597
87	0xbe389dee	-0.18028995
88	0x3dd4bfd6	0.10388152
89	0x3e843436	0.25821084
90	0xbc3eeb04	-0.011652712
91	0x3dc95a78	0.09831709
92	0x3e1396b3	0.14412956
93	0x3e520f2c	0.205136
94	0x3dcec225	0.10095624
95	0xbc1a0179	-0.009399765
96	0xbdabf9c7	-0.083972506
97	0xbd05e05f	-0.03268468
98	0x3e45680c	0.19277972
99	0xbdbe4cd4	-0.092919976
100	0xbd93d3de	-0.07218145
101	0xbd919f4a	-0.0711046
102	0x3dbaf064	0.09127882
103	0xbe065898	-0.13119733
104	0xbdd19573	-0.10233583
105	0x3d8c6039	0.068542905
106	0x3e61bbb6	0.22044262
107	0xbdde2d79	-0.10848517
108	0xbe10b917	-0.14133106
109	0xbd968ed9	-0.07351465
110	0xbe22bea1	-0.15893032
111	0x3da82047	0.082092814
112	0x3e047895	0.12936623
113	0x3e131cbf	0.14366435
114	0x3e97477f	0.29546735
115	0xbe09b42a	-0.13447633
116	0xbd42b129	-0.047532234
117	0x3de1d436	0.11026804
118	0xbd841b2c	-0.06450495
119	0xbccc2ac1	-0.02492273
120	0x3e22a213	0.15882139
121	0x3e06fe3d	0.13182922
122	0x3dd9470d	0.10609255
123	0x3e2b61c3	0.16736512
124	0x3e2884f5	0.16456969
125	0x3e190ace	0.14945528
126	0x3e6d1f8f	0.2315657
127	0x3dca112a	0.09866555

actor.2.weight f4 [128, 128]
0	0xbdadcdb9	-0.08486504
1	0x3dbd72e5	0.0925043
2	0xbcda184c	-0.026622914
3	0xbde8bca5	-0.11364106
4	0x3e2a5982	0.16635707
5	0x3dd85b86	0.10564332
6	0x3e734731	0.23757626
7	0x3e2126a1	0.15737392
8	0x3cc83611	0.024439843
9	0xbc650ec5	-0.013980572
10	0x3f135c08	0.57562304
11	0xbd8187db	-0.063247405
12	0x3d74008a	0.059570827
13	0x3d714fe9	0.0589141
14	0xbdf65b09	-0.12029082
15	0x3e4308a6	0.19046268
16	0x3e977a7b	0.29585633
17	0x3d7153ce	0.058917813
18	0xb99c9465	-0.000298652
19	0x3d6d0eba	0.057875372
20	0x3cde3d91	0.027128967
21	0xbcbdc4ef	-0.023165194
22	0xbddb1969	-0.10698206
23	0xbe3c1d71	-0.18370606
24	0xbcd6bc23	-0.026212757
25	0x3d9ac9a9	0.07557995
26	0xbcc27419	-0.023737
27	0xbd238edc	-0.039931163
28	0xbd09d14b	-0.033646863
29	0x3cfa7570	0.030573577
30	0xbe6bbf15	-0.23022111
31	0x3becbb89	0.0072245044
32	0xbd442d53	-0.047894787
33	0x3dd48013	0.10375991
34	0x3c95fcd9	0.018309044
35	0xbe92143e	-0.2853107
36	0xbd139066	-0.03602638
37	0xbd0d74b1	-0.034535114
38	0x3d2e13cf	0.04249936
39	0x3e1bf066	0.15228423
40	0xbe12bfff	-0.14331053
41	0xbe3bb866	-0.18332061
42	0xbbeb03f4	-0.007172102
43	0xbecec023	-0.40380964
44	0xbddc679a	-0.10761948
45	0xbd342d5d	-0.043988574
46	0x3da47afe	0.080312714
47	0xbd34569d	-0.044027913
48	0xbe1b8fca	-0.1519157
49	0x3de54b3c	0.111959904
50	0xbe23267a	-0.15932646
51	0x3e3dd738	0.1853913
52	0xbc9c64e0	-0.01909107
53	0xbbfc8276	-0.007705982
54	0xbc85a39e	-0.01631337
55	0xbd1dfab4	-0.038569167
56	0x3de260b2	0.110535994
57	0x3a23e6b9	0.0006252337
58	0xbd2bc6b7	-0.041937556
59	0xbe21c68b	-0.15798394
60	0x3e745dbc	0.23863882
61	0xbe2133e6	-0.15742454
62	0xbd8b9ad0	-0.068166375
63	0xbe0baca2	-0.13640073
64	0x3e8fd1fd	0.28089896
65	0xbdfe463e	-0.124157414
66	0xbc8cc7ff	-0.01718521
67	0x3d72eefc	0.059309945
68	0x3dbe9445	0.09305624
69	0xbd5db50a	-0.05412773
70	0xbdbde86c	-0.092728466
71	0x3d2d9f8f	0.042388495
72	0x3e1ffd9b	0.15624087
73	0x3d0d6e05	0.03452875
74	0xbbaffda8	-0.0053708144
75	0xbe2d0832	-0.16897658
76	0xbe0999c7	-0.13437568
77	0xbde50eea	-0.11184485
78	0xbdbcc431	-0.09217108
79	0xbdc3b037	-0.09555095
80	0xbd854d90	-0.065089345
81	0x3e84145a	0.25796777
82	0x3cb6b6f7	0.022304041
83	0xbebc8314	-0.36818755
84	0xbc8998eb	-0.01679655
85	0x3d05086a	0.032478727
86	0xbcabb4c3	-0.020960217
87	0xbd029c5b	-0.031887393
88	0xbbffd579	-0.0078074303
89	0xbd99b0fd	-0.07504461
90	0xbd79c913	-0.060982775
91	0x3ca4d73c	0.020122163
92	0xbd173fc7	-0.036926057
93	0xbc80f788	-0.015743032
94	0xbd434543	-0.047673475
95	0xbe1ecb97	-0.15507351
96	0xbcedb1fc	-0.029015534
97	0x3dead018	0.11465472
98	0xbe030960	-0.12796545
99	0x3dfc01b7	0.123050146
100	0x3de393d6	0.11112182
101	0x3bd2931a	0.0064262273
102	0xbea794d8	-0.32730746
103	0x3de1ece0	0.110315084
104	0xbe06a837	-0.13150106
105	0x3e728621	0.23683979
106	0x3e8c8bb4	0.27450335
107	0x3e61424a	0.21997944
108	0xbdc87ecc	-0.097898096
109	0xbdee546d	-0.11637197
110	0x3e2de543	0.16981988
111	0xbdf56c5a	-0.11983557
112	0x39eb69ca	0.00044901512
113	0xbe682857	-0.22671638
114	0x3dd805ec	0.105480045
115	0x3c906ff6	0.017631512
116	0x3abbb760	0.0014321618
117	0x3d8482be	0.064702496
118	0x3d88274e	0.06648122
119	0x3d96aac8	0.07356793
120	0x3e3b7067	0.18304597
121	0x3e4d13d8	0.20027101
122	0x3e1060cb	0.14099424
123	0xbd415e9b	-0.047209363
124	0x3df420e1	0.11920334
125	0x3ce62da1	0.02809793
126	0xbe912c9f	-0.28354356
127	0x3cd6aa0b	0.02620413
128	0xbdae6e0f	-0.08517086
129	0xbd913b3e	-0.07091378
130	0x3e36dcc9	0.1785766
131	0xbb72494f	-0.0036969965
132	0x3d2c8687	0.042120483
133	0x3c7d212e	0.015449805
134	0x3dd9c01a	0.106323436
135	0xb9d6d77e	-0.00040977815
136	0x3d954d63	0.07290151
137	0xbd8caf29	-0.06869347
138	0xbe040540	-0.12892628
139	0x3cf9544a	0.0304357
140	0xbce1257b	-0.027483692
141	0xbdc81a02	-0.097705856
142	0x3bbf2ed4	0.00583444
143	0x3bbd0a06	0.005769017
144	0xbca77bc8	-0.020444766
145	0x3d4061a1	0.046968106
146	0xbc9bb815	-0.019008676
147	0x3e810022	0.25195414
148	0x3b4ac28a	0.0030938708
149	0xbde58d5d	-0.112086035
150	0xbe112228	-0.14173186
151	0xbdedd0c9	-0.11612088
152	0x3d4b4e4e	0.049635224
153	0x3e10f537	0.14156042
154	0x3d3b1d40	0.04568219
155	0xbe0e27c0	-0.13882351
156	0xbd8fe12a	-0.070253685
157	0xba369ca5	-0.0006966091
158	0x3db62925	0.088945664
159	0x3e8159dd	0.25263873
160	0x3d594a93	0.053049635
161	0x3d9a6978	0.07539648
162	0x3d21a71a	0.039466
163	0x3cec7ce0	0.028868139
164	0x3ccbb9c4	0.024868853
165	0x3d501a92	0.05080659
166	0xbc528cea	-0.012850979
167	0x3d2a32c4	0.04155232
168	0x3d7a1dc2	0.061063536
169	0x3c3e6858	0.011621557
170	0xbcdc0ceb	-0.026861629
171	0x3d3321c1	0.043733362
172	0x3bf76e54	0.007550994
173	0x3d95030d	0.072759725
174	0xbdfadce4	-0.12249163
175	0x3f1e8078	0.6191478
176	0x3d69a20d	0.05703931
177	0x3c439ee3	0.011939737
178	0x3d111460	0.03541982
179	0x3e76fcf1	0.24119927
180	0x3e82cad9	0.25545385
181	0x3b9ae768	0.004727293
182	0x3c5bcc59	0.0134154195
183	0x3d267d49	0.040646825
184	0xbd92d70d	-0.07169924
185	0x3d8b69c9	0.06807286
186	0x3dd0ef8c	0.1020194
187	0x3d267737	0.040641036
188	0xbe6e6592	-0.23280933
189	0xbe0b1f90	-0.13586259
190	0x3c23d2d3	0.009998995
191	0xbd10b869	-0.035332117
192	0xbc5babcc	-0.013407659
193	0xbd29db1c	-0.041468725
194	0xbee05c74	-0.43820536
195	0x3d9850d5	0.074372925
196	0xbec55e75	-0.38548627
197	0x3c89f4d0	0.016840369
198	0x3dc46e64	0.09591368
199	0x3d062abb	0.032755595
200	0x3e022568	0.12709582
201	0x3c1b58b6	0.0094816
202	0x3cd70084	0.026245363
203	0x3d2ebf20	0.04266274
204	0x3e508bf1	0.20365883
205	0x3cf76121	0.030197682
206	0x3c8a0731	0.016849132
207	0x3c87a9dc	0.016560487
208	0xbdc4861c	-0.09595892
209	0x3e822343	0.25417528
210	0xbd1c3b7e	-0.038142674
211	0x3e97f0f4	0.2967602
212	0x3e8cc036	0.27490395
213	0x3d9cb07d	0.0765085
214	0xbe2708e0	-0.1631198
215	0xbcd25765	-0.025676439
216	0x3c3d343a	0.011548096
217	0x3d74b0bc	0.05973886
218	0x3db88a7c	0.09010789
219	0x3d9a2295	0.07526127
220	0xbe0b5d91	-0.13609912
221	0xbdc7a15b	-0.09747573
222	0x3d5d3b42	0.05401159
223	0xbcf8f5da	-0.030390669
224	0x3d9dafb9	0.07699532
225	0xbd85a7c2	-0.06526138
226	0x3c976a1e	0.018483218
227	0x3cc03d9d	0.02346688
228	0x3cb6444a	0.02224936
229	0x3d6c1757	0.057639446
230	0x3e10da52	0.14145783
231	0xbd20a50a	-0.039219894
232	0xbd857f4c	-0.065184206
233	0xbbc2ac7c	-0.005940972
234	0xbe2abe43	-0.16674142
235	0xbb5be4b7	-0.0033553073
236	0xbe0a3b3e	-0.13499162
237	0x3c7c57a6	0.015401756
238	0xbe6e1fc2	-0.23254302
239	0xbccef646	-0.025263917
240	0x3d174287	0.03692868
241	0xbe2a0db3	-0.16606788
242	0xbe6c9619	-0.23104133
243	0xbd20fb96	-0.03930243
244	0xbd41d75b	-0.04732452
245	0xbe119e53	-0.14220552
246	0xbd83a5b2	-0.06428088
247	0xbe126313	-0.14295606
248	0xbdc174d5	-0.09446112
249	0xbd859674	-0.06522837
250	0xbe1c3509	-0.15254606
251	0x3c1fe36d	0.009758812
252	0x3c156302	0.009117844
253	0xbcbdaa19	-0.023152398
254	0x3d1d80cc	0.03845291
255	0x3e158a23	0.14603476

actor.2.bias f4 [128]
0	0xbd2fbece	-0.042906575
1	0xbccf2b81	-0.025289299
2	0x3dc9bdea	0.09850676
3	0x3ce42bd9	0.02785294
4	0x3d213f76	0.03936716
5	0x3d2dd101	0.04243565
6	0x3dce03ca	0.100593165
7	0xbd5b6940	-0.05356717
8	0x3d24c9bf	0.040231463
9	0x3dedbf5c	0.116087645
10	0xbbbad2cd	-0.005701399
11	0xbc240e2b	-0.0100131435
12	0xbd878f4c	-0.066191286
13	0x3d0bcd7c	0.034131512
14	0xbdc5c0a5	-0.09655885
15	0xbda45c74	-0.080254465
16	0x3daa3f48	0.08312851
17	0x3d60a78c	0.054847285
18	0x3e02e791	0.12783648
19	0x3e2e7cde	0.1703982
20	0xbd12cbfd	-0.03583907
21	0x3d9c9777	0.07646077
22	0x3dfe6327	0.124212556
23	0x3d9d0c6a	0.076683834
24	0x3b8f1319	0.0043662903
25	0xbdcaf561	-0.099100836
26	0xbcf98d5a	-0.03046291
27	0x3ccae37a	0.024766672
28	0x3d8d8961	0.069109686
29	0x3bfacc3a	0.0076537402
30	0xbb781de5	-0.0037859615
31	0x3d0f4988	0.034982234
32	0x3d16e1cb	0.036836427
33	0xbd349ded	-0.044095922
34	0xbdbd7eb4	-0.09252682
35	0xbad1991e	-0.0015991067
36	0xbd880764	-0.06642035
37	0x3d9e4f58	0.07729977
38	0xbd7a094f	-0.061044034
39	0x3bd40960	0.006470844
40	0xbc42410b	-0.011856328
41	0xbc47fc96	-0.012206217
42	0xbd0e0307	-0.034670856
43	0xbcaf1bfc	-0.021375649
44	0xbd948028	-0.07251006
45	0x3debaf50	0.115080476
46	0x3d0e8c5a	0.03480182
47	0x3cc9d322	0.024636809
48	0x3df59a85	0.11992363
49	0x3c7fbea3	0.015609416
50	0x3dc00ae8	0.0937708
51	0xbe0d51d7	-0.1380075
52	0xbdcd1618	-0.1001398
53	0xbcafedd1	-0.021475704
54	0x3daa621b	0.083194934
55	0xbded60a1	-0.11590696
56	0xbd425272	-0.047441907
57	0x3d2bb3a2	0.041919358
58	0x3d68b38c	0.056811854
59	0x3e258431	0.16163708
60	0x3e5dd6d9	0.21663989
61	0xbe0ede30	-0.13951945
62	0x3dbefc1f	0.09325432
63	0xbdcf4c4a	-0.10121973
64	0x3d1d0d99	0.038343046
65	0x3d7c7a13	0.061639857
66	0x3dca8eca	0.09890516
67	0xbc4136f8	-0.011792891
68	0xbd5c1d78	-0.05373904
69	0xbdd17b9a	-0.10228653
70	0xbdc6876a	-0.09693797
71	0xbd6eb8f1	-0.058281843
72	0xbc82a5c8	-0.015948191
73	0x3d877e38	0.06615871
74	0xbe314b0a	-0.17313781
75	0x3d2cccb6	0.042187415
76	0xbd0b0fd1	-0.03395063
77	0x3b8bb315	0.0042632916
78	0x3d1820a8	0.03714052
79	0xbd43e97a	-0.047830082
80	0x3e1dc4e7	0.15407144
81	0x3ddc0d91	0.10744775
82	0x3e341878	0.17587459
83	0xbbea0141	-0.0071412628
84	0x3dc0ca44	0.09413579
85	0xbda26efc	-0.07931325
86	0xbda7ba81	-0.0818987
87	0xbd4936fa	-0.049124695
88	0xbd97e391	-0.07416452
89	0xbcd54b10	-0.02603677
90	0x3d5a7837	0.053337302
91	0x3cda4702	0.026645187
92	0xbdd4ef19	-0.10397167
93	0x3dd19f45	0.102354564
94	0x3d5636e2	0.052298434
95	0xbd9f3f6d	-0.077757694
96	0x3c427be7	0.011870361
97	0x3d259e09	0.040433917
98	0x3bc2c93f	0.0059444006
99	0x3daa196d	0.08305631
100	0xbd5b8780	-0.05359602
101	0x3c9c4470	0.019075602
102	0xbd326963	-0.043557536
103	0x3d5f9492	0.054585047
104	0x3c3f9a29	0.0116944695
105	0x3d971164	0.07376364
106	0x3d296364	0.041354552
107	0x3d95b2d6	0.07309501
108	0x3d6c8c8a	0.057751216
109	0xbdcb1ea4	-0.099179536
110	0xbc5f3606	-0.01362372
111	0x3c668a82	0.014071109
112	0xbe29a00b	-0.16564958
113	0xbc131593	-0.008977312
114	0xbbd30aee	-0.006440512
115	0x3cf50418	0.029909179
116	0x3d65aad0	0.056071103
117	0xbdacac4a	-0.08431299
118	0x3dd5f3c5	0.10446886
119	0xbd86c482	-0.0658045
120	0xbe3c7654	-0.18404514
121	0xbd6d5d32	-0.057950206
122	0xbcef16fd	-0.029185766
123	0x3da47788	0.08030611
124	0x3c85001d	0.016235406
125	0x3d6a180b	0.057151835
126	0xbbbbf1c3	-0.0057356074
127	0xbd7812e9	-0.06056491

actor.4.weight f4 [64, 128]
0	0x3cc89880	0.02448678
1	0xbd1680ac	-0.036743805
2	0xbd221477	-0.039570298
3	0xbf083573	-0.5320656
4	0xbe867488	-0.2626078
5	0xbda7475d	-0.08167908
6	0xbd33cd8f	-0.043897208
7	0x3e212267	0.1573578
8	0xbda48cce	-0.08034669
9	0x3e0f3fb7	0.13989149
10	0xbeabfc73	-0.3359104
11	0xbe358650	-0.17727017
12	0x3e406149	0.18787111
13	0x3e10ff9d	0.14160009
14	0x3e625f24	0.22106606
15	0x3d6105be	0.054937117
16	0x3e023815	0.12716706
17	0xbf05c057	-0.5224661
18	0x3e1008d8	0.14065874
19	0xbe60e9a5	-0.21964128
20	0x3e4d4788	0.20046818
21	0x3eefd6e6	0.46843642
22	0x3e7f93d6	0.24958739
23	0x3e37f30f	0.17963813
24	0xbc5d192d	-0.013494772
25	0xbe6af586	-0.22945222
26	0xbdfde7a2	-0.12397696
27	0xbe07f1e8	-0.13275874
28	0xbe90f63a	-0.28312856
29	0x3e57e898	0.21084821
30	0x3dbfea90	0.09370911
31	0x3e83d384	0.2574731
32	0xbcb2e2ec	-0.02183672
33	0xbe33efff	-0.1757202
34	0x3d93138e	0.07181464
35	0xbd73c60d	-0.059515048
36	0xbe547e8e	-0.20751402
37	0x3d8f3880	0.069931984
38	0x3e3fb484	0.18721205
39	0x3eb993ac	0.36245477
40	0xbd8565d7	-0.06513565
41	0xbd4e8388	-0.050418407
42	0xbe542079	-0.20715512
43	0xbe86b69b	-0.26311192
44	0x3ec8865b	0.39165005
45	0x3d85e6bb	0.06538149
46	0x3e58e62b	0.21181552
47	0x3e67b6ae	0.2262828
48	0xbe80f2b0	-0.25185156
49	0xbe9575d4	-0.29191458
50	0x3d14b444	0.036304727
51	0xbe33607c	-0.17517275
52	0xbdaa0b4f	-0.08302938
53	0x3d2de830	0.04245776
54	0x3c648174	0.01394688
55	0xbd1800b2	-0.037110038
56	0x3e12c4ae	0.1433284
57	0xbe7542e5	-0.239513
58	0xbe58e920	-0.2118268
59	0xbecee09c	-0.40405738
60	0x3eb4b9f7	0.3529813
61	0xbdba11ca	-0.09085424
62	0xbea3431e	-0.31887144
63	0x3e71501e	0.23565719
64	0x3eba17de	0.36346334
65	0xbe782c37	-0.24235617
66	0x3e586afe	0.21134564
67	0xbde71b15	-0.11284462
68	0xbe35369e	-0.17696616
69	0x3e4c8ccb	0.19975583
70	0x3e1ba28f	0.1519873
71	0xbec60ff7	-0.38684055
72	0x3d6bd9b1	0.057580654
73	0x3d650427	0.055912163
74	0xbde4efac	-0.11178526
75	0x3e3039fa	0.17209616
76	0xbe504559	-0.20338954
77	0x3e98d0ef	0.29846904
78	0xbe33c142	-0.17554191
79	0x3cba165d	0.022715742
80	0xbbe70fc5	-0.0070514404
81	0x3e9fc31e	0.3120355
82	0xbd60db47	-0.05489662
83	0xbed3994d	-0.41327897
84	0xbe9038fa	-0.2816847
85	0x3da4307b	0.080170594
86	0x3edeb595	0.4349791
87	0xbd1e53eb	-0.03865425
88	0x3de42216	0.11139314
89	0x3ea9c7c6	0.33160228
90	0x3c7abf01	0.015304328
91	0xbe91c5ae	-0.2847113
92	0x3f080b4a	0.53142226
93	0x3e7bb9b0	0.24582553
94	0x3d6bf36a	0.057605185
95	0x3d1c6f26	0.038191937
96	0xbde8dc95	-0.11370198
97	0x3c01285b	0.007883157
98	0x3ea93006	0.3304445
99	0xbdafa5ef	-0.08576571
100	0x3bf7974c	0.007555878
101	0x3e730054	0.23730594
102	0xbcbcc32b	-0.023042282
103	0x3e328c9e	0.17436454
104	0x3e7c5c78	0.24644649
105	0x3d393df2	0.04522509
106	0xbe22cc55	-0.15898259
107	0x3c6065d2	0.013696151
108	0xbdae2f38	-0.085051
109	0x3d797f6b	0.06091253
110	0x3e7379ad	0.23776884
111	0xbef7c890	-0.48395205
112	0xbcf8125d	-0.030282194
113	0x3eb0621f	0.3444986
114	0xbccb5f29	-0.02482565
115	0x3e7a7520	0.24458742
116	0x3e247d92	0.16063526
117	0xbe85432e	-0.26027817
118	0x3b88351a	0.004156721
119	0x3e98e310	0.29860735
120	0x3daea676	0.08527844
121	0xbe4dd2db	-0.20099966
122	0xbe2b5ad8	-0.16733873
123	0x3e274664	0.16335446
124	0xbe8e1535	-0.27750555
125	0xbda49b03	-0.08037379
126	0xbe2ae47b	-0.16688721
127	0x3e1765c1	0.1478491
128	0x3e39951a	0.18123284
129	0xbd89b965	-0.06724814
130	0x3e66e55f	0.22548436
131	0xbf189e90	-0.5961695
132	0x3e69938e	0.22810194
133	0x3c84d093	0.016212737
134	0x3d066785	0.032813568
135	0x3e711483	0.23542981
136	0xb96f3584	-0.00022812752
137	0x3e074f83	0.13213925
138	0xbdb84689	-0.089978285
139	0xbe68f983	-0.22751431
140	0xbe77aa21	-0.24185993
141	0xbc77731c	-0.015103128
142	0xbe0cc0f2	-0.13745478
143	0x3da80efc	0.08205983
144	0xbbfbeedd	-0.007688387
145	0xbe243653	-0.16036348
146	0xbd448729	-0.04798046
147	0x3d89ce33	0.067287825
148	0x3da9a19a	0.08282776
149	0x3e872bf3	0.26400718
150	0x3e0f9fde	0.14025828
151	0x3e9632ae	0.2933554
152	0x3e808a36	0.25105447
153	0xbe26c2cf	-0.16285251
154	0xbf00f4c2	-0.5037347
155	0xbe466db7	-0.1937779
156	0xbe978f99	-0.29601744
157	0xbe8e0f0c	-0.27745855
158	0x3d85574f	0.065107934
159	0x3e10c9ce	0.14139482
160	0xbd7396ab	-0.05946986
161	0xbe3fc54d	-0.18727608
162	0x3dcc755e	0.099833235
163	0xbd9c748e	-0.076394185
164	0xbd901009	-0.070343085
165	0x3e221769	0.15829243
166	0xbd25d0c1	-0.040482286
167	0x3b450e76	0.0030068434
168	0x3c22c134	0.0099337585
169	0xbe114a75	-0.1418856
170	0xbe31bdb4	-0.17357522
171	0xbef52b7b	-0.47884735
172	0xbe20d380	-0.15705681
173	0x3d84e19a	0.064883426
174	0x3e875326	0.26430625
175	0xbd9dc854	-0.07704225
176	0x3b039d25	0.002008268
177	0xbe0012d9	-0.1250719
178	0x3c6c724e	0.014431549
179	0xbe70c27b	-0.23511688
180	0xbe7f8dbe	-0.24956414
181	0xbd8eae30	-0.069668174
182	0x3d76e0a3	0.060272824
183	0xbd6c7705	-0.057730693
184	0x3d44bfb6	0.048034392
185	0xbe42410b	-0.18970124
186	0xbe570ce5	-0.21001013
187	0x3e1ec0d3	0.15503244
188	0xbded84ee	-0.1159762
189	0xbd3d0e1b	-0.04615603
190	0xbb83e846	-0.004025492
191	0xbe9c2968	-0.3050034
192	0x3e428e2c	0.18999547
193	0x3da2f1d5	0.07956282
194	0x3e49aacb	0.19694059
195	0x3d5424ea	0.051793016
196	0xbe5826a1	-0.21108486
197	0x3e00b94a	0.12570682
198	0x3e4bdd30	0.19908595
199	0x3d2b9415	0.04188927
200	0x3e04f2ee	0.12983295
201	0x3e57bc39	0.21067895
202	0xbddd3ff9	-0.108032174
203	0x3e31ab4b	0.173505
204	0xbe9417be	-0.28924364
205	0xbec4b0e0	-0.38416195
206	0x3d733d3a	0.059384562
207	0x3de0b7a0	0.10972524
208	0xbe5bf474	-0.2147997
209	0xbd8a1de2	-0.06743981
210	0xbd79d7ce	-0.060996823
211	0x3e7123a5	0.23548754
212	0xbdba8100	-0.09106636
213	0xbf00afaf	-0.5026807
214	0xbd50a58a	-0.05093912
215	0x3ba5fd21	0.0050655757
216	0x3ded4f3f	0.115873806
217	0x3eb909d2	0.36140305
218	0x3e13f447	0.14448653
219	0x3ec511fa	0.38490278
220	0x3e2c1f36	0.16808781
221	0xbda44966	-0.08021812
222	0x3e875c65	0.2643768
223	0x3e9cdba6	0.30636328
224	0x3d007e35	0.03137036
225	0xbe936f51	-0.28795865
226	0x3dd81fe2	0.10552956
227	0x3d549346	0.051898263
228	0xbece3425	-0.40274158
229	0xbd75a863	-0.05997504
230	0x3e6a8398	0.22901762
231	0x3c961c7f	0.018324135
232	0x3d9a576a	0.07536204
233	0xbc950d06	-0.018194687
234	0x3de3d783	0.1112509
235	0x3e8c079c	0.27349555
236	0x3dfefbe9	0.12450392
237	0xbc8cac20	-0.01717192
238	0xbd22c735	-0.03974076
239	0x3e5c3d41	0.21507742
240	0xbe6e18cf	-0.23251651
241	0x3da883d2	0.08228268
242	0x3ee6d9eb	0.45088133
243	0x3e029408	0.12751782
244	0x3ea551bb	0.32288918
245	0xbea6796d	-0.32514516
246	0x3d8cd167	0.06875878
247	0x3e47fd87	0.19530307
248	0xbdbe3b3d	-0.092886426
249	0xbe1001de	-0.14063212
250	0x3d935096	0.07193105
251	0xbe0a228c	-0.13489741
252	0x3e014c2f	0.12626718
253	0x3e5d151a	0.21590081
254	0x3de2394e	0.11046086
255	0x3d8ce68b	0.0687991

actor.4.bias f4 [64]
0	0x3dc294e5	0.09501056
1	0x3dbe8d47	0.0930429
2	0xbe7f5b9d	-0.24937291
3	0x3dc9bf49	0.09850938
4	0x39e20a35	0.00043113684
5	0xbc8e2c9e	-0.01735526
6	0x3da05f15	0.078306355
7	0x3dcacb8c	0.09902105
8	0x3c806df5	0.015677432
9	0x3e2509eb	0.16117065
10	0x3e0e14d5	0.13875134
11	0x3c74b512	0.014935749
12	0xbe0d2e65	-0.1378723
13	0xbc372a8c	-0.011179578
14	0xbc9d171f	-0.019176064
15	0x3dea1957	0.114306144
16	0x3d000a68	0.031259924
17	0x3d162445	0.036655683
18	0xbbffa6f4	-0.007801885
19	0xbd6629b5	-0.05619212
20	0x3c95c2f8	0.018281445
21	0xbda6f34e	-0.081518754
22	0x3d3a545d	0.04549061
23	0x3d38aa1d	0.045084108
24	0x3dbae990	0.0912658
25	0xbd52e34d	-0.051486302
26	0x3ce1854c	0.027529381
27	0x3dc271d7	0.094943695
28	0xbdd7adfd	-0.105312325
29	0x3da26f2e	0.07931362
30	0xbd3d825b	-0.046266895
31	0x3d8e0331	0.069342025
32	0x3dd8e482	0.105904594
33	0x3daeef49	0.08541734
34	0x3b9543b2	0.004555189
35	0x3e20aa5c	0.15689987
36	0x3dba7944	0.09105161
37	0xbb9ed901	-0.004847646
38	0x3e095480	0.1341114
39	0xbd6d8ef6	-0.057997666
40	0xbb537656	-0.0032266579
41	0xbc8d8212	-0.017273936
42	0x3ce2868a	0.027652044
43	0x3da4109b	0.0801098
44	0x3d0dbe8d	0.03460555
45	0x3d03dc61	0.03219259
46	0x3df158ad	0.11784492
47	0x3df2d999	0.1185791
48	0x3de21177	0.110384874
49	0xbc736a31	-0.014856861
50	0x3d6deddc	0.05808817
51	0x3dcf5fd1	0.101256974
52	0x3deb146e	0.11478506
53	0x3e38174d	0.17977639
54	0xbd93b9f9	-0.07213206
55	0x3d52895b	0.051400524
56	0xbbd28b60	-0.006425306
57	0x3c877f9c	0.016540341
58	0x3da6594e	0.08122502
59	0xbc684855	-0.014177402
60	0x3e3c8f28	0.18413985
61	0x3df9916e	0.12185942
62	0x3d52895e	0.051400535
63	0xbc315012	-0.010822313

actor.6.weight f4 [15, 64]
0	0x3dd9f3cd	0.106422044
1	0xbe0fa604	-0.14028174
2	0xbeba7fa7	-0.36425516
3	0x3eb74cb4	0.35800707
4	0x3f0d79b5	0.55263835
5	0xbef75a70	-0.48311186
6	0x3dc562ab	0.0963796
7	0xbe00988c	-0.12558192
8	0xbdccfc75	-0.1000909
9	0x3ebd9224	0.3702556
10	0x3e614776	0.21999916
11	0x3e9c0089	0.30469158
12	0xbe8e8085	-0.27832428
13	0x3eceaffe	0.40368646
14	0x3ee231ec	0.44178712
15	0x3e611f65	0.21984632
16	0x3e3e0ec7	0.18560325
17	0xbe720240	-0.23633671
18	0x3d2df7e8	0.04247275
19	0x3ede86c1	0.43462184
20	0x3ee2f73f	0.4432926
21	0x3e127c8a	0.1430532
22	0x3e60d184	0.21954924
23	0x3e943ce6	0.28952712
24	0xbe4e3efa	-0.20141211
25	0xbf1a294f	-0.6021928
26	0xbe459ac0	-0.19297314
27	0xbeef16f4	-0.466972
28	0xbdc941e3	-0.0982702
29	0x3d157f4c	0.036498353
30	0xbf1c7742	-0.61119473
31	0x3e506dfc	0.20354456
32	0x3ea66298	0.32497096
33	0xbdb64a73	-0.08900919
34	0x3ebca049	0.36841038
35	0xbda1bb7f	-0.0789709
36	0xbedaa62c	-0.42704904
37	0x3ec793c0	0.38979912
38	0x3cc77ecf	0.02435246
39	0xbebe547a	-0.37173826
40	0x3dd44e36	0.1036648
41	0xbd833f2d	-0.06408534
42	0x3e3ed24a	0.18634906
43	0xbe8c68ca	-0.27423698
44	0xbec0ab01	-0.37630466
45	0x3e8e174c	0.2775215
46	0xbe9fec64	-0.3123504
47	0x3e163b25	0.14671
48	0x3e7a3d9a	0.24437562
49	0xbf00ed1b	-0.50361794
50	0xbf1b7ea0	-0.6074009
51	0x3e8c3c88	0.27389932
52	0x3e935e1f	0.28782746
53	0x3e32a2c4	0.17444903
54	0xbf4bab09	-0.79557854
55	0x3d24ec3e	0.04026436
56	0xbe6339e9	-0.2219006
57	0x3e5630e7	0.20917092
58	0xbf1565bf	-0.5835838
59	0xbec1a2d7	-0.3781955
60	0x3e3dd319	0.18537559
61	0x3eb08546	0.3447668
62	0x3e1ce376	0.15321144
63	0x3e713540	0.2355547
64	0x3d1d8d05	0.038464565
65	0x3ecb5d92	0.39719826
66	0x3f2000e7	0.62501377
67	0xbed339c7	-0.41255018
68	0xbed10fcb	-0.40832362
69	0x3e5c1738	0.21493232
70	0xbe59f8f8	-0.2128638
71	0x3e985a40	0.29756355
72	0xbe4cd972	-0.20004824
73	0xbe7b66ff	-0.24551009
74	0x3ec03ff6	0.37548798
75	0x3e87484e	0.26422352
76	0x3c2a9404	0.010411266
77	0xbe64b4cc	-0.22334594
78	0x3e334a40	0.17508793
79	0xbe861ed2	-0.2619539
80	0x3d00f1f0	0.03148073
81	0x3ec43831	0.3832412
82	0x3e874780	0.26421738
83	0xbe407b22	-0.18796971
84	0xbf149665	-0.58041984
85	0x3e97a738	0.29619765
86	0xbf0679fb	-0.5252988
87	0x3e777d63	0.24168925
88	0x3eec8c5b	0.46200833
89	0x3eea1ecd	0.45726624
90	0xbe7a6713	-0.24453382
91	0x3ec35818	0.38153148
92	0xbf062533	-0.5240051
93	0x3f0e7856	0.5565237
94	0x3e9c3633	0.305101
95	0xbee1abd7	-0.44076416
96	0xbe7ab6e1	-0.24483825
97	0xbc818ac2	-0.015813235
98	0x3bb5c106	0.005546692
99	0x3ebf1618	0.37321544
100	0x3edd3284	0.43202603
101	0xbe91ccc3	-0.28476533
102	0x3d352ae9	0.044230375
103	0xbef8a747	-0.48565122
104	0x3ddd7a42	0.108143345
105	0xbeade707	-0.33965322
106	0xbeb84300	-0.35988617
107	0x3d5d249e	0.05399
108	0x3e99ddb1	0.3005195
109	0xbf113fc4	-0.56737924
110	0x3ee81d08	0.4533465
111	0x3dfbc34c	0.12293109
112	0xbe1247a1	-0.14285137
113	0x3ecbcbd0	0.39803934
114	0x3e833b3c	0.2563113
115	0xbe85e8a6	-0.2615406
116	0xbf0af106	-0.5427402
117	0x3d846da7	0.06466227
118	0x3eb868b8	0.36017394
119	0x3ebdd1e7	0.37074205
120	0x3c820640	0.01587212
121	0x3cfc9c9d	0.030836398
122	0xbeb3f02c	-0.35144174
123	0xbe1f4ed3	-0.15557413
124	0x3e7b747b	0.24556153
125	0x3d7a4dcf	0.06110936
126	0xbf03f357	-0.5154318
127	0xbe1c6f64	-0.15276867
128	0x3e3dae63	0.18523555
129	0x3d45070f	0.048102435
130	0x3df89138	0.12137073
131	0xbe2297d7	-0.15878235
132	0x3e8dfb14	0.2773062
133	0x3e0e7ffa	0.13916007
134	0xbe8c72bb	-0.27431282
135	0x3cc35913	0.023846185
136	0x3efaa671	0.4895511
137	0xbe9ba471	-0.30398896
138	0xbf53e4bf	-0.82770914
139	0xbea474b2	-0.3212028
140	0x3e5efa13	0.21775083
141	0xbe31ad17	-0.17351185
142	0xbee14b0e	-0.44002575
143	0xbf0a4df0	-0.54025173
144	0x3e9d93df	0.3077688
145	0xbe08b58f	-0.13350509
146	0xbd2763b0	-0.040866554
147	0x3eaa7a10	0.3329625
148	0x3ead7885	0.33881012
149	0xbe33ab90	-0.17545915
150	0x3ee05dd4	0.43821585
151	0xbbbf87cb	-0.005845045
152	0xbe170c8c	-0.1475088
153	0xbdaf389b	-0.085557185
154	0x3eca740d	0.39541665
155	0xbf7522e7	-0.9575638
156	0xbd37b2c8	-0.044848233
157	0xbe63551a	-0.22200432
158	0xbe424af1	-0.189739
159	0x3cd88eea	0.026435334
160	0xbf2b5955	-0.66933185
161	0xbe7ab551	-0.24483229
162	0xbf3b6800	-0.73205566
163	0xbf1cc6e7	-0.61241
164	0xbe9ce606	-0.30644244
165	0x3d87aba3	0.06624534
166	0x3e6b6166	0.22986373
167	0x3e728e62	0.23687127
168	0xbef7e58f	-0.48417327
169	0x3e5d253e	0.21596238
170	0xbf45bc52	-0.7724048
171	0xbf0db44c	-0.55353236
172	0xbebabce9	-0.36472252
173	0x3e0585c5	0.1303931
174	0xbe32e097	-0.17468487
175	0xbd634b99	-0.055492017
176	0xbe83b78b	-0.2572597
177	0xbc9d9b1b	-0.019239
178	0x3ecc99e8	0.3996117
179	0x3c7b35f6	0.0153326895
180	0x3e4a0ccd	0.19731446
181	0xbef14cf3	-0.4712902
182	0x3e8b3c2c	0.27194345
183	0x3f1e3147	0.6179394
184	0x3eb48af7	0.35262272
185	0x3e550ded	0.20806094
186	0x3ea63b96	0.32467335
187	0x3e1354c8	0.1438781
188	0xbe8db45c	-0.27676666
189	0xbe5d64ff	-0.21620558
190	0x3d85b073	0.06527796
191	0x3f4a18d2	0.7894412
192	0x3f17623c	0.5913427
193	0x3ee2ff1f	0.44335267
194	0xbed3e972	-0.41389042
195	0x3ddc664b	0.10761698
196	0xbf201277	-0.62528175
197	0x3ed38a11	0.41316274
198	0xbd8cd784	-0.06877044
199	0xbe93f1f2	-0.28895527
200	0x3e9a001d	0.3007821
201	0x3e0dde24	0.13854271
202	0xbe45ca97	-0.19315563
203	0x3ec8caf7	0.3921735
204	0xbebe0a53	-0.37117252
205	0xbdf5915f	-0.11990618
206	0x3c2dd7b6	0.0106105115
207	0x3e77ca87	0.24198352
208	0xbfba94d5	-1.457667
209	0xbec3ffa3	-0.38280973
210	0xbf1f4b62	-0.622244
211	0xbd88918f	-0.06668388
212	0x3dfe46a7	0.124158196
213	0xbeea9781	-0.45818713
214	0x3e0c7b06	0.13718805
215	0xbeab1abd	-0.33418837
216	0x3e4d01a0	0.20020151
217	0x3ed3af4c	0.41344678
218	0x3ef5d2ea	0.48012477
219	0x3eb6a824	0.35675156
220	0x3f2a12db	0.6643502
221	0xbd0bb458	-0.034107536
222	0x3e835a30	0.25654745
223	0xbe9d3dbd	-0.30711165
224	0xbe5556fe	-0.20833966
225	0xbeb827ba	-0.3596781
226	0xbf0420c0	-0.5161247
227	0xbf2b3fd1	-0.6689425
228	0x3d57b2ba	0.05266068
229	0xbdbfef8b	-0.09371861
230	0x3e934254	0.28761542
231	0x3f069127	0.52565235
232	0xbecfe883	-0.4060708
233	0x3e9b3244	0.30311787
234	0xbed70ddb	-0.42002758
235	0xbd679483	-0.056538116
236	0x3f06b642	0.52621853
237	0xbd231604	-0.039815918
238	0x3e934872	0.2876621
239	0x3e8e4244	0.27784932
240	0x3cb4a28b	0.022050163
241	0x3e947595	0.28995958
242	0x3dfe1239	0.124058194
243	0x3e953e79	0.29149225
244	0x3e14aef4	0.14519864
245	0x3e8767aa	0.26446277
246	0x3f342a47	0.7037701
247	0xbf748e2e	-0.9552945
248	0xbf3c9006	-0.7365726
249	0x3dcf85b6	0.10132925
250	0x3ed561b1	0.41676095
251	0x3f04a554	0.5181477
252	0xbe9e1800	-0.30877686
253	0xbecbe39a	-0.39822084
254	0xbde79069	-0.11306841
255	0xbe418681	-0.18898965

actor.6.bias f4 [15]
0	0x3dc56e6c	0.09640202
1	0x3cd10934	0.025517084
2	0xbdd60183	-0.10449507
3	0x3e26dac6	0.16294393
4	0x3d38bb4c	0.045100495
5	0xbd8494fe	-0.064737305
6	0xbd64270c	-0.0557013
7	0x3d801efd	0.062559105
8	0xbe3c6f46	-0.18401822
9	0x3e4eb169	0.20184864
10	0xbd5c6ac3	-0.053812753
11	0xbe5408ef	-0.20706533
12	0x3d8d1885	0.06889442
13	0x3dcb9a4b	0.099415384
14	0xbdcc2922	-0.09968783

critic.0.weight f4 [128, 30]
0	0xbf139a4b	-0.5765731
1	0xbf314b99	-0.6925598
2	0xbf326bfa	-0.6969601
3	0xbf368362	-0.71294224
4	0xbef7deb4	-0.48412097
5	0xbd238316	-0.039919935
6	0x3cfe261a	0.031024028
7	0xbe2ebf91	-0.17065264
8	0x3db530ec	0.08847222
9	0xbe8efae3	-0.27925786
10	0xbe515bf3	-0.20445232
11	0xbeaf6edb	-0.34264264
12	0xbe73fdd6	-0.238273
13	0xbe3382cf	-0.17530368
14	0xbd14afef	-0.036300596
15	0xbe84125a	-0.2579525
16	0xbf006833	-0.50158995
17	0xbe8fb9ce	-0.28071445
18	0xbe8ce751	-0.2752023
19	0x3f00153b	0.50032395
20	0xbf146fa2	-0.5798284
21	0xbdbc0870	-0.09181297
22	0xbe0f7d06	-0.14012536
23	0x3d880640	0.06641817
24	0xbf2981c4	-0.6621363
25	0x3d3e2399	0.046420667
26	0x3e272442	0.16322425
27	0xbe94119e	-0.2891969
28	0xbe474071	-0.19458176
29	0xbe31a97d	-0.17349811
30	0xbf62509f	-0.8840427
31	0xbf2984ab	-0.6621806
32	0xbed7ea34	-0.4217087
33	0xbe678da0	-0.2261262
34	0x3eaf339b	0.3421906
35	0xbec884a9	-0.39163712
36	0xbf33c2d5	-0.70219165
37	0xbfa4f325	-1.2886702
38	0xbfaa08ea	-1.328397
39	0xbe8c60a4	-0.2741748
40	0x3f866929	1.0500842
41	0xbf5f2c80	-0.87177277
42	0xbf84368b	-1.0329145
43	0xbf4886c9	-0.78330666
44	0xbeac08ac	-0.33600366
45	0xbf4f8002	-0.810547
46	0xbeed6cdf	-0.46372125
47	0x3d802d22	0.062586084
48	0x3f4d7d0a	0.8026892
49	0x3f18110f	0.5940103
50	0xbe028045	-0.12744243
51	0xbf079e4d	-0.5297592
52	0xbf531d03	-0.82466143
53	0xbefc5e6c	-0.49290788
54	0x3bfdeef3	0.007749432
55	0x3d6b5099	0.05744991
56	0xbfb7ab6f	-1.4349192
57	0x3ed76674	0.42070353
58	0x3f33fb86	0.7030567
59	0xbee41a78	-0.44551444
60	0x3e5fc0b7	0.21850859
61	0xbe4f30c2	-0.20233443
62	0xbd2507c3	-0.040290605
63	0xbec8ba2b	-0.39204535
64	0xbd10bff3	-0.035339307
65	0xbe9cc951	-0.30622342
66	0x3e44b992	0.19211414
67	0x3ef5bb2e	0.4799437
68	0x3ee90f36	0.45519418
69	0x3e4948b1	0.19656636
70	0xbdd95ede	-0.106137976
71	0xbeb39332	-0.3507324
72	0xbe572e5d	-0.2101378
73	0x3d658241	0.056032423
74	0x3f0e450c	0.5557411
75	0xbeabfae5	-0.33589855
76	0x3e3121ea	0.17298093
77	0x3e698f56	0.22808585
78	0x3d5462fb	0.051852208
79	0x3fc0eff1	1.5073224
80	0xbf31c297	-0.69437546
81	0xbddfa840	-0.10920763
82	0x3e86d148	0.26331544
83	0x3e79ccaf	0.24394487
84	0x3e8bf77e	0.2733726
85	0x3e10eb12	0.14152172
86	0x3f3aa871	0.7291327
87	0xbf2cf087	-0.67554516
88	0x3e0b3d6f	0.13597654
89	0xbdae80ee	-0.08520685
90	0xbd9baaad	-0.07600913
91	0xbdec11a6	-0.11526804
92	0x3d40fa85	0.047113914
93	0xbe857a54	-0.2606989
94	0xbe63a1ce	-0.22229692
95	0xbe332c51	-0.17497374
96	0xbc6b0a4b	-0.014345716
97	0x3e17f9c9	0.14841379
98	0x3d9f0763	0.07765081
99	0x3de3e566	0.11127739
100	0x3b02ec48	0.001997726
101	0xbe609405	-0.21931465
102	0xbd16079c	-0.03662835
103	0xbbfe4adf	-0.00776039
104	0x3db3b017	0.08773821
105	0xbdd97d11	-0.10619558
106	0x3d1b7acd	0.03795891
107	0xbe60fc34	-0.21971208
108	0x3bec08ca	0.007203196
109	0x3d014aed	0.031565595
110	0xbe0b322d	-0.1359336
111	0xbe5d3009	-0.21600355
112	0xbe312020	-0.17297411
113	0xbda03b9e	-0.07823871
114	0xbe4a6d18	-0.19768178
115	0xbdc42811	-0.095779546
116	0xbe4f2135	-0.20227511
117	0x3dbc4604	0.09193042
118	0xbde0df92	-0.10980143
119	0x3de9a223	0.11407878
120	0xbfc4f419	-1.5386993
121	0xbfc44d09	-1.5336009
122	0xbf9c2162	-1.2197688
123	0xbf8dcbb0	-1.1077785
124	0xbf979699	-1.1842834
125	0x3f33d000	0.7023926
126	0x3f6080f4	0.87696767
127	0xbe29d541	-0.16585256
128	0x3f18b0fe	0.5964507
129	0x3ee30c72	0.44345433
130	0x3ebcf634	0.36906588
131	0x3d0109d9	0.031503532
132	0x3e8d28f3	0.27570304
133	0x3e8273ab	0.25478873
134	0x3f0bd6cb	0.54624623
135	0xbe4d2373	-0.20033054
136	0xbdc41467	-0.09574204
137	0xbd3e071c	-0.0463935
138	0x3cb08342	0.021546964
139	0xbf0a282a	-0.53967535
140	0xbfb5a100	-1.4189758
141	0x3e4de3e0	0.20106459
142	0x3f150276	0.5820688
143	0xbdcd5506	-0.100259826
144	0x3eb95ad3	0.36202106
145	0xbf2cd572	-0.6751319
146	0xbf8e5fd9	-1.1123
147	0x3e3c0599	0.1836151
148	0x3f96ea08	1.1790171
149	0x3d84bd75	0.064814486
150	0x3f8bec47	1.0931481
151	0x3fa23dae	1.2675073
152	0x3f750828	0.9571557
153	0x3f64d28c	0.8938377
154	0x3f76ac15	0.96356326
155	0x3f407713	0.7518169
156	0xbbe3ede8	-0.006955851
157	0x3f2903d7	0.66021484
158	0x3e908a94	0.28230727
159	0x3e2355ab	0.15950648
160	0x3f8571d1	1.0425359
161	0xbe59d66b	-0.212732
162	0x3ca8ddc5	0.02061356
163	0x3ec1cdef	0.37852427
164	0x3eafdb41	0.34346965
165	0xbeb332f1	-0.34999803
166	0xbf56ccc3	-0.8390619
167	0xbf1a42a6	-0.6025795
168	0x3ed1ada7	0.409528
169	0xbf841f20	-1.0321999
170	0xbe944246	-0.28956813
171	0xbe2250fc	-0.15851206
172	0xbe471e35	-0.19445117
173	0x3ee81c10	0.4533391
174	0xbe5361b9	-0.20642747
175	0x3ef07117	0.4696128
176	0xbeb9ac57	-0.36264297
177	0x3e641cec	0.22276658
178	0xbee10559	-0.43949392
179	0x3e890da2	0.26768214
180	0xbd80ff75	-0.062987246
181	0xbe81e0aa	-0.25366718
182	0xbe6668d5	-0.22500928
183	0xbd93b9be	-0.07213162
184	0xbea189be	-0.315504
185	0xbe17b45f	-0.148149
186	0xbe448bfc	-0.19194025
187	0xbe5b3f9e	-0.21410987
188	0xbe3f4966	-0.18680343
189	0xbeb1f990	-0.34760714
190	0xbe08ea79	-0.13370694
191	0xbdcc7e78	-0.099850595
192	0xbd68d575	-0.056844193
193	0xbec9304d	-0.39294663
194	0xbec0a859	-0.3762844
195	0xbdfc74b8	-0.1232695
196	0xbe92eea9	-0.28697708
197	0xbdbfdb04	-0.09367946
198	0xbb0363d0	-0.0020048507
199	0xbe17c9a6	-0.14823017
200	0xbdb980c1	-0.09057761
201	0xbea9402a	-0.33056766
202	0xbd995fa5	-0.07488946
203	0x3d8cd8f8	0.06877321
204	0xbe3e74f6	-0.18599305
205	0xbb1ccb62	-0.0023924937
206	0xbdd9d05f	-0.10635447
207	0x3f1410f7	0.57838386
208	0x3e34e3fb	0.17665093
209	0x3d250d40	0.04029584
210	0x3f7ef402	0.99591076
211	0x3fa3381a	1.2751496
212	0x3fa7b3f5	1.3101794
213	0x3fb24996	1.3928707
214	0x400b633e	2.1779323
215	0xbed1558f	-0.4088559
216	0x3f6c9559	0.92415386
217	0x3ec4bb55	0.38424173
218	0x3c9db86f	0.019252984
219	0x3e106cbe	0.14103982
220	0xbf9a808b	-1.2070478
221	0x3ea483fe	0.32131952
222	0x3ef85c13	0.48507747
223	0x3ee602bb	0.44923958
224	0x3edb67b9	0.42852572
225	0x3ee1af07	0.44078848
226	0x3d4235e4	0.047414675
227	0xbe9e321e	-0.3089761
228	0x3ed8afef	0.42321727
229	0x3daae287	0.08343988
230	0x3eb06200	0.34449768
231	0x3f207e02	0.6269227
232	0x3e9d1ded	0.30686894
233	0x3e1c26c5	0.15249164
234	0x3e2b049c	0.16700977
235	0xbf7dd4e8	-0.99152994
236	0xbe862899	-0.2620285
237	0xbf27cb08	-0.65544176
238	0xbf3a306e	-0.7273015
239	0x3f1a3ab4	0.60245824
240	0x3eaca435	0.3371903
241	0x3e2e7333	0.17036133
242	0xbe856aa6	-0.2605793
243	0xbf3fad8b	-0.7487418
244	0xbfdb0ea5	-1.7113844
245	0xbe64ae23	-0.22332053
246	0xbf7830d6	-0.9694952
247	0xbf0356c6	-0.5130428
248	0x3dd4c3d3	0.10388913
249	0x3e4f30e1	0.2023349
250	0xbe922183	-0.28541192
251	0x3ecb7c3c	0.3974322
252	0x3e9ba6b6	0.30400628
253	0x3e3dc3ed	0.18531771
254	0x3eb16cce	0.34653324
255	0x3f1f38ab	0.62195843

critic.0.bias f4 [128]
0	0xbda4515d	-0.08023331
1	0xbf3abcfc	-0.7294462
2	0xbd9c7b92	-0.07640757
3	0xbe58d652	-0.21175507
4	0x3e819a11	0.25312856
5	0x3e14f2b1	0.14545704
6	0xbdcb56fa	-0.09928699
7	0xbe478444	-0.19484049
8	0x3e72adda	0.23699132
9	0xbf4e8587	-0.80672497
10	0xbef771c9	-0.48329
11	0xbdf3669c	-0.118848056
12	0xbdf0d4cf	-0.1175934
13	0x3fbb8af6	1.4651783
14	0xbe0eb075	-0.139345
15	0xbd90faeb	-0.07079109
16	0xbda35a3e	-0.07976197
17	0xbf3c438d	-0.73540574
18	0xbf043e62	-0.5165769
19	0x3f254e27	0.64572376
20	0xbefed25f	-0.49769875
21	0x3ec9dd1c	0.39426506
22	0xbe749d97	-0.23888241
23	0x3d89ff17	0.06738108
24	0x3d4b4066	0.049621962
25	0x3fa38c1b	1.2777132
26	0xbedf743d	-0.4364337
27	0x3e7f29ea	0.24918333
28	0xbf921df7	-1.1415395
29	0x3f0e9d5f	0.5570888
30	0xbef1560c	-0.4713596
31	0x3e768835	0.24075396
32	0xbd8c87c1	-0.068618305
33	0x3c927313	0.017877137
34	0x3e807de6	0.25096053
35	0xbf1aaee5	-0.6042312
36	0x3f0c4b1d	0.54802114
37	0xbf65ea91	-0.89811045
38	0xbea9461d	-0.33061305
39	0x3e812e89	0.25230816
40	0xbc6b49c3	-0.014360848
41	0xbf0f7076	-0.56030977
42	0xbe0ef992	-0.13962391
43	0xbea0575d	-0.31316653
44	0xbeead5f8	-0.4586637
45	0xbf60c544	-0.87801003
46	0xbecbf1fb	-0.39833054
47	0xbc91c141	-0.017792346
48	0x3e863c09	0.26217678
49	0xbf050811	-0.51965433
50	0xbf1e70c4	-0.61890817
51	0xbe232940	-0.15933704
52	0xbe750fb1	-0.23931767
53	0xbc64d9c5	-0.013967936
54	0x3c86628d	0.016404415
55	0x3c22d43e	0.009938298
56	0xbdaa590e	-0.08317767
57	0xbd1b86dd	-0.037970413
58	0xbfaa4675	-1.3302752
59	0xbf09c02d	-0.5380886
60	0xbbc77c7b	-0.0060878373
61	0xbf5ab096	-0.854257
62	0xbe17fc82	-0.14842418
63	0x3f17b8cb	0.59266347
64	0xbe27a8a9	-0.16372932
65	0xbf0d8d96	-0.5529417
66	0xbf235c93	-0.6381313
67	0xbf13263f	-0.57480234
68	0xbebae8ef	-0.3650584
69	0x3e4b5675	0.198572
70	0xbedcd55d	-0.43131533
71	0x3f483155	0.78200275
72	0xbea08e98	-0.3135879
73	0x3d492909	0.0491114
74	0x3e58eed5	0.21184857
75	0xbe402adf	-0.18766354
76	0xbf2a9341	-0.6663094
77	0xbe112cdf	-0.14177273
78	0xbf1799cf	-0.5921907
79	0xbe395d69	-0.1810204
80	0xbe5b2c2d	-0.2140357
81	0x3ccaeefe	0.024772163
82	0x3ef0e3c2	0.47048765
83	0xbd9ee9f8	-0.0775947
84	0xbf90c90a	-1.1311352
85	0xbe219927	-0.15781079
86	0x3ecadc0d	0.3962101
87	0xbe8383ae	-0.256864
88	0x3d8bfde3	0.068355344
89	0xbea2facf	-0.31831977
90	0x3db4189e	0.08793758
91	0x3e754942	0.23953727
92	0xbe400bd9	-0.1875452
93	0xbf3cab66	-0.73699033
94	0x3cd15e4f	0.025557665
95	0xbdaad651	-0.08341659
96	0xbd1154fd	-0.03548144
97	0xbdeec94a	-0.116594866
98	0xbe1c5f5e	-0.15270755
99	0xbe751529	-0.23933853
100	0x3ed2d6fd	0.41179648
101	0xbe8d7177	-0.2762563
102	0xbfa8637f	-1.3155364
103	0x3e242a58	0.16031778
104	0x3fb63cdb	1.4237322
105	0x3de2daef	0.110769145
106	0x3e2cd16e	0.16876766
107	0x3d3ca81a	0.04605875
108	0xbe2dde69	-0.16979374
109	0xbecdfe41	-0.40233043
110	0xbdda5bf1	-0.10662068
111	0x3dbe941d	0.09305594
112	0x3e5a33ba	0.21308795
113	0xbfd0c6b7	-1.6310643
114	0xbf9e931a	-1.2388642
115	0xbdfa7914	-0.12230125
116	0x3f33bd4c	0.7021072
117	0x3c1427d4	0.009042699
118	0x3ecf5366	0.40493315
119	0xbe3cdc9a	-0.18443528
120	0xbfb025ac	-1.3761497
121	0xbdac9d43	-0.08428433
122	0xbd521d9a	-0.05129776
123	0x3e1a391a	0.15060845
124	0xbdded02b	-0.10879549
125	0xbd1a3baa	-0.037654556
126	0x3c865671	0.01639864
127	0x3f7ad096	0.97974527
