PPO_preTrained/3/PPO_3_0_720.pth (torch, 239631 bytes, 15 tensors)

actor.0.weight f4 [128, 30]
000000 7a 43 dd bd 2d 28 44 be e9 9b ab bd b3 5d 21 be
       -0.10803886 -0.19155951 -0.08379347 -0.157584
000010 c9 8b ca bd 10 0f 9d be 77 f5 f0 bc 35 ca b8 bd
       -0.09889943 -0.30675554 -0.029413922 -0.09022943
000020 20 6d 24 3d bf 83 e8 bd 5a e3 8f be d5 8a ef 3d
       0.040143132 -0.113532536 -0.28103143 0.11696402
000030 75 88 10 3d 80 d0 8d bd 0f 7a 68 bd 00 8d bc 3e
       0.035286386 -0.06924534 -0.05675703 0.36826324
000040 de 6e 8e 3e d2 cb 82 be 38 53 6e 3e c9 50 0b 3d
       0.2781896 -0.25546128 0.23273933 0.03401259
000050 ab e4 72 be e1 3c 6e be 00 24 c0 3d ac 17 55 3e
       -0.23720042 -0.23265411 0.093818665 0.20809811
000060 a1 fd 73 b9 63 eb 89 3e c4 b5 19 be 84 3a 6b 3e
       -0.0002326877 0.26937398 -0.15010744 0.2297154
000070 45 8d 47 bf 7b 79 63 3e 11 bc 50 3e 86 38 e0 bc
       -0.77949935 0.2221431 0.20384242 -0.027370702
000080 6c 59 23 3d ab 52 5a 3e b9 87 95 3e 83 ed 83 be
       0.0398802 0.21320598 0.2920511 -0.25767145
000090 00 2e 89 be 2d 72 e9 bd cf 6a 25 3e df fd e7 bd
       -0.26792908 -0.113987304 0.16154025 -0.11327719
0000a0 f1 bb f2 bd 14 07 00 bd 01 58 41 be b3 a0 22 bc
       -0.11852253 -0.03125675 -0.18881227 -0.009926009
0000b0 73 c7 d6 bd 26 85 b4 3e 1a 25 0f be 8d bb 0d 3e
       -0.10487261 0.35257834 -0.13978997 0.13841076
0000c0 fa d6 6e 3e 3b 59 99 be 0a ec e2 bd a0 12 20 be
       0.23324195 -0.2995089 -0.11080177 -0.15632105
0000d0 65 b3 c0 3d e7 d3 0c bd 1f 40 86 3d b4 2c b7 3e
       0.09409217 -0.034381773 0.06555199 0.35776293
0000e0 c4 a8 51 3e 4f eb b4 3d cc 57 20 3e 02 4a c3 be
       0.20474535 0.08833944 0.15658492 -0.381424
0000f0 50 f5 54 3d 15 8a 39 3e 10 5f c2 bd e2 91 38 3e
       0.05199176 0.1811908 -0.09490788 0.180244
000100 76 d6 8a 3e 9a 4c 82 bc 50 35 2b be 10 c2 02 3e
       0.27116746 -0.015905667 -0.16719556 0.12769341
000110 3e 85 fb 3d 86 7a 82 3d f3 6c d9 bd 7a ac be bd
       0.12281273 0.06371026 -0.106164835 -0.09310241
000120 10 64 3c be dc b4 92 bd b5 dd 99 bd 54 49 c4 3e
       -0.18397546 -0.071634024 -0.075129904 0.38337195
000130 ba e6 94 ba 05 98 4a 3e 6f cd fc 3d a1 18 16 3f
       -0.0011360266 0.19784553 0.12343871 0.5863133
000140 70 f0 38 bd 94 12 49 3d f7 96 26 be 7d 76 20 3d
       -0.045151174 0.049089983 -0.16268526 0.0391755
000150 88 6c 38 3e 41 d2 5a 3f 1a 18 81 3f 37 2d a0 3c
       0.18010151 0.8547707 1.008548 0.01955281
000160 12 0d ed bc d1 37 db 3e dd 34 bf be 90 49 66 bd
       -0.028936896 0.42816022 -0.3734502 -0.0562225
000170 b1 9c 60 3d 04 83 43 be 03 fb cf 3d bf 43 bc be
       0.054836933 -0.19092947 0.101552986 -0.36770436
000180 41 8e ff bd 1b 8e aa 3d f6 0d f6 3b 6c 45 0b 3d
       -0.12478305 0.08327886 0.0075089885 0.034001753
000190 ca 0c 63 3d 8a 31 f7 3d be e6 35 3c 04 1a b9 bc
       0.05543212 0.12069996 0.0111023765 -0.022595413
0001a0 e7 fe 65 bc 6f 56 c4 3e 97 29 59 3e a0 ce ec bb
       -0.014037824 0.38347194 0.21207272 -0.00722678
0001b0 aa b6 f1 3d b0 78 2f be 66 19 0c 3e 14 fd 0e be
       0.118024185 -0.17135882 0.13681564 -0.13963729
0001c0 8a 4d 60 bd 2d 00 58 ba 6a d3 bd 3d 99 7a 9b 3e
       -0.054761447 -0.0008239772 0.0926884 0.30366972
0001d0 d0 90 70 bd 96 5e f7 be 03 9b 14 bf 5b c7 76 3e
       -0.058731854 -0.4831435 -0.5804903 0.24099486
0001e0 c9 59 70 be fd ef 87 bd e1 a2 56 3d 4c 2d 9b bd
       -0.2347175 -0.06637571 0.052401427 -0.07576999
0001f0 f7 b8 c7 be c4 83 d7 3e d5 c6 b5 3d 23 b0 10 bd
       -0.39008304 0.42092717 0.08875815 -0.035324227
000200 36 c3 96 bd 43 3f 92 3d 3d 56 b9 bd 54 4c fb bd
       -0.07361452 0.071409725 -0.09049652 -0.12270418
000210 5d da 23 be 53 72 20 3e e2 dc c0 bd dd 75 41 be
       -0.16001268 0.15668611 -0.0941713 -0.18892618
000220 b5 ba 1a be f9 0e 03 3e 8a 27 9e 3e 0e b6 38 3f
       -0.15110286 0.1279868 0.3088954 0.72152793
000230 6e 87 24 3e 3b 8c 33 be a2 b5 ce 3d 55 73 01 bd
       0.16067287 -0.17533962 0.100932375 -0.03160413
000240 cd 6f 53 3d a6 0d 2f 3e ea 89 2c 3e 6c 6d fc 3e
       0.051620293 0.1709505 0.16849485 0.49302232
000250 9c cd 39 bd 64 b0 99 3d 09 7a 39 be b1 a4 7d 3e
       -0.0453621 0.07504347 -0.18112959 0.24769856
000260 d2 30 ef 3d 4c ac 05 3e 4d f4 86 3e 38 ee e7 be
       0.116792336 0.13054007 0.26358262 -0.45298934
000270 77 a0 47 be 3d a8 31 be ac 6f 03 be 0c e3 26 bd
       -0.19494806 -0.17349334 -0.12835568 -0.040743873
000280 44 50 e1 bd 37 41 ba bd 41 30 d5 3d c1 36 04 be
       -0.110016376 -0.0909447 0.10409594 -0.12911512
000290 bb 1c 50 3c 4a dc 4b 3e 5b c6 bc 3e fa 14 90 3e
       0.012702162 0.19908252 0.36870083 0.28141004
0002a0 5e 3c 8a 3d ee bf 41 3e 2a 33 bb bd 37 f0 99 bc
       0.067497954 0.18920872 -0.09140618 -0.018791301
0002b0 5e 87 07 be 3f 07 a4 bb 35 0d a0 3d cd a6 36 3d
       -0.13235232 -0.0050057466 0.07815019 0.044592667
0002c0 6d a5 a7 3e c3 d4 42 3e 1f 93 c5 be a8 92 a7 3e
       0.32743397 0.19026475 -0.38588807 0.32729077
0002d0 53 b5 80 3e b0 9a aa 3e 9e ab 70 bd 60 00 b9 bd
       0.2513834 0.33321142 -0.058757417 -0.09033275
0002e0 d9 74 b0 3c 6e 90 ab 3e 6d 50 3b 3e a4 81 62 be
       0.021540092 0.3350863 0.18292399 -0.22119766
0002f0 3f b0 99 3d 6b c8 79 bd c8 4f b9 bd 6e 35 b1 bc
       0.075043194 -0.06098215 -0.0904842 -0.021631923
000300 d5 fe 2d 3e 3f 00 53 3c 09 75 ff bd 43 3b a9 be
       0.16991742 0.012878477 -0.124734946 -0.33053026
000310 ec a3 70 3e 04 17 58 3e 7b c3 a7 be 44 57 59 3e
       0.23500031 0.2110253 -0.32766327 0.21224695
000320 e1 04 f6 3d 70 22 85 bd 08 1d b8 bd 34 45 3a 3e
       0.12012649 -0.06500709 -0.08989912 0.18190461
000330 31 e5 54 3d c2 3c 97 3e c0 cf bc be 03 84 f5 3d
       0.051976386 0.29538542 -0.3687725 0.1198807
000340 cf 77 30 bd e1 1a 55 3e 34 14 0b 3f a8 e1 d9 3e
       -0.04308301 0.20811035 0.543277 0.42554975
000350 72 5f fe 3e 7c bf 53 3f 4d ec b2 3e c1 85 da bd
       0.49682194 0.82714057 0.34945908 -0.10670043
000360 b0 dc 19 be 28 96 7c bd e2 75 e5 3c e4 7f 5d 3e
       -0.15025592 -0.061666638 0.028010312 0.21630818
000370 c5 8e 51 3e c8 b8 b6 3d 72 74 d7 3d cb 94 22 bd
       0.20464619 0.08921963 0.10520257 -0.03969268
000380 3c 8a e8 3d bb 3f de 3d 3b 2e 14 be 4a 37 2c 3e
       0.11354491 0.10851999 -0.1447076 0.16817966
000390 a6 ce 19 3e 59 f6 43 3f 34 5d 17 3e f1 0b bd 3c
       0.15020236 0.7654777 0.14781648 0.023076983
0003a0 74 af 84 bd 45 ab 33 3b ed 87 8a bd 0e a1 25 3f
       -0.064787775 0.0027415317 -0.06764207 0.64698875
0003b0 ab 9a f9 3e ab 2d b0 3d 16 18 06 3f 3c b6 21 3d
       0.48750815 0.086024605 0.523805 0.039480433
0003c0 47 6d 1a 3e 03 15 c2 3d 40 b1 84 3d 44 15 2e 3e
       0.15080748 0.09476664 0.0647912 0.170003
0003d0 35 75 3d 3e 14 31 4e 3f f7 d3 a3 3e eb 3e eb 3d
       0.18501742 0.8054364 0.31997654 0.1148661
0003e0 16 1c 6f 3d 59 0d d1 3d e7 ab d9 3e 58 e2 36 3e
       0.058376394 0.10207624 0.42513964 0.17859781
0003f0 aa 6d 3a bd 35 23 56 3e a7 4d 92 3e ca 7c 9b be
       -0.04551474 0.20911868 0.2857487 -0.30368644

actor.0.bias f4 [128]
000000 e9 b6 94 3d 45 3c dc bd d0 3d fe bd 3f c6 23 3e
       0.0726145 -0.10753683 -0.124141335 0.15993594
000010 d9 22 21 be 38 d8 91 bc b6 ed ea bd 85 ec 04 3e
       -0.1573595 -0.017803296 -0.11471121 0.1298085
000020 6a 5b 8f 3e d0 4b 91 3d 7d 33 bb 3e ed 47 4f bd
       0.2799943 0.07094538 0.3656272 -0.050605703
000030 a8 53 b5 bd ed fa 5c bb 88 2e a0 bd 73 a6 2a bc
       -0.08853847 -0.00337189 -0.07821375 -0.010415661
000040 36 6d d7 3d fb 11 55 bd c1 a3 1c bd e1 0e c7 3d
       0.10518877 -0.0520191 -0.038242105 0.09719635
000050 f2 7f d3 3c 92 58 35 3d 0b f3 cb bd 3d cd a3 3d
       0.025817845 0.04427392 -0.09958466 0.079981305
000060 7e 00 18 3e 10 23 1e bd 70 78 d3 bc 1d f6 1e 3e
       0.14843938 -0.038607657 -0.025814265 0.15523572
000070 f0 75 16 3e 52 ea 19 3d c2 5a b7 bd c0 49 27 3e
       0.14693427 0.03757698 -0.089528576 0.16336727
000080 57 4a 66 3e c8 69 cd 3d 9c 0e 85 3d 7a 3d a3 3d
       0.22489296 0.10029942 0.06496927 0.0797071
000090 58 35 1e 3b 2b 16 dd 3d b5 1f 93 bd 4e 47 6a bc
       0.0024140682 0.10795244 -0.07183782 -0.014299227
0000a0 f7 70 d2 bc d6 99 29 be c0 48 64 3c 2c 6c 05 3e
       -0.025688631 -0.1656259 0.013933361 0.13029546
0000b0 5a da ef 3c 2b 6d f0 3d 7c 0a 8f 3c 05 10 6b 3d
       0.029278923 0.11739572 0.017461054 0.057388324
0000c0 f5 e8 c3 3c 48 6c 7b 3d 73 69 e7 bd 76 0e 76 3d
       0.023914794 0.061382562 -0.1129941 0.060072385
0000d0 49 0d d1 3d 90 7f 67 3d a2 f6 2e 3e 14 e1 11 be
       0.10207612 0.056518137 0.1708627 -0.14246017
0000e0 2d 27 fa 3d 0d 1d 1c 3d 2b 34 99 3e 38 4e 0d 3e
       0.122145034 0.038113642 0.29922614 0.1379937
0000f0 3d ae e5 3e 60 c4 37 3e 82 51 4c 3c 3c 73 de bd
       0.44859496 0.17946005 0.012470605 -0.10861823
000100 88 df 90 3c 54 f5 bc bd b1 22 09 be e1 4a 04 3e
       0.017684713 -0.0922648 -0.1339214 0.12919189
000110 e5 8f 01 be 2c 14 24 bc 2e f0 68 3d 7a 3d 18 be
       -0.12652548 -0.010014575 0.05686968 -0.14867201
000120 0a 60 3c 3e d0 c0 1c bc a9 14 46 be c4 0e 22 3e
       0.18396011 -0.009567454 -0.19343819 0.15825945
000130 46 b1 02 be af 77 c2 bd be 3d 65 bd 6e b1 f9 3c
       -0.12762937 -0.09495484 -0.055967085 0.030480113
000140 5f fd 0d 3e 74 73 53 3e 69 b5 23 3e cd bb 17 be
       0.13866185 0.2064951 0.15987171 -0.14817734
000150 e7 22 9c 3d bb ba 16 3e 7d f0 8f 3b 39 c4 31 be
       0.076238446 0.1471967 0.004392682 -0.17360009
000160 eb da c7 3d 49 91 83 3e 11 13 8c bc 28 85 f5 3d
       0.09758552 0.2569678 -0.017098935 0.11988288
000170 7b 7c 1f 3e 42 bd 44 3e 6e 6d bb 3d f5 4f 29 bc
       0.1557483 0.19212821 0.091517314 -0.010334005
000180 ed c0 d2 bd 8b 42 43 bd 72 4f 41 3e d2 fb d1 bd
       -0.10290704 -0.047670882 0.18877962 -0.10253109
000190 cd bc 86 bd b1 24 9a bd f8 0c b7 3d bd 9a fe bd
       -0.0657898 -0.075265296 0.089380205 -0.12431858
0001a0 60 c4 f9 bd 58 d6 7c 3d fd 17 63 3e bf 04 e0 bd
       -0.12195659 0.06172785 0.2217712 -0.10938405
0001b0 46 9c 10 be 7e b2 57 bd 72 b2 1b be 2f cd 4c 3d
       -0.14122114 -0.052660458 -0.1520479 0.050000366
0001c0 94 d7 16 3e 50 cb 06 3e e8 10 a5 3e 9c d4 07 be
       0.14730674 0.13163495 0.3223946 -0.13264698
0001d0 0a 0d 8f bd 53 50 df 3d 32 71 8f bd 54 24 bb bc
       -0.06984909 0.109039925 -0.07004012 -0.022844471
0001e0 63 21 1d 3e 32 b8 0f 3e fb 40 f4 3d 14 62 30 3e
       0.15344767 0.14035109 0.119264565 0.17224914
0001f0 d0 be 29 3e cc e7 19 3e 77 d9 69 3e 05 b0 e6 3d
       0.16576695 0.1502983 0.22836863 0.11264042

actor.2.weight f4 [128, 128]
000000 0d 6a c8 bd 1c 1d 94 3d aa 3e 29 bc 7a c8 d5 bd
       -0.097858526 0.07232115 -0.010329882 -0.104386285
000010 c0 c9 3b 3e 02 97 cb 3d e9 ad 65 3e 7c b5 34 3e
       0.1833868 0.09940912 0.22429623 0.17647356
000020 c7 17 04 3d 59 5b 08 bd 57 15 05 3f 86 df 1e bd
       0.03224924 -0.03329024 0.51985687 -0.038787387
000030 ad ea 4d 3d 66 ea 93 3d 6b c9 06 be 70 c3 28 3e
       0.050272632 0.07222442 -0.13162772 0.16480803
000040 d6 6e a7 3e bf 22 16 3d 90 30 a6 3c c6 76 c9 3d
       0.3270175 0.03665423 0.020286828 0.09837107
000050 79 a9 1b 3d 78 0d 41 bc 49 2e b2 bd 3c 93 37 be
       0.03800342 -0.011782996 -0.087002344 -0.17927259
000060 82 66 4b bd 8f da a9 3d 94 ba 0a bc 10 e8 54 bd
       -0.049658306 0.0829364 -0.008467335 -0.051979125
000070 ae c0 43 bd 40 9e 1c 3d a4 ac 7e be d8 d9 ef 3a
       -0.047791176 0.038236856 -0.24870545 0.0018299175
000080 30 fd c0 bc ab 92 d2 3d f9 7c 06 3d b9 aa 8c be
       -0.02355823 0.10281881 0.032834027 -0.27474
000090 10 ff 2a bd d3 a0 88 bd 26 82 20 3d e0 60 09 3e
       -0.041747153 -0.066713 0.03918662 0.13415861
0000a0 5c 76 3a be 09 4d 3a be c6 3a bf 3c 7a 72 df be
       -0.18209213 -0.18193449 0.023343455 -0.43642026
0000b0 93 a0 90 bd 0a 53 43 bd b5 b8 a6 3d 59 91 50 bd
       -0.07061877 -0.047686614 0.08140699 -0.050919864
0000c0 40 6e 0d be ed f1 e7 3d 4e fd 2e be 7c fa 43 3e
       -0.13811588 0.113254406 -0.17088816 0.19138521
0000d0 4c a3 9f 3c 89 f3 bc 3c 7c 8b cb bc 1d d2 3b bd
       0.019487046 0.023065345 -0.024846785 -0.045854677
0000e0 3c ad ca 3d 09 16 9c bc 5a b7 0c bd 0e 34 02 be
       0.09896323 -0.019053476 -0.034354545 -0.1271517
0000f0 a1 b1 8b 3e 7a 02 1f be 2e 73 8e bd 96 b3 f8 bd
       0.27283958 -0.15528288 -0.069555625 -0.12143628
000100 3f 42 93 3e 37 93 fa bd cc 14 a3 bb 0e eb 88 3d
       0.2876148 -0.1223511 -0.0049768444 0.06685458
000110 69 06 fc 3d c2 ed 5b bd 73 32 fe bd c6 bc c1 3c
       0.1230591 -0.05369354 -0.12411966 0.023649585
000120 a3 2f f5 3d 9f 7e d0 3c 6a dd 80 bd ed 77 0e be
       0.119719766 0.025451003 -0.062922314 -0.13912936
000130 3d 49 79 bd 0a d5 0e be 3d 97 9d bd 7b 2c 71 bd
       -0.06086086 -0.13948455 -0.07694862 -0.05888031
000140 0a 96 95 bd 9c 63 6b 3e 9a 7e fd 3b 56 9f be be
       -0.07304008 0.22987217 0.0077360393 -0.3723094
000150 28 c0 0c bc 9e 90 5b 3d d0 a3 aa bc 27 32 b7 bc
       -0.0085907355 0.053604715 -0.020830065 -0.022362782
000160 57 d6 30 bd a4 7b 8d bd 4b c6 0c bd 50 b1 9f 3d
       -0.04317316 -0.06908348 -0.034368794 0.077974916
000170 40 d3 e9 bc ad 04 cc bc 24 ee 2f bd 1b 30 11 be
       -0.028543115 -0.024904573 -0.042951718 -0.14178507
000180 db 63 5c bd 95 bb d3 3d 33 60 11 be d2 7c f1 3d
       -0.053806167 0.10338513 -0.14196853 0.11791386
000190 7b 35 19 3e 5e 51 f7 3c 99 f1 96 be db 8f 18 3e
       0.14961807 0.030190166 -0.294812 0.14898627
0001a0 f8 09 f6 bd 2e ce 78 3e e2 ec 9b 3e db fe 5d 3e
       -0.1201362 0.24297401 0.30454165 0.21679251
0001b0 4c db eb bd ea 26 4a bd ba a8 44 3e e3 53 1d be
       -0.11516437 -0.049353518 0.19204989 -0.15364031
0001c0 59 26 db 3c 81 6d 76 be b7 84 95 3d 4b e7 54 3b
       0.026751684 -0.2406521 0.07300704 0.0032486494
0001d0 12 e5 95 bc e2 80 4b 3d 4c 44 8f 3d 39 4a a6 3d
       -0.018297706 0.04968346 0.069954485 0.081196256
0001e0 84 6d 3d 3e c0 37 2c 3e c1 6e 17 3e 57 c5 a1 bd
       0.18498808 0.16818142 0.14788343 -0.07898968
0001f0 28 d0 07 3e a9 4b 5b 3c 72 0c 9e be 65 86 8f 3d
       0.13262999 0.013384738 -0.3086887 0.070080556
000200 e6 99 ae bd 58 bb 90 bd c8 15 36 3e d4 c7 68 3c
       -0.085254475 -0.07066983 0.17781746 0.014207799
000210 b1 39 85 3c 39 81 a2 3c da 40 aa 3d e5 a1 00 bc
       0.016262861 0.019837009 0.08313151 -0.007851099
000220 4b 89 a3 3d 74 b6 5e bd 5c cd 21 be c1 9c 51 3d
       0.07985171 -0.05437322 -0.15800995 0.051174883
000230 5f a0 b8 bc 49 70 be bd 92 ce 96 3c db c7 f1 b9
       -0.022537408 -0.092987604 0.018409047 -0.00046116006
000240 22 1f 96 bc 66 bd 11 3d e9 6d a6 bc 01 6e 83 3e
       -0.018325392 0.035581015 -0.020316081 0.25669864
000250 d3 75 8f 3c 99 b3 c9 bd c6 34 10 be 38 de ed bd
       0.017512238 -0.09848709 -0.14082631 -0.116146505
000260 9b 7a 37 3d 19 3d 1f 3e 60 35 fa 3c 4e 4e f5 bd
       0.04479466 0.1555065 0.03054303 -0.11977826
000270 93 c5 8a bd ad b4 e7 bc cf 6f ec 3d 0f d2 54 3e
       -0.067759655 -0.028284395 0.11544763 0.20783256
000280 3a 08 53 3d f5 ce a6 3d 04 2c 20 3d c5 8c 0d 3d
       0.051521517 0.08144943 0.039104477 0.034558076
000290 c6 f7 2a 3d 4a 33 01 3d b8 af d2 3b 34 21 1e 3d
       0.0417402 0.031543054 0.0064296387 0.038605884
0002a0 31 06 46 3d fc 4b 2d 3d 65 d1 d3 bc 81 44 75 3c
       0.04834575 0.042308792 -0.025856683 0.014969946
0002b0 e4 04 ac 39 e9 3a a8 3d 34 f3 11 be 68 79 1a 3f
       0.0003281004 0.08214361 -0.14252931 0.603415
0002c0 ad 13 70 3d 5c df c3 3c 51 f3 5d 3b f0 da 62 3e
       0.058612514 0.023910217 0.0033866952 0.2215383
0002d0 95 65 83 3e a8 92 0e 3d ff 17 8d 3a 5e 28 26 3d
       0.25663438 0.03480783 0.0010764598 0.04056584
0002e0 b8 70 92 bd 6f 94 83 3d d1 fd e3 3d 83 7a 72 3b
       -0.07150406 0.06424796 0.11132396 0.0036999292
0002f0 d7 7b 73 be 95 61 10 be 5b 99 33 3b 8c f7 8c bc
       -0.2377771 -0.14099725 0.002740464 -0.017207883
000300 ce 4f d0 3c 9d e4 12 bd 85 98 f0 be fb 87 a9 3d
       0.025428679 -0.035862554 -0.46991363 0.08277889
000310 68 84 d1 be 07 f4 32 3d 70 23 c7 3d 79 9d 1f 3d
       -0.4092133 0.043689754 0.09723556 0.038968537
000320 31 e0 23 3e 01 a8 cf 3b 7b b0 49 3d fb a0 14 3d
       0.16003491 0.0063371663 0.04924057 0.036286335
000330 21 a9 53 3e ba e0 10 3d b1 a1 26 3c bd 74 af 3a
       0.20669986 0.035370566 0.010170386 0.0013386231
000340 7c 10 9f bd 86 7f 8e 3e 27 fd 25 bd 22 3d 9d 3e
       -0.07766816 0.27831668 -0.040524628 0.30710703
000350 64 2b 8f 3e d0 2b aa 3d db 5f 1d be 78 c4 4a bc
       0.27962792 0.08309138 -0.15368597 -0.012375943
000360 2f d4 4a 3d 62 02 96 3d 04 f5 be 3d 36 cc 94 ba
       0.04951876 0.07324673 0.09324077 -0.0011352364
000370 e4 72 f3 bd 12 39 b9 bd 00 58 86 3d 80 fc 2a bd
       -0.11887148 -0.090440884 0.065597534 -0.04174471
000380 2e 59 b0 3d db 4e 94 bd a5 72 d2 3c c6 1c 23 3d
       0.0861076 -0.07241603 0.025689432 0.039822362
000390 bb c3 b8 3c 1f 87 39 3d 60 a1 0e 3e d6 ae cd bc
       0.022554269 0.045294877 0.13928747 -0.025107782
0003a0 2a d8 89 bd 6c 51 ca bb 65 5d 3e be c8 d8 79 bb
       -0.06730683 -0.006174257 -0.18590315 -0.0038123596
0003b0 a5 97 03 be 77 e8 0c 3e f2 d2 7c be 34 0a d1 bc
       -0.12850817 0.13760553 -0.24689844 -0.02551756
0003c0 ca 00 0d 3d de 46 24 be 21 77 6e be f5 ae 18 bd
       0.03442458 -0.16042659 -0.23287632 -0.037276227
0003d0 2b e3 93 bd 4c 4e 16 be 06 f6 9b bd a2 e4 1c be
       -0.07221063 -0.14678305 -0.076152846 -0.15321591
0003e0 67 51 c2 bd 5b 11 57 bd c4 70 23 be df 46 4e 3c
       -0.094881825 -0.052506786 -0.15960985 0.012590139
0003f0 13 13 83 3c 27 e9 80 bc 78 75 97 3d c9 12 0c 3e
       0.016000306 -0.015736176 0.07395452 0.13679041

actor.2.bias f4 [128]
000000 71 2b 41 bd 6f e3 ae bc bd ce 90 3d 88 67 1e 3d
       -0.04716057 -0.021348683 0.07070682 0.038672954
000010 47 a9 21 3d 01 cc ae 3c 37 97 d4 3d 73 34 1e bd
       0.039468076 0.021337511 0.103804044 -0.03862424
000020 46 ea 1e 3d d6 e5 e5 3d 83 0a 53 bc c3 de 26 bc
       0.03879764 0.11225478 -0.012880924 -0.0101849465
000030 f8 54 87 bd b5 36 f7 3c ce f8 b9 bd 81 67 d9 bd
       -0.066080034 0.030177454 -0.09080659 -0.10615445
000040 5c 98 9c 3d bb b5 6c 3d f5 3a 07 3e 00 b9 3d 3e
       0.07646248 0.0577905 0.13206084 0.18527603
000050 8e 5b 2f bd 7b a3 a1 3d d7 7b f9 3d 25 4a 9a 3d
       -0.042811923 0.078925095 0.12181824 0.07533673
000060 05 b2 a3 bc 12 a7 ae bd fd 37 b0 bc d7 56 b9 3c
       -0.019982347 -0.0852796 -0.021511072 0.022624416
000070 7f 01 9e 3d 00 30 0b 3d 2b 53 95 3c 9e 7b 24 3d
       0.07715129 0.033981323 0.018228134 0.040156953
000080 a8 7b 1f 3d c7 be 70 bd c7 94 ae bd 19 19 24 3b
       0.038936287 -0.05877569 -0.08524471 0.0025039373
000090 e2 ed 9c bd a8 43 b7 3d 7d fe 68 bd 35 89 c3 3b
       -0.0766256 0.08948451 -0.056883324 0.005967284
0000a0 a6 f7 f7 bb 32 af e7 bc 74 b8 e5 bc e7 b0 c3 bc
       -0.007567364 -0.028281782 -0.028042056 -0.023888065
0000b0 76 f4 67 bd 26 f0 f6 3d c3 35 cb 3c 4c 57 9d 3c
       -0.05662962 0.120575234 0.024805909 0.019206665
0000c0 94 0d 02 3e 0a 2b a2 3a 32 a2 b7 3d 15 5a 19 be
       0.12700492 0.0012372446 0.08966483 -0.1497577
0000d0 1f 13 b9 bd 61 6f 30 bc 1e a7 ca 3d fb e5 f6 bd
       -0.0903685 -0.010768742 0.09895156 -0.12055584
0000e0 34 47 2f bd 0b d8 4a 3d c2 f3 5b 3d a2 b5 25 3e
       -0.042792514 0.04952244 0.053699262 0.16182569
0000f0 a2 25 46 3e 51 39 13 be 96 c6 c5 3d ee 20 cc bd
       0.19350293 -0.14377333 0.09657018 -0.09967218
000100 36 17 91 3c ae de 7f 3d 8a 14 ab 3d 57 ae 07 bd
       0.017711263 0.062468223 0.08353527 -0.033125248
000110 dc 7b 75 bd c5 2c e2 bd 94 13 cd bd 4c b4 34 bd
       -0.059932575 -0.11043695 -0.100135 -0.044117257
000120 60 d9 8a bc d7 45 83 3d e2 ea 2f be 56 77 05 3d
       -0.016949356 0.06409805 -0.17179444 0.03258451
000130 75 86 73 bd 11 0f 90 3b 40 a1 b9 3c 68 dc 30 bd
       -0.0594544 0.0043963273 0.022659898 -0.043178946
000140 24 cb 18 3e f9 07 dc 3d a5 a2 38 3e 6d b8 52 bc
       0.14921242 0.10743708 0.18030794 -0.012861353
000150 36 e0 ba 3d 68 0b a3 bd b5 fa 9e bd 3a a2 6a bd
       0.09124796 -0.0796116 -0.07762662 -0.057283618
000160 4a 6c 9e bd e6 79 dd bc e7 88 79 3d 3f f4 4b 3c
       -0.07735498 -0.027035665 0.060921576 0.0124483695
000170 59 a7 d8 bd 9c b8 df 3d 9b e4 e0 3c 76 c6 7c bd
       -0.10578794 0.10923883 0.027452758 -0.061712705
000180 9a 91 45 3c b9 e2 1c 3d 00 64 d6 3b 0a 9e aa 3d
       0.01205864 0.038302157 0.0065426826 0.08330925
000190 e4 3e 47 bd 40 af 0a 3d ac 87 33 bd 57 d0 77 3d
       -0.04864396 0.033858538 -0.04383056 0.060501423
0001a0 44 a5 8f 3c 1b f4 8a 3d d7 4a a7 3c 72 e2 8d 3d
       0.01753486 0.06784841 0.020421429 0.06927957
0001b0 d8 ff 6f 3d cc 55 af bd 87 b7 34 bd 23 91 e9 3c
       0.0585936 -0.08561286 -0.044120338 0.02851159
0001c0 8c c5 37 be f6 ba 26 bc ce 4b 1a bc 3f 95 75 3c
       -0.17946452 -0.010176411 -0.009417487 0.014989196
0001d0 5d 79 12 3d f4 7a a1 bd 1f 7e ea 3d 50 0c 68 bd
       0.035760272 -0.078847796 0.11449837 -0.056652367
0001e0 55 29 48 be 83 64 8b bd 57 4f 98 bc cf 2a af 3d
       -0.19547017 -0.068062805 -0.01859252 0.08553087
0001f0 94 fc ae 3c 99 c6 32 3d ef 0e 99 bc f6 50 11 bd
       0.021360673 0.04364643 -0.018683879 -0.0354776

actor.4.weight f4 [64, 128]
000000 00 ad 34 bc 0c 5d ab bc c4 f2 b7 bd 0a 21 01 bf
       -0.011027575 -0.020918392 -0.08981851 -0.5044104
000010 f2 d9 93 be d7 0d bb bd bb f4 e2 bb 08 6d 53 3e
       -0.28877217 -0.09133499 -0.006926147 0.20647061
000020 53 12 ec bd 68 4f 26 3e 5d 0a ab be 74 0e 6a be
       -0.115269326 0.16241229 -0.33406344 -0.22857076
000030 6a 77 62 3e 56 53 2c 3e d6 fd 6b 3e 5b 3b 8c 3d
       0.22115865 0.16828665 0.2304605 0.06847259
000040 d1 be 0f 3e 67 bc 0a bf 66 52 02 3e bd 7b 77 be
       0.14037634 -0.5419373 0.12726745 -0.24168296
000050 c2 0c 35 3e e3 b6 f3 3e c2 b1 5b 3e 5f c7 09 3e
       0.17680648 0.4760047 0.21454528 0.1345496
000060 b8 5a 33 bc 43 1b 5d be ab d5 3b be 84 92 da bd
       -0.010946922 -0.21592431 -0.18343227 -0.10672477
000070 3b 71 ac be a0 a0 37 3e 03 f7 22 3d 95 a8 82 3e
       -0.33680138 0.17932367 0.03978635 0.25519243
000080 43 21 0e bc e0 67 f1 bd a8 4a 58 3d 70 e9 00 be
       -0.008674922 -0.11787391 0.052805573 -0.1258905
000090 73 44 68 be 99 b4 b2 3d fa f4 45 3e 5a 2a 9b 3e
       -0.22682361 0.087258525 0.19331732 0.3030575
0000a0 17 3e a7 bd 8d cf 84 bd aa 37 81 be 14 e9 95 be
       -0.081661396 -0.064849 -0.2523778 -0.29279387
0000b0 2b 53 d5 3e 0f 16 ca 3d a8 a6 43 3e 87 a3 49 3e
       0.41665015 0.098674886 0.19106543 0.19691287
0000c0 7c 4d 89 be cc 04 a8 be ce 6d 07 3d 60 36 30 be
       -0.26816928 -0.3281616 0.033063702 -0.17208242
0000d0 23 be c5 bd cd 3c 88 3d 0b 11 01 3d 9c 09 03 bd
       -0.09655406 0.06652222 0.031510394 -0.031991586
0000e0 89 03 fb 3d 93 14 2c be 6a 59 3a be 3f 60 de be
       0.12256534 -0.16804723 -0.18198171 -0.43432805
0000f0 a2 e7 ad 3e e8 de 9e bd 92 40 a5 be a0 5a 82 3e
       0.33965784 -0.0775736 -0.32275826 0.25459766
000100 dc af b4 3e f2 0c 8d be 78 17 6c 3e a6 f7 03 be
       0.3529042 -0.2754894 0.23055828 -0.12887439
000110 f7 3a 5b be e1 52 43 3e 2b cb 3f 3e ec bd bc be
       -0.21409212 0.19074585 0.18729846 -0.3686365
000120 a6 62 7c 3d 71 f2 5c 3d 3e 52 07 be db e2 31 3e
       0.061617516 0.053942148 -0.13214967 0.17371695
000130 2a a0 72 be ae 0d a1 3e 3d 59 3a be f8 39 e0 3c
       -0.2369391 0.3145575 -0.18198104 0.027371392
000140 f2 98 b4 3c 9b 31 aa 3e fc 95 62 bd c2 34 cf be
       0.022045586 0.3324097 -0.055318817 -0.4046994
000150 35 a2 86 be fc 95 b3 3d b9 26 e6 3e b9 a4 3d bd
       -0.2629563 0.087688416 0.44951418 -0.04629967
000160 a0 93 c5 3d 04 45 aa 3e bc 22 8a ba a7 24 9c be
       0.09647298 0.3325578 -0.0010538916 -0.30496714
000170 91 1e 1a 3f 56 c6 81 3e 78 3b 61 3b 49 f1 55 3d
       0.6020289 0.2534663 0.0034367722 0.05223206
000180 3a 6b 2c be ed 68 8a 3c 8d cd a0 3e 91 30 0d be
       -0.16837779 0.016895736 0.31406823 -0.13788058
000190 c2 37 73 3d 02 a9 63 3e af 9c c1 bc 3d 24 3a 3e
       0.059379347 0.2223244 -0.023634283 0.18177886
0001a0 bd fa 5e 3e 88 d1 a4 3c 46 ff 2e be 2c 11 a7 3c
       0.21775337 0.020119444 -0.17089567 0.02039393
0001b0 c5 96 82 bd d7 5d 0f 3d 99 8d 8c 3e be 83 04 bf
       -0.06376413 0.035001602 0.2745178 -0.5176352
0001c0 1c b0 ad ba f8 14 a0 3e 95 e8 86 bd 36 4e 9a 3e
       -0.0013251337 0.31265998 -0.0658733 0.30137795
0001d0 82 9b 37 3e 67 05 62 be c4 32 27 3d e8 ab 92 3e
       0.17930415 -0.22072373 0.0408199 0.2864678
0001e0 ac 77 b0 3d fc c2 42 be f4 7d 3e be dc bc 2b 3e
       0.086165756 -0.19019693 -0.18602735 0.16771263
0001f0 6c 47 83 be 2d 71 5d bd 18 0d 1c be ad 76 16 3e
       -0.25640428 -0.05406301 -0.1523937 0.14693709
000200 b5 b3 25 3e a7 be 65 bd 2f 64 70 3e b3 e0 0d bf
       0.16181834 -0.056090023 0.23475717 -0.5542099
000210 42 f8 8f 3e 3e ff 4a 3d 60 0f da 3b 0b 03 6d 3e
       0.28119093 0.049559824 0.006654665 0.23145692
000220 98 cd e4 bb 82 f9 04 3e 38 ea 4a bd f5 c8 84 be
       -0.0069825165 0.12985805 -0.049539775 -0.25934568
000230 6f b7 83 be aa ea e3 bc 8b a8 03 be f1 c4 fa 3d
       -0.25725886 -0.027821857 -0.12857263 0.12244595
000240 eb 6e 68 bc 61 15 28 be dd a1 84 bd b8 84 5c 3d
       -0.014186601 -0.16414405 -0.064761855 0.053837508
000250 67 fd a5 3d b0 87 83 3e 59 ec d3 3d be be 93 3e
       0.08104973 0.2568946 0.10347814 0.28856462
000260 96 38 88 3e ac aa 0c be 95 51 ef be 27 c9 5a be
       0.26605672 -0.13736981 -0.4674193 -0.21365796
000270 be 47 9f be 3a d6 8c be 66 2c 75 3d 99 1f fe 3d
       -0.31109422 -0.27507192 0.059856795 0.124083705
000280 c7 1c ba bd 32 d5 22 be 3a 95 c3 3d b5 ce f7 bd
       -0.0908752 -0.1590164 0.09549947 -0.12099973
000290 e7 49 d1 bd 0f 71 34 3e 0a e4 09 b9 aa a0 3a 3b
       -0.10219174 0.17621253 -0.0001315029 0.002847711
0002a0 e2 2f df 3c 2f 2d 07 be d9 9e 26 be bd da 03 bf
       0.027244512 -0.1320083 -0.16271533 -0.51505643
0002b0 93 31 e8 bd a4 1e 8e 3d 2c 2a 89 3e ea 7e 0d be
       -0.113375805 0.06939438 0.26789987 -0.13817945
0002c0 c8 55 c0 3b e1 c7 06 be f4 39 25 3c 06 ae 71 be
       0.005869601 -0.13162185 0.010084618 -0.23601541
0002d0 30 05 7e be 0c 7e 9d bd 72 2c 3a bc f2 97 84 bd
       -0.24806666 -0.07690057 -0.011363136 -0.06474294
0002e0 16 1f 24 3d 28 a2 3e be d4 ce 58 be ae 3c 38 3e
       0.04006871 -0.18616545 -0.21172649 0.17991897
0002f0 83 51 d2 bd 9a 58 25 bd dd 67 69 bd c1 98 ac be
       -0.102694534 -0.0403677 -0.056983817 -0.33710292
000300 96 4a 64 3e e2 12 2d 3d aa 72 44 3e 52 90 39 3d
       0.22294077 0.042254336 0.19184366 0.04530365
000310 b6 f8 6f be 9b 3c 10 3e a2 1c 42 3e b4 10 d0 3d
       -0.2343472 0.14085619 0.18956235 0.10159436
000320 5e b9 f1 3d b6 71 4f 3e ad bd db bd f2 9d 63 3e
       0.11802934 0.20258221 -0.10729537 0.2222822
000330 a8 d1 96 be 52 a4 ce be cb 4d a3 3d b1 1d ea 3d
       -0.2945683 -0.4035974 0.07973822 0.114314444
000340 9b 9a 87 be 2b e6 8d bd b3 e6 10 bd aa 55 43 3e
       -0.26485142 -0.06928667 -0.035376262 0.19075647
000350 3c cb a7 bd 13 e0 03 bf 8c a7 89 bd dd b7 cf bb
       -0.08193061 -0.51513785 -0.0672141 -0.006339057
000360 ac 8f 0e 3e d6 53 ae 3e 9e f2 2a 3e ef 12 bc 3e
       0.13921994 0.34048337 0.16694114 0.36733195
000370 cb bf 17 3e 2f d1 c6 bd c9 fe 8d 3e f9 a4 9f 3e
       0.14819257 -0.09707867 0.27733448 0.31180552
000380 c9 d3 35 3d 04 1f a1 be ed f2 bd 3d 63 70 77 3d
       0.044391427 -0.31468976 0.0927485 0.060409915
000390 f5 c8 d6 be 6a b2 b5 bd 6a e2 30 3e 50 8f 59 3d
       -0.41950193 -0.088719204 0.1727387 0.05311519
0003a0 fd 9b ee 3d 44 ae 18 bd 38 55 1c 3e 9a 8f 90 3e
       0.11650846 -0.037275568 0.15266883 0.2823456
0003b0 8c b5 ed 3d 09 1a cf bc 47 19 3c bd 4a 55 65 3e
       0.11606893 -0.02528097 -0.045922544 0.22395816
0003c0 2e cc 70 be b7 66 72 3d a6 fa d0 3e 02 16 43 3e
       -0.23515388 0.059179988 0.4081623 0.19051364
0003d0 f1 93 c2 3e 27 08 a6 be d8 8b 8d 3d db dc 76 3e
       0.38003495 -0.32428095 0.06911439 0.24107687
0003e0 11 ca bc bd d0 fa 0b be ba d0 31 3d 92 ab 2f be
       -0.092182286 -0.13669896 0.043411948 -0.17155293
0003f0 b5 24 06 3e 0a e2 87 3e c6 96 fb 3d eb f3 9f 3d
       0.1309994 0.26539642 0.12284617 0.078101955

actor.4.bias f4 [64]
000000 b5 49 ec 3d f3 0a bd 3d 7b 26 7a be 4d 54 be 3d
       0.11537496 0.09230604 -0.24428742 0.09293423
000010 c2 6d b0 3c e4 08 99 bc ed 60 ab 3d 59 7b a4 3d
       0.021536712 -0.018680997 0.083680965 0.08031339
000020 93 3c 21 3d b4 d4 23 3e 28 bd 10 3e 46 9c 23 3c
       0.03936441 0.15999109 0.14134657 0.009985989
000030 3b 3e 16 be 2d 45 bc bb 65 fe 21 bd 76 41 da 3d
       -0.14672177 -0.005745551 -0.03954925 0.10657017
000040 c7 f6 fa 3c 72 29 07 3d a7 2e 8d bc 9c 0b 2d bd
       0.03063525 0.03299851 -0.01723416 -0.0422474
000050 0b 69 94 3c 2b eb b0 bd 04 2f 2c 3d d0 03 4f 3d
       0.018116495 -0.08638605 0.042037025 0.050540745
000060 1f a7 c5 3d 11 d0 78 bd 18 1a 07 3d 35 1d db 3d
       0.096510164 -0.060745303 0.03298387 0.1069893
000070 0c 06 d3 bd 15 96 9f 3d f2 1f 4a bd 3c 87 63 3d
       -0.10303888 0.07792298 -0.04934687 0.05554889
000080 f6 ce df 3d e9 06 dc 3d f7 26 25 3c e3 97 1b 3e
       0.109281465 0.107435055 0.010080091 0.15194659
000090 2f d6 b6 3d 06 c5 2c ba 11 90 01 3e cf 4c 59 bd
       0.08927571 -0.0006590638 0.12652613 -0.053051766
0000a0 f9 2c 91 bc ee 3c 10 bc e6 5e cd 3c b3 3e 9a 3d
       -0.01772164 -0.008803589 0.025069665 0.0753149
0000b0 57 ac 2d 3d b4 a7 43 3d f5 b3 04 3e 36 ab dc 3d
       0.042400684 0.047767356 0.12959273 0.107748434
0000c0 57 9f e4 3d dc d9 1c bd 6a 87 8c 3d 18 98 bd 3d
       0.11163204 -0.038293704 0.06861766 0.09257525
0000d0 17 3a d1 3d a7 20 3c 3e 90 6f 5e bd 64 bd 21 3d
       0.10216158 0.18371831 -0.054305613 0.039487258
0000e0 29 38 ee 3c 6b ac e0 3c 2a b6 b2 3d 5f 69 10 b7
       0.029079514 0.027425965 0.08726151 -8.6076025e-06
0000f0 ab d9 47 3e 82 8d f9 3d 90 0e 6a 3d bd 8b 28 bc
       0.19516627 0.121851936 0.057142794 -0.010287222

actor.6.weight f4 [15, 64]
000000 3f 55 01 3e a5 18 0f be e2 1f ab be 45 88 b5 3e
       0.12630175 -0.13974245 -0.33422762 0.35455528
000010 15 42 0e 3f 55 07 f8 be 48 ca a5 3d e7 b1 f9 bd
       0.55569583 -0.48443094 0.08095223 -0.12192135
000020 93 3e c6 bd 83 dd bd 3e 5f 7b 64 3e 21 99 94 3e
       -0.09679904 0.37083063 0.22312687 0.29023078
000030 f2 ab 95 be da fa d1 3e 04 79 e7 3e 31 61 60 3e
       -0.29232746 0.41011697 0.45209515 0.21912076
000040 0d 22 39 3e 68 a3 7d be c8 e2 64 3d 6d 09 de 3e
       0.18079396 -0.24769366 0.055880338 0.43366566
000050 8b 6d e6 3e 7f 71 0c 3e 03 70 68 3e 10 1d 96 3e
       0.4500545 0.1371517 0.22698979 0.29319048
000060 45 13 3f be 5b 92 1a bf 0b 6d 3b be 4c f1 f3 be
       -0.18659694 -0.6037957 -0.18303315 -0.47645032
000070 94 4d a7 bd 1d 21 14 3d 32 f6 1e bf da 7e 3f 3e
       -0.08169094 0.03616439 -0.62094414 0.18700734
000080 5e 61 a7 3e 26 70 b6 bd 6c 36 be 3e 9e b7 aa bd
       0.32691473 -0.08908109 0.37150896 -0.083358034
000090 24 e6 dd be b6 7d cb 3e 2a 0d d9 3c dd 8c c6 be
       -0.43339646 0.39744347 0.026495535 -0.38779345
0000a0 7f aa e0 3d 8e 71 7a bd d1 06 39 3e da a7 8e be
       0.109700195 -0.06114345 0.18069007 -0.27862436
0000b0 64 ef c1 be 15 85 92 3e b3 1b a1 be 46 bd 19 3e
       -0.37877953 0.2861716 -0.31466445 0.15013608
0000c0 d1 8b 78 3e 6b 90 fe be 45 98 19 bf 07 e2 90 3e
       0.24272086 -0.49719557 -0.5999797 0.28297445
0000d0 57 10 96 3e a9 4b 32 3e 59 90 4c bf 4b 51 22 3d
       0.2930934 0.17411675 -0.7990776 0.03962831
0000e0 f6 8d 73 be 69 5e 57 3e 8c 9c 1b bf ca d7 bc be
       -0.23784623 0.21032108 -0.60785747 -0.36883384
0000f0 b2 06 46 3e a9 dd b2 3e bc ed 1d 3e cc 4d 76 3e
       0.19338492 0.34934738 0.1542272 0.24053115
000100 ab d1 02 3d fa bb c9 3e 72 df 2d 3f 9e 4a d6 be
       0.031938236 0.39401227 0.67919075 -0.41853803
000110 3c 42 cd be ca 0c 60 3e 61 51 79 be 8f 05 a1 3e
       -0.40089595 0.21879879 -0.2434745 0.31449553
000120 ec 0e 58 be bd 08 7c be d7 da be 3e 05 5f 81 3e
       -0.21099442 -0.24612708 0.37276337 0.25267807
000130 f3 48 83 3c 53 05 78 be 73 30 43 3e cf e5 86 be
       0.016025996 -0.24220781 0.1906145 -0.26347205
000140 f5 c5 27 3d 31 b3 ca 3e 87 95 95 3e 89 ea 55 be
       0.04096027 0.39589837 0.29215643 -0.2089025
000150 01 02 18 bf 89 ad a5 3e f1 13 06 bf 92 fe 87 3e
       -0.5937806 0.3235896 -0.5237418 0.2656141
000160 bc f7 ed 3e 47 7e f0 3e ce 8f 7e be 0f 77 b8 3e
       0.4647807 0.46971342 -0.24859545 0.36028334
000170 ea 63 0a bf 3c da 10 3f 01 c2 93 3e a8 9d e2 be
       -0.54058707 0.56583 0.2885895 -0.44260907
000180 c9 46 77 be d2 b6 ea bb 41 35 52 3c 2d 58 c2 3e
       -0.24148096 -0.007162907 0.0128300795 0.37957898
000190 f6 d2 db 3e e3 e9 8a be 43 28 11 3d 1e a1 f9 be
       0.42934388 -0.27131566 0.035438787 -0.48755735
0001a0 6b 5c d5 3d 7f 32 b1 be 21 69 b7 be 6a 1e 46 3d
       0.10418018 -0.34608838 -0.35822394 0.04836885
0001b0 fe f3 98 3e 66 0e 11 bf a6 b5 e5 3e ea 27 dc 3d
       0.2987365 -0.56662595 0.4486515 0.107498005
0001c0 ad 95 07 be af 43 c5 3e d6 db 7e 3e 34 89 89 be
       -0.1324069 0.385282 0.24888548 -0.2686249
0001d0 d7 27 0d bf 46 f0 79 3d ba 21 c1 3e 08 65 cb 3e
       -0.55138916 0.06102016 0.37721044 0.39725518
0001e0 b1 7b e0 b9 72 a9 c6 3c 39 c3 c6 be c7 fa 29 be
       -0.00042816767 0.02425072 -0.38820818 -0.1659957
0001f0 bf 2a 7f 3e e5 a7 85 3d f5 b3 04 bf 16 55 29 be
       0.2491865 0.06526164 -0.5183709 -0.16536364
000200 9a 9f 50 3e 02 fe a1 3d 13 4a 61 3e 25 d4 7c be
       0.20373383 0.07909776 0.22000913 -0.24690302
000210 80 e6 92 3e 6a 5b 0e 3e 8f 5c 6d be 66 50 e8 3c
       0.28691483 0.13902059 -0.2317984 0.02835865
000220 f6 35 03 3f 02 0e 94 be 61 96 5a bf b2 ec be be
       0.5125421 -0.28916937 -0.8538571 -0.3728996
000230 f7 64 6f 3e f6 c6 22 be 29 45 d8 be 73 06 20 bf
       0.23378359 -0.1589621 -0.42240265 -0.6250984
000240 ec 6d 9e 3e 55 43 6c bd 26 90 96 bd ac 2b 8d 3e
       0.3094324 -0.0576814 -0.07351713 0.27572381
000250 32 ef b2 3e e6 b2 db bd 7b 65 e0 3e 27 47 9a 3d
       0.34948117 -0.107274815 0.43827423 0.075331025
000260 16 1e 32 be ce 39 6d bd 8f 94 d0 3e c8 48 83 bf
       -0.1739429 -0.057916455 0.4073834 -1.0256586
000270 73 21 d2 bc f2 37 56 be f3 dc b9 be b5 b6 a7 3c
       -0.025650715 -0.20919779 -0.36301383 0.020472864
000280 16 c0 2c bf 85 0e 66 be b4 b0 43 bf 21 ee 1c bf
       -0.674806 -0.22466476 -0.764415 -0.61300856
000290 5c 77 97 be 8c 81 93 3d 02 94 67 3e f5 19 8f 3e
       -0.2958325 0.072024435 0.22615054 0.2794949
0002a0 61 c6 06 bf e4 8c 62 3e 3b 33 45 bf fe ae 0a bf
       -0.5264645 0.22124058 -0.77031296 -0.54173267
0002b0 46 16 b8 be 57 18 1c 3e 43 ef 0e be 70 0c 37 bd
       -0.35954493 0.1524366 -0.13958459 -0.044689596
0002c0 64 ab d3 be 34 66 60 bd 8e c5 c4 3e 98 c7 d4 3c
       -0.41341698 -0.05478497 0.38431972 0.02597408
0002d0 b1 18 5f 3e 7a 52 15 bf 46 af 93 3e 48 f3 35 3f
       0.21786763 -0.58328974 0.2884466 0.7107434
0002e0 d1 38 a4 3e 88 93 53 3e 93 83 cf 3e f5 65 0f 3e
       0.32074597 0.20661747 0.4053007 0.14003737
0002f0 69 2b af be fe 13 84 be 74 4b 7c 3d 45 ca 49 3f
       -0.34212807 -0.25796503 0.061595395 0.78824264
000300 d2 58 1a 3f a1 61 f5 3e e8 50 d0 be dc 89 e0 3d
       0.6029178 0.47926047 -0.40686727 0.109637946
000310 36 52 1f bf 92 ec dd 3e 95 81 58 bd 66 fd 8f be
       -0.6223482 0.4334455 -0.052857954 -0.28123015
000320 a3 21 a0 3e c4 9a 1c 3e 45 fd 4a be 9c 88 cc 3e
       0.31275663 0.15293413 -0.19823177 0.39947975
000330 18 25 b7 be d1 9a d3 bd 30 1b 42 3b bd 0f 76 3e
       -0.35770488 -0.10332263 0.0029618256 0.24029441
000340 b7 be be bf 93 1b d3 be 16 2f 1d bf 8c 30 91 bd
       -1.4901952 -0.41231975 -0.6139997 -0.07089338
000350 37 52 04 3e 03 3a fe be 8f b0 2d 3e 10 29 b7 be
       0.12921987 -0.49653634 0.16961883 -0.35773516
000360 dc 5a 57 3e 6e 26 d9 3e 93 74 fd 3e 56 8a be 3e
       0.21030754 0.42412132 0.49503002 0.37214917
000370 83 ce 2a 3f 5d 57 a8 bc 9e 5d 8f 3e e8 38 ad be
       0.6672136 -0.02054947 0.28001112 -0.3383248
000380 9d a8 68 be b3 87 be be ee 5f 06 bf dd 89 2c bf
       -0.22720571 -0.37212905 -0.5249013 -0.6739786
000390 ac dc a2 3d 2b e7 be bd f8 90 98 3e b1 e5 07 3f
       0.07952246 -0.093214355 0.29798102 0.53084856
0003a0 36 16 cb be 7d 07 a8 3e 6f cf d3 be 0e 7a 54 bd
       -0.39665383 0.32818213 -0.41369197 -0.051874213
0003b0 1d 91 0a 3f b7 88 11 bd e6 64 96 3e a7 ea 8d 3e
       0.54127675 -0.035530772 0.29373854 0.27718088
0003c0 fe 55 65 3c f1 9c 9f 3e ef 78 08 3e 11 b9 8c 3e
       0.013997553 0.31174424 0.13327383 0.27484944
0003d0 78 5e 14 3e 55 22 8b 3e 6e 44 3a 3f 0f 4b 78 bf
       0.14489162 0.2717463 0.72760665 -0.9698953
0003e0 6c c2 41 bf ce 9d ed 3d c1 02 e7 3e 61 57 05 3f
       -0.7568729 0.116023645 0.4511929 0.52086455
0003f0 ac c0 a0 be ee ab cd be 70 e4 01 be 0d f4 2a be
       -0.31396997 -0.40170234 -0.12684798 -0.1669466

actor.6.bias f4 [15]
000000 60 49 c6 3d 74 89 bb 3c e0 35 c8 bd 8b 5e 33 3e
       0.09681964 0.022892691 -0.09775901 0.17516534
000010 b5 05 5f 3d 26 94 ab bd 65 da 5a bd b2 60 66 3d
       0.054448802 -0.083778664 -0.053430934 0.05624456
000020 38 d0 48 be 4f b0 4e 3e a3 c2 94 bd a8 17 49 be
       -0.19610679 0.20184444 -0.072636865 -0.1963793
000030 65 46 62 3d fc 8f df 3d e8 b0 b4 bd
       0.055242915 0.10916135 -0.08822805

critic.0.weight f4 [128, 30]
000000 4b 9a 13 bf 99 4b 31 bf fa 6b 32 bf 62 83 36 bf
       -0.5765731 -0.6925598 -0.6969601 -0.71294224
000010 b4 de f7 be 16 83 23 bd 1a 26 fe 3c 91 bf 2e be
       -0.48412097 -0.039919935 0.031024028 -0.17065264
000020 ec 30 b5 3d e3 fa 8e be f3 5b 51 be db 6e af be
       0.08847222 -0.27925786 -0.20445232 -0.34264264
000030 d6 fd 73 be cf 82 33 be ef af 14 bd 5a 12 84 be
       -0.238273 -0.17530368 -0.036300596 -0.2579525
000040 33 68 00 bf ce b9 8f be 51 e7 8c be 3b 15 00 3f
       -0.50158995 -0.28071445 -0.2752023 0.50032395
000050 a2 6f 14 bf 70 08 bc bd 06 7d 0f be 40 06 88 3d
       -0.5798284 -0.09181297 -0.14012536 0.06641817
000060 c4 81 29 bf 99 23 3e 3d 42 24 27 3e 9e 11 94 be
       -0.6621363 0.046420667 0.16322425 -0.2891969
000070 71 40 47 be 7d a9 31 be 9f 50 62 bf ab 84 29 bf
       -0.19458176 -0.17349811 -0.8840427 -0.6621806
000080 34 ea d7 be a0 8d 67 be 9b 33 af 3e a9 84 c8 be
       -0.4217087 -0.2261262 0.3421906 -0.39163712
000090 d5 c2 33 bf 25 f3 a4 bf ea 08 aa bf a4 60 8c be
       -0.70219165 -1.2886702 -1.328397 -0.2741748
0000a0 29 69 86 3f 80 2c 5f bf 8b 36 84 bf c9 86 48 bf
       1.0500842 -0.87177277 -1.0329145 -0.78330666
0000b0 ac 08 ac be 02 80 4f bf df 6c ed be 22 2d 80 3d
       -0.33600366 -0.810547 -0.46372125 0.062586084
0000c0 0a 7d 4d 3f 0f 11 18 3f 45 80 02 be 4d 9e 07 bf
       0.8026892 0.5940103 -0.12744243 -0.5297592
0000d0 03 1d 53 bf 6c 5e fc be f3 ee fd 3b 99 50 6b 3d
       -0.82466143 -0.49290788 0.007749432 0.05744991
0000e0 6f ab b7 bf 74 66 d7 3e 86 fb 33 3f 78 1a e4 be
       -1.4349192 0.42070353 0.7030567 -0.44551444
0000f0 08 00 49 3e ee e7 ba be e5 83 c2 be a2 3c 50 bf
       0.19628918 -0.36505073 -0.37991253 -0.8134252
000100 70 64 b6 be 92 80 ad be 14 52 81 3d 79 17 2d 3f
       -0.35623503 -0.33887154 0.06314483 0.6761394
000110 0c 05 ad 3e 1a 1d 6f 3e b5 26 81 be 0a a6 ba be
       0.33792913 0.23350945 -0.25224844 -0.36454803
000120 de 82 e2 3c b2 c8 3c bd b5 f0 ee 3e 8a 83 ba be
       0.027650293 -0.046089835 0.4666802 -0.3642848
000130 19 e3 07 3e c4 c1 59 bd e8 21 90 3d 67 9e cb 3f
       0.13270225 -0.053163305 0.07037717 1.5907716
000140 24 64 74 bf f6 50 ba bd aa 3d 9f 3d bc 51 88 3e
       -0.954653 -0.09097473 0.07775433 0.26624858
000150 60 cb 6d 3e b0 6a d1 3c 9e 79 29 3e a7 dc a7 bf
       0.23222113 0.025563568 0.165503 -1.3114213
000160 1d 1f d3 bd 3f e7 53 be ad aa 9b bd a6 11 ec bd
       -0.10308669 -0.20693682 -0.07600913 -0.11526804
000170 85 fa 40 3d 54 7a 85 be ce a1 63 be 51 2c 33 be
       0.047113914 -0.2606989 -0.22229692 -0.17497374
000180 4b 0a 6b bc c9 f9 17 3e 63 07 9f 3d 66 e5 e3 3d
       -0.014345716 0.14841379 0.07765081 0.11127739
000190 48 ec 02 3b 05 94 60 be 9c 07 16 bd df 4a fe bb
       0.001997726 -0.21931465 -0.03662835 -0.00776039
0001a0 17 b0 b3 3d 11 7d d9 bd cd 7a 1b 3d 34 fc 60 be
       0.08773821 -0.10619558 0.03795891 -0.21971208
0001b0 ca 08 ec 3b ed 4a 01 3d 2d 32 0b be 09 30 5d be
       0.007203196 0.031565595 -0.1359336 -0.21600355
0001c0 20 20 31 be 9e 3b a0 bd 18 6d 4a be 11 28 c4 bd
       -0.17297411 -0.07823871 -0.19768178 -0.095779546
0001d0 35 21 4f be 04 46 bc 3d 92 df e0 bd 23 a2 e9 3d
       -0.20227511 0.09193042 -0.10980143 0.11407878
0001e0 6d a7 ec bf 82 8a d2 bf bb f1 b0 bf 67 5c 9e bf
       -1.8488594 -1.6448519 -1.382377 -1.2371949
0001f0 b9 14 bc bf d0 4c 52 3f 4f 1a 3f 3f 22 a4 90 be
       -1.4693824 0.82148457 0.7464952 -0.28250223
000200 91 06 c5 3e 99 bf ba 3e 1e f5 29 3e 2e df 1d bd
       0.38481572 0.36474302 0.16597411 -0.03854292
000210 10 b8 23 3e 0d be 77 3e 6b 6c e0 3e d5 60 1e be
       0.15988183 0.24193592 0.43832716 -0.15466626
000220 70 78 98 bb b6 b8 01 3e b5 7b 2a ba 07 01 b0 be
       -0.004653029 0.12668118 -0.0006503419 -0.34375784
000230 bb bf d3 bf 5e 66 47 3e d8 16 12 3f 83 08 6a be
       -1.6542886 0.19472644 0.57066107 -0.2285481
000240 ca 03 03 3f 29 b8 17 bf 8f ae 45 bf fd 6b 04 3f
       0.51177657 -0.5926538 -0.7721948 0.5172728
000250 e1 90 82 3f 4a 63 f7 3d 4e 45 8d 3f c6 d0 98 3f
       1.0200464 0.12079485 1.1036775 1.1938713
000260 e3 db 5b 3f 83 c7 37 3f 41 e1 41 3f 9d 3f 54 3f
       0.85882396 0.71788806 0.75734335 0.82909566
000270 e2 4b 07 be b7 7e 19 3f 15 84 b4 3e 8e 0a d5 3c
       -0.13212541 0.59958977 0.3525702 0.02600601
000280 3d 69 8e 3f bc 9a 53 be db 81 6a 3d 43 2b ec 3e
       1.1125866 -0.20664495 0.057252746 0.46126756
000290 a7 85 56 3e 31 35 ae be 42 fe 54 bf 6d a0 3d bf
       0.20949422 -0.34024957 -0.83200467 -0.74072915
0002a0 3a 47 a2 3e 28 6b a1 bf 86 3c 91 be 33 07 0b be
       0.31694967 -1.2610826 -0.28366488 -0.13576965
0002b0 a0 6b a1 be c6 1a 0c 3f 16 11 8d be 44 5b 00 3f
       -0.31527424 0.54728353 -0.27552098 0.5013926
0002c0 5f 7e 39 bf 1a 2f 74 3d 0a 08 f1 3d 7a 42 5c 3e
       -0.7245845 0.059615232 0.117691115 0.21509734
0002d0 75 ff 80 bd aa e0 81 be d5 68 66 be be b9 93 bd
       -0.062987246 -0.25366718 -0.22500928 -0.07213162
0002e0 be 89 a1 be 5f b4 17 be fc 8b 44 be 9e 3f 5b be
       -0.315504 -0.148149 -0.19194025 -0.21410987
0002f0 66 49 3f be 90 f9 b1 be 79 ea 08 be 78 7e cc bd
       -0.18680343 -0.34760714 -0.13370694 -0.099850595
000300 75 d5 68 bd 4d 30 c9 be 59 a8 c0 be b8 74 fc bd
       -0.056844193 -0.39294663 -0.3762844 -0.1232695
000310 a9 ee 92 be 04 db bf bd d0 63 03 bb a6 c9 17 be
       -0.28697708 -0.09367946 -0.0020048507 -0.14823017
000320 c1 80 b9 bd 2a 40 a9 be a5 5f 99 bd f8 d8 8c 3d
       -0.09057761 -0.33056766 -0.07488946 0.06877321
000330 f6 74 3e be 62 cb 1c bb 5f d0 d9 bd f7 10 14 3f
       -0.18599305 -0.0023924937 -0.10635447 0.57838386
000340 fb e3 34 3e 40 0d 25 3d 58 90 84 3f 03 08 a7 3f
       0.17665093 0.04029584 1.035655 1.304932
000350 74 c0 ae 3f cf 75 b8 3f 07 15 10 40 69 fe 01 bf
       1.3652482 1.4410952 2.2512834 -0.50778824
000360 28 01 83 3f 11 9b b6 3e ac 51 9d 3d 8d 13 6b 3e
       1.0234728 0.3566518 0.07681593 0.22956677
000370 b4 fd 9b bf fe b4 6b 3e f8 fc e0 3e 79 51 83 3e
       -1.2186799 0.23018262 0.43943 0.25648096
000380 5e 6b e9 3e f1 7a b0 3e 09 04 88 3d ff ea 86 be
       0.45589727 0.34468797 0.06641395 -0.26351163
000390 04 0a d4 3e 56 76 28 3d 33 ca c9 3e 0c 9e 1e 3f
       0.4141389 0.04112848 0.39412078 0.6195991
0003a0 19 2d be 3e b6 16 ce 3d fa 92 ec 3d ab 83 82 bf
       0.37143782 0.100629255 0.11551471 -1.0196432
0003b0 33 62 eb be 30 a6 0c bf b1 7c 63 bf 02 7e 24 3f
       -0.45973358 -0.5494108 -0.8886214 0.6425477
0003c0 2b af a7 3e de 0c 91 3e 11 de 80 be c2 b0 57 bf
       0.3275083 0.2833013 -0.25169423 -0.84254086
0003d0 be 9c e1 bf da 07 e0 bd 8c f2 8c bf f2 39 a4 be
       -1.7625959 -0.109389976 -1.101152 -0.3207546
0003e0 30 51 99 3d e6 b3 80 3e 85 71 b7 be 49 d0 f3 3e
       0.074861884 0.25137252 -0.35828796 0.47619846
0003f0 9f 4e d9 3e 58 b7 93 3e 45 ee 03 3f 4f 05 1c 3f
       0.42442796 0.28850818 0.51535445 0.609456

critic.0.bias f4 [128]
000000 5d 51 a4 bd fc bc 3a bf d2 7a 29 be 52 d6 58 be
       -0.08023331 -0.7294462 -0.16550758 -0.21175507
000010 97 78 76 3e 6c ea 3a 3e fa 56 cb bd 61 04 63 be
       0.24069439 0.18253487 -0.09928699 -0.22169639
000020 cf 03 57 3e 4c 29 41 bf 04 b2 e1 be 9c 66 f3 bd
       0.20997547 -0.7545364 -0.44081128 -0.118848056
000030 60 fe ba bd 69 df c0 3f 71 55 96 bd 1e 0f b5 bd
       -0.091305494 1.5068179 -0.073405154 -0.08840774
000040 3e 5a a3 bd 8d 43 3c bf d7 bb d8 be 50 d3 2a 3f
       -0.07976197 -0.73540574 -0.4233081 0.6672869
000050 61 97 58 bf 20 f3 6b 3e 97 9d 74 be 17 ff 89 3d
       -0.84605986 0.23041964 -0.23888241 0.06738108
000060 50 9c 9c bd 8c 3c 97 3f 5a d2 0f bf 89 dc 67 3e
       -0.07647002 1.1815352 -0.56180346 0.22642721
000070 f9 b1 93 bf 22 0b 23 3f 0c 56 f1 be f9 08 cc 3e
       -1.1538688 0.6368886 -0.4713596 0.39850596
000080 c1 87 8c bd 4c 82 af 3c 78 d7 d8 3e 5a 91 24 bf
       -0.068618305 0.021424435 0.4235189 -0.6428429
000090 8c 59 ee 3e ab ae 84 bf 53 ca d9 be 4d a8 ae 3e
       0.46552694 -1.0365804 -0.42537174 0.34112778
0000a0 ab 5f ca bc 68 9a 11 bf 92 f9 0e be 97 5e ef bd
       -0.024703821 -0.5687623 -0.13962391 -0.116879635
0000b0 d6 a3 11 bf 45 fb 6f bf fb f1 cb be 1c 0d 0e be
       -0.5689062 -0.9374278 -0.39833054 -0.13872188
0000c0 4b d2 71 3d ac 28 0f bf e2 a2 16 bf 40 29 23 be
       0.05903844 -0.55921435 -0.5884229 -0.15933704
0000d0 b1 0f 75 be 3c f6 dd 3a 8d 62 86 3c bc f0 40 3e
       -0.23931767 0.0016934345 0.016404415 0.18841833
0000e0 06 f6 1d be dd 86 1b bd ad cc ac bf db 09 1c bf
       -0.15425882 -0.037970413 -1.3499962 -0.6095254
0000f0 09 9d 28 bd fa 82 59 bf cc 9a 3f be c7 9f 09 3f
       -0.041165385 -0.8496548 -0.18711394 0.53759426
000100 a9 a8 27 be 96 8d 0d bf b7 35 45 bf d0 97 3d bf
       -0.16372932 -0.5529417 -0.7703509 -0.7405977
000110 ef e8 ba be e3 11 58 3e 30 b9 fc be e6 8b 6c 3f
       -0.3650584 0.21100573 -0.49360037 0.9240097
000120 28 63 04 bf 0a 07 49 3c 4e 74 c1 3e f0 d3 53 be
       -0.517138 0.012269745 0.37784046 -0.20686316
000130 41 93 2a bf df 2c 11 be 79 c6 f9 be 63 cc fc bd
       -0.6663094 -0.14177273 -0.48784235 -0.12343671
000140 24 7b 91 be fe ee ca 3c e2 fc 1c 3f 26 3a a8 ba
       -0.2841426 0.024772163 0.6132337 -0.0012834712
000150 5f aa 8e bf 27 99 21 be 57 a0 ed 3e ae 83 83 be
       -1.1145743 -0.15781079 0.46411392 -0.256864
000160 a9 16 bc 3d cf fa a2 be 9d d6 47 3e 72 49 a4 3e
       0.091840096 -0.31831977 0.19515462 0.32087284
000170 e0 f1 70 be b0 52 4b bf d7 11 45 3e f0 a2 63 be
       -0.23529768 -0.79423046 0.19245087 -0.22230124
000180 e2 e1 50 bd 3b 4a 92 3d 5e 5f 1c be 29 15 75 be
       -0.05099667 0.071430646 -0.15270755 -0.23933853
000190 34 13 d2 3e fe d2 9e be 70 4d ab bf 49 58 14 3e
       0.41030276 -0.3102035 -1.3383007 0.14486803
0001a0 e6 54 b9 3f aa 86 94 3a cc 51 72 3d 1a a8 3c 3d
       1.4479034 0.0011331637 0.05916004 0.04605875
0001b0 69 de 2d be 5a 38 ee be 5a e0 11 3e fb a2 23 3d
       -0.16979374 -0.46527368 0.1424574 0.039950352
0001c0 71 4b 9e 3d 7e 19 d0 bf f0 4f 94 bf cb 5d 4b bd
       0.07729233 -1.625778 -1.1586895 -0.049649995
0001d0 a7 26 52 3f 91 7e 28 3e ba ab e8 3e 9e 10 75 be
       0.8209023 0.16454531 0.45443517 -0.2393212
0001e0 83 b5 b4 bf ba b0 70 bd 4a 7f 09 be 6b e3 47 3d
       -1.4117893 -0.05876229 -0.13427463 0.048800867
0001f0 1a 63 a0 3d 12 96 67 3d 71 56 86 3c 33 2d 74 3f
       0.07831402 0.056539603 0.01639864 0.9538147
