PPO_preTrained/3/PPO_3_0_350.pth (torch, 239631 bytes, 15 tensors)

actor.0.weight f4 [128, 30]
0	0xbe04dc35	-0.12974627
1	0xbe01cb76	-0.1267527
2	0x3c881732	0.016612623
3	0xbdfc8516	-0.12330072
4	0xbe205909	-0.15658964
5	0xbdb15be8	-0.08660108
6	0xbd346253	-0.04403908
7	0xbdfe7321	-0.12424303
8	0x3db34486	0.08753304
9	0xbdd1ba6e	-0.10240637
10	0xbe6dc92a	-0.23221269
11	0x3d9775dd	0.073955275
12	0x3bbc5474	0.0057473723
13	0xbd610b7a	-0.054942586
14	0xbcac053d	-0.020998592
15	0x3e91b87b	0.2846106
16	0x3e706026	0.23474178
17	0xbe4e2d64	-0.20134503
18	0x3e491d86	0.19640169
19	0x3c5b817b	0.01339757
20	0xbe5c8b37	-0.21537481
21	0xbe485ada	-0.19565907
22	0x3c4c487c	0.0124684535
23	0x3e0f1351	0.13972212
24	0x3ddeffa0	0.108886
25	0x3e612327	0.21986066
26	0xbe89beb3	-0.26903304
27	0x3e01cbea	0.12675443
28	0xbef1c6cc	-0.47221982
29	0xbe89c230	-0.26905966
30	0x3e4eec32	0.20207289
31	0xbd5ba52b	-0.053624313
32	0x3d7c7795	0.06163748
33	0x3e4c6bf2	0.19963053
34	0x3e82938c	0.25503194
35	0xbe278ae2	-0.16361573
36	0xbe727007	-0.23675548
37	0xbdc43c89	-0.09581859
38	0x3e3beea2	0.1835275
39	0xbdcec920	-0.10096955
40	0xbe0459b2	-0.12924841
41	0xbd06eca8	-0.032940537
42	0xbe372de0	-0.17888594
43	0x3b33319c	0.0027342802
44	0xbdb68864	-0.08912733
45	0x3ead298a	0.33820754
46	0xbdec5c46	-0.11541037
47	0x3e170f6f	0.14751981
48	0x3e57d537	0.21077429
49	0xbe1a2113	-0.1505168
50	0xbde442c1	-0.11145545
51	0xbe1184de	-0.14210841
52	0x3dcb7247	0.09933906
53	0xbd3ecada	-0.046580173
54	0x3daaf504	0.08347514
55	0x3e8f9dca	0.2805007
56	0x3d18960c	0.03725247
57	0x3e80a20f	0.2512364
58	0x3e5b6aaf	0.21427415
59	0xbe169981	-0.14706995
60	0x3e008104	0.12549216
61	0x3e1e468f	0.15456603
62	0xbdc9358d	-0.09824667
63	0x3d9b6f5f	0.07589602
64	0x3e9429d3	0.2893816
65	0x3d278bb1	0.040904704
66	0xbdda5f41	-0.106626995
67	0x3e0e77f2	0.13912943
68	0x3e139f13	0.14416151
69	0x3d05b884	0.03264667
70	0xbda1598a	-0.07878406
71	0xbd985aa9	-0.07439167
72	0xbe3021a0	-0.17200327
73	0xbdab070d	-0.08350954
74	0xbda8de3d	-0.082455136
75	0x3ea28ef5	0.31749693
76	0xbc6b55e7	-0.014363742
77	0x3e4018b8	0.1875943
78	0x3d1062e9	0.035250578
79	0x3efbca1b	0.49177632
80	0xbd30396c	-0.04302351
81	0x3c4e9e81	0.012611032
82	0xbdc11f84	-0.09429839
83	0x3cc24573	0.023714757
84	0x3e1e2deb	0.15447204
85	0x3f1d338c	0.6140678
86	0x3f35b0b6	0.70972764
87	0x3d8f893b	0.070085965
88	0xbd22bc72	-0.039730497
89	0x3f1765fe	0.5914
90	0xbe829bc1	-0.25509456
91	0xbd0effea	-0.034912027
92	0x3e2967b7	0.1654347
93	0xbddb9f71	-0.107237704
94	0x3da006eb	0.078138195
95	0xbe7e75fc	-0.24849695
96	0xbe199236	-0.14997181
97	0x3d14c013	0.03631599
98	0x3d23b73c	0.039969668
99	0x3bd4663b	0.0064819134
100	0x3db71e7b	0.089413606
101	0x3df1eb29	0.11812431
102	0xbb8da169	-0.00432222
103	0xbb864684	-0.0040977616
104	0xbd2bee8b	-0.04197554
105	0x3e6d260d	0.23159046
106	0x3e15b2c0	0.14618969
107	0xbd75a3db	-0.059970718
108	0x3d845bde	0.06462835
109	0xbe032998	-0.12808836
110	0x3e14eaaf	0.1454265
111	0xbdb9be8c	-0.09069547
112	0xbe03b51a	-0.12862054
113	0x3cc74624	0.024325438
114	0x3e060eb8	0.13091552
115	0x3e485374	0.19563085
116	0xbebd7c72	-0.37009007
117	0xbf01b896	-0.5067228
118	0xbec6e5d1	-0.3884721
119	0x3de4e16d	0.11175809
120	0xbe86b283	-0.2630807
121	0x3d4d06be	0.050055258
122	0x3bea19a9	0.007144172
123	0xbd4bd19c	-0.049760446
124	0xbe5a41f6	-0.21314225
125	0x3e983fa9	0.2973607
126	0x3e0229cc	0.12711257
127	0x3d677b3d	0.056514014
128	0xbd83887d	-0.064225174
129	0x3d9742ac	0.073857635
130	0xbd3e6bd7	-0.046489563
131	0xbd839dea	-0.06426604
132	0xbddc4521	-0.10755373
133	0x3e3da649	0.18520464
134	0xbdbbf448	-0.09177452
135	0xbe1e87db	-0.15481512
136	0xbd92fb1a	-0.071768
137	0x3e246f9b	0.16058199
138	0x3e927ad9	0.2860935
139	0x3f0072ab	0.5017497
140	0x3e24c560	0.16090918
141	0xbde1d06a	-0.1102608
142	0x3e3941fb	0.18091576
143	0x3cf86e7a	0.030326117
144	0x3d1b1371	0.037860338
145	0xbb6289b6	-0.0034566945
146	0x3e983e2c	0.29734933
147	0x3ed45d24	0.4147731
148	0xbe2d7ee6	-0.16942939
149	0x3e14d219	0.14533271
150	0xbe7014ce	-0.23445436
151	0x3e6e994f	0.2330067
152	0x3d468457	0.048466053
153	0x3da818b8	0.0820784
154	0x3e68feac	0.227534
155	0xbeb45cad	-0.35226956
156	0xbe37b6b5	-0.17940791
157	0xbe3ac3c4	-0.18238741
158	0xbe03d875	-0.1287554
159	0xbd936cc6	-0.07198481
160	0xbddbc09e	-0.10730098
161	0xbdd84b68	-0.105612576
162	0x3dc1e86f	0.09468161
163	0xbe057050	-0.13031125
164	0x3ba70b42	0.0050977776
165	0x3e1de693	0.15419988
166	0x3eb16482	0.34646994
167	0x3e84b289	0.25917462
168	0x3d7e38c7	0.062065866
169	0x3e47f7ba	0.19528094
170	0xbdcb5916	-0.09929101
171	0xbd07e215	-0.033174593
172	0xbe1a7339	-0.15083016
173	0xbc90b75f	-0.017665563
174	0x3da4ca68	0.080464184
175	0xbbd5a1a3	-0.0065195127
176	0x3e84ab80	0.25912094
177	0x3dc66049	0.09686334
178	0xbea0182c	-0.31268442
179	0x3e36226f	0.17786573
180	0x3e5a845d	0.21339555
181	0x3e88c12c	0.26709878
182	0xbe0ab5a5	-0.13545854
183	0xbe0ad0ac	-0.13556165
184	0xbaccaa56	-0.0015614729
185	0x3e688d81	0.2271023
186	0x3df199da	0.11796923
187	0xbe61de4c	-0.22057456
188	0x3d7efb51	0.062251393
189	0xbda9dd84	-0.08294204
190	0xbdba9d90	-0.09112084
191	0xbc995e2b	-0.01872166
192	0x3e242168	0.16028368
193	0x3bcee23d	0.006313591
194	0xbe07b9b9	-0.13254441
195	0xbeacdc70	-0.3376193
196	0x3e5e76f8	0.2172507
197	0x3e281e6b	0.16417854
198	0xbe9b0ada	-0.30281717
199	0x3d82c177	0.06384557
200	0x3d9e5392	0.077307835
201	0xbd81d572	-0.063395396
202	0xbdd341e2	-0.103153005
203	0x3e3452ca	0.17609707
204	0x3d4da3e4	0.050205126
205	0x3e85dcc3	0.2614499
206	0xbd371c69	-0.04470483
207	0x3d221200	0.039567947
208	0xbcc7fb9b	-0.024411967
209	0x3e2fae96	0.17156443
210	0x3ed58ee4	0.4171058
211	0x3ea86ab0	0.32893896
212	0x3ee2a644	0.44267476
213	0x3f3f563e	0.7474097
214	0x3ea6e481	0.3259621
215	0xbd83ed36	-0.06441729
216	0xbdb0b9d7	-0.08629196
217	0xbcb1215b	-0.02162235
218	0x3ca4f383	0.020135647
219	0x3e4c487e	0.19949529
220	0x3e5e6899	0.21719588
221	0x3dccfb52	0.10008873
222	0x3dff5ecc	0.12469253
223	0xbcf53f8a	-0.029937524
224	0x3df999e2	0.12187554
225	0x3e08f257	0.13373695
226	0xbdebc669	-0.11512453
227	0x3e1d63e5	0.15370138
228	0x3d77f45f	0.060535785
229	0x3ef5218f	0.47877166
230	0x3dd392ed	0.10330758
231	0x3ca392dc	0.019967489
232	0xbd1c7a7e	-0.038202755
233	0x3c060648	0.0081802085
234	0xbd349ee9	-0.04409686
235	0x3ee82dcd	0.45347443
236	0x3f095e17	0.53659195
237	0x3d9a9437	0.07547801
238	0x3e9b9afe	0.30391687
239	0x3e2b3fde	0.16723582
240	0x3e09d41d	0.13459821
241	0x3d6744d8	0.05646214
242	0xbbf39e8e	-0.0074346727
243	0x3debd159	0.11514539
244	0x3e20ffdc	0.15722603
245	0x3f1d92bc	0.61552024
246	0x3e857d84	0.26072323
247	0x3ddd27ed	0.10798631
248	0x3d25cfa7	0.040481236
249	0x3de9aee0	0.11410308
250	0x3eb89fcb	0.36059412
251	0x3e19b4be	0.15010354
252	0xbda2811c	-0.07934782
253	0x3e40c292	0.18824223
254	0x3e8589be	0.2608165
255	0xbea6d87c	-0.3258704

actor.0.bias f4 [128]
0	0x3d1f008f	0.038818892
1	0xbdd5d5c7	-0.104411654
2	0xbded6a06	-0.11592488
3	0x3e1bbaf4	0.15208036
4	0xbddb2887	-0.10701089
5	0xbccb4764	-0.024814315
6	0xbe06ff92	-0.1318343
7	0x3e11d6b6	0.14242062
8	0x3e7ee556	0.24892172
9	0x3d872375	0.0659856
10	0x3eb7642d	0.35818616
11	0xbcf8cdda	-0.030371595
12	0xbdb0196a	-0.08598597
13	0xbc9ac57c	-0.018892996
14	0xbdb25746	-0.08708052
15	0xbd2152c5	-0.039385576
16	0x3dcf6c7f	0.10128116
17	0xbdb1705f	-0.08664011
18	0xbd3ebe0b	-0.046567958
19	0x3d8aff2f	0.06786954
20	0x3cc70a5c	0.024296932
21	0x3d203f9d	0.039123166
22	0xbdff4ad1	-0.12465442
23	0x3d8ab4d6	0.06772773
24	0x3e199176	0.14996895
25	0xbc38bd2e	-0.011275573
26	0xbd2f128c	-0.042742297
27	0x3df86753	0.121290825
28	0x3e0ba34a	0.13636509
29	0x3dad5e0f	0.08465206
30	0xbe0b11a6	-0.13580951
31	0x3e1ffcdd	0.15623803
32	0x3e51bf1e	0.20483062
33	0x3da53a3d	0.08067749
34	0x3d8a2335	0.067449965
35	0x3da7b8af	0.081895225
36	0xbc776180	-0.015098929
37	0x3dccd9ee	0.10002504
38	0xbd908dc0	-0.07058287
39	0xbca982f8	-0.020692334
40	0xbcbf6519	-0.023363637
41	0xbdf5475a	-0.119765
42	0xbc4e6f71	-0.012599812
43	0x3ded7591	0.1159469
44	0x3d144a17	0.03620347
45	0x3deb1fad	0.11480651
46	0x3d09b82a	0.0336229
47	0x3d2906e7	0.04126635
48	0x3bd32243	0.0064432933
49	0x3d7dded5	0.061980087
50	0xbdcc7632	-0.099834815
51	0x3dbe576b	0.092940174
52	0x3ddf219b	0.108950816
53	0x3d4e5f1a	0.050383665
54	0x3e1f879c	0.15579075
55	0xbe21a08d	-0.15783902
56	0x3ddde468	0.10834581
57	0x3d0d69e5	0.034524817
58	0x3e90ad4d	0.28257218
59	0x3e04b3f4	0.12959272
60	0x3ec51223	0.384904
61	0x3e3bd8b2	0.18344381
62	0xbc92cfb0	-0.017921299
63	0xbdb51f55	-0.08843867
64	0x3cb048ba	0.021519054
65	0xbdc21cd6	-0.09478156
66	0xbe13828b	-0.14405267
67	0x3e0a23a7	0.13490163
68	0xbe02eee3	-0.1278644
69	0xbc669fe2	-0.014076205
70	0x3bd2c5f3	0.006432289
71	0xbe1bdd63	-0.15221171
72	0x3e38ba35	0.18039782
73	0xbc7b8cbb	-0.015353377
74	0xbe1ad866	-0.15121612
75	0x3e20c744	0.15701014
76	0xbe17f9e6	-0.14841422
77	0xbdf0351f	-0.11728882
78	0xbd871d83	-0.06597426
79	0x3cfd51b1	0.030922743
80	0x3e0a93c4	0.1353293
81	0x3e332c83	0.17497449
82	0x3e186f5e	0.14886233
83	0xbdf53aba	-0.11974092
84	0x3d7c21a0	0.061555505
85	0x3e183e99	0.14867629
86	0xbc5a1f28	-0.013313092
87	0xbe30b38c	-0.17255992
88	0x3d44a983	0.04801322
89	0x3e865ba7	0.262418
90	0xbc9ec14c	-0.01937928
91	0x3e2ddcb9	0.1697873
92	0x3e0f6169	0.14002003
93	0x3e4b8ab8	0.19877136
94	0x3dac3837	0.0840916
95	0x3b0b3953	0.0021243885
96	0xbd8662b3	-0.06561794
97	0xbcffc5c6	-0.031222235
98	0x3e557c50	0.20848203
99	0xbddd642b	-0.10810121
100	0xbd8a5c84	-0.06755927
101	0xbd7853be	-0.060626738
102	0x3dd596e0	0.10429168
103	0xbe0a4535	-0.13502963
104	0xbdf9819b	-0.121829234
105	0x3d0cfbe0	0.034419894
106	0x3e616e06	0.22014627
107	0xbdf3d790	-0.1190635
108	0xbe1ddb22	-0.15415624
109	0xbda6d365	-0.08145789
110	0xbe284f7b	-0.1643657
111	0x3d0a2a41	0.033731703
112	0x3e070bae	0.13188049
113	0x3e145349	0.14484896
114	0x3e859a02	0.2609406
115	0xbe16cab9	-0.1472577
116	0xbd825a30	-0.06364858
117	0x3dda89d0	0.10670817
118	0xbd808f45	-0.062773265
119	0xbc98010c	-0.018555187
120	0x3e16d81a	0.14730874
121	0x3de3511d	0.110994555
122	0x3dabefa7	0.083953194
123	0x3e31a773	0.17349033
124	0x3e2ceebb	0.16887943
125	0x3e185bfd	0.1487884
126	0x3e55ac54	0.20866519
127	0x3de6e106	0.112733886

actor.2.weight f4 [128, 128]
0	0x3ce55d62	0.02799863
1	0x3e141802	0.14462283
2	0xbd966a6c	-0.07344517
3	0xbdebeb15	-0.11519448
4	0x3dbb4aed	0.0914515
5	0x3e0a83bc	0.13526815
6	0x3dd96c3e	0.10616349
7	0x3db37c4d	0.08763943
8	0xbd451cb9	-0.048123095
9	0xbbd6d776	-0.0065564467
10	0x3efeb931	0.49750665
11	0xbd0053bb	-0.03132985
12	0xbc3c46b7	-0.011491469
13	0x3d252431	0.040317718
14	0xbdc18f67	-0.0945118
15	0x3e4b2ab4	0.19840509
16	0x3e58780b	0.21139543
17	0x3db99569	0.09061701
18	0xbc5674ca	-0.013089368
19	0xbd994773	-0.07484331
20	0x3d21740f	0.039417323
21	0xbca08b38	-0.019597635
22	0xbe011f12	-0.12609509
23	0xbe20ba5e	-0.15696093
24	0xbd94efbd	-0.07272289
25	0x3c30110c	0.010746252
26	0xbcb9ac2a	-0.022665102
27	0xbd2aa04e	-0.041656785
28	0xbcd16992	-0.025563035
29	0x3c5c4af9	0.013445609
30	0xbddc9c06	-0.107719466
31	0xbc6b0fa8	-0.014346994
32	0xbd086112	-0.0332957
33	0x3d441c93	0.047878813
34	0xbd3e3c8a	-0.046444453
35	0xbe6e938b	-0.2329847
36	0xbd607d57	-0.054807033
37	0x3b3ac212	0.0028497023
38	0xbd8e9266	-0.06961517
39	0x3dfc31b3	0.12314167
40	0xbe050569	-0.12990345
41	0xbdfb86ad	-0.12281547
42	0xbe1f293d	-0.15543075
43	0xbe74d9fa	-0.23911276
44	0xbe44e5a0	-0.1922822
45	0xbdd3fe3d	-0.103512265
46	0x3d83d0c8	0.06436306
47	0x3c3125bc	0.010812219
48	0xbe5ad484	-0.21370131
49	0x3c896a69	0.016774373
50	0xbe178d7e	-0.14800069
51	0x3dce6ce5	0.10079364
52	0xbda750b2	-0.08169688
53	0xbe264936	-0.16238865
54	0xbcc860b9	-0.024460183
55	0xbdde3f46	-0.10851912
56	0x3e12d193	0.14337759
57	0xbc9d926e	-0.019234862
58	0xbdb6cfd2	-0.08926357
59	0xbe333ec0	-0.17504406
60	0x3e3a7fd2	0.18212822
61	0xbe155358	-0.14582574
62	0xbdb3e9b9	-0.087848134
63	0xbddeb17e	-0.10873698
64	0x3e146893	0.14493017
65	0xbd66dfd6	-0.05636581
66	0xbc843bc4	-0.01614178
67	0x3d4daa4b	0.050211232
68	0x3cfabc74	0.03060744
69	0x3c010a42	0.007875981
70	0xbdb132ba	-0.086522534
71	0x3c8d9526	0.017283034
72	0x3e3c946b	0.18415992
73	0xbd156a46	-0.036478303
74	0x3d42b0b5	0.047531802
75	0xbdfacb02	-0.12245752
76	0xbea0886b	-0.3135408
77	0xbd86a0d6	-0.06573646
78	0xbcf215c1	-0.029551389
79	0xbdb2d24f	-0.087315194
80	0xbd4a328d	-0.049364615
81	0x3e68d71f	0.22738312
82	0x3cf80a90	0.030278474
83	0xbe8b1de8	-0.27171254
84	0xbd955552	-0.07291664
85	0x3d01127e	0.031511776
86	0xbcecef93	-0.028922832
87	0x3ce907fa	0.028446186
88	0x3b97d72f	0.004633806
89	0xbe4426eb	-0.19155471
90	0xbdb2f3de	-0.0873792
91	0xbdbd4ed7	-0.09243553
92	0xbcdd121d	-0.026986176
93	0x3d1a666f	0.037695345
94	0xbb3ec568	-0.0029109363
95	0xbe32ba7d	-0.17453952
96	0xbd0af59e	-0.033925645
97	0x3d819c3b	0.06328627
98	0xbd342e2b	-0.04398934
99	0x3d37277d	0.044715393
100	0x3c701d7f	0.01465547
101	0xbdc6aa2d	-0.09700427
102	0xbea757d5	-0.32684198
103	0x3d8d94a6	0.06913118
104	0xbe1b2873	-0.15152149
105	0x3e724fc5	0.23663242
106	0x3e87f542	0.26554304
107	0x3e0c5c20	0.13707018
108	0xbda45699	-0.0802433
109	0xbe2e980b	-0.17050187
110	0x3db9515a	0.0904872
111	0xbb6d2ffb	-0.0036191929
112	0xbb857588	-0.0040728487
113	0xbe599ffc	-0.21252435
114	0x3e0e3d97	0.13890682
115	0x3d65e97f	0.056130882
116	0x3c261456	0.010136684
117	0x3c9376ae	0.018000927
118	0x3d780591	0.060552184
119	0xbc1788ce	-0.009248925
120	0x3e785b08	0.24253476
121	0x3e730024	0.23730522
122	0x3dd77ee7	0.105222516
123	0xbb8bbbed	-0.004264346
124	0x3e3ca479	0.18422116
125	0x3d9b6999	0.075885005
126	0xbe84189c	-0.25800025
127	0x3ca40ebb	0.020026555
128	0xbde36c72	-0.11104669
129	0xbdc4f2e2	-0.09616639
130	0x3d50fa34	0.051019862
131	0xbd5729fe	-0.05253028
132	0x3d811e20	0.06304574
133	0xbd1fbdc2	-0.038999327
134	0x3d830389	0.06397159
135	0xbd2e00f3	-0.042481374
136	0x3d33450f	0.04376703
137	0xbd7c3921	-0.06157792
138	0xbe2b2096	-0.1671165
139	0xbcf164b7	-0.02946697
140	0xbd55a59c	-0.05215989
141	0xbdc0aa66	-0.09407501
142	0x3c32fa1a	0.010923887
143	0x3d0fc6e4	0.035101786
144	0xbd928296	-0.071538135
145	0x3a90e497	0.0011054453
146	0x3b5ac31b	0.0033380452
147	0x3e45d12d	0.19318075
148	0xbd3bb252	-0.045824356
149	0xbdb0c4b2	-0.08631267
150	0xbe19416f	-0.14966367
151	0xbdd842a3	-0.10559585
152	0x3d55f00b	0.052230876
153	0x3d7197cb	0.05898265
154	0x3c7389fc	0.014864441
155	0xbdcdd9ce	-0.100513086
156	0xbd65599e	-0.05599367
157	0xbcd9e752	-0.02659956
158	0x3d54e47d	0.051975716
159	0x3e80bc7f	0.2514381
160	0x3cef49a8	0.029209927
161	0x3d85985b	0.065232
162	0x3c92c6e4	0.017917104
163	0x3b514183	0.0031929917
164	0x3cc661ae	0.0242165
165	0x3d82ed84	0.06392959
166	0xbd7ee798	-0.062232584
167	0x3d047b5b	0.032344203
168	0x3d2c5481	0.042072777
169	0xbd3f2e15	-0.046674807
170	0x3e792fc9	0.24334635
171	0x3ca4ba87	0.020108474
172	0x3d0be933	0.034157943
173	0x3d2f4d94	0.042798594
174	0xbe06e976	-0.13174996
175	0x3ec9e206	0.39430255
176	0x3d9e920c	0.077427
177	0xbc5f3c27	-0.013625181
178	0x3ca48f51	0.02008787
179	0x3e28ac1d	0.16471906
180	0x3e55030f	0.20801948
181	0x3d451f0c	0.04812531
182	0x3d7aa8a9	0.061196003
183	0x3c053ac5	0.0081316875
184	0xbd885cb5	-0.066583075
185	0x3dcd7b85	0.10033325
186	0x3da5ab33	0.08089294
187	0x3db15979	0.08659644
188	0xbe86dfea	-0.26342708
189	0xbdb2548c	-0.08707532
190	0x3c36ad91	0.01114978
191	0xbd84494f	-0.06459295
192	0x3bbd7427	0.0057816687
193	0xbd4d083e	-0.05005669
194	0xbd38ae49	-0.045088086
195	0x3d30e3e3	0.04318608
196	0xbdb5c874	-0.08876124
197	0x3bd19975	0.0063964673
198	0x3deff5d1	0.11716808
199	0x3be5d1ad	0.0070135207
200	0x3d907002	0.07052614
201	0x3d1bb209	0.038011584
202	0xbd4ab707	-0.049490955
203	0xbd22a09e	-0.039703958
204	0x3dd9cfc0	0.10635328
205	0x3dc6f125	0.097139634
206	0xbd66211b	-0.056183916
207	0xbbf773ff	-0.0075516696
208	0xbdbbedd0	-0.091762185
209	0x3e2f7744	0.1713534
210	0xbc8e7656	-0.017390411
211	0x3e7ef026	0.24896297
212	0x3e7687b8	0.2407521
213	0x3cd1ad09	0.025595205
214	0xbdd82ec8	-0.10555798
215	0xbd5148da	-0.051094867
216	0xbb5cf65b	-0.0033716175
217	0x3c19beba	0.009383852
218	0x3d39439d	0.045230497
219	0x3d90eca6	0.07076387
220	0xbe081c7f	-0.1329212
221	0xbd961287	-0.073277526
222	0x3d24dbc2	0.04024864
223	0xbce2a3b3	-0.027665948
224	0x3d39ab9d	0.04532968
225	0xbd8ec1c8	-0.069705546
226	0x3c1a94bd	0.009434876
227	0xbd0aaf3a	-0.033858515
228	0x3bb8be6c	0.0056379344
229	0x3d1333c2	0.035938032
230	0x3d663f7f	0.0562129
231	0xbdc58eb0	-0.09646356
232	0xbd607fff	-0.054809567
233	0xbd4e123f	-0.05031037
234	0xbe22003a	-0.15820399
235	0xbce49a87	-0.027905716
236	0xbdd8f362	-0.105932966
237	0x3b0de225	0.0021649685
238	0xbe18184e	-0.14853022
239	0xbcb227cf	-0.021747498
240	0x3c69b692	0.01426472
241	0xbdfb72e8	-0.12277776
242	0xbe544d25	-0.20732553
243	0xbc1943da	-0.009354556
244	0xbdb43b04	-0.08800319
245	0xbde5fe5f	-0.11230158
246	0xbdc8c671	-0.09803475
247	0xbbf92580	-0.0076033473
248	0xbdedc2ab	-0.116093956
249	0xbd9d409f	-0.07678341
250	0xbe0d31ea	-0.13788572
251	0x3b30e7cc	0.002699363
252	0xbcfd0210	-0.030884773
253	0xbcd93ab2	-0.026517246
254	0x3d15cbe9	0.036571417
255	0x3d9a3946	0.07530455

actor.2.bias f4 [128]
0	0xbced6e6b	-0.028983315
1	0xbd0799b8	-0.033105582
2	0x3e311fb3	0.17297249
3	0x3d1e02d1	0.038576905
4	0x3d45a7d7	0.048255768
5	0x3cd7ccb9	0.026342737
6	0x3d7cf0f8	0.061753243
7	0xbdbbef3a	-0.09176488
8	0x3d2662a5	0.04062142
9	0x3dc9775a	0.09837218
10	0xbbc66bbe	-0.0060553243
11	0xbc7cc1e9	-0.015427091
12	0xbd48ae54	-0.048994377
13	0x3d073a9f	0.03301489
14	0xbda48980	-0.080340385
15	0xbd425047	-0.04743984
16	0x3db9cb8f	0.09072029
17	0x3d427ef7	0.047484364
18	0x3e014679	0.1262454
19	0x3e201f50	0.15636945
20	0xbc5aae9d	-0.013347295
21	0x3d6b95c6	0.057515882
22	0x3dcaefe1	0.099090345
23	0x3d90e62e	0.07075153
24	0x3d0cb911	0.03435618
25	0xbdb5d1d0	-0.08877909
26	0xbd39f7fd	-0.045402516
27	0x3ca1bcd1	0.019743355
28	0x3d3800f6	0.04492279
29	0x3d4e626d	0.050386835
30	0xba2421d9	-0.0006261147
31	0x3cfae840	0.030628324
32	0x3c2a9234	0.010410834
33	0x3cb78180	0.022400618
34	0xbd87fe67	-0.0664032
35	0x3c7f9af8	0.015600912
36	0xbcc80ebc	-0.024421088
37	0x3ddae155	0.1068751
38	0xbd8340ad	-0.0640882
39	0x3ba7db0e	0.005122549
40	0x3b1dfd48	0.0024107266
41	0x3cae3d85	0.02126957
42	0xbd630660	-0.055426
43	0xbcdddf76	-0.027084094
44	0xbd44df70	-0.04806465
45	0x3e130223	0.14356284
46	0x3d885000	0.06655884
47	0x3c89bb54	0.016812958
48	0x3de512aa	0.111852005
49	0x3b4de059	0.003141424
50	0x3db1f24e	0.08688794
51	0xbdfe9298	-0.12430304
52	0xbdab6ed7	-0.083707504
53	0xbce10b3d	-0.02747118
54	0x3dae7d4a	0.08519991
55	0xbdd1dc8c	-0.10247144
56	0xbccf3066	-0.025291633
57	0x3dabb65a	0.0838439
58	0x3cabe324	0.020982333
59	0x3df74288	0.12073237
60	0x3e03c5cf	0.12868427
61	0xbdfded2f	-0.12398755
62	0x3dba61fc	0.0910072
63	0xbdc9a6d3	-0.09846272
64	0x3d3f7f69	0.046752367
65	0x3cbf1591	0.023325713
66	0x3d727aa2	0.059198983
67	0xbc7aa7db	-0.015298809
68	0xbd886cdc	-0.06661388
69	0xbdaf00f0	-0.08545101
70	0xbda6d1ea	-0.08145507
71	0xbda5a2ec	-0.080877155
72	0xbd323fbd	-0.043517817
73	0x3d2e5211	0.042558733
74	0xbe3113ea	-0.17292753
75	0x3d083e4e	0.033262543
76	0xbd214121	-0.039368752
77	0x3c18d88e	0.009328974
78	0x3d1935a5	0.037404675
79	0xbd831924	-0.064012796
80	0x3e13b9cb	0.14426343
81	0x3d70e37f	0.058810707
82	0x3dedd2fa	0.11612506
83	0xbc251bc1	-0.010077418
84	0x3d58ccd3	0.05292971
85	0xbdb79589	-0.089640684
86	0xbd5bb5c2	-0.053640135
87	0xbd8c1db1	-0.06841601
88	0xbd975c37	-0.073906355
89	0xbc8562b1	-0.016282411
90	0x3c9da810	0.019245178
91	0xbcd353ef	-0.025796859
92	0xbdad1a09	-0.084522314
93	0x3dc8b117	0.09799402
94	0x3d6cdede	0.05782973
95	0xbd71c6f2	-0.05902762
96	0xbaa8089f	-0.0012819952
97	0x3d8344e0	0.06409621
98	0x3d405ffa	0.04696653
99	0x3da24b69	0.079245396
100	0xbd31c73c	-0.043402895
101	0x3c3bbdfd	0.011458871
102	0xbcacf584	-0.021113165
103	0x3da78076	0.08178799
104	0x3cf819d1	0.030285748
105	0x3d9882a9	0.074467964
106	0x3d534335	0.051577765
107	0x3d911c21	0.07085443
108	0x3d1e3b29	0.03863064
109	0xbdbd0be9	-0.09230787
110	0xbbb779fe	-0.0055992594
111	0x3c75b3a3	0.014996442
112	0xbe2bb656	-0.16768774
113	0xbbe44f90	-0.0069674924
114	0xbd31a326	-0.04336848
115	0x3d018974	0.031625226
116	0x3d2bef96	0.041976534
117	0xbd88a1d8	-0.06671494
118	0x3d98d49b	0.07462426
119	0xbdacda30	-0.084400535
120	0xbdbcb1ae	-0.09213577
121	0xbd5d73d1	-0.05406553
122	0xbcf8e00c	-0.030380271
123	0x3cb92fe8	0.022605851
124	0x3d9d782a	0.07688935
125	0x3d606fb2	0.05479402
126	0xbc605ba1	-0.013693721
127	0xbd8305eb	-0.06397613

actor.4.weight f4 [64, 128]
0	0xbc1d6fc9	-0.009609171
1	0xbd6460de	-0.055756442
2	0xbd003721	-0.031302575
3	0xbeea4865	-0.45758358
4	0xbe2a8661	-0.16652824
5	0x3ce9c995	0.028538505
6	0xbde1aa7a	-0.11018844
7	0x3dc9bd29	0.098505326
8	0x3df69f69	0.12042124
9	0x3e517044	0.20452982
10	0xbe925427	-0.28579828
11	0xbc82a392	-0.015947137
12	0x3e31400f	0.17309593
13	0x3e2bc138	0.16772926
14	0x3e222f73	0.15838413
15	0xbdd02e49	-0.10165078
16	0x3e0c6320	0.13709688
17	0xbe913b5b	-0.28365597
18	0xbb5465f7	-0.0032409409
19	0xbd949789	-0.072554655
20	0x3e38c25c	0.18042892
21	0x3f05c011	0.52246195
22	0x3eb114d3	0.345862
23	0x3e3f6bed	0.18693514
24	0x3d8aef03	0.06783869
25	0xbe7db164	-0.247747
26	0xbe7d1c97	-0.24717937
27	0xbde9ab61	-0.11409641
28	0xbddfb3c7	-0.10922962
29	0x3e1d9f75	0.1539286
30	0x3d198256	0.037477814
31	0x3e4a6ab7	0.19767271
32	0xbdd2491f	-0.10267853
33	0xbdd9720a	-0.10617454
34	0x3dc5e8ea	0.096635655
35	0xbdc73b64	-0.09728125
36	0xbe45a334	-0.19300538
37	0x3d5e5f31	0.05429
38	0x3e538276	0.20655236
39	0x3e4cba71	0.19992997
40	0xbcef4bb1	-0.029210897
41	0x3da96684	0.082715064
42	0xbe648605	-0.2231675
43	0xbe96da82	-0.29463583
44	0x3e787b52	0.24265793
45	0x3e04a566	0.1295372
46	0x3ed3125d	0.41224948
47	0x3e1bb061	0.15204002
48	0xbe2bb8a6	-0.16769657
49	0xbe5cb6a2	-0.21554044
50	0xbd38d21f	-0.045122262
51	0xbea1d6ad	-0.31609097
52	0xbdabe1c9	-0.083926745
53	0xbcb70b35	-0.022344211
54	0x3cf0a669	0.029376226
55	0x3cbe02b2	0.023194645
56	0x3d8c7298	0.068577945
57	0xbec1b1fe	-0.3783111
58	0xbe56ed5d	-0.20988984
59	0xbeb76de0	-0.35826015
60	0x3ec20aa3	0.3789874
61	0xbe482fa4	-0.19549423
62	0xbe56e29b	-0.2098488
63	0x3dbb3012	0.09140028
64	0x3e979636	0.2960679
65	0xbe741b9c	-0.23838657
66	0x3e0adcd7	0.13560806
67	0xbe4400b9	-0.191409
68	0xbe5ee87c	-0.21768373
69	0x3e1bfa27	0.15232144
70	0x3d6ac8cd	0.057320405
71	0xbefc292c	-0.49250162
72	0x3a1a818f	0.00058939395
73	0x3d42dd4c	0.047574326
74	0xbe08ee85	-0.13372238
75	0xbc4bc74c	-0.012437653
76	0xbe8ecf71	-0.2789264
77	0x3e7f9b48	0.24961579
78	0xbe3b91c5	-0.18317325
79	0x3d2a57d4	0.041587666
80	0x3d03d9b4	0.03219004
81	0x3e9e054c	0.30863416
82	0xbd8bca04	-0.06825641
83	0xbec38a5f	-0.38191506
84	0xbd9fbae6	-0.0779932
85	0xbdc5a3b3	-0.09650364
86	0x3ebb1502	0.36539465
87	0xbb98dd11	-0.004665025
88	0x3e2452ea	0.16047254
89	0x3eaa2c2f	0.33236834
90	0x3d2c9bf0	0.0421409
91	0xbdd97e73	-0.106198214
92	0x3ed7edb1	0.42173532
93	0x3ed5d9e6	0.41767806
94	0x3d6e481c	0.058174238
95	0x3de23c73	0.11046686
96	0xbe043b4e	-0.12913248
97	0x3d7a9a56	0.061182342
98	0x3eb8af09	0.3607104
99	0x3c7d1623	0.015447172
100	0xbd5e2f23	-0.05424417
101	0x3ea72651	0.3264642
102	0x3e1fae27	0.15593778
103	0x3e373599	0.1789154
104	0x3e2c6288	0.16834462
105	0xbcac41b6	-0.021027427
106	0xbe1a73b1	-0.15083195
107	0x396a4ec7	0.00022345326
108	0xbd7bc186	-0.061463855
109	0x3da1d3d8	0.07901734
110	0x3e87a6e1	0.26494506
111	0xbe4b4a6f	-0.19852613
112	0xbe71354f	-0.23555492
113	0x3ea3e125	0.3200771
114	0x3e1692c8	0.1470443
115	0x3e2a5f6c	0.16637963
116	0x3e2af421	0.1669469
117	0xbeaa708c	-0.3328899
118	0x3dda8dc3	0.1067157
119	0x3eb94f4a	0.36193305
120	0x3d0fa5f0	0.03507036
121	0xbe063240	-0.13105106
122	0xbe127402	-0.14302066
123	0x3dc0f340	0.09421396
124	0xbe0f89fe	-0.14017484
125	0xbd2f70fd	-0.042832363
126	0xbe20500e	-0.15655538
127	0x3e0c7213	0.13715391
128	0x3e06b83c	0.13156217
129	0xbd8b299d	-0.067950465
130	0x3e71aac1	0.23600294
131	0xbe8f7580	-0.28019333
132	0x3d844f77	0.06460469
133	0x3ba7afbc	0.0051173847
134	0x3d0f2f3f	0.034957167
135	0x3e813b5b	0.25240597
136	0xbccac79d	-0.024753386
137	0x3e31e7b6	0.17373547
138	0xbdcb1c7e	-0.09917544
139	0xbe687262	-0.22699884
140	0xbe6d6947	-0.23184691
141	0x3e739ba4	0.23789841
142	0xbd9f2235	-0.07770196
143	0x3d49fdc3	0.04931427
144	0xbd66dd0a	-0.056363143
145	0xbdfe659c	-0.12421724
146	0xbd9c3097	-0.07626455
147	0x3e197171	0.1498468
148	0x3dd79a3a	0.10527463
149	0x3e785aa0	0.2425332
150	0x3de29c9b	0.110650264
151	0x3e47331f	0.19453095
152	0x3e849a98	0.25899196
153	0xbe50706a	-0.20355383
154	0xbf03e10b	-0.51515263
155	0xbe4382f5	-0.19092925
156	0xbe73f8d2	-0.23825386
157	0xbe8c9d84	-0.27463925
158	0x3db2fd51	0.087397225
159	0x3e2abe8a	0.16674247
160	0xbdc3923a	-0.09549375
161	0xbe2642d4	-0.1623643
162	0x3d86bfef	0.06579577
163	0xbd53224c	-0.05154638
164	0xbc9fba82	-0.019498114
165	0x3e4431bb	0.19159596
166	0xbdbc8d72	-0.09206666
167	0x3dd5c133	0.104372405
168	0x3dda8380	0.10669613
169	0xbda50a3d	-0.080585934
170	0xbe297224	-0.16547447
171	0xbeb42dd8	-0.35191226
172	0xbe2fb3ac	-0.17158383
173	0x3d87bb4e	0.066275224
174	0x3e164738	0.14675605
175	0xbddb650a	-0.10712631
176	0xbdd01bee	-0.10161577
177	0xbd4abf3b	-0.049498778
178	0xbe424997	-0.18973385
179	0xbe3716fb	-0.1787986
180	0xbe8be6ec	-0.27324617
181	0xbda8aa86	-0.0823565
182	0xbdca1625	-0.09867505
183	0x3b9f59e4	0.0048630107
184	0x3c80b29d	0.01571017
185	0xbe241795	-0.16024621
186	0xbe451a84	-0.19248396
187	0x3e06d832	0.1316841
188	0xbdf9864f	-0.121838205
189	0xbd88f1d6	-0.066867515
190	0xbd8f484f	-0.06996214
191	0xbe1db3b2	-0.1540058
192	0x3e1aa752	0.1510289
193	0x3daf444a	0.08557947
194	0x3e1b5ab3	0.15171318
195	0x3e10afc1	0.14129545
196	0xbda1c97c	-0.07899758
197	0x3de87cc9	0.11351926
198	0x3e102b88	0.14079106
199	0xbd93b6c7	-0.072125964
200	0x3e010bfb	0.12602226
201	0x3e37002d	0.17871161
202	0xbde2ccfd	-0.11074255
203	0xbb337258	-0.0027381387
204	0xbe814760	-0.25249767
205	0xbe283b9b	-0.16428988
206	0x3d1bd7df	0.038047668
207	0x3dedb63d	0.11607025
208	0xbe53dadc	-0.20688957
209	0xbd6c65d7	-0.05771431
210	0xbc9abe45	-0.018889556
211	0x3e26d539	0.16292275
212	0xbda5123c	-0.080601186
213	0xbe599520	-0.21248293
214	0x3be7a612	0.0070693577
215	0xbb0a2bf5	-0.002108333
216	0x3d2efe2f	0.042722877
217	0x3ecd49e9	0.4009545
218	0x3d82d681	0.063885696
219	0x3e79ffcd	0.24413987
220	0x3d40a643	0.04703356
221	0xbd2d5753	-0.042319607
222	0x3e2e23bc	0.17005819
223	0x3e7913cb	0.24323957
224	0xbcbe92f0	-0.023263425
225	0xbe2e2149	-0.17004885
226	0x3dddad0c	0.10824022
227	0x3c32df52	0.0109175015
228	0xbe92e0ff	-0.28687283
229	0x3a18ba6b	0.0005826118
230	0x3e936cdf	0.28794
231	0xbc06d7f9	-0.008230203
232	0xbdd650dc	-0.104646415
233	0xbdbd604a	-0.09246881
234	0x3d95bb2a	0.07311089
235	0x3e4e4763	0.2014442
236	0x3daebaba	0.08531709
237	0x3da9674e	0.08271657
238	0xbd4937c6	-0.049125455
239	0x3df85b52	0.12126793
240	0xbe6de6fc	-0.23232645
241	0x3dc95b39	0.098318525
242	0x3ecade9e	0.39622968
243	0x3e1ccf41	0.15313436
244	0x3e9e0eff	0.30870816
245	0xbe365887	-0.17807208
246	0x3d52739c	0.051379785
247	0x3e3d1fbb	0.18469135
248	0xbd7c0b5c	-0.06153427
249	0xbe0226f8	-0.12710178
250	0x3dffdb6b	0.124930225
251	0xbb8f94ab	-0.0043817363
252	0x3d498ffe	0.049209587
253	0x3e65c663	0.2243896
254	0x3dfd2db9	0.123622365
255	0x3c9310fe	0.017952438

actor.4.bias f4 [64]
0	0x3def824e	0.116947755
1	0x3dc41a1e	0.09575294
2	0xbe991be0	-0.2990408
3	0x3de06d80	0.109583855
4	0x3d531fdd	0.05154406
5	0xbc950b24	-0.018193789
6	0x3d46f2e5	0.048571486
7	0x3d02340e	0.031787924
8	0xbd0cf6d8	-0.034415096
9	0x3e1da385	0.15394409
10	0x3dccc813	0.09999099
11	0xbc8e3428	-0.017358854
12	0xbe2fbb24	-0.17161232
13	0xbd1ebe82	-0.0387559
14	0x3c0f806e	0.008758647
15	0x3df736e0	0.120710135
16	0x3c0297e3	0.007970783
17	0x3d87b721	0.06626726
18	0xbcb639a2	-0.022244278
19	0xbd3c00fd	-0.04589938
20	0x3b3a07a4	0.0028385902
21	0xbc8bfe8f	-0.017089156
22	0x3d5c7400	0.053821564
23	0x3d668aba	0.056284644
24	0x3de5f80d	0.112289526
25	0xbd361a7f	-0.044458862
26	0x3d2d5ca8	0.042324692
27	0x3dd84413	0.10559859
28	0xbdff14bb	-0.12455126
29	0x3d05164e	0.032491975
30	0xbd4538c9	-0.048149858
31	0x3d927085	0.07150368
32	0x3dc857d8	0.0978238
33	0x3db0d237	0.08633845
34	0xbb931f5a	-0.0044898214
35	0x3dd1dc7d	0.10247133
36	0x3db482fb	0.08814045
37	0xbc82e311	-0.015977414
38	0x3e05cc27	0.13066159
39	0xbd111824	-0.035423413
40	0xbc428e8c	-0.011874806
41	0xbd398ec2	-0.04530216
42	0x3cad3b77	0.02114652
43	0x3da40242	0.08008243
44	0x3d0cf421	0.034412507
45	0x3ce634b1	0.028101297
46	0x3ddb29c8	0.107013285
47	0x3d3fe936	0.046853267
48	0x3dd4b314	0.10385719
49	0xbd11516f	-0.03547805
50	0x3d9601f6	0.07324593
51	0x3dcc9d9a	0.099909976
52	0x3da615f4	0.08109656
53	0x3e0c0a9d	0.13675924
54	0xbd8944da	-0.067025855
55	0x3d67f835	0.056633193
56	0x3bceae43	0.0063073947
57	0x390c656e	0.00013389226
58	0x3dd646aa	0.10462697
59	0xbd1a6182	-0.037690647
60	0x3e03f64e	0.12886927
61	0x3dbe37c6	0.09287982
62	0x3d911a5a	0.07085104
63	0xbd7a9430	-0.06117648

actor.6.weight f4 [15, 64]
0	0x3deec936	0.11659472
1	0xbe039172	-0.12848452
2	0xbe673566	-0.22578964
3	0x3ea9c132	0.3315521
4	0x3eef9cbf	0.46799275
5	0xbee8ab0d	-0.45443
6	0x3db4c6f2	0.08827008
7	0xbdfe7561	-0.12424732
8	0xbdae6422	-0.085151926
9	0x3eafa828	0.3430798
10	0x3e4b4cfb	0.19853584
11	0x3e8c9c12	0.27462822
12	0xbe86543f	-0.2623615
13	0x3eaa1bb9	0.33224276
14	0x3ecf31cc	0.4046768
15	0x3e51cea9	0.20488991
16	0x3e3c903e	0.18414399
17	0xbe634427	-0.22193967
18	0xbccd8e41	-0.025092246
19	0x3ec00a57	0.3750789
20	0x3ed0b66b	0.40764174
21	0x3de0731a	0.10959454
22	0x3e385aa0	0.1800332
23	0x3e830349	0.25588444
24	0xbe43bbff	-0.19114684
25	0xbf03d8b7	-0.51502556
26	0xbe2ecca1	-0.17070247
27	0xbed9b9bf	-0.42524526
28	0xbe089681	-0.13338663
29	0x3d70a202	0.058748253
30	0xbf042eeb	-0.5163409
31	0x3e3bf284	0.18354231
32	0x3e967c54	0.2939173
33	0xbda82fb3	-0.08212223
34	0x3eab8ac5	0.3350431
35	0xbdae7a99	-0.085194774
36	0xbec5ba25	-0.3861858
37	0x3eb4b8c2	0.3529721
38	0x3d046213	0.032320093
39	0xbeacbf7b	-0.33739838
40	0x3dc740e4	0.09729174
41	0xbd76134e	-0.060077004
42	0x3e29ba35	0.16574939
43	0xbe83fe7d	-0.25780097
44	0xbea1ce09	-0.31602505
45	0x3e813b09	0.25240353
46	0xbe99c6a3	-0.3003436
47	0x3e05c279	0.13062467
48	0x3e6b4384	0.22974974
49	0xbedee72d	-0.43535748
50	0xbf1120c1	-0.56690603
51	0x3e8275c7	0.25480482
52	0x3e8bfc58	0.2734096
53	0x3e2b0632	0.16701582
54	0xbf379bce	-0.71722114
55	0x3cf3f566	0.029780101
56	0xbe253640	-0.16133976
57	0x3e3b73ae	0.18305847
58	0xbf021a8e	-0.5082177
59	0xbeb9fc26	-0.36325186
60	0x3e256b28	0.16154158
61	0x3e9c36e1	0.3051062
62	0x3df2c2da	0.11853571
63	0x3e494806	0.19656381
64	0x3c73cbb5	0.0148801105
65	0x3eb04034	0.34423983
66	0x3f1210f6	0.5705713
67	0xbeaa23aa	-0.33230335
68	0xbebc58d7	-0.3678653
69	0x3e53cf38	0.20684516
70	0xbd401286	-0.046892665
71	0x3e84d563	0.2594405
72	0xbe36d15b	-0.178533
73	0xbe7ae08b	-0.24499719
74	0x3ea384e9	0.3193734
75	0x3e55b446	0.2086955
76	0xbd3b454f	-0.045720395
77	0xbe4d34f2	-0.20039728
78	0x3e15d0c9	0.14630426
79	0xbe73c079	-0.23803891
80	0x3cfeb5ab	0.031092485
81	0x3e9b3c75	0.30319563
82	0x3e3987d4	0.1811822
83	0xbe1dd62a	-0.15413728
84	0xbefa8859	-0.4893215
85	0x3e6e99a6	0.233008
86	0xbeebf727	-0.46087
87	0x3e5a687e	0.21328923
88	0x3ec11d08	0.37717462
89	0x3ec932f2	0.3929668
90	0xbe56d599	-0.20979919
91	0x3ea50b64	0.32235253
92	0xbec25819	-0.37957838
93	0x3ed9f21d	0.4256753
94	0x3e79fb52	0.24412277
95	0xbeba8107	-0.36426565
96	0xbe761a71	-0.24033524
97	0xbcd946b5	-0.026522974
98	0xbbf4ff86	-0.00747675
99	0x3e927f9e	0.2861299
100	0x3eaf0e30	0.34190512
101	0xbe656d83	-0.22405057
102	0x3d33e112	0.043915816
103	0xbebbb5b2	-0.3666206
104	0x3e0275d9	0.12740268
105	0xbe5295cd	-0.20564957
106	0xbeb2c9d8	-0.3491962
107	0x3d01b271	0.031664316
108	0x3e9675ee	0.29386848
109	0xbede1816	-0.4337775
110	0x3ecce838	0.4002092
111	0x3dcc04d5	0.09961859
112	0xbdfdff4f	-0.12402212
113	0x3ea81867	0.32831118
114	0x3e6747dd	0.22586007
115	0xbe31a7e2	-0.17349198
116	0xbf001e6a	-0.5004641
117	0x3d2ad188	0.04170373
118	0x3e9a1b90	0.30099154
119	0x3eabeca1	0.3357897
120	0xbc063aab	-0.0081926985
121	0x3ce9602e	0.028488245
122	0xbeab657c	-0.33475864
123	0xbe08b8f0	-0.13351798
124	0x3e4989e4	0.19681507
125	0x3d064801	0.032783512
126	0xbec7ecef	-0.39047953
127	0xbdf51da8	-0.11968547
128	0x3e3e961e	0.18611953
129	0xbcd08daa	-0.025458176
130	0xbed52c1a	-0.4163521
131	0x3ce7d503	0.028299814
132	0x3e6de22e	0.23230812
133	0x3e0694d6	0.13142714
134	0x3e7adad4	0.24497539
135	0xbd167214	-0.036729887
136	0x3edac0a7	0.42725107
137	0xbe8dd327	-0.2770016
138	0xbf1d57d4	-0.6146214
139	0xbed3e6b1	-0.4138694
140	0x3e805824	0.25067246
141	0xbe1805ca	-0.14845958
142	0xbf1c1b94	-0.6097958
143	0xbe6d90d4	-0.23199779
144	0x3e90804e	0.2822289
145	0xbea97447	-0.33096525
146	0xbdf6d057	-0.120514564
147	0x3d8ae2ab	0.06781515
148	0x3e6abce6	0.22923622
149	0xbec3146c	-0.38101518
150	0x3ebe266a	0.37138683
151	0xbe952ce6	-0.29135817
152	0xbe8f4c15	-0.27987733
153	0xbd92cd03	-0.07168009
154	0x3e9ff6f3	0.31243095
155	0xbf14bb62	-0.58098423
156	0xbd5e12f8	-0.05421731
157	0xbe6f4a56	-0.233682
158	0x3d2b1dbd	0.041776408
159	0xbd3e1dab	-0.046415012
160	0xbf0229ee	-0.5084523
161	0xbe5c1673	-0.21492939
162	0xbe9da9bf	-0.30793568
163	0xbf02f329	-0.5115228
164	0xbe9ab760	-0.3021803
165	0x3e5843ac	0.21119565
166	0x3e1a9dc5	0.15099247
167	0x3da84de6	0.08217983
168	0xbef12632	-0.47099453
169	0x3e41bfa0	0.18920755
170	0xbed1fafd	-0.410118
171	0xbef17de8	-0.4716637
172	0xbeae72ca	-0.34071952
173	0xba7642d2	-0.0009394112
174	0xbe537ee3	-0.20653872
175	0xbde7ed13	-0.11324515
176	0xbc70ff52	-0.014709311
177	0x3d9ba901	0.07600594
178	0x3e9ef6d8	0.31047702
179	0x3dce7746	0.10081343
180	0x3dab48bd	0.08363483
181	0xbe8f2752	-0.27959687
182	0x3e4ee58c	0.20204753
183	0x3e4f29dc	0.20230812
184	0x3dd6f2e6	0.10495548
185	0x3d4e7484	0.050404087
186	0x3e989ba4	0.29806244
187	0x3e57d434	0.21077043
188	0xbe147f63	-0.14501719
189	0xbde0e6b6	-0.109815046
190	0x3d69a1a6	0.057038926
191	0x3f0047b6	0.5010942
192	0x3f108040	0.56445694
193	0x3ed4f92e	0.4159636
194	0xbec8b737	-0.39202282
195	0x3dbda091	0.09259141
196	0xbecc54b0	-0.3990836
197	0x3e9281c6	0.28614634
198	0xbdca3df7	-0.098751
199	0xbe694522	-0.22780278
200	0x3e84f9c0	0.25971794
201	0x3e0c1721	0.13680698
202	0xbe18a0d4	-0.14905101
203	0x3e8c633a	0.27419454
204	0xbe7bf19d	-0.24603887
205	0xbe002997	-0.12515865
206	0xbd79309f	-0.060837384
207	0x3e4de9f5	0.20108779
208	0xbf97a56c	-1.1847358
209	0xbe928c69	-0.2862275
210	0xbee6924e	-0.45033497
211	0xbcd49f33	-0.025954818
212	0x3de8942d	0.11356387
213	0xbe6a6c74	-0.22892934
214	0x3dbf19eb	0.09331115
215	0xbe86ff28	-0.26366544
216	0x3e5e29f4	0.21695691
217	0x3ebfe26e	0.3747744
218	0x3ec250e5	0.37952343
219	0x3eaa6e0c	0.33287084
220	0x3ee55fcd	0.44799653
221	0xbdb0fcee	-0.086419925
222	0x3e81c6d1	0.25346997
223	0xbe8f057b	-0.2793387
224	0xbe3760d3	-0.1790803
225	0xbeaa15b2	-0.33219677
226	0xbedbcef6	-0.42931336
227	0xbf0a86e5	-0.5411208
228	0x3da734f0	0.08164394
229	0xbdb70d40	-0.08938074
230	0x3e8a8353	0.27053317
231	0x3eebaf4a	0.46032172
232	0xbea672ac	-0.32509363
233	0x3e0a4b52	0.13505295
234	0xbecaf3a5	-0.3963901
235	0xbce03ad5	-0.027371803
236	0x3edb642b	0.4284986
237	0xbd385a27	-0.04500785
238	0x3ea34498	0.3188827
239	0x3e8d65c4	0.27616704
240	0x3d102d1b	0.035199266
241	0x3e9b7ca8	0.30368543
242	0x3e1855b2	0.1487644
243	0x3e78f3dd	0.24311776
244	0x3e17437f	0.14771841
245	0x3e7adafa	0.24497595
246	0x3f0129fd	0.50454694
247	0xbf34125f	-0.7034053
248	0xbf17d7eb	-0.5931384
249	0x3d8acd5f	0.06777453
250	0x3ec32784	0.38116086
251	0x3eef5488	0.4674418
252	0xbe63a677	-0.2223147
253	0xbe9c9f70	-0.3059039
254	0xbddc0f6b	-0.10745128
255	0xbe43661d	-0.19081922

actor.6.bias f4 [15]
0	0x3dc35eac	0.095395416
1	0x3c4ca78d	0.012491119
2	0xbdc4339f	-0.095801584
3	0x3e27a13a	0.16370097
4	0x3d4b6abb	0.049662333
5	0xbd37bc35	-0.044857223
6	0xbd4db61c	-0.0502225
7	0x3d682f36	0.05668565
8	0xbdfa2cab	-0.12215551
9	0x3e3555a2	0.17708448
10	0xbcebc50d	-0.028780485
11	0xbe696bfb	-0.22795098
12	0xbd2a0ee9	-0.041518126
13	0x3dafc78f	0.08582985
14	0xbd9508cd	-0.07277069

critic.0.weight f4 [128, 30]
0	0xbf0f9c8f	-0.56098264
1	0xbf2d5e1f	-0.6772174
2	0xbf2e7b34	-0.68156743
3	0xbf326fde	-0.69701946
4	0xbeefeb36	-0.4685914
5	0xbd0ae240	-0.033907175
6	0x3d48c9a4	0.049020424
7	0xbe1ccfd2	-0.15313652
8	0x3dd635f6	0.10459511
9	0xbe8efae3	-0.27925786
10	0xbe35c8cf	-0.17752384
11	0xbe95f7c5	-0.29290596
12	0xbe410fa9	-0.1885363
13	0xbe0094a2	-0.12556699
14	0xbd14afef	-0.036300596
15	0xbe5696be	-0.20955941
16	0xbf006833	-0.50158995
17	0xbe8fb9ce	-0.28071445
18	0xbe82b718	-0.25530314
19	0x3f00153b	0.50032395
20	0xbf12469f	-0.5713901
21	0xbd0b4f00	-0.034010887
22	0xbdc457f7	-0.095870905
23	0x3e0175c3	0.12642579
24	0xbf2981c4	-0.6621363
25	0x3d3e2399	0.046420667
26	0x3e272442	0.16322425
27	0xbe94119e	-0.2891969
28	0xbe474071	-0.19458176
29	0xbe31a97d	-0.17349811
30	0xbed4bc1d	-0.4154977
31	0xbe8be191	-0.2732053
32	0xbcb2740e	-0.021783855
33	0x3e3943b2	0.1809223
34	0x3f3bc17b	0.733421
35	0xbef02e56	-0.46910352
36	0xbe5e8fe5	-0.21734579
37	0xbf6b0344	-0.9180186
38	0xbf0811a0	-0.53151894
39	0xbe6adc05	-0.22935493
40	0x3f1d42a5	0.61429816
41	0xbec39e78	-0.3820684
42	0xbf08a0a8	-0.5337014
43	0xbeaefcd4	-0.34177268
44	0xbe08e4b8	-0.133685
45	0xbd73318c	-0.059373423
46	0xbe4dc828	-0.20095885
47	0x3f06243c	0.5239904
48	0x3f4dc789	0.8038259
49	0xbdedb948	-0.11607605
50	0xbce7e20c	-0.02830603
51	0xbe0ab2d9	-0.13544787
52	0xbef97746	-0.4872381
53	0xbe4725da	-0.19448033
54	0x3d95d949	0.073168345
55	0x3e62ac35	0.22136004
56	0xbf9ad563	-1.209637
57	0x3e01635c	0.12635559
58	0x3f51c3ec	0.8193958
59	0xbe120934	-0.14261323
60	0xbd091176	-0.033463918
61	0xbf133056	-0.5749563
62	0xbe8b3cd4	-0.27194846
63	0xbf0ac882	-0.542122
64	0xbe053899	-0.13009872
65	0xbefb68be	-0.4910335
66	0xbeb39041	-0.35070994
67	0xbe29827f	-0.16553687
68	0xbdb6d1e6	-0.08926754
69	0xbe16058d	-0.14650555
70	0xbe3a61a7	-0.18201314
71	0xbec73b46	-0.3891241
72	0xbe9f4634	-0.31108248
73	0xbdef27f4	-0.11677542
74	0xbdbe18dc	-0.09282085
75	0xbefa897d	-0.4893302
76	0xbdca5b94	-0.098807484
77	0xbeb7ea98	-0.35921168
78	0xbdd9be50	-0.10632002
79	0x3f3e3729	0.7430292
80	0xbf30889f	-0.6895847
81	0xbe9f5e4e	-0.31126636
82	0xbe8b8516	-0.27249974
83	0xbe3d146f	-0.18464826
84	0x3d6dec61	0.058086757
85	0x3e9812ad	0.29701748
86	0x3f525f52	0.821767
87	0xbef6ad26	-0.48178977
88	0xbf2ade90	-0.66745853
89	0xbf4e093f	-0.8048286
90	0xbd06e568	-0.032933623
91	0xbd9a1e25	-0.07525281
92	0x3db8332e	0.08994137
93	0xbe60670f	-0.21914314
94	0xbe389e00	-0.18029022
95	0xbe332c51	-0.17497374
96	0x3caba803	0.020954138
97	0x3e17f9c9	0.14841379
98	0x3d9f0763	0.07765081
99	0x3de3e566	0.11127739
100	0x3b02ec48	0.001997726
101	0xbe2acefb	-0.1668052
102	0xbd16079c	-0.03662835
103	0xbbfe4adf	-0.00776039
104	0x3db3b017	0.08773821
105	0xbd67bbf3	-0.056575727
106	0x3dc34307	0.09534269
107	0xbe60fc34	-0.21971208
108	0x3bec08ca	0.007203196
109	0x3d014aed	0.031565595
110	0xbe0b322d	-0.1359336
111	0xbe255ba4	-0.1614824
112	0xbe312020	-0.17297411
113	0xbda03b9e	-0.07823871
114	0xbe4a6d18	-0.19768178
115	0xbdc42811	-0.095779546
116	0xbe1133bb	-0.1417989
117	0x3dbc4604	0.09193042
118	0xbde0df92	-0.10980143
119	0x3de9a223	0.11407878
120	0xbee4818f	-0.44630095
121	0xbf64f3d3	-0.89434546
122	0xbf5d5799	-0.8646179
123	0xbf8a36da	-1.0797989
124	0xbf944579	-1.1583701
125	0x3f691d0e	0.9105996
126	0x3e77ce2b	0.2419974
127	0x3d1687a0	0.036750436
128	0x3eea429c	0.45753944
129	0x3f09c760	0.5381985
130	0x3ea32579	0.31864527
131	0x3c93cfd2	0.018043432
132	0x3e5acba7	0.2136675
133	0x3e9b63ba	0.30349523
134	0x3f0c31af	0.5476331
135	0x3c5dcf9c	0.013538267
136	0x3d31f8fe	0.043450348
137	0x3ec36f08	0.38170648
138	0x3f1fa731	0.6236449
139	0xbf60fac7	-0.87882656
140	0xbf9f3f1d	-1.2441136
141	0x3d3a4c11	0.0454827
142	0x3e701830	0.23446727
143	0xbdc3ccda	-0.09560557
144	0x3e270ac8	0.16312706
145	0xbdc4026d	-0.09570775
146	0xbf082998	-0.5318847
147	0x3e95dcd3	0.29270038
148	0x3e9bbf31	0.30419305
149	0x3f101905	0.56288177
150	0x3dc87f00	0.09789848
151	0x3eaabd73	0.33347663
152	0x3de89813	0.11357131
153	0x3eb1e77d	0.34746924
154	0x3f0558c1	0.5208855
155	0x3f0d00de	0.5507945
156	0x3c980333	0.018556213
157	0x3eff0e7c	0.49815738
158	0xbd999f7d	-0.07501123
159	0xbc25c918	-0.010118745
160	0x3e8d2953	0.2757059
161	0xbe8151c8	-0.25257707
162	0xbd8ce521	-0.0687964
163	0x3e89f923	0.2694789
164	0x3dd78118	0.105226696
165	0x3dce3ee8	0.10070592
166	0xbf064070	-0.52442074
167	0xbd5d5e66	-0.054045103
168	0x3ebc4306	0.36769885
169	0x3f6249d2	0.8839389
170	0xbe00cc9c	-0.12578052
171	0xbe2c03b0	-0.16798282
172	0xbd04be38	-0.03240797
173	0x3e84bd22	0.25925547
174	0xbe72bba1	-0.23704387
175	0x3ee91417	0.4552314
176	0xbe2c8bbc	-0.1685018
177	0x3e8b7536	0.27237862
178	0xbec15bf1	-0.37765458
179	0x3e93cf7e	0.2886924
180	0xbd80ff75	-0.062987246
181	0xbe81e0aa	-0.25366718
182	0xbe6668d5	-0.22500928
183	0xbd93b9be	-0.07213162
184	0xbea189be	-0.315504
185	0xbe17b45f	-0.148149
186	0xbe448bfc	-0.19194025
187	0xbe5b3f9e	-0.21410987
188	0xbe3f4966	-0.18680343
189	0xbeb1f990	-0.34760714
190	0xbe08ea79	-0.13370694
191	0xbdcc7e78	-0.099850595
192	0xbd68d575	-0.056844193
193	0xbec9304d	-0.39294663
194	0xbec0a859	-0.3762844
195	0xbdfc74b8	-0.1232695
196	0xbe92eea9	-0.28697708
197	0xbdbfdb04	-0.09367946
198	0xbb0363d0	-0.0020048507
199	0xbe17c9a6	-0.14823017
200	0xbdb980c1	-0.09057761
201	0xbea9402a	-0.33056766
202	0xbd995fa5	-0.07488946
203	0x3d8cd8f8	0.06877321
204	0xbe3e74f6	-0.18599305
205	0xbb1ccb62	-0.0023924937
206	0xbdd9d05f	-0.10635447
207	0x3f1410f7	0.57838386
208	0x3e34e3fb	0.17665093
209	0x3d250d40	0.04029584
210	0x3f34bfcd	0.70605165
211	0x3f5f415a	0.87209094
212	0x3f55cbc1	0.8351403
213	0x3f7eee9b	0.99582833
214	0x3fb264d0	1.3937016
215	0xbeec176d	-0.46111622
216	0xbde9e7c8	-0.11421162
217	0xbd4a5a22	-0.049402364
218	0xbc39cfed	-0.011341077
219	0xbe802df0	-0.25035048
220	0xbe23c98c	-0.15994853
221	0x3d1cef6c	0.038314268
222	0x3e8593c0	0.26089287
223	0x3e98bcc9	0.29831532
224	0x3dd93a1b	0.10606786
225	0x3e79512f	0.24347375
226	0x3e289a59	0.16465129
227	0xbe83bd9a	-0.25730592
228	0x3e4f8637	0.20266043
229	0xbee734c6	-0.4515745
230	0x3e23a046	0.15979108
231	0x3e263ca6	0.16234073
232	0xbd95dd4d	-0.073176004
233	0x3e346bdd	0.17619272
234	0x3e03fa29	0.12888397
235	0xbee0b492	-0.43887764
236	0xbf6762fb	-0.9038541
237	0xbf5f214f	-0.871602
238	0xbdacea92	-0.08443178
239	0x3f414c42	0.75506985
240	0x3da2e430	0.079536796
241	0x3e71fc6b	0.23631446
242	0x3e6b7ec5	0.22997577
243	0x3a2e1eb7	0.000664215
244	0xbe17eeac	-0.1483714
245	0x3e0a920c	0.13532275
246	0xbf1bd3a4	-0.6086981
247	0xbec439ea	-0.38325435
248	0xbd001bf6	-0.031276666
249	0x3c63c590	0.013902083
250	0x3deedfa9	0.116637535
251	0x3dbd5193	0.09244075
252	0x3d8d3792	0.06895365
253	0x3db733f9	0.0894546
254	0x3dde3811	0.108505376
255	0xbe6f89a1	-0.23392345

critic.0.bias f4 [128]
0	0xbcf9d3ed	-0.030496562
1	0xbedf5f65	-0.43627468
2	0xbe4dcef5	-0.20098479
3	0xbe231148	-0.15924561
4	0x3e1220a4	0.14270264
5	0xbdc735b0	-0.09727037
6	0xbdcb56fa	-0.09928699
7	0xbe596b9d	-0.21232457
8	0x3d42c97c	0.04755543
9	0xbee67a71	-0.4501529
10	0xbf25a0fd	-0.64698774
11	0x3e025f2c	0.12731618
12	0xbdfa29f8	-0.12215036
13	0x3f8d8992	1.1057608
14	0x3de5b50a	0.11216171
15	0xbe29836b	-0.16554038
16	0x3d6cb1d9	0.057786796
17	0xbed52cd3	-0.4163576
18	0xbe505a94	-0.20347053
19	0x3ee0b065	0.43884578
20	0xbf0e9dc2	-0.5570947
21	0x3ebed3bb	0.37270913
22	0xbe517061	-0.20453025
23	0x3e0090bd	0.12555213
24	0x3ba3c706	0.0049980907
25	0x3f308ef2	0.6896812
26	0xbea72e76	-0.32652634
27	0x3eb8a192	0.36060768
28	0xbf0129cd	-0.5045441
29	0x3e9839f5	0.29731718
30	0xbf011f5d	-0.5043848
31	0xbd56e0f9	-0.052460644
32	0xbd8c87c1	-0.068618305
33	0xbd49ea7a	-0.04929588
34	0x3e6c94ef	0.23103689
35	0xbec9415f	-0.39307687
36	0x3db61ec6	0.08892588
37	0xbf1dce32	-0.61642754
38	0xbe13774e	-0.1440098
39	0x3cf9ab81	0.030477287
40	0xbed10ad3	-0.4082857
41	0xbe35e8c6	-0.17764577
42	0xbe0ef992	-0.13962391
43	0xbe30ae0f	-0.17253898
44	0xbf0572c2	-0.5212823
45	0xbed2aec7	-0.4114897
46	0xbecbf1fb	-0.39833054
47	0x3cb810f2	0.022469018
48	0x3e488205	0.19580849
49	0xbee51c58	-0.44748187
50	0xbe8831d3	-0.26600513
51	0xbe232940	-0.15933704
52	0xbe4f12e7	-0.20222054
53	0xbe3551dd	-0.1770701
54	0x3da7c244	0.0819135
55	0x3d644df4	0.055738404
56	0xbe47da0f	-0.19516777
57	0x3ba3b1df	0.004995569
58	0xbf32d40f	-0.69854826
59	0xbe255953	-0.16147356
60	0xbe13aad4	-0.14420635
61	0xbecfd788	-0.40594125
62	0xbf01587a	-0.5052563
63	0x3f012d58	0.50459814
64	0xbe27a8a9	-0.16372932
65	0xbe8a3f9f	-0.27001664
66	0xbea01c5c	-0.31271636
67	0xbeea0876	-0.4570958
68	0xbea93264	-0.33046257
69	0x3d1900fb	0.03735445
70	0xbec6249c	-0.38699806
71	0x3f0e30a9	0.55543
72	0xbe05fb3b	-0.13084118
73	0x3d97834a	0.07398088
74	0x3df342ec	0.11877999
75	0x3cdbab52	0.02681509
76	0xbf10b81d	-0.56530935
77	0xbe15509d	-0.14581533
78	0xbeee8e2f	-0.46592852
79	0x3e2aa4a3	0.16664366
80	0xbe8322ca	-0.2561248
81	0x3ccaeefe	0.024772163
82	0x3eb3c60c	0.35112035
83	0x3dcc0ef6	0.09963791
84	0xbf1f0ea6	-0.62131727
85	0xbd4ae139	-0.049531195
86	0x3d0935a8	0.033498436
87	0xbe62e470	-0.22157454
88	0x3e7202c7	0.23633872
89	0xbe900905	-0.2813188
90	0x3e34dc2d	0.17662115
91	0x3da27807	0.0793305
92	0x3c82a7de	0.015949186
93	0xbef5c818	-0.48004222
94	0xbe68bdc2	-0.22728637
95	0x3e4f5e8d	0.20250912
96	0x3dea6c32	0.11446418
97	0x3d90619c	0.070498675
98	0xbe1c5f5e	-0.15270755
99	0xbe751529	-0.23933853
100	0x3e41045c	0.18849319
101	0xbe8d7177	-0.2762563
102	0xbf06b7dd	-0.52624303
103	0xbde49db7	-0.11162894
104	0x3f76312e	0.9616879
105	0xbc47ac41	-0.012187065
106	0x3e6d90e0	0.23199797
107	0x3d3ca81a	0.04605875
108	0xbe2dde69	-0.16979374
109	0xbe197c0d	-0.14988728
110	0x3ce14af0	0.027501553
111	0x3e2338fc	0.15939707
112	0xbb58cf16	-0.0033082417
113	0xbf529ce9	-0.82270676
114	0xbf398f0b	-0.7248389
115	0x3e252074	0.16125661
116	0x3ea60918	0.32428813
117	0xbd75e550	-0.060033143
118	0xbe606598	-0.21913755
119	0xbda2b05d	-0.07943795
120	0xbf1a2012	-0.60205185
121	0xbafb6f4c	-0.0019182949
122	0x3d0f2fff	0.034957882
123	0x3e1b610f	0.15173744
124	0xbe58b2d0	-0.21161962
125	0x3996797d	0.00028700745
126	0x3c865671	0.01639864
127	0x3f04a522	0.5181447
