submit/submit/results/PPO_20220510_0_900.pth (torch, 110785 bytes, 11 tensors)

actor.0.weight f4 [128, 35]
0.16746739 -0.11692844 0.18910922 0.15986641 -0.14545895 -0.005796697 -0.006501598 0.15232974
-0.105021305 0.029465657 0.40630066 0.12789041 -0.07486306 -0.8770439 0.6551425 -0.018573148
-0.03714279 -0.034918487 0.025082145 -0.10658973 0.12150686 0.02260349 0.035861038 -0.025524147
-0.07357449 -0.09999956 -0.008148739 0.21855113 0.09200944 0.014926938 0.2694438 0.24352767
0.016109608 -0.9386424 -0.105672315 0.09821824 0.03691563 0.07793999 0.049887326 0.06059184
0.22886235 0.11427909 -0.061093222 0.22351761 0.1459672 -0.7848567 -0.18446553 -0.06362663
-0.56637603 0.95932275 0.20801988 0.08878319 0.1396639 0.07262765 0.1670764 0.24100558
-0.07828608 -0.23727211 -0.16101949 -0.016669346 -0.023679232 0.06270328 0.05603211 0.18023032
-0.06904038 0.09128045 0.07015537 -0.13130656 0.12031055 -0.313822 -0.16079177 -0.073180035
0.09232619 0.1741026 0.00077637006 0.11764444 0.030158427 -0.10961311 0.13061261 0.15905145
1.0685495 0.36327732 -0.28646237 0.7975181 -0.8900699 -0.07157822 -0.047786098 0.21859868
0.26525354 0.3050924 -0.21742044 0.13096997 0.09439697 0.12964454 -0.15625426 0.019284738
0.112103306 -0.07729454 0.052728675 0.114581004 -0.08483699 0.1299877 0.32134515 0.06250944
0.114687696 -0.024513002 0.08759085 -0.12317449 -0.0503444 0.085252784 0.23196107 -0.055425975
0.17653936 0.021648437 -0.1137646 -0.3682266 0.040388472 0.6095019 -0.37646788 0.540027
0.69670737 0.0832053 0.117870696 0.14874594 0.044437442 -0.10360602 -0.0009528862 0.19707575
-0.010702762 0.19413722 -0.063014686 -0.014392399 0.030601576 -0.3186524 0.24734272 -0.054792587
0.30396628 0.30570707 0.12403578 0.031139622 -0.07072906 0.1954095 -0.07210437 -0.117011815
-0.0095270695 0.12092653 -0.016452428 -0.08831578 -0.038508005 0.060690068 0.24345092 -0.07613374
-0.3816837 0.08372221 -2.0211687 -0.40576378 -0.030350897 0.17635863 0.23554464 -0.0044519478
0.3110844 0.20093991 -0.13693884 0.078634724 -0.09126498 0.13754709 0.06358297 0.07155381
0.08050795 -0.0025823093 0.018724974 -0.072149634 0.6294135 -0.32574096 0.24785502 -0.03078155
0.2137587 0.096271835 0.22477372 -0.17225143 0.036159348 0.22940375 0.25983843 0.1561659
0.10183111 0.2761611 0.0055151707 -0.5300667 -0.07051416 -0.43081772 -0.21410201 0.025518939
-0.06589081 -0.12770875 0.010739909 -0.17641355 0.09512857 -0.20759454 -0.07536069 -0.037436526
0.107172154 0.07179016 0.11276992 0.019002369 -0.22978616 0.09799642 0.09753607 -0.1294414
0.19922794 -0.12159221 -0.00919381 0.094255745 -0.08970619 0.050465424 0.18416797 -0.096447
0.04012146 0.07586895 0.026645478 0.08278374 0.68405896 0.040050946 0.15004583 -0.13914534
-0.14778218 0.06434671 -0.06431205 0.1719811 -0.07800444 -0.09350513 -0.32409415 0.084753804
-0.074655674 -0.11095979 -0.18897568 0.10943392 0.06791374 -0.27700767 0.100536756 0.07954558
-0.5334199 0.26485968 0.0849114 -0.024633642 -0.16333923 0.20238137 0.11723955 -0.108064786
0.005792702 0.16248608 0.17672738 -0.0008254772 -0.07993776 0.1548194 0.3300883 -0.91454935
00000000: 927c 2b3e 2e78 efbd d9a5 413e 05b4 233e
00000010: 31f3 14be 38f2 bdbb 5b0b d5bb 54fc 1b3e
00000020: 6915 d7bd f661 f13c a406 d03e b4f5 023e
00000030: ce51 99bd f385 60bf 6bb7 273f b726 98bc
00000040: 0a23 18bd b006 0fbd 1279 cd3c b74b dabd
00000050: 97d8 f83d f42a b93c 06e3 123d 0418 d1bc
00000060: 39ae 96bd 92cc ccbd 4a82 05bc decb 5f3e
00000070: 726f bc3d 1e90 743c 8af4 893e 515f 793e
00000080: 4cf8 833c de4a 70bf ba6a d8bd a526 c93d
00000090: d834 173d 009f 9f3d a756 4c3d 262f 783d
000000a0: e45a 6a3e 280b ea3d e33c 7abd cde1 643e
000000b0: 6d78 153e 5eec 48bf 88e4 3cbe ae4e 82bd
000000c0: 05fe 10bf 2d96 753f 2a03 553e f6d3 b53d
000000d0: 0e04 0f3e cebd 943d 1316 2b3e 2bca 763e
000000e0: 7454 a0bd 76f7 72be 4be2 24be 278e 88bc
000000f0: f3fa c1bc 946a 803d ed81 653d 4c8e 383e
00000100: 0b65 8dbd 3ff1 ba3d 9ead 8f3d 3a75 06be
00000110: 6165 f63d 47ad a0be 99a6 24be 6adf 95bd
00000120: 8315 bd3d f447 323e 5085 4b3a 91ef f03d
00000130: ce0e f73c d77c e0bd 50bf 053e 62de 223e
00000140: 3bc6 883f 7cff b93e 32ab 92be 252a 4c3f
00000150: 9fdb 63bf 9a97 92bd 5bbb 43bd 55d8 5f3e
00000160: 50cf 873e 1235 9c3e 77a3 5ebe fe1c 063e
00000170: 3353 c13d 8ac1 043e 1e01 20be 07fb 9d3c
00000180: 6b96 e53d 9a4c 9ebd 06fa 573d 72a9 ea3d
00000190: 04bf adbd 7f1b 053e 5a87 a43e f304 803d
000001a0: 62e1 ea3d 7ecf c8bc d562 b33d e842 fcbd
000001b0: ee35 4ebd 0399 ae3d 3487 6d3e 5906 63bd
000001c0: bcc6 343e 1058 b13c 6afd e8bd 3288 bcbe
000001d0: 626e 253d 5108 1c3f 66c0 c0be 363f 0a3f
000001e0: 6a5b 323f 8a67 aa3d 3166 f13d db50 183e
000001f0: 0904 363d 652f d4bd 1ccb 79ba 3ace 493e
00000200: a35a 2fbc e8cb 463e d80d 81bd 19ce 6bbc
00000210: 28b0 fa3c 6826 a3be 6947 7d3e 316e 60bd
00000220: 78a1 9b3e a385 9c3e 7906 fe3d 8518 ff3c
00000230: 66da 90bd 6e19 483e 75ab 93bd e4a3 efbd
00000240: 6d17 1cbc 54a8 f73d 3ec7 86bc e7de b4bd
00000250: 92ba 1dbd 2696 783d 334b 793e 02ec 9bbd
00000260: 0c6c c3be 8d76 ab3d d45a 01c0 45c0 cfbe
00000270: 72a2 f8bc 5b97 343e 9d32 713e a5e1 91bb
00000280: 7446 9f3e 31c3 4d3e b239 0cbe 3e0b a13d
00000290: 22e9 babd 25d9 0c3e ca37 823d ce8a 923d
000002a0: 5ae1 a43d f63b 29bb 1e65 993c 30c3 93bd
000002b0: 3e21 213f 85c7 a6be b5cd 7d3e 9729 fcbc
000002c0: 90e3 5a3e 2b2a c53d 152b 663e ae62 30be
000002d0: d31b 143d d1e8 6a3e 8b09 853e f4e9 1f3e
000002e0: d48c d03d fd64 8d3e 9bb8 b43b 74b2 07bf
000002f0: ba69 90bd 2494 dcbe 8f3d 5bbe 180d d13c
00000300: c3f1 86bd 15c6 02be 71f6 2f3c c1a5 34be
00000310: c5d2 c23d aa93 54be b556 9abd 0b57 19bd
00000320: 137d db3d b806 933d eaf3 e63d dbaa 9b3c
00000330: 104d 6bbe 59b2 c83d fec0 c73d 498c 04be
00000340: 6902 4c3e 5605 f9bd a2a1 16bc 2809 c13d
00000350: e1b7 b7bd d5b4 4e3d 8796 3c3e 0186 c5bd
00000360: 6656 243d 2e61 9b3d 9e47 da3c 858a a93d
00000370: 7d1e 2f3f 760c 243d 9da5 193e 1e7c 0ebe
00000380: 3654 17be 35c8 833d 09b6 83bd d01b 303e
00000390: cbc0 9fbd 9e7f bfbd abef a5be 6793 ad3d
000003a0: 13e5 98bd e33e e3bd d782 41be e41e e03d
000003b0: 5c16 8b3d f3d3 8dbe 37e6 cd3d cbe8 a23d
000003c0: 358e 08bf b09b 873e 07e6 ad3d 7ecc c9bc
000003d0: 6642 27be 103d 4f3e 4a1b f03d 1251 ddbd
000003e0: b5d0 bd3b c062 263e 06f8 343e d664 58ba
000003f0: 69b6 a3bd fa88 1e3e 5501 a93e e81f 6abf

actor.0.bias f4 [128]
-0.017709695 -0.099111356 0.15098809 -0.08712252 -0.028551696 -0.13493267 0.10481338 -0.2171387
0.05971517 -0.05197062 0.10321534 0.09246453 0.07403267 -0.18274617 0.08284606 0.22781974
0.050793707 0.19300048 0.28941634 0.033075154 0.02106696 -0.15467227 0.036428142 0.09724468
-0.13588718 0.13325624 0.0071668997 0.2819986 -0.16452077 -0.1253876 -0.059676 -0.17965893
0.021073418 0.331149 0.007580195 -0.037687194 -0.0324336 -0.05338035 0.10629587 0.22215123
0.21794836 0.19985908 0.031291373 -0.01823744 0.2186434 0.14625642 0.11268851 -0.14426987
0.2773399 0.2993098 0.080205426 -0.07271323 -0.05119798 0.03037628 0.027176889 0.09718399
0.17640471 -0.07180562 -0.16050372 0.10588529 -0.07814254 -0.059477128 0.25950864 0.2299379
-0.120652035 0.16846 0.13572635 0.04668735 -0.07279461 -0.024689822 -0.03133507 0.23226589
0.056389507 -0.055430435 -0.19830608 -0.060307294 -0.2319312 -0.19152196 -0.09805885 0.019536361
0.25031066 0.12770326 -0.26066396 -0.10522048 0.08710059 -0.08331688 -0.16087621 0.04595367
0.16551557 0.100708775 0.052773666 0.24954799 -0.012837756 -0.093767665 0.10675971 0.07935539
0.041974135 -0.050250873 -0.0036502162 -0.2354501 -0.013633207 0.21086487 0.016792517 0.006995195
0.060327232 0.09638707 0.17437024 0.1314496 0.07526627 -0.23124424 -0.13683158 0.22264156
0.064813554 0.0069943746 -0.024303509 -0.25616655 -0.08935661 0.17012294 -0.1642268 0.25547284
0.056404147 0.25683188 0.2267743 0.31948337 -0.16695634 0.046181858 0.2697827 -0.004854305
00000000: ec13 91bc e5fa cabd 9f9c 1a3e 4b6d b2bd
00000010: 3fe5 e9bc ca2b 0abe 66a8 d63d 9b59 5ebe
00000020: e597 743d 25df 54bd 9062 d33d 0b5e bd3d
00000030: 719e 973d d021 3bbe 32ab a93d 9449 693e
00000040: 100d 503d eba1 453e 612e 943e d079 073d
00000050: 9e94 ac3c 6862 1ebe ad35 153d 3828 c73d
00000060: 0226 0bbe 5374 083e 50d8 ea3b 1f62 903e
00000070: 2278 28be 9b65 00be d26e 74bd 83f8 37be
00000080: 29a2 ac3c 5d8c a93e 4963 f83b e35d 1abd
00000090: 18d9 04bd 5ba5 5abd a6b1 d93d 9d7b 633e
000000a0: db2d 5f3e dca7 4c3e 622b 003d af66 95bc
000000b0: 0ee4 5f3e 3ec4 153e 3cc9 e63d 7bbb 13be
000000c0: 7fff 8d3e 223f 993e be42 a43d adea 94bd
000000d0: f9b4 51bd add7 f83c 11a2 de3c 6608 c73d
000000e0: 70a3 343e d30e 93bd 165b 24be 63da d83d
000000f0: 3209 a0bd 4a9e 73bd 51de 843e d774 6b3e
00000100: 6a18 f7bd c780 2c3e d9fb 0a3e 3c3b 3f3d
00000110: 5715 95bd 4f42 cabc 3459 00bd 1cd7 6d3e
00000120: aff8 663d 060b 63bd c010 4bbe c804 77bd
00000130: 5f7f 6dbe 551e 44be 14d3 c8bd b80a a03c
00000140: b828 803e a5c4 023e bf75 85be d67d d7bd
00000150: cb61 b23d 0aa2 aabd bcbc 24be ea39 3c3d
00000160: ea7c 293e 6740 ce3d 3329 583d 8289 7f3e
00000170: 7455 52bc 4309 c0bd d6a4 da3d 1485 a23d
00000180: 12ed 2b3d dcd3 4dbd 7738 6fbb d519 71be
00000190: d15d 5fbc f6ec 573e 7690 893c f337 e53b
000001a0: b019 773d 9666 c53d 1d8e 323e b99a 063e
000001b0: 3425 9a3d 4acb 6cbe 941d 0cbe 26fc 633e
000001c0: f8bc 843d 1131 e53b 2718 c7bc 4328 83be
000001d0: 9900 b7bd b534 2e3e 122b 28be 56cd 823e
000001e0: 0908 673d 787f 833e 8637 683e 5393 a33e
000001f0: 9af6 2abe 3029 3d3d f520 8a3e dd10 9fbb

actor.2.weight f4 [64, 128]
-0.31687602 0.07436229 0.012971351 -0.05074509 0.09348476 -0.040959127 -0.21465999 -0.31251588
0.17795326 -0.04997723 0.17526568 0.15468772 0.07072904 -0.029562738 0.071092665 -0.017343912
0.64760303 -0.09390346 0.054407604 0.076963976 -0.21283437 -0.08364566 0.02439818 0.008469377
0.1475336 0.061105017 -0.220058 0.08128143 0.043430574 -0.00046533495 0.028739182 0.09583016
0.24579991 -0.29785538 0.0366088 0.17509776 0.005795185 0.008010818 -0.112084255 -0.0028848047
-0.103540815 -0.13915038 0.10741082 0.29284847 0.073775865 0.125055 -0.20569836 -0.14958405
-0.24893586 0.027826995 -0.051009204 -0.12648213 0.02461028 0.06746894 -0.1530712 -0.10299851
0.13718799 0.1283908 0.013707677 -0.2338592 0.060322493 0.19171396 0.009095845 -0.01636678
0.06510328 -0.07919008 -0.11890247 0.103508376 -0.017211173 -0.10172739 0.026552428 0.16729297
-0.046757113 0.1516164 -0.052604277 0.4049494 -0.0035113564 -0.07524426 0.06922736 0.11081953
0.31945488 -0.037075106 -0.2219357 -0.23075268 0.02348447 -0.18973134 0.083763674 -0.063879296
0.1312678 -0.3932852 0.33387375 0.0149971545 -0.06549578 -0.1369163 0.17077717 0.14143129
-0.25398642 0.024091803 0.043835443 0.17981078 -0.12899214 -0.081253506 -0.04030109 0.23051567
-0.1980789 -0.1487777 0.32898754 -0.07205984 -0.2830819 0.014656313 0.08587174 -0.1363672
0.113178946 0.1900134 -0.14091346 0.121893905 0.009932758 0.1647801 -0.02732653 0.16899408
-0.029998643 -0.026366156 -0.15155756 -0.0675073 0.08742606 -0.08698639 0.07493592 -0.06629528
0.15065886 0.013754793 0.033668507 -0.044110566 -0.15091848 0.22298859 0.00380658 -0.11920889
0.07324355 -0.23267083 0.50162166 -0.27333254 -0.09915994 0.03895443 -0.10601609 0.22273004
-0.4049151 -0.1001212 -0.059217572 -0.1557704 -0.09634887 -0.09731011 -0.19969523 0.28757328
-0.008886973 -0.0115940785 -0.016916733 -0.20877558 0.03871379 0.13163482 -0.1937065 0.21849293
0.29147 0.040219177 -0.14820963 0.0380256 -0.08712637 0.076393425 -0.04657689 -0.16932541
-0.29584137 0.11855515 0.10232712 0.2379432 -0.22720324 -0.036943376 -0.17577156 0.041130498
0.019249814 0.023269784 -0.021709995 0.20785606 0.28137544 0.12715958 0.01586765 -0.23476723
-0.06416594 0.24773344 -0.13082843 0.02462866 0.27632025 -0.024131618 0.14345074 -0.1461966
0.096141875 -0.025112582 -0.20606129 0.0320548 0.037385568 0.09579685 0.20965406 0.101315044
-0.11469753 0.14243892 -0.113242075 -0.10964163 -0.013118238 -0.030626489 0.023047082 0.026541479
-0.043464642 -0.18892041 0.07194729 0.34737828 -0.30094442 -0.10902452 -0.08449787 0.03577059
-0.23812227 -0.09020395 -0.07710815 -0.05487279 -0.054355253 0.23377 -0.29314634 -0.085643575
-0.015842648 -0.3215679 -0.04928432 0.8032519 0.24253331 -0.03830058 -0.06984439 0.5066359
-0.22900058 0.18370962 -0.06356994 0.13609533 -0.07640897 0.06604425 -0.007818525 -0.062202435
0.04970642 0.23650491 -0.052883822 0.05798705 0.26803178 -0.21804856 -0.0093713915 -0.051476832
-0.23925768 0.27918336 0.12555724 0.1491184 -0.07604068 0.14181973 -0.13332987 -0.13931485
00000000: 933d a2be 424b 983d ca85 543c 15da 4fbd
00000010: f074 bf3d c2c4 27bd d4cf 5bbe 1502 a0be
00000020: 6139 363e edb4 4cbd d978 333e 7566 1e3e
00000030: 63da 903d 8e2d f2bc 0899 913d d214 8ebc
00000040: 50c9 253f 7550 c0bd 82da 5e3d 4a9f 9d3d
00000050: 41f1 59be 6a4e abbd b1de c73c 24c3 0a3c
00000060: 0c13 173e 4149 7a3d e256 61be e176 a63d
00000070: 42e4 313d 33f8 f3b9 6f6e eb3c 9a42 c43d
00000080: f9b2 7b3e 8080 98be 1cf3 153d d44c 333e
00000090: 89e5 bd3b ce3f 033c 6e8c e5bd fe0e 3dbb
000000a0: 350d d4bd 707d 0ebe 34fa db3d 3cf0 953e
000000b0: cd17 973d 6b0e 003e 97a2 52be 902c 19be
000000c0: 0be9 7ebe 70f5 e33c 07ef 50bd 8884 01be
000000d0: 7f9b c93c 282d 8a3d b2be 1cbe e2f0 d2bd
000000e0: 027b 0c3e e178 033e 2a96 603c c978 6fbe
000000f0: b814 773d aa50 443e bd06 153c a013 86bc
00000100: de54 853d 692e a2bd 2383 f3bd 33fc d33d
00000110: 72fe 8cbc 7356 d0bd 7a84 d93c d94e 2b3e
00000120: 6384 3fbd 5441 1b3e 9577 57bd 8755 cf3e
00000130: c91e 66bb aa19 9abd 13c7 8d3d 5af5 e23d
00000140: 978f a33e 11dc 17bd 1d43 63be 6e4a 6cbe
00000150: 8162 c03c ef48 42be 4a8c ab3d 26d3 82bd
00000160: 116b 063e ae5c c9be 80f1 aa3e a0b6 753c
00000170: a722 86bd c933 0cbe 36e0 2e3e 5dd3 103e
00000180: 820a 82be 2c5c c53c cb8c 333d 5120 383e
00000190: 8416 04be 3d68 a6bd c112 25bd 4d0c 6c3e
000001a0: 32d5 4abe 2e59 18be 0e71 a83e 1c94 93bd
000001b0: 1cf0 90be 0821 703c 86dd af3d d8a3 0bbe
000001c0: 5dca e73d df92 423e 9e4b 10be 83a3 f93d
000001d0: 02bd 223c 1dbc 283e e3db dfbc c90c 2d3e
000001e0: b7bf f5bc d6fd d7bc e831 1bbe 4441 8abd
000001f0: 6f0c b33d ec25 b2bd 0178 993d d2c5 87bd
00000200: 5146 1a3e c95b 613c fde7 093d 48ad 34bd
00000210: 608a 1abe 1f57 643e d177 793b ca23 f4bd
00000220: b700 963d 4341 6ebe 476a 003f 3ef2 8bbe
00000230: 5e14 cbbd ae8e 1f3d f71e d9bd 5813 643e
00000240: 0851 cfbe 580c cdbd 208e 72bd 4782 1fbe
00000250: 8e52 c5bd 864a c7bd e87c 4cbe ce3c 933e
00000260: ab9a 11bc 17f5 3dbc f694 8abc 44c9 55be
00000270: 5a92 1e3d 47cb 063e ff5a 46be 9cbc 5f3e
00000280: 8e3b 953e ddbc 243d 44c4 17be bbc0 1b3d
00000290: 4f6f b2bd 2874 9c3d 69c7 3ebd a463 2dbe
000002a0: 8578 97be 0bcd f23d e290 d13d 62a7 733e
000002b0: f7a7 68be f051 17bd 76fd 33be 7478 283d
000002c0: c9b1 9d3c 46a0 be3c 29d9 b1bc 38d8 543e
000002d0: 7110 903e 1f36 023e e0fc 813c d266 70be
000002e0: 6f69 83bd d6ad 7d3e e3f7 05be 0bc2 c93c
000002f0: d979 8d3e acaf c5bc c0e4 123e 90b4 15be
00000300: 08e6 c43d e7b8 cdbc bb01 53be e54b 033d
00000310: 9c21 193d 2431 c43d 8eaf 563e 437e cf3d
00000320: 8ae6 eabd 82db 113e 76eb e7bd ca8b e0bd
00000330: e1ed 56bc 67e4 fabc 3ccd bc3c 846d d93c
00000340: fb07 32bd 5a74 41be 1a59 933d 91db b13e
00000350: 6315 9abe 3f48 dfbd 380d adbd 2f84 123d
00000360: 53d6 73be d9bc b8bd e1ea 9dbd 4ac2 60bd
00000370: 9da3 5ebd 6761 6f3e 4717 96be e665 afbd
00000380: 71c8 81bc 8ca4 a4be 5bde 49bd eba1 4d3f
00000390: a75a 783e 12e1 1cbd 930a 8fbd e4b2 013f
000003a0: 217f 6abe 601e 3c3e f530 82bd 935c 0b3e
000003b0: 4e7c 9cbd 3542 873d 4519 00bc fbc7 7ebd
000003c0: f698 4b3d 582e 723e b59c 58bd d483 6d3d
000003d0: 763b 893e 1f48 5fbe 778a 19bc 5fd9 52bd
000003e0: f7ff 74be 1ff1 8e3e 1492 003e 7eb2 183e
000003f0: 37bb 9bbd 3139 113e a087 08be 8da8 0ebe

actor.2.bias f4 [64]
0.07436406 -0.0028657636 0.14551924 0.19188802 0.15799084 0.13299169 -0.06485627 0.062207412
0.010797613 -0.07702356 -0.09797324 0.12626763 0.034036886 0.064026155 0.034951326 -0.020987218
0.018038347 0.06993128 0.110602506 0.050868478 -0.017533373 0.06200025 -0.010362663 0.121194296
-0.0145976255 -0.057601303 0.022332788 0.027024794 -0.1446583 -0.04593177 0.025545098 -0.14615865
0.037563786 0.045965873 -0.15322053 -0.017414624 0.02692107 0.15219171 -0.12262585 -0.014419945
0.08402113 -0.13535282 0.054636087 -0.035034463 0.13730472 -0.06415457 0.019768197 -0.055609245
0.111870125 -0.026233345 -0.0001746044 0.2001991 0.03321156 0.12123938 0.00944934 -0.0017958779
0.018668683 -0.03226901 0.0122416215 0.064561024 0.05605276 -0.0053682094 -0.12748839 0.028059345
00000000: 2f4c 983d 89cf 3bbb ff02 153e 4b7e 443e
00000010: 5ac8 213e f92e 083e 5dd3 84bd 33cd 7e3d
00000020: 79e8 303c 87be 9dbd 32a6 c8bd 4d4c 013e
00000030: 436a 0b3d 2520 833d 1f29 0f3d 63ed abbc
00000040: 28c5 933c 2238 8f3d 9183 e23d 775b 503d
00000050: 26a2 8fbc f9f3 7d3d 29c8 29bc b734 f83d
00000060: e12a 6fbc 58ef 6bbd 40f3 b63c 1a63 dd3c
00000070: 4e21 14be f422 3cbd f443 d13c 9daa 15be
00000080: 7cdc 193d b646 3c3d d8e5 1cbe 1da9 8ebc
00000090: 9389 dc3c 25d8 1b3e 4323 fbbd a241 6cbc
000000a0: 4513 ac3d ee99 0abe 17ca 5f3d 4c80 0fbd
000000b0: 9c99 0c3e 7963 83bd eaf0 a13c 85c6 63bd
000000c0: 2a1c e53d 50e7 d6bc 0316 37b9 fe00 4d3e
000000d0: d808 083d 5a4c f83d 68d1 1a3c aa63 ebba
000000e0: 11ef 983c 822c 04bd 1591 483c 9238 843d
000000f0: 9497 653d cee7 afbb 518c 02be b6dc e53c

actor.4.weight f4 [16, 64]
-0.5550697 -0.08233806 1.0412153 0.35019827 0.320692 0.077451535 -0.6086889 -0.67783374
0.23672476 -0.81925976 -0.30332243 0.13524425 -0.5179454 -0.08880314 0.33022547 0.2372272
0.0534539 0.39775017 0.5961329 -0.4681012 -0.8265364 0.0043551642 0.51796407 0.4212422
-0.18492067 -0.018860104 0.11017526 -0.8036843 -0.50634736 -0.22112952 0.33203372 0.0382191
0.22623739 -0.3116828 0.121563986 0.1633483 -0.4412517 0.77330637 -0.027510388 -0.8356313
0.37347698 -0.284197 -0.4087864 0.904303 0.20286088 -0.2818563 0.34752765 0.14077921
0.6668073 0.117524795 0.07205048 0.20065786 0.25481674 0.3399569 1.1046652 0.18994938
0.5117107 -0.4866336 0.102633104 -0.043419566 0.97872216 -0.032536812 -0.94393456 0.2521336
0.058153365 0.016891953 -0.40241602 0.624464 -0.040430967 0.25568676 0.26595584 0.1917448
-0.7053014 0.29671586 0.43765154 -0.42470908 0.332761 0.31395015 -0.25455767 0.1974274
-0.37255964 0.55084324 -0.7907327 0.4153182 0.40962347 0.8856039 0.100789376 0.3437731
-0.84291583 -0.18571994 0.62906635 -0.14026201 -0.70168185 0.20173337 0.059003413 0.56653017
0.89315426 0.3720846 -0.25547934 -0.35261357 -0.086823486 -0.62508774 -0.21956013 -0.79474646
0.017207727 -0.742142 0.28498352 -0.56670845 -0.16644102 -0.11408464 -0.46133503 0.4507843
-0.34729716 0.5464348 0.4724682 -0.7201788 0.8100228 0.11910469 -0.08336987 -0.031238757
-0.4460429 -0.011952345 0.4069393 -0.12977739 -0.74549997 0.009188624 -0.16461596 -0.060898267
0.16809252 0.3666805 -0.433235 -0.3604304 -0.29424754 0.004996946 0.69358397 0.061801955
-1.1313739 0.963366 1.1091367 -0.4972689 -0.097246885 1.4384601 -0.7645321 -0.34889582
0.39536804 -0.7311897 -0.07766736 -0.17149238 0.17930497 0.21522222 0.2867506 -1.2975066
0.23628616 -0.6084792 0.7566463 0.5565704 1.4869621 -0.71948284 -0.29530764 1.1727946
0.8029017 0.523909 0.16761646 0.029914897 -1.0394938 -0.6539555 0.7247644 0.026498523
-0.09331453 0.81754625 0.09325696 -0.48658165 -0.55829453 0.108750165 -0.5253058 0.026113905
-0.55530465 0.48228472 -0.28949964 -0.35297558 -0.19432235 -0.51796746 -0.26827437 -0.02740317
-0.66389185 0.2504594 1.0260518 0.2566483 -0.3562386 0.16085333 0.79318506 -0.8073648
1.458314 -0.15340754 0.28022146 0.48143676 0.22493935 -0.40714097 -0.06627203 0.35757825
-0.18328153 -0.35377657 0.56346464 0.68758875 0.004080943 0.40123695 -0.46537808 -0.6916979
-0.4162343 -0.46845838 0.76229167 0.5193164 -0.20108213 -0.2559499 -0.48853585 0.25394958
-0.4194419 -0.14672318 -0.31731063 0.08709084 -0.09733731 0.33997563 -0.3217489 -0.49336302
-0.14269562 0.043011997 -0.32235163 -0.27725947 0.60645676 0.005417403 -0.09317193 0.682593
-1.0531037 0.0017203019 -0.042752963 -0.2700451 -0.52492446 0.17635116 -0.313756 -0.6940576
0.166953 -0.94934183 -0.38375482 0.7699492 -0.36445767 0.09057983 0.21637294 -0.3096895
-0.96325666 -0.7715627 0.8529242 -0.41374117 -0.39139214 -0.5370859 -0.44767517 0.5977828
00000000: 0c19 0ebf dba0 a8bd 8b46 853f 304d b33e
00000010: be31 a43e e99e 9e3d 09d3 1bbf 8386 2dbf
00000020: fa67 723e 02bb 51bf 144d 9bbe 787d 0a3e
00000030: 1298 04bf 6cde b5bd 5013 a93e b0eb 723e
00000040: 7af2 5a3d e9a5 cb3e 2a9c 183f f6aa efbe
00000050: e497 53bf c4b5 8e3b 4b99 043f 0fad d73e
00000060: d85b 3dbe 8180 9abc 91a3 e13d 41be 4dbf
00000070: fb9f 01bf c76f 62be 5300 aa3e a28b 1c3d
00000080: c6aa 673e e394 9fbe 8af6 f83d c744 273e
00000090: beeb e1be 68f7 453f 775d e1bc efeb 55bf
000000a0: 6038 bf3e 4582 91be 734c d1be 6780 673f
000000b0: c3ba 4f3e 784f 90be 25ef b13e 6d28 103e
000000c0: e2b3 2a3f d7b0 f03d 348f 933d 4179 4d3e
000000d0: 5777 823e d50e ae3e ab65 8d3f 1782 423e
000000e0: 79ff 023f 0a28 f9be 4e31 d23d b7d8 31bd
000000f0: 898d 7a3f 5245 05bd b2a5 71bf a817 813e
00000100: 3932 6e3d fe60 8a3c 7909 cebe dfdc 1f3f
00000110: f19a 25bd 60e9 823e 5d2b 883e c058 443e
00000120: a28e 34bf 24eb 973e dd13 e03e 7873 d9be
00000130: a65f aa3e 13be a03e 6255 82be 692a 4a3e
00000140: 23c0 bebe 1004 0d3f 756d 4abf 96a4 d43e
00000150: 2bba d13e f0b6 623f a96a ce3d 0703 b03e
00000160: 55c9 57bf 5e2d 3ebe 7e0a 213f d8a0 0fbe
00000170: 6ca1 33bf 3193 4e3e 90ad 713d 1f08 113f
00000180: c2a5 643f df81 be3e 30ce 82be c489 b4be
00000190: 83d0 b1bd c005 20bf 5fd4 60be 8174 4bbf
000001a0: 38f7 8c3c 05fd 3dbf 5ce9 913e ce13 11bf
000001b0: 846f 2abe 35a5 e9bd 1b34 ecbe 33cd e63e
000001c0: efd0 b1be 27e3 0b3f 5ae7 f13e a35d 38bf
000001d0: a75d 4f3f 29ed f33d d3bd aabd 6ce8 ffbc
000001e0: bc5f e4be c5d3 43bc 595a d03e 5de4 04be
000001f0: 16d9 3ebf e28b 163c 1691 28be 7670 79bd
00000200: 7220 2c3e 8cbd bb3e fad0 ddbe 558a b8be
00000210: 9da7 96be 6cbd a33b b88e 313f 0c24 7d3d
00000220: dcd0 90bf 279f 763f 31f8 8d3f 079a febe
00000230: 6029 c7bd 761f b83f 60b8 43bf 79a2 b2be
00000240: ae6d ca3e 402f 3bbf 1110 9fbd b39b 2fbe
00000250: b99b 373e 3763 5c3e fad0 923e b214 a6bf
00000260: 00f5 713e 4bc5 1bbf 92b3 413f 667b 0e3f
00000270: c654 be3f 0730 38bf 9032 97be 221e 963f
00000280: f78a 4d3f e61e 063f a6a3 2b3e 1610 f53c
00000290: 220e 85bf a169 27bf 298a 393f 6e13 d93c
000002a0: b01b bfbd b64a 513f 81fd be3d 3b21 f9be
000002b0: 64ec 0ebf 68b8 de3d 717a 06bf d4ec d53c
000002c0: 7228 0ebf 06ee f63e 4c39 94be 37b9 b4be
000002d0: 70fc 46be 8499 04bf 425b 89be 9d7c e0bc
000002e0: d1f4 29bf 373c 803e aa55 833f 6867 833e
000002f0: e864 b6be bcb6 243e 2d0e 4b3f 76af 4ebf
00000300: 08aa ba3f de16 1dbe 3079 8f3e e17e f63e
00000310: 8056 663e c874 d0be a1b9 87bd 7f14 b73e
00000320: 27ae 3bbe 3422 b5be 383f 103f d105 303f
00000330: 6eb9 853b ee6e cd3e 0946 eebe 1d13 31bf
00000340: aa1c d5be c7d9 efbe 8c25 433f ebf1 043f
00000350: 79e8 4dbe de0b 83be 5f21 fabe ae05 823e
00000360: 17c1 d6be 9a3e 16be 8a76 a2be af5c b23d
00000370: c958 c7bd 4911 ae3e 46bc a4be 149a fcbe
00000380: cd1e 12be 592d 303d 460b a5be f4f4 8dbe
00000390: c040 1b3f 7884 b13b edd0 bebd 6abe 2e3f
000003a0: 1acc 86bf c17b e13a bb1d 2fbd 5a43 8abe
000003b0: 7361 06bf 6695 343e a0a4 a0be c2ad 31bf
000003c0: baf5 2a3e 1108 73bf 837b c4be 641b 453f
000003d0: 329a babe eb81 b93d de90 5d3e 9f8f 9ebe
000003e0: fd97 76bf 2285 45bf 3e59 5a3f e2d5 d3be
000003f0: 8d64 c8be 767e 09bf ae35 e5be 4b08 193f

actor.4.bias f4 [16]
0.15012763 0.13914567 -0.023933467 0.046400722 -0.27071422 -0.7140547 0.010501044 0.14289752
-0.80702806 0.108685724 -0.00040439298 -0.89366114 -0.41838914 -0.14428729 -0.62532103 0.31485677
00000000: 0fbb 193e 347c 0e3e 1e10 c4bc af0e 3e3d
00000010: 0e9b 8abe 4acc 36bf 920c 2c3c ba53 123e
00000020: 6499 4ebf 9f96 de3d b504 d4b9 fac6 64bf
00000030: 1a37 d6be 0cc0 13be 0a15 20bf e834 a13e

critic.0.weight f4 [128, 35]
0.08890624 -0.06793677 0.07693711 -0.043424413 0.02987494 -0.010955045 -0.013994569 -0.037115116
-0.037306868 0.12030515 1.8599964 -0.1854581 -0.7055678 -1.1452539 -1.0295532 -0.12394118
0.38062146 0.46334368 0.11691266 0.20605944 0.006143682 0.07142044 0.041366283 -0.042017527
-0.08011796 -0.44460803 0.036124654 -0.11310343 0.1484512 0.25931922 0.32845446 0.18421215
-0.39892825 0.30704162 0.6597759 0.1492513 0.14979538 0.20541537 0.11671115 0.26891986
0.14274433 0.14367498 0.095666945 0.1381571 0.21032168 0.1750828 -1.0667592 0.6064968
0.8311556 0.64147455 0.44100642 0.19713818 -0.12415162 -0.35674897 -0.29292074 0.20070687
-0.28677562 -0.13009539 -0.00069436914 -0.15535077 -0.2491233 0.46523005 0.25811157 0.05658091
0.2098762 -0.13240825 -0.47729123 -0.43114716 0.023239808 -0.34133744 -0.028379645 -0.021225417
-0.035993833 -0.0076490594 0.0084848 -0.04730752 0.016949093 -0.015910918 0.0048537534 0.012688575
-0.73713857 0.6776973 1.2509434 1.116398 1.171268 0.3563472 0.3660805 0.14450774
0.19830081 0.24924234 -0.009338852 -0.20973687 -0.24853866 0.3694822 0.025720522 -0.34921038
-0.8406567 -0.052752968 0.018325847 0.042948607 0.13852234 0.12750295 -0.20295131 -0.53850824
0.32296476 0.16725324 0.09921713 0.102646954 0.09919027 0.09666013 0.057345107 0.064085074
0.021429475 0.052321393 0.055170394 -1.6141237 0.9576746 0.20843165 0.058839403 -0.55169517
0.33114937 0.048903547 0.123254314 0.3882237 0.42929098 -0.22101709 0.10699816 -0.060701203
-0.12502913 -0.7161137 -0.38416207 0.03285409 0.0875598 0.08527678 0.1150493 0.27056104
0.3521887 0.37923846 0.5648751 0.8264163 -0.04675637 -0.033505283 -0.03371036 0.023060653
-0.021194754 -0.048424266 -0.028254755 -0.04128545 -0.048957717 -0.00261902 -0.61785936 0.007088127
0.23219368 0.32157546 0.028728083 1.2646481 0.48132473 0.071256116 -0.07945703 0.096221425
0.21770771 0.28979376 0.0384792 -0.13137828 -0.18310687 0.30436417 -0.5172386 0.093070775
0.16956411 0.06855584 0.20802009 -0.2788339 -0.47268513 -0.28775382 0.27354842 0.065073006
0.031689 0.12607904 0.06084101 0.00055697217 0.016949503 0.09551875 0.0497106 0.12040939
0.15284437 -2.477132 -1.3279362 -0.9544142 -0.9059706 -0.71336377 1.1524528 0.25224882
0.3341723 -0.17706126 0.3414889 -0.225489 -0.010422636 -0.087573014 0.191589 -0.10491581
0.16493815 0.05992181 -0.04480418 0.107065655 0.12850532 0.031796496 -0.29016742 -0.014100082
-0.23590723 0.25729588 -0.10596754 -0.10668543 -0.08893226 -0.0848465 -0.11655672 -0.08487686
-0.11304303 -0.06944547 -0.19332114 -0.20801768 -0.60720664 -0.9556125 -1.0516851 -0.2720398
-1.2264353 0.07994709 -0.16080923 0.08502238 0.12764278 -0.23245722 -0.020046987 0.11972924
-0.0020245803 -0.24438642 0.29292598 0.040068127 0.3805092 0.001045597 0.12380433 0.23564313
0.3150061 -0.24104361 0.12584198 0.45138064 0.9499615 0.148662 0.08149184 0.09602794
0.11811076 0.08685099 0.085513264 0.10577962 0.07695597 0.004809972 0.023275426 -1.9882389
00000000: 7a14 b63d 6f22 8bbd 3491 9d3d ccdd 31bd
00000010: 4abc f43c ca7c 33bc 7a49 65bc 0506 18bd
00000020: 16cf 18bd 8c62 f63d 5d14 ee3f bae8 3dbe
00000030: 17a0 34bf ae97 92bf 66c8 83bf e0d4 fdbd
00000040: d1e0 c23e 623b ed3e e86f ef3d 3f01 533e
00000050: f150 c93b e144 923d b16f 293d 921a 2cbd
00000060: e314 a4bd aaa3 e3be 72f7 133d c5a2 e7bd
00000070: 9703 183e 7dc5 843e 2f2b a83e 1ca2 3c3e
00000080: 5340 ccbe 8f34 9d3e 13e7 283f 55d5 183e
00000090: f663 193e 6858 523e 4106 ef3d ddaf 893e
000000a0: 922b 123e 891f 133e 08ed c33d 0e79 0d3e
000000b0: 915e 573e e848 333e 918b 88bf 6043 1b3f
000000c0: 9dc6 543f ad37 243f 98cb e13e 97de 493e
000000d0: 3443 febd cda7 b6be b5f9 95be 1a86 4d3e
000000e0: 41d4 92be ba37 05be 5306 36ba 4614 1fbe
000000f0: 2e1a 7fbe a232 ee3e 3327 843e 62c1 673d
00000100: c9e9 563e 0796 07be 845f f4be 52bf dcbe
00000110: 6961 be3c c8c3 aebe 6e7c e8bc ede0 adbc
00000120: 456e 13bd f6a4 fabb d503 0b3c 88c5 41bd
00000130: d3d8 8a3c 9d57 82bc 3c0c 9f3b bee3 4f3c
00000140: 1db5 3cbf 927d 2d3f ea1e a03f 21e6 8e3f
00000150: 1cec 953f 2473 b63e e76e bb3e d6f9 133e
00000160: 5e0f 4b3e 6239 7f3e fc01 19bc 43c5 56be
00000170: eb80 7ebe c52c bd3e d8b3 d23c b4cb b2be
00000180: 4735 57bf 7f13 58bd 1620 963c e1ea 2f3d
00000190: cdd8 0d3e 2290 023e 78d2 4fbe addb 09bf
000001a0: a35b a53e 6f44 2b3e 5a32 cb3d 9138 d23d
000001b0: 4524 cb3d bff5 c53d b4e2 6a3d 093f 833d
000001c0: de8c af3c f54e 563d 5afa 613d 9b9b cebf
000001d0: 2a2a 753f 1b6f 553e 9601 713d e53b 0dbf
000001e0: 698c a93e 164f 483d c26c fc3d 42c5 c63e
000001f0: 07cc db3e 4e52 62be da21 db3d d3a1 78bd
00000200: a307 00be 3a53 37bf e4b0 c4be 0392 063d
00000210: 8d52 b33d 98a5 ae3d f89e eb3d fa86 8a3e
00000220: 1452 b43e 8b2b c23e a89b 103f 0590 533f
00000230: 9c83 3fbd d63c 09bd e013 0abd b2e9 bc3c
00000240: 9fa0 adbc 8658 46bd 8476 e7bc ef1a 29bd
00000250: e387 48bd dda3 2bbb 082c 1ebf 8543 e83b
00000260: 2ec4 6d3e 8aa5 a43e 2857 eb3c fddf a13f
00000270: 3270 f63e baee 913d 5eba a2bd bd0f c53d
00000280: c5ee 5e3e d95f 943e 5e9c 1d3d 0788 06be
00000290: 5e80 3bbe 9fd5 9b3e c069 04bf e49b be3d
000002a0: 37a2 2d3e 0167 8c3d 3803 553e 51c3 8ebe
000002b0: c903 f2be 7854 93be 8a0e 8c3e ff44 853d
000002c0: 53cc 013d dd1a 013e 6c34 793d c501 123a
000002d0: afd9 8a3c 569f c33d 589d 4b3d 3399 f63d
000002e0: 3c83 1c3e 5589 1ec0 d0f9 a9bf 7d54 74bf
000002f0: b0ed 67bf 029f 36bf 9383 933f c226 813e
00000300: a218 ab3e 8c4f 35be a2d7 ae3e 97e6 66be
00000310: b4c3 2abc 7b59 b3bd e82f 443e 1ade d6bd
00000320: 8ce5 283e 9270 753d 9684 37bd 3d45 db3d
00000330: e696 033e 0b3d 023d d390 94be 0804 67bc
00000340: aa91 71be 49bc 833e 8205 d9bd e47d dabd
00000350: 1e22 b6bd 00c4 adbd 4ab5 eebd ebd3 adbd
00000360: 1b83 e7bd 6d39 8ebd faf5 45be 9602 55be
00000370: e571 1bbf 05a3 74bf 9e9d 86bf cd48 8bbe
00000380: d5fb 9cbf 4dbb a33d 2dab 24be 3720 ae3d
00000390: cab4 023e 4409 6ebe 9439 a4bc 9b34 f53d
000003a0: d2ae 04bb 6f40 7abe 65fa 953e 7a1e 243d
000003b0: 1ad2 c23e 6a0c 893a 208d fd3d 6f4c 713e
000003c0: 7b48 a13e 23d4 76be b8dc 003e 5d1b e73e
000003d0: ad30 733f da3a 183e 32e5 a63d 4caa c43d
000003e0: 0ee4 f13d efde b13d 9421 af3d fca2 d83d
000003f0: 179b 9d3d f89c 9d3b 1bac be3c 9d7e febf

critic.0.bias f4 [128]
0.57689995 -0.639494 -0.20854124 -0.15422815 -0.43049145 -0.33990663 -0.054151606 -0.46643436
0.38219494 -0.3543444 0.46166566 0.03548857 0.6129281 -0.008708414 0.19503388 -0.05411997
0.6817562 -0.29051024 -0.27574772 0.6329511 -0.41663963 -0.52729714 -0.54526025 0.2768486
0.3527894 -0.36029065 0.003881705 0.11700406 0.047763623 0.21006946 0.036575034 -0.05660728
-0.14571413 -0.42934653 -0.4045361 -0.09860013 -0.6540726 -0.045555856 0.17389876 -0.12480331
0.18959989 -0.23367025 -0.5691249 -0.24569452 -0.264234 -0.7337938 -0.0061528934 0.044921428
0.14954808 0.13984135 -0.22398332 0.048917368 -0.015669387 -0.7852882 -0.52618945 -0.12375008
-0.20387346 -0.40699488 0.39227918 -0.1609235 -0.009557976 0.10144851 -0.1011446 0.26492208
0.08956677 -0.62679696 -0.5417096 -0.20845434 0.05335425 0.048365455 0.08376184 0.5975053
0.47397435 0.3349685 -0.090000086 0.2724011 -0.10463634 0.21501133 0.17752519 0.343784
0.04146902 0.14657027 0.5237898 0.1713347 -0.11696769 0.8377141 0.06914082 0.17067763
0.40587503 0.12401637 -0.27986225 0.5581078 -0.27886188 -0.37169325 -0.70305336 0.38263097
0.26835135 0.25703317 -0.4129433 0.025463229 -0.22770508 -0.6972972 0.39691573 0.3714707
-0.13348988 -0.3256705 0.18958467 0.056460787 -0.2543534 0.02021327 -0.4071943 0.6593825
0.8200288 -0.080321245 -0.90608114 -0.15213999 0.9452046 -0.359093 0.2886892 0.05103919
-0.46498266 -0.030594299 0.01332338 0.105622165 -0.19506407 -0.40825322 -0.15009718 0.07955897
00000000: b7af 133f e1b5 23bf d68b 55be fced 1dbe
00000010: 6069 dcbe 3e08 aebe 13ce 5dbd 7cd0 eebe
00000020: 0eaf c33e a16c b5be 715f ec3e 765c 113d
00000030: dbe8 1c3f bcad 0ebc f6b6 473e e7ac 5dbd
00000040: 9387 2e3f c2bd 94be ce2e 8dbe 1509 223f
00000050: ca51 d5be f2fc 06bf 2d96 0bbf 1abf 8d3e
00000060: d0a0 b43e 0478 b8be 3464 7e3b d39f ef3d
00000070: caa3 433d 731c 573e b4cf 153d 09dd 67bd
00000080: 1636 15be 4fd3 dbbe 5b1f cfbe ddee c9bd
00000090: 4d71 27bf c798 3abd 8412 323e e198 ffbd
000000a0: 7926 423e 4147 6fbe 2bb2 11bf 5897 7bbe
000000b0: ae49 87be e9d9 3bbf 369e c9bb 88ff 373d
000000c0: 2223 193e 9232 0f3e e25b 65be 945d 483d
000000d0: 165d 80bc a608 49bf 5ab4 06bf af70 fdbd
000000e0: 34c4 50be a261 d0be d1d8 c83e 21c9 24be
000000f0: 0f99 1cbc 3dc4 cf3d e624 cfbd dea3 873e
00000100: c86e b73d c475 20bf 7bad 0abf 0e75 55be
00000110: fc89 5a3d db1a 463d 548b ab3d 1bf6 183f
00000120: c4ac f23e fe80 ab3e f751 b8bd 2878 8b3e
00000130: 944b d6bd ee2b 5c3e 2ac9 353e 7504 b03e
00000140: 6bdb 293d 8416 163e 1717 063f 5d72 2f3e
00000150: c28c efbd 6e74 563f b499 8d3d 1ec6 2e3e
00000160: dace cf3e 4bfc fd3d 1b4a 8fbe 27e0 0e3f
00000170: fcc6 8ebe 944e bebe 4efb 33bf 35e8 c33e
00000180: 5965 893e da99 833e 4e6d d3be 4398 d03c
00000190: 852b 69be 1282 32bf 8a38 cb3e 6831 be3e
000001a0: 92b1 08be 49be a6be 7c22 423e 6d43 673d
000001b0: 9c3a 82be 4d96 a53c c57b d0be 4bcd 283f
000001c0: 68ed 513f 777f a4bd eff4 67bf 96ca 1bbe
000001d0: eef8 713f 0adb b7be 12cf 933e 780e 513d
000001e0: 3512 eebe e5a0 fabc 4e4a 5a3c 6f50 d83d
000001f0: e0be 47be 9106 d1be 13b3 19be d0ef a23d

critic.2.weight f4 [64, 128]
-0.043823052 -0.14450425 0.059348848 -0.08317274 -0.038245995 -0.06120977 -0.12676609 -0.3328894
-0.022132829 -0.11282548 -0.035528548 0.007332854 0.061277308 -0.048277516 -0.17755973 -0.12313674
-0.10896634 0.16562207 -0.14569941 0.105270654 -0.074076466 0.042084184 0.01226538 -0.11622803
0.080058776 -0.10490912 0.059762545 0.09224558 0.055493526 -0.01592886 0.042199764 -0.071055785
-0.08660012 -0.15813 0.035801467 0.121210866 -0.10333955 0.06009744 0.13969974 -0.018755395
-0.028580569 0.09667745 0.09441645 0.011475231 -0.14081855 -0.16085918 0.045505945 -0.081187434
0.026082013 0.03380228 -0.0060565113 -0.16732165 -0.18104422 -0.07688836 -0.20177393 0.105114155
0.07405235 -0.028071156 0.122838706 -0.13790673 -0.011330617 0.043647774 0.0013031967 0.055777516
0.049007352 -0.13626699 0.036814943 -0.02656796 0.013056051 0.043590065 -0.01529622 0.096265644
-0.07493247 0.074220575 0.13709356 -0.017726496 -0.094695225 0.29033646 0.04437871 0.1389532
0.08203074 0.038126696 -0.114378564 -0.0069608474 0.013879852 0.11520359 0.13114505 0.06292398
0.12212731 0.08435643 -0.109487414 0.045369573 -0.121960655 -0.019431077 -0.09543118 0.03976939
-0.20008272 -0.12700067 -0.061711106 -0.09335023 -0.10582967 -0.07905518 0.111113325 -0.07292828
-0.09270524 -0.0767979 0.15750363 0.10414425 -0.08801066 -0.16808082 -0.031192893 -0.011219158
-0.071608 0.09292433 -0.14937177 -0.23698056 -0.047977712 -0.04731119 -0.057262737 -0.07904663
-0.048007645 -0.063019685 -0.035373103 -0.12775165 -0.09776852 0.029270396 0.03144984 -0.020746393
-0.15840125 -0.20990016 -0.13513668 -0.18859184 0.2000207 0.063783035 -0.10891688 -0.0038037496
-0.07604241 -0.09729642 -0.2771072 0.3312775 -0.03400346 0.11292075 -0.12859505 -0.2619431
-0.21750028 0.10047533 -0.49108025 0.034724932 -0.08612784 -0.052310254 -0.040771823 0.066604145
-0.2599978 -0.27040327 -0.12608084 0.005049576 -0.0056162183 -0.36058816 -0.39005706 0.10580007
-0.17439999 -0.07426246 -0.07452882 -0.079832025 -0.24959624 0.051680245 -0.67235 -0.12373923
-0.23066242 -0.351425 -0.20564136 -0.58289236 -0.06391872 -0.2187575 -0.17246246 -0.04501159
0.10303463 0.012303568 0.060482785 -0.30427253 -0.18376009 -0.037107963 0.16750832 -0.22551864
0.006049104 0.5638848 -0.24806312 -0.1984619 -0.12097622 -0.04035345 0.016228499 -0.5797332
0.18904449 0.018363982 -0.24884604 -0.23468578 0.016893264 -0.23347667 0.11895174 0.28666884
0.12110872 -0.3759708 -0.10462829 -0.3187233 -0.09787638 0.3009205 -0.32513228 0.19329041
-0.23242833 -0.12051497 -0.06020073 0.104742005 0.033205893 0.050830252 0.024072 -0.24289262
-0.26329264 0.44438353 -0.20473163 -0.34364325 -0.1534892 -0.5287281 -0.20720942 -0.07660691
-0.27464926 -0.28064144 -0.23845822 -0.15673192 0.010288498 -0.08271607 -0.4508161 -0.13206416
-0.12365898 -0.21280417 0.054436725 -0.35511908 0.10061208 -0.11589846 -0.101504356 -0.39024693
-1.007224 0.06437224 0.017729325 -0.5594731 0.41379625 0.092471085 0.016395286 0.108345084
-0.5696758 -0.19771305 -0.2962682 0.11159909 -0.13388444 -0.13723432 -0.05879654 -0.034610312
00000000: cd7f 33bd ecf8 13be c717 733d 7856 aabd
00000010: d5a7 1cbd 19b7 7abd f8ce 01be 7b70 aabe
00000020: e84f b5bc 0c11 e7bd 6286 11bd 7048 f03b
00000030: eafd 7a3d a5be 45bd 38d2 35be 1d2f fcbd
00000040: bf29 dfbd d598 293e 3a32 15be 2498 d73d
00000050: 67b5 97bd 7760 2c3d bbf4 483c f608 eebd
00000060: dbf5 a33d 98da d6bd 92c9 743d 40eb bc3d
00000070: 2e4d 633d 3e7d 82bc a9d9 2c3d b285 91bd
00000080: 675b b1bd d5ec 21be 8fa4 123d 673d f83d
00000090: b0a3 d3bd bc28 763d 730d 0f3e eaa4 99bc
000000a0: cc21 eabc d4fe c53d 695d c13d 9b02 3c3c
000000b0: bd32 10be 45b8 24be 7164 3a3d 9945 a6bd
000000c0: f2a9 d53c 4274 0a3d b375 c6bb 5e56 2bbe
000000d0: a863 39be a577 9dbd d39d 4ebe 1746 d73d
000000e0: c2a8 973d 7bf5 e5bc dc92 fb3d 6c37 0dbe
000000f0: 0da4 39bc 02c8 323d 06d0 aa3a f776 643d
00000100: efbb 483d 9389 0bbe 44cb 163d 0da5 d9bc
00000110: 0ce9 553c 7f8b 323d ff9c 7abc ec26 c53d
00000120: 3276 99bd f500 983d 4162 0c3e 2837 91bc
00000130: 92ef c1bd fba6 943e 73c6 353d bf49 0e3e
00000140: bcff a73d bd2a 1c3d 4f3f eabd d217 e4bb
00000150: 5268 633c dcef eb3d e34a 063e 4ade 803d
00000160: e21d fa3d 10c3 ac3d f03a e0bd 72d5 393d
00000170: 82c6 f9bd ec2d 9fbc 6c71 c3bd 3ae5 223d
00000180: 7ce2 4cbe 770c 02be c9c4 7cbd 682e bfbd
00000190: 3abd d8bd afe7 a1bd 628f e33d 6c5b 95bd
000001a0: 3fdc bdbd 3848 9dbd a248 213e 9549 d53d
000001b0: ef3e b4bd 611d 2cbe 3d88 ffbc 8fd0 37bc
000001c0: 37a7 92bd 1c4f be3d eaf4 18be 08ab 72be
000001d0: 4784 44bd 61c9 41bd 558c 6abd 33e3 a1bd
000001e0: aaa3 44bd 7710 81bd 63e3 10bd 54d1 02be
000001f0: dd3a c8bd 78c8 ef3c 8cd1 003d 57f4 a9bc
00000200: f033 22be 11f0 56be 4561 0abe 381e 41be
00000210: 3ad2 4c3e aea0 823d d00f dfbd 5448 79bb
00000220: 20bc 9bbd 5843 c7bd ffe0 8dbe 349d a93e
00000230: 3647 0bbd ff42 e73d 6cae 03be 681d 86be
00000240: 65b8 5ebe 03c6 cd3d df6e fbbe bb3b 0e3d
00000250: cb63 b0bd 4743 56bd 5b00 27bd c167 883d
00000260: 6f1e 85be 4c72 8abe 561b 01be ea76 a53b
00000270: 4108 b8bb 039f b8be 8fb5 c7be b5ad d83d
00000280: e995 32be eb16 98bd 91a2 98bd f97e a3bd
00000290: 2896 7fbe aaae 533d 211f 2cbf fe6a fdbd
000002a0: c532 6cbe faed b3be a693 52be 6f38 15bf
000002b0: d1e7 82bd f701 60be 009a 30be 135e 38bd
000002c0: d203 d33d e894 493c ccbc 773d 9cc9 9bbe
000002d0: 9b2b 3cbe 85fe 17bd 4d87 2b3e 5cee 66be
000002e0: 9037 c63b c15a 103f 4204 7ebe 9939 4bbe
000002f0: 61c2 f7bd a949 25bd a1f1 843c 6569 14bf
00000300: e194 413e 1070 963c 7fd1 7ebe 7851 70be
00000310: be63 8a3c 8214 6fbe f89c f33d 42c6 923e
00000320: d907 f83d 3f7f c0be 5b47 d6bd b32f a3be
00000330: 6973 c8bd 4012 9a3e bd77 a6be eced 453e
00000340: b101 6ebe 8dd0 f6bd 0a95 76bd fa82 d63d
00000350: e702 083d 6233 503d a532 c53c d8b8 78be
00000360: 4bce 86be 3d86 e33e 2ba5 51be 02f2 afbe
00000370: 462c 1dbe ba5a 07bf b52e 54be 15e4 9cbd
00000380: d49e 8cbe 3cb0 8fbe 642e 74be 557e 20be
00000390: 1791 283c 0b67 a9bd 5ed1 e6be d43b 07be
000003a0: eb40 fdbd 56e9 59be 0bf9 5e3d 2bd2 b5be
000003b0: b50d ce3d 2c5c edbd 84e1 cfbd 72ce c7be
000003c0: b7ec 80bf 98d5 833d 173d 913c a139 0fbf
000003d0: 1add d33e 7b61 bd3d 684f 863c 07e4 dd3d
000003e0: 46d6 11bf 4a75 4abe 77b0 97be 108e e43d
000003f0: 0119 09be 2787 0cbe a4d4 70bd 8bc3 0dbd

critic.2.bias f4 [64]
-0.015978498 0.18793719 0.00019603022 -0.47146678 0.12485584 0.08736958 0.019981965 -0.0016762904
0.06554554 -0.00903941 -0.114144295 -0.4160054 -0.012844399 0.029749567 -0.39863458 0.12595572
-0.0013738222 0.040697444 0.11243068 0.051301528 0.0075308303 -0.13407505 -0.021676375 -0.047618736
0.074203804 0.041462585 0.15262845 -0.009999841 -0.04959949 -0.19465534 0.07813074 0.035163403
0.12796596 -0.20530476 -0.23663667 -0.050247755 -0.0701463 -0.279577 -0.035731006 -0.095177144
-0.1646504 0.029830469 0.16686097 0.10933334 -0.09362294 -0.11172227 0.13131 -0.4333672
0.14505662 -0.033099085 0.11836993 -0.15645853 -0.023757325 0.071502395 0.028557163 -0.11792256
0.12598994 -0.014726706 -0.029812116 -0.13892266 0.06049519 -0.07592545 0.08591651 0.065804735
00000000: 57e5 82bc 9b72 403e 768d 4d39 1864 f1be
00000010: 6bb4 ff3d d3ee b23d 38b1 a33c f9b6 dbba
00000020: bd3c 863d 091a 14bc 7cc4 e9bd a9fe d4be
00000030: 5071 52bc 5db5 f33c d519 ccbe 89fa 003e
00000040: d311 b4ba 5db2 263d 0e42 e63d 8d21 523d
00000050: 2fc5 f63b f84a 09be a792 b1bc dd0b 43bd
00000060: 2af8 973d acd4 293d a24a 1c3e 60d6 23bc
00000070: d628 4bbd bb53 47be 0203 a03d 8007 103d
00000080: 8209 033e 693b 52be e250 72be 97d0 4dbd
00000090: dda8 8fbd b724 8fbe ad5a 12bd 3cec c2bd
000000a0: 1d9a 28be 075f f43c 9add 2a3e 28ea df3d
000000b0: 62bd bfbd a5ce e4bd 2176 063e 4ee2 ddbe
000000c0: b989 143e e892 07bd ef6b f23d aa36 20be
000000d0: b99e c2bc d96f 923d b6f0 e93c 6281 f1bd
000000e0: 8203 013e 4848 71bc 8a38 f4bc be41 0ebe
000000f0: cec9 773d cd7e 9bbd fff4 af3d a2c4 863d

critic.4.weight f4 [1, 64]
-0.32126123 0.5586613 -0.54808325 0.26233426 -0.53162515 -0.3378584 -0.47265995 -0.49893972
0.37752682 0.00846401 0.08177388 0.081731275 -0.11885707 0.21993375 0.51986754 0.58241117
-0.3696459 -0.28927296 0.14622846 -0.13375041 0.077051945 0.5650347 0.4552352 -0.3537558
0.39576998 0.6977073 0.50682044 -0.09164767 0.4363542 -0.15086973 0.39412394 -0.231744
0.18089506 0.42797485 0.43114045 -0.11784333 0.1198015 0.5802991 0.42009923 -0.40315855
-0.5497137 -0.16067055 -0.11576024 -0.66631514 0.17323609 -0.4960744 -0.3783771 0.49268845
0.3159279 0.3954704 -0.12515259 0.508335 -0.2968858 -0.12242486 -0.34171253 -0.08962389
-0.4612402 0.31738773 0.44345018 0.54084796 0.16564415 0.4243154 0.12962694 0.09549466
00000000: 5a7c a4be 6d04 0f3f 2f4f 0cbf ad50 863e
00000010: 9618 08bf c7fb acbe 7c00 f2be 0775 ffbe
00000020: 324b c13e a2ac 0a3c 1079 a73d ba62 a73d
00000030: 566b f3bd 5036 613e 0a16 053f e618 153f
00000040: 3a42 bdbe 961b 94be eabc 153e def5 08be
00000050: 69cd 9d3d 1da6 103f 9714 e93e 7b1f b5be
00000060: 5da2 ca3e f29c 323f fcbe 013f c6b1 bbbd
00000070: d169 df3e 987d 1abe 9dca c93e 4d4e 6dbe
00000080: 8e3c 393e 851f db3e 71be dc3e d857 f1bd
00000090: 7d5a f53d 7b8e 143f 3f17 d73e cc6a cebe
000000a0: 09ba 0cbf d286 24be b413 edbd a193 2abf
000000b0: cd64 313e 77fd fdbe a5ba c1be a941 fc3e
000000c0: 4dc1 a13e 197b ca3e 0028 00be 3e22 023f
000000d0: 6a01 98be e3b9 fabd f2f4 aebe bb8c b7bd
000000e0: ad27 ecbe a580 a23e e70b e33e 0375 0a3f
000000f0: 9f9e 293e de3f d93e edbc 043e b492 c33d
