submit/submit/results/PPO_20220509_0_450.pth (torch, 244021 bytes, 15 tensors)

actor.0.weight f4 [128, 35]
0	0xbbf7efb9	-0.007566419
1	0xbe3810c8	-0.17975152
2	0xbcda8fde	-0.02667993
3	0x3dc990cc	0.09842071
4	0x3c81f317	0.015862985
5	0x3dbb271e	0.091383204
6	0x3e39d6b3	0.18148308
7	0xbddf3f75	-0.10900775
8	0xbd44e51f	-0.04807007
9	0x3dc39c7f	0.09551334
10	0xbf330876	-0.69934785
11	0xbed068f4	-0.40705073
12	0x3b3d3174	0.0028868588
13	0x3d7f6501	0.062352184
14	0x3e73a738	0.23794258
15	0x3dd3ffa8	0.10351497
16	0x3da8c293	0.08240237
17	0xbdc2bfdb	-0.0950925
18	0x3ca365b2	0.019945953
19	0xbe0e3bba	-0.13889971
20	0xbc12c9f1	-0.008959279
21	0x3e0605b1	0.13088109
22	0xbca51d40	-0.020155549
23	0x3c8c9ceb	0.017164668
24	0xbb802308	-0.003910426
25	0x3e40d5bb	0.18831532
26	0xbe189a7b	-0.1490268
27	0x3dddb70f	0.10825931
28	0xbe7e028d	-0.2480566
29	0x3d1e304a	0.03862027
30	0x3ce759fa	0.028241146
31	0x3e11b37f	0.14228629
32	0x3cad80c7	0.02117957
33	0x3e602f1b	0.2189297
34	0x3dfc68be	0.123246655
35	0xbddced8a	-0.107874945
36	0xbd4ce7a5	-0.0500256
37	0xbd204ca7	-0.0391356
38	0xbe80b943	-0.25141343
39	0x3dd9f4a1	0.106423624
40	0xbd5f5446	-0.05452373
41	0xbdf4d090	-0.11953843
42	0xbdae7794	-0.085189015
43	0xbe09a434	-0.13441545
44	0x38ce2f4b	9.8316545e-05
45	0xbed17ac3	-0.40913972
46	0xbf082059	-0.5317436
47	0xbdf57517	-0.11985224
48	0xbe53bc2a	-0.20677248
49	0x3e5bc1c8	0.2146064
50	0x3d6d92ac	0.058001205
51	0x3c60c765	0.013719414
52	0x3d6fc64b	0.058538716
53	0x3d89074a	0.066908434
54	0xbce6e9a0	-0.028187573
55	0x3d19e673	0.03757329
56	0xbd48859e	-0.048955552
57	0x3e2281ea	0.15869871
58	0x3d0fe4cc	0.035130307
59	0xbd914081	-0.07092381
60	0x3cf835e2	0.03029913
61	0xbd89d5d9	-0.06730241
62	0xbd91d36d	-0.071204044
63	0xbda8cb00	-0.08241844
64	0x3c496ecc	0.012294482
65	0x3e163671	0.14669205
66	0x3e735cec	0.23765916
67	0xbe16b773	-0.14718418
68	0x3d8a8668	0.06763917
69	0x3ea55c30	0.32296896
70	0x3c30f28e	0.010800017
71	0xbcf5c1de	-0.02999967
72	0xbcb83037	-0.022483928
73	0xbdb36b6c	-0.087607235
74	0x3e206b62	0.15665963
75	0x3ca10a1a	0.019658137
76	0xbd01c981	-0.03168631
77	0x3cab887f	0.02093911
78	0xbd130c9c	-0.035900697
79	0xbdc1672d	-0.09443507
80	0xbcf4e442	-0.029893998
81	0xbc3bd102	-0.011463406
82	0x3d7cedc4	0.06175019
83	0xbd13be1d	-0.036069978
84	0x3e42984d	0.1900341
85	0x3dce6d4b	0.1007944
86	0x3e65e63d	0.2245111
87	0x3d2184ee	0.039433412
88	0xbc6dfcb2	-0.014525579
89	0x3e2b361d	0.16719861
90	0x3d3d6b35	0.04624482
91	0xbde094e2	-0.10965897
92	0xbe224688	-0.15847218
93	0xbee4b336	-0.44667977
94	0xbdcb24c9	-0.099191256
95	0xbd19446b	-0.037418764
96	0xbc66b81c	-0.014081981
97	0xbe63a988	-0.2223264
98	0x3e11549f	0.14192437
99	0x3e6b314e	0.22968027
100	0xbd4713d3	-0.04860289
101	0xbdcf31b7	-0.10116904
102	0xbe86cf50	-0.26330042
103	0xbd9fa20a	-0.077945784
104	0xbd96ba88	-0.07359797
105	0x3d989053	0.07449403
106	0xbd315694	-0.043295458
107	0x3bb0f7b9	0.0054006246
108	0x3d878ab1	0.0661825
109	0xbdecbb20	-0.11559129
110	0x3d954577	0.0728864
111	0xbe003b1f	-0.12522553
112	0x3e2d1c57	0.16905342
113	0x3d421100	0.047379494
114	0x3e3a75a1	0.18208934
115	0xbf03fead	-0.5156048
116	0xbe6a63e3	-0.22889666
117	0xbe1f7127	-0.15570508
118	0xbed6293c	-0.41828334
119	0xbdb275fe	-0.087139115
120	0xbcc7e7c8	-0.024402514
121	0xbe53fbf8	-0.20701587
122	0xbe003307	-0.12519465
123	0x3c91f914	0.017818965
124	0xbc086ff8	-0.008327477
125	0x3e269d95	0.1627105
126	0x3dbe46c9	0.09290845
127	0xbe4b060a	-0.19826522
128	0x3df8faeb	0.12157234
129	0x3d41e102	0.047333725
130	0xbd33ab44	-0.043864504
131	0x3c01068e	0.007875098
132	0xbe83f608	-0.25773644
133	0x3dd4962d	0.10380206
134	0xbc40d773	-0.011770117
135	0x3e0b23d5	0.13587888
136	0x3e3254b0	0.17415118
137	0x3d025fb4	0.03182955
138	0xbd88f0c8	-0.066865504
139	0xbeae9541	-0.34098247
140	0x3c85dcc7	0.016340626
141	0xbe220f83	-0.1582623
142	0xbd579325	-0.052630562
143	0x3e4db515	0.20088609
144	0x3e56b25e	0.20966479
145	0x3d1572cb	0.03648643
146	0x3e320cf4	0.17387754
147	0xbdcf1103	-0.101106666
148	0xbe448591	-0.19191577
149	0x3d64ff0c	0.055907294
150	0x3eb2efc3	0.3494855
151	0x3d85c48d	0.0653163
152	0x3dbf9b71	0.0935582
153	0xbdb48326	-0.08814077
154	0x3b1e7991	0.0024181346
155	0xbe2324d6	-0.1593202
156	0xbde77d1c	-0.113031596
157	0xbc92529c	-0.017861657
158	0xbd12352c	-0.03569524
159	0x3df39695	0.118939556
160	0xbe30098a	-0.17191139
161	0xbcb37682	-0.021907095
162	0x3dd3049a	0.10303612
163	0xbc9db3bd	-0.019250745
164	0x3d43126e	0.047624998
165	0x3e6df001	0.23236085
166	0x3bae10bc	0.0053120535
167	0x3e0cb1ac	0.13739651
168	0xbd477472	-0.048695035
169	0x3e33acaf	0.17546342
170	0xbdab12d6	-0.08353202
171	0xbcf822eb	-0.030290088
172	0xbd26c04a	-0.040710725
173	0xbdbdfd1c	-0.092767924
174	0x3d904d6c	0.07046017
175	0x3d5727df	0.05252826
176	0x3e0194b7	0.12654386
177	0xbcb322c8	-0.02186717
178	0xbcea88c3	-0.028629666
179	0x3d582a9d	0.052775014
180	0xbdbe8cb5	-0.093041815
181	0xbd0aa027	-0.03384414
182	0x3e30c829	0.17263855
183	0x3e51bd92	0.20482472
184	0x3dfbf1fa	0.12302013
185	0xbee8dac1	-0.45479396
186	0xbea8764b	-0.3290275
187	0xbdfa4f6e	-0.12222181
188	0x3b5300b2	0.003219646
189	0xbb303c55	-0.002689143
190	0x3d6edb42	0.05831457
191	0x3e1a297f	0.15054892
192	0xbde497b2	-0.11161746
193	0x3d6f353e	0.058400385
194	0xbe0d3dd8	-0.13793123
195	0x3c477dd6	0.012175998
196	0xbe1ddf0b	-0.15417115
197	0xbdd0c9f7	-0.10194772
198	0x3e16835e	0.1469855
199	0x3de36c7e	0.111046776
200	0x3e69f494	0.22847205
201	0xbdabf745	-0.08396772
202	0xbd41f637	-0.04735395
203	0x3ddd6bd8	0.10811585
204	0x3d9e9e96	0.077450916
205	0xbd0ce8c2	-0.034401663
206	0x3debc214	0.11511627
207	0x3d184322	0.037173398
208	0xbda95b85	-0.08269409
209	0x3cc81d82	0.024428133
210	0x3e4359ef	0.19077276
211	0x3e052170	0.13001037
212	0x3b5c1752	0.0033583236
213	0x3e1d4912	0.15359905
214	0x3d16fb74	0.036860898
215	0xbd255007	-0.040359523
216	0x3dca33d0	0.09873164
217	0xbb96e70e	-0.0046051806
218	0x3dc9ca08	0.098529875
219	0x3e1bf67d	0.15230747
220	0xbf01fb47	-0.50774044
221	0xbe34ce5e	-0.17656848
222	0x3c21549d	0.009846834
223	0xbe03a05b	-0.1285414
224	0xbe9f7113	-0.31140956
225	0x3cdc0033	0.026855564
226	0xbdf860b9	-0.121278234
227	0xbd630359	-0.055423114
228	0x3d8f394e	0.06993352
229	0x3dba7fb4	0.09106389
230	0xbbaad0c4	-0.005212875
231	0xbe3740d2	-0.1789582
232	0x3d59d23f	0.053179022
233	0xbdac7fe5	-0.084228314
234	0xbc2ca8b4	-0.010538269
235	0x3d6bd766	0.057578467
236	0xbd04c5c5	-0.03241517
237	0xbec12236	-0.37721413
238	0xbd22afeb	-0.03971855
239	0x3e38d031	0.18048169
240	0xbe6fcbe8	-0.23417628
241	0x3e90d279	0.28285578
242	0xbe1c2bcc	-0.15251082
243	0xbde420e5	-0.11139087
244	0x3cf0a450	0.029375225
245	0x3ddd383c	0.108017415
246	0xbc82a249	-0.015946524
247	0x3dac8d59	0.084253974
248	0x3dca478e	0.09876929
249	0xbde1b6a3	-0.11021163
250	0xbc160687	-0.00915683
251	0x3c2e16d6	0.010625562
252	0x3c436c53	0.011927682
253	0x3de0bb03	0.1097317
254	0x3e4850f3	0.1956213
255	0xbefe11e5	-0.49623027

actor.0.bias f4 [128]
0	0x3de9a112	0.11407675
1	0x3dade948	0.084917605
2	0x3e3f1d86	0.18663606
3	0xbc3577f1	-0.01107596
4	0xbd7c0b46	-0.06153419
5	0x3d2e04d4	0.042485073
6	0x3c726242	0.014793934
7	0x3d37f630	0.044912517
8	0x3d308eeb	0.043105047
9	0xbd7b1e8f	-0.06130844
10	0x3daedbd9	0.08538026
11	0xbd0463fe	-0.032321922
12	0xbe21b12f	-0.15790246
13	0x3ca4a6c6	0.020099055
14	0xbcab9d66	-0.020949077
15	0xbdcd6a4b	-0.100300394
16	0xbe3642cf	-0.17798923
17	0xbe2bdbcb	-0.16783063
18	0xbd4bc602	-0.04974938
19	0x3c552a50	0.013010576
20	0x3b741f4c	0.00372501
21	0x3bae4405	0.005318167
22	0x3df9d1be	0.12198208
23	0x3dac63c4	0.08417466
24	0x3e1a9083	0.1509419
25	0x3c96f62a	0.018427927
26	0xbd2a7627	-0.041616585
27	0x3e4ad824	0.19809014
28	0xbe04e70a	-0.1297876
29	0xbce69ff6	-0.028152447
30	0x3c98b0c5	0.018638978
31	0xbd9a4491	-0.07532609
32	0xbe47b754	-0.19503528
33	0xbdbb5f95	-0.0914909
34	0x3d1943c0	0.037418127
35	0xbc8eee46	-0.017447602
36	0x3de967c2	0.11396743
37	0xbdbdc837	-0.092667036
38	0x3e3b77ca	0.18307415
39	0x3e3b862a	0.18312898
40	0x3e61970a	0.22030273
41	0xbccda6e2	-0.02510399
42	0x3daa15b5	0.083049215
43	0xbc33b4b3	-0.010968375
44	0xbdf8ee05	-0.121547736
45	0x3dd6db96	0.104911014
46	0xbcbcf1be	-0.02306449
47	0x3daf6624	0.08564404
48	0x3de20278	0.11035627
49	0x3d37f00f	0.044906672
50	0xbbcbbb6f	-0.006217412
51	0xbe279009	-0.16363539
52	0x3dcbbe73	0.09948435
53	0x3d8cf376	0.06882374
54	0x3e46aacf	0.19401096
55	0x3e1629d4	0.14664394
56	0x3da922b9	0.08258576
57	0xbe200b0f	-0.15629219
58	0x3e08f435	0.13374408
59	0xbe421341	-0.18952657
60	0x3d891e34	0.06695214
61	0xbd63542f	-0.055500206
62	0xbbf02c31	-0.007329487
63	0x3d784630	0.06061381
64	0xbdbd65d2	-0.09247936
65	0x3ce952fd	0.028481955
66	0xbdc8f212	-0.09811796
67	0xbdc279de	-0.094959006
68	0x3c0f13e2	0.008732768
69	0xbceb3556	-0.028711956
70	0xbc35870f	-0.011079564
71	0x3df0229c	0.11725351
72	0xbbaca4e2	-0.005268679
73	0xbd131e7b	-0.03591774
74	0x3dbc9b06	0.09209256
75	0xbdd51dec	-0.10406098
76	0x3d979ade	0.074025854
77	0x3e3cdab9	0.18442811
78	0xbd54a40d	-0.051914264
79	0x3dc3cf35	0.09561006
80	0xbdfeb0d3	-0.1243607
81	0xbe1b8b49	-0.15189852
82	0xbe6e8b63	-0.2329536
83	0xbc97343b	-0.018457523
84	0x3e0c7a95	0.13718636
85	0x3def6554	0.11689249
86	0x3d5de433	0.054172706
87	0xbd02bd43	-0.031918775
88	0x3dc2fd77	0.09521001
89	0x3d81ce61	0.06338192
90	0xbe1eab86	-0.15495118
91	0xbcb8c769	-0.022556024
92	0xbdaaaad6	-0.083333656
93	0x3d81e98d	0.063433744
94	0xbe32e489	-0.17469992
95	0xbb864ef0	-0.0040987656
96	0xbc5350c4	-0.012897674
97	0xbcf218a2	-0.029552761
98	0x3bae4113	0.005317816
99	0x3d5549ee	0.052072458
100	0x3e10ef38	0.14153755
101	0xbe02eeb7	-0.12786375
102	0x3da0bab5	0.078481115
103	0x3db8e068	0.09027177
104	0xbdce3681	-0.100689895
105	0x3d03baed	0.03216069
106	0x3d1770f0	0.03697294
107	0x3e074008	0.1320802
108	0x3e36f13c	0.17865461
109	0x3db1190f	0.08647358
110	0x3cb804ac	0.022463165
111	0xbdc820dd	-0.09771893
112	0x3e05fc9d	0.13084646
113	0xbdc8dd5c	-0.09807846
114	0xbc9190f5	-0.017769316
115	0x3d71c58b	0.059026282
116	0x3e0799ae	0.13242218
117	0x3d2e917f	0.042619225
118	0xbc1134b3	-0.008862662
119	0x3e1d92ca	0.15388027
120	0x3d9827a8	0.07429439
121	0x3d20cbc0	0.03925681
122	0xbe43d29f	-0.19123314
123	0xbe27c178	-0.16382396
124	0xbcfab48e	-0.030603673
125	0x3e3c49f4	0.18387586
126	0xbdfe6d56	-0.12423198
127	0xbdf89f63	-0.121397756

actor.2.weight f4 [128, 128]
0	0xbd8ba588	-0.06818682
1	0xbe31f4df	-0.17378567
2	0xbd705d1f	-0.058682557
3	0xbcd18535	-0.025576213
4	0xbdcd9164	-0.10037497
5	0x3e5bfaa4	0.2148233
6	0x3da0d262	0.07852627
7	0x3d97664f	0.07392561
8	0xbdca232b	-0.09869989
9	0xbd536677	-0.05161139
10	0xbc81fd2d	-0.015867794
11	0xbc26bce1	-0.010176868
12	0x3e867334	0.26259768
13	0x3e1e6141	0.15466787
14	0x3e2158f0	0.15756583
15	0x3daf7a59	0.08568258
16	0xbbd3c3d5	-0.006462554
17	0x3dd225f8	0.10261148
18	0xbd9b3600	-0.07578659
19	0x3e293db2	0.16527441
20	0x3c0cfb58	0.008604847
21	0x3e1af803	0.15133671
22	0x3d0c1389	0.034198318
23	0xbd9a9d94	-0.07549587
24	0x3c574ee8	0.013141371
25	0x3d3fc0ab	0.046814602
26	0xbd7f1ff2	-0.062286325
27	0x3e44f083	0.19232373
28	0x3dbb8981	0.09157086
29	0xbc9112de	-0.017709192
30	0x3cfa8022	0.030578677
31	0x3e07aba8	0.13249075
32	0x3b353b77	0.0027653852
33	0x3e2555ae	0.16145965
34	0x3ccbfee0	0.024901807
35	0xbe20204c	-0.1563732
36	0xbe657389	-0.22407354
37	0xbc9bb0ad	-0.019005144
38	0xbe24bd03	-0.16087727
39	0xbcd7caff	-0.026341913
40	0x3e7c0fb8	0.24615371
41	0xbdd11bf5	-0.102104105
42	0xbda7355b	-0.081644736
43	0xbbe277fb	-0.0069112754
44	0x3d8dfca5	0.06932954
45	0x3e3008ae	0.17190811
46	0x3dd4c967	0.10389977
47	0x3c8ae64d	0.01695552
48	0xbd961ac5	-0.07329325
49	0xbd5aeb2e	-0.05344694
50	0x3e4a4241	0.19751836
51	0xbde012bf	-0.109410755
52	0xbe38b04f	-0.18036006
53	0xba9cdd34	-0.0011967779
54	0x3e43cebc	0.19121832
55	0xbdf7992c	-0.12089762
56	0xbe004063	-0.12524562
57	0xbbd6e84e	-0.0065584546
58	0x3dc32fd8	0.0953061
59	0x3ddbb953	0.10728707
60	0x3e19db6e	0.15025112
61	0x3abbef37	0.0014338259
62	0xbe40da25	-0.18833216
63	0xbdfc28ad	-0.12312446
64	0x3df654da	0.12027903
65	0x3e06e437	0.13172995
66	0x3e1b1379	0.15144147
67	0xbdc7baa9	-0.097523995
68	0x3e86c819	0.26324537
69	0x3cfde739	0.030994045
70	0x3e3f1e8e	0.18664
71	0xbe1a2f88	-0.15057194
72	0x3d999bbc	0.07500407
73	0xbe8d3ca7	-0.27585337
74	0xbe1ff6ad	-0.15621443
75	0xbdca24af	-0.09870278
76	0x3dcc0d69	0.09963495
77	0xbdab9ac0	-0.083791256
78	0x3e411540	0.18855762
79	0xbe2d9687	-0.16951953
80	0xbe154705	-0.14577873
81	0x3dbc1502	0.091836944
82	0x3e15cf51	0.14629866
83	0xbe0af27e	-0.13569066
84	0x3e9808de	0.29694265
85	0x3de0671f	0.10957169
86	0x3c9ff2f3	0.019525027
87	0xbd78b10b	-0.060715716
88	0xbda5ca42	-0.08095218
89	0xbe19f7b9	-0.15035905
90	0x3dda03d9	0.10645265
91	0x3d4ee50e	0.050511412
92	0xbea9aa4c	-0.3313774
93	0x3dc0c86d	0.09413228
94	0x3d979c26	0.0740283
95	0xbc5f22c1	-0.013619126
96	0xbdee8fcc	-0.11648521
97	0xbd647530	-0.05577582
98	0x3dd28eea	0.10281165
99	0x3dab2a4d	0.083576776
100	0x3d756d33	0.059918594
101	0xbe254217	-0.16138493
102	0x3d3834fa	0.044972397
103	0x3da1eb39	0.07906193
104	0xbe8825a2	-0.26591212
105	0xbdf204b2	-0.11817302
106	0xbdd02a12	-0.10164274
107	0x3e2304fb	0.15919869
108	0xbe190662	-0.14943841
109	0x3ba4e9d7	0.0050327587
110	0xbe461956	-0.19345602
111	0x3dbacb0e	0.09120761
112	0xbe3478df	-0.17624234
113	0xbdaf5017	-0.08560198
114	0xbd92729d	-0.07150767
115	0xbd7a9c9b	-0.061184507
116	0x3cc52b4d	0.024068499
117	0x3d8451a2	0.06460883
118	0xbe10adfb	-0.14128868
119	0x3d838378	0.0642156
120	0x3d6ecdd1	0.05830175
121	0x3e8edc17	0.2790229
122	0x3db72c0f	0.089439504
123	0xbc8f4622	-0.017489497
124	0xbe0cb4b4	-0.13740808
125	0x39da1228	0.00041593728
126	0x3d290928	0.041268498
127	0x3da77976	0.08177464
128	0xbdcc8aa2	-0.099873796
129	0xbd9931f4	-0.07480231
130	0xbbd10c81	-0.0063796644
131	0xbe289e34	-0.164666
132	0xbd9c9c73	-0.07647028
133	0xbdc75048	-0.09732109
134	0xbd2757ad	-0.0408551
135	0xbd80b50f	-0.06284534
136	0x3dada3d5	0.08478514
137	0x3dfabca5	0.12243012
138	0x3e4fe1e5	0.20301016
139	0x3cb1d8e7	0.021709872
140	0x3dfab5dc	0.12241718
141	0x3d7ffc17	0.06249627
142	0x3da76b2d	0.08174739
143	0x3d87dc23	0.066337846
144	0xbdae77e2	-0.085189596
145	0x3c5323fb	0.012886996
146	0xbda5b264	-0.08090666
147	0x3d2c8dab	0.042127293
148	0x3dc2d250	0.0951277
149	0xbde47fab	-0.11157163
150	0x3d851a6c	0.0649918
151	0x3d9dd384	0.07706359
152	0xba838c73	-0.0010036364
153	0x3cc64cba	0.024206508
154	0xbdb0f377	-0.08640187
155	0x3dd06e2a	0.10177262
156	0xbad33db1	-0.0016116408
157	0xbdc3b7c2	-0.095565334
158	0x3dd68772	0.10475053
159	0x3d085239	0.03328154
160	0xbddfa03e	-0.10919236
161	0xbd244f95	-0.040114958
162	0xbdcb5d63	-0.099299215
163	0x3d130371	0.035891954
164	0xbe98b027	-0.29821894
165	0xbc39dce3	-0.011344167
166	0xbb4a8f35	-0.0030908112
167	0xbd9a5c34	-0.075371176
168	0x3e4622e0	0.19349241
169	0x3e7e360e	0.24825308
170	0x3c1d422c	0.009598296
171	0x3d91e131	0.0712303
172	0x3d1d1245	0.0383475
173	0x3d1912c1	0.0373714
174	0x3d8b932f	0.068151824
175	0xbc8cd8b0	-0.017193168
176	0xbe3c98a0	-0.18417597
177	0xbc7a7415	-0.015286465
178	0x3dbf7756	0.093489334
179	0x3d3413c3	0.04396416
180	0xbd4df2c5	-0.05028035
181	0x3c0e2a7a	0.008677119
182	0x3e3265f9	0.17421712
183	0x3e1d81bb	0.1538152
184	0x3c9585ac	0.018252216
185	0xbb870599	-0.0041205403
186	0x3c852020	0.01625067
187	0xbd05e611	-0.03269011
188	0xbd11c1f3	-0.035585355
189	0x3d7ec9ba	0.0622041
190	0xbd1b33d0	-0.03789121
191	0x3d27a1f9	0.040925954
192	0x3c96ddff	0.018416403
193	0xbc41190d	-0.011785758
194	0xbe8c28e3	-0.27374944
195	0xbdd5d058	-0.10440129
196	0xbd5dc3e1	-0.054141883
197	0x3d18d799	0.037314985
198	0x3dc65af2	0.09685315
199	0x3c0f6255	0.0087514715
200	0xbd3e4e21	-0.04646123
201	0xbe5ed045	-0.21759136
202	0xbe3b8ff8	-0.18316638
203	0x3ce7a131	0.028275104
204	0x3e157b47	0.14597808
205	0xbd769484	-0.06020023
206	0x3d849374	0.06473437
207	0xbcfa5da3	-0.030562228
208	0x3dfd3112	0.12362875
209	0xbd6cfb25	-0.057856698
210	0x3cdd5ebd	0.027022714
211	0x3d5a93ce	0.053363614
212	0x3d078705	0.03308775
213	0x3c317498	0.010831021
214	0x3d15b01e	0.03654491
215	0x3ca2a1dc	0.019852571
216	0x3c672029	0.014106789
217	0xbc8ef34b	-0.017449996
218	0xbdcac376	-0.099005625
219	0x3dc32bd7	0.09529846
220	0xbeaea1a1	-0.34107688
221	0xbccb708f	-0.024833946
222	0xbd11c6c9	-0.035589967
223	0x3d152878	0.036415547
224	0xbdb29f7b	-0.08721825
225	0xbe346774	-0.17617589
226	0xbb41bf8c	-0.0029563634
227	0xbd151e7a	-0.036406018
228	0xbe32c196	-0.1745666
229	0x3d0e784b	0.03478269
230	0xbdb1ddc6	-0.08684878
231	0x3c9d566b	0.019206246
232	0xbdf9c222	-0.12195231
233	0x3e0cfeae	0.13769028
234	0x3d8ac082	0.06774999
235	0x3daa0e1a	0.08303471
236	0x3da4da8b	0.08049496
237	0xbcec249e	-0.028826054
238	0xbdfc186c	-0.123093456
239	0x3d97016e	0.073733196
240	0x3df8332c	0.12119135
241	0x3d6b650f	0.057469424
242	0xbe03b786	-0.12862977
243	0xbdc59377	-0.09647267
244	0xbe0c3afe	-0.13694379
245	0xbdcea944	-0.100908786
246	0x3d77ceb9	0.06049988
247	0xbd53354a	-0.051564492
248	0x3d0e01a7	0.034669545
249	0x3d7ac9ec	0.061227724
250	0xbe39588c	-0.18100184
251	0xbd421512	-0.047383375
252	0x3e756430	0.23964
253	0x3ce547ee	0.0279884
254	0xbd4c1663	-0.049826037
255	0x3d5dc7d5	0.054145653

actor.2.bias f4 [128]
0	0x3d591be8	0.05300513
1	0x3d8c1c9d	0.06841395
2	0xbc2df742	-0.010618033
3	0xbd9d5616	-0.07682435
4	0xbe27a0df	-0.16369961
5	0x3d1a34c4	0.037647977
6	0xbd538bec	-0.05164711
7	0x3d9679e4	0.073474675
8	0x3e18445b	0.14869826
9	0xbde92f2f	-0.11385953
10	0x3ce20744	0.027591355
11	0xbdd88a78	-0.10573286
12	0xbc215243	-0.009846273
13	0x3dd0ebaa	0.10201199
14	0xbce1739c	-0.027520947
15	0x3d9b8498	0.075936496
16	0xbd4487b4	-0.04798098
17	0x3c3e9e18	0.011634372
18	0x3c8ea3aa	0.017412025
19	0x3d0737e5	0.03301229
20	0x3d3beb5f	0.045878764
21	0x3cd8486b	0.02640172
22	0x3daeceec	0.08535561
23	0xbd866538	-0.06562275
24	0xbdfd5f8d	-0.123717405
25	0x3df86ac5	0.1212974
26	0xbddad5f6	-0.10685341
27	0x3d3be7d8	0.0458754
28	0xbcef368b	-0.029200813
29	0x3ccfada4	0.025351353
30	0xbdae11a0	-0.084994555
31	0x3de00933	0.109392546
32	0x3d87fd26	0.06640081
33	0xbdc4b7d7	-0.09605377
34	0xbda82e20	-0.08211923
35	0x3b088ee8	0.0020837132
36	0xbd8ba8ca	-0.06819303
37	0x3d87d8c9	0.06633145
38	0x3c34c9fd	0.011034486
39	0xbc2214f9	-0.009892696
40	0x3d82e0d2	0.06390537
41	0x3b908c61	0.0044112657
42	0xbc76e9a5	-0.015070354
43	0x3dce18df	0.100633375
44	0x3b08aaa5	0.0020853665
45	0xbe333b94	-0.17503196
46	0xbd42eca5	-0.047588963
47	0x3a80bf70	0.0009822678
48	0x3c3e00f8	0.011596911
49	0xbd46c61c	-0.048528776
50	0x3d20671d	0.039160836
51	0xbd90652e	-0.070505485
52	0xbd80f437	-0.0629658
53	0x3880e3d8	6.145955e-05
54	0x3da6827f	0.08130359
55	0x3b4eed45	0.003157453
56	0xbca220e2	-0.01979107
57	0xbd93a46f	-0.072090976
58	0x3dfa634b	0.1222597
59	0x3d82785c	0.06370613
60	0xbc725727	-0.014791287
61	0xbd808ad4	-0.06276479
62	0x3d5c18c8	0.05373457
63	0x3c4c03ac	0.012452047
64	0x3d9ec9da	0.07753344
65	0x3abb76f7	0.0014302422
66	0xbce0a59c	-0.027422719
67	0xbd54ade0	-0.051923633
68	0xbdc08f12	-0.094022885
69	0x3d2a1886	0.041527294
70	0xbd1fb707	-0.038992908
71	0xbd8f79eb	-0.07005676
72	0x3d672722	0.056433804
73	0xbd40a38e	-0.047030978
74	0xbdb80af6	-0.08986466
75	0xbd8095af	-0.0627855
76	0x3aabfc89	0.0013121526
77	0x3d251c78	0.040310353
78	0xbcd51a9a	-0.026013661
79	0x3db7387f	0.08946323
80	0x3c2cf1d1	0.0105557
81	0xbc1b268a	-0.009469638
82	0x3d4f9180	0.05067587
83	0x3d4863e1	0.048923377
84	0xbd878573	-0.0661725
85	0xbddc8978	-0.107684076
86	0x3d1e87f2	0.038703866
87	0x3ce256be	0.027629253
88	0x3db4a394	0.088202626
89	0xbdb355a9	-0.08756573
90	0xbd721422	-0.05910123
91	0x3d8f8edf	0.070096724
92	0x3d04aea4	0.032393113
93	0x3d76e064	0.06027259
94	0x3dc1aa1a	0.094562724
95	0xbd53d691	-0.0517183
96	0x3e1b2928	0.15152419
97	0x3da5fdbc	0.081050366
98	0xbc3070bc	-0.0107690655
99	0xbdb0f428	-0.08640319
100	0xbdeaab3d	-0.11458442
101	0xbcd5af91	-0.026084693
102	0xbcd7425e	-0.026276764
103	0xbc04dbd8	-0.008109055
104	0xbce53f72	-0.027984355
105	0x3ca94ce7	0.020666553
106	0x3b16e424	0.0023024166
107	0x3d97bf30	0.07409513
108	0x3e08950c	0.13338107
109	0xbc8b7ea4	-0.01702816
110	0x3db6686a	0.08906634
111	0xbdfc6f3f	-0.12325906
112	0x3e060956	0.13089499
113	0x3c9b783d	0.018978233
114	0xbdefae5f	-0.117031805
115	0x3d2e0ac4	0.042490736
116	0xbaf7e964	-0.001891416
117	0x3ccbf4f0	0.024897069
118	0xbcef51c2	-0.02921379
119	0xbddbf93a	-0.107408956
120	0x3d489d8f	0.048978385
121	0xbca1580c	-0.019695304
122	0x3bc3895b	0.005967302
123	0x3dae21dc	0.08502552
124	0xbda6f469	-0.08152086
125	0x3dbe9a11	0.093067296
126	0x3dc62b8c	0.09676275
127	0x3e1bad78	0.15202892

actor.4.weight f4 [64, 128]
0	0x3d0cdd20	0.03439057
1	0x3e54a7a6	0.20767078
2	0xbe3f3af5	-0.18674834
3	0x3d02372b	0.031790894
4	0x3d232443	0.039829504
5	0xbd5ee80d	-0.05442052
6	0xbe44231a	-0.19154015
7	0xbcf2987e	-0.02961373
8	0x3d6d6f3f	0.05796742
9	0x3dc03da6	0.093867585
10	0x3cbc700e	0.02300265
11	0x3d93b34a	0.07211931
12	0xbd44ba0a	-0.048028983
13	0xb97802be	-0.00023652145
14	0xbdc6ad1b	-0.09700986
15	0xbe084957	-0.13309227
16	0xbd47536f	-0.048663553
17	0xbe5313ef	-0.20613073
18	0xbe161729	-0.14657272
19	0x3cca5df6	0.024703007
20	0x3eb1299a	0.34602052
21	0x3ca3096d	0.019901956
22	0x3eceac76	0.40365952
23	0x3c6e3de5	0.014541124
24	0xbdd574fe	-0.10422705
25	0xbd900d54	-0.07033792
26	0xbe63b69c	-0.22237629
27	0xbd80d8e8	-0.062913716
28	0x3df3f773	0.119124316
29	0xbe894a04	-0.26814282
30	0x3d58dad3	0.052943062
31	0x3dab8ae5	0.083761014
32	0xbe0f80a6	-0.14013919
33	0x3e1838a1	0.14865352
34	0x3d85b682	0.06528951
35	0x3d896b3d	0.06709907
36	0x3dd5048c	0.10401258
37	0x3e240dae	0.16020843
38	0x3d8a8b44	0.06764844
39	0xbe3dde33	-0.18541794
40	0x3e7195b8	0.2359227
41	0xbe636995	-0.22208245
42	0xbe86d4d9	-0.26334265
43	0x3c03a102	0.008033993
44	0x3cde3047	0.02712263
45	0x3d3b3442	0.045704134
46	0x3dd2a78c	0.10285863
47	0x3c89f031	0.016838165
48	0xbe09cd7f	-0.13457297
49	0xbe97e39c	-0.2966584
50	0x3d2cc793	0.042182516
51	0xbdc5cdc3	-0.096583866
52	0xbe90882e	-0.28228897
53	0x3db54ca3	0.08852508
54	0x3e1fdbdf	0.15611218
55	0xbdfab8e1	-0.12242294
56	0x3e91a1d7	0.28443787
57	0xbe7ee942	-0.24893668
58	0x3e5dc9a2	0.21658948
59	0x3d132c34	0.035930827
60	0x3c0197fc	0.007909771
61	0x3d75b669	0.059988413
62	0x3c9d795c	0.019222908
63	0xbc8a1982	-0.016857866
64	0x3e20d8d8	0.1570772
65	0x3c94d7aa	0.018169243
66	0xbea0c9eb	-0.3140405
67	0xbda191d0	-0.0788914
68	0xbcdeea89	-0.027211444
69	0x3cd4d665	0.025981138
70	0x3cb760bd	0.022384996
71	0x3d98021c	0.07422277
72	0x3e3615da	0.17781773
73	0x3e42c447	0.19020186
74	0x3e2aecc4	0.16691881
75	0xbe65bfc4	-0.22436434
76	0xbeb466a5	-0.35234562
77	0x3e6e6f02	0.23284534
78	0xbe28d17d	-0.16486163
79	0x3e2ed3d3	0.17072992
80	0x3d2318c5	0.039818544
81	0x3d0b63b3	0.034030627
82	0x3e754378	0.23951519
83	0x3e787a13	0.24265318
84	0xbdf0af97	-0.11752241
85	0x3ddefdf1	0.10888279
86	0xbe4a095d	-0.19730134
87	0xbe4516a2	-0.19246915
88	0x3da5c834	0.08094826
89	0x3daba7cd	0.08381615
90	0xbeadc6de	-0.33940786
91	0x3deb5268	0.11490327
92	0x3e66587a	0.22494689
93	0x3de3b1af	0.11117875
94	0x3e2b8332	0.16749266
95	0xbe296c98	-0.16545331
96	0x3dec1cfd	0.115289666
97	0xbddf9e0a	-0.109188154
98	0x3d839c5d	0.06426308
99	0xbdc219a1	-0.094775446
100	0xbe49c1ad	-0.19702788
101	0x3e60912d	0.2193038
102	0xbde3f6b8	-0.11131042
103	0xbc93e759	-0.018054651
104	0xbe8464e2	-0.25858217
105	0xbcad3fa9	-0.02114852
106	0x3c96c910	0.018406421
107	0xbbb035a0	-0.0053774863
108	0x3df03ad4	0.117299706
109	0x3d83aec6	0.0642982
110	0x3e861564	0.26188195
111	0x3e1e1383	0.1543713
112	0x3c7c0ac8	0.01538343
113	0xbe14d8bc	-0.14535803
114	0x3adf8cf9	0.0017055563
115	0xbc0fff85	-0.008788948
116	0xbd5e5f85	-0.054290313
117	0x3d3be580	0.045873165
118	0xbe809f1b	-0.25121388
119	0xbe0d231a	-0.13782921
120	0xbd132078	-0.035919636
121	0x3c62df6e	0.013847215
122	0x3e5c8fd6	0.21539244
123	0x3ab2afa6	0.001363267
124	0xbe8982ce	-0.2685761
125	0x3e1b2bdc	0.1515345
126	0xbe08cf20	-0.13360262
127	0x3d8a1cc1	0.067437656
128	0x3e2ace7f	0.16680335
129	0xbd98cf33	-0.07461395
130	0xbe8edbb0	-0.27901983
131	0x3d094644	0.033514276
132	0xbe8b1f39	-0.27172258
133	0x3cbde703	0.023181444
134	0xbe21acd4	-0.15788585
135	0xbe0f49be	-0.13992974
136	0x3d1f362b	0.038870018
137	0xbe7312c6	-0.2373763
138	0xbdb7a00c	-0.089660734
139	0x3d82669c	0.063672274
140	0xbe33461c	-0.17507213
141	0xbda4f17a	-0.080538705
142	0xbd0f76b6	-0.03502532
143	0x3e2890bf	0.16461466
144	0xbd5d1ddb	-0.05398355
145	0x3e0092d5	0.12556012
146	0xbe41bb5f	-0.18919133
147	0x3d6dd4cd	0.05806427
148	0x3b224f7d	0.0024766617
149	0xbdae2de4	-0.08504847
150	0xbe10799e	-0.14108893
151	0xbd4288f4	-0.04749389
152	0xbd60d6b2	-0.05489225
153	0x3e4ac57c	0.19801897
154	0x3e62f950	0.22165418
155	0xbe2e88e9	-0.17044415
156	0xbd6ac537	-0.057316985
157	0xbb69fbdb	-0.0035703096
158	0xbe3bbeaa	-0.18334451
159	0x3dd936ee	0.1060618
160	0x3c59c9b4	0.013292719
161	0x3d95858c	0.07300863
162	0xbb0b292c	-0.0021234257
163	0x3e6de1cb	0.23230664
164	0xbd3131d6	-0.043260418
165	0xbd175648	-0.03694752
166	0xbe554303	-0.20826344
167	0x3dc08b61	0.094015844
168	0x3e45a02a	0.19299379
169	0xbd3e466f	-0.04645389
170	0x3e3bfe3a	0.18358698
171	0x3e1233fd	0.14277644
172	0x3bff934e	0.0077995425
173	0x3dbc94b3	0.092080496
174	0x3de2b1f8	0.11069101
175	0x3d43c927	0.047799256
176	0xbd3fe5ef	-0.04685014
177	0xbdcd79ca	-0.10032995
178	0xbe154b66	-0.14579543
179	0xbe28a8f4	-0.164707
180	0x3db75857	0.08952396
181	0xbd26b892	-0.040703364
182	0xbcaf8ff4	-0.021430947
183	0x3e2fdae4	0.17173344
184	0xbd9620fa	-0.073305085
185	0xbe8ea38d	-0.27859154
186	0x3c9b8cbd	0.018988008
187	0xbc203e20	-0.009780437
188	0xbdd7ef43	-0.105436824
189	0x3cc8436d	0.024446214
190	0xbd4e2e3c	-0.05033706
191	0x3d5e729a	0.05430851
192	0xbdd6c7f2	-0.10487355
193	0x3e57405d	0.21020646
194	0x3d26b70c	0.04070191
195	0xbe5a6891	-0.21328951
196	0xbe75802f	-0.2397468
197	0x3dea65ec	0.11445221
198	0xbc7304b6	-0.014832666
199	0x3e1ffe04	0.15624243
200	0xbe144621	-0.14479877
201	0x3d475138	0.04866144
202	0x3db7f018	0.08981341
203	0xbe0f5783	-0.13998227
204	0x3d844509	0.0645848
205	0xbe4eb1de	-0.20185038
206	0xbbf87bfc	-0.0075831395
207	0xbcd5d853	-0.026104128
208	0x3ba81303	0.0051292195
209	0x3d706809	0.058692966
210	0x3dca0838	0.09864849
211	0xbd831eaa	-0.06402333
212	0xbdf2870a	-0.11842163
213	0x3daf75dd	0.085674025
214	0x3e334379	0.17506208
215	0xbe0c5c9c	-0.13707203
216	0x3d364ae1	0.044505004
217	0x3d6ddc87	0.05807164
218	0x3d490e3d	0.049085844
219	0xbbec7e5a	-0.0072172107
220	0xbcafcb8a	-0.02145936
221	0x3e2acaa3	0.16678862
222	0xbdd82113	-0.105531834
223	0xbd29dc16	-0.041469656
224	0x3c4d2559	0.012521111
225	0x3e060860	0.13089132
226	0xbe45c40d	-0.19313069
227	0xbe327ade	-0.17429683
228	0xbe040024	-0.12890679
229	0xbe5ab220	-0.21357012
230	0x3e5bd669	0.2146851
231	0x3db7f5ec	0.08982453
232	0xbe0d18bd	-0.13778968
233	0xbdbb1137	-0.09134143
234	0x3e32fa42	0.17478278
235	0x3c2d012e	0.010559363
236	0x3e59f485	0.21284683
237	0xba2cc88b	-0.00065911625
238	0xbd7297e6	-0.059226893
239	0x3c9a1995	0.018811027
240	0x3d4ea49e	0.05044996
241	0xbe587419	-0.21138038
242	0xbdadefbc	-0.08492991
243	0xbd72c1bb	-0.059266787
244	0xbcd43871	-0.02590582
245	0x3e2544a5	0.16139467
246	0xbe8d614b	-0.2761329
247	0xbcf1181c	-0.029430442
248	0x3e312092	0.17297581
249	0xbddf617e	-0.10907267
250	0xbd182eff	-0.037154194
251	0x3e1c4dd5	0.15264066
252	0xbc8eeda3	-0.017447298
253	0x3e05a9dd	0.13053079
254	0xbe647e50	-0.2231381
255	0x3e24ae17	0.16082035

actor.4.bias f4 [64]
0	0x3d72f553	0.05931599
1	0x3dd01dd4	0.10161939
2	0x3de71ca8	0.112847626
3	0x3b93ca31	0.004510187
4	0x3dee87d3	0.11647
5	0x3dcdd49b	0.10050317
6	0xbc73c710	-0.014879003
7	0x3d6cf1de	0.05784785
8	0x3c9c72b8	0.01909767
9	0x3c2abdfc	0.010421272
10	0x3c8a209c	0.016861252
11	0xbd39108f	-0.045181807
12	0x3de5d561	0.112223394
13	0x3b30c110	0.0026970543
14	0x3c97590a	0.018475074
15	0x3d84b54f	0.06479894
16	0x3d62ffdd	0.05541979
17	0x3d8f9002	0.07009889
18	0x3d5381c8	0.05163744
19	0x3e007c78	0.12547481
20	0xbc7f07b9	-0.015565806
21	0x3d4f8db7	0.05067226
22	0xbcf11b1a	-0.029431868
23	0x3cf2c3e8	0.029634431
24	0x3dcef6f1	0.10105694
25	0x3dbdfa5e	0.092762694
26	0x3c70bb6c	0.014693122
27	0x3d5c5956	0.053796135
28	0x3d7cd038	0.06172201
29	0x3d9d9d81	0.07696057
30	0x3e2bebaa	0.16789117
31	0x3e1a6120	0.15076113
32	0x3d8754d3	0.06607976
33	0x3daddb5b	0.08489104
34	0xbd5ac3ea	-0.053409494
35	0xbc440c2c	-0.011965793
36	0x3cf1d11c	0.029518656
37	0x3db946b3	0.09046688
38	0x3d95e5f4	0.07319251
39	0x3dc0926d	0.094029285
40	0x3d93dcef	0.07219874
41	0x3d9c5381	0.076331146
42	0x3c1ea096	0.009681841
43	0x3da78f55	0.08181635
44	0x3ccd57a1	0.025066199
45	0x3d7aa70f	0.061194476
46	0xbc58672b	-0.013208191
47	0x3df28958	0.118426025
48	0x3d5cb580	0.05388403
49	0x3d30f86e	0.04320567
50	0x3dcf9272	0.10135354
51	0x3cd1fd14	0.025633372
52	0xbcc2c4f7	-0.02377556
53	0x3d2f3286	0.042772792
54	0x3d2ffac6	0.042963766
55	0xbd71a71e	-0.058997266
56	0x3da2fbef	0.07958209
57	0x3cbc36e7	0.022975398
58	0x3ae69279	0.001759126
59	0x3e2d9b61	0.16953804
60	0x3d6bc10b	0.057557147
61	0xbd8ac854	-0.06776491
62	0xbdcce658	-0.10004872
63	0x3c90b20e	0.017663028

actor.6.weight f4 [16, 64]
0	0x3de7ea71	0.11324013
1	0xbe55c945	-0.2087756
2	0x3ea4a8b2	0.32159954
3	0xbe23a72c	-0.1598174
4	0x3e1ae447	0.15126143
5	0x3e7b0a36	0.24515614
6	0xbdec001a	-0.11523457
7	0xbedb5175	-0.42835584
8	0xbe5b2d99	-0.21404113
9	0x3eb051b8	0.34437346
10	0xbe0d7a91	-0.13816287
11	0x3e97ffee	0.29687446
12	0xbe804e24	-0.25059617
13	0x3e98e181	0.29859546
14	0xbe887f5d	-0.2665967
15	0x3e0acc1a	0.13554421
16	0x3ea31057	0.31848404
17	0xbe28e881	-0.16494943
18	0xbec841cf	-0.39112708
19	0x3e8c4b4d	0.274012
20	0xbe95f4f4	-0.29288447
21	0x3e5de291	0.2166846
22	0xbed3feef	-0.41405436
23	0xbecaaec8	-0.39586473
24	0x3e8d2081	0.2756386
25	0xbd3be895	-0.045876104
26	0x3ece8558	0.40336108
27	0x3e901718	0.2814262
28	0xbe6a6982	-0.2289181
29	0x3ced8076	0.028991919
30	0xbe27bbb4	-0.16380197
31	0x3dd30543	0.10303738
32	0x3ede50e7	0.434211
33	0xbde743ba	-0.11292215
34	0xbebaf9da	-0.36518747
35	0xbe39f1c8	-0.18158638
36	0x3ea5f13b	0.32410607
37	0xbe5be695	-0.21474679
38	0x3da7698f	0.081744306
39	0xbe93f47e	-0.2889747
40	0x3e98a661	0.29814437
41	0x3e41f4fa	0.18941107
42	0xbd86cf6e	-0.06582533
43	0x3db213ae	0.0869516
44	0x3e44097c	0.19144243
45	0x3d8345a1	0.06409765
46	0x3eb0dfbd	0.345457
47	0xbe4e848b	-0.20167749
48	0x3ebeda41	0.3727589
49	0x3db16cfa	0.08663364
50	0xbe97c4d6	-0.2964236
51	0xbd607158	-0.054795593
52	0xbe9782b7	-0.29591915
53	0x3dcdfffe	0.10058592
54	0xbe5f4513	-0.21803693
55	0xbdd88b81	-0.10573483
56	0x3e7198fc	0.23593515
57	0xbe9d425b	-0.30714688
58	0x3edd5e0a	0.4323581
59	0x3e230296	0.15918955
60	0xbe8d3b75	-0.27584425
61	0x3c5d6560	0.013512939
62	0x3dbc811d	0.09204314
63	0x3e498a32	0.19681624
64	0xbe988877	-0.29791614
65	0x3e95936e	0.29214042
66	0xbedf0140	-0.4355564
67	0xbe478a4d	-0.19486351
68	0x3dc21caa	0.094781235
69	0xbe52b74e	-0.20577738
70	0x3dcc1ba3	0.09966209
71	0x3e8deb9f	0.27718827
72	0x3e9ad059	0.30237082
73	0xbe566802	-0.20938113
74	0xbed6d783	-0.41961297
75	0xbf141855	-0.5784963
76	0x3e829aef	0.2550883
77	0xbdf01af0	-0.11723888
78	0x3e51c182	0.20483974
79	0xbe291c4a	-0.16514698
80	0xbeab9930	-0.3351531
81	0x3ca2e079	0.019882428
82	0xbdca9655	-0.09891955
83	0x3dcad077	0.09903043
84	0x3e3c84e7	0.18410073
85	0x3e6b3780	0.2297039
86	0x3e810946	0.25202388
87	0x3e074377	0.1320933
88	0xbc83b2fa	-0.016076554
89	0x3e885349	0.26626042
90	0xbea83e16	-0.32859868
91	0xbe6d3d5f	-0.23167942
92	0xbe01250f	-0.12611793
93	0xbe2e9c7d	-0.17051883
94	0x3e74f0a4	0.23919922
95	0x3e77e5ae	0.2420871
96	0xbf5281c1	-0.8222924
97	0xbe7cc872	-0.24685839
98	0x3ea5a70c	0.3235401
99	0xbebca8be	-0.3684749
100	0xbe345c09	-0.17613234
101	0x3e5620c5	0.20910938
102	0xbec9dfbc	-0.39428508
103	0x3e50ff2c	0.2040984
104	0xbe589823	-0.21151786
105	0x3e277548	0.16353333
106	0x3ea4c716	0.3218314
107	0xbdd2d5e2	-0.10294701
108	0x3e1667e9	0.14688076
109	0x3c6812ad	0.014164609
110	0xbe906306	-0.2820055
111	0x3ec9d721	0.39421943
112	0xbe0b0967	-0.13577805
113	0x3e971ca9	0.29514053
114	0x3e60da83	0.21958356
115	0x3dc53baa	0.09630521
116	0x3e96aa17	0.29426643
117	0xbd96aa61	-0.07356716
118	0x3e3f446e	0.18678448
119	0xbf147fda	-0.58007586
120	0xbeab34dd	-0.3343877
121	0xbd3c9af0	-0.046046197
122	0xbeff4b19	-0.49861982
123	0x3e713fb1	0.23559453
124	0x3e3aa286	0.1822606
125	0x3e98d4a2	0.29849726
126	0xbd868946	-0.065691516
127	0xbe0cb65a	-0.13741437
128	0x3d410aa4	0.04712929
129	0x3d94bcbf	0.07262563
130	0xbdb17559	-0.086649604
131	0x3e82dce7	0.2555916
132	0xbe11af47	-0.14227019
133	0x3d6461d7	0.05575737
134	0xbeaa9a19	-0.33320692
135	0xbe81915f	-0.25306222
136	0xbe4044dd	-0.1877627
137	0xbdb56e22	-0.08858897
138	0x3ebcb90d	0.36859933
139	0x3ebad171	0.36487916
140	0x3d4fc221	0.050722245
141	0xbecace72	-0.3961063
142	0xbe965e62	-0.29368883
143	0xbe12ad09	-0.1432382
144	0x3cf7dd55	0.030256907
145	0xbe4c1538	-0.1992997
146	0x3e0eb417	0.13935886
147	0xbe7d790a	-0.24753204
148	0xbc1d4224	-0.009598289
149	0xbea13a88	-0.31489968
150	0xbcf952f2	-0.03043506
151	0x3e3a1576	0.18172249
152	0xbebf1ca2	-0.37326533
153	0xbe9c6545	-0.30546013
154	0xbea94119	-0.33057478
155	0x3e0f8495	0.1401542
156	0x3dfa5302	0.12222864
157	0x3da6040c	0.08106241
158	0x3e909b6c	0.28243577
159	0xbe99ec83	-0.30063257
160	0x3eb6dbbd	0.35714522
161	0x3eba8f4e	0.36437458
162	0x3e6da2c5	0.23206623
163	0x3e398725	0.1811796
164	0xbd90d3e3	-0.07071664
165	0xbe2fa227	-0.171517
166	0xbec1b235	-0.37831274
167	0xbe2ff6c0	-0.17183971
168	0xbe2cd479	-0.16877927
169	0xbf10801b	-0.56445473
170	0xbe2e877a	-0.17043868
171	0xbeea5fb7	-0.4577615
172	0xbe9ef35d	-0.31045046
173	0xbd131b1d	-0.03591453
174	0xbe569b46	-0.2095767
175	0xbe7ef960	-0.24899817
176	0xbeff0cfe	-0.498146
177	0xbed47f8a	-0.41503555
178	0x3dd451f7	0.10367196
179	0xbe5191d3	-0.20465784
180	0x3e6af877	0.22946344
181	0xbe4a6b5a	-0.19767514
182	0x3e8edd92	0.2790342
183	0x3ea4e33b	0.32204613
184	0xbe2269ac	-0.15860623
185	0x3e37a89e	0.17935416
186	0x3dd9216a	0.10602076
187	0xbe95199e	-0.29121107
188	0x3e0fdc2b	0.14048831
189	0xbf10d22c	-0.56570697
190	0x3db14774	0.08656207
191	0xbe3c6008	-0.18396008
192	0x3f3ca69f	0.73691744
193	0xbd4321e6	-0.04763975
194	0xbe05988e	-0.13046476
195	0x3f29bd91	0.6630488
196	0x3e2677bb	0.16256611
197	0x3cdbe254	0.02684132
198	0x3db72ecc	0.08944473
199	0xbde3ecc1	-0.111291416
200	0x3ebbfce0	0.36716366
201	0x3f05b4d2	0.52229035
202	0xbe249570	-0.16072631
203	0x3d3809e0	0.044931293
204	0xbeba8175	-0.36426893
205	0x3ee4e444	0.44705403
206	0x3f3a2860	0.7271786
207	0xbcd0aa3e	-0.025471803
208	0xbdefc416	-0.11707322
209	0xbd609981	-0.054833893
210	0xbf23c843	-0.6397745
211	0x3dd876ed	0.10569558
212	0xbf090b19	-0.5353256
213	0x3bdb233b	0.0066875494
214	0xbea20f09	-0.31652096
215	0xbed2bc3c	-0.41159236
216	0x3e628102	0.22119525
217	0xbd8548f5	-0.06508056
218	0xbd0b2745	-0.033972997
219	0x3e8c2415	0.27371278
220	0xbdbbcc9e	-0.09169887
221	0xbf059781	-0.521843
222	0x3d767f8b	0.06018023
223	0xbcb59268	-0.022164539
224	0x3e6765af	0.22597383
225	0xbe25d3e0	-0.16194105
226	0xbe84555c	-0.25846374
227	0x3e0d7876	0.13815483
228	0x3ed5e434	0.41775668
229	0x3e913595	0.28361192
230	0x3f50d9a4	0.81582093
231	0x3f28e9ae	0.65981567
232	0x3e39b326	0.18134746
233	0xbd21c3af	-0.03949326
234	0xbdbd072a	-0.09229882
235	0x3e4e1606	0.20125589
236	0x3f092029	0.535647
237	0xbf39434a	-0.723683
238	0x3e975e0c	0.2956394
239	0x3f06a558	0.52596045
240	0xbd3eb91a	-0.046563245
241	0xbd4394f4	-0.047749475
242	0xbec74d24	-0.3892604
243	0xbe1c2c7a	-0.15251341
244	0x3dfb2322	0.122625604
245	0x3def2fb7	0.11679023
246	0xbe4d4959	-0.20047511
247	0xbea1bea7	-0.3159077
248	0x3dd56e74	0.10421458
249	0xbeff25d8	-0.4983356
250	0x3e861aa0	0.26192188
251	0x3e035dde	0.12828776
252	0xbe6a0eac	-0.2285716
253	0x3dee3aef	0.116323344
254	0xbeded512	-0.43521935
255	0x3e7a4c8d	0.24443264

actor.6.bias f4 [16]
0	0xbcbef4bb	-0.023310056
1	0x3bb0dfae	0.0053977584
2	0xbd246ce5	-0.040142912
3	0xbd6f6046	-0.058441423
4	0x3d6dffec	0.058105394
5	0x3bd292b8	0.0064261816
6	0x3db73748	0.08946091
7	0x3dfc4e6e	0.12319647
8	0x3d83192f	0.06401288
9	0x3b89e9bb	0.004208771
10	0x3e09c15b	0.13452666
11	0xbbd5ff67	-0.0065306905
12	0xbe39fb3d	-0.18162246
13	0x3d9ef81e	0.07762168
14	0xbe5e5762	-0.21713021
15	0xbcbaacb0	-0.022787422

critic.0.weight f4 [128, 35]
0	0xbeb1ac8c	-0.34701955
1	0xbe62a70f	-0.2213404
2	0xbe74f44a	-0.23921314
3	0xbe255cda	-0.16148701
4	0xbe043699	-0.12911452
5	0xbe07b6fd	-0.13253398
6	0xbe8433be	-0.25820726
7	0xbe9d9517	-0.3077781
8	0xbec73d49	-0.38913944
9	0xbf3c2772	-0.7349769
10	0x3ff37459	1.9019881
11	0xbeced85b	-0.4039944
12	0x3fdcdb8e	1.7254503
13	0x3e0870ef	0.13324331
14	0xbf5557d6	-0.8333715
15	0xbe12c00d	-0.14331074
16	0x3ec1c4b5	0.37845388
17	0x3e2e1d36	0.1700333
18	0x3f035722	0.5130483
19	0xbd25a116	-0.040436827
20	0xbf00350f	-0.5008096
21	0xbe01dca5	-0.12681825
22	0x3e2c451f	0.16823243
23	0x3e11fc73	0.14256458
24	0x3e088c2b	0.1333472
25	0x3ed53d83	0.41648492
26	0xbd0e96aa	-0.034811653
27	0x3a7f008a	0.00097275584
28	0x3e369d58	0.1783346
29	0x3d92e113	0.07171836
30	0x3e4573a2	0.19282392
31	0xbed9c147	-0.4253027
32	0x3e903690	0.28166628
33	0x3e6496f1	0.22323205
34	0x3e800976	0.25007218
35	0xbe106598	-0.14101255
36	0xbe153daa	-0.14574304
37	0xbdd4d77e	-0.103926644
38	0xbd12f4e5	-0.03587808
39	0xbd522f12	-0.05131442
40	0xbd455456	-0.048176132
41	0xbd089155	-0.033341724
42	0xbd42c50c	-0.0475512
43	0xbd8c0fc5	-0.06838945
44	0xbdafa7ae	-0.08576904
45	0xbf3408c6	-0.7032589
46	0xbe613f32	-0.21996763
47	0xbfb98c10	-1.4495869
48	0xbfab96b2	-1.3405364
49	0xbf33ebe5	-0.7028182
50	0xbebb4a7d	-0.36580268
51	0xbf1dbace	-0.61613166
52	0xbed2e648	-0.41191316
53	0xbf016f68	-0.5056062
54	0xbeedc400	-0.464386
55	0xbea83730	-0.32854605
56	0xbdd3c351	-0.10339988
57	0x3cb1b2b4	0.021691658
58	0xbcad7653	-0.021174585
59	0xbeb23aa9	-0.3481038
60	0xbd298737	-0.041388717
61	0x3e58575a	0.21127072
62	0xbf338600	-0.7012634
63	0xbe3dda96	-0.18540415
64	0x3ee924f7	0.45536014
65	0x3eba7ecf	0.36424872
66	0x3ee32aab	0.4436849
67	0x3eb89943	0.3605443
68	0x3e65e8f7	0.2245215
69	0x3e83e6b2	0.25761944
70	0x3db35ee5	0.08758334
71	0xbc44f788	-0.012021907
72	0xbc81655f	-0.015795408
73	0xbe4a1aa7	-0.1973673
74	0xbe3e6373	-0.18592624
75	0xbe917bb5	-0.28414693
76	0xbe5ebcdc	-0.21751732
77	0xbeeb7b06	-0.45992297
78	0xbf18bb60	-0.5966091
79	0xbf7e4a9f	-0.9933261
80	0x3df7a49c	0.120919436
81	0xbea703f4	-0.32620203
82	0xbd9a910a	-0.07547195
83	0xbe6f6f2a	-0.2338225
84	0xbe293c06	-0.16526803
85	0x3d7a12fd	0.061053265
86	0x3d44bf4f	0.04803401
87	0x3dd77a14	0.105213314
88	0xbcbb3fe1	-0.022857608
89	0x3e99d89c	0.30048072
90	0xbe24b233	-0.16083603
91	0xbddbc935	-0.107317366
92	0xbec75795	-0.38934007
93	0xbf85b01b	-1.0444368
94	0xbedf1eed	-0.43578282
95	0x3d0d6562	0.034520514
96	0xbd87c9eb	-0.0663031
97	0xbb139b32	-0.0022522924
98	0xbde66ec7	-0.11251598
99	0xbe4765c6	-0.19472417
100	0xbd687041	-0.05674768
101	0x3f214cb9	0.63007694
102	0xbec288cc	-0.37994993
103	0xbf315ba0	-0.69280434
104	0xbd8dbf0f	-0.06921207
105	0xbec49d1f	-0.38401124
106	0xbeb9c06f	-0.36279628
107	0xbeac8b43	-0.33699998
108	0xbe840a5f	-0.25789163
109	0xbe80a5ee	-0.25126594
110	0xbe9e547f	-0.3092384
111	0xbe694d62	-0.22783425
112	0xbe8a4a61	-0.27009872
113	0xbec29268	-0.38002324
114	0xbea96e30	-0.3309188
115	0xbd9ef87b	-0.07762238
116	0x3eae420a	0.3403476
117	0x3f27fcc4	0.65620065
118	0x3e200519	0.15626945
119	0x3e69e000	0.22839355
120	0xbe0e46c9	-0.1389419
121	0xbd43845e	-0.047733657
122	0xbd2088b6	-0.039192878
123	0xbe894d32	-0.26816708
124	0xbe0fbecd	-0.14037628
125	0xbdeb6bb2	-0.114951506
126	0xbe4aecbb	-0.19816868
127	0xbd8ece82	-0.06972982
128	0xbe48c555	-0.19606526
129	0x3de524be	0.11188649
130	0xbef73d61	-0.48289016
131	0xbdf15f44	-0.117857486
132	0xbef89a49	-0.4855521
133	0x3d3a6576	0.045506917
134	0x3d23c1ae	0.03997963
135	0xbe5e6d9f	-0.21721505
136	0xbde2c6bc	-0.11073062
137	0xbe83fbc5	-0.25778022
138	0xbf36709e	-0.7126559
139	0xbebd96c4	-0.37029088
140	0xbd5c4001	-0.053771976
141	0x3d1e5fdd	0.03866564
142	0xbc8d002a	-0.017211992
143	0xbcec6612	-0.028857265
144	0xbca026ea	-0.019549806
145	0x3bde31fd	0.0067808614
146	0xbd083640	-0.03325486
147	0x3b72c4a7	0.0037043483
148	0x3d45b199	0.048265073
149	0x3d2cdc06	0.04220202
150	0x3f5d5901	0.86463934
151	0x3f89670e	1.0734575
152	0x3f1c0eab	0.6095988
153	0x3f80bbd9	1.0057327
154	0xbf6c0a3f	-0.92203134
155	0xbf1089c0	-0.5646019
156	0xbe7f48cf	-0.24930118
157	0xbe76b2ba	-0.24091616
158	0xbd818c9c	-0.06325647
159	0xbde1ca24	-0.110248834
160	0x3e52f4c2	0.2060118
161	0x3e2543ea	0.16139188
162	0xbddc1962	-0.10747029
163	0xbdca66d5	-0.09882895
164	0xbecb4870	-0.39703703
165	0x3e940ade	0.2891454
166	0xbc04625f	-0.008080094
167	0xbd8f6208	-0.0700112
168	0x3d881547	0.06644683
169	0x3e207291	0.15668704
170	0x3e80a528	0.25126004
171	0x3f045516	0.5169233
172	0x3f8a9676	1.0827167
173	0x3f26998a	0.6507803
174	0x3ec8c5bd	0.39213362
175	0xbeb0bb8f	-0.34518096
176	0xbea97165	-0.33094326
177	0xbe93c373	-0.28860053
178	0xbe910f09	-0.28331783
179	0xbe873515	-0.26407686
180	0xbe924234	-0.28566134
181	0xbe874248	-0.26417756
182	0xbe89a14c	-0.26880872
183	0xbe93dca2	-0.28879267
184	0xbea64355	-0.32473245
185	0x3cc8a311	0.024491819
186	0x3f651ba9	0.8949533
187	0x3e229ffe	0.15881345
188	0x3fa641c0	1.2988815
189	0x3d9ae026	0.07562284
190	0xbe98380a	-0.29730254
191	0xbdb03170	-0.086031795
192	0xbe96d890	-0.294621
193	0xbe2b062a	-0.1670157
194	0x3e1b7cd6	0.1518434
195	0xbe990ed6	-0.2989413
196	0xbedfdf75	-0.43725172
197	0xbe878597	-0.26469108
198	0xbe8447ac	-0.2583593
199	0xbedf67fd	-0.43634024
200	0xbf38f163	-0.72243327
201	0xbf25989d	-0.64685994
202	0x3df1505e	0.11782907
203	0xbf1a431a	-0.6025864
204	0x3e2263e1	0.15858413
205	0x3dcd35a3	0.10019996
206	0xbf498712	-0.78721726
207	0xbdea8e83	-0.11452963
208	0xbf6ff05f	-0.9372615
209	0xbd08d041	-0.03340173
210	0x3d821eb1	0.0635351
211	0xbce52ba6	-0.027974915
212	0xbcacb7f4	-0.02108381
213	0xbd7d1059	-0.06178317
214	0xbdaaa1e4	-0.083316594
215	0xbd89d910	-0.067308545
216	0xbd9b057e	-0.07569407
217	0xbe318e61	-0.1733947
218	0xbdc31dfc	-0.095272034
219	0xbe6e7126	-0.2328535
220	0xbe843c69	-0.2582734
221	0xbfbbd6f9	-1.467498
222	0xbeffccf4	-0.49961054
223	0x3f75e7f5	0.96057063
224	0xbec61cf9	-0.3869398
225	0x3e5335be	0.2062597
226	0x3e1c4229	0.15259613
227	0x3decfa59	0.115711875
228	0xbd6061d9	-0.054780815
229	0xbddc8c31	-0.10768927
230	0xbd9951ed	-0.07486329
231	0xbf1fe506	-0.6245884
232	0xbf1822a2	-0.59427845
233	0xbd87b939	-0.06627125
234	0xbd1815fb	-0.037130337
235	0x3d086342	0.033297785
236	0xbe467742	-0.19381431
237	0x3e089faa	0.13342157
238	0x3e943566	0.2894699
239	0x3e26b72b	0.1628081
240	0x3e5439b4	0.20725137
241	0xbe62967f	-0.22127722
242	0x3f860d98	1.0472898
243	0xbf4f29f7	-0.8092341
244	0x3e0384f8	0.12843692
245	0xbe693b06	-0.22776422
246	0xbe5e3fa5	-0.21703966
247	0xbe5b5d83	-0.2142239
248	0xbe2b08ce	-0.16702577
249	0xbe31f762	-0.17379525
250	0xbe48796d	-0.1957757
251	0xbe3c372c	-0.18380421
252	0xbe4e488f	-0.20144866
253	0xbe6dea6c	-0.23233956
254	0xbe58cfc3	-0.21173005
255	0xbf45c122	-0.7724782

critic.0.bias f4 [128]
0	0xbdb221ad	-0.086978294
1	0xbec62bd5	-0.38705316
2	0x3d73bca1	0.059506062
3	0xbda91653	-0.08256211
4	0xbf4229c8	-0.75845003
5	0xbe65db0b	-0.2244684
6	0xbdd74a5c	-0.1051223
7	0xbf4aca6d	-0.7921513
8	0x3d0ff02c	0.035141155
9	0xbf3158c3	-0.69276065
10	0xbeca6465	-0.3952972
11	0x3e30f57a	0.17281142
12	0x3e229863	0.15878443
13	0xbf81906d	-1.01222
14	0xbec2479b	-0.37945256
15	0xbea33bc3	-0.31881532
16	0x3dc28626	0.09498243
17	0xbf30c48c	-0.69049907
18	0x3e14ca81	0.14530374
19	0xbea64639	-0.3247545
20	0xbe019588	-0.12654698
21	0xbf4942c7	-0.7861752
22	0x3d8918db	0.06694194
23	0x3e8166ec	0.25273836
24	0x3e1b229d	0.15149923
25	0x3d374db5	0.04475184
26	0x3f8f7e3d	1.12104
27	0xbe11b80e	-0.14230368
28	0x3f07e2ea	0.5308062
29	0xbf4d2595	-0.8013547
30	0xbf0f9162	-0.5608121
31	0xbe3c127a	-0.18366423
32	0xbe8cf7a8	-0.27532697
33	0xbe8a5ac5	-0.27022377
34	0xbe742ce4	-0.2384525
35	0x3ebcdd75	0.36887708
36	0xbef9f686	-0.48820895
37	0xbec0830a	-0.37599975
38	0xbbc24d19	-0.005929601
39	0x3ec8e7f0	0.39239454
40	0x3e82bb59	0.2553356
41	0xbef66728	-0.48125577
42	0xbe7fe9a7	-0.24991475
43	0xbe687332	-0.22700194
44	0x3f139d00	0.5766144
45	0x3c8dff9e	0.017333802
46	0xbe2306c1	-0.15920545
47	0xbf00bb6e	-0.50285995
48	0x3d12a23b	0.035799246
49	0x3e211214	0.15729553
50	0xbdcb33df	-0.09922003
51	0x3f5860cb	0.84522694
52	0x3e95e6e2	0.29277712
53	0x3c9d7f53	0.019225752
54	0x3eda7937	0.42670605
55	0x3edfbd35	0.4369904
56	0x3f02005f	0.50781816
57	0xbf2a5a7b	-0.6654431
58	0xbe4cb2ce	-0.19990084
59	0xbf23dd63	-0.64009684
60	0x3edf3611	0.43595937
61	0xbf7570aa	-0.95875037
62	0x3eef8039	0.46777514
63	0xbf295679	-0.6614757
64	0xbdf1ec5a	-0.118126586
65	0x3e3c2ee8	0.18377268
66	0xbe6e0194	-0.2324279
67	0x3f0b50cc	0.5442016
68	0xbee72012	-0.45141655
69	0x3f5f19ee	0.8714894
70	0xbd499a19	-0.049219225
71	0xbebb7d50	-0.36619043
72	0x3df4bb06	0.119497344
73	0xbe13ea93	-0.14444952
74	0x3ed4b3d3	0.41543445
75	0x3f109afa	0.56486475
76	0x3e1f586c	0.15561074
77	0x3cbaa154	0.022782005
78	0x3eac0f31	0.3360534
79	0xbf36da07	-0.71426433
80	0xbf079682	-0.5296403
81	0x3db0dd3a	0.086359456
82	0xbdb1eb0c	-0.0868741
83	0x3f4abcdd	0.7919443
84	0x3f7d28cb	0.9889037
85	0xbf3ec0eb	-0.7451312
86	0xbeaed733	-0.3414856
87	0x3f0ec099	0.5576263
88	0x3e9d6819	0.30743483
89	0x3ed2e0f5	0.41187254
90	0xbf84ed73	-1.0384964
91	0xbe7fd692	-0.24984196
92	0xbbf93483	-0.007605137
93	0x3f8c79b6	1.0974643
94	0xbee51625	-0.44743457
95	0x3f1187cc	0.56847835
96	0xbc15c8c7	-0.009142107
97	0x3d6a50a5	0.057205815
98	0x3ee5f00b	0.449097
99	0x3f15e7cd	0.58556825
100	0xbdb6dbd7	-0.0892865
101	0x3e6b3caf	0.22972368
102	0xbf31c210	-0.6943674
103	0x3f615430	0.88019085
104	0xbe99c927	-0.3003628
105	0xbe861d0e	-0.26194042
106	0xbe8c0cc6	-0.27353495
107	0xbd1aee09	-0.037824664
108	0xbbf950ee	-0.0076085245
109	0xbf46802c	-0.77539325
110	0xbe7067c3	-0.23477082
111	0xbf5e25d7	-0.8677649
112	0x3d7642e2	0.06012238
113	0x3f7602aa	0.96097815
114	0x3e764bc8	0.24052346
115	0x3ebe4f80	0.3717003
116	0x3ec1154c	0.3771156
117	0xbdc77464	-0.097389966
118	0xbdb4a056	-0.08819644
119	0x3f5e1c32	0.8676177
120	0x3de19642	0.110149875
121	0x3f00b432	0.50274956
122	0xbe022fb3	-0.12713508
123	0x3f0d62a6	0.5522865
124	0xbf020c21	-0.5079976
125	0x3d32d729	0.043662224
126	0xbe1e169f	-0.15438317
127	0xbd8679b2	-0.0656618
