PPO_preTrained/update_throughput/PPO_update_throughput_0_200.pth (torch, 105665 bytes, 11 tensors)

actor.0.weight f4 [128, 30]
0	0x3b575cff	0.0032861826
1	0x3c81e302	0.015855316
2	0x3e549dae	0.20763275
3	0x3e2ed32a	0.1707274
4	0x3dedace9	0.116052456
5	0x3d43378b	0.04766039
6	0xbe8cb85c	-0.27484405
7	0xbe18524a	-0.14875141
8	0xbe7e0fd3	-0.24810724
9	0xbedafddc	-0.42771804
10	0xbe9558cc	-0.2916931
11	0xbdc89ff6	-0.09796135
12	0xbd4527ec	-0.048133776
13	0x3e1222ef	0.14271139
14	0xbe25d223	-0.16193442
15	0x3e990b76	0.29891557
16	0x3d4887a4	0.048957482
17	0xbd6a7498	-0.0572401
18	0x3b706dc5	0.0036686521
19	0x3b684b90	0.003544543
20	0xbb66bfa0	-0.0035209432
21	0x3e1ae34a	0.15125766
22	0x3d8596db	0.06522914
23	0xbd0203d2	-0.031741925
24	0xbd3a1dbe	-0.04543852
25	0x3ec84c20	0.3912058
26	0x3de9db95	0.11418835
27	0xbd60ccfa	-0.05488298
28	0xbcb8123c	-0.022469632
29	0xbdfffb4b	-0.12499102
30	0x3db4e66c	0.08833012
31	0xbd12eac1	-0.03586841
32	0x3d9f9a76	0.07793133
33	0xbd21a89c	-0.03946744
34	0x3dfd75a4	0.12375954
35	0x3e5f9dda	0.2183756
36	0xbf0db924	-0.5536063
37	0xbdf1f3f3	-0.11814108
38	0x3e9f4b61	0.31112197
39	0xbcedff16	-0.029052299
40	0xbd51bb75	-0.051204164
41	0x3e8be462	0.2732268
42	0x3e863131	0.26209405
43	0x3e7d5c10	0.2474215
44	0x3d51f70f	0.051261004
45	0x3b961b1a	0.0045808675
46	0xbe191495	-0.14949258
47	0xbe1839d2	-0.14865807
48	0xbd370734	-0.044684604
49	0xbe8010e5	-0.2501289
50	0xbd09b3bd	-0.033618677
51	0x3e4556c1	0.19271375
52	0x3e104855	0.14090092
53	0xbde53ccf	-0.11193239
54	0x3d2cd8a2	0.042198785
55	0x3d11a1cf	0.035554703
56	0xbc8a42a1	-0.016877474
57	0x3ddaef42	0.10690166
58	0xbda52f85	-0.08065704
59	0x3d15958d	0.036519576
60	0x3da97c00	0.08275604
61	0x3bf4e289	0.007473294
62	0xbb63e921	-0.0034776407
63	0x3e285ff6	0.16442856
64	0xbd1974d8	-0.037464947
65	0xbeedff8c	-0.4648403
66	0x3f068a24	0.52554536
67	0x3cb6ea2c	0.022328459
68	0x3e443e11	0.19164301
69	0xbf30ca9e	-0.6905917
70	0xbd9aa5f3	-0.075511836
71	0xbe3a11ca	-0.18170848
72	0x3d162eea	0.036665834
73	0x3d438230	0.04773158
74	0xbdc2b221	-0.09506632
75	0x3d95ad27	0.07308417
76	0x3e021226	0.12702236
77	0x3d886d1b	0.06661435
78	0xbdda13b8	-0.10648292
79	0xbdc982dd	-0.09839413
80	0x3c3ccdc9	0.011523672
81	0x3e0e62bf	0.13904856
82	0x3dbc1565	0.09183768
83	0x3dfba53a	0.12287374
84	0x3cdaef55	0.02672545
85	0x3d4dc265	0.050234217
86	0x3e6098ac	0.2193324
87	0x3dc645de	0.09681295
88	0x3e06011a	0.13086358
89	0xbe5eccea	-0.21757856
90	0x3dabfd6c	0.08397946
91	0x3e045204	0.12921911
92	0xbe1ed20c	-0.15509814
93	0x3dfb7390	0.12277901
94	0x3ca69480	0.020334482
95	0x3e9449f0	0.2896266
96	0xbd4dd7e1	-0.050254706
97	0xbdbeb87d	-0.09312532
98	0xbec0eda2	-0.376813
99	0xbe40dfd5	-0.18835385
100	0xbe576d75	-0.21037848
101	0x3e518b56	0.20463309
102	0x3cf4b98b	0.02987363
103	0xbcf3a09e	-0.029739674
104	0xb9ed0081	-0.00045204538
105	0xbcce729d	-0.025201136
106	0x3e034a02	0.128212
107	0x3d90b28f	0.07065307
108	0xbe30ac4b	-0.17253225
109	0xbe2bf5c7	-0.16792975
110	0xbd4c9ab7	-0.049952235
111	0x3db7584b	0.089523874
112	0x3db86605	0.09003834
113	0x3e38e39b	0.18055575
114	0x3d91a38a	0.07111271
115	0x3d740e45	0.05958392
116	0xbd9f22bf	-0.07770299
117	0x3deeea7b	0.11665817
118	0xbe04cd3c	-0.12968916
119	0x3b7c3b75	0.0038487588
120	0xbd5d2b8b	-0.053996604
121	0x3e0c48d2	0.13699654
122	0x3e162f7d	0.14666553
123	0x3e71d7ea	0.23617521
124	0xbc90ecf7	-0.017691119
125	0x3ece7ef3	0.4033123
126	0x3e01133c	0.12604994
127	0xbafd0803	-0.0019304756
128	0xbe4595e9	-0.19295467
129	0xbe1aecf0	-0.15129447
130	0xbed9fe88	-0.42577004
131	0x3e335112	0.17511395
132	0x3d9ecedc	0.07754299
133	0x3c416243	0.011803213
134	0xbcab1c9b	-0.020887664
135	0xbc44f9aa	-0.012022415
136	0xbcfb8eff	-0.030707834
137	0x3d74074b	0.059577268
138	0xbd6ce84a	-0.057838716
139	0x3e278b11	0.16361643
140	0xbe026e55	-0.12737401
141	0x3cab6e72	0.020926688
142	0x3dd2ef7f	0.102995865
143	0xbd11f090	-0.03562981
144	0xbe2e7dcb	-0.17040174
145	0xbbbfd282	-0.005853952
146	0x3d69b803	0.057060253
147	0xbd7f72a0	-0.062365174
148	0x3d0aa68e	0.033850245
149	0xbcce3a1c	-0.025174193
150	0x3e174779	0.14773358
151	0xbe2d78e5	-0.16940649
152	0xb53ec2f0	-7.1064187e-07
153	0x3ddc3883	0.10752966
154	0x3dc7a026	0.09747343
155	0x3f414eb7	0.75510734
156	0x3c91c558	0.017794296
157	0xbc5e764c	-0.013578009
158	0x3ce55ba9	0.027997809
159	0xbdcf10f4	-0.101106554
160	0xbeb558a7	-0.354192
161	0x3da39814	0.07987991
162	0x3ccd2e2c	0.02504643
163	0x3e8b2b8d	0.27181664
164	0x3d0d6f98	0.034530252
165	0xbd8ba57c	-0.06818673
166	0x3d53801d	0.05163585
167	0x3e0f976e	0.1402261
168	0xbda33ed3	-0.07970967
169	0xbcc415d9	-0.023936199
170	0x3e159272	0.14606646
171	0x3d5b4256	0.05353006
172	0xbd41f3af	-0.047351535
173	0x3ddea7ef	0.108718745
174	0x3e212884	0.15738112
175	0xbd9570ca	-0.072969034
176	0xbdf7ea9a	-0.121052936
177	0x3dfde28f	0.12396728
178	0x3e2ea276	0.17054161
179	0xbd9619aa	-0.07329114
180	0xbc238f27	-0.009982861
181	0x3d3bdd32	0.045865245
182	0x3d9a904b	0.07547053
183	0xbd9e1859	-0.07719488
184	0x3e0cd27c	0.13752168
185	0x3eb5e800	0.35528564
186	0xbdf5ac1a	-0.119957164
187	0x3bca5879	0.0061750975
188	0xbd809802	-0.06278993
189	0xbf2941d3	-0.66116065
190	0x3ddb3e90	0.10705292
191	0xbd1f9c97	-0.038967695
192	0x3c21434a	0.009842703
193	0xbc26b84e	-0.010175778
194	0xbc933373	-0.017968869
195	0xbd974789	-0.07386691
196	0x3dad66a2	0.08466841
197	0xbd618645	-0.05505969
198	0xbd9f81ac	-0.07788405
199	0xbdbbc775	-0.09168903
200	0xbdeac4e5	-0.11463336
201	0x3d747276	0.05967947
202	0x3d285ed9	0.04110608
203	0xbc9f46c8	-0.01944293
204	0x3e9899c1	0.29804805
205	0xbd9d38df	-0.07676863
206	0x3e2977a1	0.16549541
207	0x3e624eac	0.22100323
208	0xbddda933	-0.10823288
209	0x3cc073c9	0.02349271
210	0xbd320c85	-0.04346897
211	0x3c9b9faa	0.018997032
212	0x3dacb727	0.08433371
213	0x3db0f845	0.08641104
214	0x3d53b1ea	0.051683344
215	0xbf026a11	-0.50943094
216	0x3e9fb5b7	0.31193325
217	0x3e88667a	0.26640683
218	0x3d20aaba	0.039225318
219	0xbe605c0c	-0.21910113
220	0x3eb0975f	0.34490487
221	0xbe90bb80	-0.2826805
222	0xbd87066e	-0.06593023
223	0xbe3d551b	-0.18489496
224	0xbd8dfb77	-0.06932729
225	0x3e3ce52a	0.18446794
226	0x3e000241	0.1250086
227	0xbd0abb5c	-0.033870086
228	0xbe14d577	-0.14534555
229	0x3de66293	0.1124927
230	0xbcf5190e	-0.029919174
231	0x3dcc2989	0.0996886
232	0x3e1c0ad1	0.15238501
233	0xbd8db281	-0.069188125
234	0xbe27d2f9	-0.16389073
235	0x3df6495e	0.120257124
236	0xbd879e55	-0.06621996
237	0x3d2a95a2	0.041646607
238	0x3e59b7fb	0.21261589
239	0x3d0e8e4e	0.03480368
240	0x3df9a5aa	0.12189801
241	0x3e57abcc	0.21061629
242	0xbe198560	-0.14992285
243	0x3e4b24c6	0.19838247
244	0x3e3c4ffd	0.18389888
245	0x3e142879	0.14468564
246	0xbea70684	-0.3262216
247	0xbe32fcb2	-0.17479208
248	0xbf09912b	-0.53737134
249	0x3f09a573	0.5376808
250	0xbe8aed3e	-0.27134126
251	0xbdf1bd6f	-0.1180371
252	0xbe89e6b1	-0.26933816
253	0x3cea7998	0.028622434
254	0xbe8f30d3	-0.27966937
255	0xbc34b779	-0.011030071

actor.0.bias f4 [128]
0	0x3e5b3e16	0.21410403
1	0x3db50160	0.08838153
2	0xbe32d4ef	-0.1746404
3	0x3c619c13	0.013770121
4	0x3d9dfe8a	0.07714565
5	0x3e47f712	0.19527844
6	0x3df8f98a	0.12156971
7	0xbe016495	-0.12636025
8	0xbc686735	-0.014184763
9	0xbb9cc678	-0.0047844015
10	0x3e25781c	0.161591
11	0x3e30e427	0.17274533
12	0x3e85a4ed	0.2610239
13	0xbd9b5fd6	-0.07586639
14	0xbe1af162	-0.15131143
15	0x3d11d151	0.03560001
16	0x3d2ce0a9	0.04220644
17	0xbd2f376d	-0.042777468
18	0x3e517638	0.20455253
19	0xbdbfb583	-0.093607925
20	0x3d8b7ef1	0.068113215
21	0xbdf103f0	-0.11768329
22	0xbe026ed8	-0.12737596
23	0xbdb1679c	-0.0866234
24	0x3b22d46d	0.0024845854
25	0x3e8af8d6	0.27142972
26	0x3db9f3ae	0.09079681
27	0xbc482143	-0.012214961
28	0x3e486f16	0.19573626
29	0xbce6e9a0	-0.028187573
30	0x3e419fdb	0.18908636
31	0xbda3ef4d	-0.080046274
32	0x3d329ae4	0.043604746
33	0x3e2d1c5a	0.16905347
34	0x3e06e929	0.13174881
35	0xbdaa8a41	-0.08327151
36	0xbd19c8c4	-0.03754498
37	0xbdd60b54	-0.104513794
38	0x3e0acfa3	0.1355577
39	0x3e5cf879	0.2157916
40	0x3d8d377e	0.0689535
41	0x3daf9638	0.08573574
42	0xbda93777	-0.08262532
43	0xbe585fd7	-0.2113031
44	0x3e08f89f	0.13376091
45	0xbdb8f343	-0.090307735
46	0x3e42c83d	0.19021697
47	0x3e36d47b	0.17854492
48	0xbe041f5b	-0.12902586
49	0x3e0fe315	0.14051469
50	0x3dbe89cd	0.09303627
51	0x3e9e1a7d	0.30879584
52	0xbd4c9705	-0.04994871
53	0x3dcbfb1f	0.09960007
54	0xbd9eefce	-0.07760583
55	0x3d9ca80c	0.0764924
56	0x3e06fd54	0.13182575
57	0x3e05f9a7	0.13083516
58	0x3eb6d2ee	0.35707802
59	0x3eae699d	0.34064952
60	0x3e681200	0.22663116
61	0xbdaab025	-0.08334378
62	0x3c873a79	0.016507374
63	0xbdc2cffa	-0.09512325
64	0x3d958e33	0.07302513
65	0x3dd5de7d	0.10442827
66	0x3e1607f3	0.1465147
67	0x3dc463d8	0.09589356
68	0xbe225b1d	-0.1585507
69	0x3c3a5f3a	0.011375243
70	0xbb8fffed	-0.0043945224
71	0x3d247f12	0.040160246
72	0x3e8c3381	0.27383044
73	0x3e6f1b08	0.23350155
74	0x3d23bafd	0.039973248
75	0x3b94b64a	0.004538332
76	0xbe067fdd	-0.13134713
77	0x3e2dfb72	0.1699045
78	0x3ce590a4	0.028023072
79	0xbdaafba9	-0.083487816
80	0x3bf2f9b7	0.0074150222
81	0xbd5737e1	-0.052543525
82	0xbdc65404	-0.096839935
83	0x3ddbf70e	0.10740481
84	0x3d9c9871	0.076462634
85	0x3e0cc294	0.137461
86	0x3e43cd2d	0.19121237
87	0xbdacd105	-0.08438305
88	0x3e21d895	0.15805276
89	0x3dd30f9b	0.10305711
90	0xbb12d4b3	-0.002240461
91	0x3e58b1f0	0.21161628
92	0x3e4d8079	0.2006854
93	0x3e94ea12	0.2908483
94	0x3da53e9c	0.080685824
95	0xbde4139c	-0.11136553
96	0xbe134828	-0.14382994
97	0x3e16cb25	0.14725931
98	0xbe1c5198	-0.152655
99	0x3e78f82e	0.24313423
100	0x3aa5ee95	0.0012659604
101	0xbe0e3458	-0.13887155
102	0x3d2d282e	0.042274646
103	0x3cb1ecd9	0.021719383
104	0x3ded16b9	0.115766
105	0xbdd7b5e2	-0.10532738
106	0x3e3d5d96	0.18492731
107	0x3e8ae022	0.27124125
108	0x3db89792	0.09013285
109	0x3d89cf5f	0.06729006
110	0xbc271e33	-0.010200071
111	0xbc2e4ff2	-0.010639178
112	0x3dc06765	0.09394721
113	0x3ca08696	0.019595426
114	0x3eb26bdd	0.34847918
115	0x3d486341	0.04892278
116	0xbde21eed	-0.11041055
117	0xbdb6145c	-0.08890602
118	0x3cf1167f	0.029429672
119	0x3e294f24	0.16534096
120	0x3e0d7f53	0.13818102
121	0x3d7ed05c	0.062210426
122	0x3e7186f5	0.23586638
123	0xbdaa400f	-0.083129995
124	0x3dea6934	0.11445847
125	0x3d2b0530	0.041752994
126	0x3dd31f52	0.10308708
127	0x3dbb4e0c	0.09145746

actor.2.weight f4 [64, 128]
0	0x3d02abb0	0.031902015
1	0xbe2e9e8b	-0.17052667
2	0x3d0d250f	0.03445917
3	0xbdf5e6ec	-0.120069355
4	0xbe05a195	-0.1304992
5	0xbe06a394	-0.13148338
6	0x3e23dfa6	0.16003284
7	0x3dade865	0.08491591
8	0xbd9c337c	-0.07627007
9	0x3ded0dc3	0.115748905
10	0x3d87a841	0.06623889
11	0xbd3dd680	-0.04634714
12	0xbdc61cec	-0.09673485
13	0x3db3f67a	0.08787246
14	0x394b8496	0.00019408981
15	0x3df38407	0.118904166
16	0xbe0d8a6b	-0.13822334
17	0x3dbb501d	0.0914614
18	0x3c840170	0.016113967
19	0x3d4e0543	0.050297987
20	0x3d5259fe	0.051355354
21	0x3e0950f3	0.13409786
22	0x3d8458ba	0.06462236
23	0xbd76ee7c	-0.06028603
24	0xbde05a9e	-0.10954784
25	0x3d7702ae	0.06030529
26	0xbde70f96	-0.1128227
27	0xbe217b9a	-0.15769807
28	0x3dd9f2fa	0.10642047
29	0xbd8ed4ed	-0.06974206
30	0x3d9f8cd7	0.07790535
31	0x3ca56c8c	0.02019336
32	0x3d526c35	0.051372726
33	0x3c8c85bf	0.017153619
34	0xbddbc4c4	-0.107308894
35	0x3da7f095	0.08200184
36	0xbd8e840e	-0.06958781
37	0xbdbc02e8	-0.09180242
38	0xbdaed923	-0.08537509
39	0x3de5df1d	0.11224196
40	0xbce0b4b8	-0.027429923
41	0x3e01d958	0.12680566
42	0xbe510a30	-0.20414042
43	0xbd5cd0fe	-0.053910248
44	0xbdc058b8	-0.09391922
45	0x3d9a49f8	0.0753364
46	0x3d1407a9	0.036140118
47	0x3dbd508f	0.09243881
48	0x3bd26d2c	0.0064217057
49	0xbdb79f49	-0.08965928
50	0x3d08a7ff	0.03336334
51	0xbd7b030a	-0.061282195
52	0xbd80900b	-0.06277474
53	0xbd0466ce	-0.032324605
54	0xbd83c682	-0.06434347
55	0x3d2dcd2c	0.042431995
56	0x3e0a0987	0.13480197
57	0x3d3175c2	0.043325193
58	0xbde21994	-0.11040035
59	0xbd8561b5	-0.06512777
60	0x3db44308	0.08801848
61	0xbcfd7e10	-0.0309439
62	0xbdeaa08e	-0.114564046
63	0xbc073a74	-0.008253682
64	0x3da29c01	0.07939912
65	0xbd0af2b6	-0.033922873
66	0x3bc4d9f3	0.006007427
67	0xbe77fd55	-0.24217732
68	0xbbbaeb8a	-0.005704348
69	0x3d68b7fc	0.056816086
70	0xbdbbd8f2	-0.091722384
71	0x3d95a1cf	0.07306253
72	0x3da1da11	0.07902921
73	0xbe002b12	-0.1251643
74	0x3c83def0	0.016097516
75	0x3dbdaac5	0.09261087
76	0xbd81a42c	-0.063301414
77	0xbe127a36	-0.14304432
78	0xbdb39b13	-0.087698124
79	0xbdb9a8a0	-0.09065366
80	0x3e3ea526	0.18617687
81	0x3c034b03	0.00801349
82	0x3be2fecb	0.0069273463
83	0xbd5ec667	-0.05438843
84	0x3d971d1c	0.07378599
85	0x3d600a4a	0.054697312
86	0x3c8d3110	0.017235309
87	0xbcf827b4	-0.03029237
88	0xbdefd468	-0.11710435
89	0x3cf4a554	0.02986399
90	0xbd077d96	-0.033078752
91	0xbdc7201b	-0.097229205
92	0x3e0922fe	0.13392255
93	0x3da05050	0.078278184
94	0xbdcd9a27	-0.10039168
95	0x3e2130ec	0.15741318
96	0xbd9f6cd1	-0.07784427
97	0xbd5eff0e	-0.054442458
98	0xbd65aace	-0.056071095
99	0xbdaedad0	-0.08537829
100	0x3e177742	0.14791587
101	0x3bacb3ac	0.005270442
102	0xbd80ef44	-0.06295636
103	0xbd81f6db	-0.06345912
104	0xbdc36062	-0.09539868
105	0xbd1ffda3	-0.039060246
106	0x3d58e181	0.052949432
107	0xbd50f4a9	-0.051014576
108	0x3e117d75	0.14208014
109	0x3de53f73	0.111937426
110	0x3de199d0	0.110156655
111	0x3dc6bcb0	0.09703958
112	0xbd6cb06c	-0.057785437
113	0x3d675bf0	0.056484163
114	0xbd262380	-0.0405612
115	0x3d40b049	0.04704312
116	0xbcecfc0e	-0.028928783
117	0xbe14a28d	-0.14515133
118	0x3d1ed128	0.038773686
119	0x3e0dfac3	0.13865189
120	0xbd1c1015	-0.038101275
121	0x3e0032c8	0.12519372
122	0xbe08c394	-0.13355857
123	0x3d501655	0.050802547
124	0x3dbe8cb0	0.09304178
125	0xbddd8c30	-0.10817754
126	0xbe95415f	-0.29151437
127	0x3e12dda8	0.14342368
128	0xbe20eb1b	-0.15714686
129	0x3c0b37dd	0.008497206
130	0xbdc1e923	-0.094682954
131	0xbd6d2b53	-0.057902645
132	0xbd0804ec	-0.03320782
133	0x3c900814	0.017581977
134	0x3c84120a	0.016121883
135	0x3aeda967	0.0018132151
136	0xbd706193	-0.058686804
137	0xbddffaa5	-0.109364785
138	0xbce71b13	-0.028211152
139	0x3cab3072	0.020897124
140	0x3d41aac5	0.047282
141	0x3d78bc42	0.06072641
142	0xbd9f3d52	-0.07775368
143	0xbd619421	-0.055072907
144	0x3e154318	0.14576375
145	0xbd5fae03	-0.05460931
146	0xbe4f5b8f	-0.2024977
147	0xbd976bc5	-0.07393602
148	0xbd870998	-0.06593627
149	0xbdb3fbbb	-0.08788248
150	0xbc46c7c6	-0.012132591
151	0xbd343956	-0.043999992
152	0x3d33a147	0.043854978
153	0xbdc8acf5	-0.09798614
154	0xbbb7394b	-0.0055915467
155	0x3c81cf57	0.015845938
156	0xbdeb87ed	-0.11500535
157	0x3c4f65a5	0.012658511
158	0xbd9fbc4d	-0.077995874
159	0xbd9f4d4e	-0.077784166
160	0x3e1cdad7	0.15317856
161	0x3c86acc7	0.016439809
162	0xbdade545	-0.08490995
163	0xbc7ad0f5	-0.015308608
164	0x3d79f368	0.061023146
165	0xbd1528e8	-0.036415964
166	0xbd03c157	-0.032166805
167	0xbd3cdb0c	-0.046107337
168	0x3d374998	0.04474792
169	0xbddf06ef	-0.10889994
170	0x3e03f5ff	0.12886809
171	0xbd38c35b	-0.04510818
172	0x3d237db9	0.03991482
173	0x3ca70e62	0.0203926
174	0xbe3a196b	-0.18173759
175	0x3e0af066	0.13568267
176	0xbcd7b5c1	-0.026331784
177	0x3e15b3f4	0.14619428
178	0xbe21500e	-0.15753195
179	0x3dd2e35e	0.10297273
180	0xbc65391e	-0.013990669
181	0xbced5a80	-0.028973818
182	0x3d1860a0	0.037201524
183	0x3d0d0508	0.034428626
184	0xbd174701	-0.03693295
185	0xbdeb5879	-0.11491484
186	0x3d306a77	0.043070283
187	0x3d14129b	0.036150556
188	0x3d6946f3	0.056952428
189	0xbd1c04da	-0.038090564
190	0x3dadab86	0.08479981
191	0xbe22ef09	-0.15911497
192	0xbd2f84d6	-0.04285129
193	0xbd98fc37	-0.07469981
194	0xbe0b9153	-0.13629656
195	0x3e1fa291	0.15589358
196	0xbcb82c8c	-0.02248218
197	0xbd9f4b12	-0.077779904
198	0xbcc17140	-0.023613572
199	0xbceb862e	-0.028750505
200	0xbcfc9d16	-0.030836623
201	0x3e315547	0.17317687
202	0xbd49a66c	-0.049230978
203	0xbc98c735	-0.018649677
204	0xbcce7cd9	-0.025206016
205	0xb9e452eb	-0.00043549328
206	0xbdf65829	-0.12028534
207	0x3e07e1fe	0.13269803
208	0xbe24afc9	-0.16082682
209	0xbd3a4027	-0.045471337
210	0x3de1e9fa	0.110309556
211	0x3d4ebc53	0.05047257
212	0x3dc1ab3c	0.094564885
213	0xbd008b6f	-0.031382974
214	0x3d6e5d43	0.05819441
215	0x3d39b25f	0.045336124
216	0xbd816e0c	-0.06319818
217	0xbdde6c5d	-0.108605124
218	0x3e058e87	0.13042651
219	0x3e24aee1	0.16082336
220	0xbd0615a1	-0.03273547
221	0x3df85879	0.1212625
222	0xbe7ede5c	-0.24889511
223	0xbe3aa4bc	-0.18226904
224	0xbdee33a8	-0.116309464
225	0x3d09ad44	0.033612505
226	0xbb475af9	-0.0030419214
227	0x3ca1efcb	0.019767663
228	0x3d053565	0.032521624
229	0x3e14ddae	0.14537689
230	0x3dc4f315	0.09616677
231	0x3c6ea99f	0.014566808
232	0xbdb43daa	-0.08800824
233	0xbdbe1089	-0.092804976
234	0x3c8f1237	0.01746474
235	0xbda545d6	-0.08069961
236	0xbcd583df	-0.026063858
237	0x3df3bbaf	0.11901032
238	0x3d08e70a	0.03342346
239	0xbc3b83bb	-0.011444981
240	0x3d5605de	0.05225169
241	0xbcaa32f0	-0.020776242
242	0x3ca8d4b0	0.02060923
243	0x3cbb4633	0.022860622
244	0x3df301a2	0.11865546
245	0x3da88df9	0.08230204
246	0xbd2bedd6	-0.041974865
247	0xbe76566d	-0.24056406
248	0x3e35f001	0.17767335
249	0xbc986812	-0.018604312
250	0x3dd33847	0.103134684
251	0xbc85361e	-0.016261157
252	0xbd3f6a5e	-0.0467323
253	0x3d22b746	0.039725564
254	0x3e700db7	0.23442732
255	0x3cb6dc5c	0.022321872

actor.2.bias f4 [64]
0	0x3d865ec7	0.06561046
1	0x3c248890	0.010042325
2	0xbca3175e	-0.019908603
3	0x3dffa4ef	0.124826305
4	0xbdb25674	-0.08707896
5	0xbdd51118	-0.10403651
6	0x3db85386	0.09000306
7	0x3da48534	0.08033219
8	0xbd8fd469	-0.07022936
9	0x3c27266d	0.0102020325
10	0xbd59eea0	-0.053206086
11	0xbe143a41	-0.14475347
12	0x3dd07bf7	0.101798944
13	0x3d98e992	0.07466425
14	0x3dd506fe	0.10401724
15	0x3c7adacf	0.015310957
16	0x3d09fb49	0.03368691
17	0xbd6c2c25	-0.057659287
18	0x3b15dce4	0.0022867257
19	0xbd7c2b45	-0.061564703
20	0x3d65f869	0.056145106
21	0x3dacc7ef	0.08436572
22	0x3d8a00af	0.06738412
23	0xbd2a1c35	-0.041530807
24	0x3e019a42	0.12656501
25	0x3d3e5dab	0.046476047
26	0xbdfb4d50	-0.122706056
27	0xbdb945d7	-0.09046524
28	0xbca4a3e7	-0.020097686
29	0x3dc89b59	0.09795255
30	0x3d1f0f92	0.03883321
31	0x3e1f6400	0.1556549
32	0x3daff8f0	0.08592403
33	0xbb117210	-0.002219323
34	0x3b86a4f5	0.00410902
35	0x3d8fbe6c	0.07018742
36	0xbc819d54	-0.01582209
37	0x3c0aa7c7	0.008462853
38	0x3a939168	0.0011258544
39	0xbd2a4498	-0.041569322
40	0xbcff84cb	-0.03119125
41	0xbd98c67e	-0.074597344
42	0x3c959ddd	0.018263752
43	0xbe20b640	-0.15694523
44	0x3c9dcf3f	0.019263862
45	0xbc622199	-0.013801956
46	0x3b97d441	0.004633457
47	0x3e15d041	0.14630224
48	0xbd5f815e	-0.054566734
49	0xbd5e3a32	-0.054254718
50	0xbd533329	-0.051562462
51	0xbd816e63	-0.06319883
52	0x3dec9bfe	0.11553191
53	0xbd13123d	-0.035906065
54	0x3d9384d3	0.072030686
55	0xbc82a3c9	-0.01594724
56	0x3c4db839	0.012556129
57	0xbdc80157	-0.097658806
58	0xb95d5305	-0.0002110713
59	0xbcc98e27	-0.024603916
60	0xbdc07043	-0.09396412
61	0x3c72b78c	0.014814269
62	0xbdad9aad	-0.08476768
63	0xbd33745f	-0.043812152

actor.4.weight f4 [16, 64]
0	0x3d81b847	0.06333976
1	0x3e80a58a	0.25126296
2	0x3de6b220	0.112644434
3	0x3e070b94	0.1318801
4	0x3ea2b5ed	0.31779423
5	0xbe98ecbc	-0.29868114
6	0x3db95fde	0.09051488
7	0x3db156b3	0.08659115
8	0xbe1eeaa3	-0.15519194
9	0x3e23cea3	0.15996794
10	0x3ec5e082	0.38647848
11	0xbdbb322e	-0.091404304
12	0xbe3f6d93	-0.18694143
13	0xbe2ee26a	-0.17078558
14	0x3ea599b4	0.3234383
15	0xbe774649	-0.24147905
16	0x3e860e92	0.2618299
17	0xbe85cd34	-0.2613312
18	0xbef03a34	-0.46919405
19	0x3e9da464	0.30789483
20	0x3e042021	0.12902881
21	0x3e7a29dd	0.24430032
22	0x3e067b69	0.13133015
23	0x3ea675a6	0.32511634
24	0x3ee2923a	0.44252187
25	0xbe21eb7e	-0.1581249
26	0xbdc4ad6b	-0.09603389
27	0xbe673b96	-0.22581324
28	0x3ea52a57	0.32258865
29	0x3eace3d0	0.33767557
30	0x3e27b1cf	0.16376422
31	0xbd6eefb5	-0.05833407
32	0xbe21f8b8	-0.15817535
33	0xbe251bbe	-0.16123864
34	0xbce5ea58	-0.028065845
35	0xbdf298ea	-0.11845572
36	0xbefe235b	-0.4963635
37	0xbe426866	-0.18985137
38	0xbece0722	-0.40239817
39	0x3dabffcb	0.08398398
40	0xbea38a7e	-0.319416
41	0x3d51a4a6	0.05118241
42	0x3e3c93cf	0.1841576
43	0x3d752ad9	0.059855316
44	0xbcf09a17	-0.02937035
45	0xbe630b12	-0.22172192
46	0xbe8dc52e	-0.276895
47	0xbe92be48	-0.28660798
48	0x3e43f8db	0.191379
49	0x3ea3d2fa	0.319969
50	0x3e09f5d5	0.13472684
51	0x3eae181f	0.34002778
52	0x3ddc62ad	0.107610084
53	0xbec5a50a	-0.38602477
54	0x3e424623	0.18972068
55	0xbebda88a	-0.37042648
56	0xbed7de36	-0.4216172
57	0x3b5bad03	0.003351987
58	0x3ec2c34b	0.38039622
59	0xbea7e234	-0.32789767
60	0x3e34a94b	0.17642705
61	0xbe923047	-0.28552458
62	0x3e4ebc44	0.20189005
63	0xbdefb153	-0.11703744
64	0x3f1bf58b	0.60921544
65	0xbcec3724	-0.028834887
66	0xbd4e75aa	-0.050405182
67	0xbe28c874	-0.16482717
68	0x3e7e43ed	0.24830599
69	0xbe274dbd	-0.16338249
70	0x3e2e19ae	0.17001984
71	0x3cf95ebe	0.030440684
72	0x3c632c81	0.013865591
73	0x3dc4301d	0.095794894
74	0x3ecd082b	0.40045294
75	0xbddca9f6	-0.10774605
76	0xbe83f40c	-0.2577213
77	0xbdfb5ca6	-0.12273531
78	0xbf0245b4	-0.5088761
79	0x3ef8219a	0.48463136
80	0xbe6e27d6	-0.23257384
81	0xbf047a47	-0.5174908
82	0xbe2899e2	-0.16464952
83	0x3eca9d8d	0.39573327
84	0xbe3812f4	-0.1797598
85	0xbd6b2e18	-0.057417005
86	0x3dd3af5f	0.10336184
87	0x3eafef36	0.3436219
88	0xbe8ca3fa	-0.27468854
89	0xbdc4af44	-0.09603742
90	0xbdbd5e3f	-0.09246492
91	0x3f17bb2d	0.5926998
92	0xbe151c50	-0.14561582
93	0xbe254a03	-0.16141514
94	0x3b5d23a4	0.0033743167
95	0x3c8bd57f	0.017069576
96	0xbf128936	-0.5724062
97	0xbe168627	-0.14699613
98	0xbe935f08	-0.2878344
99	0xbcd32028	-0.02577217
100	0x3dee7575	0.11643497
101	0x3bbb8e05	0.005723717
102	0x3e3fd628	0.18734038
103	0x3e87264d	0.2639641
104	0x3ebffb61	0.37496474
105	0x3d9fe226	0.07806806
106	0xbf102637	-0.5630831
107	0x3e9d3a25	0.30708423
108	0x3d4944bc	0.049137816
109	0xbe66d398	-0.22541654
110	0xbe8dfd6e	-0.27732414
111	0xbe4f8006	-0.20263681
112	0xbe63f653	-0.22261934
113	0xbd787b5d	-0.060664523
114	0xbf239a75	-0.6390756
115	0x3c9c8b67	0.019109441
116	0xbe3e888d	-0.18606777
117	0x3e8f8e79	0.28038386
118	0xbca8864d	-0.020571852
119	0x3eb5efa5	0.35534397
120	0x3e01877c	0.1264934
121	0x3f27d42c	0.65558124
122	0xbd21a875	-0.039467294
123	0xbe24f9ad	-0.16110869
124	0x3ec5d8ef	0.3864207
125	0x3ea223a0	0.31667805
126	0x3dd6504b	0.104645334
127	0x3d87ebef	0.06636798
128	0x3e15a9f7	0.14615618
129	0xbd87e75b	-0.066359244
130	0x3e1dafbc	0.15399069
131	0x3dc91b02	0.098196045
132	0xbe6457c9	-0.22299112
133	0x3e255e0e	0.1614916
134	0xbe89790a	-0.26850158
135	0xbe54a8eb	-0.20767562
136	0x3e83c372	0.2573505
137	0xbe8c65d2	-0.27421433
138	0x3da58608	0.08082205
139	0x3e012a35	0.12613757
140	0xbd9baf16	-0.07601754
141	0x3e7090a3	0.23492675
142	0xbdecc3f3	-0.11560812
143	0x3e1c106e	0.15240642
144	0x3d76a424	0.06021513
145	0x3dae40a6	0.085084245
146	0xbc2aad0d	-0.010417235
147	0xbe192859	-0.14956798
148	0x3e694c71	0.22783066
149	0xbe9fbcbd	-0.31198683
150	0xbe5b6df5	-0.21428664
151	0xbdb34f4e	-0.087553605
152	0xbdbc1538	-0.09183735
153	0x3e8a5883	0.27020654
154	0x3e9c48bc	0.30524242
155	0x3e9d0faa	0.30676013
156	0x3e645a2e	0.22300026
157	0x3e35ec24	0.17765862
158	0xbe943890	-0.28949404
159	0x3d674681	0.056463722
160	0xbe0d223a	-0.13782588
161	0x3e2d7b4a	0.16941562
162	0x3e8929d9	0.2678974
163	0x3e2f428b	0.17115228
164	0xbdfd8cc4	-0.123803645
165	0x3e8cdbb9	0.27511385
166	0x3c68994b	0.014196704
167	0x3d629b8e	0.05532413
168	0x3d3f04d4	0.046635464
169	0x3e9a1f60	0.30102062
170	0xbe75370f	-0.23946784
171	0xbe20cb9b	-0.1570267
172	0x3e8bb787	0.27288458
173	0x3dc5d11a	0.096590236
174	0x3d75a39a	0.059970476
175	0x3d7cea1b	0.061746698
176	0xbe20e037	-0.15710531
177	0xbd6711ea	-0.05641357
178	0xbde4d4da	-0.11173411
179	0xbc5abbb8	-0.01335042
180	0x3d8b2c76	0.067955896
181	0xbe38974b	-0.18026464
182	0xbe7a1b5d	-0.24424501
183	0x3de69226	0.11258344
184	0xbe054744	-0.13015467
185	0x3dfeb428	0.12436706
186	0xbdf02f64	-0.11727789
187	0xbd8defa1	-0.06930471
188	0xbe4aab05	-0.19791801
189	0x3e887e82	0.26659018
190	0xbdd69547	-0.10477691
191	0xbd82beec	-0.06384072
192	0xbf043d1e	-0.5165576
193	0x3f03217c	0.5122297
194	0xbe9e6a15	-0.3094031
195	0xbe580d0f	-0.21098731
196	0xbebd930b	-0.37026247
197	0xbe658f8c	-0.2241804
198	0x3d877835	0.066147245
199	0x3d8f2b28	0.06990653
200	0x3e187f0b	0.14892213
201	0x3e269462	0.16267541
202	0xbec6660f	-0.3874974
203	0xbe0015fc	-0.12508386
204	0x3f0f134a	0.5588881
205	0x3df6c589	0.120493956
206	0xbbeb71ca	-0.0071851956
207	0xbe821b35	-0.25411382
208	0x3e9054c9	0.28189686
209	0xbca5f8ff	-0.020260332
210	0x3f043f3f	0.51659006
211	0xbe0598f1	-0.13046624
212	0x3cf0c658	0.029391453
213	0x3e2cc45b	0.16871779
214	0x3e1ef312	0.15522411
215	0xbf047a8d	-0.517495
216	0x3d9a8a6c	0.07545933
217	0xbda8ae06	-0.08236317
218	0xbe429c70	-0.19004989
219	0xbe3099b7	-0.17246138
220	0xbe151cdb	-0.14561789
221	0xbe46820e	-0.1938555
222	0x3e11473d	0.14187331
223	0x3e327a06	0.17429361
224	0x3e45a16f	0.19299863
225	0xbdfbd15d	-0.12295792
226	0xbe81575f	-0.2526197
227	0xbc0fa488	-0.008767255
228	0xbe17ceb6	-0.14824948
229	0xbe6ffaa0	-0.2343545
230	0xbde1b46e	-0.11020742
231	0x3e2d2b6c	0.16911095
232	0xbe43ec25	-0.1913305
233	0xbe73e9dd	-0.2381968
234	0x3d8d177e	0.068892464
235	0xbe76cb7d	-0.24101062
236	0xbdf0e290	-0.11761963
237	0xbe72a721	-0.23696567
238	0x3e2dc058	0.16967905
239	0xbd04ce32	-0.032423206
240	0xbd5969f5	-0.053079564
241	0x3e392c7a	0.18083373
242	0x3e0d10b4	0.13775903
243	0xbea50cd6	-0.32236356
244	0x3e123002	0.14276126
245	0xbdbc7531	-0.0920204
246	0x3da7d87b	0.08195587
247	0xbe8bc77c	-0.27300632
248	0x3de77bbc	0.11302897
249	0xbeb5dc45	-0.35519615
250	0x3d571095	0.05250605
251	0x3f06dff3	0.5268547
252	0x3d8177a9	0.063216515
253	0xbe3d8b7a	-0.18510237
254	0x3daf4f44	0.085600406
255	0x3e8b3475	0.2718846

actor.4.bias f4 [16]
0	0xbab1feaa	-0.0013579924
1	0x3e061d95	0.13097222
2	0xbe2c1578	-0.16805065
3	0x3dd35499	0.1031887
4	0xbe88bc4e	-0.26706165
5	0xbe18069f	-0.14846276
6	0x3df5c1dc	0.11999866
7	0xbd8c2937	-0.068437986
8	0xbe7eb0c1	-0.24872114
9	0x3d6dcc50	0.058056176
10	0xbddfbb59	-0.109244056
11	0xbe862159	-0.26197317
12	0x3df3efc6	0.119109675
13	0xbe736da3	-0.23772292
14	0xbddffed6	-0.10937278
15	0x3d52f34c	0.051501557

critic.0.weight f4 [128, 30]
0	0xbe0abcac	-0.13548535
1	0xbdee11a8	-0.116244614
2	0x3d33dcd0	0.043911755
3	0xbe2e4043	-0.17016701
4	0xbe2b9c68	-0.16758883
5	0xbf6c342d	-0.92267114
6	0xbc8885d7	-0.016665382
7	0xbd85718b	-0.06515797
8	0x3dbc8112	0.09204306
9	0xbde550db	-0.111970626
10	0x3eac590b	0.33661684
11	0xbd942d67	-0.07235222
12	0xbe104cab	-0.14091747
13	0x3cdea643	0.02717889
14	0xbdbb4e58	-0.09145802
15	0x3ddff038	0.1093449
16	0x3cad7dbd	0.02117812
17	0x3e515dac	0.20445889
18	0x3e295174	0.16534978
19	0x3d0a3b79	0.033748124
20	0xbd4fadc9	-0.050702844
21	0xbd97b20a	-0.07407005
22	0x3d721e3d	0.05911087
23	0x3dcd4d0c	0.10024461
24	0x3c7d5f04	0.015464548
25	0xbdb2c8f1	-0.08729733
26	0x3da7d0e5	0.0819414
27	0xbdc487ac	-0.0959619
28	0xbcd75431	-0.026285263
29	0x3d59e1e0	0.053193927
30	0xbdd3b90f	-0.103380315
31	0x3e2901b1	0.16504551
32	0xbe18298d	-0.148596
33	0x3dc8b3d9	0.09799928
34	0x3e59bf29	0.21264328
35	0x3e16e666	0.14736328
36	0xbd9134dc	-0.0709016
37	0xbe788d56	-0.24272665
38	0xbd6b0bf3	-0.057384443
39	0xbdf4c9b1	-0.11952532
40	0xbd06c6c9	-0.03290442
41	0x3daf3831	0.085556395
42	0x3e3a1b6b	0.18174522
43	0xbde49ec3	-0.11163094
44	0x3dde8bd4	0.10866514
45	0x3d97f485	0.07419685
46	0x3d9a3dc0	0.07531309
47	0xbc16b78b	-0.0091990335
48	0xbd8aff13	-0.06786933
49	0x3e0ef21f	0.1395955
50	0x3bf6c456	0.0075307293
51	0x3d0d108d	0.034439612
52	0x3dbcc6fb	0.0921764
53	0x3d585d9c	0.052823648
54	0x3dcc9bb6	0.09990637
55	0x3cdc4a94	0.02689103
56	0xba3bf57a	-0.0007170063
57	0x3dd7d60e	0.105388746
58	0x3e18be55	0.14916356
59	0x3cb2534c	0.021768235
60	0x3ddf5dfc	0.10906598
61	0x3d55b2a3	0.052172314
62	0xbd5efe39	-0.054441664
63	0x3d9efb54	0.07762781
64	0x3e3701e1	0.1787181
65	0xbe42e93c	-0.19034284
66	0xbf008c06	-0.5021366
67	0xbe84ed94	-0.25962508
68	0xbd838815	-0.0642244
69	0x3e582cf1	0.21110894
70	0x3e92e242	0.28688246
71	0xbd9b783b	-0.075912915
72	0x3d33e642	0.043920763
73	0xbe59d0f8	-0.21271122
74	0xbe20bc6e	-0.1569688
75	0x3dc41928	0.09575111
76	0xbd3dbe58	-0.046324104
77	0xbd920495	-0.0712978
78	0x3dd7d69a	0.10538979
79	0x3d20a8ad	0.03922336
80	0x3d926962	0.071490064
81	0xbd05f13f	-0.032700773
82	0x3d2f624f	0.042818364
83	0x3d9122e1	0.07086731
84	0x3dcc3afc	0.09972188
85	0x3e87e228	0.2653973
86	0xbc54c30d	-0.012985957
87	0xbe79dd70	-0.24400878
88	0xbd6864c0	-0.056736708
89	0x3e01cff8	0.1267699
90	0xbde4a0f0	-0.11163509
91	0xbd856105	-0.06512646
92	0x3cee736b	0.02910777
93	0xbddc0d2f	-0.10744702
94	0xbe862642	-0.26201063
95	0x3f4a4925	0.7901786
96	0xbe8117b8	-0.25213408
97	0xbe3af67c	-0.18258089
98	0xbdaa1850	-0.083054185
99	0x3d468b9f	0.048472997
100	0x3bf638ae	0.007514081
101	0x3e03860b	0.12844102
102	0x3e05080f	0.12991355
103	0xbe058fb0	-0.13043094
104	0xbb2de6fd	-0.0026535385
105	0xbe0467f1	-0.12930275
106	0x3d8bd90a	0.06828506
107	0x3e0e0b4b	0.13871495
108	0xbda53ad1	-0.08067859
109	0x3d8fb17a	0.07016273
110	0xbd593763	-0.053031337
111	0xbde11c30	-0.109917045
112	0x3d038af7	0.03211495
113	0xbe42195f	-0.18954991
114	0x3d5b7804	0.053581253
115	0x3e9bdc70	0.30441618
116	0xbc944250	-0.018098027
117	0xbe5fa354	-0.21839648
118	0x3de29da6	0.11065225
119	0x3df69bed	0.12041459
120	0x3bb08ea2	0.005388097
121	0x3d16a5f3	0.036779355
122	0xbe1c5cc0	-0.15269756
123	0xbdd3b0e7	-0.10336476
124	0xbce0b68a	-0.027430791
125	0xbec1e429	-0.37869385
126	0x3eb1d158	0.3473003
127	0x3d197b55	0.037471134
128	0x3b337f44	0.0027389089
129	0xbe7f85b2	-0.24953344
130	0xbf0da776	-0.5533365
131	0xbdd9ba05	-0.106311835
132	0xbc4c713b	-0.012478168
133	0xbd0ac264	-0.03387679
134	0xbc5f2c92	-0.013621466
135	0x3d327cdb	0.043576103
136	0xbd1d330f	-0.03837877
137	0x3dea83e4	0.114509374
138	0xbab9da6e	-0.0014179477
139	0x3dabc702	0.08387567
140	0x3e8c2062	0.27368456
141	0x3ad07136	0.001590288
142	0x3ddfe5c0	0.10932493
143	0xbbc27e0f	-0.0059354375
144	0x3df2895c	0.118426055
145	0xbd8aaf4b	-0.06771716
146	0x3c32a67b	0.01090395
147	0xbbf1fc62	-0.0073848227
148	0x3e209c7c	0.15684694
149	0x3d8ff56e	0.07029234
150	0xbe3e7c18	-0.18602026
151	0x3e1dcf24	0.15411049
152	0x3e062fd3	0.13104181
153	0x3df6e437	0.12055247
154	0x3e09a1b6	0.13440594
155	0xbf14254d	-0.57869416
156	0xbe74cb7c	-0.23905748
157	0xbe6e5c06	-0.23277292
158	0x3dcc9516	0.099893734
159	0xbe350802	-0.17678836
160	0x3e9a16a2	0.30095392
161	0xbd690c3d	-0.056896437
162	0x3e23bc16	0.15989718
163	0x3e2b95cd	0.16756363
164	0x3d795f84	0.060882106
165	0xbd8643cd	-0.06555901
166	0x3c9776ab	0.018489202
167	0x3c91ff67	0.01782198
168	0x3d4772b5	0.048693378
169	0x3c0f048c	0.008729111
170	0xbe386e17	-0.18010746
171	0x3d9511cd	0.07278786
172	0x3d361f97	0.04446372
173	0x3e53e037	0.20691
174	0x3da25389	0.07926089
175	0xbdf2a1b1	-0.118472464
176	0x3e11a106	0.14221582
177	0xbcfb2cfc	-0.030661099
178	0xbdaaf313	-0.08347144
179	0x3db76d8c	0.08956441
180	0xbd4cfcac	-0.050045654
181	0x3dccc115	0.09997765
182	0xbcbf791c	-0.02337318
183	0x3dca3a62	0.09874417
184	0xbd91ac77	-0.07112973
185	0xbf4446fc	-0.76670814
186	0xbe9c0116	-0.30469579
187	0xbdd3a5f8	-0.103343904
188	0xbdfde25d	-0.12396691
189	0xbda424df	-0.08014845
190	0x3d035b57	0.03206953
191	0x3e341a9c	0.17588276
192	0xbcfcf832	-0.030880067
193	0xbd771ad4	-0.06032832
194	0xbdff8b02	-0.124776855
195	0x3d009a8b	0.031397384
196	0xbc8e94b6	-0.017404895
197	0xbda22083	-0.07916357
198	0x3e03c4d3	0.12868051
199	0xbd7c6f21	-0.06162942
200	0x3e84b0c5	0.25916114
201	0x3e16a9e4	0.14713246
202	0xbe27d567	-0.1639
203	0xbbc93d97	-0.0061413753
204	0xbe0a69e7	-0.13516961
205	0xbe4cc7fa	-0.1999816
206	0x3c614ab7	0.013750724
207	0xbe5ec1f0	-0.21753669
208	0xbe757938	-0.23972023
209	0x3d8db1ef	0.06918704
210	0x3d24750d	0.04015069
211	0xbd18389a	-0.037163354
212	0xbd8f4c24	-0.069969445
213	0xbd87a2ee	-0.06622873
214	0xbdde5b7e	-0.108572945
215	0x3f4dc50c	0.80378795
216	0xbf2fca7a	-0.6866833
217	0xbe9f9a88	-0.31172585
218	0xbe923b8f	-0.28561065
219	0xbdbc9288	-0.09207636
220	0x3e6f64d9	0.23378314
221	0xbcee1b12	-0.029065643
222	0x3dbb4244	0.091434985
223	0xbe2c3f3d	-0.16820998
224	0x3dba2c90	0.09090531
225	0xbe38aa76	-0.18033776
226	0x3e318441	0.17335607
227	0x3cf151e0	0.029457986
228	0x3d256c5f	0.040386554
229	0x3bc86fe6	0.006116855
230	0x3e518987	0.20462619
231	0xbd017e5a	-0.03161464
232	0xbdfd9059	-0.12381048
233	0x3d0bb437	0.034107413
234	0xbc9812b1	-0.0185636
235	0x3e1eb273	0.1549776
236	0xbe012aef	-0.12614034
237	0xbea052d9	-0.31313208
238	0x3da69f96	0.08135907
239	0xbd9b3159	-0.07577772
240	0x3cbfc8f5	0.023411253
241	0x3db5ab49	0.08870561
242	0x3d3494ff	0.044087406
243	0x3b43790b	0.0029826786
244	0xbd82fe9a	-0.06396218
245	0xbf0a6de2	-0.5407392
246	0xbee0fbc5	-0.43942085
247	0xbe61a4dd	-0.22035547
248	0xbe61af98	-0.2203964
249	0xbdccf9e9	-0.10008604
250	0xbead360e	-0.33830303
251	0x3dd83ada	0.105581
252	0xbd5f4733	-0.05451126
253	0xbd0d7863	-0.034538638
254	0x3e5381c2	0.20654967
255	0xbc4a960f	-0.012364878

critic.0.bias f4 [128]
0	0xbe4fa51e	-0.20277831
1	0xbac2b8e9	-0.0014856133
2	0x3cbf58ef	0.023357837
3	0x3d82066f	0.06348883
4	0x3df63640	0.12022066
5	0xbc30e8e8	-0.010797717
6	0xbdacd82d	-0.0843967
7	0x3d0ff73a	0.035147883
8	0x3dcaa0b6	0.098939344
9	0xbd9922b1	-0.0747732
10	0xbc115481	-0.008870245
11	0x3cf2a324	0.029618807
12	0xbdb055df	-0.086101286
13	0x3e97cd05	0.29648605
14	0xbd3b7f44	-0.045775667
15	0xbe11467f	-0.14187048
16	0x3aca29dd	0.0015423853
17	0xbdba7ac4	-0.09105447
18	0x3e442395	0.19154198
19	0x3e34678a	0.17617622
20	0x3dcaa317	0.09894388
21	0xbde5277d	-0.111891724
22	0x3e311e0d	0.1729662
23	0x3db379b1	0.08763445
24	0xbd2a2f27	-0.041548874
25	0x3e04a6e4	0.12954289
26	0x3e0e693a	0.13907328
27	0xbbc64968	-0.006051231
28	0x3e1ed072	0.15509203
29	0x3e0d9fd8	0.13830507
30	0x3de19fbb	0.11016794
31	0xbe96c3a5	-0.2944614
32	0x3d5b8e1b	0.05360232
33	0x3c8c8ff9	0.017158495
34	0xbe34097f	-0.17581747
35	0xbdb97583	-0.09055617
36	0xbd10d2fe	-0.035357468
37	0x3cc4f698	0.024043366
38	0x3d94eaab	0.07271322
39	0x3dabfc81	0.08397771
40	0x3e3da860	0.18521261
41	0xbc9af9ba	-0.018917907
42	0xbdc75f2a	-0.09734948
43	0x3d819b0d	0.06328402
44	0x3e887d51	0.2665811
45	0x3d94da6e	0.07268225
46	0x3d8c1be1	0.06841255
47	0x3c409e57	0.011756501
48	0x3e4233dc	0.18965095
49	0xbe614f50	-0.22002912
50	0x3d1d4c81	0.038403038
51	0xbcab621b	-0.020920804
52	0x3d717d2d	0.058957268
53	0x3d7b6e97	0.061384764
54	0xbde3760b	-0.11106499
55	0x3e20d605	0.15706642
56	0xbe020882	-0.12698558
57	0x3d1fcd62	0.039014228
58	0x3ec883de	0.39163107
59	0x3e8aa208	0.27076745
60	0xbdfbc879	-0.122940965
61	0x3e243711	0.16036631
62	0x3df989b3	0.12184467
63	0x3ea25cef	0.31711528
64	0x3e2c83d0	0.16847157
65	0x3d3f9adc	0.046778545
66	0xbcd27cd1	-0.025694283
67	0xbc309b3c	-0.010779198
68	0xbdc2d039	-0.095123716
69	0x3e5d6e10	0.21624017
70	0x3e099659	0.1343626
71	0x3e80bd68	0.25144506
72	0x3e702746	0.23452482
73	0xbd81a9a6	-0.06331186
74	0x3e985cd6	0.29758328
75	0x3e2208e8	0.1582371
76	0xbd460720	-0.04834664
77	0x3dc67bf7	0.09691613
78	0xbdf3779f	-0.1188805
79	0xbda54062	-0.08068921
80	0x3db539c4	0.088489085
81	0x3cbf6a77	0.023366196
82	0xbde3a94b	-0.111162744
83	0xbda3f498	-0.08005637
84	0x3e20d038	0.15704429
85	0x3e6fd840	0.23422337
86	0xbd1e7787	-0.03868821
87	0x3dfe9d2d	0.12432323
88	0x3e7e7f2a	0.24853197
89	0xbd56d12f	-0.052445587
90	0x3d396028	0.045257717
91	0xbdc5b6e9	-0.09654028
92	0x3e5012dd	0.20319696
93	0x3c11d981	0.008901955
94	0x3e362b9e	0.17790076
95	0x3da05fc0	0.07830763
96	0x3e131bd5	0.14366086
97	0xbc5e6bd7	-0.013575516
98	0x3e7b03c7	0.2451316
99	0x3d2a9a1b	0.041650873
100	0xbdb72c69	-0.089440174
101	0xbd4c953b	-0.049947005
102	0x3dace87d	0.08442781
103	0x3d17ea72	0.03708882
104	0x3c806059	0.015670942
105	0xbd202c1c	-0.039104566
106	0x3e39fa9b	0.18162005
107	0x3db00f02	0.085966125
108	0xbe07b90b	-0.13254182
109	0x3e6b4d34	0.2297867
110	0x3e11e7ec	0.14248627
111	0x3e1dd6cd	0.15413971
112	0xbcdf3245	-0.02724565
113	0x3dc8f128	0.09811622
114	0x3d538fda	0.05165086
115	0xbdfa1de9	-0.12212736
116	0xbd08b418	-0.033374876
117	0x3daa74f2	0.08323087
118	0xbccb34f8	-0.02480553
119	0xbdc3babb	-0.095571004
120	0xbddc161a	-0.10746403
121	0x3c3d6cf1	0.011561618
122	0x3e17fc35	0.14842303
123	0xbd5f0dd0	-0.054456532
124	0x3e459e6a	0.19298711
125	0xbdafff43	-0.08593609
126	0x3e6c21b8	0.23059738
127	0xbe58c3aa	-0.2116839

critic.2.weight f4 [64, 128]
0	0x3b518975	0.00319728
1	0xbd2a3b6b	-0.04156057
2	0x3c4d81d0	0.012543157
3	0xbe407690	-0.18795228
4	0x3dba054a	0.0908304
5	0x3dc55ee4	0.096372396
6	0x3dd99fec	0.10626206
7	0x3d0555a2	0.03255237
8	0xbe0d7385	-0.13813598
9	0x3d8460ea	0.064637974
10	0xbe3e8b39	-0.18607797
11	0x3deaa21d	0.11456702
12	0x3d93c0cc	0.072145075
13	0xbe4579c2	-0.19284728
14	0x3d65c11e	0.056092374
15	0x3dd214d8	0.10257882
16	0xbc6f40e4	-0.0146028735
17	0xbdcd6652	-0.10029282
18	0x3d43076a	0.047614492
19	0x3d67f567	0.05663052
20	0xbd42780d	-0.04747777
21	0xbe2b6482	-0.1673756
22	0x3bd4b0ef	0.0064908187
23	0xbc54c5fc	-0.012986656
24	0xbdd5630b	-0.104192816
25	0xbdcfc209	-0.10144431
26	0x3dd15d6c	0.10222897
27	0x3ccee1c6	0.025254142
28	0xbd3f834e	-0.04675608
29	0xbdf9cb18	-0.1219694
30	0x3d8ad09e	0.06778072
31	0x3d8b59b3	0.06804218
32	0xbd993403	-0.074806236
33	0x3c13b48c	0.009015214
34	0x3e2b2fac	0.16717404
35	0x3db59e35	0.08868066
36	0xbdf0c34e	-0.117560014
37	0xbe06d4a5	-0.13167055
38	0x3dbefc5d	0.09325478
39	0x3b96e02b	0.0046043596
40	0xbd0c6dc3	-0.034284364
41	0xbeca34d5	-0.39493433
42	0xbb8970ac	-0.0041943397
43	0x3cfeeaf1	0.031117888
44	0xbd8f5054	-0.06997743
45	0x3c140fce	0.009036971
46	0x3dda3cbc	0.106561154
47	0x3e129ef7	0.14318453
48	0xbe98b19c	-0.29823005
49	0x3d58f9ee	0.052972727
50	0xbd889452	-0.06668915
51	0x3d0e0d77	0.03468081
52	0x3d01c7ec	0.0316848
53	0x3d992aee	0.07478891
54	0x3d8c058a	0.06836994
55	0x3c8fb62c	0.017542921
56	0xbd137f92	-0.036010332
57	0x3e342160	0.17590857
58	0xbe533126	-0.20624217
59	0x3d04043f	0.032230612
60	0x3cf78c82	0.030218367
61	0x3e39bb62	0.18137887
62	0xbd7b423d	-0.061342467
63	0xbe419235	-0.1890343
64	0x3bdd97c6	0.0067624776
65	0x3acf9ac0	0.0015838966
66	0x3d29eb75	0.041484315
67	0xbcb30fc7	-0.02185811
68	0xbce0e5c9	-0.02745332
69	0xbce0db1c	-0.02744823
70	0xbcfc3812	-0.030788455
71	0xbd9e991b	-0.07744046
72	0xbe948a77	-0.2901189
73	0x3d4bc174	0.04974504
74	0xbe22f302	-0.15913013
75	0xbc3ed13c	-0.011646565
76	0xbcc1fe87	-0.023680938
77	0x3d8d23ac	0.068915695
78	0xbb4434ac	-0.0029938621
79	0x3df8d2c8	0.12149578
80	0x3d1a61a3	0.03769077
81	0x3da5eb09	0.0810147
82	0xbd627ca0	-0.055294633
83	0x3d64ba43	0.055841696
84	0x3d06fbbb	0.032954913
85	0x3c51d4b7	0.012807063
86	0x3dad6573	0.084666155
87	0x3d8906e5	0.06690768
88	0xbd0bbdc1	-0.03411651
89	0xbcb4edaa	-0.022085983
90	0x3c9ca6ae	0.019122448
91	0xbdf953f6	-0.121742174
92	0x3dc554a1	0.09635282
93	0x3cc5eb5f	0.024160085
94	0x3cb839f9	0.022488581
95	0xbd9fa61b	-0.07795354
96	0xbb020f05	-0.0019845378
97	0x3d96bf4f	0.07360708
98	0xbcf0a9b8	-0.029377803
99	0x3c8f0087	0.017456306
100	0x3c066bff	0.008204459
101	0xbe0075c0	-0.12544918
102	0x3c5ff1d6	0.013668498
103	0xbe45fbbb	-0.19334309
104	0xbc2cedae	-0.010554714
105	0x3e5e4f7c	0.21710008
106	0x3cb5d0cb	0.022194287
107	0xbdce12fa	-0.10062213
108	0x3d9056ec	0.07047829
109	0xbd800cc3	-0.06252434
110	0xbc829d69	-0.0159442
111	0xbda80af1	-0.08205212
112	0xbd2f8b51	-0.04285747
113	0xbd35ad42	-0.044354685
114	0x3c8e8bb3	0.017400598
115	0x3e00c3da	0.12574711
116	0xbcfd9853	-0.030956423
117	0x3a8bcd59	0.0010666057
118	0x3e53c94f	0.20682262
119	0xbd2cfe7e	-0.04223489
120	0x3b5ce60b	0.0033706452
121	0xbd928624	-0.071544915
122	0x3e1f8ef8	0.15581882
123	0x3d3cec4d	0.04612379
124	0x3d5d9290	0.05409485
125	0x3da1392b	0.07872232
126	0xbd8df134	-0.069307715
127	0xbc537a42	-0.0129075665
128	0x3da97ca1	0.08275724
129	0x3c885069	0.016639905
130	0x3de34ecd	0.110990144
131	0x3e1ebfd7	0.15502869
132	0xbd391ae5	-0.045191664
133	0x3ca158fc	0.019695751
134	0x3c854224	0.01626689
135	0x3dd3b65a	0.10337515
136	0x3de94739	0.11390538
137	0x3d5843c8	0.052799016
138	0x3e00acc8	0.12565911
139	0xbdb17d9d	-0.08666537
140	0x3d92cbb7	0.07167762
141	0x3da6ae67	0.08138733
142	0x3de9a2cd	0.11408005
143	0xbbae92ef	-0.0053275744
144	0xbd0da1a3	-0.034577977
145	0x3e05ec66	0.1307846
146	0x3db3935f	0.08768343
147	0x3e273617	0.16329227
148	0xbcf87b96	-0.030332368
149	0xbd6018fe	-0.054711334
150	0xba1ebf30	-0.0006055711
151	0x3dd03734	0.10166779
152	0x3dfcff79	0.12353415
153	0x3e050297	0.12989269
154	0x3ce55f01	0.027999403
155	0xbdf96a75	-0.12178508
156	0xbdee13bb	-0.11624857
157	0x3d4d6586	0.05014565
158	0xbd7e92ea	-0.062151827
159	0x3d5f5486	0.054523967
160	0xbd49bd75	-0.049252946
161	0x3d9bb759	0.0760333
162	0xbe0ad568	-0.1355797
163	0x3d2390c8	0.039932996
164	0x3ca183ea	0.019716222
165	0x3d338e3a	0.04383681
166	0xbdcca20d	-0.09991846
167	0xbdd25412	-0.102699414
168	0x3ccbd417	0.024881406
169	0x3c1aaaf0	0.009440169
170	0x3da11b43	0.07866528
171	0xbd884b0f	-0.06654941
172	0xbdafc4e3	-0.08582475
173	0x3c07aa6d	0.008280379
174	0x3d272614	0.0408078
175	0xbdcb6673	-0.0993165
176	0x3c221844	0.009893481
177	0x3d3369b0	0.043801963
178	0x3dbb702f	0.09152257
179	0x3ceea4f7	0.029131396
180	0x3ce07dcc	0.027403735
181	0x3dd1ba5a	0.10240622
182	0x3d3ded0e	0.04636865
183	0x3df6ab46	0.120443866
184	0x3ce84564	0.0283534
185	0xbcc1e2fd	-0.023667807
186	0xbd427c44	-0.04748179
187	0x3c6aaac8	0.014322944
188	0x3d9c9f56	0.076475784
189	0xbcb60512	-0.022219215
190	0xbdb431ca	-0.08798559
191	0xbc7d7248	-0.015469141
192	0xbda4b111	-0.08041585
193	0x3c93840c	0.0180073
194	0x3da9cf2b	0.08291467
195	0x3e2e57c0	0.17025661
196	0xbb9e72f9	-0.004835483
197	0x3d6af5db	0.057363372
198	0x3ccef27a	0.025262106
199	0xbda7b7bf	-0.08189344
200	0xbd9bb59d	-0.07602999
201	0x3d5a428f	0.05328613
202	0xbe3a0064	-0.18164212
203	0x3d364f6a	0.04450933
204	0x3cb4a368	0.022050574
205	0x3db90022	0.090332285
206	0xbd3cefae	-0.046127014
207	0x3d97902f	0.07400548
208	0xbd95acc4	-0.07308343
209	0x3c885998	0.016644284
210	0x3da28af4	0.079366595
211	0x3cec8637	0.028872592
212	0x3deb7cff	0.114984505
213	0x3e01dfc4	0.12683016
214	0xbc551f4f	-0.013007953
215	0x3e0d9aef	0.13828634
216	0x3d1b5efd	0.037932385
217	0x3d96c365	0.07361487
218	0x3e4904d7	0.19630753
219	0x3b04863f	0.0020221618
220	0xbd1c965b	-0.038229328
221	0x3d64a4d2	0.055821247
222	0x3997f07b	0.00028980136
223	0x3d5bc2e0	0.053652644
224	0xbd093368	-0.03349629
225	0x39e9520f	0.00044502362
226	0xbd75943c	-0.05995582
227	0xbc8dabd1	-0.017293843
228	0xbb39f3dc	-0.0028374111
229	0x3d6c1c00	0.05764389
230	0x3cb5a0ca	0.022171397
231	0xbd4c793b	-0.049920302
232	0x3d155326	0.03645625
233	0xbd8acdc1	-0.06777526
234	0x3d36f3ec	0.044666216
235	0xbdc66604	-0.09687427
236	0xbda3feef	-0.08007609
237	0xbcdbd951	-0.026837023
238	0xbd4d6546	-0.05014541
239	0x3d5220d8	0.051300853
240	0x3c3d39e0	0.011549443
241	0x3cc2f336	0.023797613
242	0x3e520c16	0.20512423
243	0x3d4c331e	0.049853437
244	0x3ca822e7	0.020524455
245	0xbbcc523e	-0.00623539
246	0xbda65cfa	-0.081232026
247	0x3dc80f1e	0.097685084
248	0xbbe43068	-0.0069637783
249	0xbd9e071d	-0.077162005
250	0xbc18d956	-0.009329161
251	0x3d2a82a2	0.041628487
252	0xbc8be71e	-0.017077979
253	0x3acec806	0.0015776164
254	0xbc397b4d	-0.011320901
255	0xbd715bd0	-0.05892545

critic.2.bias f4 [64]
0	0xbdc5984d	-0.0964819
1	0xbd95ec3e	-0.0732045
2	0x3d17b030	0.03703326
3	0x3dcf7d99	0.10131378
4	0xbb1690ca	-0.0022974485
5	0xbd8c4fd4	-0.068511635
6	0x3cb5d3fe	0.022195812
7	0x3ce89ae8	0.028394178
8	0x3d8b7d0b	0.068109594
9	0x3e177db9	0.14794053
10	0x3c560213	0.013062018
11	0xbcd22fb5	-0.025657514
12	0xbcb9dc87	-0.022688163
13	0x3d076072	0.03305096
14	0x3cc534e4	0.024073072
15	0xbc199014	-0.00937273
16	0xbd5f8137	-0.05456659
17	0x3e14978f	0.1451094
18	0x3c089488	0.008336194
19	0xbdcf9c53	-0.10137238
20	0xbda2dd7e	-0.079524025
21	0xbd07f0c9	-0.033188615
22	0xbddd9a8b	-0.10820492
23	0x3bd78340	0.0065769255
24	0xbd9c3c79	-0.07628722
25	0xbd857e6d	-0.065182544
26	0x3b6a6454	0.0035765367
27	0x3d294258	0.041323036
28	0xbc9d20d8	-0.0191807
29	0xbdf73def	-0.1207236
30	0xbd02ce82	-0.031935222
31	0x3ce6ccf8	0.028173909
32	0xbdff94a1	-0.124795206
33	0xbd95ad16	-0.07308404
34	0xbe156caf	-0.14592241
35	0xbd445149	-0.047929082
36	0x3dc3eba4	0.09566429
37	0x3ceb7c76	0.028745871
38	0x3e1a1582	0.15047267
39	0x3e08e8cd	0.13370056
40	0xbccded52	-0.025137577
41	0x3c9be075	0.019027928
42	0xbd155560	-0.036458373
43	0xbe0fc743	-0.14040856
44	0x3dcdad96	0.100428745
45	0x3db98f27	0.09060507
46	0xbc93878e	-0.018008973
47	0xbd1e4895	-0.03864344
48	0xbc6d4504	-0.014481787
49	0x3dcc38cd	0.099717714
50	0xbd02d24f	-0.031938847
51	0x3cd9b07c	0.026573412
52	0xbbdf2eee	-0.0068110144
53	0x3dd420e3	0.10357835
54	0xbadf33c6	-0.001702898
55	0xbc9df2dc	-0.019280843
56	0x3bfc201d	0.007694258
57	0xbde94bee	-0.113914356
58	0xbd296ea5	-0.041365284
59	0x3d806acd	0.06270371
60	0x3e23b6fd	0.15987773
61	0xbd269e5b	-0.040678363
62	0xbd665abc	-0.056238875
63	0x3dabe844	0.083939105

critic.4.weight f4 [1, 64]
0	0x3e56f5a5	0.20992143
1	0x3d8bde34	0.06829491
2	0x3d9b3cd3	0.07579961
3	0xbf0c148d	-0.5471886
4	0x3daf36ce	0.08555375
5	0xbdb756d6	-0.089521095
6	0xbf02563e	-0.50912845
7	0xbde6cece	-0.112699136
8	0x3cc7b43c	0.024377935
9	0xbf384d9f	-0.7199344
10	0xbe0e58e0	-0.1390109
11	0x3d6fa3c8	0.058505803
12	0x3e613f5c	0.21996826
13	0xbd814998	-0.06312865
14	0x3e64b7d9	0.22335757
15	0xbe6368e3	-0.2220798
16	0x3eda899a	0.42683107
17	0xbdf64e90	-0.12026703
18	0xbdc6e4ed	-0.09711633
19	0x3d837319	0.064184375
20	0xbe20009f	-0.15625237
21	0xbdea124b	-0.1142927
22	0xbe26e452	-0.16298035
23	0x3de11f1d	0.109922625
24	0xbe93aa5d	-0.28840914
25	0x3e5a50f9	0.21319951
26	0x3dd00547	0.101572566
27	0xbe14728e	-0.14496824
28	0x3dbd88ab	0.09254583
29	0x3e846216	0.25856084
30	0x3d339b67	0.043849375
31	0xbce0b3a4	-0.02742941
32	0x3ec477f7	0.38372776
33	0x3edcac88	0.4310038
34	0x3e3192ba	0.17341128
35	0x3e212395	0.1573623
36	0x3d8d8960	0.06910968
37	0x3e11900c	0.14215106
38	0xbee4a8ef	-0.44660136
39	0xbeece238	-0.4626634
40	0x3d0e157a	0.03468845
41	0xbe370e87	-0.17876635
42	0x3dd6dbd7	0.1049115
43	0x3e665a69	0.22495426
44	0xbf1f3d4b	-0.622029
45	0x3e1e5bc5	0.15464695
46	0xbe62003c	-0.22070402
47	0xbe6ed240	-0.23322392
48	0xbbe3a7bd	-0.006947486
49	0xbe8ad371	-0.27114442
50	0x3dd8cc16	0.10585801
51	0x3b96dc7d	0.004603921
52	0xbe5d351f	-0.21602295
53	0x3dd51a03	0.10405352
54	0x3d4abaa7	0.04949441
55	0x3e46b58c	0.19405192
56	0x3df938fd	0.12169073
57	0x3e4786eb	0.19485061
58	0x3e1d9154	0.1538747
59	0xbed2da7d	-0.41182318
60	0xbecf53ad	-0.40493527
61	0xbe0d2a0f	-0.13785575
62	0xbdbf8c59	-0.09352941
63	0x3d8958e8	0.06706411
