PPO_preTrained/update_throughput/PPO_update_throughput_0_425.pth (torch, 105665 bytes, 11 tensors)

actor.0.weight f4 [128, 30]
00000000: 3e98 543b eeef a63c b8f8 513e 3c42 1a3e
00000010: ad6e e73d 59d2 a8bd 3cf4 1ebe 0b44 babe
00000020: 9a21 70be 6dda d3be 6d2e b5be 1a76 a1bd
00000030: 28ef b5bc df01 443e 5675 02be d9c8 9a3e
00000040: 810e 2c3d ba15 14bd 2fdd 903b 514b 4d3a
00000050: a422 87bc e697 1e3e 710b 9e3d 6176 eebc
00000060: 13eb 08bd 561d a93e 95f0 113e 8338 28bd
00000070: f4e4 a03c b5fc c8bd 4195 033e 63ef 103b
00000080: 594a 933d d130 84bc dc0e 183e 5242 7a3e
00000090: 061a 21bf e3b8 26bd 342a ca3e 6b4b 933c
000000a0: 52f9 5fbd bf28 8a3e 6a15 9e3e 05db 8e3e
000000b0: 5e8a d53d a3e2 a03d 797d bdbd 0991 96bd
000000c0: 08b4 3ebc 52e6 82be 7b8c 63bd 2edc 533e
000000d0: 8a87 073e 14cb 3ebd 5634 743d b3f7 243d
000000e0: 3205 febc b69e a63d a61d adbd accf d73d
000000f0: d658 d23d ad8c d13c 1fbf 84bc 8f71 0f3e
00000100: 806d b1bc f695 07bf 75b8 493f 1c10 d3bd
00000110: ca22 9d3e ad01 41bf e03d cabd 8b0c 0ebe
00000120: 2552 313d 7057 b63d 37c3 f2bd 914b c43d
00000130: 55de c43d 820b bd3d 9938 afbd c851 5abd
00000140: 32e3 b83c 3374 1b3e 8c1f cf3d 9b1d ec3d
00000150: 7688 023d a716 283c a441 353e e119 063e
00000160: 2c12 1e3e d821 38be e3e0 223d c40f 8b3d
00000170: c37d 42be bee5 953d 3b36 26bd a38e 6b3e
00000180: 1055 0a3d 5117 40be c8e6 45bf 2147 6abe
00000190: 05ac 90be 2add 503e 2b5b c5bb af6f a6bd
000001a0: 70cd f43c df4b b6bd 1f11 753d b03a 0e3d
000001b0: 8d7b 1bbe 0792 65be c043 1abd ebc3 593d
000001c0: 5d41 873d 788d 4e3e faa8 003d d24b a0bc
000001d0: 0670 05bd 8fc3 b33d 4c7a a4bd f6f2 84bc
000001e0: 1947 35bd 61f2 093e 0b77 203e c274 7f3e
000001f0: 5f3f 67bc b787 f33e 945e 6b3e 01f1 143d
00000200: b338 81be bf02 12be d1d8 e0be 580a 4c3e
00000210: 0083 fb3d 6834 443d e7b6 573c c2aa a0bb
00000220: 6725 fbbc 93cb 743d dece 53bd 634e 303e
00000230: 9835 0dbe 1f7b 033d 2559 e53d 180b a6bc
00000240: c38a ebbd d2a5 823c 7ffa 903d 6861 e1bd
00000250: 149b 2a3d f5b6 e33b 2625 143e 29da 3fbe
00000260: fdb3 48bc 53b2 d43d f701 9b3d 6045 563f
00000270: cc55 a03d 2e36 a73c 9799 b33d 2a6d eabd
00000280: 82e8 cbbe 865e 4a3d 671f d73c 5e34 8e3e
00000290: bead fe3c 11ee a7bd 068b 323d 489d 063e
000002a0: 6192 c6bd 234e d8bc 1b8c 0b3e 5ea6 073d
000002b0: 4e26 72bd 371e d03d 8eae 163e 5b1a 79bd
000002c0: 2daa bebd e628 733d c612 3a3e 59d5 69bd
000002d0: 311a f23c a400 353d de62 a33d f944 18bd
000002e0: deab 263e 5bf2 cd3e d4db c6bd c9f6 563d
000002f0: ba1c bbbd 80cb 78bf 381e ce3d 1112 fbbb
00000300: 5323 b03c 41ad f43c 2db6 40bd 86c1 99bd
00000310: be78 ef3d 80dd 40bd 1b04 6abd 9545 e9bc
00000320: 67b3 c9bd 31c9 5d3d 4458 1f3d bf52 783b
00000330: 5aee a03e c8b3 c1bd f956 0d3e d459 883e
00000340: cb22 bfbd 3db4 133d d06d 78bd 1308 cd3b
00000350: e355 863d f6f1 983d 01c0 7a3d 45ab 1cbf
00000360: 9b1c 9c3e 748d a93e 9d1c 7d3d bd77 85be
00000370: 9d5f af3e 5958 a0be 5dcb cfbd 0e74 58be
00000380: 864f 04be 2326 3f3e 7265 023e 8225 0cbd
00000390: 896a 0cbe 475f fe3d 8e53 5ebc c560 d43d
000003a0: 1426 013e cd91 b3bd 7c65 4bbe 7d98 943d
000003b0: a86c d8bd b475 a43d 3ca2 403e 6dff 183d
000003c0: 011d 113e f907 673e db03 f5bd 146c 4d3e
000003d0: 884f 453e 2229 fa3d 07d4 fabe d70c aebe
000003e0: 02f4 2ebf 3bba 273f ed20 76be d31c e9bd
000003f0: 1d30 8cbe 998e e1ba 38ef 9ebe 6bcf 44bc
0.0032439376 0.02037808 0.20505035 0.15064329 0.113004066 -0.08243246 -0.15522856 -0.36380038
-0.23450318 -0.41377583 -0.35386983 -0.07883854 -0.022208765 0.19141339 -0.12740073 0.3023136
0.04200602 -0.036153533 0.0044208984 0.00078313524 -0.01649601 0.15487632 0.07717026 -0.029109182
-0.03342731 0.33030194 0.14251931 -0.04106952 0.019640423 -0.09813825 0.12849905 0.0022115342
0.07191915 -0.016136559 0.14849418 0.24439362 -0.62930334 -0.040703665 0.39485323 0.017980298
-0.05468113 0.26984212 0.30875713 0.27901474 0.10426782 0.078557275 -0.09252448 -0.07351882
-0.0116396025 -0.25566345 -0.055553894 0.2068946 0.13235298 -0.04658039 0.059620224 0.040275287
-0.031008337 0.081357405 -0.084529206 0.10537657 0.1027085 0.025579775 -0.016204415 0.14008163
-0.021658659 -0.529632 0.78797084 -0.10305807 0.30690604 -0.7539318 -0.09875083 -0.13871972
0.04329123 0.08903396 -0.118536405 0.09584726 0.09612719 0.092307106 -0.08555717 -0.05330065
0.022569273 0.15181045 0.10113439 0.11529084 0.03186842 0.010259307 0.17700821 0.1309581
0.1543662 -0.1798166 0.03976525 0.067901164 -0.18993287 0.073192105 -0.040579062 0.2300363
0.03377253 -0.18758895 -0.7730527 -0.22878696 -0.2825624 0.20396867 -0.006022831 -0.08126771
0.029883116 -0.0890119 0.05983078 0.034723938 -0.1518385 -0.22418986 -0.037662268 0.053165358
0.06604264 0.20171154 0.03141115 -0.019567404 -0.032577537 0.08777534 -0.08031139 -0.016229134
-0.044257257 0.13471366 0.15670411 0.24946883 -0.01411423 0.4756448 0.22985297 0.03636265
-0.2523857 -0.1425886 -0.43915418 0.19925821 0.12280846 0.04790154 0.013166166 -0.0049031684
-0.030657483 0.059764456 -0.051710956 0.17217402 -0.13789976 0.03209984 0.111986436 -0.020268962
-0.11501076 0.01594821 0.07079028 -0.11004907 0.0416518 0.0069493004 0.14467296 -0.18735565
-0.012249944 0.10385575 0.07568734 0.8369961 0.078288645 0.020411577 0.08769529 -0.11446603
-0.39825827 0.04940655 0.026260091 0.27774328 0.031088706 -0.081997044 0.043589614 0.13145936
-0.09695888 -0.026404446 0.13627665 0.033117644 -0.05911856 0.10162013 0.14715025 -0.06081615
-0.09309802 0.059365176 0.18171224 -0.05708823 0.029553505 0.044190064 0.07977842 -0.037175152
0.162765 0.40223965 -0.09709898 0.052481446 -0.091363385 -0.97185516 0.100643575 -0.007662066
0.021501219 0.02986777 -0.047048736 -0.07507615 0.116929516 -0.04708624 -0.05713282 -0.028475562
-0.098486714 0.05414695 0.038902536 0.0037891117 0.31431848 -0.09458119 0.13802709 0.26631033
-0.09332808 0.03606056 -0.0606516 0.006257066 0.0655935 0.074680254 0.061218265 -0.61198837
0.30490574 0.33115733 0.061794866 -0.26067916 0.34252635 -0.31317404 -0.1014621 -0.21138021
-0.12920961 0.18666892 0.12734011 -0.034215458 -0.13712515 0.124205165 -0.013569726 0.1037002
0.12612182 -0.08768044 -0.19862932 0.07255647 -0.105675995 0.080302626 0.18811888 0.037352968
0.1417122 0.22561635 -0.11963626 0.2006076 0.1926862 0.12214877 -0.4898989 -0.3399417
-0.68341076 0.6551854 -0.24035998 -0.11382451 -0.27380458 -0.0017208635 -0.31041884 -0.012012343

actor.0.bias f4 [128]
00000000: 430a 6d3e d0a0 0c3e d58c 22be 71bf 01bc
00000010: f716 fd3d a7c6 543e 24ce 203e d1ef 2abe
00000020: 89e6 25bd 93c9 a9bc 6ac9 0c3e 29a4 393e
00000030: 534b 903e 056d c8bd c137 2bbe beb7 4f3d
00000040: 2eb2 713d c376 37bd 8309 803e 8835 cebd
00000050: 1250 6e3d 8a17 fbbd 74f9 20be 350d b7bd
00000060: e57d f0bc bbb8 893e f1a3 e63d a8a0 33ba
00000070: 7b36 553e 4418 bfbc ecfc 873e 6053 7bbd
00000080: 30c9 f73c a7b9 113e 72a2 0b3e 9d9e dcbd
00000090: 6b45 20bd 0eda f1bd b8a7 1a3e 408d 563e
000000a0: 8e7b 4f3d 0dea 873d 7d29 67bd 0364 65be
000000b0: 45e3 0e3e b0c1 c4bd 1c18 623e bfcd 323e
000000c0: b1d2 dcbd 1993 2c3e 2600 c53d 2e5d a33e
000000d0: b863 90bd 0e33 f23d 30f8 4ebd 5c95 4e3d
000000e0: e611 1a3e 29b2 073e 0dad c03e a407 bb3e
000000f0: ae1b 573e 613c a6bd 2a8a 41bc edb4 81bd
00000100: 658d 883d 60f4 a93d db74 313e bc9b f03d
00000110: a66c dabd ce6e 9a3c 6284 bb3b c2ed 943d
00000120: 522e 9b3e 31fe 833e f9b8 123d e506 95ba
00000130: 2b05 bbbd 72fb 2d3e edb2 233d e967 92bd
00000140: 4979 663d 3e37 9bbd 27a8 00be 1251 bb3d
00000150: 782c 693d 0d4e f23d 2038 5a3e 6e60 75bd
00000160: 8018 343e 978c 393e dc85 ebbc cb32 673e
00000170: 2fdd 473e dee6 933e 0817 cb3d 6ed7 fabd
00000180: a161 14be bdd9 0c3e 8f88 73be c67d 853e
00000190: 4abf a4bc 9e77 e6bd c7d9 9c3d a420 a13c
000001a0: 024c 183e 5c4c 93bd 5bc4 393e 33ce 983e
000001b0: 9269 9b3d 8bad 5f3d ac28 13bd 44ca a63c
000001c0: b245 023e 973f e8bb 5fd1 bd3e b577 a83d
000001d0: 63ab babd db34 f1bd 6d19 333d 570b 5a3e
000001e0: eba2 183e aa62 2c3d 6d86 853e 0d81 26bd
000001f0: ba84 c13d 4962 313d b3e6 013e 8bd1 953d
0.23148446 0.1373322 -0.15874036 -0.007919178 0.12357896 0.20778905 0.15703636 -0.16693045
-0.04050306 -0.020726 0.13748708 0.18129028 0.28182468 -0.09786419 -0.16720487 0.05071234
0.059007816 -0.044790994 0.25007257 -0.10068804 0.05818183 -0.12260349 -0.15720159 -0.08938066
-0.029356906 0.2689875 0.11261738 -0.0006852248 0.20821564 -0.023327 0.26560152 -0.06135881
0.0302473 0.14230977 0.13636187 -0.107724406 -0.039128702 -0.11809169 0.15103042 0.2095232
0.05065494 0.066364385 -0.05643605 -0.22401433 0.13953884 -0.096072555 0.2207951 0.17461298
-0.10782374 0.16852988 0.09619169 0.31907028 -0.0705027 0.11826144 -0.05052966 0.05043541
0.1504589 0.13251556 0.37632027 0.36529267 0.21006653 -0.08116985 -0.011812726 -0.06333337
0.06667594 0.08298564 0.17329733 0.11748454 -0.10665254 0.018851664 0.0057225684 0.07271911
0.30308777 0.2577987 0.035820935 -0.0011369853 -0.09131845 0.1699045 0.03996556 -0.071487255
0.05626801 -0.07578896 -0.12564145 0.09146322 0.056927174 0.11831293 0.21310472 -0.059906416
0.17587471 0.18120037 -0.028750353 0.2257797 0.19517969 0.28887075 0.09916502 -0.12248121
-0.14490367 0.13754936 -0.23782562 0.2607252 -0.020110745 -0.11253284 0.07658725 0.019668885
0.14872745 -0.07192299 0.1814131 0.29844818 0.07588495 0.054608863 -0.03592746 0.02036012
0.12721899 -0.0070876586 0.370738 0.08225957 -0.09114721 -0.117776595 0.04372542 0.21293388
0.14905898 0.04208628 0.2607912 -0.040650416 0.09449144 0.043306623 0.12685661 0.07315358

actor.2.weight f4 [64, 128]
00000000: e7a4 1a3d 19d6 12be 553e 3f3d 42f1 f1bd
00000010: 89dd 04be 31a7 0abe f13e 203e c139 c93d
00000020: 3988 bebd 7a0c ee3d abbf 9b3d aeac 51bd
00000030: 468e b1bd 6ca2 b93d df99 313c 7abe 083e
00000040: fecf 12be f90f c13d 4862 683c 58be 6d3d
00000050: 15a7 843d c51d 3e3e b3cd e93d d021 0dbd
00000060: d6e0 f4bd e479 863d 937b dfbd 4de3 25be
00000070: 6a5e d43d 2bd3 97bd 23bf b13d b3b6 7d3d
00000080: c727 5d3d 935e d23c 50a3 f4bd 5a89 a23d
00000090: e032 82bd 760c cfbd 7166 86bd 106a 083e
000000a0: 95de 89bc c444 073e 7fb5 49be 4696 55bd
000000b0: 5c75 cdbd 4ac2 833d 934d 453d 83fc d33d
000000c0: 50da ab3a 96a0 5fbd afea e33c 27c0 7abd
000000d0: 96ff 67bd 09ae 0fbd ea14 37bd 39fa a1bc
000000e0: 1042 153e 8c4e 353d 94c0 4fbd 0850 5cbd
000000f0: d7fc c13d 2bc4 bdbc ff5a 00be 817a 05bb
00000100: d15f b03d 09ae 0abd b36f 073c eda8 7bbe
00000110: 1447 d8bd 3d55 6a3d 3878 023d 8e08 973d
00000120: 49ff aa3d 4e6f 04be 538f 7a3c 43f5 e63d
00000130: 3b10 57bd 367a 12be b644 aabd 3537 b6bd
00000140: 4d9f 1d3e 86b5 983a 25e4 043c 0c75 29bd
00000150: d060 973d d766 693d 8bae a23c 5103 dabc
00000160: cfa0 e3bd edab f53c c7c2 00bd 26bb c0bd
00000170: 8e46 113e 8592 c63d c403 dcbd 0edb 2f3e
00000180: e83e 90bd a4ad 87bd c7ec 86bd 82e4 78bd
00000190: 3d3f 203e 0631 2fbc c3d8 9abc bd73 f4bd
000001a0: 16f0 adbd a9bc 14bd 341b 463d 4837 4fbd
000001b0: 96bb 1b3e ed00 f53d 94cd f33d 50df f83d
000001c0: e709 2fbd 6ca9 7d3d 0e9a 49bd abf3 543d
000001d0: a06d aabc 91b0 17be ef6e ee3c 33b0 2d3e
000001e0: 0759 76bd 58a3 183e c788 f0bd 2ccb c83c
000001f0: 794a be3d 4407 e9bd 1a06 96be 426f 1c3e
00000200: 0e83 13be a7d4 593d c1ec d4bd 0435 7abd
00000210: 657c 9abd 1167 013d c37f 2f3d 7eff 273d
00000220: 44a5 97bd 438a 23be 4b08 ccbc 423f 11bc
00000230: 5f70 4b3c 5858 2b3d 5cd4 b9bd d196 ddbd
00000240: 8185 333e 4db7 babd 989e 83be 2863 c8bd
00000250: abae 80bc dcde a6bd 8445 9e3a 7b52 bfbd
00000260: 6e1b 553d a05a 12be 80d6 2fbd cd8f 003c
00000270: a973 f9bd d0a7 1abb d58d 0abe 13d8 d0bd
00000280: ae08 1a3e 52b8 9a3d b398 b0bd 3fee 953b
00000290: 77b0 483d ffa5 3cbc 69b2 b7bd 77cc 4fbd
000002a0: 786b 813d 647e c1bd c0d4 563e 4272 93bc
000002b0: 80ed 3d3b 2317 84ba 824b 3fbe 9259 1e3e
000002c0: d138 29bd bef8 243e 0b3d 45be 034f d73d
000002d0: 7aab 0d3d 8325 fcbc a25e c13c 2be4 8f3c
000002e0: 94b6 a1bc 5002 e6bd 7fe7 bf3d 1e2d 1dbc
000002f0: a2a3 273d 124d 7dbd 134f fe3d 4f37 3abe
00000300: 3b66 38bd 39a8 8ebd f51e 3ebe 6d88 383e
00000310: b475 763d 1642 9ebd d618 31bd 715a 2dbd
00000320: 0683 ab3c d058 473e ea59 c3bc 1c81 ad3c
00000330: b53f 9abd eb52 e4b9 e716 4ebe b36c 2c3e
00000340: 3e56 f1bd 0ede 2abd 1423 1f3e d94d fa3d
00000350: 2825 b03d 9fe7 fbbc fd19 633d abeb 593c
00000360: cc17 55bd 7ab8 9ebd a9a2 163e adfe 333e
00000370: 4f9c 25bd 702b 2a3e 8e89 89be ce46 42be
00000380: a773 f5bd d394 0f3d 7a42 343c 3c14 aa3d
00000390: c554 583d fe70 1a3e dc32 e23d 5a2b c8bc
000003a0: e0ff 07be 0158 05be b3c8 7c3d d140 89bd
000003b0: 0b70 80bd b9ef 1c3e b5fb 393d 4023 d6ba
000003c0: e584 cb3d c547 b33c 93eb 853d 4e5a 5e3d
000003d0: 0f13 0e3e 3914 fa3d e06c 463c a266 5dbe
000003e0: 0ecb 553e c6c4 2dbd 0213 f03d ee86 2a3d
000003f0: 0510 adbd 9b52 35bc bfeb 6b3e 7d50 f63c
0.03775492 -0.14339484 0.046690304 -0.118135944 -0.12975134 -0.13540341 0.1564901 0.09825469
-0.09303326 0.116234735 0.07604917 -0.05119007 -0.08669715 0.09064183 0.010839908 0.13353911
-0.14337155 0.09426875 0.014183588 0.058042854 0.06477181 0.18566044 0.11416187 -0.034456074
-0.119569466 0.065662175 -0.10912242 -0.1619999 0.103695706 -0.07413324 0.086790346 0.061941814
0.053993013 0.025679862 -0.11945212 0.07936354 -0.0635736 -0.101097986 -0.06562508 0.1332171
-0.016829768 0.13209826 -0.19698142 -0.052145265 -0.1003215 0.06433542 0.048169684 0.10350897
0.0013111327 -0.054596506 0.027821867 -0.061218407 -0.05664023 -0.035078082 -0.04469768 -0.019772636
0.14575982 0.04426436 -0.050720766 -0.05378726 0.094720535 -0.02316483 -0.12534712 -0.0020367207
0.086120255 -0.03385738 0.008266377 -0.24576159 -0.10560432 0.057210196 0.03185293 0.073746786
0.08349473 -0.12933084 0.01529296 0.11277249 -0.052505713 -0.14304432 -0.08313887 -0.08897249
0.153928 0.0011650778 0.0081110345 -0.04137139 0.073915124 0.05698284 0.01985862 -0.02661291
-0.11114656 0.029989207 -0.031435754 -0.09410696 0.1418707 0.09695915 -0.10742906 0.17173406
-0.070432484 -0.06624916 -0.065881304 -0.060764797 0.15649123 -0.01069284 -0.018902188 -0.11936138
-0.084930584 -0.036312733 0.048365787 -0.05058983 0.15208277 0.11963067 0.11904445 0.121519685
-0.042734053 0.06192915 -0.049219184 0.051990192 -0.020804226 -0.14813448 0.029105632 0.16961746
-0.060143497 0.1490606 -0.11744838 0.024510942 0.09291548 -0.11378339 -0.2930153 0.15276816
-0.14405462 0.053181317 -0.1039672 -0.061085716 -0.075432576 0.031592432 0.042846452 0.04101514
-0.07404569 -0.15970711 -0.024906298 -0.0088651795 0.012416928 0.041832298 -0.090737075 -0.108197816
0.17531396 -0.09116993 -0.25706935 -0.097845376 -0.015708288 -0.08147976 0.0012075161 -0.09341904
0.052028112 -0.14292383 -0.042929173 0.007846785 -0.121802635 -0.002359856 -0.13530667 -0.10197463
0.15042374 0.075546876 -0.08622875 0.0045755203 0.048996415 -0.011514186 -0.08969576 -0.050732102
0.06319326 -0.09447935 0.20979595 -0.017998818 0.0028980672 -0.0010077696 -0.18681148 0.15463856
-0.04131395 0.16110513 -0.19261567 0.10513117 0.03458736 -0.030779606 0.023604695 0.017564854
-0.01974038 -0.1123091 0.09370326 -0.009593276 0.040927537 -0.061841078 0.12417426 -0.18185161
-0.04501937 -0.0696568 -0.18566497 0.18020792 0.060170844 -0.07727449 -0.043236576 -0.04232258
0.0209365 0.19467473 -0.023846585 0.021179728 -0.075316824 -0.00043549328 -0.20125924 0.1683834
-0.117840275 -0.041715674 0.15540725 0.122218795 0.08600837 -0.030750094 0.055444706 0.0133008165
-0.052024648 -0.0775003 0.14710487 0.1757762 -0.04043227 0.16618133 -0.26862758 -0.18972322
-0.119849496 0.03505404 0.011002177 0.08304641 0.052815218 0.15082166 0.11044857 -0.024434734
-0.13281202 -0.13021852 0.06171484 -0.06701816 -0.062713705 0.15325822 0.045406062 -0.001633741
0.09937457 0.021884808 0.06539073 0.05428534 0.13874458 0.122108884 0.012110919 -0.21621183
0.2087824 -0.042423986 0.117223755 0.041632585 -0.08450321 -0.011067058 0.23039149 0.030067677

actor.2.bias f4 [64]
00000000: e649 883d e1bd 613c a26a 02bc ef95 043e
00000010: b53a bbbd 7a49 c5bd da7c c93d 2d0a a73d
00000020: 5c9d d4bd 6e4f 81bd cbcc 5fbd a10d 17be
00000030: 6c19 dd3d e335 ca3d c030 063e c007 d3bb
00000040: bc28 c23c 017d 0fbd d48f ef3b 4513 95bd
00000050: 7704 553d 72d0 c23d 1338 9c3d 12d7 47bd
00000060: 6e59 073e 8d4e 05ba d506 c2bd 340b debd
00000070: 2fad 01bc c711 983d 1d2c 263d b865 563e
00000080: d956 d43d c4f7 1b3d 6b80 4a3d ad29 c93d
00000090: 889f bcbc f884 963c c094 16bc f467 a0bd
000000a0: 9c39 30bd b9a5 93bd ccd2 2d3d 5b5a 3bbe
000000b0: f6aa 953d 9aab 4b3c 4b47 be3b aef5 3c3e
000000c0: a087 7fbd a613 80bd 7215 bcbc e941 7cbd
000000d0: 3a97 f63d 928c 5abd 0ecf bd3d 1b18 01bc
000000e0: f8cf 093d 6e04 04be 6127 313c 1711 b6bc
000000f0: fb95 05be 805d 523c de06 efbd 319b 45bd
0.0665472 0.013778181 -0.007959994 0.1294782 -0.09142057 -0.09633155 0.09838267 0.08156238
-0.103815764 -0.06313978 -0.054638665 -0.14751293 0.107958645 0.09873559 0.13104534 -0.006440133
0.023701064 -0.035031322 0.007310847 -0.07279066 0.05200621 0.09512414 0.07627883 -0.04878909
0.13217708 -0.00050852523 -0.09473959 -0.108419806 -0.007914825 0.07425266 0.040569413 0.2093724
0.103681274 0.038078085 0.049438875 0.09822402 -0.02302529 0.018373951 -0.009190738 -0.078323275
-0.04302369 -0.072093435 0.04243736 -0.18296187 0.07307999 0.01243105 0.0058068386 0.18453094
-0.0623852 -0.06253748 -0.022959445 -0.061586294 0.12040563 -0.053356715 0.09268008 -0.007879282
0.0336456 -0.12892315 0.010812611 -0.022224946 -0.13045494 0.012839675 -0.11671232 -0.048243705

actor.4.weight f4 [16, 64]
00000000: fc39 783d 7644 a93e dd3f bd3d f074 093e
00000010: 912b b13e 312c bebe 390e c13d ec00 b93d
00000020: 877f 30be b3d5 223e d698 de3e 34dc c2bd
00000030: 7bb0 33be cf23 2fbe f156 e93e c234 a6be
00000040: 47c5 a13e 2276 b4be fc37 07bf 6adc a63e
00000050: 2fcc 453e c4ef 8a3e ef71 0d3e b986 b53e
00000060: bac2 203f 9163 26be fc6a cbbd e0aa a4be
00000070: bc0a e43e 2f7d b43e 0287 2b3e 15ee 66bd
00000080: 73cd 6dbe ff0e 06be e313 82bd 1abd 23be
00000090: 702b 18bf d94e 63be ce1f d3be 07c6 263e
000000a0: 6eee e5be b301 773d eb6d 933e 4e7c 4a3d
000000b0: 75b9 d039 e51a 77be cfd6 94be 9fa0 b2be
000000c0: 4a5c 573e d550 c43e fcce 7e3e af64 ac3e
000000d0: fd63 0b3e 206e 0abf 14f9 8f3e f768 e2be
000000e0: 4337 05bf 21bd 09be 45f8 df3e 35b4 b9be
000000f0: a7c1 593e 0a3c a0be a778 693e 88e6 3ebe
00000100: 20e7 363f 1b16 b33c 3602 32bd 80f1 25be
00000110: fd9b a63e f2c6 62be debe 2d3e 4e87 f63c
00000120: 451b 473d d8f4 ee3d ab16 f23e f6f3 dbbd
00000130: 5ccc 9cbe cefc 2dbe 587e 21bf 5311 1a3f
00000140: 8f7a 69be f2bf 23bf 0fec 49be ac66 053f
00000150: d8b3 2bbe 904f 1cbe 5f2a c33d 3e7f f33e
00000160: ce6a babe 24d6 14be 61bf 8ebd 8239 4d3f
00000170: 4123 37be 61de 33be ec65 463b 4e76 29bc
00000180: 4788 29bf 1092 31be 806a b7be a59e 94bc
00000190: 38a5 283e 524f 453d c98d 3d3e 7095 c63e
000001a0: 23e0 e83e c3fe 073e c2b8 3dbf 1dc7 d53e
000001b0: 8413 7c3d 3aa0 72be ddc4 a3be f493 b6be
000001c0: 081c 66be 3a67 7cbd 93af 4fbf 5fa9 6ebc
000001d0: d43c 80be 9681 be3e cb7e 81bd 917a c93e
000001e0: f281 d53d 5e3a 623f 208d 1fbb ba90 42be
000001f0: 43e9 023f cb11 be3e 8085 043e 58ad 8f3d
00000200: 6b93 443e c6b2 32bd 777e 953d a96e 733d
00000210: 053b 3ebe a7f7 383e f87f bbbe 805b 9cbe
00000220: 6165 6b3e c8f2 aebe 5b35 1c3e 8e37 653e
00000230: 4ecb 73bd eb6e 6d3e a206 1fbe 729c 8a3e
00000240: be82 1c3c 9f8f fc3d da08 c2bc 719d d4bd
00000250: 394e 733e 839c bfbe 2752 9fbe 2754 4e3b
00000260: 7177 a4bd d3cb 943e 0fc5 b83e cde5 ce3e
00000270: 0021 9b3e b5b6 5e3e 9a3f c6be cb4d 2f3d
00000280: 7ef4 0bbe 6dea 1a3e 2b92 bb3e c523 833e
00000290: 8b1b 50be 7970 bd3e 8f30 8b3d 12cd 95bc
000002a0: 2a3c 243c e053 823e 70b6 b4be 8890 95bd
000002b0: 47f4 b53e 8d46 3b3e 8f9e cc3d 69ad 343c
000002c0: abd3 2dbe fdaf d83b 76b0 22be 7b00 223c
000002d0: 5680 443d c545 54be b62e 80be 3a89 523e
000002e0: 15f5 00be c27f 5f3e 1c86 c3bd 886a e93a
000002f0: 7287 3abe 2ab6 a93e 440f 2dbe 8718 53bc
00000300: ed97 1ebf d582 363f 24e7 d7be c9bb 94be
00000310: 6274 12bf 9e38 8abe 7bf7 8f3d ffb1 973d
00000320: 53eb 923e f6e0 3b3e 184c d8be f459 04be
00000330: 4a7b 443f bef5 113e 3a1e 92bc 7d6a 94be
00000340: 01fd b73e d87b 96bd 88bd 373f 62fa 1cbe
00000350: e226 213e a797 223e cd2d 233e 9e73 33bf
00000360: b855 8b3d ae5e ebbd 1cf8 52be 4f8f 75bd
00000370: cdd8 2bbe 4b54 5abe b68a 153e a4b0 123e
00000380: e758 173e 8739 2ebe 1307 9dbe afd9 8d3d
00000390: e15d 27be ba82 86be 85ea 97bd 04f3 be3e
000003a0: 62ae 49be c766 86be 4e6d 35bd 5af2 a6be
000003b0: 036f fcbd 5176 9cbe e436 4e3e 1568 d9bd
000003c0: e9e3 50be e576 763e b794 143d 75c0 d4be
000003d0: 8753 7d3e 7368 6fbd a3de e43d e57e a6be
000003e0: 408f 173e a2ba acbe 6694 983d 017c 353f
000003f0: 12d3 1c3e 42bc 7fbe b8dc d23d ec5f d83e
0.060602173 0.33060044 0.092406966 0.13423514 0.3460355 -0.3714309 0.09426541 0.09033379
-0.17236148 0.15901832 0.4347598 -0.09514657 -0.1754779 -0.17103504 0.45574144 -0.32462126
0.31595823 -0.35246378 -0.528198 0.32590038 0.19316171 0.27136052 0.13812993 0.35454348
0.6279713 -0.16248919 -0.09932515 -0.32161617 0.4453944 0.35251758 0.1675072 -0.056379396
-0.23222904 -0.13091658 -0.06351449 -0.15990105 -0.5944128 -0.22198047 -0.41235203 0.16286479
-0.4490847 0.060304355 0.28794798 0.049434952 0.00039811028 -0.24131353 -0.29070136 -0.3488817
0.21031299 0.3834292 0.24883646 0.33670565 0.13612361 -0.5407429 0.2811972 -0.44220707
-0.5203745 -0.13451053 0.43744102 -0.362703 0.21265279 -0.31295806 0.22799931 -0.18642628
0.7144642 0.021861127 -0.04345914 -0.16205406 0.32540885 -0.22146204 0.16967341 0.030093815
0.04860999 0.11667794 0.4728292 -0.10739891 -0.30624664 -0.16990969 -0.6308341 0.60182685
-0.22800659 -0.6396476 -0.19718955 0.5210979 -0.16767824 -0.15264726 0.09529566 0.47558016
-0.3640961 -0.14534813 -0.069700964 0.80165875 -0.17884542 -0.175653 0.0030273153 -0.010343147
-0.6622357 -0.17340875 -0.3582344 -0.018142054 0.16469276 0.04817135 0.18511118 0.38785887
0.45483503 0.13280778 -0.74110043 0.41753474 0.06154205 -0.23693934 -0.31986132 -0.35659754
-0.2247163 -0.061621882 -0.8112728 -0.014566748 -0.25046408 0.3720824 -0.06323012 0.39351323
0.10425176 0.8837031 -0.0024345592 -0.19000521 0.5113718 0.3712295 0.12941551 0.070154846
0.1919686 -0.043627523 0.07299512 0.059431706 -0.18577202 0.18063222 -0.3662107 -0.3053856
0.22987892 -0.34169602 0.15254728 0.22384474 -0.05952006 0.23186843 -0.15529874 0.27072483
0.009552656 0.12332081 -0.023685861 -0.10381592 0.23760308 -0.37424096 -0.31117365 0.0031483264
-0.08030594 0.29061756 0.36087844 0.404097 0.30298615 0.21749385 -0.387204 0.0427988
-0.13667485 0.15128489 0.36634955 0.25613227 -0.20323007 0.36999872 0.06796371 -0.018286262
0.01002411 0.25454617 -0.3529544 -0.07302958 0.3553793 0.18288632 0.0999118 0.011027672
-0.16975276 0.0066127763 -0.15887627 0.00988781 0.047973953 -0.2072974 -0.25035638 0.2056016
-0.12593491 0.2182608 -0.09547064 0.0017808238 -0.18215731 0.33146793 -0.16900355 -0.012884266
-0.6195057 0.71293384 -0.42168534 -0.2904952 -0.57208836 -0.2699632 0.07029625 0.07406997
0.28695163 0.18347535 -0.42245555 -0.1292494 0.76750624 0.142539 -0.017836679 -0.28987494
0.35935214 -0.0734784 0.71773577 -0.15329888 0.15737489 0.15878163 0.1593544 -0.7009829
0.06803459 -0.11492668 -0.20602459 -0.059951123 -0.16781922 -0.21321218 0.14603695 0.14325196
0.14780007 -0.17014132 -0.3066946 0.069262855 -0.16344406 -0.2627161 -0.07417778 0.3729478
-0.19695428 -0.26250288 -0.044293694 -0.32606775 -0.12325861 -0.30559018 0.20138127 -0.10615555
-0.20399441 0.24068792 0.036274638 -0.41553083 0.24738894 -0.05844922 0.11175277 -0.32518688
0.1480074 -0.3373614 0.0745018 0.7089234 0.15314892 -0.24974158 0.10296005 0.42260683

actor.4.bias f4 [16]
00000000: d450 1c3b b4c2 053e 8611 88be 27db db3d
00000010: ebbe b4be d88c 4dbe b725 073e 0a4c 9cbd
00000020: f49c a1be a151 a03d 86a9 71be 77a0 b0be
00000030: 3ddf 173e a63e 8ebe b141 39be 45cf 6a3d
0.0023851888 0.13062555 -0.2657587 0.10735159 -0.3530191 -0.20073259 0.13197981 -0.07631691
-0.31565058 0.078280695 -0.23599824 -0.34497425 0.14831252 -0.27782172 -0.18091466 0.057326574

critic.0.weight f4 [128, 30]
00000000: 8e5c e7bd a317 a7bd 7b4c 623d 5c6c 17be
00000010: 7874 2dbe 61ab 8ebf 9e53 b9b9 b6e2 213d
00000020: 5e17 3b3e f6db b53c c041 d53e b2e7 dabd
00000030: b44c 08be f87e ee3b 2218 dabd 3ff4 c43d
00000040: 1df6 ac3c 2207 4c3e 124c 343e 78bf 363d
00000050: 1550 21bd cd4f 38bd c454 8e3d 5b9c 503d
00000060: b202 f63b 8d15 8fbd 6e8e c83d 7360 e9bd
00000070: 840c b43c b85b 053e 8174 dbbd 312f 303e
00000080: 141b 15be 446c b03d 5efc 663e 389d d03e
00000090: 5dc3 85be 7f37 a7be 78c6 a3bc b44f 93be
000000a0: 7215 93bd 4825 fd3c 0ac9 393e 2fbe c5bd
000000b0: 47fa 883d 6dcd 393d 9d19 8c3d cd48 a2bb
000000c0: 1b6d a6bd d0e6 103e c334 e73b c2d4 603d
000000d0: 5c5f bf3d e94b 9d3c 2e27 973d f89e d33d
000000e0: 7c5c d23c 09e0 083e 3b72 0c3e 8024 ccbb
000000f0: c115 fc3d 6476 de3d b681 833c dfdc e83d
00000100: 1c2a 283e fcfa 413c e410 0abf 7038 e9bd
00000110: eb69 913d c406 573e 9703 db3e 549b e3bd
00000120: 6d9b 71bc f8ed 81be eeb4 63be 7e2f d13d
00000130: bbe3 50bc 42dd 42bd 7dc7 f13d deb3 5b3d
00000140: c008 d63d 1650 f6bb 059f 763d 914d a33d
00000150: c2ba e53d f435 b83e 53de 0dbd c819 7fbe
00000160: 3cc6 09be 3d93 a63d 5331 ccbd 2cdb b7bd
00000170: 67af 43bd 971f 0ebe 1ad4 a7be 9299 793f
00000180: e73d cfbe d91c 78be 7aca f9bc 9dfb d33c
00000190: 0cf6 493d b8a7 5f3e 9474 613e 9307 83bd
000001a0: fc8c abbc 8af8 bdbd 99e5 133d 3603 e53d
000001b0: 5f5a c5bd bf9d df3d 2ac0 e3bc 61b4 57bc
000001c0: fa56 023d 0211 18be 8d03 e83a 9624 a03e
000001d0: 1de5 e9bd 2191 8cbd c67e d23d 867f 103e
000001e0: 93c9 a33b 65b6 613c dd7f 1bbe 70bd a0bd
000001f0: 6cbe d9bc b8ae 20bf 62bf 033f 8ffd c43c
00000200: 20ae bcbd ffdd 81be 78a2 2cbf 3d67 f4bd
00000210: 8021 95bc 9d3b b7bd f6b5 8cbc 4c5a 303c
00000220: 1dd1 8dbd 343b 5e3d 3661 d3bb 04a7 923d
00000230: 6d90 923e 553c 1bbc ae6d f63d ab78 bdb9
00000240: be58 0d3e bad0 55bd 3623 eabc 8f24 09bd
00000250: e715 803e 4c76 cf3d 86d9 5ebe e924 0a3e
00000260: b0d0 f93d 0b91 e63d 1e4a 0a3e 1cb7 c5be
00000270: 770b a8be ca3a 6abe 5be7 983d 59a1 07be
00000280: 3302 b73e 5f3f 03be 80f7 d03d 0729 2b3e
00000290: 8e5e 503d 6103 e6bd 7f41 54bb d017 4f3d
000002a0: 1ee2 5d3d 5499 42bd e95f 93be f267 8b3d
000002b0: 69e0 d33c fc6a dc3d 48ef c33d 2552 d8bd
000002c0: fc67 e43d 3a93 a3bd f70e d7bc 8233 923d
000002d0: bae0 ebba 12eb d73d 499e cd3c b5f1 ae3d
000002e0: 96dd 20bd 2ef5 60bf a43b b6be 9cd9 57be
000002f0: b392 b1bd 0f01 dfbd b029 233d f90b 123e
00000300: 4cb8 26bc f9a0 23bd b3b2 19be 8fd1 a43d
00000310: 58a7 87bd dee2 ccbd 53ba e43c 4207 8abd
00000320: 5d03 833e 8fec 313e 9c9f 3ebe 448d 5f3c
00000330: 5d4a 92bd 37b0 003d b5b7 b53d e2a0 35be
00000340: 2140 66be 1588 5e3d e7f7 d1bc b5ca c6bd
00000350: e657 fcbd 79ca f6bd c76c 26be be33 833f
00000360: f805 56bf 05a6 a5be 533c d8bd f06e 4abe
00000370: 5544 883e 5af1 063b 84a5 713d b4b8 09be
00000380: 5c2e c83d 69b1 39be 1ea2 083e 7622 4d3d
00000390: 7b89 7b3d a92e 07bc 4a06 4f3e fea4 95ba
000003a0: bc29 adbc 62fe 5c3d 07a5 87bc 87a3 ce3d
000003b0: 80cb 45be 6baf 95be 8300 ffbc db5e f6bd
000003c0: 5990 883d 4afc d83d 5820 a43d 9b25 1b3d
000003d0: a549 98bb 7cb7 dabe 6166 12bf b2f1 6cbe
000003e0: e721 29be 8e06 efbd 3117 c5be 06a7 453e
000003f0: 37d1 0f3d a4e4 bf3d 16ae 993e be49 563d
-0.1129695 -0.08158805 0.05524872 -0.1478743 -0.1693896 -1.1146051 -0.0003534825 0.03952285
0.18270633 0.022199612 0.41651726 -0.106887236 -0.1331051 0.0072783194 -0.10649134 0.09616899
0.02111345 0.19924596 0.17607144 0.044616193 -0.039383013 -0.04499798 0.069497615 0.050930362
0.0075076455 -0.06986532 0.09792791 -0.11395349 0.021978624 0.13023269 -0.10715581 0.17205502
-0.1456111 0.086144 0.22557208 0.40744948 -0.26125613 -0.32659528 -0.019992098 -0.28771746
-0.07181825 0.030901566 0.18143097 -0.09655415 0.066883616 0.045361925 0.06840823 -0.004952526
-0.08126279 0.14150548 0.0070558502 0.0548904 0.0934436 0.019201236 0.0738052 0.10333055
0.025678866 0.13366713 0.1371545 -0.006229937 0.12308837 0.10862425 0.016053062 0.11370253
0.16422313 0.0118396245 -0.53932023 -0.11387718 0.071002804 0.20998675 0.42776176 -0.11113611
-0.014746529 -0.25376868 -0.22236988 0.102141365 -0.012749608 -0.04757429 0.118056275 0.05363833
0.10450888 -0.007516871 0.060210247 0.07973779 0.11217262 0.35978663 -0.034635853 -0.24912179
-0.13454527 0.08133552 -0.09970345 -0.089773506 -0.0477747 -0.13879238 -0.32779008 0.97499955
-0.40476915 -0.24229755 -0.030492056 0.025876814 0.049306914 0.21841323 0.22017127 -0.06397929
-0.02094125 -0.09275921 0.036107633 0.11182253 -0.096363775 0.109187596 -0.027801592 -0.013165564
0.03182123 -0.14850238 0.0017701254 0.31277913 -0.11420653 -0.06863619 0.10278086 0.14111146
0.0049983948 0.013776396 -0.15185495 -0.07848632 -0.026580058 -0.627666 0.514639 0.024046687
-0.09212899 -0.25364682 -0.6743541 -0.11933754 -0.01820445 -0.08946917 -0.01717661 0.010763716
-0.06924651 0.05425568 -0.0064507974 0.07160762 0.28625813 -0.0094748335 0.120326385 -0.00036138794
0.13803384 -0.05220101 -0.028581243 -0.03348213 0.2501671 0.10129985 -0.21762666 0.13490643
0.12198007 0.112581335 0.13504836 -0.38616264 -0.32821247 -0.22873989 0.074660026 -0.13245143
0.35743865 -0.12817143 0.10203457 0.1671487 0.050871424 -0.11231113 -0.0032387672 0.05055982
0.05417072 -0.047509506 -0.2878411 0.06806935 0.025863843 0.10762593 0.09567124 -0.10562543
0.11152646 -0.079870656 -0.026252253 0.071387306 -0.0017996051 0.10542883 0.02509989 0.08542196
-0.03927382 -0.87874115 -0.35592377 -0.21079105 -0.08670559 -0.10888874 0.03983468 0.1426238
-0.010175776 -0.039948437 -0.15009575 0.08047783 -0.06623715 -0.10004209 0.027920878 -0.067396656
0.25588503 0.17375396 -0.18615574 0.01364452 -0.0714309 0.03141805 0.0887293 -0.17737153
-0.224854 0.054328997 -0.025630904 -0.09706632 -0.12321453 -0.12050337 -0.16252433 1.0250165
-0.8360286 -0.32353225 -0.10558381 -0.19768882 0.26614633 0.0020590634 0.05899574 -0.13449365
0.09774467 -0.18134083 0.13343093 0.050081693 0.06141041 -0.008250871 0.20217243 -0.0011416969
-0.021138065 0.053953536 -0.016558183 0.10089784 -0.1931591 -0.29235396 -0.031128174 -0.12029811
0.06668157 0.10594995 0.080139816 0.03787766 -0.004647451 -0.42718112 -0.5718747 -0.23139074
-0.16516839 -0.11671172 -0.38494256 0.19301996 0.035111632 0.093697816 0.3001563 0.05231642

critic.0.bias f4 [128]
00000000: 375e 8bbe a074 c63c 2fbb bebd 278b cf3d
00000010: c866 253e 555c debd fbb9 f7bd 1016 5d3d
00000020: ae0e 7b3e f85f 6ebe 752d 933d 0030 243d
00000030: c7de 08be 4618 ea3e d8b7 bbbc 2946 5bbe
00000040: 5c88 19bd cc12 c3bd b317 2c3e 1220 8e3e
00000050: 6458 023e 4d03 0cbe 5c22 593e 3f58 003e
00000060: 6426 f7bc 5438 c43d fc28 ab3d 66d5 79bc
00000070: 38b1 5d3e 25da 213e 9513 1e3e eede c2be
00000080: fb92 c13d 404f a63d b068 1cbe 1f82 16be
00000090: 885f 69bd 7819 e23c 0917 27bd c3be 9e3d
000000a0: d46c 443e 357b 2c3d 0428 99bd ed5c f23d
000000b0: 32f7 9d3e 48eb d83d 9e5f 46bb c3e6 6cbc
000000c0: d98e ab3e 1aee 3cbe 2724 d63c 6e55 95bd
000000d0: 8d96 0a3d 1886 df3d f98c c4bd 1fc2 683e
000000e0: f345 76bc 30db bd3c 5346 ea3e 3e8d 883e
000000f0: becc 37be 72eb 063e c16e 0d3d 0059 ad3e
00000100: 9bbf 693e dc9a 3f3d c1f9 d7bc 56f9 a7bc
00000110: e22c 3ebe 8401 913e 1ea8 463e 5e2b 943e
00000120: 4b4e 7f3e 830a a3bd 9055 d53e ac8f 003e
00000130: 664e 49bd 4337 323c df83 4cbe 548a c7bc
00000140: 4f34 f93d c22e b3bd a270 1abe aec8 23be
00000150: de36 353e f11f 813e fbc1 21be 93dd e63d
00000160: fd1a 133e 5fa0 ab3c e9b1 403d fa14 f2bc
00000170: 2638 663e c699 fa3d 541e fa3d db73 673d
00000180: c186 463e 0ac7 aebd 773f 813e f5f3 903d
00000190: 4ccd 62bd 7302 773d d5e2 ff3d f697 a53d
000001a0: a236 3a3d 6fa9 d0bd 6264 f43d 4778 283e
000001b0: c3b1 0cbe be95 883e 7382 c33d db4f 223e
000001c0: c036 c6bc 640b 5d3e 248c 803d edc1 13be
000001d0: 3e5a 213e 934c 853d a8f1 dcbd f15c ebbd
000001e0: 233a d9bd 482f 16bd 1e83 b13d dbb9 8fbd
000001f0: 597f 6b3e 8928 32be 7efe 893e c833 aebe
-0.27220318 0.024225533 -0.09313046 0.10133963 0.16152489 -0.10857455 -0.1209602 0.05397612
0.24517319 -0.23278797 0.071864046 0.04008484 -0.13366233 0.45721644 -0.022914812 -0.21413483
-0.037483558 -0.095250696 0.16805916 0.27758843 0.12729031 -0.13673134 0.21204513 0.12533663
-0.030169673 0.09581056 0.083574265 -0.015248632 0.21649635 0.15805872 0.15437157 -0.38060707
0.094518624 0.081205845 -0.1527431 -0.14698075 -0.05697587 0.027600035 -0.040793452 0.07751229
0.1918214 0.042109687 -0.074783355 0.118341304 0.30852658 0.10591751 -0.0030269395 -0.014459315
0.33507422 -0.18450204 0.026140286 -0.07291685 0.033834983 0.10914248 -0.09597201 0.22730301
-0.015031326 0.023175806 0.45756778 0.2667026 -0.17949197 0.13175753 0.03452945 0.33856964
0.22826998 0.046778545 -0.02636421 -0.020504635 -0.18571809 0.2832147 0.19400069 0.28939337
0.2493221 -0.07960989 0.41666842 0.12554806 -0.049147032 0.010877433 -0.1997218 -0.024357952
0.1216818 -0.08749153 -0.15082029 -0.15994522 0.17696711 0.25219682 -0.15796654 0.11272731
0.14365764 0.020950494 0.04704467 -0.029551018 0.22482356 0.12236361 0.12212816 0.056506973
0.19387342 -0.085340574 0.25243732 0.07077781 -0.055371568 0.06030507 0.12494437 0.08085625
0.04546226 -0.10188567 0.11933209 0.16452132 -0.13739686 0.26676744 0.095463656 0.15850775
-0.024196029 0.21586376 0.0627673 -0.14429446 0.15757081 0.06508746 -0.1078828 -0.114923365
-0.10606792 -0.036666185 0.08667587 -0.07017871 0.22997798 -0.17398275 0.26951975 -0.3402388

critic.2.weight f4 [64, 128]
00000000: 16bb f33b 5efb 06bd ef29 7c3c ec4c 57be
00000010: 0ce7 db3d bba3 693d d194 7b3d 1f18 913b
00000020: e74b 50be a983 ae3d 0b46 9fbe 9b34 b03d
00000030: 0a84 043d b6ed 60be 46a4 a13b c7e3 ac3d
00000040: af6e 45bc 1a79 abbc 48bd 913d 3814 2c3d
00000050: 5906 5abd 96a8 39be 806e ee3b a4eb 02bc
00000060: 4099 e8bd 03dc a9bd 54ec 013e 0247 33bd
00000070: 6417 c5bd c3be adbd d57f 863c 2489 b13d
00000080: b9ff c4bd 890e 9b3c 7e65 d53d 553e e53d
00000090: 9575 78bd 15f1 22be 1430 ad3d 2fdb 973c
000000a0: 971f 9a3c 96ca b0be 3998 7dbd 3e06 343d
000000b0: 09b6 6ebd 1681 1b3d 3f02 973d 84c9 2c3e
000000c0: f746 afbe 2731 bc3c 32c3 f0bd 8333 b53d
000000d0: 0a31 ce3c 118f de3d a03e a23d 8304 903b
000000e0: 595e 7ebd 6ce8 673e 6ec3 40be 616d 8c3d
000000f0: 23df 1c3d 5d90 283e a5f1 afbd bd0d 34be
00000100: 7981 5ebd c09a cf3a 61a5 763d 3dac 0abd
00000110: adbc 07bd a75a 70bd 0c40 d0bd 5728 fdbd
00000120: 1bd3 b5be 8e57 d13a e572 22be 585f a0bc
00000130: 77dc e5bc a6f7 5d3d c91a f2bb 0b9a be3d
00000140: eb1b db3b e42f c73d ab7b 98bd f29d 5c3d
00000150: 72c0 4bbc 771f b3bc 5e46 063e 4ba0 163d
00000160: 4f64 06bd 48cd 6ebd 2a82 053d 3e09 13be
00000170: 8492 e63d 1db3 6ebb 58d9 053d 8f3e d73c
00000180: fc8e 933c 22d0 7b3d 8745 0fbc 3bb0 1bbd
00000190: a986 bf3b e4bd 0ebe 80a6 293c cd48 5dbe
000001a0: 365e 0fbc 3a50 993e db41 2c3d 5c86 e6bd
000001b0: 41df 393d c404 81bd 4b5a a8bb 63f6 86bd
000001c0: ad4d aebd 8700 acbd c686 633c dfad e83d
000001d0: 9702 50bd 4fdb 063c 9514 5d3e 4570 9abd
000001e0: 0b35 d63c afe9 b3bd e1d2 083e 9d89 303d
000001f0: b8f6 993d 70eb 003e 75ad b0bd 46f6 1d3b
00000200: f8bf a83d e242 7d3c 32de e13d 72e0 273e
00000210: 0a53 76bd 55c9 8b3a e1de 753c 6e7c d23d
00000220: d15c e23d f580 9e3d 5b4c 033e 7bfc babd
00000230: e668 8c3d 1d12 e03d f843 f93d dd28 f73a
00000240: 7a6b f6bc 3a18 dd3d b41d b63d 2f39 313e
00000250: 0cba 90bc 79ff 68bb b158 9c3b 9539 fd3d
00000260: f186 fa3d c118 2c3e d1fc 093d 53b0 e1bd
00000270: 7308 f3bd eb09 213d 1c80 5bbd 9805 0d3d
00000280: 0c07 4bbd 57a4 a43d 88bd 0bbe e1ed c93c
00000290: 9a18 52bd 27d9 003d e17f d8bd 9a9e ecbd
000002a0: 6c9f 0d3d 6855 2a3c 06d2 6c3d 8d31 87bd
000002b0: 42ad adbd 2dae c8ba 3508 273d 8d04 cfbd
000002c0: e7af 703c 5cf6 293d eb4c 953d 90e3 e63c
000002d0: 03fb d63c 3531 a93d aa87 1b3d aa93 fe3d
000002e0: 8164 073d e7e1 3abd edaa 74bd 42b9 7b3c
000002f0: 360c d83d 9c2c d0bb f90f b2bd 9c24 06bd
00000300: 4e79 9dbd 0c84 933c ecc5 8a3d 51bd 333e
00000310: 62b9 97bc 3571 5a3d d128 983c af5d bebd
00000320: a7ff d7bc 5139 293d 91cd 47be 3606 3e3d
00000330: b260 bd3c 1787 ae3d b39a 48bd 930e 9b3d
00000340: 0dd5 65bd 9ead 42bc ef69 9f3d 0be2 503c
00000350: cf67 ee3d eed5 043e a683 e4bc 55d7 103e
00000360: 8747 053d 8c0f 943d 35d9 463e 428a 0a3c
00000370: e0ce 7cbd cb02 603d 2d08 13bb c27e 353d
00000380: 2061 bdbd 95e7 953b c408 13be a9fd 3039
00000390: 5c6d 303b dad2 7a3d 7933 21bd fd35 57bd
000003a0: b533 1e3d c8ff 58bc 8e52 c13c a38a cabd
000003b0: 7b86 b6bd 8ab2 b4bc f324 07bd ca6a 673d
000003c0: 494d c03c 01a8 5d3c e041 633e 9108 323d
000003d0: 312e fd3c a53f bdb8 fcb7 93bd 317a 6f3d
000003e0: 0bc8 253c 03f9 96bd ecbd e7bb e85e fc3c
000003f0: bb2e fbbc 4c0f 1fba 64b1 02bd 2c75 62bd
0.007438074 -0.032954566 0.015390857 -0.21025437 0.10737428 0.05704091 0.06142122 0.0044279243
-0.20341454 0.08521206 -0.31108126 0.08603784 0.032352485 -0.2196568 0.004932913 0.084418826
-0.012050315 -0.02093177 0.07116181 0.04201147 -0.05322871 -0.18130717 0.007276356 -0.007990751
-0.11357355 -0.08293917 0.12687808 -0.04376889 -0.09623602 -0.084836505 0.016418377 0.086687356
-0.09619088 0.01892783 0.10419749 0.111935295 -0.06065901 -0.15912278 0.08456436 0.018537132
0.018813891 -0.3452956 -0.06191275 0.043951266 -0.05827907 0.037964903 0.07373475 0.16873747
-0.3423383 0.022972656 -0.117559806 0.08847716 0.025169868 0.108671315 0.07922101 0.004395069
-0.062101696 0.22647256 -0.1882455 0.068568 0.038298737 0.1646132 -0.08591012 -0.17583366
-0.054322693 0.0015838966 0.06021631 -0.033855665 -0.03313892 -0.058680203 -0.10168466 -0.1236121
-0.35512623 0.0015971528 -0.15864141 -0.019576713 -0.028059227 0.054191254 -0.007388447 0.09306725
0.0066866777 0.09725931 -0.07445463 0.053861566 -0.012436019 -0.02186559 0.1311278 0.03677396
-0.032810505 -0.05830124 0.032594837 -0.14358994 0.112584144 -0.0036422678 0.03267798 0.026274947
0.018012516 0.061477788 -0.008744604 -0.038009863 0.00584491 -0.13939625 0.010354638 -0.21609803
-0.008750489 0.2994402 0.042054992 -0.11256096 0.045378927 -0.06299737 -0.005137717 -0.06589963
-0.08510909 -0.08398538 0.013887113 0.11361288 -0.05078372 0.008230998 0.21589883 -0.07540945
0.02614834 -0.08784806 0.13361694 0.04309999 0.07517761 0.12589812 -0.08626834 0.002410309
0.0823974 0.015457841 0.110287085 0.16394213 -0.060137786 0.001066486 0.015006752 0.10277639
0.110528596 0.0773944 0.12822096 -0.09130188 0.06855945 0.10940955 0.12171167 0.0018856783
-0.030080546 0.107956365 0.08892384 0.1730697 -0.017666839 -0.0035552664 0.004771315 0.123644985
0.12232769 0.16806318 0.03368837 -0.11019959 -0.11866846 0.0393161 -0.05358897 0.034429163
-0.049567267 0.08039158 -0.13646519 0.024649562 -0.051292993 0.031457093 -0.10571266 -0.11553688
0.034575865 0.010396339 0.05781748 -0.06601248 -0.08480312 -0.0015310697 0.04077931 -0.1010829
0.014690376 0.041494712 0.072900616 0.028184682 0.026242739 0.082613386 0.037971176 0.124305084
0.033054832 -0.045625594 -0.05973332 0.015363993 0.10549204 -0.006352974 -0.08694453 -0.032749757
-0.07689153 0.0180073 0.06776032 0.17552687 -0.018521015 0.05333062 0.01857415 -0.092952125
-0.026367022 0.041314427 -0.19512011 0.046392642 0.023117397 0.0852186 -0.048975658 0.07571139
-0.056111384 -0.011882214 0.07783877 0.012749205 0.11640894 0.12972233 -0.027894806 0.14144643
0.032538917 0.07229528 0.19418795 0.008455815 -0.06172073 0.054690164 -0.0022435293 0.04431034
-0.09247041 0.004574726 -0.14358813 0.00016879164 0.0026920652 0.06123624 -0.03935573 -0.05254172
0.03862353 -0.013244577 0.023598935 -0.09889724 -0.08912369 -0.02205779 -0.032994222 0.056498326
0.023474352 0.013528825 0.22193098 0.0434652 0.030905815 -9.024077e-05 -0.072128266 0.05846614
0.010118495 -0.07371714 -0.007072201 0.030806974 -0.030661931 -0.0006067648 -0.031907454 -0.055287525

critic.2.bias f4 [64]
00000000: ebb5 2cbe e9b2 95bd 51e7 1b3d e248 d73d
00000010: f1b2 baba 66c8 82bd 5b2b 813a fba8 e13c
00000020: ad3a 8b3d e3b0 093e 5cd3 89bb a714 bbbc
00000030: 05ad 123d 620e 023d b3bc cfbb 06b7 2fbb
00000040: ca30 3dbe 562f 183e 8894 083c 0bee 06be
00000050: 6407 a0bd 7571 7cbd 8b9a ddbd dd74 163c
00000060: 8814 b0bd c145 9dbd 3cb9 8f3b 0e71 263d
00000070: f1d0 87bc ef3d f7bd 3176 0dbd e248 d23c
00000080: 58aa 17be 59ce a6bd f072 20be 4951 44bd
00000090: c3e2 a73d 74c3 293d 364e 373e e364 f53d
000000a0: 97b4 ccbc a968 6f3d 6055 15bd 28b9 5fbe
000000b0: f641 0d3e 278f b93d 40ee 8fbc 9548 1ebd
000000c0: 0445 6dbc 928b db3d 9bb5 05bd 7cb0 d93c
000000d0: 2b86 1bbd 41b7 d33d 4be5 26bb dcf2 9dbc
000000e0: bd84 deba f238 0abe e930 28bd 9fa0 273d
000000f0: fca1 5a3e 6f0c 2abd 40e2 1ebd bc20 a33d
-0.16866271 -0.07309515 0.038062397 0.10511948 -0.0014244003 -0.06385879 0.000985484 0.027546396
0.06798301 0.13446383 -0.004206104 -0.022836996 0.035809536 0.031751998 -0.0063396334 -0.0026811971
-0.18475643 0.14861807 0.008336194 -0.13176744 -0.0781391 -0.06163164 -0.10820492 0.009183136
-0.08597666 -0.0767932 0.0043860953 0.04063516 -0.016579123 -0.1207236 -0.034536544 0.025669519
-0.14811075 -0.081448264 -0.15668845 -0.047929082 0.08197548 0.041446164 0.17900929 0.11982133
-0.024988456 0.05844942 -0.036458373 -0.21847975 0.13794693 0.09060507 -0.017569661 -0.03864344
-0.014481787 0.1071998 -0.032643896 0.026573412 -0.03796975 0.10337687 -0.002546626 -0.019280843
-0.0016976815 -0.13498285 -0.04106227 0.040924665 0.21350855 -0.041515764 -0.038789988 0.07965228

critic.4.weight f4 [1, 64]
00000000: 528f 8a3e 9f2b 823d 7aaa 9c3d 8a04 24bf
00000010: 98d9 a33d 8c8e c0bd 5ce1 0bbf 7083 d2bd
00000020: e851 ab3c db7d 52bf 93aa 2fbe 231e 3b3d
00000030: 528b 5f3e e8c0 68bd 413b 7e3e d052 39be
00000040: dbaf 413f 0129 e9bd ede4 c6bd 95fb c63d
00000050: 95a2 13be dea5 c6bd 52e4 26be b39e c73d
00000060: 0b77 92be f638 5a3e 9ad3 cf3d a9ca 0dbe
00000070: d5a5 3f3e 1662 843e 09e0 6b3d e36e abbc
00000080: 5d3b bb3e 33be 1f3f 8085 2e3e 9523 213e
00000090: b35a 6f3d c64a 073e 466d f0be 720f 24bf
000000a0: 7855 e53d e0f6 47be d7db d63d b51b c13e
000000b0: 6e75 1cbf c55b 1e3e 7875 7dbe 40d2 6ebe
000000c0: bda7 e3bb 4680 50be 034b c03d 7ddc 963b
000000d0: 53fe 03be 6583 b33d 8681 143d 8cb5 463e
000000e0: 97f1 193e d0d1 813e ef6f 1a3e bed9 19bf
000000f0: 087a f9be 243b 04be 6e4d c5bd 3ba2 823d
0.2706247 0.06355976 0.07649703 -0.64069426 0.08000487 -0.09402189 -0.54640746 -0.10278976
0.02091308 -0.8222329 -0.17154913 0.045683037 0.2183049 -0.056824595 0.24827291 -0.18097997
0.7565896 -0.11384774 -0.09711633 0.09715954 -0.14417489 -0.096996054 -0.16298035 0.09747066
-0.28606448 0.21310791 0.10147782 -0.1384684 0.18715604 0.25856084 0.057586703 -0.020926898
0.36568728 0.62399596 0.17043114 0.1573623 0.058436107 0.13212118 -0.4695837 -0.6408607
0.111979425 -0.19527769 0.1049115 0.3771645 -0.61116683 0.15464695 -0.24751842 -0.23322392
-0.006947486 -0.20361432 0.09389307 0.004603921 -0.12889986 0.08765296 0.036256336 0.19405192
0.15033565 0.25355387 0.15081762 -0.60097873 -0.48725915 -0.12913185 -0.09633909 0.06378599
