PPO_preTrained/update_throughput/PPO_update_throughput_0_75.pth (torch, 105665 bytes, 11 tensors)

actor.0.weight f4 [128, 30]
000000 6e 51 a0 3b 09 fb 2c 3d b2 a7 50 3e 3b 86 3f 3e
       0.0048925197 0.042231593 0.2037647 0.18703549
000010 f6 45 c2 3d 4f d3 82 3d 56 41 86 be 5e 9c ce bc
       0.09486 0.0638796 -0.26221722 -0.025221046
000020 8d 85 57 be bf 73 d0 be ba 85 6a be f8 5c c5 bd
       -0.2104704 -0.40713307 -0.22902575 -0.09636873
000030 d0 2d 85 bd 0d 50 f3 3d d1 18 29 be 6b 3c 96 3e
       -0.06502879 0.11880503 -0.16513373 0.2934297
000040 98 3f 13 3d 39 f8 7f bd a5 a2 01 bb b5 41 20 bb
       0.03594932 -0.062492583 -0.0019780782 -0.0024453227
000050 59 d1 08 bc a0 50 19 3e ca 93 7b 3d e0 10 2c bd
       -0.008350694 0.14972162 0.06142024 -0.04200828
000060 b0 8d 77 bd d3 03 d4 3e 4d b0 9a 3d 13 04 af bd
       -0.060437858 0.41409168 0.07553158 -0.08545699
000070 8f 01 ce bc 76 2f be bd 95 4e 94 3d dc 7d 1f bc
       -0.025147228 -0.09286396 0.07241551 -0.009734597
000080 62 ea b8 3d 41 34 fa bc 34 a3 11 3e 95 b4 fd 3c
       0.0902908 -0.030542495 0.14222413 0.030969897
000090 1f 14 bf be 48 80 bc bd 1f f6 74 3e 80 a7 10 be
       -0.3732004 -0.09204155 0.23922013 -0.14126396
0000a0 01 83 44 bd b5 44 84 3e 4b a3 57 3e 56 b1 63 3e
       -0.047976498 0.2583367 0.21058385 0.22235617
0000b0 c9 6d 04 3c 86 fb 0a bc 1e 9c 52 be f4 49 13 be
       0.008082815 -0.008482819 -0.20567366 -0.1438368
0000c0 d8 ba 00 be 0e 85 91 be 2b 60 92 bd f2 6d 29 3e
       -0.12571275 -0.28421825 -0.07147249 0.16545847
0000d0 c4 ca 08 3e 4d 3a e5 bd 76 2b 23 3d 14 a7 d4 bc
       0.13358599 -0.111927606 0.03983637 -0.025958575
0000e0 a4 83 66 bd e8 a3 49 3d aa 41 f9 bd 26 53 ff 3c
       -0.056277886 0.04922858 -0.121707276 0.031167578
0000f0 53 75 bd 3d 4e 1e a5 3c da ec 25 bd 86 0e 24 3e
       0.092508934 0.020156052 -0.040509082 0.16021165
000100 24 4f 9c bd 98 08 8c be 81 4f 84 3e dc fe 73 3d
       -0.076322824 -0.27350307 0.25841907 0.059569225
000110 e5 2f 56 3e 9a 20 d7 be 6b ac 99 bd 6a fb 3b be
       0.20916708 -0.4201706 -0.07503589 -0.18357626
000120 42 70 16 3d a7 d1 f1 3c ca 15 8e bd 79 b2 9f 3d
       0.03672815 0.029518915 -0.0693775 0.07797713
000130 61 d9 45 3e 99 4d a7 3d 69 54 af bd 0e bd d1 bd
       0.19321205 0.081690975 -0.08561022 -0.102411374
000140 5f d2 f1 3c d1 9e 1c 3e ef 19 c6 3d 8d e1 e1 3d
       0.029519258 0.15294959 0.09672915 0.110293485
000150 21 11 1f 3c c6 d4 0e 3e 05 cb 44 3e ea 83 f8 3d
       0.009708674 0.13948354 0.19218071 0.121345356
000160 7f 3e f0 3d 3d f3 15 be ab f6 bc 3d 04 e0 07 3e
       0.1173067 -0.1464357 0.09226736 0.13269049
000170 8e bd 20 be f2 7d 0b 3e 6b 30 3e 3c f1 88 f5 3d
       -0.1569731 0.13622263 0.011608223 0.1198901
000180 c2 6e f6 bc d5 54 79 bd 3c 82 40 be 7a 74 08 be
       -0.03008211 -0.060871918 -0.1879968 -0.13325682
000190 34 69 59 be 9d 25 24 3e 47 c9 28 bd 52 54 bf bd
       -0.21231538 0.16029973 -0.041207578 -0.09342255
0001a0 7c 6a f5 bc 7e 54 ff bc 23 8e b1 3d 8e 31 50 3d
       -0.029958002 -0.031168219 0.086696886 0.05082851
0001b0 2b 74 29 be e5 f4 80 be da 71 d5 bd 1a ff b7 3d
       -0.16548221 -0.2518684 -0.10422106 0.08984204
0001c0 09 26 9b 3d 72 74 0d 3e 32 19 ad 3d 8d 9f c1 ba
       0.07575614 0.13813952 0.08452071 -0.0014772281
0001d0 d6 cd 15 be 65 77 2b 3d 34 25 ba bd 33 06 01 3d
       -0.14629301 0.04186191 -0.09089127 0.031500053
0001e0 62 ba 74 bd b9 de 03 3e 76 25 1b 3e 9a e5 64 3e
       -0.05974806 0.1287793 0.15151009 0.22353211
0001f0 91 72 42 bc 2c ec 23 3e 44 fc 85 3d af da 46 3c
       -0.011868135 0.16008061 0.065422565 0.012137099
000200 b2 4f 0d be fb a1 b8 bd 0f 37 a4 be 95 2f e8 3d
       -0.13799933 -0.0901527 -0.32073256 0.113372006
000210 7f 0b 5b 3d b0 63 6f bd 53 80 ae bd 53 7e 60 bc
       0.05347776 -0.05844468 -0.0852057 -0.013701993
000220 2a 65 3c bd 16 bb 56 3d 1d 15 77 bd f0 a6 19 3e
       -0.045994915 0.052424513 -0.06032287 0.15005088
000230 61 23 04 be bb b0 aa 3c 61 27 de 3d 29 c5 3c bd
       -0.12904121 0.020836225 0.10847355 -0.046086464
000240 ec 84 62 be d3 b5 fe bd a1 6b 9c 3d 72 1d cc bd
       -0.22121018 -0.12437024 0.07637716 -0.09966554
000250 31 03 78 3d b4 14 6b ba fd 59 1a 3e a8 f0 1e be
       0.06054992 -0.00089676236 0.1507339 -0.1552149
000260 07 b4 58 3c 0b 2f ea 3d 23 27 fe 3d 4a 14 e6 3e
       0.013226516 0.11434754 0.124098085 0.44937354
000270 ea 1d a5 bc 70 01 8b 3c b2 63 8b 3d bf b3 0d bd
       -0.020155866 0.016968459 0.06806125 -0.034595247
000280 c1 ce 7b be 8d e3 cf 3c 52 2a 2c ba cb d2 6c 3e
       -0.24590589 0.02537706 -0.00065675855 0.23127286
000290 9f c9 38 bc 7e 24 61 bd 45 60 7b 3d a3 47 13 3e
       -0.011278539 -0.054966442 0.061371107 0.14382796
0002a0 04 f0 a3 bd 9a bd ef bc 4a 42 1c 3e 5e 84 6f 3d
       -0.08004764 -0.029265214 0.15259662 0.058475845
0002b0 da ae bc bc 05 78 f5 3d a2 04 20 3e 73 0b 39 be
       -0.023032594 0.119857825 0.15626767 -0.18070774
0002c0 bb 42 fd bd 03 f7 97 3d 85 87 2f 3e e3 9b 54 bd
       -0.123662435 0.074201606 0.1714154 -0.051906478
0002d0 a7 7b 23 bd 24 bf dd 3c d6 2d cf 3c 38 32 ee bd
       -0.039912846 0.027068682 0.025290411 -0.11630672
0002e0 81 7a ca 3d 61 db 6a 3e dd 89 3d be 1d cd c3 bd
       0.09886647 0.22935249 -0.18509622 -0.09560607
0002f0 e2 f3 21 bd ed 8a 8f be f5 6c 39 3d 5a df 04 be
       -0.039539225 -0.2803568 0.045269925 -0.12975827
000300 28 17 91 bd 29 3f 9b bd a1 9e 75 bd 5c 5a 0e bd
       -0.07084495 -0.07580406 -0.059965733 -0.034754142
000310 69 ae ab 3d da 57 a6 bd dc 79 11 be 8e 9e 6a be
       0.083828755 -0.08122225 -0.14206642 -0.22912046
000320 9e 14 23 be b5 14 69 3d 31 92 31 bb 94 9e c7 bc
       -0.15925834 0.056904513 -0.0027095194 -0.024367608
000330 8f 7a 76 3e 2a 3c a1 bd ba d9 8f 3d 75 81 3f 3e
       0.2407019 -0.078728035 0.0702395 0.18701728
000340 a4 1d fc bd b4 c2 64 3d d5 66 42 bd 94 f8 9f 3c
       -0.12310341 0.055849746 -0.04746135 0.019527711
000350 d5 94 93 3d 78 b2 aa 3d ca 9f a1 3c 86 a4 5b be
       0.07206122 0.083348215 0.019729514 -0.2144948
000360 51 d7 65 3e 2f 18 fc 3d b1 bb 69 3d 40 6e cf bd
       0.22445418 0.123093 0.057063762 -0.101284504
000370 78 e7 7c 3e 7e 62 7a be de 45 20 bd 68 4d 13 be
       0.24697673 -0.24451634 -0.03912913 -0.14384997
000380 3c 82 02 bb c0 01 2b 3e a7 89 15 3e 95 39 40 bd
       -0.0019914052 0.16699886 0.14603291 -0.046929915
000390 b6 1d 24 be 07 24 c6 3d c2 7f 3e bd d9 60 b7 3d
       -0.16026959 0.096748404 -0.046508558 0.08954019
0003a0 56 02 1c 3e 6c 31 c0 bd 90 c1 1f be 7b ce 81 3e
       0.15235266 -0.093844265 -0.15601182 0.25352845
0003b0 ba 95 be bd 7b 8a e5 3d e6 1b 56 3e ca a2 aa 3c
       -0.09305902 0.11208054 0.2090908 0.020829577
0003c0 ff 8e ce 3d 46 42 4c 3e d8 f2 2b be 20 dd 32 3e
       0.10085868 0.19947156 -0.16791856 0.17467165
0003d0 61 e6 1a 3e 7f 0d 8c 3d 83 d2 10 be d0 f6 5b bc
       0.15126945 0.06838512 -0.14142804 -0.013425544
0003e0 9f 64 84 be 35 69 36 3e 41 7b 25 be 0e 4e ac bd
       -0.25858018 0.17813571 -0.16160299 -0.08413325
0003f0 b6 dc 5b be 96 fa 91 3d d4 f0 7b be 68 39 ae bc
       -0.21470913 0.071278736 -0.24603587 -0.021267608

actor.0.bias f4 [128]
000000 d1 de 4f 3e 00 6b e4 3c 2d 17 22 be 19 a3 4e bd
       0.20299841 0.027883053 -0.15829153 -0.05044851
000010 a2 d8 e7 3c 75 a9 23 3e 4f b6 0e 3d 83 b2 bd bd
       0.02830154 0.15982611 0.03484183 -0.09262564
000020 84 0b 96 3b 80 4a 55 3d 35 eb 52 3e 28 9d 50 3e
       0.0045790095 0.052073 0.20597537 0.2037245
000030 e1 d0 61 3e 2c 9e 2d bd 6d 56 09 be c4 e9 4b 3c
       0.22052337 -0.042387173 -0.13411875 0.012445871
000040 0c ca 31 3b ee 85 bb bc 7d 34 14 3e 1e f2 97 bd
       0.0027128486 -0.022891011 0.14473148 -0.07419227
000050 84 9c 67 3d bf b4 fb bd 90 89 05 be 05 9a fe bd
       0.05654575 -0.12290334 -0.13040757 -0.12431721
000060 17 ca e5 3c f7 87 8b 3e 43 b2 31 3d 87 f0 05 bd
       0.028050466 0.2725217 0.043382894 -0.032700088
000070 d0 a0 24 3e 3e 11 4f bd 75 1e 1c 3e a4 45 cd bd
       0.1607697 -0.050553553 0.15245993 -0.100230485
000080 40 06 93 3d 25 dd 53 3e 29 0e e3 3d f7 e1 4d bd
       0.071789265 0.20689829 0.11086685 -0.050264325
000090 e8 21 3d bc 35 1c dc bd 6c e1 1d 3e 94 39 5c 3e
       -0.011543728 -0.107475676 0.15418023 0.2150634
0000a0 b2 bf ca 3d e9 43 ed 3d 59 a3 e2 bd f3 02 3a be
       0.09899844 0.115852185 -0.11066312 -0.18165188
0000b0 2e 85 f0 3d e1 53 b8 bd 87 1c 25 3e 4c 89 43 3e
       0.11744152 -0.09000374 0.16124164 0.19095343
0000c0 97 10 1f be 4c b0 f7 3d 48 2b fa 3d 5d 8d 86 3e
       -0.15533672 0.12094173 0.122152865 0.26279727
0000d0 b6 1c 19 bb 7c 6d 81 3d 3a 97 f1 bd 57 15 ce 3d
       -0.002336306 0.063197106 -0.11796422 0.10062664
0000e0 6f c5 3b 3e 52 9c 21 3e 92 6a 95 3e 44 b4 90 3e
       0.18337034 0.15782288 0.2918287 0.28262532
0000f0 6e 99 86 3e 10 90 4f bd 4d 39 57 3c a8 25 d8 bd
       0.26288933 -0.050674498 0.01313622 -0.10554057
000100 c6 da c5 3d 61 68 17 3e 5d 46 a6 3d fa fd b2 3d
       0.09660868 0.14785911 0.081188895 0.087398484
000110 fd 36 25 be d5 fc cd 3c 78 4c 08 bd 9b f6 4d 3d
       -0.16134258 0.025144974 -0.03327605 0.05028401
000120 85 8b 5c 3e 7f 97 34 3e 20 9e aa 3d 19 c9 60 3d
       0.21537597 0.17635916 0.08330941 0.05487928
000130 f7 d8 16 be f1 b8 31 3e 91 8a 5f 3c 0f 6a f0 bd
       -0.14731203 0.17355706 0.013643877 -0.11738979
000140 3a 9e 99 3c 7d c0 55 bc 43 69 1a bd 29 f2 00 3e
       0.018752206 -0.013046381 -0.03769804 0.12592377
000150 ba 57 f9 3d d2 f4 34 3e 7e b5 2a 3e 0a f8 f3 bd
       0.12174936 0.17671517 0.16670796 -0.11912544
000160 16 15 1d 3e 04 05 28 3d eb 6a 91 bb 03 af 2b 3e
       0.15340075 0.04102041 -0.0044377944 0.1676598
000170 db 71 60 3e c1 a9 9a 3e 47 b2 85 3d 4d 73 b6 bd
       0.21918432 0.30207637 0.06528144 -0.08908711
000180 c5 ec 06 be 4d 14 08 3e 93 5b ee bd 2b ef 5b 3e
       -0.13176258 0.13288994 -0.1163856 0.21477954
000190 23 e1 44 3d 0f 9e f3 bd a0 cf 84 3d bf 8b 57 3c
       0.04806627 -0.11895382 0.06484914 0.013155877
0001a0 8f b4 8e 3d f5 e9 1b be 92 76 33 3e b1 e1 42 3e
       0.069680326 -0.15225966 0.175257 0.19031407
0001b0 8f 03 e8 3d 35 c1 81 3d c0 13 dd 3c c3 7b 7b bd
       0.11328804 0.063356794 0.026986957 -0.061397325
0001c0 d7 e7 1a 3d b6 8a 9c 3c b3 93 98 3e 22 53 8f 3b
       0.037818756 0.019109111 0.29800186 0.004373924
0001d0 81 18 9c bd 37 f7 9d bd da 5c ea bc ab 93 1c 3e
       -0.07621861 -0.07713168 -0.028608728 0.15290706
0001e0 c1 da ea 3d 6a b7 cf 3d f8 58 36 3e 49 08 c3 bd
       0.11467505 0.10142405 0.17807376 -0.09523065
0001f0 43 c9 22 3e 8b 40 31 3d a4 3b 3c 3d 59 af 09 3e
       0.15897088 0.043274444 0.045955315 0.13445796

actor.2.weight f4 [64, 128]
000000 70 8a 1f 3d 44 e4 1b be f1 b9 c2 3c 79 4d 0c be
       0.038950384 -0.15223795 0.023770304 -0.13701428
000010 89 fd 0b be 50 df d1 bd 78 2e 49 3d 25 7e 83 3d
       -0.13670935 -0.102476716 0.04911658 0.064205445
000020 4d ea 80 bd c3 54 c6 3d 63 2c 45 3d f7 50 72 bd
       -0.06294689 0.09684136 0.048138034 -0.059159245
000030 98 be e9 bd a1 50 92 3d 83 c7 e8 bc 34 b6 db 3d
       -0.11413306 0.07144285 -0.028415447 0.10728112
000040 a6 23 fe bd 19 fb 9d 3d 21 39 4c 3c 48 5d 65 3d
       -0.12409143 0.07713909 0.0124647925 0.055997163
000050 b0 0a d3 3c d7 3e 03 3d 2a 37 3c 3d 73 c3 82 bd
       0.025761932 0.03204235 0.045951046 -0.06384935
000060 56 14 d5 bd a9 36 74 3d c6 d1 c5 bd 88 6d 03 be
       -0.104042694 0.05962244 -0.09659152 -0.12834752
000070 5f b9 d0 3d 74 b7 6a bd 4c 6f 9f 3d e6 a5 0f bd
       0.10191607 -0.05730386 0.077849 -0.035070322
000080 f9 28 0a 3d e7 c0 35 3c 11 ea d0 bd 15 35 9d 3d
       0.03373048 0.011093355 -0.102008946 0.0767614
000090 aa 19 a2 bd cd a8 ab bd c3 27 ca bd da 1d bc 3c
       -0.07915051 -0.083818056 -0.09870865 0.022963453
0000a0 cc ff 1d bd c8 51 00 3e 69 16 fd bd 32 28 7a bd
       -0.038574025 0.12531197 -0.1235779 -0.06107349
0000b0 2a 2c bb bd 86 f6 9c 3d b9 c9 17 3d 46 ca 9a 3d
       -0.09139283 0.07664208 0.037057612 0.07558112
0000c0 76 96 67 bb ca 06 12 be 83 16 d9 3c f9 ee 62 bd
       -0.0035337484 -0.14260402 0.026499992 -0.055403683
0000d0 71 10 89 bd 12 d8 a9 bc 23 ea 3d bd ce 54 0a 3c
       -0.06692589 -0.020732913 -0.04636587 0.008443071
0000e0 c3 76 c6 3d e6 b4 10 3d 84 9c ee bd 51 f4 66 bd
       0.09690621 0.03532877 -0.11650947 -0.056385342
0000f0 89 b1 a9 3d 7d ae d8 bc 2c 4a cc bd 62 a9 69 bc
       0.08285815 -0.02645039 -0.09975085 -0.014261575
000100 db be a4 3d d8 7c 00 bd ee 92 93 3c c9 1f 40 be
       0.08044215 -0.03136906 0.018014397 -0.18762125
000110 59 65 c2 3b 94 79 24 3d d3 4b fd bd 3e ad 98 3d
       0.0059324917 0.04015501 -0.12367978 0.07454918
000120 0c e0 85 3d 5d 91 da bd d2 fc 98 3c cf 89 a7 3d
       0.06536874 -0.10672257 0.018675242 0.08180582
000130 bd 22 6c bd 16 f1 12 be e2 fe b7 bd e6 d7 ac bd
       -0.057650317 -0.1434978 -0.08984162 -0.08439617
000140 90 21 db 3d ec fd 40 b9 ce 5e 2f bb 1d cc 61 bd
       0.10699761 -0.0001840514 -0.002675939 -0.0551263
000150 82 d3 85 3d 7a 91 23 3d 9c 67 ec 3c e6 dd 25 bc
       0.065344825 0.03993366 0.028857999 -0.0101237055
000160 35 28 e2 bd 7d 2d ae 3c 9b 4f 1d bd 20 09 b2 bd
       -0.11042825 0.021261925 -0.038405996 -0.08693147
000170 a9 95 f6 3d b2 5e 9e 3d 81 26 eb bd 32 0b fe 3d
       0.12040264 0.077329054 -0.114819534 0.12404479
000180 8c 9d 9c bd bc 1a 90 bd d9 26 76 bd e0 ac 9e bd
       -0.07647237 -0.07036349 -0.06009564 -0.07747817
000190 9e cb fc 3d 07 17 48 bc 09 30 45 bd ce 8c 79 bd
       0.123435244 -0.012212521 -0.048141513 -0.060925297
0001a0 f7 91 9e bd e2 00 1f bc ef eb 6f 3d db a6 56 bd
       -0.07742684 -0.0097048 0.058574613 -0.05240522
0001b0 19 7b e8 3d b6 3b 92 3d b9 39 b0 3d a9 34 ad 3d
       0.11351604 0.07140295 0.0860476 0.0845731
0001c0 73 1b 75 bd 5c 01 7e 3d c4 57 07 bd 98 79 5b 3d
       -0.05984063 0.062013015 -0.033042684 0.053582758
0001d0 60 06 52 bd 47 0d 0f be ee e3 81 3d 02 07 81 3d
       -0.05127561 -0.13969909 0.06342302 0.06300165
0001e0 d9 3e b2 bc c1 59 e4 3d 67 13 f1 bd 1d af 62 3d
       -0.021758484 0.11149932 -0.11771279 0.055342782
0001f0 64 52 b7 3d ac 17 c5 bd 1d 2c 8b be ef e4 03 3e
       0.08951262 -0.09623656 -0.27182093 0.128803
000200 10 80 1a be 2b cc 9f bc 0f 3c a8 bd be 0c d3 bc
       -0.15087914 -0.019506535 -0.0821458 -0.025762912
000210 8e 51 52 bc 4f 4a 3b 3c f0 00 35 3d 79 0a b3 3c
       -0.012836827 0.011431291 0.044190347 0.02185558
000220 e1 4f 53 bd 32 4d ae bd b9 85 0d bd 8c 51 15 3c
       -0.05158985 -0.085108176 -0.034551356 0.009113681
000230 0c 09 57 3d 1b 7f 8e 3d 28 cd 7d bd f5 6c d0 bc
       0.052498862 0.06957837 -0.06196323 -0.02544258
000240 5d 01 db 3d df 9c f2 bc e1 55 2d be 21 cf 37 bd
       0.106936194 -0.029615818 -0.16927291 -0.044875268
000250 1b f9 2d bd a5 73 e6 ba 95 de 14 bd 01 34 b5 bc
       -0.042473894 -0.0017582072 -0.036345083 -0.022119524
000260 cf 0b fd 3c 27 cf d2 bd 8b ed 4d bc d5 4d 8f 3c
       0.03088942 -0.102934174 -0.012568842 0.017493168
000270 44 7b dd bd c2 5a bb bb 9f 8b 0b bd 50 a9 8a bc
       -0.10814527 -0.0057176063 -0.0340687 -0.016926438
000280 e1 a3 03 3e d9 3c 29 bc d6 7f bd bd 66 ad c6 bc
       0.12855484 -0.010329449 -0.092528984 -0.024252605
000290 64 fe 8f 3d ae 91 19 bd 91 5f c6 bc b0 6e 05 bd
       0.07030943 -0.037492447 -0.024215491 -0.032576263
0002a0 07 50 03 3d ab bb ba bd c4 c0 05 3e f0 54 35 bd
       0.032058742 -0.09117826 0.13061816 -0.044270456
0002b0 d3 4a 0e 3d 47 4a 89 3c 67 b4 1c be cf 8e f9 3d
       0.034739327 0.016759051 -0.15303193 0.12185442
0002c0 17 51 d6 bc 1a 61 fd 3d af 8a 06 be e5 d9 db 3d
       -0.026161714 0.12372036 -0.13138841 0.107349195
0002d0 26 f5 04 bd d7 b0 12 bd 4f e9 57 3d ad b6 5a 3d
       -0.032460354 -0.03581318 0.052712735 0.05339687
0002e0 64 0f e2 bc 43 de db bd f1 4d d9 bb 18 65 58 3d
       -0.02759523 -0.107357524 -0.006631606 0.052830786
0002f0 8a f7 88 3d df 9b 94 bc 26 6f 81 3d 93 5c ff bd
       0.06687839 -0.018140731 0.06320028 -0.12468829
000300 8d 4d 43 bd 91 30 93 bd 8d 31 cc bd a9 7a bd 3d
       -0.04768138 -0.07186998 -0.099703886 0.09251911
000310 a0 41 ca 3b e6 9b 76 bd 32 82 c1 bc b3 6d 72 bb
       0.006172374 -0.06020727 -0.023621652 -0.0036991655
000320 1e eb 40 bd b3 27 15 3e 34 c5 42 bd 00 69 78 bc
       -0.047099225 0.14565925 -0.04755135 -0.015161753
000330 3d 33 a4 3c d0 f3 2a b9 94 d0 89 bd 1a b9 e3 3d
       0.020043964 -0.0001630329 -0.06729236 0.1111929
000340 c7 80 11 be 41 d0 85 bc 8a 42 a3 3d be 21 e2 3c
       -0.14209281 -0.016334655 0.07971676 0.02760398
000350 b9 fd c5 3d 06 b1 81 bc 34 1e 88 3d 0a c2 3b 3d
       0.096675344 -0.015831482 0.06646386 0.045839347
000360 63 13 9f bd f7 a6 c3 bd ba cd ec 3d 89 94 0b 3e
       -0.077673696 -0.095533304 0.11562677 0.1363088
000370 f3 81 52 bb 73 d0 d1 3d 0b e2 1a be b7 fe 28 be
       -0.0032120913 0.10244837 -0.15125291 -0.16503416
000380 9c 03 c3 bd 51 ac 08 3b 61 e6 d5 bb 6a 98 3a bc
       -0.09522173 0.0020854662 -0.0065277074 -0.011388877
000390 71 c8 5e 3c 9a 00 db 3d 8e 65 63 3d 32 07 be 37
       0.013597594 0.10693474 0.055516772 2.2653116e-05
0003a0 5a 7c 17 bd 29 d5 6e bd df 2f 6c bc 3b 41 91 bd
       -0.036983825 -0.058308754 -0.01441571 -0.0709252
0003b0 b1 24 c6 bc 4b ca e0 3d ac 01 e1 3c 5b 8e 80 bc
       -0.024187418 0.10976084 0.027466618 -0.01569288
0003c0 17 74 1c 3d 71 55 1f bd 97 01 8d 3c b8 c3 76 3c
       0.03819665 -0.038899843 0.017212672 0.015061311
0003d0 12 44 c2 3d 10 ef 52 3d 31 a0 5f bd 27 69 47 be
       0.0948564 0.05149752 -0.05459613 -0.19473706
0003e0 b7 f6 0e 3e 64 76 37 bb 0f 12 c5 3d 8c 5a d7 bc
       0.13961302 -0.002799415 0.09622585 -0.026288293
0003f0 6f d0 3d bd b6 0f 3d 3d 50 79 51 3e d5 69 f1 3c
       -0.046341356 0.04615756 0.20456433 0.02946941

actor.2.bias f4 [64]
000000 62 f7 ae 3d d7 75 2f bc a1 db e0 bc 5e 80 c2 3d
       0.08543278 -0.010709248 -0.027448477 0.0949714
000010 e1 14 74 bd 9e 8a f3 bd ed 16 9f 3d 5e 8d 8f 3d
       -0.059590224 -0.118916735 0.077680446 0.070093855
000020 89 7b bb bd 53 a8 08 bc cb 8d fa bc a1 14 05 be
       -0.09154422 -0.008340913 -0.03058519 -0.1299615
000030 17 01 9e 3d 69 51 3c 3d d5 36 9a 3d 0b 72 0b 3d
       0.077150516 0.045976076 0.0752999 0.034044307
000040 e9 05 a4 3c dc 06 e1 bd 57 b3 41 bc d7 f5 1f bd
       0.02002235 -0.109876364 -0.011822543 -0.03905281
000050 ce 36 b0 3c 9e 5d 8d 3d af e0 cb 3d 42 0a ea bc
       0.021510508 0.06902622 0.09954964 -0.028569344
000060 10 d3 d0 3d 59 36 23 3d fa d6 e6 bd bc f7 74 bd
       0.10196507 0.03984675 -0.11271472 -0.05980657
000070 50 6b 00 bd 57 9f 7e 3d 0e 75 e2 3c 5a fb fa 3d
       -0.03135234 0.062163677 0.027643707 0.12254973
000080 d6 50 62 3d 97 81 06 3d fe 7a 63 bd 6f e8 13 3d
       0.055252872 0.03283843 -0.055537216 0.036110338
000090 51 df 06 bb 07 74 81 3c 3a a0 75 3c b5 75 fb 3b
       -0.0020579884 0.015802396 0.014991814 0.007673944
0000a0 a0 19 65 3b a1 97 9e bd 47 10 e3 bc 93 d7 a0 bd
       0.00349579 -0.07743765 -0.027717723 -0.078536175
0000b0 2d 55 0b 3d c7 fe 42 bd 21 b2 ba bc ec 17 ac 3d
       0.034016777 -0.047606256 -0.022790017 0.08403
0000c0 18 cc 1f bd 88 af 5c bd 6d 73 b0 bd da ae 9c bd
       -0.039013 -0.053878337 -0.08615766 -0.07650538
0000d0 e4 5a ae 3d 06 ce 66 ba b6 b2 8e 3d 60 42 5d 3b
       0.0851343 -0.00088045036 0.0696768 0.0033761486
0000e0 6a fe 12 3d ea a1 6a bd d6 29 c6 3b a5 cb 10 bd
       0.03588716 -0.05728332 0.0060474677 -0.03535046
0000f0 06 be bb bc 79 2a ff 3c 6f 85 22 bd 7a 8f 6f bd
       -0.022917759 0.031148182 -0.039678033 -0.05848644

actor.4.weight f4 [16, 64]
000000 58 2e b8 bb fb 44 5a 3e c7 e1 41 3d 5c ea a5 3c
       -0.005620759 0.21315376 0.04733446 0.020253353
000010 c8 4e 69 3e d6 ba 8d be 79 96 91 3d ff 94 89 3d
       0.22783959 -0.27681607 0.071087785 0.06717872
000020 14 e3 c9 bd 70 b8 0d 3e 87 51 8e 3e 6c 74 93 bd
       -0.09857765 0.13839889 0.27796575 -0.0719994
000030 cf 47 d6 bd fc b7 08 be 04 4b 74 3e cb 29 49 be
       -0.10462915 -0.13351434 0.23856741 -0.19644849
000040 6f 7e 23 3e b6 0d 3a be 95 dc a8 be 20 20 7f 3e
       0.159662 -0.18169293 -0.3298079 0.24914598
000050 6a e2 2f 3d f9 35 59 3e b3 73 e2 3d 26 77 73 3e
       0.042940535 0.21211995 0.11057224 0.2377592
000060 b5 21 a1 3e ef 8b 0c be ce ee 9c bd ae 4d 4c be
       0.3147103 -0.13725255 -0.07662736 -0.19951507
000070 5b 48 1d 3e 71 dc 2c 3e a9 d0 13 3e 3e f2 4b bd
       0.15359633 0.16880967 0.14435066 -0.049791567
000080 02 3c 71 bd f0 14 0a be 85 9f b4 bc f2 45 c8 bd
       -0.05889512 -0.1348455 -0.022048721 -0.09778966
000090 dc 8e ad be 1a 36 0c be fd 4b 97 be ce 80 1c 3d
       -0.33898056 -0.13692513 -0.29550162 0.038208775
0000a0 7b 43 80 be 9f 14 26 bc ac b4 f2 3d a0 0f 87 3d
       -0.25051484 -0.010136752 0.11850867 0.06594777
0000b0 4d ad 24 bc e4 96 4d be 7e 2a 54 be 5c 6a 6b be
       -0.010051084 -0.20077091 -0.20719334 -0.22989792
0000c0 03 88 26 3e a3 e0 8f 3e fd 30 df 3d 4a 63 75 3e
       0.16262822 0.28101072 0.10898016 0.23963657
0000d0 3b 24 97 3d 23 63 78 be 0b 78 2f 3e 9f 1c 9a be
       0.07379957 -0.24256568 0.17135637 -0.3009996
0000e0 fa 5d 84 be 8d db 54 bd 88 14 96 3e 29 81 3f be
       -0.25852948 -0.051967192 0.2931254 -0.18701614
0000f0 76 48 f5 3d 88 79 7a be 90 d7 35 3e 03 04 53 bc
       0.119767115 -0.24460423 0.17758012 -0.012879374
000100 10 25 c3 3e 03 14 9f bc 59 b5 50 bd 04 63 0e be
       0.38114214 -0.019418722 -0.050954197 -0.13904959
000110 8c 0d 45 3e 29 9a bc bd 8c 99 2c 3e f8 67 ed 3c
       0.19243449 -0.09209091 0.16855448 0.02898024
000120 f5 c0 b7 3c ad 4a c0 3d 2a c3 89 3e 20 a9 d9 bd
       0.022430876 0.09389243 0.2690671 -0.10627961
000130 3b d8 24 be 42 ed c9 bd 09 76 b0 be 17 61 b1 3e
       -0.1609811 -0.098597065 -0.34465054 0.34644386
000140 9d ca 5a be b5 20 b3 be e5 8a c7 bd 16 b8 84 3e
       -0.21366353 -0.3498589 -0.09743289 0.25921696
000150 4d 84 23 be ef 84 83 3c 40 a9 f2 3d 53 f7 4e 3e
       -0.15968437 0.016054599 0.11848688 0.20211534
000160 a5 a6 77 be 8a 15 b9 bd 18 5d ba bd 84 02 ac 3e
       -0.24184664 -0.090373114 -0.090997875 0.3359567
000170 ee 2e e2 bd 78 28 02 be c6 f2 fa 3a 35 0d 44 3d
       -0.110441074 -0.1271075 0.0019145838 0.047864158
000180 6c 7c b4 be 89 34 17 be d2 90 70 be c7 74 c3 bc
       -0.35251176 -0.14766134 -0.23492745 -0.023859395
000190 6e db 90 3d 0d 57 2f bd 33 7a 39 3e 83 3c bf 3d
       0.07073103 -0.042807627 0.18113022 0.093377136
0001a0 9e 04 ae 3e fc 0e a8 3c 05 33 af be 0b ca 5d 3e
       0.33987898 0.020514958 -0.34218612 0.21659105
0001b0 91 5d 4f 3d df 38 36 be 13 19 75 be 8f e8 f5 bd
       0.05062634 -0.17795132 -0.23935346 -0.12007248
0001c0 4e 7c 2e be 84 9d c3 bd cb e4 d4 be f8 58 0b 3d
       -0.17039606 -0.09551528 -0.41580805 0.034020394
0001d0 ef 3d 0f be 9f 47 6c 3e 78 63 70 bc 1e db 9a 3e
       -0.1398847 0.23074196 -0.014672153 0.30245298
0001e0 67 5d 03 3e 38 aa c9 3e c7 bb 77 bd 67 02 cf bd
       0.12828599 0.3938768 -0.060481813 -0.1010788
0001f0 98 9a 87 3e 1a 95 55 3e 25 3f b6 3d e8 c7 86 3d
       0.26485133 0.20857659 0.088987626 0.06581098
000200 43 79 fb 3d 51 9a 0c be 86 26 1c 3e a1 6f 24 3d
       0.12278988 -0.13730742 0.1524907 0.04014552
000210 e0 a8 2e be c3 cc 20 3e fa 67 39 be ec 41 f6 bd
       -0.17056608 0.1570311 -0.1810607 -0.12024292
000220 2d 0e 36 3e d1 83 46 be f3 5f 9b 3d 1f 81 1e 3d
       0.17778845 -0.19386221 0.0758666 0.03869736
000230 c0 69 a7 bd 7f fc 45 3e 1a 36 2e bd c4 3e ad 3d
       -0.08174467 0.19334601 -0.042532064 0.08459237
000240 ca 28 97 3c b7 14 83 3d 51 81 04 bd 4d ba 31 be
       0.018452067 0.064004354 -0.03234989 -0.17356224
000250 f0 62 27 3e c8 4a 7a be 73 b4 36 be e0 ab 7a bd
       0.16346335 -0.2444259 -0.17842273 -0.06119907
000260 f0 0e c8 bd c7 64 40 3e 44 07 5f 3e f9 aa 7c 3e
       -0.09768474 0.18788444 0.21780115 0.24674596
000270 c1 66 1b 3e 28 84 0f 3e 1b e9 4e be f9 39 58 3d
       0.15175916 0.14015257 -0.2020611 0.052789662
000280 8e 71 13 be 63 02 ab 3d 76 fa 5a 3e ba 76 ad 3d
       -0.14398786 0.083500646 0.21384606 0.08469911
000290 9a aa 4a bd dc 9e 40 3e c4 d5 6e 3d e3 2f d6 3d
       -0.049479105 0.188106 0.05830933 0.104583524
0002a0 ca 2d 97 3d 18 53 94 3e c8 1a 20 be b5 ca 1f be
       0.073817804 0.28969646 -0.15635216 -0.1560467
0002b0 9f df 3d 3e f9 97 da 3c d1 cb 38 3b 24 0d 2c 3d
       0.18542336 0.026683794 0.0028197656 0.04200472
0002c0 7f 26 08 be 07 8e e6 bc 11 fc af bd a3 20 be 3c
       -0.13295935 -0.028143896 -0.08593 0.023208922
0002d0 62 90 f1 3d 5a a1 0b be 26 11 35 be cb 31 dc 3c
       0.11795117 -0.1363577 -0.17682323 0.026879212
0002e0 ce 71 be bd 84 9e d4 3d 4f 1c 31 be 52 4a be bd
       -0.0929905 0.10381797 -0.17295955 -0.09291519
0002f0 60 9f 50 be 44 2e 27 3e bb 0d 3e bc 02 99 b8 bc
       -0.20373297 0.16326243 -0.011599953 -0.022533897
000300 a3 c9 87 be ee c0 a5 3e 53 54 30 be c5 a0 12 be
       -0.26521024 0.32373756 -0.17219667 -0.14319141
000310 2b 31 5c be f9 d5 31 be d2 27 64 3d d4 5c 73 3d
       -0.21503131 -0.1736678 0.055702038 0.0594147
000320 ad 3e a6 3d fe 8d 15 3e ae 41 92 be db b3 ea bd
       0.08117423 0.14604947 -0.28565735 -0.11460086
000330 2b 43 c3 3e 07 1a 92 3d 36 3b 85 bc 1d cf 30 be
       0.38137183 0.071338706 -0.016263586 -0.17266507
000340 54 d1 36 3e 52 30 15 bd 93 ce ac 3e 21 3f 00 be
       0.1785329 -0.036423035 0.33751354 -0.12524082
000350 ae b6 95 bc b6 b9 08 3e a6 8a 16 3e a4 9d 9b be
       -0.018275585 0.13352093 0.14701328 -0.30393708
000360 28 2f 8e 3d 9a 26 a4 bd 66 df 37 be 17 54 e5 bd
       0.06942588 -0.08015175 -0.17956313 -0.111976795
000370 5d 8b e7 bd 1f a8 1f be 78 88 06 3e 62 fd e6 3d
       -0.11305878 -0.15591477 0.13137996 0.11278798
000380 72 38 b0 3d 0f e6 dc bd bd 26 38 be ca 6a 0a bb
       0.08604516 -0.10786068 -0.17983527 -0.002112078
000390 de 1f b3 bd 65 ac 1c be 37 2d c3 bd 22 a2 94 3d
       -0.087463126 -0.15300138 -0.095301084 0.07257487
0003a0 6e e0 26 be 78 31 fe bd 13 b2 77 3d be 34 2c be
       -0.1629655 -0.12411779 0.06047256 -0.16816995
0003b0 c6 74 db bd d2 02 47 be e3 36 fb 3d a9 d3 a0 3c
       -0.10715632 -0.1943467 0.12266328 0.019632177
0003c0 01 7d d0 bd e8 7c ba 3d a5 97 be 3d bf a6 32 be
       -0.101800926 0.09105855 0.09306268 -0.17446421
0003d0 72 a1 8d 3d a4 09 9c bd a1 2f 17 3d a9 75 3f be
       0.06915559 -0.07619026 0.036910657 -0.18697228
0003e0 83 da 9e 3d 0d 28 52 be 51 72 0e 3d d0 d7 bd 3e
       0.077565216 -0.2052309 0.03477699 0.37078714
0003f0 f6 b9 2a 3c e4 28 99 bd ea 6f 7a 3d 9b c2 19 3e
       0.010420313 -0.074785024 0.061141886 0.15015642

actor.4.bias f4 [16]
000000 59 28 aa bc 0b 9f 04 3e 99 1b a5 bd 6e d6 bd 3d
       -0.020771192 0.12951295 -0.080619045 0.09269415
000010 17 79 50 be 06 2b 88 bc 76 96 ec 3d 39 16 b5 bb
       -0.20358692 -0.016622078 0.11552136 -0.005526331
000020 08 c5 0a be 82 da 2c 3d 6b 95 50 bd 20 25 28 be
       -0.13551724 0.042200573 -0.050923746 -0.16420412
000030 a8 28 d9 3d d5 f7 3e be d4 49 0f 3b 81 a6 17 3d
       0.10603458 -0.18649228 0.0021864073 0.037024025

critic.0.weight f4 [128, 30]
000000 66 58 02 be 89 d3 d0 bd 52 ca 7e 3d aa fa 23 be
       -0.12729034 -0.10196597 0.062204666 -0.1601359
000010 16 a4 25 be 77 2e 49 bf 3c 6c 29 bd 59 17 6c bd
       -0.16175875 -0.78586525 -0.041362986 -0.057639454
000020 3a cb 84 bb b0 68 68 be 54 59 7d 3e f5 d9 09 bd
       -0.004052547 -0.22696185 0.24741107 -0.033655126
000030 88 28 f3 bd 0d 22 fc 3d 27 c2 5f bd 91 11 ce 3d
       -0.11872965 0.12311182 -0.054628517 0.10061944
000040 d9 f7 0d 3d 2c f9 49 3e 70 e8 1e 3e 84 be 6d 3d
       0.034660194 0.19723958 0.15518355 0.058043018
000050 15 2e 86 bd 06 32 bf bd 76 80 73 3d 39 66 eb 3d
       -0.06551758 -0.09335713 0.05944868 0.11494107
000060 ef 50 71 3c 67 28 47 bd 83 4a b2 3d 7f 33 b9 bd
       0.014728769 -0.048622515 0.08705618 -0.09043025
000070 d5 40 83 bd 58 b3 c5 bc 9c 68 be bd 22 54 2a 3e
       -0.0640885 -0.02413337 -0.092972964 0.16633657
000080 a2 8b 1f be bd c9 8c 3d 41 79 4f 3e 61 59 bd 3b
       -0.1558061 0.06874416 0.20261098 0.005778477
000090 0c be 53 3d 30 cc 16 be fa c1 cc bc ee a4 aa bd
       0.051694915 -0.14726329 -0.024994839 -0.08332239
0000a0 c6 ad 56 bd e0 16 7e 3d 97 78 38 3e 97 e2 06 be
       -0.052411817 0.062033534 0.18014751 -0.13172375
0000b0 54 76 0c 3e 76 29 df 3d 57 3d b0 3d 57 59 ee b9
       0.13717014 0.1089658 0.0860545 -0.0004546146
0000c0 6e df 8b bd 63 cf 20 3e 95 9b fd 3c 6a 06 9d 3d
       -0.06829725 0.15704112 0.030957976 0.07667239
0000d0 31 5b e3 3d dc 06 e4 3c 29 96 b7 3d d4 c9 12 bd
       0.11101378 0.027835302 0.08964188 -0.03583701
0000e0 3a 87 07 3c c3 f8 d2 3d 66 82 e5 3d 1a 62 da 3d
       0.008271987 0.10301354 0.11206512 0.10663243
0000f0 f1 37 11 3e bf f5 2c 3d 53 ce 9c bd 42 03 4e 3d
       0.14181496 0.04222655 -0.07656541 0.050296076
000100 c3 20 22 3e 8d 1e ad be f0 2d bf be b0 a6 9c be
       0.1583281 -0.3381237 -0.37339735 -0.30595922
000110 da 07 f0 bd 0f bb e6 3b 84 90 99 3d 37 e1 a4 3d
       -0.117202476 0.007041342 0.07498267 0.08050769
000120 2d 7f 10 3e 9d 35 c4 bd d8 40 00 bd 3c 23 c1 3d
       0.14111014 -0.095805384 -0.03131184 0.094305485
000130 36 b5 a0 bd 42 5b c4 bd 73 d6 e0 3d 01 13 64 3d
       -0.07847063 -0.095877185 0.10978403 0.055682186
000140 01 eb be 3d ca 87 2a bd 56 b1 e6 3c ec dc b7 3d
       0.09322167 -0.041633405 0.028160732 0.089776844
000150 39 3e a2 3d 4f 0b 17 3e 55 3d 32 bd 03 88 1f be
       0.07922024 0.14750408 -0.043515522 -0.15579228
000160 c5 89 50 bd 5c 20 b9 3d 83 46 68 bd 33 ce 54 bc
       -0.050912637 0.09039375 -0.05670787 -0.012988615
000170 64 3a dd 3d 32 a8 41 bd 71 ee 34 be a0 ab 31 3f
       0.10802153 -0.047279544 -0.17669083 0.69402504
000180 f7 61 ae 3a 59 5b 8b bc fb 1c 19 3c 47 64 3f 3e
       0.0013304342 -0.017011331 0.009345288 0.18690597
000190 fb 10 aa 3c 84 53 40 3e d6 af 32 3e 18 f9 a0 bd
       0.02076005 0.18781859 0.17449889 -0.07860011
0001a0 fb 64 13 3d 94 8c 1c be 54 87 91 3d b4 67 02 3e
       0.035984974 -0.15288001 0.0710589 0.12734872
0001b0 a1 15 4e bd b2 df d5 3d e4 43 76 3c df b2 8d bd
       -0.050313596 0.10443057 0.015030835 -0.069188826
0001c0 04 6b 9c 3d 23 65 3b be b0 7b b4 3d 5d b8 76 3e
       0.07637599 -0.183003 0.08812654 0.24093767
0001d0 c5 42 d0 bc 2f 89 cd bd 82 d5 44 3d 45 6c c9 3d
       -0.025422463 -0.10035931 0.04805518 0.09835104
0001e0 91 fa 0f bd 11 e2 68 3b 62 55 27 be c4 c6 06 be
       -0.035151068 0.0035535137 -0.16341165 -0.1316176
0001f0 d4 c9 2b bd bb 48 67 be 22 82 27 3e fa e3 6b 38
       -0.041940525 -0.22586338 0.16358235 5.6240686e-05
000200 5e 6a b0 3d a3 a1 e0 bd 2e 2a a9 be b6 dc f7 bd
       0.08614038 -0.1096833 -0.33039993 -0.12102644
000210 c9 55 1b bd 40 63 5f bd 48 7e 87 bd a9 a1 4c 3d
       -0.037923608 -0.05453801 -0.06615883 0.04995886
000220 b5 f7 58 bc 68 13 c5 3d e0 bf 0c 3c 63 27 9a 3d
       -0.013242652 0.09622842 0.008590668 0.07527044
000230 40 8d 64 3e 35 0d 35 bc 9e 8c f9 3d c1 75 04 3d
       0.22319508 -0.011050512 0.12185024 0.03233886
000240 4f 1d e2 3d 0d 1e f7 bd 17 e3 29 3e 6f b6 0d be
       0.110407464 -0.120662786 0.16590534 -0.13839124
000250 ae 85 0a 3e 97 c2 09 3c a1 80 36 be 02 db 2c 3e
       0.13527557 0.00840821 -0.17822506 0.1688042
000260 bc c3 12 3e 2d f3 04 3e dc e8 ea 3d 81 08 24 bf
       0.14332479 0.12983389 0.11470196 -0.64075476
000270 b6 09 7f be b2 80 ad be 36 12 7b 3d b4 06 95 be
       -0.24906048 -0.3388725 0.061296664 -0.29106677
000280 94 68 fe 3d 15 1b 5f bd dc a4 ef 3d 5c 49 1d 3e
       0.124222904 -0.054469187 0.11701366 0.15360016
000290 97 64 78 3d bb 4c 65 bd 0f c7 b3 3c 6f 2b fb 3c
       0.060642805 -0.05598138 0.021945504 0.03066036
0002a0 b5 96 6b 3d b0 74 91 3b 70 21 1d be 6a ae 00 3e
       0.057516772 0.004438959 -0.15344787 0.12566534
0002b0 4c 3e fa 3c 62 a8 53 3e 61 e5 7b 3d b3 42 17 bd
       0.030547284 0.20669702 0.06149805 -0.036928844
0002c0 ec 49 d6 3d dd 96 ce 3b fc 56 a1 bd 4b 7e 97 3d
       0.10463318 0.0063046054 -0.07877919 0.07397135
0002d0 9c 62 cb bd b9 20 93 3d fd 03 a1 bd 8e 8f 4a 3d
       -0.099309176 0.07183976 -0.07862089 0.04945331
0002e0 6e 5f 1d be e8 1f 32 bf ec f7 75 be 4a e9 8d bd
       -0.15368435 -0.69579935 -0.24020356 -0.06929262
0002f0 dc 5f fb bd a7 a2 43 3d 7a 94 cc 3d 99 ae 16 3e
       -0.12274143 0.04776254 0.09989257 0.14715041
000300 b6 73 59 bd 9e 2a b9 bd 34 0c 24 be 5e e0 e1 bc
       -0.053088866 -0.09041332 -0.1602028 -0.027572807
000310 18 86 9f bd 05 55 15 be 66 a9 ce 3d 75 29 df bd
       -0.07789248 -0.14583214 0.10090904 -0.10896579
000320 61 d8 6e 3e ad 0c 37 3e ff 03 19 be 41 48 29 3c
       0.2332473 0.17875929 -0.1494293 0.010332168
000330 56 39 00 be fc b1 a4 be b0 87 66 3d a6 50 c7 bd
       -0.12521872 -0.3216704 0.056281745 -0.09732179
000340 4d 43 a5 be 48 44 21 ba a4 3a 0e 3d 5c 1c 4f bd
       -0.3227791 -0.00061518373 0.034723893 -0.050564155
000350 07 89 f0 bc f1 27 3f bd 84 d9 cf bc fc ff 1a 3f
       -0.029362215 -0.04666895 -0.025372274 0.6054685
000360 13 23 de be 61 85 2e be 85 6a 96 be f4 be 27 3d
       -0.43386135 -0.17043068 -0.29378143 0.04095359
000370 7a 6a 36 3e 0d 0d e4 bc 45 c1 8c 3d d0 77 37 be
       0.17814055 -0.027838254 0.06872801 -0.17916799
000380 30 53 7d 3d ac 31 7b be 0d c8 35 3e 96 bf 50 3d
       0.061846912 -0.24530667 0.17752095 0.05096396
000390 d0 4e 63 3d 18 18 80 38 8b 29 3c 3e 71 8f 21 3c
       0.055495083 6.1080034e-05 0.18375222 0.009860859
0003a0 0c 1c 1a be 27 99 b7 3d b6 70 47 bc b4 d3 7a 3d
       -0.15049762 0.08964758 -0.0121728685 0.061237052
0003b0 dd d0 10 be ed 73 7a be 03 11 d0 3d 08 82 a4 bd
       -0.14142175 -0.24458285 0.10159495 -0.08032614
0003c0 02 1e 84 bc f2 d6 c9 3d ac 88 f4 3c cc 43 e0 bc
       -0.01612759 0.09855451 0.029850326 -0.027376078
0003d0 e6 3d 99 bd 8f 8f f2 be b2 94 86 be 34 5e 13 be
       -0.07482509 -0.47375152 -0.2628532 -0.14391404
0003e0 f0 9f 0b be eb 9c 9b 3d 1d 28 eb bd 62 08 90 bd
       -0.1363523 0.07598289 -0.114822604 -0.07032849
0003f0 88 b3 3c be c2 00 1d be 4f d6 51 3d b3 fb f0 bd
       -0.1842786 -0.1533232 0.05122977 -0.11766758

critic.0.bias f4 [128]
000000 87 84 12 be 7e 0c 11 bd 16 be 15 3e 6d 2a c0 3d
       -0.14308368 -0.035412304 0.14623293 0.09383092
000010 07 61 eb 3d db 25 80 3c 7d a7 c7 bd 6d f4 33 3c
       0.11493116 0.01564305 -0.09748743 0.010983569
000020 bf 65 66 bc f5 cf 4a 3c 30 c5 db bd 40 ce 8a 3d
       -0.014062344 0.012378682 -0.1073097 0.0677762
000030 f7 b7 08 bd 8b 7e 58 3e cb 7e a1 bc 98 50 a4 bd
       -0.033378568 0.21142022 -0.01971378 -0.080231845
000040 cb cb a0 bb 67 de af bd 1e e5 3e 3e c3 3d d5 3d
       -0.0049071065 -0.08587342 0.18642089 0.10412171
000050 c4 5f c9 3d 01 07 a3 bd 78 a6 e2 3d 0c d0 cf 3d
       0.09832719 -0.0796032 0.11066908 0.10147104
000060 a8 cc 33 bd e2 2c 1c 3e 88 1a 3e 3e 15 52 9b bb
       -0.043896347 0.15251496 0.18564808 -0.0047400096
000070 85 54 f0 3d 93 80 b2 3d a8 5a b7 3d 58 36 53 be
       0.11734871 0.0871593 0.08952838 -0.20626199
000080 ae 63 c0 3c c1 80 9b bd bc 54 33 be 5b 42 61 3a
       0.023485031 -0.07592917 -0.17512792 0.00085929566
000090 98 1e 5c ba a5 59 37 3d d1 4e 09 3e 1f 56 8f 3d
       -0.0008396893 0.044763226 0.13408972 0.06998848
0000a0 28 7d 3e 3e b6 dc 09 bd c1 17 28 be c2 9f b2 3a
       0.18602431 -0.033657752 -0.16415311 0.0013627934
0000b0 1e 45 71 3e 29 bf a6 3d 16 bd 02 3e 69 94 74 3d
       0.23561522 0.0814193 0.12767443 0.059711847
0000c0 cc 92 77 3d 7c a5 6a be dc 6a 9d 3d da fb 54 3c
       0.06044273 -0.2291469 0.076863974 0.012999499
0000d0 0a ba 3f 3d ce 5d 1b 3d ab de 14 be f9 39 df 3d
       0.04680828 0.037931256 -0.14538066 0.10899729
0000e0 08 4d 50 be 16 6f 06 3b a6 35 af 3e 14 c9 8a 3e
       -0.20341885 0.002051299 0.34220618 0.27106535
0000f0 64 d5 c8 bd 45 f5 28 3e b7 32 14 3e fb d2 8f 3e
       -0.09806326 0.16499813 0.14472471 0.28090653
000100 65 5e 11 3e dc 9a 3f 3d a8 e8 f1 3c 84 98 ae 3c
       0.14196165 0.046778545 0.029529884 0.02131296
000110 0d 95 af bd f3 2d 37 3e f7 54 b9 3d ca 1e 54 3e
       -0.08573351 0.17888622 0.09049409 0.2071487
000120 80 4a 6b 3e cb b7 a1 bd 5a f5 12 3e 78 74 46 3e
       0.22977638 -0.07896384 0.14351407 0.19380367
000130 ee 54 91 bd 2a bf 20 3e 2c d0 14 bd 58 4c 1f bd
       -0.07096277 0.15697923 -0.03633134 -0.038891166
000140 1c 31 1f 3d 86 c4 de 3d b6 dd f2 bd 5d 66 c6 bc
       0.038865194 0.108773276 -0.11858694 -0.024218732
000150 3a 93 f4 3d a3 b3 5e 3e 22 2b 8a 3d da 77 29 3e
       0.11942144 0.21748213 0.06746508 0.16549626
000160 77 98 6f 3e f9 a6 86 bd 33 51 d9 3d ac ad 08 be
       0.23398004 -0.06574816 0.10611191 -0.133475
000170 20 33 f0 3d 24 3f aa bd ea 35 45 3e 3b dc df 3d
       0.11728501 -0.08312824 0.19258848 0.109306775
000180 44 b6 c5 3d ce 37 57 3d fe 5c 1c 3e bc b6 1a 3d
       0.09653905 0.052543454 0.15269849 0.037771925
000190 a3 25 fc bd 0c 80 1b be 20 11 96 3d 50 4a db 3b
       -0.12311866 -0.15185565 0.07327485 0.0066922083
0001a0 ee 66 72 3c 99 7e 44 bd a1 6f 76 3e 08 35 66 3c
       0.014795048 -0.047972295 0.2406602 0.01405073
0001b0 78 b4 b3 bd d9 24 2f 3e a4 49 3c 3e 65 83 ff 3d
       -0.08774656 0.171039 0.18387467 0.124762334
0001c0 36 8e 05 bc 41 49 7b 3d 22 c2 56 3d d2 07 be bc
       -0.0081515815 0.061349157 0.052431233 -0.023197088
0001d0 8e e8 17 3a ab 74 c1 3d 02 b2 65 3d 2a 5a ba bd
       0.0005794846 0.09446081 0.056077965 -0.09099229
0001e0 67 60 00 be 5b b6 50 3d ac 29 48 3e f7 a1 62 bc
       -0.12536775 0.050955158 0.19547147 -0.013832561
0001f0 03 7a 29 3e 55 6c 47 bc bd 85 39 3e 93 86 0a be
       0.1655045 -0.012171824 0.18117423 -0.13527898

critic.2.weight f4 [64, 128]
000000 e7 b2 4e bb 00 20 3a bd 38 44 9a bc b4 fb 0a be
       -0.003153974 -0.045440674 -0.018831357 -0.1357258
000010 eb 51 b0 3d e6 db fb 3d 9d 8b 29 3e 09 9c 14 3d
       0.086093746 0.12297802 0.16557164 0.03628162
000020 0d 94 85 bd fc 00 64 3d 7c 83 89 3d 88 f3 0b 3e
       -0.06522379 0.055665 0.06714532 0.13667119
000030 bf 6a a2 3d 5c 21 09 be cd 7c fd 3d 04 37 e3 3d
       0.079305165 -0.13391632 0.123773195 0.11094478
000040 f5 f8 7c 3c a4 02 02 bd 56 a4 20 bc c9 50 02 3e
       0.015440215 -0.0317408 -0.009804806 0.1272613
000050 ea f3 35 bd 06 c3 29 be 48 98 3e 3c e4 bb bd 3b
       -0.044422068 -0.16578302 0.011632986 0.0057902206
000060 c9 a4 f8 bd 61 1d a9 bc 98 bd 8c 3d e9 c2 a6 3d
       -0.12140805 -0.020643892 0.068721 0.08142645
000070 a4 11 c9 bc 23 0b ee bc f1 ea ab 3d ec 59 b0 bc
       -0.024544545 -0.029058045 0.08394421 -0.021527253
000080 17 5f 88 bd 5e 6d 56 bd e3 2c 27 3e 0b ad ac 3d
       -0.06658762 -0.052350394 0.16325717 0.08431443
000090 7e 91 0f be c7 dc 7f bd b6 33 a4 3d cc 1a 14 3c
       -0.14020345 -0.06246641 0.080176756 0.009039592
0000a0 ae 22 ad bd 5b f7 a0 be df d0 5b 3c 16 0b 33 3d
       -0.0845388 -0.31438717 0.013416498 0.043711744
0000b0 f3 77 7a bd ef e6 28 bd 44 fb e3 3d 64 e0 e8 3d
       -0.06114955 -0.04123586 0.111319095 0.11370924
0000c0 b4 1d 74 be 1d 5c be 3d 17 0c ae bd e6 ca 1b 3d
       -0.23839456 0.09294913 -0.084984 0.038035296
0000d0 dc 3b be 3c f9 e9 00 3e e8 58 a9 3d 82 48 9a 3c
       0.023221903 0.12589253 0.08268911 0.018833403
0000e0 95 e9 3c bd 3a 49 31 3e 40 2a 35 be 33 de 90 3c
       -0.0461212 0.1731309 -0.17691898 0.017684078
0000f0 d3 df 7f ba 40 2f 6a 3e 38 0b 91 bd 1a 20 4e be
       -0.00097608304 0.22869587 -0.07082218 -0.20129433
000100 bc 03 b2 3d c0 9a cf 3a 5c 8f 29 3d ef a2 5c bd
       0.086921185 0.0015838966 0.041396484 -0.053866323
000110 a6 fd 04 bd 7b 00 6b bc bf 17 0d 3d c9 f9 a5 bd
       -0.03246846 -0.014343376 0.034446474 -0.08104283
000120 65 08 75 be 2f 4c d0 3b bb 20 df bc 7b ce 96 bb
       -0.23928984 0.006356738 -0.027237287 -0.004602251
000130 2d f5 f8 ba 4f ed 1f 3d 71 3f 2d bd f8 a4 36 3e
       -0.0018993967 0.039044674 -0.04229683 0.17836368
000140 61 97 b6 3d 29 bf 60 3d ba 99 40 bd 68 6a 4c 3d
       0.08915592 0.054869805 -0.047021605 0.049906164
000150 e8 13 4e 3d 27 88 02 3d ac 7d 4f 3d f7 3c 6b 3d
       0.050311953 0.031868126 0.05065696 0.057431187
000160 d4 3a c3 bc 4f 3b 02 3d ad ad c9 bc 4d c5 ee bd
       -0.023831762 0.031794842 -0.024618948 -0.11658726
000170 5a 94 ee 3d 89 6d 4b 3d 42 dc aa 3c 0b 15 21 bc
       0.116493896 0.049665008 0.02085698 -0.009831677
000180 cb 57 bd 3d b4 99 7e 3d 04 67 17 be a3 d1 5a 3d
       0.09245261 0.0621583 -0.14785391 0.05342258
000190 ee 25 83 3c a0 b0 fd bd 8f 01 e0 3d 9f 94 05 be
       0.016009297 -0.12387204 0.10937797 -0.13044976
0001a0 59 85 92 bc 5c 7c 6d 3e b5 fc 6d 3c 4c 38 72 bd
       -0.01788585 0.2319197 0.014525582 -0.05913572
0001b0 35 1f 80 3d 4a 18 6e bd 58 fd 2d bd 2c 4e 4b bd
       0.06255952 -0.058128633 -0.042477936 -0.049635097
0001c0 ec 15 53 3c ba 9c f7 3c 10 75 7b 3c 6e e5 d9 3d
       0.012883645 0.0302261 0.015347734 0.10639463
0001d0 86 f7 15 3c 68 50 49 39 4d 24 3b 3e cd d2 2b bb
       0.0091532525 0.00019198807 0.18275566 -0.0026218176
0001e0 71 45 5d bd 28 65 ad bd bb 67 1d 3e 05 71 af 3b
       -0.054021303 -0.0846656 0.15371601 0.005354049
0001f0 90 4b 1a 3c 3f 5c 79 3d 05 30 89 bd 30 d3 09 bd
       0.00941743 0.06087899 -0.06698612 -0.03364867
000200 0e 68 89 3d d0 d6 a3 bb c8 e6 ad 3d 92 0d 73 3d
       0.067093 -0.004999973 0.08491284 0.059339114
000210 95 3c 84 bd ba 76 70 3c 66 4f 18 3d 11 62 e6 3d
       -0.064568676 0.014676744 0.037185095 0.112491734
000220 e5 e5 ae 3d 2c 00 02 3d 63 0d 91 3d ec 20 b0 bd
       0.08539943 0.031738445 0.070826314 -0.08600029
000230 c9 ae 21 3d 0c 7f 5a 3d 03 77 c5 3d 17 a7 04 bb
       0.03947333 0.053343818 0.0964184 -0.0020241195
000240 7e 2b 48 bd 48 b8 24 3e 74 26 44 3d b1 1e f6 3d
       -0.048869602 0.16085923 0.047888234 0.12017573
000250 03 de 85 bd 01 68 99 bd 8f 5d ff bc 81 e0 a1 3d
       -0.06536486 -0.0749054 -0.031172542 0.07904149
000260 e2 60 ce 3d 93 c4 0a 3e 30 95 87 bc 28 27 46 be
       0.10077073 0.1355155 -0.01655063 -0.19350874
000270 30 52 29 be 1e 66 72 3d 69 6f b9 bd 4a 3e 25 3d
       -0.16535258 0.059179418 -0.09054453 0.040342607
000280 06 e0 a8 bd b1 3c 7e ba a7 87 4e be dd 8f 6a 3c
       -0.08245854 -0.0009698375 -0.20168935 0.014316526
000290 51 90 d7 3c 30 e0 1e 3d cc 67 cb bd c5 d4 c2 bd
       0.026313933 0.03878802 -0.09931907 -0.09513239
0002a0 59 cc aa 3c 72 78 05 bc 61 1e 40 3d 1c f1 93 bd
       0.020849394 -0.008146392 0.04690397 -0.07223722
0002b0 e5 2b b1 bd 99 3f a5 bc d9 91 99 bb 89 41 ab bd
       -0.0865095 -0.020171927 -0.004686576 -0.08362109
0002c0 d7 c6 a6 bc a5 22 46 3d 67 da 02 3d cd 02 80 3a
       -0.020358486 0.048372883 0.031946566 0.000976646
0002d0 e5 b2 59 bc 1c d0 e8 3d f8 aa 8a 3d 53 5d b0 3d
       -0.013287281 0.11367819 0.06770891 0.0861155
0002e0 80 5b 4d bb d8 bd 89 3b 21 c3 3a bd 82 b9 9e bc
       -0.0031335056 0.0042035393 -0.045596246 -0.019375566
0002f0 76 2c 3d 3d 5c 1a 49 bd 42 67 02 be ea 1f 00 bd
       0.04618498 -0.049097404 -0.12734702 -0.031280436
000300 ae 4f ce bd 0c 84 93 3c 55 6e bd 3d 1c cf 0d 3e
       -0.100737914 0.0180073 0.0924956 0.13848537
000310 8c a7 ac bc 20 fb 38 3d 4c 66 34 3a 58 f2 b5 bd
       -0.021075986 0.045161366 0.00068816985 -0.08884114
000320 f3 8f 09 be 6b f0 33 3d 14 08 51 be 0e 3b 14 3d
       -0.13433819 0.043930452 -0.20413238 0.03618913
000330 84 3e df ba bf e8 d2 3c 60 86 92 bd 07 ba e8 3d
       -0.0017032181 0.025745748 -0.07154536 0.11363607
000340 4f 35 e7 bc f8 2a eb bc 02 16 5e 3d 37 5b ac 3c
       -0.028223662 -0.028707013 0.054220207 0.021039588
000350 9f 5d ae 3d 6d 4c f1 3d 38 cd fe bc a0 3e cc 3d
       0.085139506 0.11782155 -0.031103715 0.09972882
000360 97 d2 af 3c 50 60 d5 3d b7 3e 38 3e 19 48 98 bc
       0.021462722 0.10418761 0.17992674 -0.018589066
000370 ff 4f be bc 42 5d df 3c fb a2 6a bc a2 8a 3c 3d
       -0.023231504 0.027266148 -0.014321084 0.046030648
000380 21 5f 2f bd 9a 40 e9 bc ea 7b 53 bd d5 fc 14 bd
       -0.04281533 -0.028473187 -0.051631846 -0.036373932
000390 f6 b5 c6 bc 2e 2f 0b 3d be 80 df 3c c0 fb 63 bd
       -0.024256688 0.03398054 0.027283069 -0.05566001
0003a0 15 8f d3 3c e3 f2 ca bc 4d 81 0b 3d fc 11 f7 bd
       0.025825063 -0.02477402 0.034058858 -0.12063977
0003b0 f4 46 a4 bd be 09 80 bd 0f 3e 69 bd 6b 29 21 3d
       -0.08021346 -0.06251858 -0.05694395 0.03934614
0003c0 ce 46 54 bc 74 fe 20 3c ea 6b 1e 3e 94 61 e6 bc
       -0.012956334 0.009826291 0.15470853 -0.0281227
0003d0 29 68 7d 3a 6f f8 0c bd af 2b e7 bd 57 da 2e 3d
       0.0009666705 -0.034416612 -0.11287629 0.042688694
0003e0 31 db 1a bd 17 7e f7 bd cd 7f 66 bc d3 6c 98 3c
       -0.037806693 -0.120845966 -0.014068556 0.018606579
0003f0 68 5f e3 3b cf 53 d7 bc 15 bc 47 bd e1 45 79 bd
       0.0069388635 -0.02628508 -0.048763353 -0.060857657

critic.2.bias f4 [64]
000000 b5 8f 82 bc 6f 06 e2 bd 42 8b 77 3d fa b8 9d 3d
       -0.015937665 -0.11036383 0.06043554 0.07701297
000010 61 23 67 bc f7 51 88 bd 85 1e 14 ba 5b 55 4d 3c
       -0.014107556 -0.066562586 -0.00056503 0.012532557
000020 90 5a aa 3d 7b 7d 09 3e e2 f4 c3 3b 4e ab 6f bc
       0.08318055 0.13426773 0.00598012 -0.014628245
000030 35 95 6a bd 53 85 8d 3c b5 d8 11 3d 50 7b 4e 3b
       -0.0572712 0.017275488 0.03560706 0.0031506605
000040 ae e4 8d 3d 3f 5d ba 3d 88 94 08 3c b6 60 ab bd
       0.06928383 0.090998165 0.008336194 -0.083680555
000050 0b 52 81 bd b1 7a 46 bd 8b 9a dd bd 07 d3 ab 3c
       -0.063144766 -0.04845685 -0.10820492 0.02097465
000060 76 c7 77 bd c8 74 c6 bc 7a 68 7c 3c d9 1d d0 3c
       -0.060492955 -0.024225608 0.0154057685 0.025404857
000070 ad ad ac 3c ef 3d f7 bd 68 ce 73 bc 2f 90 51 3c
       0.021078909 -0.1207236 -0.014880754 0.012790724
000080 c7 7e b5 bd dc ec 9d 3c f0 e6 ab bd 57 05 f5 bb
       -0.088620715 0.019277982 -0.08393657 -0.007477443
000090 75 f0 d6 3d d0 95 70 3d 87 ee b1 3d 05 93 19 3e
       0.10495082 0.058736622 0.086880736 0.1499749
0000a0 8c e4 12 bc 4c 52 f6 3c 60 55 15 bd 7c 89 02 bd
       -0.008965623 0.03006854 -0.036458373 -0.031869397
0000b0 e3 c2 7a 3d 73 e4 bb 3d ce e3 ad bb 6e c4 80 3b
       0.061221015 0.091744326 -0.0053066975 0.0039296662
0000c0 04 45 6d bc dd 98 f1 3d e8 cd aa bc 7c b0 d9 3c
       -0.014481787 0.117967345 -0.020850137 0.026573412
0000d0 f4 ad 8b bc 81 b4 e4 3d 5b 49 49 3c dc f2 9d bc
       -0.01705072 0.11167241 0.012285556 -0.019280843
0000e0 20 bf 98 3c b5 02 bb bd 9f 40 d5 bc 79 b0 70 3d
       0.018645823 -0.09131376 -0.02603179 0.058762047
0000f0 67 2f ed 3d a9 4a 67 bd 4f 11 2e bd 44 e8 ab 3d
       0.11581307 -0.056467686 -0.042496976 0.083939105

critic.4.weight f4 [1, 64]
000000 05 8f 36 3e 51 04 8e 3d 1d 93 b9 3d cb 09 c6 be
       0.17827995 0.06934417 0.09061263 -0.38679346
000010 c8 2b b7 3d 69 45 db bd e6 2c c6 be 67 16 f8 bd
       0.089438975 -0.10706598 -0.3870613 -0.12113648
000020 f9 4e 11 3d 6d 28 ec be a5 b9 0e be dd 36 90 3d
       0.035475705 -0.46124592 -0.13938005 0.07041714
000030 9e de 73 3e 34 93 89 bd e3 6b 9a 3e b5 a7 7d be
       0.2381539 -0.0671753 0.30160436 -0.24771006
000040 9a a7 5a 3e f9 0d 10 be ed e4 c6 bd e4 aa 1c 3d
       0.21352997 -0.1406783 -0.09711633 0.03824891
000050 24 2b 2b be 8e 97 06 be 52 e4 26 be 39 bc f6 3d
       -0.16715676 -0.13143751 -0.16298035 0.120476194
000060 07 46 61 be b6 af 8a 3e f3 dd e7 3d 48 9b 12 be
       -0.2199937 0.27087182 0.1132163 -0.14317048
000070 b5 c3 bb 3d 16 62 84 3e c3 49 61 3d 0f 9a ef bc
       0.091681875 0.25856084 0.055001985 -0.029248266
000080 6d 84 b0 3e d9 46 4f 3e c3 49 d6 3d 5e 10 0e 3e
       0.34476033 0.2024187 0.10463288 0.13873431
000090 4a 01 9d 3d 77 66 09 3e 97 34 d8 be 7e e6 9e be
       0.076662615 0.13417993 -0.42227623 -0.31035227
0000a0 4b f9 74 3d cc c5 20 be d7 db d6 3d 5f 73 29 3e
       0.059808057 -0.15700454 0.1049115 0.16547917
0000b0 71 ba dd be de 5b 1e 3e f0 0a 44 be 4e 59 50 be
       -0.43306306 0.15464732 -0.19144797 -0.20346567
0000c0 bd a7 e3 bb ce 10 c7 be d5 ab eb 3d 7d dc 96 3b
       -0.006947486 -0.38880008 0.11507384 0.004603921
0000d0 50 d2 5b be f9 87 f8 3d 74 65 69 3d 8c b5 46 3e
       -0.21466947 0.1213531 0.05698152 0.19405192
0000e0 45 6d ee 3d b5 a8 ad 3d be d8 2f 3e 55 b9 99 be
       0.11641935 0.08479444 0.17172524 -0.3002421
0000f0 bb 38 c7 be 04 3e 13 be 55 b2 41 bd e8 58 89 3d
       -0.3891047 -0.14379126 -0.04728921 0.06706411
