PPO_preTrained/20220510/PPO_20220510_0_350.pth (torch, 110785 bytes, 11 tensors)

actor.0.weight f4 [128, 35]
0.1984042 -0.10302932 0.18270232 0.19022565 -0.1324867 0.021282215 -0.0002684868 0.13210869
-0.13406087 -0.032317642 0.20677821 -0.07388907 0.22114873 -0.15534444 0.16045235 0.12628993
-0.061196968 -0.0056456663 0.09738465 -0.07148209 0.08357601 0.045330346 -0.030400462 -0.19780667
-0.07906174 -0.1274911 0.0044972575 0.20023139 0.12422482 -0.014436981 0.163174 0.11455497
0.07624706 -0.9283879 -0.07638438 0.07094113 -0.057083037 -0.0061538937 -0.004488787 0.008699559
0.19085222 0.028194508 -0.13523947 0.15977326 0.0880579 -0.7375392 -0.10082454 -0.14924134
-0.28604898 0.15512012 0.11869645 0.054512855 0.093768954 0.0308699 0.05828858 0.14789024
-0.13648799 -0.3331491 -0.23971784 -0.009443951 -0.07809845 0.044332575 0.06178283 0.15931222
-0.14804235 0.03188721 -0.10017899 -0.117426604 -0.035246782 -0.23172726 -0.21834576 -0.101512715
0.063351005 0.1499851 -0.015990058 0.09505951 0.0063982685 -0.12208119 0.07431959 0.14261416
0.7206953 0.27564463 0.11150528 0.32270753 -0.11181323 -0.0021848334 -0.0048227566 0.191092
0.1815582 0.32589883 -0.18898037 0.101931475 0.09825253 0.13304682 -0.20258372 0.027351992
0.08631297 -0.113641605 0.03389126 0.13748439 -0.11922845 0.18647662 0.21211383 0.0908769
0.064558744 -0.024004353 0.056660313 -0.12965997 -0.1018111 0.07975895 0.266645 -0.087044865
0.17374116 -0.019484801 -0.13933535 -0.0780621 0.043215733 0.3045524 0.03752174 0.10552867
0.42703813 0.00885742 0.07477051 0.15626523 0.038760833 -0.14956428 -0.0011317645 0.1927725
-0.0019760143 0.1875672 -0.06420569 0.005724388 0.022735875 -0.40907025 0.26416194 0.01504128
0.22325526 0.33239144 0.017442103 0.103387676 -0.18002819 0.17058645 -0.13277423 -0.15652214
-0.06270923 0.0434274 0.009784557 -0.12917034 -0.10308359 0.012958981 0.07203012 -0.10358468
-0.16211925 -0.11103223 -0.55486184 -0.14551719 -0.04384029 0.05178417 0.09615653 -0.07118874
0.3123018 0.20823039 -0.09823855 0.09955015 -0.080928124 0.19845194 0.05010511 0.07297782
0.015355452 -0.1075685 -0.0219858 -0.03427835 0.44985563 -0.24153325 0.0850676 -0.0986272
0.2037086 0.018952167 0.19195694 -0.19548215 0.026842738 0.22993013 0.22139189 0.103394926
0.028419022 0.1570836 -0.03706574 -0.23955289 0.1017448 0.09474247 -0.15815146 -0.041094936
-0.14643867 -0.22438855 0.009457734 -0.21387869 0.12201345 -0.22301532 -0.09530665 -0.08397101
0.1257871 0.034120444 0.077256806 -0.023179628 -0.26362893 0.11634105 0.099510856 -0.01008764
0.28512132 -0.15580894 0.042970818 0.11083041 -0.06150211 0.03976711 0.13918178 -0.15671967
-0.05512285 0.062224124 0.044108618 0.06392933 0.6748499 0.106621936 0.0676837 0.08987803
-0.14686319 0.047712136 -0.14363198 0.14841284 -0.0833764 -0.115305655 -0.24290739 0.09012743
-0.10856699 -0.1049541 -0.041394074 0.1144431 0.16741505 -0.15856762 0.0884231 0.061360013
-0.3263141 0.2013165 0.0066096517 -0.08120093 -0.22856161 0.2434874 0.078276396 -0.13696799
-0.015205599 0.16699778 0.17014366 -0.10873827 -0.13478105 0.11807074 0.26270273 -0.5161743
00000000: 782a 4b3e 0901 d3bd 5116 3b3e 83ca 423e
00000010: 98aa 07be 0a58 ae3c b0c3 8cb9 8047 073e
00000020: 4147 09be 815f 04bd abbd 533e 2753 97bd
00000030: d074 623e 9d12 1fbe 9f4d 243e 2652 013e
00000040: aca9 7abd 48ff b8bb 9a71 c73d 3465 92bd
00000050: e629 ab3d 50ac 393d 640a f9bc d58d 4abe
00000060: 1feb a1bd 078d 02be bb5d 933b 7509 4d3e
00000070: 9569 fe3d 1689 6cbc 1617 273e cc9b ea3d
00000080: 6b27 9c3d d4aa 6dbf 6a6f 9cbd 9549 913d
00000090: e7cf 69bd 9aa6 c9bb ad16 93bb 9888 0e3c
000000a0: c46e 433e 2bf8 e63c 377c 0abe 9a9b 233e
000000b0: b357 b43d 5ecf 3cbf 197d cebd b9d2 18be
000000c0: 0375 92be cfd7 1e3e 2017 f33d df48 5f3d
000000d0: f009 c03d dfe2 fc3c 02c0 6e3d 8a70 173e
000000e0: 82c3 0bbe 8592 aabe 9878 75be cdba 1abc
000000f0: 15f2 9fbd 1396 353d fe0f 7d3d be22 233e
00000100: 6a98 17be 2a9c 023d a42a cdbd 5c7d f0bd
00000110: ee5e 10bd e949 6dbe 0896 5fbe e6e5 cfbd
00000120: 2cbe 813d b295 193e 95fd 82bc 8fae c23d
00000130: 91a8 d13b b405 fabd df34 983d 7209 123e
00000140: 7d7f 383f 4b21 8d3e e15c e43d ec39 a53e
00000150: 56fe e4bd 6c2f 0fbb 3708 9ebb 9fad 433e
00000160: 65ea 393e 36dc a63e 1284 41be 73c1 d03d
00000170: 9f38 c93d 6d3d 083e 1b72 4fbe 4911 e03c
00000180: dbc4 b03d eebc e8bd 90d1 0a3d b5c8 0c3e
00000190: 0c2e f4bd baf3 3e3e 5e34 593e ab1d ba3d
000001a0: 6037 843d c7a4 c4bc a514 683d 95c5 04be
000001b0: 5782 d0bd a958 a33d b285 883e 9444 b2bd
000001c0: 34e9 313e 979e 9fbc edad 0ebe 06df 9fbd
000001d0: fb02 313d 4bee 9b3e 65b0 193d 6a1f d83d
000001e0: bea4 da3e b61e 113c 4821 993d fe03 203e
000001f0: aec3 1e3d 6127 19be b757 94ba 2766 453e
00000200: 0580 01bb 9e11 403e 467e 83bd a693 bb3b
00000210: 9640 ba3c a871 d1be 3c40 873e b36f 763c
00000220: 079d 643e 362f aa3e bee2 8e3c ebbc d33d
00000230: 4f59 38be 37ae 2e3e f8f5 07be 5747 20be
00000240: b26d 80bd eee0 313d 684f 203c 3b45 04be
00000250: 7d1d d3bd e851 543c 8784 933d 3424 d4bd
00000260: 9702 26be de64 e3bd 6d0b 0ebf 7502 15be
00000270: e091 33bd a31b 543d b7ed c43d 67cb 91bd
00000280: 06e6 9f3e 593a 553e 4b31 c9bd f3e0 cb3d
00000290: a5bd a5bd fc36 4b3e 043b 4d3d 6575 953d
000002a0: 6f95 7b3c e04c dcbd 901b b4bc 7567 0cbd
000002b0: 7a53 e63e 7e54 77be ec37 ae3d 0ffd c9bd
000002c0: fd98 503e 9341 9b3c 5c90 443e 792c 48be
000002d0: 4de5 db3c ce72 6b3e 8eb4 623e b8c0 d33d
000002e0: 02cf e83c 86da 203e 3fd2 17bd 5a4d 75be
000002f0: 945f d03d 5708 c23d 75f2 21be 2a53 28bd
00000300: 05f4 15be 1dc6 65be 9df4 1a3c 0403 5bbe
00000310: 30e2 f93d 215e 64be 2230 c3bd fef8 abbd
00000320: 55ce 003e e1c1 0b3d d138 9e3d 34e3 bdbc
00000330: 5ffa 86be 3744 ee3d 59cc cb3d a146 25bc
00000340: 6cfb 913e 618c 1fbe 2b02 303d 0efb e23d
00000350: a3e9 7bbd d6e2 223d ab85 0e3e 1f7b 20be
00000360: 7fc8 61bd b9de 7e3d 3dab 343d 61ed 823d
00000370: f7c2 2c3f 9a5c da3d c09d 8a3d f911 b83d
00000380: 4e63 16be cd6d 433d 4314 13be 89f9 173e
00000390: 3fc1 aabd 5f25 ecbd b7bc 78be bb94 b83d
000003a0: 5f58 debd 2df2 d6bd d58c 29bd 2561 ea3d
000003b0: da6e 2b3e 8d5f 22be 2c17 b53d a354 7b3d
000003c0: a412 a7be ea25 4e3e c795 d83b ac4c a6bd
000003d0: 0e0c 6abe c354 793e 604f a03d 5641 0cbe
000003e0: e820 79bc 7701 2b3e 243a 2e3e 2cb2 debd
000003f0: 0b04 0abe 12cf f13d f980 863e 0024 04bf

actor.0.bias f4 [128]
-0.027078073 -0.16131535 0.11906862 -0.08600132 -0.07611687 -0.1928954 0.11057612 -0.20392743
0.0928986 -0.09978649 0.100412995 -0.0047961813 0.006586029 -0.18235311 0.07765571 0.19418763
0.072266266 0.16298363 0.1757122 -0.016964497 0.021836817 -0.15830079 0.006758376 0.10197386
-0.12454953 0.07633476 -0.04918951 0.25147372 -0.13494638 -0.108011924 -0.025311662 -0.16025016
0.011548536 0.24804795 0.046376586 -0.024340922 -0.038813494 0.04231284 0.0706966 0.1728669
0.17246547 0.2046701 0.045713414 0.03899895 0.16684413 0.053902872 0.1150437 -0.18857987
0.30428708 0.25740024 0.094918996 -0.14685087 0.024390735 -0.0076242983 0.017344398 0.09388809
0.15048721 -0.07501248 -0.16111967 0.07673645 -0.061878115 -0.033511285 0.22954053 0.1637475
-0.13210742 0.13345225 0.11970141 0.025097718 -0.06906022 0.02513564 -0.03442121 0.20689829
0.12043805 -0.006049687 -0.13783467 -0.08107602 -0.19414471 -0.1915772 -0.096673764 -0.0019838521
0.24724022 0.1278243 -0.22961438 -0.12204848 0.09872791 -0.08826058 -0.17106147 0.036003515
0.06298286 0.04129911 0.026828593 0.21208149 0.0014004718 -0.14421059 0.111830495 0.058833774
-0.0055297823 -0.07435077 -0.0019293943 -0.2163839 -0.010006842 0.16107698 0.03191176 0.06518364
0.012891463 0.033896673 0.16025308 0.16118701 0.09496039 -0.24568614 -0.1227175 0.21646547
-0.032895144 0.0070285387 -0.04043211 -0.31929842 -0.12325689 0.118828245 -0.17878692 0.2145904
0.029068671 0.19360444 0.18047135 0.30249268 -0.19318068 0.005443276 0.2678019 -0.035200156
00000000: d6d2 ddbc da2f 25be 40da f33d 7621 b0bd
00000010: 29e3 9bbd 5f86 45be bc75 e23d 5ad2 50be
00000020: 9f41 be3d dc5c ccbd 54a5 cd3d 4929 9dbb
00000030: 9ecf d73b c6ba 3abe f509 9f3d 1fd9 463e
00000040: 5600 943d 2ee5 263e e6ed 333e 21f9 8abc
00000050: 20e3 b23c 9a19 22be 5e75 dd3b acd7 d03d
00000060: d313 ffbd 6655 9c3d f17a 49bd 2ac1 803e
00000070: 622f 0abe 5b35 ddbd 675a cfbc 9e18 24be
00000080: 1236 3d3c 4800 7e3e 60f5 3d3d 9d66 c7bc
00000090: e6fa 1ebd 3b50 2d3d 61c9 903d 0504 313e
000000a0: ca9a 303e 0a95 513e fd3d 3b3d 5dbd 1f3d
000000b0: 30d9 2a3e 42c9 5c3d 089c eb3d 151b 41be
000000c0: 84cb 9b3e f7c9 833e e464 c23d 1360 16be
000000d0: 14cf c73c 40d5 f9bb d715 8e3c 6648 c03d
000000e0: 5219 1a3e 25a0 99bd 8efc 24be 0028 9d3d
000000f0: e873 7dbd 2143 09bd ac0c 6b3e 6dad 273e
00000100: 2b47 07be b5a7 083e 0326 f53d bb99 cd3c
00000110: 726f 8dbd 42e9 cd3c 41fd 0cbd 25dd 533e
00000120: 39a8 f63d 743c c6bb 8824 0dbe 2f0b a6bd
00000130: dfcd 46be d02c 44be e5fc c5bd 8403 02bb
00000140: 8a2c 7d3e 60e4 023e 0820 6bbe 8ef4 f9bd
00000150: dc31 ca3d f7c1 b4bd bd2a 2fbe 6c78 133d
00000160: 28fd 803d 4129 293d a3c7 db3c e42b 593e
00000170: 0990 b73a f1ab 13be 6307 e53d affb 703d
00000180: 2d33 b5bb 3745 98bd bbe3 fcba be93 5dbe
00000190: bdf3 23bc 5df1 243e e8b5 023d 007f 853d
000001a0: b736 533c 3dd7 0a3d 6219 243e 350e 253e
000001b0: 987a c23d 2695 7bbe 5053 fbbd 20a9 5d3e
000001c0: 0fbd 06bd a84f e63b 249c 25bd 157b a3be
000001d0: 1c6e fcbd 395c f33d eb13 37be 96bd 5b3e
000001e0: 6c21 ee3c 3e40 463e 7bcd 383e 52e0 9a3e
000001f0: 28d1 45be 825d b23b 551d 893e 0a2e 10bd

actor.2.weight f4 [64, 128]
-0.35322008 0.0808196 0.014108086 -0.008071491 -0.05869004 -0.11160194 -0.17648588 -0.22825445
0.101417474 -0.09766878 0.17523763 0.12892859 0.07807121 0.072267585 0.06977461 -0.13742225
0.6577799 -0.13155542 0.045597255 0.047774646 -0.27345607 -0.12668785 -0.06583432 0.08064288
0.0952235 0.109053895 -0.24491304 0.010775274 0.0497245 0.04995638 -0.03623079 0.16831079
0.1800367 -0.32340136 0.032363724 0.11234847 -0.07777458 0.0976783 -0.10478455 -0.025242556
-0.04657078 -0.09810465 0.14943923 0.3654295 -0.0065098824 0.07211393 -0.16836141 -0.13643353
-0.19905904 -0.043716043 -0.037892696 -0.20679663 0.003463319 0.13282467 -0.12404574 -0.12295063
0.08715809 0.13198347 0.046857774 -0.13072477 0.035747238 0.059297416 -0.018186036 0.03479456
0.22201723 -0.06571957 -0.06879242 0.18485074 0.058492173 -0.07484603 -0.031171348 0.28238988
-0.0035003116 0.13140135 -0.010980572 0.315982 0.031257443 -0.053907644 0.06495748 0.04866261
0.19718356 -0.045924965 -0.23653492 -0.23529352 0.00729917 -0.09419082 0.03675017 -0.025054362
0.07898341 -0.14286897 0.27693036 0.03454087 -0.06948498 0.010240344 0.16513596 0.065991454
-0.18476568 -0.12934487 0.01757678 0.14222327 -0.1396935 -0.13668153 -0.062294092 0.30465677
-0.06375303 -0.17691597 0.3353124 0.0055541084 -0.14597787 0.07561742 0.099519216 -0.086783975
0.12448938 0.19336575 -0.12831262 0.04372653 0.14857262 0.11147298 -0.04145254 0.18899176
-0.07435294 -0.024097634 -0.07078136 -0.10606868 0.105674095 0.08346508 0.009640074 -0.0932948
0.12141625 0.014246954 0.06691033 -0.12963744 -0.093464345 0.056469794 -0.015196653 -0.09245727
-0.12501267 -0.24012432 0.55795926 -0.1834593 -0.039430927 0.07241158 -0.12758411 0.12987366
-0.40083376 -0.05832977 -0.0025323315 -0.16001186 0.042668078 -0.06474353 -0.14174104 0.18411422
0.017829249 -0.07484405 0.090724744 -0.26567972 -0.046044372 0.011511857 -0.12881523 0.20905635
0.26391286 -0.015305889 -0.21023121 0.02278556 -0.038907677 0.041846134 0.06776429 -0.30050996
-0.16613093 0.07535429 0.123086415 0.28265932 -0.15089938 -0.113531165 -0.21101972 -0.07672021
-0.046887055 0.018455891 -0.105401054 0.16733395 0.22465791 0.09340629 0.036961596 -0.13018958
-0.056321204 0.21452357 -0.087232135 -0.0939552 0.217859 -0.024158273 0.078843154 -0.030894825
-0.030034322 0.080842495 -0.14539754 -0.08475541 -0.046629876 0.057811856 0.10717218 0.11413977
-0.13456894 0.06857679 -0.19853918 -0.09246021 -0.14399673 0.048181064 -0.005502985 0.030052913
-0.059663553 -0.16935031 0.19279374 0.17722677 -0.33492136 -0.25652683 -0.023188304 -0.0037085703
-0.12350962 -0.20230833 0.06269033 -0.11269461 -0.09816512 0.1055199 -0.40300202 0.09860071
-0.20002033 -0.1249949 -0.1710308 0.5312615 0.1839212 0.022039939 -0.013311924 0.5606992
-0.07958806 0.07361069 -0.005939872 0.10460259 -0.08220002 -0.05677817 -0.101582155 -0.081555925
0.03730557 0.09431086 -0.12620182 -0.039048344 0.23659453 -0.18960904 -0.02807344 -0.083733365
-0.27996454 0.19598623 0.11247684 0.022170953 -0.12333751 0.085312106 -0.16053067 -0.21023737
00000000: 43d9 b4be bf84 a53d 9a25 673c 493e 04bc
00000010: f864 70bd 8f8f e4bd b7b8 34be 89bb 69be
00000020: f7b3 cf3d 9206 c8bd 7e71 333e db05 043e
00000030: cce3 9f3d 0701 943d fee5 8e3d 6bb8 0cbe
00000040: 4364 283f 77b6 06be 30c4 3a3d 59af 433d
00000050: 6f02 8cbe 76ba 01be 25d4 86bd 1828 a53d
00000060: 8a04 c33d a657 df3d 7cca 7abe c68a 303c
00000070: ebab 4b3d 109f 4c3d bd66 14bd aa59 2c3e
00000080: 8a5b 383e dd94 a5be d38f 043d f416 e63d
00000090: 4748 9fbd 900b c83d 4899 d6bd 7ac9 cebc
000000a0: 01c1 3ebd 17eb c8bd 9906 193e 9319 bb3e
000000b0: da50 d5bb 78b0 933d ef66 2cbe 3bb5 0bbe
000000c0: 22d6 4bbe 980f 33bd 5f35 1bbd 7fc2 53be
000000d0: daf8 623b 3103 083e b10b febd 8acd fbbd
000000e0: f17f b23d ad26 073e f0ed 3f3d b7dc 05be
000000f0: b26b 123d d9e1 723d e2fa 94bc be84 0e3d
00000100: 7c58 633e fb97 86bd 0ae3 8cbd 8349 3d3e
00000110: 7d95 6f3d e048 99bd 0e5b ffbc 6895 903e
00000120: 7c65 65bb 138e 063e dbe7 33bc 65c8 a13e
00000130: ce07 003d 43ce 5cbd 6d08 853d 7252 473d
00000140: 7dea 493e d11b 3cbd 3636 72be c9f0 70be
00000150: e02d ef3b 1ee7 c0bd 5987 163d ce3e cdbc
00000160: 0ec2 a13d 3e4c 12be d1c9 8d3e ba7a 0d3d
00000170: 244e 8ebd 1ec7 273c 6719 293e 8726 873d
00000180: 3733 3dbe fb72 04be 2efd 8f3c faa2 113e
00000190: d00b 0fbe 3ef6 0bbe 1728 7fbd f9fb 9b3e
000001a0: f390 82bd 7629 35be 11ae ab3e 3dff b53b
000001b0: 397b 15be 4edd 9a3d bbd0 cb3d ccbb b1bd
000001c0: 4af4 fe3d ac01 463e 6264 03be 971a 333d
000001d0: 6c23 183e f24b e43d 23ca 29bd 0e87 413e
000001e0: 5b46 98bd 6768 c5bc d1f5 90bd 893a d9bd
000001f0: a96b d83d bdef aa3d 67f1 1d3c 5811 bfbd
00000200: 15a9 f83d 0e6c 693c 4808 893d adbf 04be
00000210: 3c6a bfbd df4c 673d 62fb 78bc 3d5a bdbd
00000220: 5203 00be 26e3 75be 6bd6 0e3f c1dc 3bbe
00000230: 5382 21bd 864c 943d 69a5 02be 9afd 043e
00000240: 153a cdbe 32eb 6ebd 79f5 25bb 26da 23be
00000250: b9c4 2e3d 4198 84bd 9024 11be 7088 3c3e
00000260: a50e 923c d647 99bd e5cd b93d 2c07 88be
00000270: 0699 3cbd 3a9c 3c3c 24e8 03be de12 563e
00000280: 961f 873e 8dc5 7abc da46 57be c8a8 ba3c
00000290: a85d 1fbd da66 2b3d 01c8 8a3d 71dc 99be
000002a0: 3a1e 2abe 5a53 9a3d bb14 fc3d b9b8 903e
000002b0: 5e85 1abe 0783 e8bd 8e15 58be 7c1f 9dbd
000002c0: a40c 40bd cf30 973c 82dc d7bd 9759 2b3e
000002d0: b90c 663e cc4b bf3d 0b65 173d 6b50 05be
000002e0: 10b1 66bd 11ac 5b3e c3a6 b2bd 956b c0bd
000002f0: 6e16 5f3e 92e7 c5bc 8578 a13d 2517 fdbc
00000300: 8a0a f6bc c090 a53d 18e3 14be 3f94 adbd
00000310: f8fe 3ebd 20cc 6c3d 177d db3d 1dc2 e93d
00000320: 71cc 09be fd71 8c3d db4d 4bbe c75b bdbd
00000330: e173 13be 8259 453d 6252 b4bb 8731 f63c
00000340: c561 74bd 2b6a 2dbe b96b 453e ef7a 353e
00000350: d07a abbe 7c57 83be 66f5 bdbc 7c0b 73bb
00000360: 9df2 fcbd ea29 4fbe ca63 803d 6fcc e6bd
00000370: cb0a c9bd d11a d83d 4856 cebe 2bef c93d
00000380: 21d2 4cbe 53fd ffbd b322 2fbe c100 083f
00000390: d755 3c3e 1a8d b43c 421a 5abc fc89 0f3f
000003a0: 11ff a2bd 34c1 963d 42a3 c2bb e239 d63d
000003b0: 7c58 a8bd 3a90 68bd 4e0a d0bd cb06 a7bd
000003c0: bacd 183d 0d26 c13d 0d3b 01be 28f1 1fbd
000003d0: d645 723e df28 42be 45fa e5bc 667c abbd
000003e0: 8357 8fbe 9db0 483e 425a e63d dc9f b53c
000003f0: 6098 fcbd 1db8 ae3d 2762 24be 7748 57be

actor.2.bias f4 [64]
0.025664546 -0.057110842 0.15415293 0.19835013 0.11725948 0.12314705 -0.05027397 0.029689495
-0.034360897 -0.06819412 -0.082662925 0.10465867 0.012269723 0.07304434 -0.0038942513 -0.025206588
-0.04790981 0.110760525 0.092772685 0.07395666 -0.020895477 0.05094685 -0.0003951262 0.08569202
-0.018641893 -0.056387354 0.054319844 0.017488053 -0.09135059 -0.033591233 0.025252825 -0.1452668
0.030942641 0.044138454 -0.04310599 -0.040037 -0.022401026 0.11275135 -0.079600915 -0.07010702
0.18561949 -0.1111438 0.051212158 -0.06263145 0.09348663 -0.074366964 0.015410342 -0.031986356
-0.004741965 -0.028977944 0.06502817 0.12045745 0.025955169 0.1503411 0.059659205 0.053561084
0.020209603 0.018726619 0.034496002 0.010495877 0.037203405 0.0008818187 -0.10786733 0.050310638
00000000: 743e d23c 0fed 69bd 44da 1d3e 4c1c 4b3e
00000010: bd25 f03d 8534 fc3d 14ec 4dbd 6237 f33c
00000020: 03be 0cbd 5ca9 8bbd 2e4b a9bd 4957 d63d
00000030: f306 493c 4598 953d b236 7fbb 0c7e cebc
00000040: 143d 44bd 6ad6 e23d 9bff bd3d 9776 973d
00000050: fe2c abbc a5ad 503d f128 cfb9 4c7f af3d
00000060: e2b6 98bc 6df6 66bd 7c7e 5e3d 1b43 8f3c
00000070: 0516 bbbd f696 09bd 03df ce3c d2c0 14be
00000080: 6c7b fd3c 86ca 343d e88f 30bd d6fd 23bd
00000090: 5b82 b7bc 2eea e63d ce05 a3bd 4594 8fbd
000000a0: 0913 3e3e 5c9f e3bd d7c3 513d eb44 80bd
000000b0: eb75 bf3d b54d 98bd a97b 7c3c 2004 03bd
000000c0: 7c62 9bbb 2763 edbc 7d2d 853d 65b2 f63d
000000d0: ef9f d43c 04f3 193e 365d 743d de62 5b3d
000000e0: 9c8e a53c 9168 993c ae4b 0d3d e6f6 2b3c
000000f0: 9962 183d da29 673a 8ce9 dcbd 8712 4e3d

actor.4.weight f4 [16, 64]
-0.6042859 -0.16007142 0.74369365 0.10615474 0.36137715 0.036058716 -0.4295746 -0.64298826
0.5983635 -0.7143268 -0.35028902 0.24786215 -0.45175818 -0.3088907 0.29770467 0.15635431
0.12606718 0.21934329 0.5643632 -0.33228153 -0.5392168 -0.12731975 0.38780308 0.31397656
0.10945241 0.08542149 -0.30560136 -0.7794044 -0.40446404 -0.20575051 0.2902973 -0.29923475
-0.27834025 -0.33629134 0.2214213 0.21125957 -0.32306358 0.57642394 -0.06329189 -0.7144674
0.4288907 -0.1406023 -0.2961326 0.89486176 0.2349008 -0.17264082 0.54192734 -0.06356806
0.62327725 -0.12978524 0.04341831 0.20872103 0.23587643 0.26698297 0.8152374 0.1375122
0.649272 -0.23956591 -0.20267715 0.10858367 0.8615352 0.028900301 -0.79085994 0.2298055
0.24126998 0.0025047467 -0.20579205 0.5528485 0.061719116 0.12987058 0.12897936 0.2672538
-0.61323315 0.2763266 0.3678424 -0.38041577 0.37289822 0.22479203 -0.20739692 0.13702738
-0.358864 0.5787019 -0.40301982 0.37713978 0.2911668 0.89871794 0.095662095 0.14906028
-0.87330836 -0.19351457 0.5172877 -0.042697575 -0.31371704 0.23159894 -0.0185377 0.4139502
0.7919435 0.3279311 -0.32825777 -0.387877 0.018469097 -0.2650969 -0.27254573 -0.7546906
0.0006788339 -0.6851724 0.2515971 -0.47738847 -0.105490975 -0.080867715 -0.34982628 0.32297084
-0.44145727 0.3709691 0.43760183 -0.51370096 0.7182725 0.17114754 -0.1097545 -0.017830165
-0.59025687 -0.07879727 0.32313126 -0.17396106 -0.56130683 0.04093298 -0.107806884 -0.10694982
0.07411682 0.33780068 -0.30840957 -0.39925966 -0.16201659 0.08171127 0.5359958 0.039187156
-0.68633044 0.58363134 0.69447815 -0.3002258 -0.113117576 1.0172676 -0.4967188 -0.18306893
0.42619857 -0.6197666 0.01517869 -0.13392375 0.09884696 -0.11510744 0.15301119 -0.7712798
0.44088846 -0.4398575 0.31009108 0.415121 1.1726085 -0.64548904 -0.2610191 0.8335089
0.468818 0.47689447 0.19169931 0.14089413 -0.87220705 -0.54838634 0.60201395 0.17248926
-0.17083605 0.6869581 0.14193732 -0.31647915 -0.2990473 0.09173342 -0.1759626 -0.08660383
-0.15702616 0.34119907 -0.23217966 -0.29273114 -0.2692835 -0.5511407 -0.17860715 -0.033910926
-0.2808751 0.19451705 0.7844847 0.27416575 -0.16875564 0.16501926 0.57818633 -0.62655175
0.9800222 -0.11385811 0.24058792 0.35067886 0.22034198 -0.4144787 -0.075901374 0.1934907
-0.19734368 -0.35274875 0.27991983 0.54912376 -0.09818396 0.26703075 -0.31585774 -0.6760383
-0.3475051 -0.26924068 0.5742762 0.5149511 0.016369855 -0.2987388 -0.5096248 0.28187197
-0.24852037 -0.106854744 -0.10778304 0.05847355 -0.1599446 0.28517994 -0.19344781 -0.37152728
-0.13793966 -0.16737042 -0.2477099 -0.29688436 0.5572115 0.031543206 -0.066039115 0.48424852
-0.8264346 0.036943506 -0.03399011 -0.24778046 -0.2844151 0.35521242 -0.22819416 -0.6238417
0.041538008 -0.71108484 -0.14637637 0.72180986 -0.34381166 0.09610594 0.1501062 -0.28810817
-0.68603945 -0.550763 0.7637179 -0.421865 -0.27941117 -0.36621863 -0.43723074 0.42443916
00000000: 7bb2 1abf c3e9 23be b562 3e3f a867 d93d
00000010: 6d06 b93e 4eb2 133d 34f1 dbbe e19a 24bf
00000020: 5a2e 193f 1fde 36bf 1559 b3be 93cf 7d3e
00000030: d94c e7be ec26 9ebe bf6c 983e 581b 203e
00000040: c117 013e 879b 603e 1b7a 103f ce20 aabe
00000050: 1d0a 0abf 1c60 02be 208e c63e 89c1 a03e
00000060: 9628 e03d 76f1 ae3d c877 9cbe 0c87 47bf
00000070: e915 cfbe 43b0 52be d9a1 943e 4c35 99be
00000080: 9d82 8ebe 612e acbe 44bc 623e 6e54 583e
00000090: 9768 a5be 8590 133f 2e9f 81bd 56e7 36bf
000000a0: 9097 db3e 0dfa 0fbe b19e 97be a915 653f
000000b0: d689 703e c1c8 30be c0bb 0a3f f92f 82bd
000000c0: 198f 1f3f 6ce6 04be 66d7 313d f7ba 553e
000000d0: 9789 713e feb1 883e 66b3 503f 00d0 0c3e
000000e0: b136 263f c450 75be 998a 4fbe 1d61 de3d
000000f0: 928d 5c3f 53c0 ec3c cc75 4abf 2252 6b3e
00000100: 7a0f 773e ad26 243b 27bb 52be 7b87 0d3f
00000110: 2fcd 7c3d cbfc 043e 2a13 043e 7dd5 883e
00000120: d9fc 1cbf ae7a 8d3e d755 bc3e dbc5 c2be
00000130: 84ec be3e e22f 663e dc5f 54be e850 0c3e
00000140: 06bd b7be cf25 143f 9d58 cebe 7718 c13e
00000150: d113 953e 6112 663f 7dea c33d 42a3 183e
00000160: 2391 5fbf af28 46be f76c 043f a7e3 2ebd
00000170: 859f a0be 4628 6d3e 60dc 97bc 48f1 d33e
00000180: cfbc 4a3f 96e6 a73e 6711 a8be d097 c6be
00000190: 814c 973c c8ba 87be 1d8b 8bbe 6733 41bf
000001a0: c6f3 313a 7567 2fbf 56d1 803e 436c f4be
000001b0: a70b d8bd f99d a5bd 6e1c b3be 6f5c a53e
000001c0: b006 e2be a9ef bd3e 590d e03e e881 03bf
000001d0: b5e0 373f 4d41 2f3e f8c6 e0bd 9110 92bc
000001e0: 131b 17bf 7760 a1bd 7671 a53e d922 32be
000001f0: ceb1 0fbf 57a9 273d dbc9 dcbd 8208 dbbd
00000200: 8fca 973d 36f4 ac3e dce7 9dbe c36b ccbe
00000210: ade7 25be 3d58 a73d 0537 093f b682 203d
00000220: 5ab3 2fbf dd68 153f 52c9 313f 32b7 99be
00000230: 30aa e7bd d335 823f ed51 febe 6c76 3bbe
00000240: b336 da3e 06a9 1ebf 0ab0 783c 4f23 09be
00000250: 4670 ca3d 73bd ebbd f7ae 1c3e 9872 45bf
00000260: 22bc e13e 0135 e1be 42c4 9e3e bd8a d43e
00000270: 0918 963f c53e 25bf 4ca4 85be d760 553f
00000280: ea08 f03e 832b f43e d34c 443e 8d46 103e
00000290: f648 5fbf 0c63 0cbf 961d 1a3f 06a1 303e
000002a0: a5ef 2ebe 7cdc 2f3f 0458 113e 8e09 a2be
000002b0: ba1c 99be bbde bb3d 8a2f 34be 595d b1bd
000002c0: 77cb 20be a5b1 ae3e 81c0 6dbe dbe0 95be
000002d0: 87df 89be 8f17 0dbf cbe4 36be 2fe6 0abd
000002e0: dcce 8fbe 7a2f 473e fdd3 483f 745f 8c3e
000002f0: 47ce 2cbe cffa 283e 0504 143f b265 20bf
00000300: bce2 7a3f 712e e9bd ae5c 763e 2e8c b33e
00000310: 54a1 613e 8d36 d4be 2e72 9bbd 6d22 463e
00000320: 7614 4abe 7c9b b4be a751 8f3e 6093 0c3f
00000330: ac14 c9bd 41b8 883e 1bb8 a1be d910 2dbf
00000340: 30ec b1be ead9 89be c403 133f d6d3 033f
00000350: 131a 863c 4bf4 98be c576 02bf 8651 903e
00000360: 207c 7ebe a9d6 dabd 5bbd dcbd f681 6f3d
00000370: 84c8 23be 1b03 923e 2f17 46be d338 bebe
00000380: 0e40 0dbe 2763 2bbe aaa7 7dbe 3a01 98be
00000390: 6aa5 0e3f 7333 013d 843f 87bd 6cef f73e
000003a0: 3891 53bf 1352 173d 3739 0bbd 29ba 7dbe
000003b0: db9e 91be 67de b53e bbab 69be 17b4 1fbf
000003c0: c223 2a3d a809 36bf b0e3 15be 88c8 383f
000003d0: 1508 b0be 31d3 c43d 71b5 193e ea82 93be
000003e0: 48a0 2fbf cefe 0cbf 0483 433f b0fe d7be
000003f0: fb0e 8fbe 0281 bbbe b5dc dfbe 1750 d93e

actor.4.bias f4 [16]
0.07382084 0.14822994 -0.051826216 0.039410774 -0.19306333 -0.5480501 0.06057771 0.14110014
-0.58694774 0.12955531 0.020142533 -0.64848703 -0.18597278 -0.13849293 -0.32810375 0.20282759
00000000: 612f 973d 97c9 173e ba47 54bd 316d 213d
00000010: 65b2 45be 034d 0cbf 5520 783d 8e7c 103e
00000020: 3542 16bf 26aa 043e f401 a53c 3f03 26bf
00000030: a66f 3ebe 17d1 0dbe 37fd a7be 09b2 4f3e

critic.0.weight f4 [128, 35]
0.011712159 -0.16709404 0.080403574 -0.058659013 0.017010309 -0.017873073 0.016834525 -0.023797704
-0.0032515314 0.19230162 1.6347393 -0.470227 -0.6919523 -0.7516202 -0.8352525 -0.14187992
0.06554827 0.08081537 -0.13412668 -0.07476254 -0.09133126 -0.007922298 0.180952 -0.16509077
-0.059787262 -0.5407797 -0.010002137 -0.1708233 0.041411173 0.1922847 0.23596324 0.06275011
-0.5170155 0.2144656 0.6661184 0.11856902 0.1926677 0.20603883 0.14061694 0.30479413
0.121610165 0.08254469 0.051435545 0.1237926 0.26050794 -0.5998944 -0.60315543 0.5288047
0.6445864 0.32485723 0.08326594 0.13607088 -0.074101105 -0.29391527 -0.20597208 -0.044811416
-0.06490005 -0.0077108406 -0.104951985 -0.16698419 -0.16761835 0.4162322 0.15660088 -0.088091336
0.2067545 -0.40611959 -0.054685324 -0.39859673 0.41037375 -0.3595826 -0.006725443 -0.036900587
-0.02440052 0.006917894 0.034048893 -0.041790325 0.0017381705 -0.026226811 -0.0249256 0.009696035
-0.49177408 0.47674286 0.8935553 0.7934086 0.6470118 0.33310696 0.29583508 0.15485795
-0.044661637 0.2484787 -0.048075672 -0.17580342 -0.3843738 0.37365314 0.101266995 -0.123450674
-1.2387617 0.1437924 -0.16755232 -0.32304895 -0.12209159 0.2089229 0.008627595 -0.63465446
0.0038317225 0.15992817 0.068632655 0.07558617 0.07403933 0.08253881 0.047717217 0.085234486
-0.030858018 0.05625807 -0.019589985 -0.902142 -0.26580557 -0.80198365 -0.40929896 -0.78648764
0.13153648 0.026340155 -0.13988684 0.23495644 0.22260846 -0.20003872 0.07557574 0.015946858
-0.011878634 -0.4957856 -0.38714486 0.10988367 0.15060125 0.061026935 0.17413826 0.34005347
0.39814714 0.59694356 0.29770905 0.68743426 -0.15900113 -0.1337804 -0.17991449 -0.06570767
-0.17339146 -0.20108213 -0.17564711 -0.17068475 -0.15525496 -0.047754552 -0.147715 -0.82267237
-0.37748587 -0.010191656 0.08139083 1.033004 0.039484043 -0.06482624 -0.20881702 -0.01071809
0.09441236 0.14875105 -0.010587571 -0.11141935 -0.32691386 0.18603635 -0.6310965 -0.24890487
0.11301138 0.116660126 0.11948547 -0.447617 -0.48192692 -0.34662744 -0.14073998 0.04745904
0.033737518 0.13404284 0.084018804 -0.026820052 0.046051595 0.14479248 0.05682053 0.11515264
0.13484515 -2.213181 -0.9413754 -1.2242025 -1.0998145 -0.42098626 0.76777154 0.320349
0.35759017 -0.1810064 0.14545591 -0.20439771 -0.01378262 -0.07878093 0.1802368 -0.11310012
0.16745867 0.1381961 -0.0935158 0.13654627 0.1800509 0.13105994 -0.338186 -0.45254642
-0.33631644 0.3274351 -0.14274088 -0.054830927 -0.051141635 0.00053019077 -0.06948843 -0.03663985
-0.077623084 -0.011969718 -0.14723867 -0.09648851 -0.8564974 -0.118664294 -0.76982355 -0.61584115
-1.309569 0.18931359 -0.1322048 0.18912442 0.2035015 -0.42993134 -0.11240588 0.21683605
0.15035959 -0.4757829 0.15342873 0.1938343 0.3320278 -0.10600254 0.061530817 0.23431054
0.0015069053 -0.05137545 -0.35372892 0.25256047 0.8080853 0.13047634 0.10186694 0.08639857
0.1308508 0.062794164 0.07366807 0.08606734 0.045752723 -0.027029624 0.002200151 -1.2767892
00000000: 5be4 3f3c b31a 2bbe a1aa a43d 6f44 70bd
00000010: 3459 8b3c 8d6a 92bc 8fe8 893c 67f3 c2bc
00000020: a517 55bb b7ea 443e 233f d13f 98c1 f0be
00000030: c923 31bf 2e6a 40bf 1cd3 55bf f848 11be
00000040: 2c3e 863d 8782 a53d 8158 09be 1a1d 99bd
00000050: e20b bbbd 87cc 01bc 7b4b 393e 8e0d 29be
00000060: 7de3 74bd 8a70 0abf 01e0 23bc 4eec 2ebe
00000070: c39e 293d 48e6 443e 59a0 713e 2183 803d
00000080: 215b 04bf df9c 5b3e bc86 2a3f 50d4 f23d
00000090: ae4a 453e d8fb 523e e3fd 0f3e fa0d 9c3e
000000a0: c00e f93d 310d a93d 14ae 523d fa86 fd3d
000000b0: 4c61 853e ae92 19bf 6568 1abf bf5f 073f
000000c0: 9d03 253f b053 a63e 5587 aa3d 2a56 0b3e
000000d0: 52c2 97bd 107c 96be 58ea 52be 2d8c 37bd
000000e0: 51ea 84bd 38ab fcbb 11f1 d6bd e7fd 2abe
000000f0: 25a4 2bbe 631c d53e fb5b 203e 3b69 b4bd
00000100: 74b7 533e e8ee cfbe b8fd 5fbd df14 ccbe
00000110: 821c d23e 361b b8be 1b61 dcbb 1225 17bd
00000120: 99e3 c7bc 80af e23b da76 0b3d 552c 2bbd
00000130: 53d3 e33a 9cd9 d6bc c630 ccbc 1edc 1e3c
00000140: d0c9 fbbe a417 f43e 0ac0 643f d31c 4b3f
00000150: 91a2 253f ff8c aa3e b277 973e 1593 1e3e
00000160: 1fef 36bd 3371 7e3e ffea 44bd d005 34be
00000170: a5cc c4be 774f bf3e 1265 cf3d b5d3 fcbd
00000180: be8f 9ebf 513e 133e d692 2bbe ac66 a5be
00000190: 280b fabd e2ef 553e c25a 0d3c b778 22bf
000001a0: a31d 7b3b 36c4 233e 478f 8c3d eccc 9a3d
000001b0: efa1 973d 1c0a a93d 2173 433d 6b8f ae3d
000001c0: f4c9 fcbc dd6e 663d 2d7b a0bc c7f2 66bf
000001d0: ab17 88be cd4e 4dbf a28f d1be 4157 49bf
000001e0: 80b1 063e 4fc7 d73c 7f3e 0fbe 6c98 703e
000001f0: 79f3 633e f3d6 4cbe 74c7 9a3d fca2 823c
00000200: 9a9e 42bc 9cd7 fdbe da37 c6be b10a e13d
00000210: 3737 1a3e 61f7 793d 4d51 323e 7d1b ae3e
00000220: f1d9 cb3e 4bd1 183f 526d 983e b1fb 2f3f
00000230: 31d1 22be bbfd 08be 813b 38be be91 86bd
00000240: 888d 31be 79e8 4dbe d6dc 33be fcc7 2ebe
00000250: 28fb 1ebe 479a 43bd 9a42 17be a89a 52bf
00000260: d445 c1be e7fa 26bc 3cb0 a63d 7a39 843f
00000270: 05ba 213d 9fc3 84bd 21d4 55be ee9a 2fbc
00000280: 445b c13d 3252 183e 7e77 2dbc d42f e4bd
00000290: 4161 a7be 5080 3e3e 8a8f 21bf ebe0 7ebe
000002a0: 8372 e73d 81eb ee3d ccb4 f43d 0e2e e5be
000002b0: 20bf f6be 2779 b1be 241e 10be 6964 423d
000002c0: 5a30 0a3d 8742 093e 0d12 ac3d bab5 dbbc
000002d0: 99a0 3c3d 7b44 143e a5bc 683d 26d5 eb3d
000002e0: d914 0a3e c2a4 0dc0 fafd 70bf abb2 9cbf
000002f0: b9c6 8cbf 838b d7be ad8c 443f c904 a43e
00000300: 0f16 b73e be59 39be 65f2 143e a24d 51be
00000310: 80d0 61bc e557 a1bd ff8f 383e 09a1 e7bd
00000320: 497a 2b3e 4783 0d3e 3685 bfbd c9d2 0b3e
00000330: 435f 383e 9434 063e b726 adbe 2ab4 e7be
00000340: ab31 acbe 93a5 a73e aa2a 12be 6596 60bd
00000350: e479 51bd 80fc 0a3a f34f 8ebd ab13 16bd
00000360: daf8 9ebd a31c 44bc bcc5 16be c59b c5bd
00000370: 6a43 5bbf 4406 f3bd 2813 45bf c4a7 1dbf
00000380: f59f a7bf 6cdb 413e b260 07be d5a9 413e
00000390: b262 503e f61f dcbe 0e35 e6bd 450a 5e3e
000003a0: ddf7 193e d199 f3be 6c1c 1d3e 807c 463e
000003b0: 8cff a93e dc17 d9bd bd07 7c3d 1aef 6f3e
000003c0: 5a83 c53a 106f 52bd f51b b5be 9b4f 813e
000003d0: aede 4e3f 979b 053e 9d9f d03d bcf1 b03d
000003e0: c1fd 053e 3a9a 803d 49df 963d 1344 b03d
000003f0: 3567 3b3d 3b6d ddbc 6930 103b d46d a3bf

critic.0.bias f4 [128]
0.111128785 -0.5047827 -0.062230714 -0.05080745 -0.36288953 -0.19693969 -0.28120172 -0.09494711
0.20440139 -0.3179319 0.1460981 -0.042053904 0.5570866 -0.052699022 0.081732675 -0.28774992
0.28004953 -0.28149268 -0.063632414 0.35867035 -0.37445873 -0.22100821 -0.1967561 0.15245743
0.35821295 -0.526184 0.003881705 0.11700406 0.071361035 -0.11206464 0.036575034 -0.05660728
-0.26668003 -0.3482726 -0.17926063 -0.09860013 -0.5436425 -0.045555856 0.23164268 -0.14255852
0.21243212 -0.104282044 -0.5339564 -0.20267513 -0.38366434 -0.4286211 -0.0061528934 0.0071194596
0.20433067 0.15749179 0.03534515 0.07359163 -0.0011671564 -0.55137414 -0.52618945 -0.12375008
-0.20387346 -0.12907557 0.3224206 -0.32418486 -0.24517623 0.12078061 -0.14273569 0.006303361
0.08956677 -0.5096481 -0.28808805 -0.20845434 0.06076134 -0.04985022 -0.17402847 0.40316036
0.31421897 0.28529584 -0.08374094 -0.0041290848 -0.06810961 0.23202041 0.15139322 0.24133007
0.04146902 0.15628229 0.19930321 -0.10158621 -0.0967346 0.7759232 0.06914082 0.14653489
0.4108014 0.06358842 -0.48263025 0.48179632 -0.24073163 -0.2830837 -0.6048266 0.13707703
0.19355208 -0.11779472 -0.2990171 -0.13668832 -0.22609097 -0.4541235 0.22011566 -0.13673358
-0.16123825 -0.21560264 0.2417873 0.056460787 -0.24628565 -0.013740706 -0.090165615 0.47354284
0.33122808 -0.080321245 -0.48178434 -0.19356318 0.68496734 -0.3139559 0.25882462 0.27046996
-0.1757071 -0.09989043 -0.08520405 -0.04149862 0.037690654 -0.6968419 -0.027550148 0.07955897
00000000: 7d97 e33d 7039 01bf a2e5 7ebd 791b 50bd
00000010: a8cc b9be 8faa 49be acf9 8fbe a173 c2bd
00000020: 994e 513e f8c7 a2be be9a 153e b740 2cbd
00000030: 3a9d 0e3f eeda 57bd 7663 a73d f553 93be
00000040: a762 8f3e cf1f 90be b651 82bd a4a3 b73e
00000050: 0eb9 bfbe fa4f 62be 6e7a 49be cd1d 1c3e
00000060: b067 b73e ffb3 06bf 3464 7e3b d39f ef3d
00000070: bc25 923d 2582 e5bd b4cf 153d 09dd 67bd
00000080: 498a 88be c950 b2be 1990 37be ddee c9bd
00000090: 282c 0bbf c798 3abd bd33 6d3e dcfa 11be
000000a0: ce87 593e d391 d5bd 5eb1 08bf 128a 4fbe
000000b0: a76f c4be 3a74 dbbe 369e c9bb 5b4a e93b
000000c0: 0f3c 513e 8745 213e 13c6 103d 35b7 963d
000000d0: 45fb 98ba db26 0dbf 5ab4 06bf af70 fdbd
000000e0: 34c4 50be 632c 04be 5014 a53e 8ffb a5be
000000f0: 7a0f 7bbe d35b f73d 4e29 12be 6d8c ce3b
00000100: c86e b73d 4c78 02bf 4780 93be 0e75 55be
00000110: e2e0 783d bf2f 4cbd 8534 32be 096b ce3e
00000120: 4fe1 a03e 4c12 923e 5f80 abbd 464d 87bb
00000130: 0d7d 8bbd c296 6d3e d306 1b3e 3b1f 773e
00000140: 6bdb 293d 7708 203e 2416 4c3e 6e0c d0bd
00000150: ca1c c6bd e7a2 463f b499 8d3d 3e0d 163e
00000160: 9054 d23e a53a 823d 501b f7be 02ae f63e
00000170: 5a82 76be 59f0 90be ebd5 1abf ec5d 0c3e
00000180: 8432 463e 5c3e f1bd c518 99be 06f8 0bbe
00000190: 6484 67be e082 e8be 0066 613e e303 0cbe
000001a0: a41b 25be f0c6 5cbe 1797 773e 6d43 673d
000001b0: 4e32 7cbe b320 61bc c0a8 b8bd 3574 f23e
000001c0: ba96 a93e 777f a4bd 70ac f6be 6d35 46be
000001d0: 055a 2f3f d4be a0be a984 843e 0a7b 8a3e
000001e0: 90ec 33be 5b93 ccbd 767f aebd 75fa 29bd
000001f0: 8461 1a3d 3b64 32bf d9b0 e1bc d0ef a23d

critic.2.weight f4 [64, 128]
-0.043823052 -0.14450425 0.059348848 -0.08317274 -0.038245995 -0.06120977 -0.12676609 -0.3328894
-0.022132829 -0.11282548 -0.035528548 0.007332854 0.061277308 -0.048277516 -0.17755973 -0.12313674
-0.10896634 0.16562207 -0.14569941 0.105270654 -0.074076466 0.042084184 0.01226538 -0.11622803
0.080058776 -0.10490912 0.059762545 0.09224558 0.055493526 -0.01592886 0.042199764 -0.071055785
-0.08660012 -0.15813 0.035801467 0.121210866 -0.10333955 0.06009744 0.13969974 -0.018755395
-0.028580569 0.09667745 0.09441645 0.011475231 -0.14081855 -0.16085918 0.045505945 -0.081187434
0.026082013 0.03380228 -0.0060565113 -0.16732165 -0.18104422 -0.07688836 -0.20177393 0.105114155
0.07405235 -0.028071156 0.122838706 -0.13790673 -0.011330617 0.043647774 0.0013031967 0.055777516
0.049007352 -0.13626699 0.036814943 -0.02656796 0.013056051 0.043590065 -0.01529622 0.096265644
-0.07493247 0.074220575 0.13709356 -0.017726496 -0.094695225 0.29033646 0.04437871 0.1389532
0.08203074 0.038126696 -0.114378564 -0.0069608474 0.013879852 0.11520359 0.13114505 0.06292398
0.12212731 0.08435643 -0.109487414 0.045369573 -0.121960655 -0.019431077 -0.09543118 0.03976939
-0.20008272 -0.12700067 -0.061711106 -0.09335023 -0.10582967 -0.07905518 0.111113325 -0.07292828
-0.09270524 -0.0767979 0.15750363 0.10414425 -0.08801066 -0.16808082 -0.031192893 -0.011219158
-0.071608 0.09292433 -0.14937177 -0.23698056 -0.047977712 -0.04731119 -0.057262737 -0.07904663
-0.048007645 -0.063019685 -0.035373103 -0.12775165 -0.09776852 0.029270396 0.03144984 -0.020746393
-0.15840125 -0.20990016 -0.13513668 -0.18859184 0.2000207 0.063783035 -0.10891688 -0.0038037496
-0.07604241 -0.09729642 -0.2771072 0.3312775 -0.03400346 0.11292075 -0.12859505 -0.2619431
-0.21750028 0.10047533 -0.49108025 0.034724932 -0.08612784 -0.052310254 -0.040771823 0.066604145
-0.2599978 -0.27040327 -0.12608084 0.005049576 -0.0056162183 -0.36058816 -0.39005706 0.10580007
-0.17439999 -0.07426246 -0.07452882 -0.079832025 -0.24959624 0.051680245 -0.67235 -0.12373923
-0.23066242 -0.351425 -0.20564136 -0.58289236 -0.06391872 -0.2187575 -0.17246246 -0.04501159
0.10303463 0.012303568 0.060482785 -0.30427253 -0.18376009 -0.037107963 0.16750832 -0.22551864
0.006049104 0.5638848 -0.24806312 -0.1984619 -0.12097622 -0.04035345 0.016228499 -0.5797332
0.18904449 0.018363982 -0.24884604 -0.23468578 0.016893264 -0.23347667 0.11895174 0.28666884
0.12110872 -0.3759708 -0.10462829 -0.3187233 -0.09787638 0.3009205 -0.32513228 0.19329041
-0.23242833 -0.12051497 -0.06020073 0.104742005 0.033205893 0.050830252 0.024072 -0.24289262
-0.26329264 0.44438353 -0.20473163 -0.34364325 -0.1534892 -0.5287281 -0.20720942 -0.07660691
-0.27464926 -0.28064144 -0.23845822 -0.15673192 0.010288498 -0.08271607 -0.4508161 -0.13206416
-0.12365898 -0.21280417 0.054436725 -0.35511908 0.10061208 -0.11589846 -0.101504356 -0.39024693
-1.007224 0.06437224 0.017729325 -0.5594731 0.41379625 0.092471085 0.016395286 0.108345084
-0.5696758 -0.19771305 -0.2962682 0.11159909 -0.13388444 -0.13723432 -0.05879654 -0.034610312
00000000: cd7f 33bd ecf8 13be c717 733d 7856 aabd
00000010: d5a7 1cbd 19b7 7abd f8ce 01be 7b70 aabe
00000020: e84f b5bc 0c11 e7bd 6286 11bd 7048 f03b
00000030: eafd 7a3d a5be 45bd 38d2 35be 1d2f fcbd
00000040: bf29 dfbd d598 293e 3a32 15be 2498 d73d
00000050: 67b5 97bd 7760 2c3d bbf4 483c f608 eebd
00000060: dbf5 a33d 98da d6bd 92c9 743d 40eb bc3d
00000070: 2e4d 633d 3e7d 82bc a9d9 2c3d b285 91bd
00000080: 675b b1bd d5ec 21be 8fa4 123d 673d f83d
00000090: b0a3 d3bd bc28 763d 730d 0f3e eaa4 99bc
000000a0: cc21 eabc d4fe c53d 695d c13d 9b02 3c3c
000000b0: bd32 10be 45b8 24be 7164 3a3d 9945 a6bd
000000c0: f2a9 d53c 4274 0a3d b375 c6bb 5e56 2bbe
000000d0: a863 39be a577 9dbd d39d 4ebe 1746 d73d
000000e0: c2a8 973d 7bf5 e5bc dc92 fb3d 6c37 0dbe
000000f0: 0da4 39bc 02c8 323d 06d0 aa3a f776 643d
00000100: efbb 483d 9389 0bbe 44cb 163d 0da5 d9bc
00000110: 0ce9 553c 7f8b 323d ff9c 7abc ec26 c53d
00000120: 3276 99bd f500 983d 4162 0c3e 2837 91bc
00000130: 92ef c1bd fba6 943e 73c6 353d bf49 0e3e
00000140: bcff a73d bd2a 1c3d 4f3f eabd d217 e4bb
00000150: 5268 633c dcef eb3d e34a 063e 4ade 803d
00000160: e21d fa3d 10c3 ac3d f03a e0bd 72d5 393d
00000170: 82c6 f9bd ec2d 9fbc 6c71 c3bd 3ae5 223d
00000180: 7ce2 4cbe 770c 02be c9c4 7cbd 682e bfbd
00000190: 3abd d8bd afe7 a1bd 628f e33d 6c5b 95bd
000001a0: 3fdc bdbd 3848 9dbd a248 213e 9549 d53d
000001b0: ef3e b4bd 611d 2cbe 3d88 ffbc 8fd0 37bc
000001c0: 37a7 92bd 1c4f be3d eaf4 18be 08ab 72be
000001d0: 4784 44bd 61c9 41bd 558c 6abd 33e3 a1bd
000001e0: aaa3 44bd 7710 81bd 63e3 10bd 54d1 02be
000001f0: dd3a c8bd 78c8 ef3c 8cd1 003d 57f4 a9bc
00000200: f033 22be 11f0 56be 4561 0abe 381e 41be
00000210: 3ad2 4c3e aea0 823d d00f dfbd 5448 79bb
00000220: 20bc 9bbd 5843 c7bd ffe0 8dbe 349d a93e
00000230: 3647 0bbd ff42 e73d 6cae 03be 681d 86be
00000240: 65b8 5ebe 03c6 cd3d df6e fbbe bb3b 0e3d
00000250: cb63 b0bd 4743 56bd 5b00 27bd c167 883d
00000260: 6f1e 85be 4c72 8abe 561b 01be ea76 a53b
00000270: 4108 b8bb 039f b8be 8fb5 c7be b5ad d83d
00000280: e995 32be eb16 98bd 91a2 98bd f97e a3bd
00000290: 2896 7fbe aaae 533d 211f 2cbf fe6a fdbd
000002a0: c532 6cbe faed b3be a693 52be 6f38 15bf
000002b0: d1e7 82bd f701 60be 009a 30be 135e 38bd
000002c0: d203 d33d e894 493c ccbc 773d 9cc9 9bbe
000002d0: 9b2b 3cbe 85fe 17bd 4d87 2b3e 5cee 66be
000002e0: 9037 c63b c15a 103f 4204 7ebe 9939 4bbe
000002f0: 61c2 f7bd a949 25bd a1f1 843c 6569 14bf
00000300: e194 413e 1070 963c 7fd1 7ebe 7851 70be
00000310: be63 8a3c 8214 6fbe f89c f33d 42c6 923e
00000320: d907 f83d 3f7f c0be 5b47 d6bd b32f a3be
00000330: 6973 c8bd 4012 9a3e bd77 a6be eced 453e
00000340: b101 6ebe 8dd0 f6bd 0a95 76bd fa82 d63d
00000350: e702 083d 6233 503d a532 c53c d8b8 78be
00000360: 4bce 86be 3d86 e33e 2ba5 51be 02f2 afbe
00000370: 462c 1dbe ba5a 07bf b52e 54be 15e4 9cbd
00000380: d49e 8cbe 3cb0 8fbe 642e 74be 557e 20be
00000390: 1791 283c 0b67 a9bd 5ed1 e6be d43b 07be
000003a0: eb40 fdbd 56e9 59be 0bf9 5e3d 2bd2 b5be
000003b0: b50d ce3d 2c5c edbd 84e1 cfbd 72ce c7be
000003c0: b7ec 80bf 98d5 833d 173d 913c a139 0fbf
000003d0: 1add d33e 7b61 bd3d 684f 863c 07e4 dd3d
000003e0: 46d6 11bf 4a75 4abe 77b0 97be 108e e43d
000003f0: 0119 09be 2787 0cbe a4d4 70bd 8bc3 0dbd

critic.2.bias f4 [64]
-0.015978498 0.18793719 0.00019603022 -0.07103654 0.12485584 0.08736958 0.019981965 -0.0016762904
0.06554554 -0.00903941 -0.114144295 -0.24813999 -0.05818865 0.029749567 -0.41228488 0.12595572
-0.0013738222 0.040697444 0.11243068 0.051301528 0.0075308303 -0.13407505 -0.021676375 -0.020233478
0.07925667 0.041462585 0.15262845 -0.009999841 -0.04959949 -0.19465534 0.07813074 0.035163403
0.12976165 -0.20530476 -0.23663667 -0.050247755 -0.0701463 -0.279577 -0.035731006 -0.07680747
-0.1646504 -0.09332376 -0.03103036 0.10933334 -0.09362294 -0.11172227 0.13131 -0.40984097
0.14505662 -0.038258374 -0.06870096 -0.15645853 -0.023757325 0.071502395 0.043295864 -0.11792256
0.12598994 -0.024465932 -0.029812116 -0.13892266 0.06049519 -0.07592545 0.08591651 0.065804735
00000000: 57e5 82bc 9b72 403e 768d 4d39 9b7b 91bd
00000010: 6bb4 ff3d d3ee b23d 38b1 a33c f9b6 dbba
00000020: bd3c 863d 091a 14bc 7cc4 e9bd 6918 7ebe
00000030: 3957 6ebd 5db5 f33c 0117 d3be 89fa 003e
00000040: d311 b4ba 5db2 263d 0e42 e63d 8d21 523d
00000050: 2fc5 f63b f84a 09be a792 b1bc aec0 a5bc
00000060: 5251 a23d acd4 293d a24a 1c3e 60d6 23bc
00000070: d628 4bbd bb53 47be 0203 a03d 8007 103d
00000080: 3de0 043e 693b 52be e250 72be 97d0 4dbd
00000090: dda8 8fbd b724 8fbe ad5a 12bd 3c4d 9dbd
000000a0: 1d9a 28be 8720 bfbd 6233 febc 28ea df3d
000000b0: 62bd bfbd a5ce e4bd 2176 063e add6 d1be
000000c0: b989 143e d0b4 1cbd 17b3 8cbd aa36 20be
000000d0: b99e c2bc d96f 923d 0157 313d 6281 f1bd
000000e0: 8203 013e c76c c8bc 8a38 f4bc be41 0ebe
000000f0: cec9 773d cd7e 9bbd fff4 af3d a2c4 863d

critic.4.weight f4 [1, 64]
-0.32126123 0.5586613 -0.54808325 0.34841582 -0.53162515 -0.3378584 -0.47265995 -0.49893972
0.37752682 0.00846401 0.08177388 0.12660392 -0.10607868 0.21993375 0.41750994 0.58241117
-0.3696459 -0.28927296 0.14622846 -0.13375041 0.077051945 0.5650347 0.4552352 -0.39416674
0.39856747 0.6977073 0.50682044 -0.09164767 0.4363542 -0.15086973 0.39412394 -0.231744
0.18264376 0.42797485 0.43114045 -0.11784333 0.1198015 0.5802991 0.42009923 -0.54306185
-0.5497137 -0.18096603 -0.11308043 -0.66631514 0.17323609 -0.4960744 -0.3783771 0.54867774
0.3159279 0.28710783 -0.12929034 0.508335 -0.2968858 -0.12242486 -0.29371527 -0.08962389
-0.4612402 0.32522488 0.44345018 0.54084796 0.16564415 0.4243154 0.12962694 0.09549466
00000000: 5a7c a4be 6d04 0f3f 2f4f 0cbf 8f63 b23e
00000010: 9618 08bf c7fb acbe 7c00 f2be 0775 ffbe
00000020: 324b c13e a2ac 0a3c 1079 a73d 75a4 013e
00000030: c73f d9bd 5036 613e ddc3 d53e e618 153f
00000040: 3a42 bdbe 961b 94be eabc 153e def5 08be
00000050: 69cd 9d3d 1da6 103f 9714 e93e 39d0 c9be
00000060: 0911 cc3e f29c 323f fcbe 013f c6b1 bbbd
00000070: d169 df3e 987d 1abe 9dca c93e 4d4e 6dbe
00000080: f706 3b3e 851f db3e 71be dc3e d857 f1bd
00000090: 7d5a f53d 7b8e 143f 3f17 d73e 1a06 0bbf
000000a0: 09ba 0cbf 294f 39be b696 e7bd a193 2abf
000000b0: cd64 313e 77fd fdbe a5ba c1be 2576 0c3f
000000c0: 4dc1 a13e ccff 923e b064 04be 3e22 023f
000000d0: 6a01 98be e3b9 fabd d961 96be bb8c b7bd
000000e0: ad27 ecbe e083 a63e e70b e33e 0375 0a3f
000000f0: 9f9e 293e de3f d93e edbc 043e b492 c33d
