PPO_preTrained/20220510/PPO_20220510_0_1700.pth (torch, 110785 bytes, 11 tensors)

actor.0.weight f4 [128, 35]
0	0x3e0d0935	0.13773043
1	0xbe075ff1	-0.13220192
2	0x3e253579	0.1613368
3	0x3dfaaf26	0.12240438
4	0xbe1e5e94	-0.15465766
5	0xbcaaf25c	-0.02086752
6	0xbba2dd5e	-0.0049702367
7	0x3e0bee21	0.13665058
8	0xbdbcf445	-0.09226278
9	0x3d13fde1	0.03613079
10	0x3e4a249c	0.19740528
11	0x3e316f1e	0.17327544
12	0xbde766ba	-0.112988904
13	0xbf87653c	-1.0577769
14	0x3f494155	0.78615314
15	0xbe1b0398	-0.1513809
16	0x3cb53c1c	0.022123389
17	0x3d5887cd	0.052863885
18	0x3dcbbe63	0.09948423
19	0xbdee4917	-0.116350345
20	0x3dad39b6	0.08458273
21	0xbcc9adb2	-0.024618957
22	0x3d126b2b	0.035746735
23	0xbcb230ab	-0.021751722
24	0xbdaf3170	-0.08554351
25	0xbdaa885c	-0.0832679
26	0x3c12b2de	0.008953778
27	0x3e6112d9	0.21979846
28	0x3dbf7e59	0.09350271
29	0x3d5f89a3	0.05457462
30	0x3ea30599	0.31840208
31	0x3e71c03e	0.23608491
32	0xbd2cda39	-0.0422003
33	0xbf65d788	-0.89782
34	0xbce02158	-0.02735965
35	0x3dc6d4d8	0.097085655
36	0x3d3be151	0.045869175
37	0x3dab1449	0.083534785
38	0x3d66adf1	0.056318227
39	0x3d9a02d8	0.07520074
40	0x3e7167a4	0.23574692
41	0x3e060630	0.13088298
42	0xbd6b1cb5	-0.057400424
43	0x3e529d46	0.20567808
44	0x3e1f4b06	0.15555963
45	0xbf2d74b0	-0.67756176
46	0xbda8da74	-0.082447916
47	0x3e085d4b	0.13316838
48	0xbf2745d0	-0.653409
49	0x3fa50358	1.2891645
50	0x3e8ebf4f	0.27880332
51	0x3e1c0e1f	0.15239762
52	0x3e083215	0.13300355
53	0x3e12997a	0.14316359
54	0x3dd629dd	0.104572035
55	0x3e96a862	0.2942534
56	0xbda0a1fc	-0.07843396
57	0xbe3270ab	-0.17425792
58	0xbdf1f0c1	-0.11813498
59	0xbb8e82a3	-0.004349069
60	0xbce857b5	-0.028362134
61	0x3d9cd563	0.07657888
62	0x3d61f7b1	0.055167858
63	0x3e3766de	0.17910334
64	0xbd109e96	-0.03530749
65	0x3e0863c8	0.13319314
66	0x3df2f1ac	0.118625015
67	0xbe057345	-0.13032253
68	0x3e2518b4	0.16122705
69	0xbe973349	-0.29531315
70	0xbe1c493d	-0.15262313
71	0xbdbec434	-0.093147665
72	0x3dab1595	0.08353726
73	0x3e226f1c	0.15862697
74	0xbcafe8b3	-0.021473264
75	0x3dde9d99	0.10869903
76	0x3cf7ebbf	0.03026378
77	0xbdf03b34	-0.11730042
78	0x3de83346	0.11337905
79	0x3e0b353b	0.13594525
80	0x3f76256a	0.9615084
81	0x3e99fc82	0.3007546
82	0xbf0e4fa8	-0.55590296
83	0x3f65dbb4	0.89788365
84	0xbf9d2e5c	-1.2279773
85	0xbe0b68d5	-0.13614209
86	0xbd870a65	-0.065937795
87	0x3e893cec	0.26804292
88	0x3e4caefc	0.19988626
89	0x3ec086d5	0.3760287
90	0xbe79ee04	-0.24407202
91	0x3e0a031b	0.13477747
92	0x3d9f8f5b	0.07791015
93	0x3dfb539c	0.122718066
94	0xbe1cbfdd	-0.15307565
95	0x3c61f352	0.013790922
96	0x3ddd11fc	0.10794446
97	0xbd92b027	-0.07162505
98	0x3d2bcde8	0.041944414
99	0x3de6f392	0.11276926
100	0xbdd227c0	-0.10261488
101	0x3dd0395b	0.1016719
102	0x3e98d8d7	0.29852936
103	0x3d82360b	0.06357964
104	0x3de00a3b	0.10939451
105	0xbc6ef7d1	-0.014585451
106	0x3de3055f	0.11085009
107	0xbdeb0735	-0.11475984
108	0xbd128b12	-0.03577716
109	0x3dcdc9c6	0.10048251
110	0x3e721f99	0.23644866
111	0xbd2f9ddc	-0.042875156
112	0x3e3d577b	0.18490402
113	0x3d060b70	0.03272575
114	0xbde144ad	-0.10999427
115	0xbe5c3c44	-0.21507365
116	0x3df33f16	0.11877267
117	0x3f2569df	0.6461467
118	0xbee164ea	-0.44022304
119	0x3efd1aaa	0.49434406
120	0x3f5ca0dd	0.8618296
121	0x3d7fc80f	0.06244665
122	0x3df1e7c1	0.11811782
123	0x3e4ab751	0.19796492
124	0x3cd29f23	0.025710648
125	0xbdab3113	-0.083589695
126	0xbc3f976f	-0.011693819
127	0x3e45700e	0.19281027
128	0xbb3ca589	-0.002878519
129	0x3e44860d	0.19191761
130	0xbd1dc98c	-0.03852229
131	0x3c38ac95	0.0112716155
132	0x3d0fae71	0.03507847
133	0xbe68214b	-0.2266895
134	0x3e836805	0.25665298
135	0xbd8e2059	-0.069397636
136	0x3e9e493b	0.30915245
137	0x3ea8bf1f	0.32958314
138	0x3e1c2d57	0.15251671
139	0x3c982fd8	0.018577501
140	0xbd5d8600	-0.05408287
141	0x3e42605d	0.18982072
142	0xbd9a51fe	-0.0753517
143	0xbdcb1d3f	-0.099176876
144	0xbc7eb6e3	-0.015546533
145	0x3de13313	0.1099607
146	0xba4dd50a	-0.00078518747
147	0xbdbb712d	-0.09152446
148	0xbd433533	-0.047658157
149	0x3d08b948	0.033379823
150	0x3da87549	0.08225495
151	0xbe37a3b8	-0.17933547
152	0xbf09004f	-0.53516096
153	0x3d6514b7	0.05592796
154	0xc018d564	-2.3880243
155	0xbf0bc826	-0.5460228
156	0x3d1c7a26	0.038202427
157	0x3e677b38	0.22605598
158	0x3e541e43	0.20714669
159	0x3e0fa7f9	0.1402892
160	0x3e969566	0.29410857
161	0x3e5bbf65	0.2145973
162	0xbe027ded	-0.1274335
163	0x3db9060e	0.09034358
164	0xbd931603	-0.07181933
165	0x3dfe7b67	0.12425881
166	0x3d89bfc8	0.067260325
167	0x3dac6600	0.084178925
168	0x3db27ad1	0.087148316
169	0x3ba4fcf2	0.0050350362
170	0x3da64479	0.08118529
171	0xbd93d889	-0.07219035
172	0x3f246fc4	0.6423304
173	0xbe94a0ba	-0.29028875
174	0x3e6cc9ed	0.23123904
175	0xbbd7501f	-0.0065708305
176	0x3e57ffa1	0.21093608
177	0x3db8b052	0.090180054
178	0x3e69397e	0.22775838
179	0xbe232a11	-0.15934016
180	0x3d2de4b4	0.042454436
181	0x3e741299	0.2383522
182	0x3e798311	0.24366404
183	0x3e3668c7	0.17813407
184	0x3dc0e16f	0.09417998
185	0xbcb84e2b	-0.02249821
186	0x3c51d686	0.012807494
187	0xbf4ac0cd	-0.7920044
188	0xbdbf8e4d	-0.093533136
189	0xbefa5bff	-0.48898312
190	0xbe9d8e69	-0.30772713
191	0x3db7af41	0.08968974
192	0x3d688a2e	0.056772403
193	0xbcbeb9c0	-0.023281932
194	0x3d16adaf	0.03678673
195	0xbe366f34	-0.17815858
196	0x3db722e0	0.08942199
197	0xbe4cff1b	-0.2001919
198	0xbd9f8ac5	-0.0779014
199	0x389095d7	6.894365e-05
200	0x3dc6d5df	0.097087614
201	0x3d13ca4b	0.036081593
202	0x3dc29baa	0.09502347
203	0x3d2b3d47	0.041806486
204	0xbe3e605f	-0.1859145
205	0x3dd36c58	0.10323399
206	0x3dc4b300	0.09604454
207	0xbe28de2e	-0.16491005
208	0x3e42052c	0.18947285
209	0xbd2e25bb	-0.04251645
210	0xbd052286	-0.032503627
211	0x3dd80ae5	0.10548953
212	0xbdf23b47	-0.118277125
213	0x3cb98666	0.022647094
214	0x3d8dca1c	0.06923315
215	0xbdf2ee86	-0.11861901
216	0x3d89cf56	0.06728999
217	0x3da2609d	0.07928584
218	0x3d6c0f93	0.05763204
219	0x3df3a270	0.11896217
220	0x3f475131	0.77858263
221	0xbc4954f7	-0.012288324
222	0x3d875458	0.06607884
223	0xbe2ef70a	-0.17086425
224	0xbe939412	-0.28823906
225	0x3e04f072	0.12982348
226	0xbd1a6087	-0.037689712
227	0x3e2174d4	0.15767223
228	0xbde31f1a	-0.110899165
229	0xbdb5cce1	-0.08876968
230	0xbe9343e7	-0.28762743
231	0x3ce00abb	0.027348867
232	0xbe09bee0	-0.1345172
233	0xbd809872	-0.06279077
234	0xbe761085	-0.24029739
235	0x3d979764	0.07401922
236	0x3d25421d	0.040346254
237	0xbe1c21d6	-0.15247282
238	0x3d66b6dc	0.056326732
239	0x3e1793ee	0.14802524
240	0xbf4413fa	-0.7659298
241	0x3e6befc5	0.23040684
242	0x3cc9a15e	0.024613079
243	0xb99d4a04	-0.0003000052
244	0xbe6789e7	-0.226112
245	0x3e2e42d8	0.17017686
246	0x3df80685	0.121106185
247	0xbdd5bf3f	-0.10436868
248	0xbc9aa30b	-0.018876573
249	0x3e0b0f29	0.13580002
250	0x3e2f5694	0.1712287
251	0xbab556ac	-0.0013835034
252	0xbd8f3bcf	-0.069938295
253	0x3e25705e	0.16156146
254	0x3eb37d7a	0.3505667
255	0xbf2e771a	-0.68150485

actor.0.bias f4 [128]
0	0x3cc367aa	0.023853142
1	0xbdd2861c	-0.102794856
2	0x3e3a87a8	0.18215811
3	0xbdca19ca	-0.098682
4	0x3bef4f63	0.007303165
5	0xbda874fc	-0.08225438
6	0x3dee1246	0.11624579
7	0xbe988efc	-0.29796588
8	0x3b212036	0.002458585
9	0x3b6e9614	0.0036405372
10	0x3dfd5a18	0.123707
11	0x3e0974e1	0.13423492
12	0x3d212b93	0.039348196
13	0xbe3cab49	-0.18424715
14	0x3dbfbcba	0.093621686
15	0x3ea04888	0.31305337
16	0x3d74100c	0.059585616
17	0x3e5bacd6	0.2145265
18	0x3ebaa69f	0.36455247
19	0x3d44c1d3	0.048036408
20	0x3c56df8e	0.013114823
21	0xbe26b77d	-0.16280933
22	0x3d64cab4	0.055857375
23	0x3daa82bb	0.08325716
24	0xbe56e715	-0.20986588
25	0x3e35fde4	0.17772633
26	0x3d5136f4	0.051077798
27	0x3e9b9457	0.30386612
28	0xbe4d3c09	-0.20042433
29	0xbe303cee	-0.17210743
30	0xbdf9478e	-0.12171851
31	0xbe581932	-0.21103361
32	0x3c6308c5	0.013857071
33	0x3ec2cc76	0.38046616
34	0xbd796a13	-0.060892176
35	0xbdcf4975	-0.10121433
36	0x3c4ffbc8	0.012694307
37	0xbdd5f539	-0.10447163
38	0x3e17dc6e	0.14830181
39	0x3e732a5d	0.23746629
40	0x3e78967f	0.2427616
41	0x3e57dd60	0.21080542
42	0x3d4465c2	0.047948606
43	0xbcf2289e	-0.029560383
44	0x3e8af3eb	0.2713922
45	0x3e3c4e66	0.18389282
46	0x3e1b9b4a	0.15195957
47	0xbde0bfcf	-0.109740846
48	0x3e8371a9	0.25672653
49	0x3ea042c4	0.31300938
50	0x3d7ce86a	0.061745085
51	0xbd149b9c	-0.036281213
52	0xbb93b05f	-0.004507109
53	0x3ce92b4f	0.028463034
54	0x3d5313eb	0.051532667
55	0x3e08a718	0.13344991
56	0x3e5ca08c	0.21545619
57	0xbe127949	-0.14304079
58	0xbe598fca	-0.21246257
59	0x3e22262c	0.15834874
60	0xbdeba019	-0.115051456
61	0xbde6e876	-0.11274807
62	0x3e8b8f30	0.2725768
63	0x3e927cc1	0.28610805
64	0xbdcecc53	-0.100975655
65	0x3e4fa8e8	0.20279276
66	0x3e3715fc	0.1787948
67	0x3d9e5954	0.07731882
68	0xbdd37c3f	-0.103264324
69	0xbd8d610c	-0.06903276
70	0xbd5b0770	-0.05347389
71	0x3e5f5f71	0.21813752
72	0xbc0eb850	-0.008710936
73	0xbe016808	-0.12637341
74	0xbe90bca3	-0.28268918
75	0xbd7c1a7e	-0.061548702
76	0xbe8b79c3	-0.27241334
77	0xbe423737	-0.18966375
78	0xbe256aa5	-0.16153963
79	0x3d6dce05	0.058057804
80	0x3e6bcaef	0.23026632
81	0x3e297df9	0.16551961
82	0xbe97eef2	-0.29674488
83	0xbde03e97	-0.10949438
84	0x3c4c7a86	0.012480384
85	0xbdcee66a	-0.10102542
86	0xbe28ae8a	-0.16472831
87	0x3b5a98bf	0.0033355204
88	0x3e651efb	0.223751
89	0x3dccf864	0.10008314
90	0x3cc1f863	0.02367801
91	0x3e963bb9	0.2934244
92	0xbd2dd86c	-0.042442724
93	0xbdba0915	-0.090837635
94	0x3d94a3b3	0.07257786
95	0x3d18d95b	0.03731666
96	0x3d969d58	0.0735423
97	0xbca7a8f2	-0.020466302
98	0xbc2b1be9	-0.010443666
99	0xbe2564c1	-0.16151716
100	0xbd6637ae	-0.056205444
101	0x3e87de8f	0.26536986
102	0x3b46f64c	0.0030359207
103	0x3b474d5d	0.0030411102
104	0x3b3d9324	0.0028926814
105	0x3df36fb1	0.11886538
106	0x3e0edc95	0.13951333
107	0x3dedbfcc	0.11608848
108	0x3d07b2fe	0.033129685
109	0xbe896266	-0.26832885
110	0xbe3f2e4e	-0.18670008
111	0x3e8f8651	0.28032163
112	0x3de33900	0.11094856
113	0xbc55c3ed	-0.013047201
114	0x3b8615ef	0.00409197
115	0xbe6b3330	-0.22968745
116	0xbdeca00b	-0.11553963
117	0x3e403cc9	0.18773188
118	0xbe2d7782	-0.1694012
119	0x3ea97daa	0.33103687
120	0x3dce7e46	0.100826785
121	0x3e87d098	0.26526332
122	0x3e832f22	0.25621897
123	0x3eabcf42	0.33556563
124	0xbe33d077	-0.17559992
125	0x3da778b0	0.08177316
126	0x3e9061b1	0.28199533
127	0x3c8d75bd	0.017268056

actor.2.weight f4 [64, 128]
0	0xbea879d7	-0.32905456
1	0x3d0cd545	0.034383077
2	0x3d550596	0.05200728
3	0xbd786628	-0.0606443
4	0x3e059a82	0.13047221
5	0xbd198d30	-0.037488163
6	0xbe22d25e	-0.15900561
7	0xbeaa7341	-0.33291057
8	0x3e3d222f	0.18470071
9	0xbc9490e1	-0.01813549
10	0x3dcd87bb	0.10035654
11	0x3e26326a	0.16230169
12	0x3ccc5ab5	0.024945596
13	0xbcdcae01	-0.02693844
14	0x3d766afa	0.060160615
15	0x3d36d554	0.04463704
16	0x3f106a99	0.56412655
17	0xbe51f87c	-0.20504946
18	0x3e1670ca	0.14691463
19	0x3d6d2af5	0.057902295
20	0xbe2efaf4	-0.17087919
21	0xbde79485	-0.11307625
22	0xbc461f70	-0.012092456
23	0xbc8cd5b0	-0.017191738
24	0x3c961a41	0.018323066
25	0x3e03c186	0.12866792
26	0xbdfc9266	-0.12332611
27	0x3d90c0c8	0.0706802
28	0xba587f69	-0.00082587317
29	0x3cebf81e	0.028804835
30	0xbad0dc1b	-0.0015934737
31	0x3bc74f67	0.0060824635
32	0x3e836653	0.25664005
33	0xbe88f031	-0.26745752
34	0xbc6e9506	-0.014561897
35	0x3e1d198d	0.15341778
36	0xbc4b7322	-0.0124175865
37	0x3d19eba8	0.037578255
38	0xbe1490cc	-0.1450836
39	0xbd8795c5	-0.06620363
40	0xbe6b66c5	-0.22988422
41	0xbe61d9fe	-0.22055814
42	0x3e13a3fe	0.14418027
43	0x3ec5ecda	0.38657266
44	0x3d86bd8c	0.06579122
45	0x3e224392	0.15846089
46	0xbe5259fc	-0.20542139
47	0xbe10cebb	-0.14141361
48	0xbeaadd1e	-0.33371824
49	0xbc8d9a18	-0.017285392
50	0xbc5d4fe7	-0.01350782
51	0xbd84bdb8	-0.064814985
52	0x3d75e2d5	0.060030777
53	0x3d847edf	0.06469511
54	0xbe287dc1	-0.16454221
55	0xbd393cfd	-0.04522418
56	0x3e1cf981	0.15329553
57	0x3e6b3874	0.22970754
58	0xbd1387d4	-0.036018208
59	0xbe40e00d	-0.18835469
60	0xbc8f777c	-0.01751303
61	0x3e309671	0.17244889
62	0x3dc41242	0.09573795
63	0xbdfe6c7e	-0.12423037
64	0x3cb5d8e7	0.022198154
65	0xbd558da6	-0.05213704
66	0xbbd29bda	-0.0064272704
67	0x3d8cbf30	0.068724036
68	0x3c39a6ca	0.0113312695
69	0xbddf1d47	-0.10894256
70	0x3cf42510	0.029802829
71	0x3e194373	0.14967136
72	0xbe087a6f	-0.13327955
73	0x3e270f7c	0.163145
74	0xbdba97c9	-0.09110982
75	0x3eb6f4c6	0.35733622
76	0x3d6e221a	0.05813799
77	0x3c2ca035	0.010536243
78	0x3e040ed0	0.12896276
79	0x3e224abd	0.15848823
80	0x3e708650	0.23488736
81	0xbdb87f47	-0.09008651
82	0xbdb67ea2	-0.08910872
83	0xbe705b1b	-0.23472254
84	0x3d0412ca	0.03224448
85	0xbe704407	-0.2346345
86	0x3c81e54d	0.01585641
87	0xbd4d366a	-0.05010072
88	0x3e095988	0.1341306
89	0xbe97d4b7	-0.29654476
90	0x3e8f3c4b	0.27975687
91	0xbd28789c	-0.041130647
92	0xbdf5676e	-0.11982618
93	0xbda98fca	-0.08279379
94	0x3df9d6a8	0.121991456
95	0x3df5fd43	0.120111965
96	0xbe98a252	-0.2981134
97	0x3c155363	0.009114119
98	0x3d95a074	0.07305995
99	0x3d958642	0.07300998
100	0xbe0af18a	-0.13568702
101	0xbd1e868b	-0.03870253
102	0xbcf8b826	-0.030361246
103	0x3ee43f4e	0.44579548
104	0xbdfb69ac	-0.12276015
105	0xbe43f62a	-0.19136873
106	0x3eb8ddd9	0.36106756
107	0xbdd0525d	-0.101719595
108	0xbe9d8023	-0.30761823
109	0x3d9687e5	0.073501386
110	0x3ddcb4f3	0.10776701
111	0xbdde7a51	-0.10863174
112	0x3e04671a	0.12929955
113	0x3e5f7d98	0.21825254
114	0xbe2c3189	-0.16815771
115	0x3e5cd277	0.21564661
116	0xbdf2f62c	-0.1186336
117	0x3e23c238	0.15992057
118	0xbd3a15d2	-0.045430966
119	0x3e411417	0.1885532
120	0xbcd29cff	-0.025709627
121	0xbddc14b4	-0.10746136
122	0xbe23c858	-0.15994394
123	0xbd9ef255	-0.07761065
124	0x3dd7f5ec	0.10544953
125	0xbcf469c6	-0.029835593
126	0x3daa810b	0.08325394
127	0xbd6d2a88	-0.05790189
128	0x3d6eb5a0	0.05827868
129	0xbd00a913	-0.03141124
130	0x3db7895c	0.08961746
131	0xbd5583b6	-0.052127562
132	0xbdbec0ab	-0.09314092
133	0x3e140b6a	0.14457479
134	0x3da83e9c	0.08215067
135	0xbe5eff07	-0.21776973
136	0x3d7d864f	0.061895665
137	0xbe220d4f	-0.1582539
138	0x3f1b79b1	0.6073256
139	0xbe580c3c	-0.21098417
140	0x3a54ec10	0.0008122334
141	0x3b418916	0.0029531172
142	0xbe3805b2	-0.17970923
143	0x3e919614	0.28434813
144	0xbf0a7c9f	-0.54096407
145	0xbdf9c7fb	-0.12196346
146	0xbc9c87f1	-0.01910779
147	0xbe685bc2	-0.22691253
148	0xbc961754	-0.01832167
149	0xbe6a6d29	-0.22893204
150	0xbe11b0e3	-0.14227633
151	0x3e9a7873	0.3017002
152	0xbd691af3	-0.056910466
153	0x3ca67e47	0.020323886
154	0x3da3919b	0.079867564
155	0xbe7ecff6	-0.24884018
156	0xbc6b3a38	-0.014357142
157	0x3da53257	0.08066242
158	0xbe6a1ff0	-0.22863746
159	0x3e5d4a82	0.21610454
160	0x3e6e71b8	0.23285568
161	0x3cbe48ec	0.023228131
162	0xbeae6dc6	-0.34068125
163	0xbc54bab9	-0.012983971
164	0xbdc297de	-0.095016226
165	0xbcd0123f	-0.025399325
166	0xbda124ec	-0.078683704
167	0xbe4baab2	-0.19889334
168	0xbf19162d	-0.5979946
169	0x3e35066a	0.17678228
170	0xbd0759a7	-0.033044484
171	0x3e891dc3	0.2678052
172	0xbe0f7369	-0.14008869
173	0xbd7ac965	-0.06122722
174	0xbdf981be	-0.121829495
175	0xbd2329a8	-0.03983465
176	0x3cc79446	0.024362694
177	0x3c96aa57	0.018391771
178	0x3c90f099	0.01769285
179	0x3e448d2f	0.19194482
180	0x3ea5f9d6	0.32417172
181	0x3df7d615	0.1210138
182	0xbcc22e6c	-0.023703776
183	0xbe66d6ba	-0.22542849
184	0xbda3c35e	-0.07996248
185	0x3e2d9ba8	0.1695391
186	0xbe33ad1a	-0.17546502
187	0x3caefe83	0.021361595
188	0x3e7aa139	0.24475564
189	0xbcb6aaa2	-0.022298161
190	0x3e3afe56	0.18261084
191	0xbc937032	-0.017997835
192	0x3e6cda01	0.23130037
193	0x3d79f2bb	0.0610225
194	0xbe5ad4fa	-0.21370307
195	0x3d9a83d4	0.075446755
196	0x3ccdd1ed	0.025124514
197	0x3de830ba	0.11337419
198	0x3e40f2ce	0.18842623
199	0x3e45870a	0.19289795
200	0xbdd34aee	-0.10317026
201	0x3da8b808	0.08238226
202	0xbe18b819	-0.14913978
203	0xbe42648e	-0.18983671
204	0xbdab7682	-0.08372213
205	0x3dd3c1d6	0.10339706
206	0x3d3fb8a9	0.046806965
207	0xbcef2ab1	-0.029195162
208	0xbe06ac39	-0.13151635
209	0xbdc9ab33	-0.09847107
210	0x3da46ee5	0.08028964
211	0x3e70d121	0.23517276
212	0xbe9eff66	-0.3105423
213	0xbde5f4a0	-0.11228299
214	0xbe128c0c	-0.14311236
215	0x3dd55282	0.10416128
216	0xbdd53d8c	-0.1041213
217	0xbd032ffd	-0.032028187
218	0xbcabc36b	-0.020967206
219	0xbd1b735d	-0.037951816
220	0xbdd6c896	-0.104874775
221	0x3e9a2cb2	0.30112225
222	0xbed3c01b	-0.41357502
223	0x3ad3ec88	0.0016168514
224	0xbd4a59b5	-0.049401958
225	0xbe959e98	-0.2922256
226	0xbdd5665b	-0.104199134
227	0x3f4df82d	0.8045681
228	0x3e84938a	0.25893813
229	0xbcc79990	-0.024365216
230	0xbe036954	-0.12833148
231	0x3ec4206f	0.38305995
232	0xbe13379e	-0.14376685
233	0x3d6c0729	0.057624016
234	0x3d03b049	0.03215054
235	0x3e1a6b47	0.15079986
236	0xbdc77194	-0.0973846
237	0x3d0f43fc	0.034976944
238	0xbcc2e4f4	-0.023790814
239	0xbbe558c0	-0.006999105
240	0xbcc87d4a	-0.024473805
241	0x3e928deb	0.286239
242	0xbe03f50d	-0.12886448
243	0x3cc6be39	0.024260627
244	0x3ebaee6b	0.36510023
245	0xbe70cb8b	-0.23515145
246	0x3b743dc2	0.0037268256
247	0xbd92eae2	-0.071737066
248	0xbe88d218	-0.2672279
249	0x3e694466	0.22779998
250	0x3dca1934	0.09868088
251	0x3de48338	0.111578405
252	0xbdb8df4a	-0.09026964
253	0x3e7e000e	0.24804708
254	0xbe00e5be	-0.1258764
255	0xbe55d7ed	-0.2088315

actor.2.bias f4 [64]
0	0x3d9ec67e	0.07752703
1	0x3d6080c0	0.054810286
2	0x3e06f110	0.13177896
3	0x3e32ef3e	0.17474076
4	0x3e836f14	0.25670683
5	0x3e20492c	0.15652913
6	0xbd8e6d82	-0.06954481
7	0x3d67d5f3	0.056600522
8	0x3d42a9d1	0.04752523
9	0xbdd7f7f0	-0.10545337
10	0xbe037f4b	-0.12841527
11	0x3e292549	0.1651813
12	0x3cfae6a1	0.03062755
13	0x3cd13bb7	0.02554117
14	0x3d9767dd	0.07392857
15	0xbd03568c	-0.03206496
16	0x3a647e2f	0.00087163126
17	0x3dcf2c22	0.101158395
18	0x3e0c6f2d	0.13714285
19	0x3d0c2ecd	0.03422432
20	0xbcd4b9c0	-0.025967479
21	0x3dab59e1	0.083667524
22	0xbda9d45f	-0.0829246
23	0x3e305dcf	0.17223285
24	0xbcaf6fcb	-0.021415612
25	0xbd671b52	-0.05642254
26	0xbd12a820	-0.035804868
27	0x3d726661	0.059179667
28	0xbe5db919	-0.2165264
29	0xbbe6a5b0	-0.0070387945
30	0xbbbed248	-0.0058234073
31	0xbe1687a1	-0.14700176
32	0x3d42d1bf	0.04756331
33	0x3d16d676	0.03682562
34	0xbe2a550b	-0.16634004
35	0x3cb1bc52	0.021696243
36	0x3dacfe1c	0.08446905
37	0x3e24eeeb	0.16106765
38	0xbe22c023	-0.15893607
39	0x3a9ce328	0.0011969553
40	0x3cce3d9b	0.02517586
41	0xbe382838	-0.17984092
42	0x3c870f86	0.016486894
43	0xbcaf92f1	-0.021432372
44	0x3e544d90	0.20732713
45	0xbe2d6267	-0.16932069
46	0x3d9d48da	0.07679911
47	0xbe009116	-0.12555346
48	0x3e3153be	0.17317101
49	0xbc959647	-0.018260134
50	0xbd1ce625	-0.03830542
51	0x3e5c4e9c	0.21514362
52	0x3d2bb743	0.04192282
53	0x3e3f5e43	0.18688302
54	0x3c254d48	0.010089226
55	0xbd7dd030	-0.06196612
56	0x3c30e3e5	0.010796522
57	0xbd1b34eb	-0.037892263
58	0xbd1d7f34	-0.03845139
59	0x3df08d76	0.117457315
60	0x3d64a11c	0.05581771
61	0xbc080d0f	-0.008303895
62	0xbdd4b7e0	-0.10386634
63	0x3dcfad0a	0.101404265

actor.4.weight f4 [16, 64]
0	0xbf04d0bb	-0.51881
1	0x3a9cf71d	0.0011975501
2	0x3f9e3ac2	1.2361681
3	0x3ea0a24d	0.31373826
4	0x3e870b6c	0.26375902
5	0x3e7c82f1	0.24659325
6	0xbf24b141	-0.6433297
7	0xbf2cd5de	-0.67513835
8	0xbddacb4b	-0.10683306
9	0xbf63655a	-0.88826525
10	0x3dd1211d	0.10211394
11	0xbd705833	-0.058677863
12	0xbecc9412	-0.3995672
13	0x3e8ac44f	0.27102897
14	0x3ea0478d	0.3130459
15	0x3d9f6420	0.07782769
16	0x3d368b91	0.044566695
17	0x3efa3e14	0.48875487
18	0x3f1295d6	0.5725988
19	0xbe705551	-0.23470046
20	0xbf2fd280	-0.6868057
21	0x3e2d1cd5	0.1690553
22	0x3ed5b3bf	0.41738698
23	0x3f066242	0.5249368
24	0xbe23a905	-0.15982445
25	0xbd83d0e1	-0.06436325
26	0x3e98e4da	0.298621
27	0xbf217834	-0.6307404
28	0xbf14ecb5	-0.58173686
29	0xbe7dd917	-0.24789844
30	0x3ea83734	0.32854617
31	0x3ecf89b7	0.40534756
32	0x3f1a75e9	0.60336167
33	0xbea32288	-0.31862283
34	0x3c6ae7a0	0.01433745
35	0x3e6c62b7	0.23084532
36	0xbedc7479	-0.43057612
37	0x3f57fa04	0.8436587
38	0xbac51f09	-0.0015039156
39	0xbf4f5a45	-0.80997115
40	0x3eb7e17b	0.35914215
41	0xbebf873f	-0.37407872
42	0xbec2c01a	-0.38037187
43	0x3f7df38a	0.99199736
44	0xbd7ae0c1	-0.0612495
45	0xbea8ea41	-0.32991222
46	0x3e54141d	0.20710798
47	0x3ef0ee31	0.47056726
48	0x3f36c101	0.7138825
49	0x3edf6213	0.43629512
50	0x3bdc8aa8	0.0067303963
51	0xbdc57915	-0.09642235
52	0x3eb1f97a	0.34760648
53	0x3e9cdaee	0.3063578
54	0x3f797648	0.9744611
55	0x3e7f9d13	0.24962263
56	0x3ea717e3	0.32635412
57	0xbf0e8d08	-0.55683947
58	0x3ec6aef3	0.3880535
59	0xbe63fc10	-0.22264123
60	0x3fa63d38	1.2987432
61	0xbe4e86aa	-0.20168558
62	0xbf938d5d	-1.1527516
63	0x3e6f7dd6	0.23387846
64	0xbd3df8e6	-0.046379946
65	0x3c227fce	0.009918166
66	0xbf160c2d	-0.5861233
67	0x3f0a3f41	0.5400277
68	0xbc790f0a	-0.0152013395
69	0x3e3fefba	0.18743792
70	0x3e918923	0.2842494
71	0x3d0298ec	0.03188412
72	0xbf3a683c	-0.728153
73	0x3e69e817	0.22842441
74	0x3f115509	0.5677038
75	0xbee743c3	-0.45168886
76	0x3eb3d241	0.35121349
77	0x3e9f1a43	0.31074724
78	0xbea4ffcb	-0.32226405
79	0x3e5285ef	0.20558904
80	0xbeb5bf53	-0.3549753
81	0x3f1754be	0.5911368
82	0xbf9846d8	-1.189662
83	0x3ec11332	0.37709957
84	0x3eb7cdc3	0.3589917
85	0x3f714d56	0.9425863
86	0x3e1e3ad5	0.1545213
87	0x3f14597a	0.5794903
88	0xbf50eb04	-0.81608605
89	0xbe815141	-0.25257304
90	0x3f2f6d40	0.6852608
91	0xbe493bfd	-0.1965179
92	0xbf907b9b	-1.1287721
93	0x3d8bc41c	0.06824514
94	0x3bdb5c1a	0.006694329
95	0x3f3ab1b2	0.7292739
96	0x3f84c244	1.0371785
97	0x3ea90676	0.33012742
98	0xbe931811	-0.287293
99	0xbedd1553	-0.43180332
100	0xbe5fde2c	-0.21862096
101	0xbf68531e	-0.90751827
102	0xbe6785bd	-0.22609611
103	0xbf66131b	-0.898729
104	0x3e0e5fb6	0.13903698
105	0xbf583167	-0.8445038
106	0x3e722ce7	0.23649941
107	0xbf3865ac	-0.7203014
108	0xbe1809d9	-0.14847507
109	0xbe060b7e	-0.13090321
110	0xbf0e7292	-0.5564357
111	0x3ef3c281	0.47609332
112	0xbe92c86f	-0.28668544
113	0x3f0fb86d	0.56140786
114	0x3efaf6d3	0.49016437
115	0xbf6852a7	-0.9075112
116	0x3f714a7e	0.9425429
117	0x3cceab8d	0.025228286
118	0x3d60480c	0.05475621
119	0x3b871dc1	0.00412342
120	0xbee0f965	-0.43940273
121	0xbcceb8b3	-0.025234556
122	0x3eb99c1a	0.3625191
123	0xbccf0a68	-0.025273517
124	0xbf8f1c3a	-1.1180489
125	0xbd2a4aa3	-0.041575085
126	0xbe1d8338	-0.15382087
127	0xbdcf95bc	-0.101359814
128	0x3e25ded4	0.16198283
129	0x3ea52410	0.32254076
130	0xbef48fcd	-0.4776596
131	0xbee78c33	-0.4522415
132	0xbec79069	-0.38977364
133	0xbc3248af	-0.010881587
134	0x3f448bb8	0.76775694
135	0x3e30cb47	0.17265044
136	0xbf99ecf5	-1.2025439
137	0x3f9b550b	1.2135328
138	0x3f98fdf9	1.1952506
139	0xbf1f5e28	-0.62253046
140	0xbdbbf45e	-0.09177469
141	0x3fc1cb90	1.5140247
142	0xbf8163c2	-1.0108569
143	0xbebb89a3	-0.36628446
144	0x3ec17d1d	0.37790766
145	0xbf4e7cda	-0.8065926
146	0xbe1a3b6f	-0.15061735
147	0xbe6b57f3	-0.22982769
148	0x3e28e55f	0.16493748
149	0x3ea9e3a7	0.33181497
150	0x3e9754a0	0.2955675
151	0xbfcbf465	-1.5933958
152	0x3e7ff6ae	0.24996445
153	0xbf25908a	-0.64673674
154	0x3f6900cc	0.9101684
155	0x3f206062	0.6264707
156	0x3fd5069e	1.6642644
157	0xbf3c65c1	-0.73592764
158	0xbe92a15d	-0.28638735
159	0x3f9e2841	1.2356035
160	0x3f636d93	0.8883907
161	0x3f01d369	0.5071321
162	0x3ce84f31	0.028358074
163	0xbaee190c	-0.0018165424
164	0xbf7d2b8e	-0.98894584
165	0xbf3a4a06	-0.727692
166	0x3f41afa2	0.7565862
167	0xbdd21bdc	-0.1025922
168	0xbd7eca01	-0.062204365
169	0x3f6ca406	0.9243778
170	0x3be3215d	0.0069314674
171	0xbf0da4f5	-0.5532983
172	0xbf28ba19	-0.6590896
173	0x3b0e898e	0.002174947
174	0xbf1e5b17	-0.6185774
175	0x3dc1203b	0.094299756
176	0xbf355e5f	-0.70847124
177	0x3efb5f2c	0.49096048
178	0xbe825a36	-0.2545945
179	0xbed55933	-0.41669616
180	0xbbc46c91	-0.0059943874
181	0xbef3f023	-0.47644147
182	0xbe9110c3	-0.283331
183	0xbc46ef79	-0.012142056
184	0xbf1765a5	-0.5913947
185	0x3ec4563d	0.38347045
186	0x3f89e83d	1.0773998
187	0x3e53965f	0.20662831
188	0xbecdaddb	-0.40171704
189	0x3e0cc51c	0.13747066
190	0x3f45124d	0.7698105
191	0xbf886614	-1.0656152
192	0x3fe2b42d	1.7711235
193	0xbdec69f5	-0.11543647
194	0x3ead1c8c	0.33810842
195	0x3efc4e28	0.49278378
196	0x3eb1138f	0.34585235
197	0xbf047c02	-0.5175172
198	0xbe844a67	-0.25838014
199	0x3ef6edd8	0.48228335
200	0xbc77e440	-0.015130103
201	0xbe8408aa	-0.2578786
202	0x3ec6d2e7	0.3883278
203	0x3f48b923	0.78407496
204	0xbdee2103	-0.1162739
205	0x3df86375	0.12128345
206	0xbecd8a90	-0.40144777
207	0xbf19ca6a	-0.60074484
208	0xbee95850	-0.4557519
209	0xbefaf39b	-0.4901398
210	0x3f4babe3	0.79559153
211	0x3ec3e7f5	0.38262907
212	0xbec6b659	-0.38810995
213	0xbe8060e0	-0.2507391
214	0xbec841b5	-0.3911263
215	0x3db5a0d7	0.088685684
216	0xbef9d158	-0.4879253
217	0xbd8a1cc7	-0.0674377
218	0xbf0a3d5c	-0.53999877
219	0xbd031b81	-0.03200865
220	0xbd28a145	-0.041169424
221	0x3ed6a04a	0.41919166
222	0xbee9f6e0	-0.45696163
223	0xbf3a0095	-0.7265714
224	0xbea27b82	-0.31734854
225	0x3d8f4d0d	0.06997118
226	0xbdd1d808	-0.10246283
227	0xbe8a24c2	-0.2698117
228	0x3f019127	0.5061211
229	0x3dd7f005	0.10543827
230	0xbe40fc16	-0.18846163
231	0x3f18805a	0.5957085
232	0xbfa09822	-1.2546427
233	0xbd05cdda	-0.03266702
234	0x3dfac7cf	0.12245142
235	0xbe469030	-0.1939094
236	0xbebb97b0	-0.36639166
237	0x3e6dc9fb	0.2322158
238	0x3d05188b	0.03249411
239	0xbf5735c5	-0.8406642
240	0x3e23a057	0.15979134
241	0xbf94321d	-1.1577793
242	0xbec24808	-0.3794558
243	0x3f6432c1	0.89139944
244	0xbef2575c	-0.47332275
245	0x3d85d758	0.06535214
246	0x3eb2bb26	0.34908408
247	0xbf04c238	-0.51858854
248	0xbf7ef3ae	-0.99590576
249	0xbf32ea10	-0.698884
250	0x3f58d318	0.84697104
251	0xbed35acd	-0.41280213
252	0xbe993d79	-0.29929712
253	0xbf2bcfca	-0.67113936
254	0xbed897d2	-0.4230333
255	0x3f2b8dee	0.6701344

actor.4.bias f4 [16]
0	0x3e482230	0.19544291
1	0x3e064024	0.13110405
2	0x3c26d04e	0.0101815
3	0xbdd724eb	-0.105050884
4	0xbeca7fc9	-0.39550617
5	0xbf42ae44	-0.7604716
6	0xbd591b23	-0.053004395
7	0xbc67afa7	-0.014141
8	0xbf51491b	-0.81752175
9	0xbc079edc	-0.008277621
10	0xbd36b2e1	-0.044604186
11	0xbf65b08c	-0.89722514
12	0xbef5b0aa	-0.47986346
13	0xbe36ebaf	-0.17863344
14	0xbf2cfb69	-0.6757112
15	0x3ef0c005	0.470215

critic.0.weight f4 [128, 35]
0	0x3d1ac8f4	0.0377893
1	0xbdabbe3e	-0.08385895
2	0x3c78a446	0.015175885
3	0xbd9417e2	-0.07231118
4	0xbc4992b1	-0.01230304
5	0xbd881d54	-0.06646219
6	0xbd828c43	-0.06374409
7	0xbd6f0942	-0.05835844
8	0xbdb04da1	-0.086085565
9	0x3c3a2d5f	0.011363356
10	0x3fdae922	1.7102396
11	0xbe0611d2	-0.13092735
12	0xbf3d7722	-0.7400991
13	0xbf9edfb8	-1.2412024
14	0xbf83c049	-1.0293056
15	0xbe3eb144	-0.18622309
16	0x3ed5e5a9	0.4177678
17	0x3edab4fd	0.42716208
18	0x3dba0c03	0.09084322
19	0x3e0f5fc5	0.14001377
20	0xbd0dd07e	-0.03462266
21	0x3dba0951	0.09083808
22	0x3d5e9dbd	0.05434965
23	0x3d4177c2	0.04723335
24	0xbd94ffbb	-0.07275339
25	0xbecf2701	-0.40459445
26	0x3d9e6a3e	0.07735108
27	0xbe18a153	-0.1490529
28	0x3d35ffb1	0.0444333
29	0x3e41b056	0.18914923
30	0x3ed0a3b0	0.40749884
31	0x3e2cb83d	0.16867156
32	0xbebc866f	-0.36821315
33	0x3e98597f	0.2975578
34	0x3f590fe6	0.84789884
35	0x3e15d736	0.14632878
36	0x3ddd2be6	0.107993886
37	0x3e1ace4e	0.15117761
38	0x3da5f67d	0.081036545
39	0x3e594bdb	0.21220343
40	0x3e194388	0.14967167
41	0x3e2afd63	0.16698222
42	0x3dd9f340	0.106420994
43	0x3e048294	0.12940437
44	0x3e1a5651	0.1507199
45	0x3f506aa5	0.81412727
46	0xbf7b3aba	-0.98136485
47	0x3f173613	0.59066886
48	0x3f1ce7da	0.6129128
49	0x3f3f9292	0.74833024
50	0x3f297513	0.66194266
51	0x3e97b2dd	0.2962865
52	0xbdc914cb	-0.09818419
53	0xbebcb4b3	-0.36856613
54	0xbe63d34c	-0.22248572
55	0x3e199772	0.14999178
56	0xbebae504	-0.3650285
57	0xbd95cfc3	-0.07315018
58	0x3d90266e	0.0703858
59	0xbe2046d2	-0.15652016
60	0xbe953630	-0.29142904
61	0x3f02502f	0.509036
62	0x3e574c63	0.21025233
63	0xbd5f1dd8	-0.05447182
64	0x3e719052	0.2359021
65	0xbe4a5ad3	-0.19761209
66	0xbec7e826	-0.39044303
67	0xbebdf973	-0.37104377
68	0xbc8fd5dd	-0.017558033
69	0xbe8e1aba	-0.27754766
70	0xbcbe0f23	-0.023200577
71	0xbcc3d0e0	-0.02390331
72	0xbcca409a	-0.024689008
73	0xbd2ef919	-0.042718027
74	0xbc1b356d	-0.009473187
75	0xbd1b89ea	-0.037973322
76	0xb995f3c4	-0.00028601114
77	0xbce53984	-0.027981527
78	0xbd0df94d	-0.03466158
79	0xbcb2ea1b	-0.021840146
80	0xbd555427	-0.052082207
81	0x3f37f19b	0.71853036
82	0x3fb7b4be	1.4352033
83	0x3f8673fc	1.0504146
84	0x3fa020c5	1.251
85	0x3f0bc6e9	0.5460039
86	0x3ea83d99	0.32859495
87	0x3eb50e88	0.3536265
88	0x3eb58339	0.35451677
89	0x3eaa7e86	0.33299655
90	0xbdeeb4c5	-0.11655573
91	0xbe32b494	-0.17451698
92	0xbe2a35b3	-0.16622047
93	0x3ebe4160	0.37159252
94	0x3dab28b8	0.08357376
95	0xbea7cb6b	-0.32772383
96	0xbf66e0ab	-0.90186566
97	0xbd0f1dae	-0.034940414
98	0xbca87bc7	-0.020566834
99	0x3e725031	0.23663403
100	0x3dea3135	0.11435167
101	0x3e21d5da	0.15804234
102	0xbdf3e565	-0.11908988
103	0xbed92f60	-0.42418957
104	0x3e959cee	0.2922129
105	0x3dd462cd	0.10370407
106	0x3da96fd5	0.082732834
107	0x3db217e2	0.086959615
108	0x3da97867	0.08274918
109	0x3d9d07bf	0.07667493
110	0x3d31ecc0	0.043438673
111	0x3d453a1c	0.04815112
112	0x3c8ade73	0.016951775
113	0x3d43bdf7	0.047788586
114	0x3da936a1	0.08262373
115	0xbfd18ed4	-1.6371713
116	0x3f76ce13	0.96408194
117	0x3f0ae7a0	0.5425968
118	0x3e9b548e	0.30337948
119	0xbf474041	-0.7783242
120	0x3ebf7048	0.3739035
121	0x3e1afaf3	0.15134792
122	0x3ebc7b83	0.36812982
123	0x3ee77b5b	0.452113
124	0x3f091b8b	0.5355765
125	0xbe892169	-0.26783302
126	0x3d8b1a53	0.0679213
127	0xbd1cfdff	-0.038328167
128	0xbe3628c9	-0.17788996
129	0xbf202ab1	-0.6256514
130	0xbeed25ff	-0.4631805
131	0x3db758ae	0.08952461
132	0x3d266641	0.04062486
133	0x3d01113c	0.031510577
134	0x3e1ea4b8	0.15492523
135	0x3de0dc35	0.10979501
136	0x3ee99e89	0.45628765
137	0x3ea2081b	0.3164681
138	0x3f1ff6ea	0.62486136
139	0x3f4eeed3	0.80833167
140	0xbc516160	-0.012779564
141	0xbc0d70b2	-0.008632826
142	0x3819f1e7	3.670333e-05
143	0x3c7efd1a	0.015563274
144	0xbc032cbd	-0.008006272
145	0xbc3f9f20	-0.011695653
146	0x3ce5085f	0.027958093
147	0xbc854cfe	-0.016272064
148	0xbd1b396e	-0.037896566
149	0xbcff9f33	-0.031203842
150	0xbf117c90	-0.5683069
151	0x3da0ebf5	0.07857505
152	0xbe6266ca	-0.22109523
153	0x3e983358	0.29726672
154	0x3c040df7	0.00805997
155	0x3fa7d777	1.311263
156	0x3eff42e0	0.4985571
157	0xbdba8528	-0.09107429
158	0xbd34258b	-0.043981116
159	0xbc4c971f	-0.012487202
160	0x3e86f79a	0.2636078
161	0x3e265e47	0.16246901
162	0x3d740464	0.0595745
163	0xbe2613d3	-0.162185
164	0xbe23f522	-0.1601148
165	0x3eab1553	0.33414707
166	0xbf1c6095	-0.6108487
167	0x3d5ae63e	0.053442232
168	0x3e0ed925	0.13950022
169	0xbd790e42	-0.060804613
170	0x3e60cb9a	0.21952668
171	0xbe9d539c	-0.3072785
172	0xbeedaf80	-0.46422958
173	0xbe1a2535	-0.15053256
174	0x3eff3ca4	0.49850953
175	0x3d6cdd2f	0.057828125
176	0x3cd1b8dc	0.025600843
177	0x3dacad42	0.08431484
178	0x3d23b7eb	0.03997032
179	0xbc082ed8	-0.00831195
180	0x3b0339ba	0.0020023421
181	0x3d49785e	0.049187057
182	0x3c159154	0.009128887
183	0x3df7a357	0.120917015
184	0x3e2b2aa6	0.16715488
185	0xc0154e4c	-2.3329039
186	0xbfa49ee7	-1.2860993
187	0xbf2b47fd	-0.6690672
188	0xbf6a4f59	-0.91527325
189	0xbf364c38	-0.7121005
190	0x3fb9ddde	1.4520833
191	0x3e75c0fc	0.23999399
192	0x3eab786a	0.33490306
193	0xbe26c2d2	-0.16285256
194	0x3ee4b302	0.44667822
195	0xbe856391	-0.26052526
196	0x3d0f13fd	0.03493117
197	0xbda476c0	-0.08030462
198	0x3e1022bc	0.1407575
199	0xbd2a9db7	-0.041654315
200	0x3e27b8b0	0.16379046
201	0x3d3e417b	0.046449166
202	0xbd7fb18f	-0.062425192
203	0x3df7afd3	0.12094083
204	0x3d5afa26	0.053461216
205	0xbd0c052f	-0.03418463
206	0xbe8c3aba	-0.27388555
207	0x3d9e99a3	0.07744148
208	0xbe142d64	-0.1447044
209	0x3e663573	0.22481327
210	0xbcf6060e	-0.030032184
211	0xbd1fd08b	-0.03901724
212	0xbce74ef9	-0.0282359
213	0xbcf48677	-0.029849274
214	0xbd89bbd1	-0.06725276
215	0xbd16badf	-0.036799308
216	0xbcdbec50	-0.026846081
217	0x3befa5df	0.0073134745
218	0xbd8d14c2	-0.06888725
219	0xbe0a65f4	-0.13515455
220	0xbf40d64b	-0.75326985
221	0xbf8643a6	-1.0489395
222	0xbf1cb998	-0.61220694
223	0xbd8ec84f	-0.069717996
224	0xbed94594	-0.42435896
225	0x3d2c063b	0.04199813
226	0xbe0e1f28	-0.13879073
227	0x3d4f4043	0.050598394
228	0x3e83a32e	0.25710434
229	0xbd36228c	-0.04446654
230	0xbb19713f	-0.0023413447
231	0x3cb4849d	0.022035891
232	0xbd2588ff	-0.040413853
233	0xbebca461	-0.3684416
234	0x3e60270e	0.21889898
235	0x3d278209	0.040895496
236	0x3ec5542a	0.38540775
237	0xbc3ec799	-0.0116442675
238	0x3e5df9f0	0.21677375
239	0x3e9f5a6b	0.3112367
240	0x3ece6af3	0.4031597
241	0xbe95f921	-0.29291633
242	0x3e246693	0.16054754
243	0x3f1104d1	0.56647974
244	0x3f63bc7f	0.889595
245	0x3d80f592	0.06296839
246	0x3c86552b	0.016398033
247	0x3c8be3d6	0.017076414
248	0x3d302335	0.043002326
249	0x3ca34416	0.019929927
250	0x3cd009f6	0.025395375
251	0x3ceed8b4	0.029156066
252	0x3c6a27a5	0.014291679
253	0xbcc74f12	-0.024329696
254	0xbccc8cf6	-0.02496956
255	0xbff07a95	-1.8787409

critic.0.bias f4 [128]
0	0x3f514c29	0.81756836
1	0xbf52041e	-0.8203753
2	0xbe3727ad	-0.17886229
3	0xbe33e5b6	-0.17568097
4	0xbf1c4836	-0.61047685
5	0xbf021636	-0.5081514
6	0x3db8bcc4	0.09020379
7	0xbf4beffd	-0.7966307
8	0x3f0df47e	0.5545119
9	0xbeb56ca1	-0.3543444
10	0x3f248599	0.64266354
11	0x3d5a6c35	0.05332585
12	0x3f046c40	0.51727676
13	0x3e5c0f10	0.21490121
14	0x3e9db233	0.30800018
15	0x3d94d236	0.07266657
16	0x3f810012	1.0078146
17	0xbe94bdc2	-0.29051024
18	0xbf033275	-0.51248866
19	0x3f546d8b	0.8297965
20	0xbed551ca	-0.41663963
21	0xbf46f614	-0.77719235
22	0xbf575355	-0.8411153
23	0x3ec41066	0.3829376
24	0x3eb2cc2e	0.34921402
25	0xbf055315	-0.520799
26	0x3b7e6434	0.003881705
27	0x3def9fd3	0.11700406
28	0x3d69bf4a	0.057067193
29	0x3eee9926	0.46601218
30	0x3d15cfb4	0.036575034
31	0xbd67dd09	-0.05660728
32	0x3c478df5	0.012179841
33	0xbebc6878	-0.36798453
34	0xbf09c5e9	-0.5381761
35	0xbdc9eedd	-0.09860013
36	0xbf4c7666	-0.7986816
37	0xbd3a98c7	-0.045555856
38	0x3e6de734	0.23232728
39	0x3d82ecd8	0.063928306
40	0x3e8d0ec7	0.27550337
41	0xbe6f50fd	-0.23370738
42	0xbf11e725	-0.56993324
43	0xbe7b9758	-0.24569452
44	0xbe4df570	-0.20113158
45	0xbf7d660f	-0.98983854
46	0xbbc99e36	-0.0061528934
47	0x3e5f5d34	0.21812898
48	0x3d1d7c39	0.038448546
49	0x3c054ce7	0.008136011
50	0xbe9a49de	-0.3013448
51	0xbb38c447	-0.0028193162
52	0x3d3bdf40	0.045867205
53	0xbf8426f5	-1.0324389
54	0xbf062a52	-0.52408326
55	0xbdfd70af	-0.12375008
56	0xbe50c434	-0.20387346
57	0xbf1ba159	-0.6079307
58	0x3ed1ef07	0.41002676
59	0xbd9fdfb3	-0.07806339
60	0x3df399d9	0.118945785
61	0x3e739b01	0.23789598
62	0xbe45e7cd	-0.19326706
63	0x3efe7f50	0.49706507
64	0x3db76ec8	0.08956677
65	0xbf472c2e	-0.7780179
66	0xbf4027a1	-0.7506047
67	0xbe55750e	-0.20845434
68	0x3d5a89fc	0.05335425
69	0x3e2a3027	0.16619931
70	0x3e9823a6	0.29714698
71	0x3f2e1fff	0.6801757
72	0x3f1cf898	0.61316824
73	0x3e838d3e	0.25693697
74	0xbdb851f7	-0.090000086
75	0x3eeae673	0.45878944
76	0xbe006a27	-0.12540494
77	0x3e5c2bee	0.21501133
78	0x3d97970c	0.07401857
79	0x3ebab8d9	0.36469153
80	0x3d29db6b	0.04146902
81	0x3da6c15d	0.0814235
82	0x3f432026	0.7622093
83	0x3e82fc41	0.2558308
84	0xbdb37740	-0.087629795
85	0x3f5c8afb	0.8614957
86	0x3d8d99b4	0.06914082
87	0x3e830abe	0.25594133
88	0x3ec2445c	0.3794278
89	0xbe0e63cb	-0.13905255
90	0xbdb38dba	-0.087672666
91	0x3f25714a	0.6462599
92	0xbe57ce36	-0.21074757
93	0xbebdaa4a	-0.37043983
94	0xbf347963	-0.7049772
95	0x3f276251	0.65384394
96	0x3e620494	0.22072059
97	0x3f0d1b1b	0.55119485
98	0xbf010f3a	-0.5041386
99	0x3e14e7f5	0.1454161
100	0xbe3c8412	-0.18409756
101	0xbf75757e	-0.95882404
102	0x3ef9bf26	0.48778647
103	0x3f218a36	0.6310152
104	0xbe51e3a2	-0.20496991
105	0xbec5a77f	-0.38604352
106	0x3e43633b	0.19080822
107	0x3d67436d	0.056460787
108	0xbe823a9c	-0.2543534
109	0x3dc6b5ae	0.097026214
110	0xbf2c9680	-0.67417145
111	0x3f5f2481	0.87165076
112	0x3f94ad8c	1.1615462
113	0xbda47f77	-0.080321245
114	0xbf9b97d2	-1.2155707
115	0xbe33ac05	-0.17546089
116	0x3f82aa14	1.0208154
117	0xbebf5dde	-0.37376302
118	0x3eba80da	0.3642643
119	0xbdfe3274	-0.12411967
120	0xbf2f0c10	-0.6837778
121	0x3d9fc9ee	0.07802187
122	0x3dee7541	0.11643458
123	0x3de02c49	0.10945947
124	0xbeed3b39	-0.46334246
125	0xbea7f485	-0.3280374
126	0xbe4a2750	-0.19741559
127	0x3e0c3773	0.13693027

critic.2.weight f4 [64, 128]
0	0xbd337fcd	-0.043823052
1	0xbe13f8ec	-0.14450425
2	0x3d7317c7	0.059348848
3	0xbdaa5678	-0.08317274
4	0xbd1ca7d5	-0.038245995
5	0xbd7ab719	-0.06120977
6	0xbe01cef8	-0.12676609
7	0xbeaa707b	-0.3328894
8	0xbcb54fe8	-0.022132829
9	0xbde7110c	-0.11282548
10	0xbd118662	-0.035528548
11	0x3bf04870	0.007332854
12	0x3d7afdea	0.061277308
13	0xbd45bea5	-0.048277516
14	0xbe35d238	-0.17755973
15	0xbdfc2f1d	-0.12313674
16	0xbddf29bf	-0.10896634
17	0x3e2998d5	0.16562207
18	0xbe15323a	-0.14569941
19	0x3dd79824	0.105270654
20	0xbd97b567	-0.074076466
21	0x3d2c6077	0.042084184
22	0x3c48f4bb	0.01226538
23	0xbdee08f6	-0.11622803
24	0x3da3f5db	0.080058776
25	0xbdd6da98	-0.10490912
26	0x3d74c992	0.059762545
27	0x3dbceb40	0.09224558
28	0x3d634d2e	0.055493526
29	0xbc827d3e	-0.01592886
30	0x3d2cd9a9	0.042199764
31	0xbd9185b2	-0.071055785
32	0xbdb15b67	-0.08660012
33	0xbe21ecd5	-0.15813
34	0x3d12a48f	0.035801467
35	0x3df83d67	0.121210866
36	0xbdd3a3b0	-0.10333955
37	0x3d7628bc	0.06009744
38	0x3e0f0d73	0.13969974
39	0xbc99a4ea	-0.018755395
40	0xbcea21cc	-0.028580569
41	0x3dc5fed4	0.09667745
42	0x3dc15d69	0.09441645
43	0x3c3c029b	0.011475231
44	0xbe1032bd	-0.14081855
45	0xbe24b845	-0.16085918
46	0x3d3a6471	0.045505945
47	0xbda64599	-0.081187434
48	0x3cd5a9f2	0.026082013
49	0x3d0a7442	0.03380228
50	0xbbc675b3	-0.0060565113
51	0xbe2b565e	-0.16732165
52	0xbe3963a8	-0.18104422
53	0xbd9d77a5	-0.07688836
54	0xbe4e9dd3	-0.20177393
55	0x3dd74617	0.105114155
56	0x3d97a8c2	0.07405235
57	0xbce5f57b	-0.028071156
58	0x3dfb92dc	0.122838706
59	0xbe0d376c	-0.13790673
60	0xbc39a40d	-0.011330617
61	0x3d32c802	0.043647774
62	0x3aaad006	0.0013031967
63	0x3d6476f7	0.055777516
64	0x3d48bbef	0.049007352
65	0xbe0b8993	-0.13626699
66	0x3d16cb44	0.036814943
67	0xbcd9a50d	-0.02656796
68	0x3c55e90c	0.013056051
69	0x3d328b7f	0.043590065
70	0xbc7a9cff	-0.01529622
71	0x3dc526ec	0.096265644
72	0xbd997632	-0.07493247
73	0x3d9800f5	0.074220575
74	0x3e0c6241	0.13709356
75	0xbc913728	-0.017726496
76	0xbdc1ef92	-0.094695225
77	0x3e94a6fb	0.29033646
78	0x3d35c673	0.04437871
79	0x3e0e49bf	0.1389532
80	0x3da7ffbc	0.08203074
81	0x3d1c2abd	0.038126696
82	0xbdea3f4f	-0.114378564
83	0xbbe417d2	-0.0069608474
84	0x3c636852	0.013879852
85	0x3debefdc	0.11520359
86	0x3e064ae3	0.13114505
87	0x3d80de4a	0.06292398
88	0x3dfa1de2	0.12212731
89	0x3dacc310	0.08435643
90	0xbde03af0	-0.109487414
91	0x3d39d572	0.045369573
92	0xbdf9c682	-0.121960655
93	0xbc9f2dec	-0.019431077
94	0xbdc3716c	-0.09543118
95	0x3d22e53a	0.03976939
96	0xbe4ce27c	-0.20008272
97	0xbe020c77	-0.12700067
98	0xbd7cc4c9	-0.061711106
99	0xbdbf2e68	-0.09335023
100	0xbdd8bd3a	-0.10582967
101	0xbda1e7af	-0.07905518
102	0x3de38f62	0.111113325
103	0xbd955b6c	-0.07292828
104	0xbdbddc3f	-0.09270524
105	0xbd9d4838	-0.0767979
106	0x3e2148a2	0.15750363
107	0x3dd54995	0.10414425
108	0xbdb43eef	-0.08801066
109	0xbe2c1d61	-0.16808082
110	0xbcff883d	-0.031192893
111	0xbc37d08f	-0.011219158
112	0xbd92a737	-0.071608
113	0x3dbe4f1c	0.09292433
114	0xbe18f4ea	-0.14937177
115	0xbe72ab08	-0.23698056
116	0xbd448447	-0.047977712
117	0xbd41c961	-0.04731119
118	0xbd6a8c55	-0.057262737
119	0xbda1e333	-0.07904663
120	0xbd44a3aa	-0.048007645
121	0xbd811077	-0.063019685
122	0xbd10e363	-0.035373103
123	0xbe02d154	-0.12775165
124	0xbdc83add	-0.09776852
125	0x3cefc878	0.029270396
126	0x3d00d18c	0.03144984
127	0xbca9f457	-0.020746393
128	0xbe2233f0	-0.15840125
129	0xbe56f011	-0.20990016
130	0xbe0a6145	-0.13513668
131	0xbe411e38	-0.18859184
132	0x3e4cd23a	0.2000207
133	0x3d82a0ae	0.063783035
134	0xbddf0fd0	-0.10891688
135	0xbb794854	-0.0038037496
136	0xbd9bbc20	-0.07604241
137	0xbdc74358	-0.09729642
138	0xbe8de0ff	-0.2771072
139	0x3ea99d34	0.3312775
140	0xbd0b4736	-0.03400346
141	0x3de742ff	0.11292075
142	0xbe03ae6c	-0.12859505
143	0xbe861d68	-0.2619431
144	0xbe5eb865	-0.21750028
145	0x3dcdc603	0.10047533
146	0xbefb6edf	-0.49108025
147	0x3d0e3bbb	0.034724932
148	0xbdb063cb	-0.08612784
149	0xbd564347	-0.052310254
150	0xbd27005b	-0.040771823
151	0x3d8867c1	0.066604145
152	0xbe851e6f	-0.2599978
153	0xbe8a724c	-0.27040327
154	0xbe011b56	-0.12608084
155	0x3ba576ea	0.005049576
156	0xbbb80841	-0.0056162183
157	0xbeb89f03	-0.36058816
158	0xbec7b58f	-0.39005706
159	0x3dd8adb5	0.10580007
160	0xbe3295e9	-0.17439999
161	0xbd9816eb	-0.07426246
162	0xbd98a291	-0.07452882
163	0xbda37ef9	-0.079832025
164	0xbe7f9628	-0.24959624
165	0x3d53aeaa	0.051680245
166	0xbf2c1f21	-0.67235
167	0xbdfd6afe	-0.12373923
168	0xbe6c32c5	-0.23066242
169	0xbeb3edfa	-0.351425
170	0xbe5293a6	-0.20564136
171	0xbf15386f	-0.58289236
172	0xbd82e7d1	-0.06391872
173	0xbe6001f7	-0.2187575
174	0xbe309a00	-0.17246246
175	0xbd385e13	-0.04501159
176	0x3dd303d2	0.10303463
177	0x3c4994e8	0.012303568
178	0x3d77bccc	0.060482785
179	0xbe9bc99c	-0.30427253
180	0xbe3c2b9b	-0.18376009
181	0xbd17fe85	-0.037107963
182	0x3e2b874d	0.16750832
183	0xbe66ee5c	-0.22551864
184	0x3bc63790	0.006049104
185	0x3f105ac1	0.5638848
186	0xbe7e0442	-0.24806312
187	0xbe4b3999	-0.1984619
188	0xbdf7c261	-0.12097622
189	0xbd2549a9	-0.04035345
190	0x3c84f1a1	0.016228499
191	0xbf146965	-0.5797332
192	0x3e4194e1	0.18904449
193	0x3c967010	0.018363982
194	0xbe7ed17f	-0.24884604
195	0xbe705178	-0.23468578
196	0x3c8a63be	0.016893264
197	0xbe6f1482	-0.23347667
198	0x3df39cf8	0.11895174
199	0x3e92c642	0.28666884
200	0x3df807d9	0.12110872
201	0xbec07f3f	-0.3759708
202	0xbdd6475b	-0.10462829
203	0xbea32fb3	-0.3187233
204	0xbdc87369	-0.09787638
205	0x3e9a1240	0.3009205
206	0xbea677bd	-0.32513228
207	0x3e45edec	0.19329041
208	0xbe6e01b1	-0.23242833
209	0xbdf6d08d	-0.12051497
210	0xbd76950a	-0.06020073
211	0x3dd682fa	0.104742005
212	0x3d0802e7	0.033205893
213	0x3d503362	0.050830252
214	0x3cc532a5	0.024072
215	0xbe78b8d8	-0.24289262
216	0xbe86ce4b	-0.26329264
217	0x3ee3863d	0.44438353
218	0xbe51a52b	-0.20473163
219	0xbeaff202	-0.34364325
220	0xbe1d2c46	-0.1534892
221	0xbf075aba	-0.5287281
222	0xbe542eb5	-0.20720942
223	0xbd9ce415	-0.07660691
224	0xbe8c9ed4	-0.27464926
225	0xbe8fb03c	-0.28064144
226	0xbe742e64	-0.23845822
227	0xbe207e55	-0.15673192
228	0x3c289117	0.010288498
229	0xbda9670b	-0.08271607
230	0xbee6d15e	-0.4508161
231	0xbe073bd4	-0.13206416
232	0xbdfd40eb	-0.12365898
233	0xbe59e956	-0.21280417
234	0x3d5ef90b	0.054436725
235	0xbeb5d22b	-0.35511908
236	0x3dce0db5	0.10061208
237	0xbded5c2c	-0.11589846
238	0xbdcfe184	-0.101504356
239	0xbec7ce72	-0.39024693
240	0xbf80ecb7	-1.007224
241	0x3d83d598	0.06437224
242	0x3c913d17	0.017729325
243	0xbf0f39a1	-0.5594731
244	0x3ed3dd1a	0.41379625
245	0x3dbd617b	0.092471085
246	0x3c864f68	0.016395286
247	0x3ddde407	0.108345084
248	0xbf11d646	-0.5696758
249	0xbe4a754a	-0.19771305
250	0xbe97b077	-0.2962682
251	0x3de48e10	0.11159909
252	0xbe091901	-0.13388444
253	0xbe0c8727	-0.13723432
254	0xbd70d4a4	-0.05879654
255	0xbd0dc38b	-0.034610312

critic.2.bias f4 [64]
0	0xbc82e557	-0.015978498
1	0x3e40729b	0.18793719
2	0x394d8d76	0.00019603022
3	0xbf376c31	-0.7164946
4	0x3dffb46b	0.12485584
5	0x3db2eed3	0.08736958
6	0x3ca3b138	0.019981965
7	0xbadbb6f9	-0.0016762904
8	0x3d863cbd	0.06554554
9	0xbc141a09	-0.00903941
10	0xbde9c47c	-0.114144295
11	0xbf0f19e9	-0.5589891
12	0x3c8e2f0e	0.017356422
13	0x3cf3b55d	0.029749567
14	0xbecf7c87	-0.40524694
15	0x3e00fa89	0.12595572
16	0xbab411d3	-0.0013738222
17	0x3d26b25d	0.040697444
18	0x3de6420e	0.11243068
19	0x3d52218d	0.051301528
20	0x3bf6c52f	0.0075308303
21	0xbe094af8	-0.13407505
22	0xbcb192a7	-0.021676375
23	0xbdf44f86	-0.119292304
24	0x3d97f82a	0.074203804
25	0x3d29d4ac	0.041462585
26	0x3e1c4aa2	0.15262845
27	0xbc23d660	-0.009999841
28	0xbd4b28d6	-0.04959949
29	0xbe4753bb	-0.19465534
30	0x3da00302	0.07813074
31	0x3d100780	0.035163403
32	0x3e030982	0.12796596
33	0xbe523b69	-0.20530476
34	0xbe7250e2	-0.23663667
35	0xbd4dd097	-0.050247755
36	0xbd8fa8dd	-0.0701463
37	0xbe8f24b7	-0.279577
38	0xbd125aad	-0.035731006
39	0xbdf30031	-0.11865271
40	0xbe289a1d	-0.1646504
41	0x3daf482d	0.08558688
42	0x3eabad01	0.3353043
43	0x3ddfea28	0.10933334
44	0xbdbfbd62	-0.09362294
45	0xbde4cea5	-0.11172227
46	0x3e067621	0.13131
47	0xbedb4b1d	-0.42830744
48	0x3e115f1a	0.14196435
49	0xbd0792e8	-0.033099085
50	0x3e999e12	0.3000341
51	0xbe2036aa	-0.15645853
52	0xbcc29eb9	-0.023757325
53	0x3d926fd9	0.071502395
54	0x3c806c8f	0.015676765
55	0xbdf18162	-0.11792256
56	0x3e010382	0.12598994
57	0xbc714848	-0.014726706
58	0xbcf4388a	-0.029812116
59	0xbe0e41be	-0.13892266
60	0x3d77c9ce	0.06049519
61	0xbd9b7ecd	-0.07592545
62	0x3daff4ff	0.08591651
63	0x3d86c4a2	0.065804735

critic.4.weight f4 [1, 64]
0	0xbea47c5a	-0.32126123
1	0x3f0f046d	0.5586613
2	0xbf0c4f2f	-0.54808325
3	0x3eadc19c	0.33936775
4	0xbf081896	-0.53162515
5	0xbeacfbc7	-0.3378584
6	0xbef2007c	-0.47265995
7	0xbeff7507	-0.49893972
8	0x3ec14b32	0.37752682
9	0x3c0aaca2	0.00846401
10	0x3da77910	0.08177388
11	0x3dcb3b1e	0.09923385
12	0xbe03b478	-0.12861812
13	0x3e613650	0.21993375
14	0x3f039a62	0.51407444
15	0x3f1518e6	0.58241117
16	0xbebd423a	-0.3696459
17	0xbe941b96	-0.28927296
18	0x3e15bcea	0.14622846
19	0xbe08f5de	-0.13375041
20	0x3d9dcd69	0.077051945
21	0x3f10a61d	0.5650347
22	0x3ee91497	0.4552352
23	0xbee548df	-0.4478216
24	0x3ecaa25d	0.39576998
25	0x3f329cf2	0.6977073
26	0x3f01befc	0.50682044
27	0xbdbbb1c6	-0.09164767
28	0x3edf69d1	0.4363542
29	0xbe1a7d98	-0.15086973
30	0x3ec9ca9d	0.39412394
31	0xbe6d4e4d	-0.231744
32	0x3e393c8e	0.18089506
33	0x3edb1f85	0.42797485
34	0x3edcbe71	0.43114045
35	0xbdf157d8	-0.11784333
36	0x3df55a7d	0.1198015
37	0x3f148e7b	0.5802991
38	0x3ed7173f	0.42009923
39	0xbea25f04	-0.31713116
40	0xbf0cba09	-0.5497137
41	0xbe48b9ed	-0.19602175
42	0xbe0de359	-0.13856257
43	0xbf2a93a1	-0.66631514
44	0x3e3164cd	0.17323609
45	0xbefdfd77	-0.4960744
46	0xbec1baa5	-0.3783771
47	0x3f01bc2a	0.5067774
48	0x3eba5cce	0.3639893
49	0x3eca7b19	0.3954704
50	0xbdfa7b61	-0.12230564
51	0x3f02223e	0.508335
52	0xbe98016a	-0.2968858
53	0xbdfab9e3	-0.12242486
54	0xbea96a93	-0.33089122
55	0xbdb78cbb	-0.08962389
56	0xbeec27ad	-0.4612402
57	0x3ea280a5	0.31738773
58	0x3ee30be7	0.44345018
59	0x3f0a7503	0.54084796
60	0x3e299e9f	0.16564415
61	0x3ed93fde	0.4243154
62	0x3e04bced	0.12962694
63	0x3dc392b4	0.09549466
