PPO_preTrained/20220510/PPO_20220510_0_425.pth (torch, 110785 bytes, 11 tensors)

actor.0.weight f4 [128, 35]
0	0x3e46a9f1	0.19400765
1	0xbdc9b31f	-0.09848618
2	0x3e472fd5	0.1945184
3	0x3e443be4	0.19163471
4	0xbe13f069	-0.14447178
5	0x3c9f687f	0.019459007
6	0xbc335e29	-0.0109477425
7	0x3e1fcb6b	0.15604942
8	0xbdebf28f	-0.11520874
9	0xbc34d4b5	-0.011037041
10	0x3e9d7116	0.3075034
11	0x3da4b529	0.08042366
12	0x3dd1e486	0.102486655
13	0xbeae4828	-0.34039426
14	0x3e5c4da3	0.21513991
15	0x3de52c6d	0.11190114
16	0xbd648894	-0.055794314
17	0xbccf54d9	-0.025309013
18	0x3d9885e5	0.07447413
19	0xbdc36c80	-0.09542179
20	0x3dd8d68c	0.105877966
21	0x3d77670a	0.060401
22	0x3c3d3fb9	0.011550837
23	0xbde25c11	-0.110527165
24	0xbd6c771d	-0.057730783
25	0xbde07340	-0.10959482
26	0x3bd9e6ff	0.0066498513
27	0x3e48da4c	0.19614524
28	0x3ddee221	0.108829744
29	0xbbf898e1	-0.007586584
30	0x3e369073	0.1782854
31	0x3e218101	0.15771867
32	0x3d8ca686	0.06867699
33	0xbf6fd280	-0.9368057
34	0xbdf096b3	-0.117474936
35	0x3df0a76b	0.117506824
36	0xbc98b0e2	-0.018639032
37	0x3d413427	0.047168877
38	0x3d4d98c7	0.050194528
39	0x3d44668f	0.04794937
40	0x3e6daf28	0.23211348
41	0x3d869e2a	0.06573136
42	0xbdce5a4f	-0.10075819
43	0x3e387935	0.18014987
44	0x3df6371b	0.12022229
45	0xbf3e3447	-0.7429852
46	0xbe53f87f	-0.20700262
47	0xbe3570aa	-0.17718759
48	0xbe9992dc	-0.29994857
49	0x3ec2971d	0.38005915
50	0x3e1f9065	0.15582426
51	0x3daf218a	0.08551319
52	0x3e0aa499	0.13539352
53	0x3da7568a	0.08170803
54	0x3e0c7131	0.13715054
55	0x3e17c068	0.14819491
56	0xbdfc9560	-0.123331785
57	0xbe8f4bfc	-0.2798766
58	0xbe6350b6	-0.22198758
59	0xbbf77ba3	-0.0075525804
60	0xbd181972	-0.03713364
61	0x3d8ad667	0.06779175
62	0x3d9f94e8	0.077920735
63	0x3e2184d2	0.15773323
64	0xbdf4ecbd	-0.11959217
65	0x3da1cef9	0.07900805
66	0xbd4bdcf7	-0.049771275
67	0xbe0e5d2e	-0.13902733
68	0x3d4e2430	0.05032748
69	0xbe857406	-0.2606508
70	0xbe61e9ab	-0.22061794
71	0xbdc331b7	-0.09530967
72	0x3d618c98	0.05506572
73	0x3e1bbc76	0.15208611
74	0xbc149010	-0.00906755
75	0x3de2a25e	0.11066125
76	0x3d477718	0.04869756
77	0xbdd9d2a1	-0.106358774
78	0x3de9800a	0.11401375
79	0x3e184b60	0.14872503
80	0x3f68c55d	0.9092615
81	0x3ed289c0	0.4112072
82	0x3cb64676	0.022250395
83	0x3f07f647	0.53110164
84	0xbeaf5cbb	-0.34250435
85	0xbbe154ef	-0.00687658
86	0xbcd52068	-0.026016429
87	0x3e4a6b4b	0.19767492
88	0x3e34d609	0.17659773
89	0x3e9225cf	0.2854447
90	0xbe427f92	-0.18993977
91	0x3de6d730	0.112715125
92	0x3dbb9ad9	0.09160394
93	0x3e035476	0.12825188
94	0xbe343b80	-0.17600822
95	0x3d0ab82f	0.033867057
96	0x3dd5b27d	0.104344346
97	0xbddcb3b9	-0.10776467
98	0x3d3e62ef	0.04648107
99	0x3e01e593	0.12685232
100	0xbdec5482	-0.11539556
101	0x3e3189ac	0.17337674
102	0x3e91308c	0.2835735
103	0x3dec4431	0.11536444
104	0x3d882100	0.06646919
105	0xbcfa9ab7	-0.030591352
106	0x3d75663a	0.059911944
107	0xbe0506bd	-0.12990852
108	0xbd91e30e	-0.07123385
109	0x3d9dae6a	0.076992825
110	0x3e7b6f81	0.24554254
111	0xbdb06c56	-0.086144134
112	0x3e16c230	0.14722514
113	0xbbe1a7b1	-0.0068864455
114	0xbe11510e	-0.14191076
115	0xbe8b2709	-0.2717822
116	0x3d9e0d4b	0.07717379
117	0x3f0315f4	0.5120537
118	0xbd998f2d	-0.07498012
119	0x3e93f950	0.28901148
120	0x3ef3dff1	0.4763179
121	0x3b95ed34	0.004575396
122	0x3d755df0	0.05990404
123	0x3e28de22	0.16490987
124	0x3d2ffff5	0.04296871
125	0xbe106c01	-0.141037
126	0xb952c743	-0.00020101391
127	0x3e3cec4b	0.18449514
128	0xbc7b3e4a	-0.015334675
129	0x3e3bc8e5	0.18338354
130	0xbd9b2e5a	-0.075772
131	0xbc928b34	-0.017888643
132	0x3d5d3682	0.05400706
133	0xbecb99a5	-0.3976566
134	0x3e836410	0.2566228
135	0xbd152719	-0.03641424
136	0x3e923c3b	0.28561577
137	0x3ec2415a	0.37940484
138	0x3da48493	0.08033099
139	0x3d82db24	0.06389454
140	0xbde5ac46	-0.11214499
141	0x3e6487aa	0.22317377
142	0xbda912e3	-0.082555555
143	0xbe18f7ff	-0.14938353
144	0xbcf1cd9f	-0.029516993
145	0x3dbd35e1	0.09238792
146	0x3c879e0c	0.016554855
147	0xbdb3bafe	-0.087759
148	0xbd00dee7	-0.031462576
149	0x3d4c9133	0.04994316
150	0x3e77f47d	0.24214359
151	0xbdce035d	-0.10059235
152	0xbea936d8	-0.33049655
153	0xbe11d036	-0.14239582
154	0xbf73a7cd	-0.9517792
155	0xbe6475f9	-0.22310628
156	0xbcaaa647	-0.02083124
157	0x3ddb40db	0.107057296
158	0x3dfb8b3e	0.12282418
159	0xbd3ecee3	-0.04658402
160	0x3ea5cee2	0.32384402
161	0x3e54199d	0.20712896
162	0xbdef3609	-0.11680228
163	0x3dc0518c	0.09390554
164	0xbdd17a43	-0.10228398
165	0x3e2d3d75	0.16917975
166	0x3d2161a3	0.039399754
167	0x3d8906ed	0.06690774
168	0x3d9d19b8	0.07670921
169	0xbd1cfc0e	-0.038326316
170	0x3b446c6e	0.0029971856
171	0xbc3b9e29	-0.011451283
172	0x3f0b5771	0.544303
173	0xbe7d15c7	-0.24715339
174	0x3e196c40	0.149827
175	0xbd8e3230	-0.06943166
176	0x3e517a71	0.20456864
177	0x3d93408a	0.07190044
178	0x3e5f6193	0.21814565
179	0xbe307551	-0.17232253
180	0x3d357493	0.044300627
181	0x3e75d0ea	0.24005476
182	0x3e81771c	0.25286186
183	0x3e163ae2	0.146709
184	0x3d92bdce	0.071651086
185	0x3e7895af	0.2427585
186	0x3da42765	0.080153264
187	0xbea581e9	-0.32325676
188	0x3dcc8784	0.09986785
189	0xbc8cf294	-0.017205514
190	0xbe16e997	-0.14737545
191	0x3adf3ebd	0.0017032247
192	0xbdfa7d00	-0.12230873
193	0xbe3b0d99	-0.18266906
194	0x3d242b4e	0.04008036
195	0xbe2e7e58	-0.17040384
196	0x3ddeb5d0	0.10874522
197	0xbe61b832	-0.22042921
198	0xbde1aa16	-0.110187694
199	0xbdb403c8	-0.08789784
200	0x3ddf9570	0.10917175
201	0x3d20c177	0.039247002
202	0x3db78b47	0.08962112
203	0x3c088d61	0.008334489
204	0xbe904b8f	-0.28182647
205	0x3dc3173b	0.09525915
206	0x3e0efe31	0.13964154
207	0xbd4fbab0	-0.05071515
208	0x3ea4c4d8	0.3218143
209	0xbda1d706	-0.079023406
210	0xbc101e35	-0.008796264
211	0x3d8bd084	0.068268806
212	0xbdcf6f41	-0.10128642
213	0x3ccbeb64	0.024892516
214	0x3dda9464	0.106728345
215	0xbe40a9a8	-0.18814719
216	0xbd9e062a	-0.077160195
217	0x3d2fdb1d	0.042933572
218	0x3c8d2bd4	0.017232813
219	0x3d0975f6	0.033559762
220	0x3f2c6fda	0.6735817
221	0x3e209dff	0.1568527
222	0x3e0ee657	0.13955055
223	0xbbd38b37	-0.0064558047
224	0xbe483a17	-0.1955341
225	0x3bfd7072	0.007734352
226	0xbe372999	-0.17886962
227	0x3df453c5	0.1193004
228	0xbe0df5cf	-0.138633
229	0xbe23e706	-0.16006097
230	0xbe886a2b	-0.266435
231	0x3d6d76c9	0.05797461
232	0xbdb3a6d8	-0.08772057
233	0xbdd6419f	-0.10461735
234	0xbd74ae3c	-0.059736475
235	0x3d9073f5	0.07053367
236	0x3e2a0254	0.1660245
237	0xbe55ef4b	-0.20892064
238	0x3db92996	0.09041135
239	0x3d5c7f96	0.053832613
240	0xbecdfd8b	-0.402325
241	0x3e103481	0.14082529
242	0x3d866303	0.06561854
243	0xbdc2e4ef	-0.09516322
244	0xbe519a54	-0.20469028
245	0x3e68c8dd	0.22732873
246	0x3dacb78f	0.084334485
247	0xbdf58ee3	-0.11990144
248	0x3beb1125	0.0071736746
249	0x3e218ec4	0.15777117
250	0x3e3c3010	0.1837771
251	0xbd845dc8	-0.064632
252	0xbdda7693	-0.106671475
253	0x3e29c6a0	0.16579676
254	0x3e9aad89	0.30210522
255	0xbf38f100	-0.72242737

actor.0.bias f4 [128]
0	0xbd02ac67	-0.031902697
1	0xbdea906b	-0.11453327
2	0x3dee9682	0.11649801
3	0xbdbf53ca	-0.09342153
4	0xbd63763d	-0.055532683
5	0xbe25a995	-0.16177972
6	0x3d886c50	0.06661284
7	0xbe42029e	-0.18946311
8	0x3dc6096a	0.09669764
9	0xbdb45fe2	-0.08807351
10	0x3db8f9c7	0.09032016
11	0x3bb1b36e	0.005423001
12	0x3d4ac293	0.049501967
13	0xbe3d6bb3	-0.18498115
14	0x3dc0c55c	0.09412643
15	0x3e5ac8d3	0.21365671
16	0x3cf0ef76	0.029411059
17	0x3e34a44b	0.17640798
18	0x3e394531	0.180928
19	0x3c30a963	0.010782572
20	0x3cb1e687	0.02171637
21	0xbe227167	-0.15863572
22	0x3d01703d	0.03160118
23	0x3dd18528	0.10230476
24	0xbde83156	-0.11337535
25	0x3dc75dec	0.09734711
26	0xbcc70b2c	-0.02429732
27	0x3e7dbe71	0.24779679
28	0xbe0ea1a0	-0.13928843
29	0xbdc622a0	-0.09674573
30	0xbd008f2d	-0.031386543
31	0xbe0e7b62	-0.13914254
32	0x3c9ba97f	0.01900172
33	0x3e7c9bf9	0.24668874
34	0x3d3da403	0.046298992
35	0xbc97a9cf	-0.018513588
36	0xbd728fd0	-0.05921918
37	0x3d190d30	0.037366092
38	0x3db80dd4	0.089870125
39	0x3e425a11	0.1897967
40	0x3e357212	0.17719296
41	0x3e49500a	0.19659439
42	0x3d9cb8b3	0.07652416
43	0x3d21335d	0.039355624
44	0x3e1b8c29	0.15190186
45	0x3d872ac7	0.06599956
46	0x3dd23099	0.102631755
47	0xbe4171f7	-0.1889113
48	0x3e92eb24	0.28695023
49	0x3e7b2ad1	0.24528052
50	0x3df44a78	0.11928266
51	0xbe0c7c09	-0.1371919
52	0x3d0f436a	0.0349764
53	0x3bba2916	0.0056811674
54	0x3c851976	0.016247492
55	0x3dbc44ae	0.09192787
56	0x3e24a171	0.1607721
57	0xbd929fdf	-0.07159399
58	0xbe25e167	-0.16199265
59	0x3da2d536	0.07950823
60	0xbd5b604a	-0.053558625
61	0xbd2dbec0	-0.04241824
62	0x3e68892b	0.22708575
63	0x3e23f723	0.16012244
64	0xbe1f0d8c	-0.15532511
65	0x3dea59f6	0.1144294
66	0x3e00c855	0.1257642
67	0x3d143cda	0.036190845
68	0xbd6c3a17	-0.057672586
69	0x3cb4ed55	0.022085825
70	0xbd24a5f0	-0.040197313
71	0x3e76798a	0.24069801
72	0x3ddc6f5c	0.107634276
73	0xbc51a608	-0.012795933
74	0xbe12bd15	-0.14329942
75	0xbd9cf77a	-0.0766439
76	0xbe3c566c	-0.18392342
77	0xbe41382b	-0.18869083
78	0xbde03468	-0.10947496
79	0xbc0bacec	-0.0085251145
80	0x3e75b745	0.23995693
81	0x3df499c3	0.1194339
82	0xbe874f68	-0.2642777
83	0xbde797c3	-0.11308243
84	0x3df03b78	0.11730093
85	0xbddb59ef	-0.10710513
86	0xbe19ed88	-0.15032017
87	0x3d7e0e18	0.06202516
88	0x3da5a549	0.08088166
89	0x3d64c201	0.05584908
90	0x3d026e6b	0.031843584
91	0x3e59c56e	0.2126672
92	0x3c8ee50d	0.017443204
93	0xbe0a8698	-0.13527906
94	0x3df79889	0.12089641
95	0x3d8081f5	0.06274787
96	0x3a3d5594	0.000722253
97	0xbd92ba98	-0.07164496
98	0xb8f6c431	-0.000117667376
99	0xbe580fee	-0.21099827
100	0x3b7bce12	0.0038422388
101	0x3e3a1fb6	0.1817616
102	0x3cf7232f	0.030168144
103	0x3d46f4c0	0.048573256
104	0x3b1b48e9	0.002369458
105	0x3d7563cb	0.059909623
106	0x3e1f7eae	0.15575668
107	0x3e1ef7db	0.15524237
108	0x3dcef3b5	0.10105077
109	0xbe647915	-0.22311814
110	0xbde8a4b4	-0.1135954
111	0x3e52dbf3	0.20591716
112	0xbabede62	-0.0014562125
113	0x3c9715d0	0.018443018
114	0xbd24a3ca	-0.040195264
115	0xbe906bcc	-0.28207242
116	0xbdbff9e0	-0.09373832
117	0x3deeae96	0.116543934
118	0xbe267f20	-0.16259432
119	0x3e53e5ae	0.20693085
120	0x3cbdc923	0.023167199
121	0x3e483697	0.19552074
122	0x3e730f8a	0.23736396
123	0x3ea2c2b6	0.31789178
124	0xbe2ea890	-0.17056489
125	0x3d4a720a	0.049425162
126	0x3e6b7674	0.22994405
127	0xbd1c3d3f	-0.038144346

actor.2.weight f4 [64, 128]
0	0xbea98924	-0.33112442
1	0x3d6ebd7c	0.058286175
2	0x3bc43ea2	0.0059889117
3	0xbcd404f6	-0.025881272
4	0xbc3654f1	-0.01112865
5	0xbdd725be	-0.105052456
6	0xbe505fe8	-0.20349085
7	0xbe82cb07	-0.25545523
8	0x3de4be60	0.11169124
9	0xbd875f70	-0.0661
10	0x3e2cda17	0.1688007
11	0x3e252013	0.16125517
12	0x3d79d0d6	0.060990177
13	0x3d068b99	0.032847974
14	0x3d8ecd9b	0.0697281
15	0xbdff76b2	-0.12473811
16	0x3f121910	0.5706949
17	0xbde67c1f	-0.11254143
18	0x3d4af344	0.049548402
19	0x3d5c7e83	0.05383159
20	0xbe9354d3	-0.28775653
21	0xbdfa937d	-0.122351624
22	0xbd329d40	-0.043606997
23	0x3d89379c	0.0670006
24	0x3dd3bd3f	0.1033883
25	0x3dd37c53	0.10326447
26	0xbe7c65a2	-0.24648145
27	0x3c03efe4	0.0080528
28	0x3d8660d2	0.06561436
29	0x3d3acd5e	0.04560601
30	0xbcc333bc	-0.02382838
31	0x3e0a75a3	0.13521437
32	0x3e46c92f	0.19412683
33	0xbe8ec3e9	-0.27883843
34	0x3d202aa8	0.03910318
35	0x3e0a9cc1	0.1353636
36	0xbd4893ba	-0.048969008
37	0x3d2f0c6b	0.042736452
38	0xbe0648bf	-0.13113688
39	0xbb3dd274	-0.0028964551
40	0xbd4bc74f	-0.049750622
41	0xbd931bc2	-0.07183029
42	0x3d65bdec	0.056089327
43	0x3eaa4d74	0.33262217
44	0x3d0cfd9c	0.03442155
45	0x3d94a841	0.072586544
46	0xbe276340	-0.16346455
47	0xbe00303f	-0.12518404
48	0xbe50bb92	-0.20384052
49	0xbce3a355	-0.027787844
50	0xbd50f7ef	-0.051017698
51	0xbe77e5a8	-0.242087
52	0x3c1a5504	0.009419683
53	0x3de679bf	0.1125369
54	0xbe0b172e	-0.13583061
55	0xbdd388c9	-0.10328824
56	0x3d9bf840	0.07615709
57	0x3dd098e0	0.101854086
58	0x3d1e9092	0.03871209
59	0xbe365267	-0.17804871
60	0x3d9545a0	0.072886705
61	0x3dca7ccd	0.09887085
62	0xbd285718	-0.041098684
63	0x3d178ed3	0.037001442
64	0x3e686418	0.22694433
65	0xbd8605a7	-0.06544047
66	0xbd1089ba	-0.035287596
67	0x3dcd669a	0.10029335
68	0x3d60ea55	0.054910976
69	0xbd9900e6	-0.074708745
70	0x3cf76c2c	0.030202948
71	0x3e863c20	0.26217747
72	0xbc356a03	-0.011072638
73	0x3e0e4aa5	0.13895662
74	0xbd1f5f4a	-0.038909234
75	0x3ec0f39a	0.37685853
76	0x3d034e82	0.032057293
77	0xbd929313	-0.071569584
78	0x3dbd1563	0.09232595
79	0x3d627ff7	0.055297818
80	0x3e70cb7a	0.2351512
81	0xbd520376	-0.05127283
82	0xbe78d31f	-0.24299286
83	0xbe5dc95b	-0.21658842
84	0x3cbb4878	0.022861704
85	0xbe256c98	-0.16154706
86	0x3cb6c5a6	0.022311043
87	0xbd2d1cdf	-0.04226386
88	0x3dcab29d	0.09897349
89	0xbe6d11d8	-0.23151338
90	0x3eb8e1e6	0.36109847
91	0x3ca4387a	0.020046461
92	0xbd689954	-0.05678685
93	0xbd538c86	-0.051647685
94	0x3e1e0fa1	0.1543565
95	0x3d61ef65	0.055159945
96	0xbe46227b	-0.19349091
97	0xbdea90ff	-0.11453437
98	0x3cbb0219	0.022828149
99	0x3e1b7df0	0.1518476
100	0xbe15eb40	-0.14640522
101	0xbdea74f5	-0.11448089
102	0xbd8900e6	-0.066896245
103	0x3e9b99bc	0.30390728
104	0xbe004ad3	-0.12528543
105	0xbe4183c6	-0.18897924
106	0x3ec2dfe3	0.38061437
107	0x3ba98b36	0.005174066
108	0xbe59dc48	-0.21275437
109	0x3d770115	0.060303766
110	0x3dc2702b	0.094940506
111	0xbdc5b67e	-0.09653948
112	0x3e009039	0.12555017
113	0x3e4e525f	0.2014861
114	0xbe2df7d8	-0.16989076
115	0x3d520353	0.0512727
116	0x3e1164aa	0.14198557
117	0x3e24a155	0.16077168
118	0xbbfa3a64	-0.0076363552
119	0x3e3e7ea9	0.18603005
120	0xbd87aa9f	-0.0662434
121	0xbb0f5aaa	-0.0021874108
122	0xbde07017	-0.109588794
123	0xbdc7aec7	-0.09750133
124	0x3dd1c91b	0.10243436
125	0x3a4ea824	0.0007883331
126	0x3cf88f54	0.030341782
127	0xbdf9098e	-0.121600255
128	0x3e0446cb	0.1291763
129	0xbc7ff0bc	-0.01562136
130	0x3d8ea460	0.06964946
131	0xbd9ed1fd	-0.07754896
132	0xbdf4c5bc	-0.11951777
133	0x3db50fb8	0.08840889
134	0xbdb5781a	-0.08860798
135	0xbdbcd84f	-0.09220945
136	0xbabba469	-0.0014315966
137	0xbe58626b	-0.21131293
138	0x3edcd89d	0.43134013
139	0xbe5ac2cc	-0.21363372
140	0xbda32d40	-0.07967615
141	0x3db8ace9	0.09017355
142	0xbe01658b	-0.12636392
143	0x3e2192b4	0.15778619
144	0xbec69c73	-0.38791236
145	0xbe065859	-0.1311964
146	0x3d4ce00a	0.050018348
147	0xbe24ffef	-0.16113256
148	0xbdb2b54c	-0.08725986
149	0xbda64ee6	-0.081205174
150	0xbe6baa46	-0.23014173
151	0x3e5abd3f	0.21361254
152	0x3ce434ea	0.027857263
153	0xbd01195d	-0.03151833
154	0xbc83b1a0	-0.01607591
155	0xbe91a9c5	-0.28449836
156	0xbd612036	-0.05496236
157	0x3dcde1b0	0.10052812
158	0xbe4e70c4	-0.20160204
159	0x3e5ed713	0.21761732
160	0x3e561903	0.20907979
161	0x3c3b4288	0.0114294365
162	0xbe57268c	-0.21010798
163	0x3d16bea7	0.036802914
164	0xbd9a8f4d	-0.07546864
165	0x3d54bfe9	0.051940832
166	0xbd0094b1	-0.031391803
167	0xbe8500c7	-0.25977156
168	0xbe652b91	-0.223799
169	0x3c7ce2d9	0.015434944
170	0x3dede871	0.116166
171	0x3e7b0b71	0.24516083
172	0xbe3ef8f1	-0.18649651
173	0xbd0742a2	-0.03302253
174	0xbe8943ee	-0.2680964
175	0xbd9e958d	-0.07743368
176	0x3bd69131	0.00654807
177	0xb9acccd9	-0.0003295902
178	0xbd9510f7	-0.072786264
179	0x3e82a770	0.2551837
180	0x3e2d1d4a	0.16905704
181	0x3e288b74	0.16459447
182	0x3d1ca372	0.03824181
183	0xbe598b4f	-0.21244548
184	0xbd156d13	-0.036480974
185	0x3e5827eb	0.21108977
186	0xbe0a5a52	-0.13511017
187	0x3cbe390b	0.02322056
188	0x3e368e89	0.1782781
189	0xbd678e4d	-0.056532193
190	0x3e5cb97e	0.21555135
191	0xbc33d3eb	-0.010975818
192	0xbdef43d7	-0.11682861
193	0x3d8b5217	0.06802767
194	0xbe080b7e	-0.13285634
195	0x3d85e858	0.06538457
196	0x3cc83ca1	0.024442973
197	0x3d8bdbee	0.06829058
198	0x3dc7597c	0.09733865
199	0x3e1aec9b	0.1512932
200	0xbe2b701c	-0.16741985
201	0x3dc9a709	0.098463126
202	0xbddb14ed	-0.10697351
203	0xbdd13d31	-0.102167495
204	0xbd9a5769	-0.075362034
205	0xbd1a632d	-0.037692238
206	0xbbca5339	-0.0061744717
207	0x3d2935de	0.041311137
208	0xbdb10613	-0.08643737
209	0xbe499004	-0.19683844
210	0x3db94403	0.09046175
211	0x3e8113e9	0.25210503
212	0xbea3eb6d	-0.32015553
213	0xbe9f8747	-0.31157896
214	0xbcbb7143	-0.022881156
215	0x3d51e1eb	0.051240843
216	0xbe706e43	-0.23479562
217	0xbe7561a1	-0.23963024
218	0xbcc324ec	-0.023821317
219	0xbe27532f	-0.16340326
220	0xbe07b92d	-0.13254233
221	0x3e44041e	0.19142196
222	0xbeac0613	-0.33598384
223	0xbd8f4332	-0.06995238
224	0xbcf8e96e	-0.030384745
225	0xbe279e35	-0.16368945
226	0xbe03d146	-0.128728
227	0x3f208b3c	0.62712455
228	0x3e6c7d39	0.23094644
229	0xbce512dc	-0.027963094
230	0xbd20d714	-0.039267614
231	0x3eeeb72d	0.46624127
232	0xbe1c5ffb	-0.15270989
233	0x3d9a9699	0.075482555
234	0xbde6068b	-0.11231717
235	0x3df1d489	0.11808116
236	0xbda686f7	-0.08131211
237	0x3d449960	0.047997832
238	0xbcf05125	-0.029335568
239	0xbdbf61b9	-0.09344811
240	0x3d8cf784	0.06883147
241	0x3e44134f	0.1914799
242	0xbd96caf7	-0.07362931
243	0x3ce04dd9	0.02738087
244	0x3e312747	0.1730014
245	0xbe8b71e5	-0.27235332
246	0xbd40625a	-0.046968795
247	0xbd3c41ac	-0.045961067
248	0xbe561800	-0.20907593
249	0x3e50b53c	0.20381635
250	0x3d92f624	0.07175854
251	0x3d34014b	0.043946546
252	0xbd4af96a	-0.049554266
253	0x3d99ca8b	0.07509335
254	0xbe074732	-0.13210753
255	0xbe3a9788	-0.18221867

actor.2.bias f4 [64]
0	0x3ce746e0	0.028232038
1	0xbcbcd75f	-0.023051916
2	0x3e103247	0.1408168
3	0x3e550687	0.20803271
4	0x3dc41ae7	0.09575444
5	0x3de8410c	0.11340532
6	0xbd5d89e5	-0.054086585
7	0x3d329166	0.043595694
8	0xbd140f5f	-0.03614747
9	0xbd8257b9	-0.06364388
10	0xbdae0924	-0.08497837
11	0x3dc73510	0.09726918
12	0x3cca9e74	0.02473376
13	0x3d932b0c	0.07185945
14	0x3bf4ef6f	0.007474832
15	0xbd237dff	-0.03991508
16	0xbc897b65	-0.016782472
17	0x3de87af3	0.11351576
18	0x3daf900e	0.08572398
19	0x3d948a92	0.07252993
20	0xbc3cbeaa	-0.011520067
21	0x3d45f755	0.048331577
22	0xbc2f16a4	-0.01068655
23	0x3db6fdca	0.08935125
24	0xbc5fa3a0	-0.013649851
25	0xbd3ee172	-0.04660172
26	0x3d7ec52c	0.062199757
27	0x3ca2da16	0.019879382
28	0xbdc62cc8	-0.0967651
29	0xbd61b612	-0.055105276
30	0x3c123afc	0.008925196
31	0xbe155ef3	-0.14587002
32	0x3d048bd3	0.03235991
33	0x3d09cd28	0.033642918
34	0xbd1f01a7	-0.038819935
35	0xbc5ac0cc	-0.01335163
36	0xbb3b173d	-0.0028547787
37	0x3de3e693	0.11127963
38	0xbdeb07b5	-0.114760794
39	0xbd24a0e6	-0.040192507
40	0x3e03c5f7	0.12868486
41	0xbdd9aaca	-0.106282786
42	0x3cc7e7b0	0.02440247
43	0xbd92e466	-0.0717247
44	0x3dafc88d	0.08583174
45	0xbd51511a	-0.051102735
46	0x3a77e73c	0.0009456759
47	0xbca4d2b2	-0.020119999
48	0xbc7d1171	-0.015446053
49	0xbcf30c2e	-0.029668894
50	0x3d6546dd	0.055975784
51	0x3e0dc188	0.13843358
52	0x3c60009c	0.01367202
53	0x3e0b7616	0.13619265
54	0x3d0e5324	0.034747258
55	0x3d63abe8	0.055583864
56	0x3c563a74	0.01307546
57	0x3d6a1938	0.057152957
58	0x3d021f4a	0.03176812
59	0x3c2a89c9	0.010408827
60	0x3d11ee6d	0.03562777
61	0x3cca5467	0.02469845
62	0xbdce172b	-0.10063013
63	0x3d4cc695	0.04999407

actor.4.weight f4 [16, 64]
0	0xbf1822af	-0.5942792
1	0xbe38cfcb	-0.18048017
2	0x3f4ed637	0.80795616
3	0x3e0df072	0.13861254
4	0x3ebe660a	0.37187225
5	0xba1bce6a	-0.0005943539
6	0xbf01c3ca	-0.50689375
7	0xbf2d18f5	-0.67616206
8	0x3f041cee	0.51606643
9	0xbf431bd3	-0.7621433
10	0xbed53ba0	-0.41647053
11	0x3e749553	0.23885088
12	0xbef383c0	-0.47561455
13	0xbea0554c	-0.31315076
14	0x3e8a4dce	0.27012485
15	0x3e70e3d4	0.2352441
16	0x3dd69c9a	0.10479088
17	0x3e9131ee	0.28358406
18	0x3f0dffd6	0.554685
19	0xbeb96590	-0.362103
20	0xbf17e854	-0.5933888
21	0xbda33e85	-0.07970909
22	0x3efa8d13	0.48935756
23	0x3eb27342	0.3485356
24	0x3b641488	0.0034802277
25	0x3d774280	0.060366154
26	0xbe429f9b	-0.19006197
27	0xbf4f73d8	-0.8103614
28	0xbedeaac8	-0.4348967
29	0xbe3e0430	-0.18556285
30	0x3e9fc8ae	0.31207794
31	0xbe81d6dd	-0.2535924
32	0xbe27a6f2	-0.16372278
33	0xbea04ac7	-0.3130705
34	0x3e4d49b7	0.20047651
35	0x3e57ac22	0.21061757
36	0xbece19f5	-0.4025418
37	0x3f20b252	0.62772095
38	0x3b14429b	0.0022622708
39	0xbf41e67f	-0.75742334
40	0x3ee6e6d1	0.45097974
41	0xbe3d8263	-0.1850677
42	0xbeb1bcac	-0.34714258
43	0x3f73ebcd	0.9528168
44	0x3e686c67	0.22697602
45	0xbe4041e8	-0.18775141
46	0x3f04407e	0.5166091
47	0x3d6e0ca8	0.05811754
48	0x3f19ccf9	0.6007839
49	0xbdd7a8d8	-0.10530251
50	0x3df4f58e	0.11960898
51	0x3e68a2d1	0.2271836
52	0x3e6f3d51	0.23363234
53	0x3e8f242b	0.2795728
54	0x3f638b00	0.8888397
55	0x3e058ca9	0.13041939
56	0x3f1a8f82	0.60375226
57	0xbe9c5b9c	-0.30538642
58	0xbe0f9921	-0.14023258
59	0x3d4e4ccb	0.050366204
60	0x3f65fb89	0.8983694
61	0x3dc5f532	0.09665908
62	0xbf56c5a5	-0.8389533
63	0x3e81edab	0.2537664
64	0x3e3431b4	0.17597085
65	0xbccf8061	-0.02532977
66	0xbe8d67ed	-0.27618352
67	0x3f169c91	0.5883265
68	0x3ca9d9a0	0.020733654
69	0x3e066709	0.13125242
70	0x3e1e6ccf	0.15471195
71	0x3e825405	0.25454727
72	0xbf31efc9	-0.6950651
73	0x3ea3aca7	0.3196766
74	0x3ece6aa0	0.40315723
75	0xbec53a63	-0.38521108
76	0x3ec0dd43	0.3766881
77	0x3e7c34d1	0.24629523
78	0xbe576b81	-0.21037103
79	0x3e0d52ee	0.13801166
80	0xbebf346f	-0.3734469
81	0x3f19a600	0.6001892
82	0xbf03655d	-0.51326543
83	0x3ecd6d90	0.40122652
84	0x3ebb4fe8	0.365844
85	0x3f60418f	0.87600034
86	0x3e265000	0.16241455
87	0x3e5be701	0.2147484
88	0xbf59fa4f	-0.85147566
89	0xbe6549e5	-0.2239147
90	0x3f13bc0a	0.577088
91	0xbd8c0265	-0.06836394
92	0xbecc8061	-0.39941695
93	0x3e52f560	0.20601416
94	0x3cf6c114	0.030121364
95	0x3eeb4eca	0.4595855
96	0x3f52a8f2	0.8228904
97	0x3ead7ac3	0.33882722
98	0xbea6a700	-0.32549286
99	0xbedafa95	-0.42769304
100	0xbc2cb4ca	-0.01054115
101	0xbec35e5a	-0.38157922
102	0xbe88ca85	-0.2671701
103	0xbf3cf5e6	-0.7381271
104	0xbce6feb4	-0.028197624
105	0xbf33fd36	-0.70308244
106	0x3e7d0140	0.24707508
107	0xbf0e6b78	-0.55632734
108	0xbe46a7b0	-0.19399905
109	0xbd8ca51a	-0.06867428
110	0xbeb6727e	-0.35634226
111	0x3ead143b	0.33804497
112	0xbed8d51d	-0.42350093
113	0x3ebdfd27	0.37107202
114	0x3ef5ba93	0.47993907
115	0xbf11afb0	-0.569087
116	0x3f454e9c	0.77073073
117	0x3e3f7dc3	0.18700318
118	0xbdf2f356	-0.11862819
119	0x3ba89b40	0.0051454604
120	0xbf1055c5	-0.56380874
121	0xbd6727ff	-0.056434628
122	0x3ec0c266	0.37648314
123	0xbe07fe71	-0.13280655
124	0xbf1912fb	-0.59794587
125	0xbc19fc90	-0.0093985945
126	0xbdf02bae	-0.11727081
127	0xbdbc96f1	-0.09208477
128	0x3e052f01	0.13006212
129	0x3eb830c3	0.35974702
130	0xbec27cb5	-0.3798577
131	0xbec14ac3	-0.3775235
132	0xbe64a2d7	-0.22327743
133	0x3dad0ec1	0.0845008
134	0x3f1be0b4	0.60889745
135	0x3c171028	0.009220161
136	0xbf4e14ca	-0.8050047
137	0x3f33bc4e	0.70209205
138	0x3f5878e5	0.8455947
139	0xbeabb6aa	-0.335378
140	0xbdc461ad	-0.09588943
141	0x3f9cb41a	1.2242463
142	0xbf14838f	-0.5801324
143	0xbe5d6762	-0.21621469
144	0x3edf0258	0.43556476
145	0xbf27efea	-0.65600455
146	0xbca2e704	-0.019885547
147	0xbde472b1	-0.11154688
148	0x3e1513fa	0.14558402
149	0x3c8d2027	0.017227245
150	0x3e5990dc	0.21246666
151	0xbf75b528	-0.9597955
152	0x3ead65df	0.33866784
153	0xbf06cdd7	-0.52657837
154	0x3eec3442	0.4613362
155	0x3f03ba8e	0.51456535
156	0x3fa54070	1.291029
157	0xbf28d2ce	-0.6594666
158	0xbe990a66	-0.29890746
159	0x3f6f87ec	0.93566775
160	0x3f244f85	0.6418384
161	0x3f09a7dd	0.53771764
162	0x3e357ff8	0.17724597
163	0x3de4d847	0.11174064
164	0xbf6c61fc	-0.9233701
165	0xbf14df86	-0.5815357
166	0x3f22ed98	0.6364379
167	0x3dc5137b	0.09622856
168	0xbe3aab69	-0.1822945
169	0x3f36d545	0.71419173
170	0x3e017d44	0.12645441
171	0xbeb308f6	-0.34967774
172	0xbeb6c4ad	-0.35696927
173	0x3dec45a2	0.11536719
174	0xbebb89dc	-0.36628616
175	0xbd3aa3ec	-0.045566484
176	0xbe7a92f1	-0.24470116
177	0x3ed07d81	0.40720752
178	0xbe6151f2	-0.22003916
179	0xbe9a8e3c	-0.3018664
180	0xbea1f773	-0.316341
181	0xbf0ad732	-0.5423461
182	0xbe5095b6	-0.2036961
183	0xbd8e5179	-0.069491334
184	0xbee9534d	-0.45571366
185	0x3e44b20b	0.19208543
186	0x3f631335	0.8870118
187	0x3e9166a7	0.2839863
188	0xbe85e98c	-0.26154745
189	0x3e5543c7	0.20826636
190	0x3f23f454	0.6404469
191	0xbf1fd2b2	-0.6243087
192	0x3f8b1b15	1.086764
193	0xbde975b6	-0.11399405
194	0x3ea338f8	0.318794
195	0x3eccc565	0.3999435
196	0x3e670d28	0.22563612
197	0xbed6dbef	-0.4196467
198	0xbdd9e9fd	-0.10640333
199	0x3e491a6f	0.1963899
200	0xbe448e07	-0.19194804
201	0xbeb64909	-0.35602596
202	0x3ec488c9	0.3838561
203	0x3f175dc9	0.5912748
204	0xbde3d03b	-0.11123701
205	0x3eba6347	0.36403868
206	0xbebbea52	-0.3670221
207	0xbf3bf234	-0.7341645
208	0xbebd94f3	-0.37027702
209	0xbe9390ad	-0.28821316
210	0x3f293141	0.6609078
211	0x3f0b8b91	0.54509836
212	0xbdfb0e8f	-0.12258636
213	0xbe9e4ea4	-0.30919373
214	0xbf0426d1	-0.5162173
215	0x3e891a54	0.267779
216	0xbea7feec	-0.32811677
217	0xbe0ea96d	-0.13931818
218	0xbe0cebf8	-0.1376189
219	0x3d8587f7	0.06520074
220	0xbe1c7692	-0.15279606
221	0x3e8e065c	0.27739227
222	0xbe93b46a	-0.28848583
223	0xbec903dc	-0.39260757
224	0xbdb5299e	-0.088458285
225	0xbda9c1e7	-0.08288937
226	0xbe85c46c	-0.2612642
227	0xbe9d8970	-0.3076892
228	0x3f0770c8	0.52906466
229	0xbc858ed4	-0.016303457
230	0xbdaac44e	-0.083382234
231	0x3f0a1973	0.5394508
232	0xbf60741c	-0.8767717
233	0xbc620be4	-0.01379678
234	0xbd6e2c24	-0.058147565
235	0xbe740196	-0.2382873
236	0xbebcd158	-0.36878467
237	0x3e8e7d50	0.2782998
238	0xbe9ce3a9	-0.3064244
239	0xbf2ce586	-0.67537725
240	0x3d876a62	0.06612088
241	0xbf39cb5c	-0.72575927
242	0xbe87b4a7	-0.26505014
243	0x3f3f3944	0.74696755
244	0xbea1d5ef	-0.3160853
245	0x3d828fa6	0.06375055
246	0x3e71f617	0.23629032
247	0xbe87b63e	-0.26506227
248	0xbf4d2ee5	-0.8014968
249	0xbf3179c7	-0.6932644
250	0x3f47377d	0.77819043
251	0xbedd5788	-0.43230844
252	0xbe8acb9e	-0.27108473
253	0xbecd1144	-0.40052235
254	0xbebea606	-0.3723604
255	0x3ed7d9a7	0.42158243

actor.4.bias f4 [16]
0	0x3dca28d5	0.09871069
1	0x3e27fdd9	0.16405429
2	0xbd486f38	-0.04893419
3	0x3d030bec	0.03199379
4	0xbe8709de	-0.26374716
5	0xbf26f173	-0.6521217
6	0x3c0dd79c	0.008657362
7	0x3e3b1288	0.18268788
8	0xbf2353c8	-0.63799715
9	0x3e0a1a89	0.13486685
10	0x3d383b71	0.044978563
11	0xbf3fc733	-0.7491333
12	0xbe702064	-0.23449856
13	0xbdccd854	-0.10002199
14	0xbecbe631	-0.3982406
15	0x3e504f9f	0.20342873

critic.0.weight f4 [128, 35]
0	0x3ddea018	0.10870379
1	0xbd315700	-0.04329586
2	0x3e1b6580	0.15175438
3	0x3cbd639f	0.023118792
4	0x3db59e00	0.08868027
5	0x3d884cb3	0.06655254
6	0x3dd00dac	0.10158858
7	0x3d94c01c	0.072632045
8	0x3dad48a8	0.08461124
9	0x3e82e84f	0.25567862
10	0x400709ed	2.1099808
11	0xbf05be28	-0.5224328
12	0xbf7a4a50	-0.9776964
13	0xbf93e561	-1.1554376
14	0xbf696783	-0.9117357
15	0xbdad9247	-0.08475166
16	0x3e9140ff	0.283699
17	0x3ea40f4e	0.32042927
18	0x3d2a2883	0.04154254
19	0x3e4b0289	0.19825186
20	0xbd13aa81	-0.036051277
21	0x3d6e5d0e	0.058194213
22	0x3db40340	0.087896824
23	0xbd84d11f	-0.06485199
24	0xbe1b5ab1	-0.15171315
25	0xbef9980c	-0.48748815
26	0xbcfac326	-0.030610632
27	0xbe06a2cc	-0.1314804
28	0x3e54bd5a	0.20775357
29	0x3e6223ff	0.22084044
30	0x3e8f962f	0.28044268
31	0x3ded406d	0.11584554
32	0xbf0eadb8	-0.55733824
33	0x3e63ff61	0.22265388
34	0x3f160145	0.5859569
35	0x3dc50cbf	0.09621572
36	0x3dfda5f2	0.12385167
37	0x3e09e32e	0.13465568
38	0x3d7b035f	0.06128251
39	0x3e752e61	0.23943473
40	0x3d70a5d5	0.0587519
41	0x3a15f6ee	0.00057206943
42	0x3b5b0b88	0.0033423621
43	0x3da07c83	0.07836249
44	0x3e3b1945	0.18271358
45	0xbf29e959	-0.66371685
46	0xbf475877	-0.7786936
47	0x3f2e1e76	0.6801523
48	0x3f77131f	0.9651355
49	0x3ec9fd12	0.3945089
50	0x3e71a1a9	0.23596825
51	0x3dd21a5c	0.10258934
52	0xbdeea6ba	-0.11652894
53	0xbead38df	-0.33832452
54	0xbe7d6234	-0.24744493
55	0x3b67d5d0	0.0035375245
56	0xbe81f24d	-0.25380173
57	0xbe6da343	-0.2320681
58	0xbe7c7560	-0.2465415
59	0xbea78738	-0.3272035
60	0xbe749d96	-0.2388824
61	0x3ee21ef3	0.44164237
62	0x3e0270b3	0.12738304
63	0x3c8c1cbf	0.017103551
64	0x3e3de014	0.1854251
65	0xbe53a7fa	-0.20669547
66	0xbebc28d1	-0.3674989
67	0xbee1544e	-0.44009632
68	0x3dfe9b4b	0.124319635
69	0xbef95866	-0.48700255
70	0xbc070792	-0.008241551
71	0xbb2a398c	-0.0025974242
72	0xbc12ecaa	-0.008967558
73	0x3c962138	0.018326387
74	0x3d361af3	0.044459295
75	0xbcc37a4b	-0.023862025
76	0x3d7cdcfe	0.061734192
77	0x3d139c97	0.036038008
78	0x3d3a125d	0.04542767
79	0x3d438b0c	0.047740027
80	0xbf207ecf	-0.62693495
81	0x3e91b4f5	0.28458372
82	0x3f8e769b	1.1129946
83	0x3f9f1180	1.2427216
84	0x3f4389a5	0.76381904
85	0x3eb288c9	0.34869984
86	0x3eac6709	0.3367236
87	0x3e5737fa	0.21017447
88	0x3e839949	0.25702885
89	0x3eb85f4b	0.36010203
90	0xbd04c070	-0.032410085
91	0xbe11b904	-0.14230734
92	0xbec19a19	-0.3781288
93	0x3e9c2787	0.30498907
94	0x3dd53f0e	0.10412417
95	0xbd61ac6e	-0.055096082
96	0xbf984b37	-1.1897954
97	0x3de0cc89	0.10976512
98	0xbb19ddd9	-0.0023478179
99	0xbdd09f8a	-0.1018668
100	0xbd261be2	-0.040553935
101	0x3e13bf2a	0.14428392
102	0xbe93ac54	-0.28842413
103	0xbee51168	-0.44739842
104	0x3eb9ae0b	0.36265597
105	0x3de5cf4c	0.11221179
106	0x3cd72bfa	0.026266087
107	0x3d8d9ed9	0.069150634
108	0x3d9270c0	0.071504116
109	0x3d8f4542	0.06995632
110	0x3d73e5df	0.059545394
111	0x3dbaa793	0.091139935
112	0x3ca8edf5	0.02062128
113	0x3dc225ab	0.09479841
114	0x3d4735ed	0.048635412
115	0xbfc3c312	-1.5293906
116	0x3f041faa	0.51610816
117	0xbe4b6a54	-0.1986478
118	0x3db605fb	0.088878594
119	0xbf01e61b	-0.5074174
120	0x3dd29aeb	0.102834545
121	0xbc1790b3	-0.009250808
122	0xbe4d6a3f	-0.20060061
123	0x3e05668c	0.130274
124	0x3e7a789c	0.24460071
125	0xbe07b549	-0.13252749
126	0x3d6d3bc7	0.057918336
127	0x3dc0ec9b	0.09420129
128	0xbd35046e	-0.044193678
129	0xbf23b490	-0.6394739
130	0xbeec4378	-0.46145225
131	0x3de1b5cc	0.11021003
132	0x3dbab7df	0.09117102
133	0x3d6d4f9d	0.057937253
134	0x3e8d73b6	0.27627343
135	0x3e94bb8e	0.29049343
136	0x3e487974	0.1957758
137	0x3f006cda	0.50166094
138	0x3ed17a2a	0.40913516
139	0x3f53bcbc	0.8270986
140	0xbdcc013d	-0.09961174
141	0xbdb916da	-0.09037562
142	0xbde66eca	-0.112516
143	0xbcced78b	-0.025249263
144	0xbdad1d0e	-0.08452807
145	0xbdaf34b4	-0.08554974
146	0xbd5912cb	-0.052996438
147	0xbd3b79f4	-0.0457706
148	0xbdae11dc	-0.084995
149	0xbc03226c	-0.008003812
150	0xbf0cb2cb	-0.54960316
151	0xbf03bce4	-0.514601
152	0x3e3aa709	0.18227781
153	0x3ef19dc5	0.4719068
154	0xbea23e72	-0.31688267
155	0x3f84266f	1.0324229
156	0x3e25962e	0.1617057
157	0x3d1916ff	0.037375446
158	0xbe5db290	-0.21650147
159	0x3da7f00d	0.08200083
160	0x3e023bcc	0.12718123
161	0x3e844574	0.2583424
162	0xbd868a7f	-0.06569385
163	0xbe19f45a	-0.15034619
164	0xbe8b21c5	-0.27174202
165	0x3eac3557	0.33634445
166	0xbf318795	-0.69347507
167	0x3d214576	0.039372884
168	0x3e15463b	0.14577572
169	0xbd635f30	-0.0555107
170	0x3dffbcb5	0.12487165
171	0xbe3cecf1	-0.18449761
172	0xbf183126	-0.59449995
173	0xbef4ae81	-0.47789386
174	0xbd584630	-0.05280131
175	0x3d6c2401	0.057651524
176	0x3d0386dc	0.032111034
177	0x3e1193ec	0.14216584
178	0x3dad95af	0.084758155
179	0xbca00cf1	-0.019537421
180	0x3d0dbe98	0.034605592
181	0x3e120559	0.14259852
182	0x3d4a92b2	0.049456306
183	0x3de10ae9	0.10988409
184	0x3e058699	0.13039626
185	0xc0316827	-2.771982
186	0xbf6b0a8a	-0.91812956
187	0xbf6e310a	-0.9304358
188	0xbf40f55b	-0.7537438
189	0xbf2bac39	-0.67059666
190	0x3f54d255	0.8313344
191	0x3ea904a8	0.33011365
192	0x3eadf8a1	0.3397875
193	0xbe449134	-0.19196016
194	0x3e75dbf9	0.24009694
195	0xbe51b0d7	-0.20477615
196	0xbc9b9afc	-0.0189948
197	0xbd9c10b8	-0.07620376
198	0x3e2ffc98	0.171862
199	0xbda0c399	-0.07849807
200	0x3e2ffb49	0.17185701
201	0x3dd9d67b	0.10636612
202	0xbdad3c0f	-0.08458721
203	0x3e20eaa4	0.15714508
204	0x3e37ee44	0.17961985
205	0x3e11571f	0.1419339
206	0xbec1b4f5	-0.37833372
207	0xbea38640	-0.31938362
208	0xbe89ef86	-0.26940554
209	0x3eb56620	0.35429478
210	0xbd9813d5	-0.07425658
211	0xbd4e88de	-0.050423495
212	0xbd6ce52f	-0.057835754
213	0xbcb3e205	-0.02195836
214	0xbdaf929d	-0.08572886
215	0xbd8c252c	-0.068430275
216	0xbd806f2c	-0.06271204
217	0x3b9e6a97	0.004834484
218	0xbe162e57	-0.14666115
219	0xbde44cb5	-0.11147443
220	0xbf65fca3	-0.8983862
221	0xbf0cd135	-0.55006725
222	0xbf437f11	-0.7636576
223	0xbe73c719	-0.23806418
224	0xbfe9b68f	-1.8258837
225	0x3de4574b	0.11149462
226	0xbe4379b4	-0.19089395
227	0x3e34ec89	0.17668356
228	0x3e1ba31a	0.15198937
229	0xbebaf4ba	-0.36514837
230	0xbcaab3ef	-0.020837752
231	0x3e4a7087	0.19769488
232	0x3d30816b	0.043092173
233	0xbef85e77	-0.4850957
234	0x3e0a336c	0.13496178
235	0x3dedec78	0.116173685
236	0x3eb67cf4	0.35642207
237	0xbd972a19	-0.07381076
238	0x3dd548ea	0.10414298
239	0x3e3b0eb0	0.18267322
240	0x3e14b6cb	0.14522855
241	0xbc3cec73	-0.011530983
242	0x3da3d0d9	0.07998819
243	0x3eb397a5	0.35076633
244	0x3f4d2b21	0.80143934
245	0x3e18d02d	0.14923163
246	0x3dc9e985	0.098589934
247	0x3db6fbd0	0.08934748
248	0x3e0064d3	0.12538461
249	0x3da14602	0.07874681
250	0x3dc0d1d4	0.094150215
251	0x3dddc58e	0.10828696
252	0x3d9ae480	0.07563114
253	0xbb79fa57	-0.00381436
254	0x3d303532	0.04301948
255	0xbff31b84	-1.8992772

critic.0.bias f4 [128]
0	0x3e9b2a45	0.30305687
1	0xbf19833a	-0.5996586
2	0xbd80a0d8	-0.062806785
3	0xbdef3ad0	-0.116811395
4	0xbec5d5d0	-0.38639688
5	0xbe4e5661	-0.20150138
6	0xbe7d6d3c	-0.24748701
7	0xbe112a70	-0.14176345
8	0x3e64df63	0.2235084
9	0xbea72dbe	-0.32652086
10	0x3e42185e	0.18954608
11	0xbc3139aa	-0.010816971
12	0x3f18aa23	0.5963461
13	0xbde46a5a	-0.111530975
14	0x3ddfec2c	0.10933718
15	0xbe58a92d	-0.21158285
16	0x3ebacb5e	0.36483282
17	0xbe901fcf	-0.28149268
18	0xbe15f481	-0.14644052
19	0x3ec3a274	0.3820988
20	0xbec642eb	-0.3872293
21	0xbe8cfdd9	-0.2753742
22	0xbe8e9316	-0.27846593
23	0x3e798fd9	0.2437128
24	0x3eb4a0d0	0.3527894
25	0xbf06b3ff	-0.526184
26	0x3b7e6434	0.003881705
27	0x3def9fd3	0.11700406
28	0x3c33d3ee	0.010975821
29	0xbcc3c4e9	-0.023897605
30	0x3d15cfb4	0.036575034
31	0xbd67dd09	-0.05660728
32	0xbe75ccb0	-0.24003863
33	0xbeccec39	-0.40023974
34	0xbe855766	-0.26043242
35	0xbdc9eedd	-0.09860013
36	0xbef07c4b	-0.46969828
37	0xbd3a98c7	-0.045555856
38	0x3e86d77e	0.26336282
39	0xbe03ecd9	-0.12883319
40	0x3e3b0de7	0.18267022
41	0xbdf9b12b	-0.12191995
42	0xbf01946a	-0.50617087
43	0xbe7b9758	-0.24569452
44	0xbebb6d2b	-0.36606726
45	0xbeee691f	-0.46564576
46	0xbbc99e36	-0.0061528934
47	0x3dfbe6e6	0.122999
48	0x3e023764	0.12716442
49	0x3e18603f	0.14880465
50	0xbb97d252	-0.0046332264
51	0x3d93886d	0.072037555
52	0xbc62792d	-0.013822836
53	0xbf1bcd89	-0.60860497
54	0xbf06b45a	-0.52618945
55	0xbdfd70af	-0.12375008
56	0xbe50c434	-0.20387346
57	0xbe46b663	-0.19405513
58	0x3ea72ff1	0.32653764
59	0xbe9bce49	-0.3043082
60	0xbe3571d0	-0.17719197
61	0x3d0cfb6a	0.034419455
62	0xbdeb1613	-0.1147882
63	0x3c9e5385	0.019326935
64	0x3db76ec8	0.08956677
65	0xbefa67e2	-0.4890738
66	0xbe990ce4	-0.29892647
67	0xbe55750e	-0.20845434
68	0x3d78e0e2	0.06076134
69	0xbdc1a63f	-0.09455537
70	0xbe230a67	-0.15921937
71	0x3ef7544b	0.48306498
72	0x3ea58073	0.3232456
73	0x3eb6f131	0.3573089
74	0xbdab805f	-0.08374094
75	0x3d45ed94	0.048322275
76	0xbd60f71e	-0.05492317
77	0x3e5c2bee	0.21501133
78	0x3e4149f8	0.18875873
79	0x3eb25996	0.34833974
80	0x3d29db6b	0.04146902
81	0x3dcd5bee	0.100273
82	0x3e7a110d	0.24420567
83	0xbcde8866	-0.02716465
84	0xbd3bccfb	-0.04584978
85	0x3f57557f	0.8411483
86	0x3d8d99b4	0.06914082
87	0x3e0401f4	0.1289137
88	0x3ebf28e4	0.37335885
89	0x3d892006	0.06695561
90	0xbeeccaf8	-0.46248603
91	0x3efb1cdc	0.49045455
92	0xbe972e1c	-0.29527366
93	0xbebe4e94	-0.37169325
94	0xbf29f865	-0.66394645
95	0x3e2dc1b7	0.16968428
96	0x3e2e2309	0.17005552
97	0xbd4bea1e	-0.04978382
98	0xbe8f2cde	-0.27963918
99	0xbdc2af0e	-0.09506045
100	0xbe9943c8	-0.29934525
101	0xbef91f26	-0.48656577
102	0x3e775db9	0.24156846
103	0x3d725396	0.059161745
104	0xbe02172b	-0.1270415
105	0xbe764f4b	-0.24053685
106	0x3e59cc06	0.21269235
107	0x3d67436d	0.056460787
108	0xbe7c324e	-0.24628565
109	0xbd27488b	-0.040840667
110	0xbe208569	-0.15675892
111	0x3f006824	0.50158906
112	0x3ec88778	0.39165854
113	0xbda47f77	-0.080321245
114	0xbf0a51e9	-0.54031235
115	0xbe3df6fd	-0.1855125
116	0x3f49eac6	0.7887386
117	0xbe8a2036	-0.269777
118	0x3e8d4957	0.27595016
119	0x3e79eff7	0.24407946
120	0xbe7238aa	-0.23654428
121	0xbe5142a6	-0.2043558
122	0xbd2f9291	-0.042864386
123	0x3d019a3d	0.031641234
124	0x3c2d383c	0.010572489
125	0xbf150504	-0.5821078
126	0xbe024788	-0.127226
127	0x3da2efd0	0.07955897

critic.2.weight f4 [64, 128]
0	0xbd337fcd	-0.043823052
1	0xbe13f8ec	-0.14450425
2	0x3d7317c7	0.059348848
3	0xbdaa5678	-0.08317274
4	0xbd1ca7d5	-0.038245995
5	0xbd7ab719	-0.06120977
6	0xbe01cef8	-0.12676609
7	0xbeaa707b	-0.3328894
8	0xbcb54fe8	-0.022132829
9	0xbde7110c	-0.11282548
10	0xbd118662	-0.035528548
11	0x3bf04870	0.007332854
12	0x3d7afdea	0.061277308
13	0xbd45bea5	-0.048277516
14	0xbe35d238	-0.17755973
15	0xbdfc2f1d	-0.12313674
16	0xbddf29bf	-0.10896634
17	0x3e2998d5	0.16562207
18	0xbe15323a	-0.14569941
19	0x3dd79824	0.105270654
20	0xbd97b567	-0.074076466
21	0x3d2c6077	0.042084184
22	0x3c48f4bb	0.01226538
23	0xbdee08f6	-0.11622803
24	0x3da3f5db	0.080058776
25	0xbdd6da98	-0.10490912
26	0x3d74c992	0.059762545
27	0x3dbceb40	0.09224558
28	0x3d634d2e	0.055493526
29	0xbc827d3e	-0.01592886
30	0x3d2cd9a9	0.042199764
31	0xbd9185b2	-0.071055785
32	0xbdb15b67	-0.08660012
33	0xbe21ecd5	-0.15813
34	0x3d12a48f	0.035801467
35	0x3df83d67	0.121210866
36	0xbdd3a3b0	-0.10333955
37	0x3d7628bc	0.06009744
38	0x3e0f0d73	0.13969974
39	0xbc99a4ea	-0.018755395
40	0xbcea21cc	-0.028580569
41	0x3dc5fed4	0.09667745
42	0x3dc15d69	0.09441645
43	0x3c3c029b	0.011475231
44	0xbe1032bd	-0.14081855
45	0xbe24b845	-0.16085918
46	0x3d3a6471	0.045505945
47	0xbda64599	-0.081187434
48	0x3cd5a9f2	0.026082013
49	0x3d0a7442	0.03380228
50	0xbbc675b3	-0.0060565113
51	0xbe2b565e	-0.16732165
52	0xbe3963a8	-0.18104422
53	0xbd9d77a5	-0.07688836
54	0xbe4e9dd3	-0.20177393
55	0x3dd74617	0.105114155
56	0x3d97a8c2	0.07405235
57	0xbce5f57b	-0.028071156
58	0x3dfb92dc	0.122838706
59	0xbe0d376c	-0.13790673
60	0xbc39a40d	-0.011330617
61	0x3d32c802	0.043647774
62	0x3aaad006	0.0013031967
63	0x3d6476f7	0.055777516
64	0x3d48bbef	0.049007352
65	0xbe0b8993	-0.13626699
66	0x3d16cb44	0.036814943
67	0xbcd9a50d	-0.02656796
68	0x3c55e90c	0.013056051
69	0x3d328b7f	0.043590065
70	0xbc7a9cff	-0.01529622
71	0x3dc526ec	0.096265644
72	0xbd997632	-0.07493247
73	0x3d9800f5	0.074220575
74	0x3e0c6241	0.13709356
75	0xbc913728	-0.017726496
76	0xbdc1ef92	-0.094695225
77	0x3e94a6fb	0.29033646
78	0x3d35c673	0.04437871
79	0x3e0e49bf	0.1389532
80	0x3da7ffbc	0.08203074
81	0x3d1c2abd	0.038126696
82	0xbdea3f4f	-0.114378564
83	0xbbe417d2	-0.0069608474
84	0x3c636852	0.013879852
85	0x3debefdc	0.11520359
86	0x3e064ae3	0.13114505
87	0x3d80de4a	0.06292398
88	0x3dfa1de2	0.12212731
89	0x3dacc310	0.08435643
90	0xbde03af0	-0.109487414
91	0x3d39d572	0.045369573
92	0xbdf9c682	-0.121960655
93	0xbc9f2dec	-0.019431077
94	0xbdc3716c	-0.09543118
95	0x3d22e53a	0.03976939
96	0xbe4ce27c	-0.20008272
97	0xbe020c77	-0.12700067
98	0xbd7cc4c9	-0.061711106
99	0xbdbf2e68	-0.09335023
100	0xbdd8bd3a	-0.10582967
101	0xbda1e7af	-0.07905518
102	0x3de38f62	0.111113325
103	0xbd955b6c	-0.07292828
104	0xbdbddc3f	-0.09270524
105	0xbd9d4838	-0.0767979
106	0x3e2148a2	0.15750363
107	0x3dd54995	0.10414425
108	0xbdb43eef	-0.08801066
109	0xbe2c1d61	-0.16808082
110	0xbcff883d	-0.031192893
111	0xbc37d08f	-0.011219158
112	0xbd92a737	-0.071608
113	0x3dbe4f1c	0.09292433
114	0xbe18f4ea	-0.14937177
115	0xbe72ab08	-0.23698056
116	0xbd448447	-0.047977712
117	0xbd41c961	-0.04731119
118	0xbd6a8c55	-0.057262737
119	0xbda1e333	-0.07904663
120	0xbd44a3aa	-0.048007645
121	0xbd811077	-0.063019685
122	0xbd10e363	-0.035373103
123	0xbe02d154	-0.12775165
124	0xbdc83add	-0.09776852
125	0x3cefc878	0.029270396
126	0x3d00d18c	0.03144984
127	0xbca9f457	-0.020746393
128	0xbe2233f0	-0.15840125
129	0xbe56f011	-0.20990016
130	0xbe0a6145	-0.13513668
131	0xbe411e38	-0.18859184
132	0x3e4cd23a	0.2000207
133	0x3d82a0ae	0.063783035
134	0xbddf0fd0	-0.10891688
135	0xbb794854	-0.0038037496
136	0xbd9bbc20	-0.07604241
137	0xbdc74358	-0.09729642
138	0xbe8de0ff	-0.2771072
139	0x3ea99d34	0.3312775
140	0xbd0b4736	-0.03400346
141	0x3de742ff	0.11292075
142	0xbe03ae6c	-0.12859505
143	0xbe861d68	-0.2619431
144	0xbe5eb865	-0.21750028
145	0x3dcdc603	0.10047533
146	0xbefb6edf	-0.49108025
147	0x3d0e3bbb	0.034724932
148	0xbdb063cb	-0.08612784
149	0xbd564347	-0.052310254
150	0xbd27005b	-0.040771823
151	0x3d8867c1	0.066604145
152	0xbe851e6f	-0.2599978
153	0xbe8a724c	-0.27040327
154	0xbe011b56	-0.12608084
155	0x3ba576ea	0.005049576
156	0xbbb80841	-0.0056162183
157	0xbeb89f03	-0.36058816
158	0xbec7b58f	-0.39005706
159	0x3dd8adb5	0.10580007
160	0xbe3295e9	-0.17439999
161	0xbd9816eb	-0.07426246
162	0xbd98a291	-0.07452882
163	0xbda37ef9	-0.079832025
164	0xbe7f9628	-0.24959624
165	0x3d53aeaa	0.051680245
166	0xbf2c1f21	-0.67235
167	0xbdfd6afe	-0.12373923
168	0xbe6c32c5	-0.23066242
169	0xbeb3edfa	-0.351425
170	0xbe5293a6	-0.20564136
171	0xbf15386f	-0.58289236
172	0xbd82e7d1	-0.06391872
173	0xbe6001f7	-0.2187575
174	0xbe309a00	-0.17246246
175	0xbd385e13	-0.04501159
176	0x3dd303d2	0.10303463
177	0x3c4994e8	0.012303568
178	0x3d77bccc	0.060482785
179	0xbe9bc99c	-0.30427253
180	0xbe3c2b9b	-0.18376009
181	0xbd17fe85	-0.037107963
182	0x3e2b874d	0.16750832
183	0xbe66ee5c	-0.22551864
184	0x3bc63790	0.006049104
185	0x3f105ac1	0.5638848
186	0xbe7e0442	-0.24806312
187	0xbe4b3999	-0.1984619
188	0xbdf7c261	-0.12097622
189	0xbd2549a9	-0.04035345
190	0x3c84f1a1	0.016228499
191	0xbf146965	-0.5797332
192	0x3e4194e1	0.18904449
193	0x3c967010	0.018363982
194	0xbe7ed17f	-0.24884604
195	0xbe705178	-0.23468578
196	0x3c8a63be	0.016893264
197	0xbe6f1482	-0.23347667
198	0x3df39cf8	0.11895174
199	0x3e92c642	0.28666884
200	0x3df807d9	0.12110872
201	0xbec07f3f	-0.3759708
202	0xbdd6475b	-0.10462829
203	0xbea32fb3	-0.3187233
204	0xbdc87369	-0.09787638
205	0x3e9a1240	0.3009205
206	0xbea677bd	-0.32513228
207	0x3e45edec	0.19329041
208	0xbe6e01b1	-0.23242833
209	0xbdf6d08d	-0.12051497
210	0xbd76950a	-0.06020073
211	0x3dd682fa	0.104742005
212	0x3d0802e7	0.033205893
213	0x3d503362	0.050830252
214	0x3cc532a5	0.024072
215	0xbe78b8d8	-0.24289262
216	0xbe86ce4b	-0.26329264
217	0x3ee3863d	0.44438353
218	0xbe51a52b	-0.20473163
219	0xbeaff202	-0.34364325
220	0xbe1d2c46	-0.1534892
221	0xbf075aba	-0.5287281
222	0xbe542eb5	-0.20720942
223	0xbd9ce415	-0.07660691
224	0xbe8c9ed4	-0.27464926
225	0xbe8fb03c	-0.28064144
226	0xbe742e64	-0.23845822
227	0xbe207e55	-0.15673192
228	0x3c289117	0.010288498
229	0xbda9670b	-0.08271607
230	0xbee6d15e	-0.4508161
231	0xbe073bd4	-0.13206416
232	0xbdfd40eb	-0.12365898
233	0xbe59e956	-0.21280417
234	0x3d5ef90b	0.054436725
235	0xbeb5d22b	-0.35511908
236	0x3dce0db5	0.10061208
237	0xbded5c2c	-0.11589846
238	0xbdcfe184	-0.101504356
239	0xbec7ce72	-0.39024693
240	0xbf80ecb7	-1.007224
241	0x3d83d598	0.06437224
242	0x3c913d17	0.017729325
243	0xbf0f39a1	-0.5594731
244	0x3ed3dd1a	0.41379625
245	0x3dbd617b	0.092471085
246	0x3c864f68	0.016395286
247	0x3ddde407	0.108345084
248	0xbf11d646	-0.5696758
249	0xbe4a754a	-0.19771305
250	0xbe97b077	-0.2962682
251	0x3de48e10	0.11159909
252	0xbe091901	-0.13388444
253	0xbe0c8727	-0.13723432
254	0xbd70d4a4	-0.05879654
255	0xbd0dc38b	-0.034610312

critic.2.bias f4 [64]
0	0xbc82e557	-0.015978498
1	0x3e40729b	0.18793719
2	0x394d8d76	0.00019603022
3	0xbe291765	-0.1651283
4	0x3dffb46b	0.12485584
5	0x3db2eed3	0.08736958
6	0x3ca3b138	0.019981965
7	0xbadbb6f9	-0.0016762904
8	0x3d863cbd	0.06554554
9	0xbc141a09	-0.00903941
10	0xbde9c47c	-0.114144295
11	0xbe70f544	-0.23531061
12	0xbbffd270	-0.0078070685
13	0x3cf3b55d	0.029749567
14	0xbecc19d5	-0.39863458
15	0x3e00fa89	0.12595572
16	0xbab411d3	-0.0013738222
17	0x3d26b25d	0.040697444
18	0x3de6420e	0.11243068
19	0x3d52218d	0.051301528
20	0x3bf6c52f	0.0075308303
21	0xbe094af8	-0.13407505
22	0xbcb192a7	-0.021676375
23	0xbc84e230	-0.016221136
24	0x3da25152	0.07925667
25	0x3d29d4ac	0.041462585
26	0x3e1c4aa2	0.15262845
27	0xbc23d660	-0.009999841
28	0xbd4b28d6	-0.04959949
29	0xbe4753bb	-0.19465534
30	0x3da00302	0.07813074
31	0x3d100780	0.035163403
32	0x3e04e03d	0.12976165
33	0xbe523b69	-0.20530476
34	0xbe7250e2	-0.23663667
35	0xbd4dd097	-0.050247755
36	0xbd8fa8dd	-0.0701463
37	0xbe8f24b7	-0.279577
38	0xbd125aad	-0.035731006
39	0xbd4a9047	-0.049454
40	0xbe289a1d	-0.1646504
41	0xbd9a796d	-0.075426914
42	0xbc2d5338	-0.010578923
43	0x3ddfea28	0.10933334
44	0xbdbfbd62	-0.09362294
45	0xbde4cea5	-0.11172227
46	0x3e067621	0.13131
47	0xbed3fef2	-0.41405445
48	0x3e1489b9	0.14505662
49	0xbcab2230	-0.020890325
50	0xbca84d89	-0.020544784
51	0xbe2036aa	-0.15645853
52	0xbcc29eb9	-0.023757325
53	0x3d926fd9	0.071502395
54	0x3d5c22f1	0.05374426
55	0xbdf18162	-0.11792256
56	0x3e010382	0.12598994
57	0xbc714848	-0.014726706
58	0xbcf4388a	-0.029812116
59	0xbe0e41be	-0.13892266
60	0x3d77c9ce	0.06049519
61	0xbd9b7ecd	-0.07592545
62	0x3daff4ff	0.08591651
63	0x3d86c4a2	0.065804735

critic.4.weight f4 [1, 64]
0	0xbea47c5a	-0.32126123
1	0x3f0f046d	0.5586613
2	0xbf0c4f2f	-0.54808325
3	0x3e75e23a	0.2401208
4	0xbf081896	-0.53162515
5	0xbeacfbc7	-0.3378584
6	0xbef2007c	-0.47265995
7	0xbeff7507	-0.49893972
8	0x3ec14b32	0.37752682
9	0x3c0aaca2	0.00846401
10	0x3da77910	0.08177388
11	0x3d8fbeb6	0.07018797
12	0xbda33c21	-0.07970453
13	0x3e613650	0.21993375
14	0x3f05160a	0.51986754
15	0x3f1518e6	0.58241117
16	0xbebd423a	-0.3696459
17	0xbe941b96	-0.28927296
18	0x3e15bcea	0.14622846
19	0xbe08f5de	-0.13375041
20	0x3d9dcd69	0.077051945
21	0x3f10a61d	0.5650347
22	0x3ee91497	0.4552352
23	0xbea30471	-0.31839326
24	0x3ecc1109	0.39856747
25	0x3f329cf2	0.6977073
26	0x3f01befc	0.50682044
27	0xbdbbb1c6	-0.09164767
28	0x3edf69d1	0.4363542
29	0xbe1a7d98	-0.15086973
30	0x3ec9ca9d	0.39412394
31	0xbe6d4e4d	-0.231744
32	0x3e3b06f7	0.18264376
33	0x3edb1f85	0.42797485
34	0x3edcbe71	0.43114045
35	0xbdf157d8	-0.11784333
36	0x3df55a7d	0.1198015
37	0x3f148e7b	0.5802991
38	0x3ed7173f	0.42009923
39	0xbf302df2	-0.68820107
40	0xbf0cba09	-0.5497137
41	0xbe5b7276	-0.21430382
42	0xbe00dc68	-0.12584078
43	0xbf2a93a1	-0.66631514
44	0x3e3164cd	0.17323609
45	0xbefdfd77	-0.4960744
46	0xbec1baa5	-0.3783771
47	0x3f0611fa	0.5237118
48	0x3ea1c14d	0.3159279
49	0x3ecc5c5c	0.39914215
50	0xbe28f49f	-0.16499566
51	0x3f02223e	0.508335
52	0xbe98016a	-0.2968858
53	0xbdfab9e3	-0.12242486
54	0xbe8cd1c1	-0.2750378
55	0xbdb78cbb	-0.08962389
56	0xbeec27ad	-0.4612402
57	0x3ea280a5	0.31738773
58	0x3ee30be7	0.44345018
59	0x3f0a7503	0.54084796
60	0x3e299e9f	0.16564415
61	0x3ed93fde	0.4243154
62	0x3e04bced	0.12962694
63	0x3dc392b4	0.09549466
