PPO_preTrained/20220510/PPO_20220510_0_1850.pth (torch, 110785 bytes, 11 tensors)

actor.0.weight f4 [128, 35]
0	0x3e2a7eac	0.16649884
1	0xbdeaeecc	-0.11471328
2	0x3e34e30c	0.17664737
3	0x3e03e1b1	0.12879063
4	0xbe110af7	-0.14164339
5	0xbc8c9b13	-0.017163789
6	0x3c03ebd3	0.00805183
7	0x3e1b5ab7	0.15171324
8	0xbdc28d1e	-0.09499572
9	0x3d712ba2	0.058879502
10	0x3e129cb3	0.14317589
11	0x3e557729	0.20846237
12	0xbddcc7a0	-0.10780263
13	0xbf83a78e	-1.0285509
14	0x3f46d4d4	0.776685
15	0xbe08693e	-0.13321397
16	0x3d38ac25	0.045086045
17	0x3d9e3771	0.07725418
18	0x3e179452	0.14802673
19	0xbdef7a88	-0.11693293
20	0x3de22f23	0.11044147
21	0xbc644f37	-0.013934902
22	0x3d14c70e	0.036322646
23	0xbca87f2b	-0.02056845
24	0xbd80a42c	-0.06281313
25	0xbd4f2f5c	-0.050582275
26	0x3cead980	0.028668165
27	0x3e66228b	0.22474115
28	0x3dbe2b30	0.09285581
29	0x3d70de88	0.058805972
30	0x3eb07848	0.34466767
31	0x3e6cc0c2	0.23120406
32	0xbd042b80	-0.032268047
33	0xbf5fdc8f	-0.8744592
34	0x3ce9ec8c	0.028555177
35	0x3dc79dcc	0.09746894
36	0x3d4d73db	0.050159317
37	0x3dae3d65	0.08507804
38	0x3d68acc3	0.056805383
39	0x3d8db79e	0.06919788
40	0x3e73e1ad	0.23816557
41	0x3e086caf	0.1332271
42	0xbd3d68cd	-0.046242524
43	0x3e5444fa	0.20729437
44	0x3e20b405	0.15693672
45	0xbf26ab7a	-0.651054
46	0xbda31939	-0.07963795
47	0x3e1f7b7d	0.15574451
48	0xbf2cec0d	-0.67547685
49	0x3fa2e768	1.272687
50	0x3e879d11	0.2648702
51	0x3e195777	0.14974771
52	0x3e0ab4f9	0.13545598
53	0x3e061fca	0.13098064
54	0x3db59e1d	0.08868048
55	0x3e95231a	0.29128343
56	0xbdb27178	-0.08713049
57	0xbe37a8e4	-0.1793552
58	0xbe095e11	-0.1341479
59	0xbc249b46	-0.010046786
60	0xbd0d4659	-0.034490917
61	0x3d9eea7d	0.07759569
62	0x3d616a22	0.055032857
63	0x3e31f562	0.17378762
64	0xbd062890	-0.032753527
65	0x3dd1bbef	0.102409236
66	0x3de6658e	0.11249839
67	0xbdf67c29	-0.120354004
68	0x3e20289f	0.15640496
69	0xbe8e9e1c	-0.27855003
70	0xbe1a1b45	-0.15049465
71	0xbda66ccc	-0.0812622
72	0x3db2ed2a	0.08736642
73	0x3e2d25b8	0.1690892
74	0x3ba8ae0e	0.005147702
75	0x3df3bb6c	0.11900982
76	0x3d05c68d	0.032660056
77	0xbdf3024b	-0.11865672
78	0x3e00eed5	0.12591107
79	0x3e0ce7ed	0.13760348
80	0x3f6d1bc1	0.92620474
81	0x3ea15732	0.31511837
82	0xbf0eeb45	-0.5582774
83	0x3f6b908f	0.92017454
84	0xbf99652d	-1.1984001
85	0xbe089705	-0.1333886
86	0xbd7a43f2	-0.061099954
87	0x3e85d501	0.26139072
88	0x3e537a54	0.20652133
89	0x3ec71799	0.3888519
90	0xbe6f57a7	-0.2337328
91	0x3e0b4f96	0.13604578
92	0x3daef5ed	0.08543
93	0x3e00a1f6	0.12561783
94	0xbe0e5df9	-0.13903035
95	0xbadf6a70	-0.0017045271
96	0x3df25605	0.11832813
97	0xbd843104	-0.064546615
98	0x3d9d56e7	0.07682591
99	0x3df1924b	0.11795481
100	0xbd760cc3	-0.060070764
101	0x3df31da0	0.11870885
102	0x3e962559	0.2932537
103	0x3d936267	0.07196503
104	0x3dce014a	0.100588396
105	0xbc4ae26f	-0.012383088
106	0x3df30500	0.11866188
107	0xbde969fa	-0.113971666
108	0xbcf6d05d	-0.030128652
109	0x3dd021c0	0.10162687
110	0x3e76cf7c	0.24102587
111	0xbd45b09f	-0.048264142
112	0x3e38d680	0.18050575
113	0x3d1f3b78	0.038875073
114	0xbde598dc	-0.11210796
115	0xbe040ad8	-0.12894762
116	0x3ddc540d	0.10758219
117	0x3f2402db	0.6406686
118	0xbeee0b54	-0.46493018
119	0x3ee93d2b	0.4555448
120	0x3f5dac53	0.8659107
121	0x3d73fe7c	0.059568867
122	0x3e03da4d	0.12876244
123	0x3e318642	0.17336372
124	0x3cee66a3	0.029101675
125	0xbda8063f	-0.08204316
126	0xbc4781d6	-0.012176951
127	0x3e4406f7	0.19143282
128	0xbbb3188b	-0.0054655722
129	0x3e4011a0	0.18756723
130	0xbd369251	-0.044573132
131	0x3c90ca45	0.017674575
132	0x3d07ecd9	0.03318486
133	0xbe62cf8c	-0.22149485
134	0x3e806cf5	0.25083128
135	0xbda6b731	-0.0814041
136	0x3e9eb75a	0.3099926
137	0x3ea8e8b3	0.32990035
138	0x3e304c9f	0.17216729
139	0x3c755288	0.01497329
140	0xbd6e075d	-0.05811249
141	0x3e3d2873	0.18472461
142	0xbda45aac	-0.08025107
143	0xbdbfedab	-0.093715034
144	0xbb3193e9	-0.0027096218
145	0x3df2be74	0.11852732
146	0x3ac914b1	0.001534125
147	0xbdbef76e	-0.09324537
148	0xbd3fb3fb	-0.046802502
149	0x3d1cd4a8	0.038288742
150	0xbca01e6f	-0.019545762
151	0xbe56d4c5	-0.20979603
152	0xbf0c1993	-0.54726523
153	0x3d958d1f	0.07302307
154	0xc01a0523	-2.4065635
155	0xbf0dba9c	-0.5536287
156	0x3cb6ae5c	0.022299938
157	0x3e53bfb1	0.20678593
158	0x3e52783a	0.20553675
159	0x3e154b9a	0.14579621
160	0x3e8e0b93	0.27743205
161	0x3e604d1c	0.21904415
162	0xbdf9fd53	-0.12206521
163	0x3dd30b5c	0.10304901
164	0xbd5e3f30	-0.05425948
165	0x3dfc2221	0.12311197
166	0x3d898ff6	0.067169115
167	0x3d9923a4	0.07477501
168	0x3db1dab7	0.08684295
169	0xbc7ff4fc	-0.015622374
170	0x3ded7410	0.11594403
171	0xbd8c7dfb	-0.06859966
172	0x3f207e31	0.6269255
173	0xbe92dfb1	-0.28686288
174	0x3e52a03c	0.20568937
175	0x3c13fa90	0.009031907
176	0x3e4e606a	0.20153967
177	0x3db83098	0.089936435
178	0x3e6d9ac3	0.23203568
179	0xbe1447ee	-0.14480564
180	0x3d1c195e	0.03811013
181	0x3e746475	0.23866446
182	0x3e70d63d	0.23519225
183	0x3e34f686	0.17672166
184	0x3dbd024d	0.092289545
185	0xbda3e2ee	-0.08002268
186	0x3cc127c9	0.023578541
187	0xbf466161	-0.7749234
188	0xbd82a0c4	-0.0637832
189	0xbef00409	-0.4687808
190	0xbe9895a2	-0.2980166
191	0x3dbf2ecf	0.093351
192	0x3d3a7ea9	0.04553095
193	0x3c43ecbc	0.011958297
194	0x3d964efa	0.07339282
195	0xbe3c45d1	-0.18386008
196	0x3de24cfc	0.1104984
197	0xbe462dd2	-0.19353417
198	0xbd9633e8	-0.07334119
199	0x3ab9c72d	0.0014173739
200	0x3dbd255b	0.092356406
201	0x3d1e1898	0.038597673
202	0x3dee2933	0.11628952
203	0x3d460694	0.048346117
204	0xbe491877	-0.19638239
205	0x3e08cef6	0.133602
206	0x3dc6588e	0.09684859
207	0xbe103487	-0.14082538
208	0x3e4b8058	0.19873178
209	0xbd28d973	-0.041223
210	0x3cb2cc71	0.021826
211	0x3e01bc4e	0.12669489
212	0xbdc98d2a	-0.09841378
213	0x3c374bf3	0.011187541
214	0x3d7304ca	0.05933074
215	0xbdee3b6e	-0.11632429
216	0x3d39121d	0.04518329
217	0x3d69b9c0	0.05706191
218	0x3d0d3096	0.034470163
219	0x3dff438a	0.12464054
220	0x3f4a27fb	0.78967255
221	0x3c8ee3c4	0.017442591
222	0x3cbd76fc	0.023128025
223	0xbe3712eb	-0.1787831
224	0xbe73d9c9	-0.23813547
225	0x3e2cd652	0.16878632
226	0xbb84e83f	-0.004056006
227	0x3e30aa9e	0.17252585
228	0xbdaa9b73	-0.08330431
229	0xbd97adc0	-0.07406187
230	0xbe8de09a	-0.2771042
231	0x3bcbf140	0.0062238276
232	0xbdf744c9	-0.120736666
233	0xbdb89cc3	-0.09014275
234	0xbe717c86	-0.23582658
235	0x3dbfb020	0.09359765
236	0x3d4048b0	0.04694432
237	0xbe34674f	-0.17617534
238	0x3d8b241a	0.06793995
239	0x3e0a47a3	0.1350389
240	0xbf4ac8b3	-0.7921249
241	0x3e661507	0.22468959
242	0xbc889c85	-0.016676197
243	0x3b182a49	0.0023218563
244	0xbe873a09	-0.26411465
245	0x3e3cb2ff	0.18427657
246	0x3e0ac5cb	0.13552015
247	0xbdbe0f52	-0.09280266
248	0xbb6d232e	-0.0036184299
249	0x3e0ba3d2	0.13636711
250	0x3e236dc2	0.15959838
251	0xbb987ea8	-0.0046537705
252	0xbd908040	-0.07055712
253	0x3e1f8f12	0.1558192
254	0x3eb813c0	0.35952568
255	0xbf254821	-0.64563185

actor.0.bias f4 [128]
0	0x3d43c278	0.04779288
1	0xbdeaa1d3	-0.11456647
2	0x3e47a10f	0.19495033
3	0xbddc30b3	-0.10751476
4	0x3bd4443e	0.0064778617
5	0xbd86126f	-0.06546485
6	0x3e07041b	0.1318516
7	0xbe9d5d4c	-0.30735242
8	0xbb0c5ee8	-0.0021418873
9	0x3c58af62	0.013225408
10	0x3df769fc	0.12080762
11	0x3e0f92c6	0.14020833
12	0x3c86274b	0.016376158
13	0xbe4407b9	-0.19143571
14	0x3ddcb487	0.1077662
15	0x3ea11ba3	0.31466398
16	0x3d41944a	0.04726056
17	0x3e6ff788	0.2343427
18	0x3eb9e295	0.3630568
19	0x3d4701c0	0.048585653
20	0x3d04126d	0.032244135
21	0xbe110c0c	-0.14164752
22	0x3d7d38a4	0.061821595
23	0x3d9c1500	0.07621193
24	0xbe556563	-0.20839457
25	0x3e3ce87d	0.18448062
26	0x3d683ce8	0.05669871
27	0x3ea0ffb9	0.314451
28	0xbe5522f0	-0.20814109
29	0xbe37ec0c	-0.17961138
30	0xbdfec428	-0.124397576
31	0xbe557b93	-0.20847921
32	0x3bff98d1	0.0078001996
33	0x3ec8cd42	0.392191
34	0xbd91dba7	-0.071219735
35	0xbddcf19d	-0.107882716
36	0x3c8db8d6	0.01730005
37	0xbdc2d60f	-0.09513485
38	0x3e1777db	0.14791815
39	0x3e6e5408	0.23274243
40	0x3e74b6e6	0.23897895
41	0x3e668b7a	0.22514144
42	0x3da2a693	0.07941928
43	0xbd844dfe	-0.06460188
44	0x3e865b71	0.2624164
45	0x3e411dae	0.18858978
46	0x3e22e34e	0.15907022
47	0xbd8cbff4	-0.0687255
48	0x3e82c174	0.25538218
49	0x3e9cbf19	0.30614546
50	0x3d89f1f4	0.06735602
51	0xbc828870	-0.0159342
52	0xbcaf5959	-0.021404909
53	0x3c861ea1	0.016372027
54	0x3d4e2f48	0.05033806
55	0x3e0e5cf6	0.1390265
56	0x3e6200a5	0.22070558
57	0xbe13e348	-0.1444217
58	0xbe613ef6	-0.21996674
59	0x3e2c3c94	0.16819984
60	0xbdf948c5	-0.12172083
61	0xbdf4d18c	-0.119540304
62	0x3e8fab34	0.28060305
63	0x3e912348	0.2834723
64	0xbdeeb81b	-0.11656209
65	0x3e5e004f	0.21679805
66	0x3e30f465	0.17280729
67	0x3d9b05e9	0.07569487
68	0xbde00122	-0.10937716
69	0xbd9c0e41	-0.07619906
70	0xbd527240	-0.05137849
71	0x3e63a9ee	0.22232792
72	0xbbeaead3	-0.0071691065
73	0xbe09deae	-0.13463852
74	0xbe8fd4ad	-0.28091946
75	0xbd6d6ba0	-0.057963967
76	0xbe90de19	-0.28294447
77	0xbe45dc16	-0.19322237
78	0xbe142d65	-0.14470442
79	0x3d675416	0.056476675
80	0x3e5fac52	0.21843079
81	0x3e29e84a	0.16592517
82	0xbe8f5c6d	-0.28000203
83	0xbdda6949	-0.10664613
84	0x3b9fee4b	0.0048807017
85	0xbdebb49f	-0.1150906
86	0xbe24b386	-0.16084108
87	0xbbd6a616	-0.0065505607
88	0x3e634bfd	0.22196956
89	0x3def299b	0.116778575
90	0x3c921f41	0.017837169
91	0x3e9963f3	0.29959068
92	0xbd3c560e	-0.045980506
93	0xbdd722ae	-0.105046615
94	0x3d8c58a8	0.06852847
95	0x3d15f3f2	0.036609598
96	0x3daa3871	0.083115466
97	0xbcf07c0f	-0.02935603
98	0xbcd0096f	-0.025395123
99	0xbe3f0b76	-0.18656716
100	0xbd8b9233	-0.06814995
101	0x3e8ba6de	0.27275747
102	0x3c38d5a6	0.0112814065
103	0x3cf41dc9	0.029799359
104	0x3c9a01f2	0.018799756
105	0x3ddccf3f	0.107817166
106	0x3e347a4f	0.17624782
107	0x3de41955	0.11137644
108	0x3cf5fcf4	0.030027844
109	0xbe8e4e89	-0.27794293
110	0xbe46a60c	-0.1939928
111	0x3e92f5e4	0.28703225
112	0x3df3b038	0.118988454
113	0xbcb727f7	-0.022357924
114	0x3bb2459b	0.0054404265
115	0xbe614d49	-0.22002138
116	0xbdf061a8	-0.117373765
117	0x3e399c92	0.18126133
118	0xbe36500f	-0.17803977
119	0x3ea9c5a0	0.33158588
120	0x3dddfcce	0.10839234
121	0x3e819360	0.2530775
122	0x3e806d4b	0.25083384
123	0x3eaee462	0.34158617
124	0xbe311f7f	-0.17297171
125	0x3decd99a	0.11564942
126	0x3e8ec5d0	0.27885294
127	0x3c395c39	0.0113134915

actor.2.weight f4 [64, 128]
0	0xbea7fae0	-0.3280859
1	0x3d5af6d8	0.053458065
2	0x3d593c30	0.053035915
3	0xbd9d95ce	-0.076945886
4	0x3df96af6	0.12178604
5	0xbb9c12be	-0.0047629764
6	0xbe1829da	-0.14859715
7	0xbeaa0cad	-0.33212796
8	0x3e2e08bf	0.16995524
9	0xbcfe2e62	-0.031027976
10	0x3e081388	0.132887
11	0x3e1e9c2c	0.15489262
12	0x3b78580e	0.0037894282
13	0xbcd6957b	-0.026194325
14	0x3d6945e0	0.056951404
15	0x3d4f1de8	0.05056563
16	0x3f06db8e	0.52678764
17	0xbe6410b6	-0.22272
18	0x3e0a3ebe	0.13500497
19	0x3d5fa5f1	0.054601613
20	0xbe52054d	-0.20509835
21	0xbe0c6d86	-0.13713655
22	0xbcebf1d7	-0.028801842
23	0xbc46c989	-0.012133011
24	0x3d0fab10	0.035075247
25	0x3e027602	0.12740329
26	0xbe116fd7	-0.1420282
27	0x3da972ac	0.08273825
28	0x3b89d0f0	0.0042058155
29	0x3cd95a19	0.02653222
30	0x3a9a2b49	0.0011762168
31	0x3d048d14	0.032361105
32	0x3e8478e9	0.25873497
33	0xbe8933b1	-0.2679725
34	0xbcab9e78	-0.020949587
35	0x3e22b12e	0.15887901
36	0xbd2105ec	-0.03931229
37	0x3d051dee	0.032499246
38	0xbe039777	-0.12850748
39	0xbd5d17dc	-0.053977832
40	0xbe7c79e2	-0.2465587
41	0xbe774e46	-0.24150953
42	0x3db498d7	0.088182144
43	0x3ebc6058	0.36792254
44	0x3d6affef	0.057372984
45	0x3e2bc819	0.1677555
46	0xbe531172	-0.20612124
47	0xbe2685e9	-0.1626202
48	0xbeabbbb7	-0.33541653
49	0xbc0ca756	-0.008584818
50	0xbb4f25d3	-0.0031608238
51	0xbdaa1c14	-0.08306137
52	0x3d0214c1	0.031758074
53	0x3d7cdc1d	0.061733354
54	0xbe25cc28	-0.1619116
55	0xbd4ddef5	-0.050261457
56	0x3e1d8aaa	0.15384927
57	0x3e613dc6	0.21996221
58	0xbd154b9d	-0.036449064
59	0xbe41d451	-0.18928649
60	0xbd2d1b60	-0.042262435
61	0x3e354a05	0.17704017
62	0x3ddf29ed	0.108966686
63	0xbe0ace5c	-0.13555282
64	0xbd060d8c	-0.032727763
65	0xbd83f7f8	-0.06443781
66	0xbb4a44ab	-0.0030863683
67	0x3d0c79bd	0.034295786
68	0xb9f7a9a8	-0.00047237915
69	0xbdf2f383	-0.118628524
70	0x3cc6ab40	0.02425158
71	0x3e26a6a7	0.1627451
72	0xbde9fe13	-0.11425414
73	0x3e1d6060	0.15368795
74	0xbddddfdf	-0.10833716
75	0x3eab1690	0.3341565
76	0x3d837681	0.06419087
77	0xbc9be1ef	-0.019028632
78	0x3dda7143	0.10666134
79	0x3e295999	0.16538085
80	0x3e81c499	0.25345305
81	0xbda5d4bd	-0.08097217
82	0xbdb9e124	-0.09076145
83	0xbe74971f	-0.23885773
84	0x3cd56f88	0.026054159
85	0xbe63d6dd	-0.22249933
86	0x3c98d949	0.018658297
87	0xbd4f9489	-0.050678764
88	0x3e181f73	0.14855747
89	0xbe9d0b71	-0.30672792
90	0x3e9dd28e	0.30824703
91	0xbd0d2232	-0.03445644
92	0xbded689d	-0.11592219
93	0xbd98bdad	-0.07458053
94	0x3df54719	0.119764514
95	0x3ddf4d17	0.109033756
96	0xbe966820	-0.29376316
97	0xbcd04165	-0.025421808
98	0x3d9808f2	0.07423581
99	0x3d524281	0.051332954
100	0xbe12cf6c	-0.14336938
101	0xbd89441f	-0.06702446
102	0xbce2739f	-0.027643023
103	0x3ee8db1b	0.45479664
104	0xbdfdacc8	-0.12386471
105	0xbe31f1cb	-0.17377393
106	0x3ebb47cd	0.36578217
107	0xbdea0a8b	-0.11427792
108	0xbea4102c	-0.32043588
109	0x3d65c3ef	0.05609506
110	0x3dcb6685	0.099316634
111	0xbe0a5145	-0.13507564
112	0x3e05f348	0.13081086
113	0x3e5a7f03	0.21337514
114	0xbe3783da	-0.17921391
115	0x3e502657	0.20327125
116	0xbdfc4cdb	-0.123193465
117	0x3e115ddd	0.14195962
118	0xbd224254	-0.039614037
119	0x3e410cc8	0.18852532
120	0xbd6e9a14	-0.05825241
121	0xbd71de1d	-0.059049714
122	0xbe374b9a	-0.17899933
123	0xbd88ba1b	-0.06676122
124	0x3dcfaaca	0.10139997
125	0xbd91d15e	-0.07120012
126	0x3d93bcf6	0.07213776
127	0xbcbaec6e	-0.022817817
128	0x3dbb3be1	0.0914228
129	0xbd388b35	-0.045054633
130	0x3d8c3ea9	0.06847889
131	0xbc4cd407	-0.012501723
132	0xbe11400c	-0.14184588
133	0x3dee5283	0.116368316
134	0x3d20d5ff	0.039266583
135	0xbe2ba1b0	-0.16760898
136	0x3dcb22cf	0.099187486
137	0xbe1e6063	-0.15466456
138	0x3f2fe7ba	0.6871296
139	0xbe6a443c	-0.22877592
140	0xbd189135	-0.037247855
141	0x3ade6b45	0.0016969225
142	0xbe2866ec	-0.16445512
143	0x3e89d5e1	0.2692099
144	0xbf07dd1a	-0.5307175
145	0xbe153efb	-0.14574806
146	0xbd39ae5c	-0.045332298
147	0xbe7b77ea	-0.24557462
148	0x3bae5833	0.0053205728
149	0xbe9fe069	-0.312259
150	0xbe2da680	-0.16958046
151	0x3e94d1eb	0.29066405
152	0xbd95dec4	-0.0731788
153	0xbc2aa2a4	-0.010414753
154	0x3d918618	0.071056545
155	0xbe7cb3ce	-0.24677965
156	0x3c5c31a4	0.01343957
157	0x3dbb4d69	0.09145624
158	0xbe86f8a3	-0.2636157
159	0x3e66940a	0.2251741
160	0x3e60601a	0.2191166
161	0x3d099a27	0.033594277
162	0xbea29086	-0.31750888
163	0xbc2d38a6	-0.010572588
164	0xbde1a1f8	-0.11017221
165	0x3bc5742e	0.0060258126
166	0xbd87b7ec	-0.06626877
167	0xbe6f646d	-0.23378153
168	0xbf2df2b3	-0.67948455
169	0x3e2686f7	0.16262423
170	0xbd4f3290	-0.05058533
171	0x3e689ffc	0.22717279
172	0xbe293f90	-0.16528153
173	0xbd64f1f4	-0.055894807
174	0xbdef2999	-0.11677856
175	0xbd6b9a86	-0.057520412
176	0x3cf61a74	0.03004191
177	0xb954d72a	-0.0002029805
178	0x3be421a8	0.00696202
179	0x3e4ae1ac	0.1981265
180	0x3e95b25a	0.29237634
181	0x3dd90c74	0.10598078
182	0x3b811c09	0.0039401096
183	0xbe3707c8	-0.17874062
184	0xbdcd6b16	-0.10030191
185	0x3e133a60	0.14377737
186	0xbe2e1aa4	-0.1700235
187	0x3ccf8313	0.025331056
188	0x3e822e19	0.25425795
189	0xbcad175c	-0.021129303
190	0x3e6335eb	0.22188537
191	0xbd5c15eb	-0.05373184
192	0x3e45d801	0.1932068
193	0x3cb96f25	0.022636006
194	0xbe647ab7	-0.22312437
195	0x3e04d4fa	0.12971869
196	0x3cd5c36c	0.026094161
197	0x3de7d779	0.11320395
198	0x3e2ecd34	0.17070466
199	0x3e34c803	0.17654423
200	0xbde6bc4b	-0.11266383
201	0x3da4b706	0.080427215
202	0xbdb62f48	-0.08895737
203	0xbe44a16a	-0.192022
204	0xbdb49c97	-0.0881893
205	0x3deeaac4	0.11653665
206	0xbbc3c96e	-0.00597494
207	0xbd838ec0	-0.06423712
208	0xbe0bc7e2	-0.13650468
209	0xbe0e1458	-0.13874948
210	0x3d1f781e	0.038932912
211	0x3e77743e	0.24165437
212	0xbe9ac920	-0.3023157
213	0xbde5c1aa	-0.11218579
214	0xbdc02205	-0.09381489
215	0x3deeec1a	0.116661265
216	0xbe3254b6	-0.17415127
217	0xbc93af46	-0.018027913
218	0xbe2a3e87	-0.16625415
219	0xbd978982	-0.073992744
220	0xbdd959d4	-0.106128365
221	0x3e98f061	0.29870895
222	0xbeb80d0f	-0.35947463
223	0xbc760294	-0.015015263
224	0xbc9c65c4	-0.019091494
225	0xbe9c07ec	-0.30474794
226	0xbd803943	-0.06260922
227	0x3f511a34	0.8168061
228	0x3e8b18d2	0.27167374
229	0xbcfa26c5	-0.030536065
230	0xbe053df8	-0.1301192
231	0x3ed117c9	0.4083846
232	0xbe819a07	-0.25312826
233	0x3d9d70c0	0.07687521
234	0x3cb6759f	0.022272883
235	0x3e212f89	0.1574079
236	0xbd8d6e00	-0.069057465
237	0x3d55cdb9	0.052198146
238	0xbcc0e653	-0.023547327
239	0xbd1d7e93	-0.03845079
240	0xbce29179	-0.027657257
241	0x3e9407ed	0.28912297
242	0xbdba50c0	-0.09097433
243	0x3cbd3d1e	0.023100432
244	0x3eb35e2b	0.35032782
245	0xbe89ca3a	-0.269121
246	0xbd090808	-0.033454925
247	0xbdd854d3	-0.10563054
248	0xbe85ec11	-0.26156667
249	0x3e4b6a01	0.19864656
250	0x3e1563ad	0.14588805
251	0x3dd7e38d	0.10541449
252	0xbdac460c	-0.08411798
253	0x3e7d2a51	0.24723174
254	0xbe203e2a	-0.15648714
255	0xbe1f6ff8	-0.15570056

actor.2.bias f4 [64]
0	0x3d8b6bfd	0.068077065
1	0x3d4d453a	0.050114848
2	0x3e120428	0.14259398
3	0x3e335f76	0.17516884
4	0x3e83244e	0.25613636
5	0x3e1b054c	0.1513874
6	0xbd99ba1e	-0.07506202
7	0x3d8182af	0.06323754
8	0x3d54631b	0.051852327
9	0xbdd780b3	-0.10522594
10	0xbe03a6dd	-0.12856622
11	0x3e3d42b9	0.18482484
12	0x3d3ec5e0	0.046575427
13	0x3c99ba31	0.01876554
14	0x3db21d39	0.0869698
15	0xbcc7447f	-0.024324654
16	0x3acc72d3	0.0015598185
17	0x3dc6ce42	0.09707309
18	0x3e154e2c	0.14580601
19	0x3c819620	0.015818655
20	0xbd1b0a73	-0.037851762
21	0x3d933792	0.071883336
22	0xbda2af12	-0.07943548
23	0x3e39c42f	0.18141244
24	0xbc89706d	-0.016777242
25	0xbd47a989	-0.048745666
26	0xbd339fe0	-0.04385364
27	0x3d853a06	0.06505208
28	0xbe649655	-0.22322972
29	0xbc8647f0	-0.016391724
30	0xbb2677d6	-0.0025401018
31	0xbe1459f5	-0.14487441
32	0x3d080f58	0.033217758
33	0x3d202bcb	0.039104264
34	0xbe36cb7c	-0.1785106
35	0x3d07c8a1	0.03315032
36	0x3db7286c	0.08943257
37	0x3e30fdcb	0.17284314
38	0xbe1d5586	-0.15364656
39	0x3b2043eb	0.0024454545
40	0x3d276015	0.040863115
41	0xbe3b0595	-0.18263848
42	0x3c83482e	0.016025629
43	0xbc830701	-0.01599455
44	0x3e51c5e0	0.2048564
45	0xbe0c6a2f	-0.13712381
46	0x3d9d05b6	0.07667105
47	0xbe00684c	-0.12539786
48	0x3e2efbdc	0.17088264
49	0xbcc9273d	-0.024554843
50	0xbd2168b6	-0.0394065
51	0x3e58a90d	0.21158238
52	0x3d0e97bc	0.034812674
53	0x3e52bec6	0.20580587
54	0x3caa46a0	0.02078563
55	0xbce078b5	-0.027401308
56	0x3c86b7e8	0.016445115
57	0xbcedb311	-0.02901605
58	0xbd566449	-0.052341733
59	0x3dda8892	0.1067058
60	0x3d4f1e11	0.050565783
61	0xba25dab3	-0.0006326839
62	0xbddd00ba	-0.10791154
63	0x3dd73fac	0.10510191

actor.4.weight f4 [16, 64]
0	0xbf005229	-0.50125366
1	0x3c490c03	0.01227093
2	0x3fa10141	1.2578508
3	0x3ea96a85	0.3308908
4	0x3e8bb7cd	0.27288666
5	0x3e66cb67	0.2253853
6	0xbf2b616b	-0.66945523
7	0xbf34950a	-0.70539916
8	0xbdfaa111	-0.12237752
9	0xbf6660c0	-0.8999138
10	0x3db3fcf5	0.08788482
11	0xbd6f31e9	-0.058397207
12	0xbec53f4b	-0.3852485
13	0x3e8d35b9	0.2758005
14	0x3ea172aa	0.31532794
15	0x3d83fd85	0.064448394
16	0x3d7c8d7a	0.06165836
17	0x3f0d2e99	0.5514923
18	0x3f0a257a	0.53963435
19	0xbe7f2a3a	-0.24918452
20	0xbf2c657f	-0.6734237
21	0x3e2cafdc	0.1686396
22	0x3ed9e746	0.4255926
23	0x3f080bb5	0.53142864
24	0xbe1c57a4	-0.15267807
25	0xbd988ddb	-0.07448932
26	0x3eaed355	0.3414561
27	0xbf1b651e	-0.6070117
28	0xbf184fc6	-0.59496725
29	0xbe785f84	-0.24255186
30	0x3ea9fecd	0.3320221
31	0x3ec0e215	0.37672487
32	0x3f209f9d	0.6274355
33	0xbe9f53c0	-0.31118584
34	0xbb9ade13	-0.0047261803
35	0x3e5ef7e8	0.21774256
36	0xbedfe0e1	-0.43726256
37	0x3f575354	0.84111524
38	0xbd4c97aa	-0.049949326
39	0xbf4e3151	-0.80544
40	0x3ebb22aa	0.36549884
41	0xbecf487f	-0.40484998
42	0xbec7bb61	-0.39010146
43	0x3f7dc4c0	0.9912834
44	0xbd50636a	-0.05087606
45	0xbeaec801	-0.34136966
46	0x3e6a5a9b	0.22886126
47	0x3ef99521	0.4874659
48	0x3f3dadd9	0.74093395
49	0x3ed46056	0.41479748
50	0x3d9e9796	0.077437565
51	0xbd437d53	-0.04772694
52	0x3eb9b7ab	0.3627294
53	0x3e9f1ac8	0.3107512
54	0x3f7b4f31	0.9816771
55	0x3e856054	0.26050055
56	0x3ebc6443	0.36795244
57	0xbf1336cc	-0.5750549
58	0x3ec0dba5	0.37667575
59	0xbe5b2f1c	-0.2140469
60	0x3faa88d3	1.3323005
61	0xbe340dd7	-0.17583404
62	0xbf9c335b	-1.2203172
63	0x3e470d3d	0.19438644
64	0xbd9da80b	-0.07698067
65	0xbcc94f7f	-0.02457404
66	0xbf1b79c5	-0.6073268
67	0x3f09bf46	0.53807485
68	0xbd127f10	-0.035765707
69	0x3e040cc4	0.12895495
70	0x3e9805ad	0.2969183
71	0x3d46ae37	0.048505988
72	0xbf33bd25	-0.70210487
73	0x3e6151c9	0.22003855
74	0x3f0e6531	0.55623156
75	0xbed3ecdc	-0.41391647
76	0x3ec09431	0.3761306
77	0x3e96b183	0.29432306
78	0xbea66b1c	-0.32503593
79	0x3e7d6d0e	0.24748632
80	0xbec16f90	-0.37780428
81	0x3f1919f7	0.59805244
82	0xbf98cca1	-1.1937448
83	0x3eb70c0b	0.35751376
84	0x3ebe2b9c	0.37142646
85	0x3f7b3088	0.9812093
86	0x3e27ef63	0.16399913
87	0x3f240655	0.6407216
88	0xbf46b3ce	-0.7761811
89	0xbe73bb2a	-0.23801866
90	0x3f22a31f	0.63530153
91	0xbe48df79	-0.19616498
92	0xbf9d9d39	-1.2313606
93	0x3dad5390	0.08463204
94	0x3d3f6cb5	0.04673453
95	0x3f354e9f	0.7082309
96	0x3f812213	1.0088524
97	0x3e9884a9	0.29788712
98	0xbe849662	-0.25895983
99	0xbefbed55	-0.49204507
100	0xbe23c313	-0.15992384
101	0xbf6de09b	-0.92920846
102	0xbe2e8dea	-0.17046323
103	0xbf56e72a	-0.8394648
104	0x3e08df06	0.13366327
105	0xbf563432	-0.83673394
106	0x3e83bc1b	0.2572945
107	0xbf3b4c4f	-0.7316331
108	0xbd950ba9	-0.072776146
109	0xbe059680	-0.13045692
110	0xbf12f53b	-0.5740544
111	0x3ef5439b	0.4790314
112	0xbe6ab7b3	-0.22921638
113	0x3f0232ea	0.5085894
114	0x3f00b28e	0.5027245
115	0xbf6c2971	-0.92250735
116	0x3f67eb3d	0.9059332
117	0x3cb898df	0.022533832
118	0x3c9fbdbb	0.01949965
119	0x3b15e7c1	0.0022873732
120	0xbede7324	-0.4344722
121	0xbd2aec17	-0.04172906
122	0x3eb890f8	0.36048102
123	0xbccff384	-0.025384672
124	0xbf903a4b	-1.126779
125	0xbd5a4761	-0.05329073
126	0xbdf5c1c2	-0.11999847
127	0xbdc1a73e	-0.09455727
128	0x3e2694e4	0.16267735
129	0x3ea98661	0.33110335
130	0xbef1630c	-0.4714588
131	0xbeeaffb3	-0.45898208
132	0xbebf1163	-0.37317953
133	0xbbf1687e	-0.007367193
134	0x3f3d87ce	0.74035347
135	0x3e3dac0c	0.18522662
136	0xbf98dcbf	-1.1942366
137	0x3f9d829f	1.2305487
138	0x3f9b9602	1.2155154
139	0xbf27471f	-0.653429
140	0xbdfef00e	-0.124481305
141	0x3fbc9036	1.473151
142	0xbf7e6de5	-0.99386436
143	0xbec0714a	-0.37586433
144	0x3ec5848a	0.38577682
145	0xbf4e4ea1	-0.8058873
146	0xbe1eb1c0	-0.15497494
147	0xbe69e47d	-0.22841068
148	0x3e0583e7	0.13038598
149	0x3ebb8681	0.36626056
150	0x3e9ea48c	0.30984914
151	0xbfcaf8dd	-1.5857197
152	0x3e6f2883	0.23355298
153	0xbf1ce60a	-0.6128851
154	0x3f716ad3	0.94303626
155	0x3f1e9afd	0.61955243
156	0x3fd47538	1.6598272
157	0xbf3d6e47	-0.73996395
158	0xbea0513d	-0.3131198
159	0x3f9d75bc	1.2301555
160	0x3f665056	0.8996633
161	0x3ef83d2d	0.48484173
162	0xbbbd3095	-0.0057736137
163	0x3ce3d2ab	0.027810415
164	0xbf74c89f	-0.95618623
165	0xbf39da48	-0.72598696
166	0x3f4022ff	0.750534
167	0xbde5d709	-0.11222655
168	0xbd681444	-0.05665995
169	0x3f6cf388	0.925591
170	0x3c864c99	0.016393946
171	0xbf0cfa80	-0.5506973
172	0xbf2efb88	-0.68352556
173	0xbbe465df	-0.006970152
174	0xbf159ac9	-0.5843931
175	0x3de24a59	0.11049337
176	0xbf30d509	-0.69075066
177	0x3f00a2e4	0.5024855
178	0xbe819fa2	-0.25317103
179	0xbed61a9a	-0.4181717
180	0x3d6a85a0	0.05725634
181	0xbefc5007	-0.49279806
182	0xbe8a006b	-0.26953444
183	0xbc8325a0	-0.016009152
184	0xbf179151	-0.5920611
185	0x3eb66aa6	0.3562824
186	0x3f8a6c4f	1.0814303
187	0x3e32f72f	0.17477106
188	0xbecfefd8	-0.40612674
189	0x3e0a57c0	0.13510036
190	0x3f37adc2	0.7174951
191	0xbf864f5a	-1.0492966
192	0x3fe62ed1	1.7983037
193	0xbe0f4f8f	-0.13995193
194	0x3e98481f	0.29742524
195	0x3f0ce19c	0.5503175
196	0x3e9efcc8	0.31052232
197	0xbf0a06a0	-0.5391636
198	0xbe959c70	-0.29220915
199	0x3ef24075	0.47314802
200	0xbd3e818b	-0.04651026
201	0xbeb0a3a7	-0.34499857
202	0x3ede4446	0.43411463
203	0x3f5c26b8	0.8599658
204	0xbd91b137	-0.07113879
205	0x3de8a6f1	0.113599665
206	0xbec8b95a	-0.39203912
207	0xbf20475d	-0.6260889
208	0xbf044abe	-0.5167655
209	0xbf0b425d	-0.5439814
210	0x3f42a0b2	0.7602645
211	0x3ed72455	0.42019907
212	0xbed6a967	-0.4192612
213	0xbebbc0e1	-0.36670592
214	0xbee10447	-0.43948576
215	0x3db232f6	0.08701126
216	0xbed8dd23	-0.42356214
217	0xbd135850	-0.035972893
218	0xbf12e7b7	-0.5738482
219	0x3d0522ac	0.03250377
220	0xbcce014c	-0.025147103
221	0x3ef2a3a2	0.47390467
222	0xbef1985c	-0.47186553
223	0xbf3ff558	-0.7498374
224	0xbec990f2	-0.39368397
225	0x3d962d15	0.073328175
226	0xbddcdf97	-0.10784834
227	0xbe92a05d	-0.28637972
228	0x3f0291b3	0.5100357
229	0x3dff1eab	0.12457021
230	0xbe54af8c	-0.20770091
231	0x3f1deb5d	0.6168726
232	0xbfa1c803	-1.2639164
233	0x3b58492c	0.0033002598
234	0x3dc62a31	0.09676016
235	0xbe1d54b6	-0.15364346
236	0xbed11a1a	-0.40840226
237	0x3e3783e6	0.17921409
238	0xbc7eb2f4	-0.015545595
239	0xbf68542c	-0.90753436
240	0x3e150195	0.14551385
241	0xbf9e1795	-1.2350947
242	0xbee0d302	-0.43910986
243	0x3f5fe961	0.8746548
244	0xbf068c70	-0.5255804
245	0x3df8e58d	0.12153158
246	0x3e9fb7ff	0.31195065
247	0xbef0ee8c	-0.47056997
248	0xbf79781e	-0.9744891
249	0xbf2b1d9d	-0.6684206
250	0x3f65f34d	0.8982437
251	0xbee0eb3a	-0.43929464
252	0xbe9546b9	-0.2915552
253	0xbf371af8	-0.71525526
254	0xbed81583	-0.42203912
255	0x3f304ba7	0.68865436

actor.4.bias f4 [16]
0	0x3e52db77	0.20591532
1	0x3e01afea	0.12664762
2	0x3c070216	0.008240243
3	0xbd63b79e	-0.055595033
4	0xbee8b182	-0.45447928
5	0xbf3aabc0	-0.7291832
6	0xbd1490d6	-0.03627094
7	0xbd145c50	-0.03622085
8	0xbf4df12a	-0.8044611
9	0x3d49fa15	0.049310762
10	0xbd74fff6	-0.059814416
11	0xbf53e0aa	-0.82764685
12	0xbeb304a4	-0.34964478
13	0xbe513388	-0.20429814
14	0xbf2d1bf8	-0.676208
15	0x3ef0ef89	0.4705775

critic.0.weight f4 [128, 35]
0	0x3c2a2a85	0.010386114
1	0xbdb882d4	-0.090093285
2	0x3b5aa598	0.0033362862
3	0xbd907cdf	-0.07055067
4	0xbccddeaa	-0.025130589
5	0xbd92341f	-0.071388476
6	0xbda28e72	-0.079373255
7	0xbd81523b	-0.06314512
8	0xbd9a9344	-0.0754762
9	0x3cb6cde8	0.02231498
10	0x3fbd918b	1.4810041
11	0xbd9ad880	-0.07560825
12	0xbf2a33cf	-0.66485304
13	0xbf8c9284	-1.0982213
14	0xbf80589e	-1.0027044
15	0xbe1f7e61	-0.15575553
16	0x3ed2dd5d	0.41184512
17	0x3ecdc5ae	0.4018988
18	0x3e035b31	0.12827756
19	0x3dfa88dc	0.12233135
20	0x3b71a623	0.0036872707
21	0x3e19b773	0.15011387
22	0x3e00222e	0.12513039
23	0x3d33c3bc	0.04388784
24	0xbd98fc4d	-0.074699976
25	0xbedf261a	-0.43583757
26	0x3d974009	0.073852606
27	0xbe0675f3	-0.13130932
28	0xbc597e00	-0.01327467
29	0x3e38f69a	0.18062821
30	0x3ec70b25	0.3887569
31	0x3e34344c	0.17598075
32	0xbecd931a	-0.40151292
33	0x3e7c923e	0.24665162
34	0x3f667dc2	0.9003564
35	0x3e2af0ee	0.1669347
36	0x3de48d81	0.11159802
37	0x3e13574e	0.14388773
38	0x3d9ab74a	0.07554491
39	0x3e43a812	0.19107082
40	0x3e0ec5fc	0.13942713
41	0x3e291d56	0.16515097
42	0x3dd4bd8b	0.10387715
43	0x3ddbdaeb	0.10735115
44	0x3e03c81d	0.12869306
45	0x3f8a364d	1.0797821
46	0xbf82cac7	-1.0218133
47	0x3eff6c94	0.49887526
48	0x3f08d33b	0.5344731
49	0x3f35bc6f	0.7099065
50	0x3f264eee	0.6496419
51	0x3ea7589a	0.32684785
52	0xbd4a4f0e	-0.0493918
53	0xbeb844dc	-0.35990036
54	0xbe4c6876	-0.19961724
55	0x3dd82d16	0.105554745
56	0xbeb2fd96	-0.34959096
57	0xbcf5d025	-0.030006478
58	0x3da57d1a	0.08080502
59	0xbddab625	-0.106792726
60	0xbea4a1dc	-0.3215474
61	0x3f03b644	0.5144999
62	0x3e558fd4	0.20855647
63	0xbc069445	-0.008214061
64	0x3e6745c3	0.22585206
65	0xbe42c830	-0.19021678
66	0xbedf9cdb	-0.4367436
67	0xbec361b0	-0.38160467
68	0xbcedd550	-0.02903238
69	0xbea0eb61	-0.3142958
70	0x3b5ef4e9	0.003402049
71	0xbc7cb213	-0.015423316
72	0xbc9d46e7	-0.019198848
73	0xbcd13ca7	-0.025541617
74	0x3b47d15b	0.0030489776
75	0xbcab9225	-0.02094371
76	0x3c28f438	0.010312133
77	0xbca4240e	-0.020036723
78	0xbc7122ea	-0.014717797
79	0x3b7504ff	0.003738701
80	0x3e533e29	0.20629181
81	0x3f33c715	0.7022565
82	0x3fc76a05	1.557923
83	0x3f78dfb6	0.97216356
84	0x3fa3800e	1.2773454
85	0x3f0ffeec	0.56248355
86	0x3eb52665	0.35380855
87	0x3ec0ea6c	0.3767885
88	0x3ed32547	0.41239378
89	0x3ede7aaa	0.4345296
90	0xba033d63	-0.0005006401
91	0xbe1e7579	-0.154745
92	0xbdedcd84	-0.116114646
93	0x3ec84f56	0.3912303
94	0x3db09e4e	0.08623944
95	0xbec11f1f	-0.37719056
96	0xbf6dbba0	-0.9286442
97	0xbc631bb7	-0.013861588
98	0xbcaa8579	-0.020815598
99	0x3e78d799	0.24300994
100	0x3de3c39b	0.11121293
101	0x3e3fd440	0.1873331
102	0xbd873a19	-0.06602878
103	0xbeec39c0	-0.4613781
104	0x3e9623ca	0.2932418
105	0x3dbd8a1d	0.09254859
106	0x3da7a932	0.08186568
107	0x3db0e822	0.08638026
108	0x3db08a34	0.0862011
109	0x3d8961b6	0.0670809
110	0x3d42348c	0.047413394
111	0x3d58b7b5	0.05290957
112	0x3cbc1f44	0.022964127
113	0x3d844640	0.064587116
114	0x3dbde9b1	0.09273089
115	0xbfd9980f	-1.699953
116	0x3f6d1af9	0.9261928
117	0x3f36bdeb	0.7138354
118	0x3ee7128f	0.45131347
119	0xbf2cadf3	-0.67452925
120	0x3ee15243	0.44008073
121	0x3e491964	0.19638592
122	0x3ecb4db9	0.39707735
123	0x3f070081	0.52735144
124	0x3f138349	0.576222
125	0xbe7624bb	-0.24037449
126	0x3cd3be6e	0.02584764
127	0xbdeb4cd4	-0.11489263
128	0xbe7e2a32	-0.24820784
129	0xbf10a293	-0.5649807
130	0xbf0761b5	-0.52883464
131	0x3db5d8a8	0.088792145
132	0x3c2c933b	0.010533149
133	0x3d526c1d	0.051372636
134	0x3de600ea	0.11230643
135	0x3d8c7c74	0.06859675
136	0x3ed9e17e	0.4255485
137	0x3ebb78d7	0.3661563
138	0x3f1d33af	0.6140699
139	0x3f6161f3	0.88040084
140	0xbd024596	-0.031804644
141	0xbccb4397	-0.024812503
142	0xbc017801	-0.007902146
143	0x3bca8dc8	0.0061814524
144	0xbccdcb08	-0.025121227
145	0xbcc1f74c	-0.02367749
146	0x3c8587fd	0.016300196
147	0xbce4f4ac	-0.0279487
148	0xbd1e171b	-0.038596254
149	0xbcf92b97	-0.030416293
150	0xbed8cc33	-0.42343292
151	0x3dca23f3	0.09870138
152	0xbe62ed95	-0.22160943
153	0x3e907cc6	0.28220195
154	0xbc3c75b5	-0.011502673
155	0x3fa6c651	1.3029271
156	0x3ef22ea0	0.47301197
157	0xbe15138f	-0.14558242
158	0xbd857658	-0.06516713
159	0xbc839307	-0.016061319
160	0x3e929c1e	0.28634733
161	0x3e279c2d	0.1636817
162	0x3daccad0	0.08437121
163	0xbe05df00	-0.13073349
164	0xbe366dd5	-0.17815335
165	0x3ed2530c	0.41078985
166	0xbf153fa1	-0.58300215
167	0x3ce3e85c	0.027820759
168	0x3d877716	0.06614511
169	0xbd123006	-0.03569033
170	0x3e424939	0.18973245
171	0xbe94b77b	-0.29046234
172	0xbee00c97	-0.43759605
173	0xbe0d2f37	-0.13787542
174	0x3efd4800	0.49468994
175	0x3d5084fd	0.050908078
176	0x3cb0fbde	0.021604475
177	0x3da934e8	0.08262044
178	0x3ceb291f	0.028706132
179	0xbc933ad2	-0.017972384
180	0xbbf59358	-0.0074943714
181	0x3d365903	0.044518482
182	0x3c281b23	0.010260376
183	0x3deea303	0.11652186
184	0x3e261032	0.16217116
185	0xc00312c0	-2.0480194
186	0xbfad4357	-1.3536175
187	0xbf4b08ae	-0.7931012
188	0xbf83df9e	-1.0302618
189	0xbf35a546	-0.7095531
190	0x3fb8c8dd	1.4436299
191	0x3e82ebda	0.25570565
192	0x3eb3df2f	0.35131213
193	0xbe1493f7	-0.14509569
194	0x3ef076f9	0.4696577
195	0xbe9300ad	-0.28711453
196	0x3ca851fa	0.020546902
197	0xbd859de0	-0.06524253
198	0x3e13f4f3	0.1444891
199	0xbd158f66	-0.03651371
200	0x3e30caa6	0.17264804
201	0x3d388c15	0.045055468
202	0xbd3e35f9	-0.04643819
203	0x3ddcc066	0.107788846
204	0x3d8ce6a1	0.068799265
205	0xbd0a2bf1	-0.033733312
206	0xbe880178	-0.2656362
207	0x3da970ee	0.08273493
208	0xbe0f4f73	-0.13995151
209	0x3e68beb9	0.22729005
210	0xbc95b1b9	-0.018273221
211	0xbcf7e23c	-0.030259244
212	0xbcd1fad3	-0.025632298
213	0xbcef0b68	-0.029180244
214	0xbd5456e8	-0.051840693
215	0xbc9abd7f	-0.018889187
216	0xbc6af890	-0.0143414885
217	0x3ca66f5b	0.02031677
218	0xbd7642e1	-0.060122374
219	0xbdee6e98	-0.11642188
220	0xbf475f1d	-0.77879506
221	0xbf74de01	-0.9565125
222	0xbf38519e	-0.7199954
223	0xbe91a27d	-0.2844428
224	0xbf024aa7	-0.5089516
225	0x3d8d3d92	0.06896509
226	0xbdec6158	-0.11542004
227	0x3dbe078f	0.092787854
228	0x3e8ff816	0.28118962
229	0xbc9ddb8e	-0.01926973
230	0x3c2d11c4	0.010563318
231	0x3daca1ed	0.084293224
232	0xbc7d5e0e	-0.015464319
233	0xbeac03c3	-0.3359662
234	0x3e618525	0.22023447
235	0x3dbb12d7	0.09134453
236	0x3ec62177	0.38697407
237	0xbcd5990b	-0.026073953
238	0x3e47a277	0.19495569
239	0x3eaa8db9	0.3331125
240	0x3ee88e91	0.4542127
241	0xbe744148	-0.23853028
242	0x3dcdfc2d	0.10057864
243	0x3f018610	0.5059519
244	0x3f54f032	0.8317901
245	0x3d76bb15	0.06023701
246	0x3c7b83b2	0.015351223
247	0x3cb03d37	0.021513565
248	0x3d40ebdf	0.047099944
249	0x3c8d8d39	0.017279254
250	0x3caabef3	0.020843005
251	0x3ca92683	0.020648247
252	0x3c75bd13	0.014998692
253	0xbc9759ec	-0.018475495
254	0xbcee2f2b	-0.029075226
255	0xbfccff41	-1.6015397

critic.0.bias f4 [128]
0	0x3f5c7a15	0.8612378
1	0xbf546f6f	-0.82982534
2	0xbe26c823	-0.16287284
3	0xbe17d74c	-0.14828223
4	0xbf27f87b	-0.65613526
5	0xbf078c91	-0.5294886
6	0x3e1d0ba6	0.15336475
7	0xbf58d203	-0.8469545
8	0x3f1872d2	0.595502
9	0xbeb56ca1	-0.3543444
10	0x3f2c69a2	0.6734868
11	0x3d414b48	0.047190934
12	0x3f046c40	0.51727676
13	0x3e698c45	0.22807415
14	0x3e8d51a6	0.27601355
15	0x3da0e68f	0.078564756
16	0x3f86d7d9	1.0534621
17	0xbe94bdc2	-0.29051024
18	0xbf1c900d	-0.61157304
19	0x3f5e7163	0.86891764
20	0xbed551ca	-0.41663963
21	0xbf501c9d	-0.8129366
22	0xbf666a01	-0.900055
23	0x3eec35f6	0.4613492
24	0x3eb2cc2e	0.34921402
25	0xbf0d3738	-0.5516238
26	0x3b7e6434	0.003881705
27	0x3def9fd3	0.11700406
28	0x3ce2b18b	0.02767255
29	0x3eeefc03	0.46676645
30	0x3d15cfb4	0.036575034
31	0xbd67dd09	-0.05660728
32	0x3ce72da9	0.028220015
33	0xbea126e0	-0.31474972
34	0xbf0d07a1	-0.55089766
35	0xbdc9eedd	-0.09860013
36	0xbf53e5fa	-0.8277279
37	0xbd3a98c7	-0.045555856
38	0x3e850184	0.2597772
39	0x3dc590e5	0.09646777
40	0x3e86c806	0.2632448
41	0xbe7bb909	-0.24582304
42	0xbf1e168b	-0.6175315
43	0xbe7b9758	-0.24569452
44	0xbe393750	-0.18087506
45	0xbf83365a	-1.0250962
46	0xbbc99e36	-0.0061528934
47	0x3e80aa49	0.25129917
48	0xbc68627a	-0.014183635
49	0xbc7dfa9d	-0.015501645
50	0xbe98528a	-0.29750472
51	0x3bb7bfe2	0.005607591
52	0x3d0ef225	0.034898896
53	0xbf83ffd3	-1.0312446
54	0xbf062a52	-0.52408326
55	0xbdfd70af	-0.12375008
56	0xbe50c434	-0.20387346
57	0xbf2509a2	-0.64467824
58	0x3ed16078	0.40893912
59	0xbda4eacc	-0.080525964
60	0x3e0d8bb6	0.13822827
61	0x3e9702bd	0.29494277
62	0xbe3fa3fc	-0.18714899
63	0x3f05fb0c	0.5233619
64	0x3db76ec8	0.08956677
65	0xbf545419	-0.8294082
66	0xbf4dd40d	-0.8040169
67	0xbe55750e	-0.20845434
68	0x3d5a89fc	0.05335425
69	0x3e5236b5	0.20528682
70	0x3e9988ee	0.29987282
71	0x3f2ecb3a	0.6827885
72	0x3f1e26a1	0.61777693
73	0x3e8e93ff	0.27847287
74	0xbdb851f7	-0.090000086
75	0x3ef6abfe	0.48178095
76	0xbe0f9889	-0.14023031
77	0x3e5c2bee	0.21501133
78	0x3d91ae4f	0.07113325
79	0x3e99c97a	0.30036527
80	0x3d29db6b	0.04146902
81	0x3df011ca	0.11722143
82	0x3f4ccafd	0.79997236
83	0x3ea7b8f7	0.32758304
84	0xbde2c9fe	-0.11073683
85	0x3f5d4157	0.86427826
86	0x3d8d99b4	0.06914082
87	0x3e55e4fb	0.2088813
88	0x3ecd522e	0.4010176
89	0xbe253ce8	-0.16136515
90	0xbd932aa3	-0.07185867
91	0x3f2be56e	0.67146957
92	0xbe6247e3	-0.22097735
93	0xbebdaa4a	-0.37043983
94	0xbf3cf591	-0.73812205
95	0x3f333a82	0.7001115
96	0x3e44fcb3	0.19237022
97	0x3f18bf82	0.5966722
98	0xbf07ec1a	-0.5309464
99	0x3e1315cc	0.14363784
100	0xbe3db94e	-0.1852772
101	0xbf806fae	-1.0034082
102	0x3ef538c7	0.4789488
103	0x3f280709	0.65635735
104	0xbe5ba083	-0.21447949
105	0xbedf1f55	-0.43578592
106	0x3e3ca674	0.18422872
107	0x3d67436d	0.056460787
108	0xbe823a9c	-0.2543534
109	0x3e08f028	0.13372862
110	0xbf3896cb	-0.7210509
111	0x3f648ea4	0.8928015
112	0x3f99981f	1.1999549
113	0xbda47f77	-0.080321245
114	0xbfa2cb27	-1.2718247
115	0xbe31fe2f	-0.1738212
116	0x3f881559	1.0631515
117	0xbec682d6	-0.38771695
118	0x3eb72ecd	0.35777894
119	0xbe19ad86	-0.150076
120	0xbf387aed	-0.7206257
121	0x3dca4b17	0.098776035
122	0x3e0dd53b	0.13850872
123	0x3de3c5fe	0.111217484
124	0xbf00d225	-0.50320655
125	0xbec5534b	-0.3854011
126	0xbe3a81a4	-0.18213516
127	0x3dbec438	0.093147695

critic.2.weight f4 [64, 128]
0	0xbd337fcd	-0.043823052
1	0xbe13f8ec	-0.14450425
2	0x3d7317c7	0.059348848
3	0xbdaa5678	-0.08317274
4	0xbd1ca7d5	-0.038245995
5	0xbd7ab719	-0.06120977
6	0xbe01cef8	-0.12676609
7	0xbeaa707b	-0.3328894
8	0xbcb54fe8	-0.022132829
9	0xbde7110c	-0.11282548
10	0xbd118662	-0.035528548
11	0x3bf04870	0.007332854
12	0x3d7afdea	0.061277308
13	0xbd45bea5	-0.048277516
14	0xbe35d238	-0.17755973
15	0xbdfc2f1d	-0.12313674
16	0xbddf29bf	-0.10896634
17	0x3e2998d5	0.16562207
18	0xbe15323a	-0.14569941
19	0x3dd79824	0.105270654
20	0xbd97b567	-0.074076466
21	0x3d2c6077	0.042084184
22	0x3c48f4bb	0.01226538
23	0xbdee08f6	-0.11622803
24	0x3da3f5db	0.080058776
25	0xbdd6da98	-0.10490912
26	0x3d74c992	0.059762545
27	0x3dbceb40	0.09224558
28	0x3d634d2e	0.055493526
29	0xbc827d3e	-0.01592886
30	0x3d2cd9a9	0.042199764
31	0xbd9185b2	-0.071055785
32	0xbdb15b67	-0.08660012
33	0xbe21ecd5	-0.15813
34	0x3d12a48f	0.035801467
35	0x3df83d67	0.121210866
36	0xbdd3a3b0	-0.10333955
37	0x3d7628bc	0.06009744
38	0x3e0f0d73	0.13969974
39	0xbc99a4ea	-0.018755395
40	0xbcea21cc	-0.028580569
41	0x3dc5fed4	0.09667745
42	0x3dc15d69	0.09441645
43	0x3c3c029b	0.011475231
44	0xbe1032bd	-0.14081855
45	0xbe24b845	-0.16085918
46	0x3d3a6471	0.045505945
47	0xbda64599	-0.081187434
48	0x3cd5a9f2	0.026082013
49	0x3d0a7442	0.03380228
50	0xbbc675b3	-0.0060565113
51	0xbe2b565e	-0.16732165
52	0xbe3963a8	-0.18104422
53	0xbd9d77a5	-0.07688836
54	0xbe4e9dd3	-0.20177393
55	0x3dd74617	0.105114155
56	0x3d97a8c2	0.07405235
57	0xbce5f57b	-0.028071156
58	0x3dfb92dc	0.122838706
59	0xbe0d376c	-0.13790673
60	0xbc39a40d	-0.011330617
61	0x3d32c802	0.043647774
62	0x3aaad006	0.0013031967
63	0x3d6476f7	0.055777516
64	0x3d48bbef	0.049007352
65	0xbe0b8993	-0.13626699
66	0x3d16cb44	0.036814943
67	0xbcd9a50d	-0.02656796
68	0x3c55e90c	0.013056051
69	0x3d328b7f	0.043590065
70	0xbc7a9cff	-0.01529622
71	0x3dc526ec	0.096265644
72	0xbd997632	-0.07493247
73	0x3d9800f5	0.074220575
74	0x3e0c6241	0.13709356
75	0xbc913728	-0.017726496
76	0xbdc1ef92	-0.094695225
77	0x3e94a6fb	0.29033646
78	0x3d35c673	0.04437871
79	0x3e0e49bf	0.1389532
80	0x3da7ffbc	0.08203074
81	0x3d1c2abd	0.038126696
82	0xbdea3f4f	-0.114378564
83	0xbbe417d2	-0.0069608474
84	0x3c636852	0.013879852
85	0x3debefdc	0.11520359
86	0x3e064ae3	0.13114505
87	0x3d80de4a	0.06292398
88	0x3dfa1de2	0.12212731
89	0x3dacc310	0.08435643
90	0xbde03af0	-0.109487414
91	0x3d39d572	0.045369573
92	0xbdf9c682	-0.121960655
93	0xbc9f2dec	-0.019431077
94	0xbdc3716c	-0.09543118
95	0x3d22e53a	0.03976939
96	0xbe4ce27c	-0.20008272
97	0xbe020c77	-0.12700067
98	0xbd7cc4c9	-0.061711106
99	0xbdbf2e68	-0.09335023
100	0xbdd8bd3a	-0.10582967
101	0xbda1e7af	-0.07905518
102	0x3de38f62	0.111113325
103	0xbd955b6c	-0.07292828
104	0xbdbddc3f	-0.09270524
105	0xbd9d4838	-0.0767979
106	0x3e2148a2	0.15750363
107	0x3dd54995	0.10414425
108	0xbdb43eef	-0.08801066
109	0xbe2c1d61	-0.16808082
110	0xbcff883d	-0.031192893
111	0xbc37d08f	-0.011219158
112	0xbd92a737	-0.071608
113	0x3dbe4f1c	0.09292433
114	0xbe18f4ea	-0.14937177
115	0xbe72ab08	-0.23698056
116	0xbd448447	-0.047977712
117	0xbd41c961	-0.04731119
118	0xbd6a8c55	-0.057262737
119	0xbda1e333	-0.07904663
120	0xbd44a3aa	-0.048007645
121	0xbd811077	-0.063019685
122	0xbd10e363	-0.035373103
123	0xbe02d154	-0.12775165
124	0xbdc83add	-0.09776852
125	0x3cefc878	0.029270396
126	0x3d00d18c	0.03144984
127	0xbca9f457	-0.020746393
128	0xbe2233f0	-0.15840125
129	0xbe56f011	-0.20990016
130	0xbe0a6145	-0.13513668
131	0xbe411e38	-0.18859184
132	0x3e4cd23a	0.2000207
133	0x3d82a0ae	0.063783035
134	0xbddf0fd0	-0.10891688
135	0xbb794854	-0.0038037496
136	0xbd9bbc20	-0.07604241
137	0xbdc74358	-0.09729642
138	0xbe8de0ff	-0.2771072
139	0x3ea99d34	0.3312775
140	0xbd0b4736	-0.03400346
141	0x3de742ff	0.11292075
142	0xbe03ae6c	-0.12859505
143	0xbe861d68	-0.2619431
144	0xbe5eb865	-0.21750028
145	0x3dcdc603	0.10047533
146	0xbefb6edf	-0.49108025
147	0x3d0e3bbb	0.034724932
148	0xbdb063cb	-0.08612784
149	0xbd564347	-0.052310254
150	0xbd27005b	-0.040771823
151	0x3d8867c1	0.066604145
152	0xbe851e6f	-0.2599978
153	0xbe8a724c	-0.27040327
154	0xbe011b56	-0.12608084
155	0x3ba576ea	0.005049576
156	0xbbb80841	-0.0056162183
157	0xbeb89f03	-0.36058816
158	0xbec7b58f	-0.39005706
159	0x3dd8adb5	0.10580007
160	0xbe3295e9	-0.17439999
161	0xbd9816eb	-0.07426246
162	0xbd98a291	-0.07452882
163	0xbda37ef9	-0.079832025
164	0xbe7f9628	-0.24959624
165	0x3d53aeaa	0.051680245
166	0xbf2c1f21	-0.67235
167	0xbdfd6afe	-0.12373923
168	0xbe6c32c5	-0.23066242
169	0xbeb3edfa	-0.351425
170	0xbe5293a6	-0.20564136
171	0xbf15386f	-0.58289236
172	0xbd82e7d1	-0.06391872
173	0xbe6001f7	-0.2187575
174	0xbe309a00	-0.17246246
175	0xbd385e13	-0.04501159
176	0x3dd303d2	0.10303463
177	0x3c4994e8	0.012303568
178	0x3d77bccc	0.060482785
179	0xbe9bc99c	-0.30427253
180	0xbe3c2b9b	-0.18376009
181	0xbd17fe85	-0.037107963
182	0x3e2b874d	0.16750832
183	0xbe66ee5c	-0.22551864
184	0x3bc63790	0.006049104
185	0x3f105ac1	0.5638848
186	0xbe7e0442	-0.24806312
187	0xbe4b3999	-0.1984619
188	0xbdf7c261	-0.12097622
189	0xbd2549a9	-0.04035345
190	0x3c84f1a1	0.016228499
191	0xbf146965	-0.5797332
192	0x3e4194e1	0.18904449
193	0x3c967010	0.018363982
194	0xbe7ed17f	-0.24884604
195	0xbe705178	-0.23468578
196	0x3c8a63be	0.016893264
197	0xbe6f1482	-0.23347667
198	0x3df39cf8	0.11895174
199	0x3e92c642	0.28666884
200	0x3df807d9	0.12110872
201	0xbec07f3f	-0.3759708
202	0xbdd6475b	-0.10462829
203	0xbea32fb3	-0.3187233
204	0xbdc87369	-0.09787638
205	0x3e9a1240	0.3009205
206	0xbea677bd	-0.32513228
207	0x3e45edec	0.19329041
208	0xbe6e01b1	-0.23242833
209	0xbdf6d08d	-0.12051497
210	0xbd76950a	-0.06020073
211	0x3dd682fa	0.104742005
212	0x3d0802e7	0.033205893
213	0x3d503362	0.050830252
214	0x3cc532a5	0.024072
215	0xbe78b8d8	-0.24289262
216	0xbe86ce4b	-0.26329264
217	0x3ee3863d	0.44438353
218	0xbe51a52b	-0.20473163
219	0xbeaff202	-0.34364325
220	0xbe1d2c46	-0.1534892
221	0xbf075aba	-0.5287281
222	0xbe542eb5	-0.20720942
223	0xbd9ce415	-0.07660691
224	0xbe8c9ed4	-0.27464926
225	0xbe8fb03c	-0.28064144
226	0xbe742e64	-0.23845822
227	0xbe207e55	-0.15673192
228	0x3c289117	0.010288498
229	0xbda9670b	-0.08271607
230	0xbee6d15e	-0.4508161
231	0xbe073bd4	-0.13206416
232	0xbdfd40eb	-0.12365898
233	0xbe59e956	-0.21280417
234	0x3d5ef90b	0.054436725
235	0xbeb5d22b	-0.35511908
236	0x3dce0db5	0.10061208
237	0xbded5c2c	-0.11589846
238	0xbdcfe184	-0.101504356
239	0xbec7ce72	-0.39024693
240	0xbf80ecb7	-1.007224
241	0x3d83d598	0.06437224
242	0x3c913d17	0.017729325
243	0xbf0f39a1	-0.5594731
244	0x3ed3dd1a	0.41379625
245	0x3dbd617b	0.092471085
246	0x3c864f68	0.016395286
247	0x3ddde407	0.108345084
248	0xbf11d646	-0.5696758
249	0xbe4a754a	-0.19771305
250	0xbe97b077	-0.2962682
251	0x3de48e10	0.11159909
252	0xbe091901	-0.13388444
253	0xbe0c8727	-0.13723432
254	0xbd70d4a4	-0.05879654
255	0xbd0dc38b	-0.034610312

critic.2.bias f4 [64]
0	0xbc82e557	-0.015978498
1	0x3e40729b	0.18793719
2	0x394d8d76	0.00019603022
3	0xbf44e04e	-0.7690476
4	0x3dffb46b	0.12485584
5	0x3db2eed3	0.08736958
6	0x3ca3b138	0.019981965
7	0xbadbb6f9	-0.0016762904
8	0x3d863cbd	0.06554554
9	0xbc141a09	-0.00903941
10	0xbde9c47c	-0.114144295
11	0xbf16d946	-0.5892528
12	0x3d2c0ec3	0.042006265
13	0x3cf3b55d	0.029749567
14	0xbecf7c87	-0.40524694
15	0x3e00fa89	0.12595572
16	0xbab411d3	-0.0013738222
17	0x3d26b25d	0.040697444
18	0x3de6420e	0.11243068
19	0x3d52218d	0.051301528
20	0x3bf6c52f	0.0075308303
21	0xbe094af8	-0.13407505
22	0xbcb192a7	-0.021676375
23	0xbde00856	-0.1093909
24	0x3d97f82a	0.074203804
25	0x3d29d4ac	0.041462585
26	0x3e1c4aa2	0.15262845
27	0xbc23d660	-0.009999841
28	0xbd4b28d6	-0.04959949
29	0xbe4753bb	-0.19465534
30	0x3da00302	0.07813074
31	0x3d100780	0.035163403
32	0x3e082e81	0.1329899
33	0xbe523b69	-0.20530476
34	0xbe7250e2	-0.23663667
35	0xbd4dd097	-0.050247755
36	0xbd8fa8dd	-0.0701463
37	0xbe8f24b7	-0.279577
38	0xbd125aad	-0.035731006
39	0xbdfad8bf	-0.12248372
40	0xbe289a1d	-0.1646504
41	0x3dc26f36	0.09493868
42	0x3eaffb40	0.34371376
43	0x3ddfea28	0.10933334
44	0xbdbfbd62	-0.09362294
45	0xbde4cea5	-0.11172227
46	0x3e067621	0.13131
47	0xbedb4b1d	-0.42830744
48	0x3e115f1a	0.14196435
49	0xbd0792e8	-0.033099085
50	0x3ea1b5df	0.3158407
51	0xbe2036aa	-0.15645853
52	0xbcc29eb9	-0.023757325
53	0x3d926fd9	0.071502395
54	0x3c806c8f	0.015676765
55	0xbdf18162	-0.11792256
56	0x3e010382	0.12598994
57	0xbc714848	-0.014726706
58	0xbcf4388a	-0.029812116
59	0xbe0e41be	-0.13892266
60	0x3d77c9ce	0.06049519
61	0xbd9b7ecd	-0.07592545
62	0x3daff4ff	0.08591651
63	0x3d86c4a2	0.065804735

critic.4.weight f4 [1, 64]
0	0xbea47c5a	-0.32126123
1	0x3f0f046d	0.5586613
2	0xbf0c4f2f	-0.54808325
3	0x3ea1419d	0.3149537
4	0xbf081896	-0.53162515
5	0xbeacfbc7	-0.3378584
6	0xbef2007c	-0.47265995
7	0xbeff7507	-0.49893972
8	0x3ec14b32	0.37752682
9	0x3c0aaca2	0.00846401
10	0x3da77910	0.08177388
11	0x3dcdeec6	0.10055308
12	0xbe0f5268	-0.13996279
13	0x3e613650	0.21993375
14	0x3f039a62	0.51407444
15	0x3f1518e6	0.58241117
16	0xbebd423a	-0.3696459
17	0xbe941b96	-0.28927296
18	0x3e15bcea	0.14622846
19	0xbe08f5de	-0.13375041
20	0x3d9dcd69	0.077051945
21	0x3f10a61d	0.5650347
22	0x3ee91497	0.4552352
23	0xbecdc4d8	-0.40189242
24	0x3ecaa25d	0.39576998
25	0x3f329cf2	0.6977073
26	0x3f01befc	0.50682044
27	0xbdbbb1c6	-0.09164767
28	0x3edf69d1	0.4363542
29	0xbe1a7d98	-0.15086973
30	0x3ec9ca9d	0.39412394
31	0xbe6d4e4d	-0.231744
32	0x3ea2073e	0.3164615
33	0x3edb1f85	0.42797485
34	0x3edcbe71	0.43114045
35	0xbdf157d8	-0.11784333
36	0x3df55a7d	0.1198015
37	0x3f148e7b	0.5802991
38	0x3ed7173f	0.42009923
39	0xbe65e938	-0.22452247
40	0xbf0cba09	-0.5497137
41	0xbe25edf8	-0.16204059
42	0xbde89427	-0.11356383
43	0xbf2a93a1	-0.66631514
44	0x3e3164cd	0.17323609
45	0xbefdfd77	-0.4960744
46	0xbec1baa5	-0.3783771
47	0x3f01bc2a	0.5067774
48	0x3eba5cce	0.3639893
49	0x3eca7b19	0.3954704
50	0xbdfc755e	-0.123270735
51	0x3f02223e	0.508335
52	0xbe98016a	-0.2968858
53	0xbdfab9e3	-0.12242486
54	0xbea96a93	-0.33089122
55	0xbdb78cbb	-0.08962389
56	0xbeec27ad	-0.4612402
57	0x3ea280a5	0.31738773
58	0x3ee30be7	0.44345018
59	0x3f0a7503	0.54084796
60	0x3e299e9f	0.16564415
61	0x3ed93fde	0.4243154
62	0x3e04bced	0.12962694
63	0x3dc392b4	0.09549466
