PPO_preTrained/20220510/PPO_20220510_0_1750.pth (torch, 110785 bytes, 11 tensors)

actor.0.weight f4 [128, 35]
000000 6a bb 1b 3e 53 b5 f3 bd 8c d7 2f 3e d4 9c 00 3e
       0.15208212 -0.11899819 0.17172068 0.12559825
000010 10 41 14 be 78 48 30 bc 9b 6d 94 39 92 d6 13 3e
       -0.14477944 -0.010759465 0.00028310422 0.14437321
000020 97 37 ae bd ba 52 4a 3d 72 b1 43 3e 3d ac 49 3e
       -0.08506697 0.0493953 0.19110659 0.1969461
000030 8b af e6 bd 99 4e 86 bf 42 bd 4a 3f cb a0 10 be
       -0.11263951 -1.0492736 0.79195035 -0.14123838
000040 4a 51 1c 3d 4c 7c 82 3d 9d 49 f9 3d 34 8e db bd
       0.03816346 0.06371364 0.12172244 -0.107204825
000050 31 e1 c5 3d 72 7b 39 bc 21 f2 2a 3d 4b 9b e0 bb
       0.096620925 -0.011320936 0.04173482 -0.00685445
000060 e6 df 85 bd f3 75 7c bd 1b 39 a5 3c 87 f7 64 3e
       -0.06536846 -0.061635923 0.020168832 0.22360049
000070 3d ed c0 3d ae 56 6e 3d 94 b0 a7 3e 76 53 75 3e
       0.094202496 0.058188133 0.32751906 0.23957619
000080 0a fc 07 bd 2f 64 63 bf 28 c9 6c bc 5b c9 ae 3d
       -0.033199348 -0.88824743 -0.014452256 0.08534499
000090 9c 01 30 3d eb 41 a7 3d c7 63 5d 3d ad 4b 94 3d
       0.042970285 0.0816687 0.054050233 0.072409965
0000a0 9d 58 6b 3e 4c dd 04 3e c9 e1 4e bd a1 62 57 3e
       0.22983022 0.12975043 -0.050508294 0.21033718
0000b0 fd 88 1e 3e 93 df 2d bf bb e0 a8 bd e0 92 08 3e
       0.15481944 -0.6791927 -0.08245989 0.13337278
0000c0 3b d1 2d bf a4 41 a9 3f 85 9d 8d 3e 65 6e 1c 3e
       -0.67897385 1.3223157 0.2765924 0.15276487
0000d0 dd 32 13 3e f6 2b 13 3e 8f 34 d4 3d c8 6f 98 3e
       0.14374872 0.14372239 0.10361587 0.29772782
0000e0 6d c9 ae bd 2d 44 34 be 5b da 00 be 85 06 84 bb
       -0.08534513 -0.17604132 -0.12583296 -0.0040290975
0000f0 c9 62 e7 bc 4c 75 a6 3d 9e be 5a 3d 06 de 36 3e
       -0.028245347 0.08127841 0.053404443 0.17858133
000100 2a ee 1a bd dc d7 fd 3d 6a 78 f4 3d 14 d1 fb bd
       -0.037824787 0.123946875 0.1193703 -0.12295738
000110 9a 8d 1a 3e a8 a5 9b be 99 7d 14 be 53 ed b1 bd
       0.15093079 -0.30399823 -0.14501037 -0.08687844
000120 46 ee a8 3d 15 90 26 3e d9 19 38 bc da 14 e6 3d
       0.08248572 0.162659 -0.011236631 0.11234446
000130 3b 0a 05 3d 88 12 f3 bd 10 63 ef 3d 1f d0 09 3e
       0.03248046 -0.11868769 0.116888165 0.13458298
000140 a1 90 74 3f 3a 39 a5 3e d8 4d 0f bf 5e 97 6b 3f
       0.95533186 0.32270223 -0.55978155 0.92027843
000150 ba 5a a0 bf 8a c5 0a be 3e 06 7c bd 83 b2 82 3e
       -1.2527688 -0.13551918 -0.06152939 0.2552682
000160 4d 2d 4e 3e 7a 3c c1 3e cc 61 75 be 9c 7e 08 3e
       0.20134468 0.37741452 -0.23963088 0.13329548
000170 53 c2 ac 3d b2 e7 fe 3d 63 26 16 be df 18 96 3b
       0.08435502 0.12446536 -0.14663081 0.0045806016
000180 26 c2 dc 3d 5f 8a 8c bd 56 20 6d 3d b8 3b e1 3d
       0.107792184 -0.0686233 0.057892166 0.109977186
000190 58 bf b6 bd c8 b5 d9 3d 8e 5e 99 3e b1 1d 91 3d
       -0.08923215 0.10630375 0.29954952 0.07085741
0001a0 10 e7 e7 3d 01 57 8b bc 0f 92 eb 3d aa ae ea bd
       0.113233685 -0.01700926 0.11502468 -0.11459096
0001b0 de de f5 bc 94 20 d4 3d c3 46 72 3e c9 6e 29 bd
       -0.030013498 0.10357776 0.23659806 -0.04136542
0001c0 74 5c 3e 3e f1 ac 16 3d 0d 10 e2 bd 6b 23 4d be
       0.18589956 0.036786024 -0.11038218 -0.20033042
0001d0 ec 69 ce 3d d9 56 22 3f 45 97 e6 be 47 ca f9 3e
       0.10078797 0.6341377 -0.45037284 0.48787138
0001e0 61 bc 5d 3f 88 7b 68 3d 24 1a fc 3d 38 bc 43 3e
       0.8661557 0.056758434 0.123096734 0.19114769
0001f0 4f be 97 3c 6b 8c a5 bd e6 23 0e bc 01 ae 45 3e
       0.018523363 -0.08083423 -0.008675551 0.19304658
000200 d1 6d 7c bb 01 4c 43 3e 7d 93 2e bd 86 c3 53 3c
       -0.0038517604 0.19071962 -0.042621125 0.012925034
000210 ac c2 fa 3c 66 9f 6d be 2e e4 80 3e 11 99 8e bd
       0.030610405 -0.23205337 0.25174087 -0.06962789
000220 5c 50 9f 3e 34 c6 a9 3e 3f 57 1d 3e d2 b6 5c 3c
       0.31115997 0.3315903 0.15365313 0.013471322
000230 84 f6 4e bd bf 66 3a 3e af b2 9b bd f8 70 d1 bd
       -0.050528064 0.18203257 -0.076024406 -0.10226625
000240 73 c7 96 bc 16 5a eb 3d a0 cd 31 3a 46 c7 be bd
       -0.018405652 0.11491792 0.00067826547 -0.09315352
000250 90 4a 5f bd 31 a2 16 3d c6 b1 87 3d 31 f9 31 be
       -0.054514468 0.03677577 0.066257045 -0.17380215
000260 e8 95 09 bf b5 33 93 3d 19 6b 1a c0 fb 93 0d bf
       -0.53744364 0.07187597 -2.4127867 -0.55303925
000270 e4 23 1d 3d 97 11 5c 3e c1 fe 4f 3e e2 2c 10 3e
       0.038364306 0.21491085 0.20312025 0.14079621
000280 d8 8a 91 3e 3d 88 56 3e 7d 52 01 be 22 5b c4 3d
       0.28426242 0.20950408 -0.12629123 0.09587695
000290 b6 21 8b bd 89 1d fd 3d 3f 34 81 3d d1 63 a3 3d
       -0.06793539 0.12359149 0.06308793 0.07978023
0002a0 06 9c ae 3d b2 82 46 3a ea d3 bf 3d 5e 7e 5e bd
       0.08525853 0.00075725757 0.09366591 -0.054319732
0002b0 e5 ca 20 3f c5 74 93 be 60 0d 73 3e da c1 07 3b
       0.6280959 -0.28800026 0.23735571 0.002071491
0002c0 f8 95 54 3e 7c 68 c1 3d 78 ff 68 3e fa b8 1a be
       0.20760334 0.09443757 0.22753704 -0.15109625
0002d0 19 ae 2f 3d 76 bb 71 3e 99 a4 6c 3e 5b e9 33 3e
       0.04289064 0.23606667 0.23109664 0.17569487
0002e0 60 6c c8 3d 41 80 28 bd 49 47 8c 3c 88 b0 49 bf
       0.09786296 -0.041137937 0.017123835 -0.7878499
0002f0 ae 5d 8e bd b7 9a fc be 57 08 a0 be a0 d7 b7 3d
       -0.06951462 -0.49336788 -0.31256363 0.08976674
000300 16 b6 1b 3d 3b 7c 60 bc e3 c6 3d 3d c3 2c 39 be
       0.038015448 -0.013701494 0.04633225 -0.18083481
000310 ec 86 bb 3d f0 a0 4a be 15 67 9a bd 0a c5 9a ba
       0.09156594 -0.19787955 -0.075391926 -0.001180799
000320 03 81 c7 3d da 17 fc 3c f4 53 ce 3d 81 ce 28 3d
       0.09741404 0.030773092 0.100746065 0.041212562
000330 3d 42 4c be 9b 90 d8 3d 7c 91 c5 3d 07 8c 27 be
       -0.19947143 0.10574456 0.096468896 -0.1636201
000340 5f b0 4a 3e d6 13 22 bd 64 68 38 3a 0a fd 00 3e
       0.19793843 -0.0395697 0.00070345984 0.12596527
000350 6c 32 be bd 6c 95 13 3d 9d 7b 8c 3d 76 40 db bd
       -0.09286961 0.03603117 0.06859515 -0.10705654
000360 7d ad a5 3d 84 44 9f 3d 0d fd 96 3d 03 be 00 3e
       0.08089731 0.0777674 0.07372484 0.12572484
000370 d9 50 51 3f 44 f5 05 3d b6 50 8d 3d 6b aa 10 be
       0.8176399 0.032704607 0.0690016 -0.1412751
000380 0c 72 8a be b3 d6 21 3e 8c 85 6e bc 8f 24 2c 3e
       -0.27040136 0.15804558 -0.014558207 0.16810821
000390 67 c7 a4 bd 35 ca 95 bd 4d e2 8d be 0f 96 01 3d
       -0.080458455 -0.073139586 -0.27711716 0.031637248
0003a0 47 82 d3 bd 51 57 88 bd 5f e4 56 be 87 c3 a6 3d
       -0.10327583 -0.06657279 -0.20985554 0.08142763
0003b0 fe 99 68 3d 2a 02 40 be 9d e0 83 3d d2 ce 1a 3e
       0.056787483 -0.18750826 0.06439326 0.15117958
0003c0 a8 05 46 bf 70 9f 81 3e 8f bc 68 3c cc 31 12 3c
       -0.7735238 0.25316954 0.014205112 0.008923005
0003d0 a9 d2 4e be 89 28 31 3e 49 4f f5 3d 60 ca c7 bd
       -0.20197548 0.17300619 0.11978013 -0.09755397
0003e0 bb 87 5f bc f1 ee 06 3e d6 f7 2a 3e 34 86 e8 bb
       -0.0136432005 0.13177086 0.16696104 -0.0070960764
0003f0 1b 52 8b bd 28 65 2b 3e dd da b4 3e a6 ba 2d bf
       -0.0680277 0.16737807 0.3532323 -0.6786293

actor.0.bias f4 [128]
000000 59 da 24 3d 6a a9 d4 bd 65 39 3f 3e 36 1c d3 bd
       0.040247295 -0.10383876 0.18674238 -0.10308115
000010 1a a4 ad 3b 35 47 a7 bd c9 12 0c 3e de 6e 9d be
       0.0052991034 -0.081678785 0.13679041 -0.30748647
000020 9e 42 98 3a b9 42 26 3c 6b e1 0d 3e 6e 2c 0b 3e
       0.0011616533 0.010147744 0.13855521 0.13591167
000030 c8 23 e5 3c 10 be 41 be b4 d3 c6 3d 64 89 9d 3e
       0.027971163 -0.1892016 0.09708348 0.30768883
000040 72 53 8e 3d 58 d7 6c 3e 32 9e bd 3e 2c 6d 45 3d
       0.0694951 0.23129022 0.37034756 0.048199818
000050 b5 70 5c 3c b9 9b 20 be d1 45 63 3d 66 01 aa 3d
       0.013454606 -0.15684403 0.055486504 0.08301048
000060 7e 56 56 be d9 32 38 3e 9f 6f 79 3d 82 8a 9e 3e
       -0.20931432 0.17988147 0.060897466 0.30965048
000070 69 6a 52 be 3e 82 34 be 8c ec fa bd 5f a2 5e be
       -0.20548405 -0.17627808 -0.12252149 -0.21741627
000080 f4 4d 80 3c df 86 c6 3e c1 93 84 bd 12 09 dc bd
       0.015662171 0.38774773 -0.06473494 -0.107439175
000090 ac 31 3b 3c 2a 3b ca bd 75 76 17 3e 4e a1 6c 3e
       0.011425417 -0.09874566 0.14791282 0.23108408
0000a0 a5 d8 76 3e 80 c6 54 3e af 04 48 3d f8 38 17 bd
       0.24106081 0.20778847 0.04883259 -0.036919564
0000b0 b2 e7 8c 3e ce 96 3f 3e f6 e4 1f 3e cc 24 b9 bd
       0.2752052 0.18709871 0.15614685 -0.090402216
0000c0 29 ce 83 3e 85 a2 9d 3e 73 d0 84 3d c8 b2 f8 bc
       0.25743225 0.30788055 0.06485071 -0.030358687
0000d0 bf 96 41 bc 0c 37 c3 3c 97 3d 69 3d bd ce 09 3e
       -0.011815726 0.02382996 0.056943502 0.1345777
0000e0 6a 55 5f 3e 1b 07 11 be 9b cc 5b be 43 56 25 3e
       0.21809927 -0.14162867 -0.2146477 0.16146187
0000f0 ee 78 f0 bd 39 1a f0 bd 80 a6 8e 3e 4f d6 8f 3e
       -0.117418155 -0.117237516 0.27861404 0.28093192
000100 9d 86 c6 bd 42 00 52 3e 86 4d 30 3e c5 e3 a4 3d
       -0.09693644 0.20507911 0.17217073 0.08051256
000110 ee 42 da bd 45 39 96 bd ff cb 78 bd 64 94 66 3e
       -0.10657297 -0.07335142 -0.06074142 0.22517544
000120 af 13 45 bc b9 3b 0b be ea 46 92 be 37 95 59 bd
       -0.012028619 -0.13597001 -0.28569728 -0.053120818
000130 b2 2b 8f be 18 37 3a be 02 54 20 be 36 04 61 3d
       -0.27963024 -0.18185079 -0.15657046 0.054935656
000140 79 45 66 3e 19 db 2a 3e 55 0e 9d be fe f3 db bd
       0.22487439 0.16685142 -0.30674997 -0.10739897
000150 d9 84 a0 3c 44 37 d6 bd 54 65 27 be d6 f4 bb bb
       0.019594597 -0.1045976 -0.16347247 -0.005735974
000160 0d 0a 60 3e 5f 4b eb 3d 7d 31 ca 3c 26 82 96 3e
       0.21878834 0.11488985 0.024681801 0.2939617
000170 a6 15 3f bd 4d 0e d2 bd f8 9d a2 3d e8 cb 0a 3d
       -0.046651505 -0.10256634 0.079402864 0.033885866
000180 9f fe 9e 3d 73 f0 b1 bc 32 ce 17 bc d5 73 37 be
       0.07763409 -0.0217211 -0.009265469 -0.1791528
000190 fe 6c 83 bd 52 5f 8a 3e 18 27 2d 3c 08 dd e1 bb
       -0.06417273 0.2702585 0.010568403 -0.006892804
0001a0 7c cf b9 3c 56 e8 e2 3d ae 63 12 3e b2 82 f0 3d
       0.022681944 0.11079471 0.14295837 0.11743678
0001b0 38 a4 e6 3c 45 09 8b be cd 58 45 be ba 6b 90 3e
       0.028154477 -0.2715551 -0.19272156 0.2820719
0001c0 27 17 ea 3d 06 f7 96 bc e7 d2 c3 3b f5 bb 67 be
       0.11430197 -0.018428337 0.0059760693 -0.22630294
0001d0 17 fd e8 bd 6b a6 41 3e 1f 76 30 be c1 78 ac 3e
       -0.11376398 0.1891114 -0.1723256 0.33685878
0001e0 88 34 d8 3d a2 32 85 3e 17 c3 83 3e 6f 3f af 3e
       0.105568945 0.26015192 0.2573478 0.34228083
0001f0 09 00 30 be c2 52 cf 3d 36 bf 8e 3e e3 08 9b 3c
       -0.17187513 0.10123207 0.27880257 0.018925136

actor.2.weight f4 [64, 128]
000000 67 2f a4 be 11 81 49 3d 0c d6 57 3d 4d 74 94 bd
       -0.32067415 0.049195353 0.052694365 -0.07248745
000010 1e 35 07 3e e5 1d 8a bc 8c af 22 be b3 7f a4 be
       0.13203856 -0.016859958 -0.15887278 -0.32128677
000020 0b c5 31 3e d8 e8 f9 bc 48 d2 fb 3d 58 6a 2a 3e
       0.17360322 -0.030506536 0.12295967 0.1664213
000030 aa 18 70 3b 1d 72 ae bc 63 b5 62 3d ce 69 56 3d
       0.0036635795 -0.021294648 0.055348765 0.052346997
000040 19 e5 0c 3f 02 e2 75 be 40 5f 0e 3e 22 01 88 3d
       0.55037075 -0.24011996 0.13903522 0.06640841
000050 57 2a 52 be 9c 7c 17 be c7 ee b8 bc 5f 6b 4b bc
       -0.20523964 -0.14793628 -0.022574795 -0.012415736
000060 15 77 4a 3d b2 0f 0c 3e 6a 96 f0 bd 8c 11 a6 3d
       0.04942997 0.13677862 -0.11747439 0.081088156
000070 6f 0c 62 bb b5 ff ef 3c 0d 88 6c 3b 6d b9 fe 3b
       -0.0034492274 0.029296735 0.0036091835 0.0077735693
000080 f6 98 86 3e 59 aa 8d be 6d b3 3e bc f6 cb 24 3e
       0.26288575 -0.27669027 -0.011639458 0.1609343
000090 02 c0 d8 bb a9 41 48 3d 17 28 0f be ac 07 88 bd
       -0.006614686 0.048890743 -0.13980137 -0.06642088
0000a0 51 27 7a be 91 d5 72 be 3b b2 f6 3d 4d 95 b8 3e
       -0.2442906 -0.23714282 0.120457135 0.36051407
0000b0 af 43 8e 3d e7 61 2a 3e f2 af 5a be 36 6b 0f be
       0.06946503 0.1663891 -0.2135618 -0.14005741
0000c0 66 24 ab be df 75 ba 3b ce f5 f9 bb 6c fc 92 bd
       -0.33426207 0.005690321 -0.007628179 -0.07177052
0000d0 81 f3 91 3c 02 77 98 3d 43 fc 1a be e2 dd 63 bd
       0.017816307 0.07444574 -0.15135293 -0.055631526
0000e0 89 de 25 3e f3 5d 73 3e 36 7e df bc 17 ca 3c be
       0.16198172 0.23766308 -0.027281862 -0.18436466
0000f0 b0 7c b1 bc 74 d0 34 3e eb 7f 9c 3d 04 66 04 be
       -0.021665901 0.17657644 0.07641586 -0.12929541
000100 6f c7 4e bc d2 c2 4d bd 80 7b 2c ba 06 cc 70 3d
       -0.012620791 -0.050234623 -0.0006579682 0.058788322
000110 7f 70 3a 3c 91 c7 e2 bd a7 8e 86 3c dd 08 16 3e
       0.01137936 -0.110732205 0.016425444 0.14651819
000120 1b 91 00 be de 76 2d 3e 23 3a d3 bd 57 7e aa 3e
       -0.12555353 0.16939875 -0.10313823 0.33299515
000130 1c 22 78 3d a0 c7 48 3c b1 18 e6 3d 16 28 2e 3e
       0.060579404 0.012254626 0.11235178 0.17007479
000140 df a8 7d 3e 39 2a ae bd d7 db 51 bd 6e 56 7a be
       0.2477145 -0.08504147 -0.051235046 -0.24447033
000150 e2 d7 eb 3c 52 3a 6a be e9 2e 74 3c a3 10 41 bd
       0.028789464 -0.2287381 0.014903762 -0.047135007
000160 93 dc 13 3e 67 0b 9d be 37 62 a1 3e a2 23 fc bc
       0.14439611 -0.30672762 0.31520244 -0.03077871
000170 4c 21 fc bd ab 21 a4 bd 6f 26 f5 3d 01 39 ea 3d
       -0.123110384 -0.08014234 0.11970221 0.11436654
000180 46 c3 9b be 53 5a 7f bc d4 66 8c 3d 58 8a 73 3d
       -0.3042242 -0.0155855 0.068555504 0.059458107
000190 78 4d 09 be 77 49 2a bd 2d ad 93 bc a1 d4 e3 3e
       -0.13408458 -0.041573968 -0.018026913 0.4449816
0001a0 84 71 d2 bd c2 3f 53 be 07 fd b6 3e d7 a0 ba bd
       -0.10275558 -0.2062979 0.3573992 -0.09112709
0001b0 0c f8 9b be e4 85 87 3d 79 65 e3 3d c1 b2 fc bd
       -0.30462682 0.066173345 0.11103339 -0.12338782
0001c0 b6 37 0d 3e 8b e9 67 3e df 8a 2e be 68 eb 57 3e
       0.13790783 0.22647683 -0.17045163 0.21085894
0001d0 7a be 0b be 92 fd 25 3e dc ad 04 bd ca 46 45 3e
       -0.1364688 0.1621001 -0.032392368 0.19265285
0001e0 46 6e 18 bd 80 fc b4 bd a8 f9 1e be ad e6 8c bd
       -0.03721454 -0.08837223 -0.15524924 -0.068799354
0001f0 b0 72 d5 3d 36 e5 2f bd 52 5f a9 3d 75 87 36 bd
       0.104222655 -0.042943202 0.08270134 -0.044562776
000200 e6 c8 86 3d 38 30 23 bd 22 5b 99 3d a3 60 40 bd
       0.06581287 -0.039840907 0.07488085 -0.04696716
000210 48 77 d2 bd 8f 28 0f 3e 1b 62 62 3d 64 f9 53 be
       -0.10276657 0.13980316 0.055269342 -0.20700604
000220 66 78 98 3d 7b 60 15 be 15 33 1c 3f 5f fd 5b be
       0.07444839 -0.14587586 0.61015445 -0.21483372
000230 10 1d 8f bc e2 49 a9 bb 03 92 4a be eb 5f 92 3e
       -0.017469913 -0.005166278 -0.19782262 0.28588805
000240 81 bc 0e bf 1d 01 07 be da 2e 3f bd 64 92 78 be
       -0.55756384 -0.13184018 -0.04667554 -0.24274594
000250 b1 0d d9 3c a7 58 8c be 72 e3 09 be a6 62 96 3e
       0.026495786 -0.27411386 -0.1346567 0.29372138
000260 d6 5c 31 bd 9c dc 0b ba e5 fe 5f 3d fe 5e 82 be
       -0.043301426 -0.00053353026 0.054686446 -0.25463098
000270 af b3 55 bc 66 fe ae 3d 0d 68 79 be fc 80 3f 3e
       -0.013043328 0.085446164 -0.24356098 0.18701547
000280 86 8f 5e 3e 95 b3 c6 3c 91 b8 b0 be 74 f2 d9 bc
       0.21734437 0.024255553 -0.34515813 -0.026604868
000290 c9 81 e6 bd 79 2b 9a bc 50 c8 9b bd dc ce 58 be
       -0.11255223 -0.018819558 -0.07606566 -0.2117266
0002a0 45 35 22 bf 0f 8e 2d 3e e5 d8 8d bc f3 42 76 3e
       -0.6336253 0.16948722 -0.017315337 0.24048977
0002b0 c1 99 23 be 9e c8 82 bd cf bb f7 bd ad 41 4d bd
       -0.15976621 -0.06385921 -0.120963685 -0.05011146
0002c0 d4 4e c9 3c d3 51 4e 3c e5 c2 03 3c eb 94 4d 3e
       0.024573721 0.012592751 0.008042072 0.20076339
0002d0 37 15 9e 3e 1c 7c de 3d 3e 8e 9b bc 43 c2 5c be
       0.3087556 0.10863516 -0.018988725 -0.2155848
0002e0 ad 16 bb bd 1d 78 22 3e 30 89 3d be 29 01 7d 3c
       -0.091351844 0.15866132 -0.18509364 0.015442171
0002f0 fb 9e 76 3e b4 9e 91 bc ba e6 3b 3e c6 d1 0a bd
       0.24084084 -0.01777587 0.18349734 -0.03389146
000300 6d 12 58 3e c8 39 1f 3d 4f 8c 60 be bf 69 b1 3d
       0.21100779 0.038873464 -0.21928523 0.086627476
000310 13 f2 bb 3c 38 8c e5 3d 63 a5 32 3e eb da 28 3e
       0.022942578 0.11208385 0.17445903 0.1648976
000320 03 23 e0 bd b6 eb ce 3d 7f 7c 2c be 39 5c 5d be
       -0.10944178 0.10103552 -0.16844366 -0.21617211
000330 83 6f 91 bd 8c 6a c1 3d 84 c3 06 3d d4 86 39 bd
       -0.07101347 0.0944415 0.032901302 -0.045294598
000340 15 aa 01 be ae 1a e4 bd be 84 35 3d 59 16 6d 3e
       -0.12662537 -0.11137901 0.044316046 0.23153056
000350 17 d2 a5 be 37 f8 f3 bd 26 7e e7 bd a0 fe d9 3d
       -0.32386848 -0.119125776 -0.11303358 0.10644269
000360 bd 1a 0c be e0 77 46 bd 1b cd b4 bd 6d 76 6d bd
       -0.13682075 -0.048454165 -0.08828183 -0.057974268
000370 e8 9c f6 bd 8d 7d 97 3e 61 2e c5 be 9d e6 f4 3a
       -0.12041646 0.29587975 -0.38511947 0.0018684451
000380 82 c4 25 bd c2 0c ae be c8 11 d3 bd 5b 04 51 3f
       -0.040470608 -0.33994108 -0.10306126 0.8164727
000390 88 92 89 3e 9c 77 e1 bc a9 84 04 be 63 4d bb 3e
       0.26869607 -0.027522855 -0.12941231 0.3658248
0003a0 2a 9c 49 be bf 4c 73 3d 2a fd a6 3c ff f8 13 3e
       -0.19688478 0.059399363 0.02038439 0.14450453
0003b0 44 e3 b3 bd 04 e3 21 3d 82 e4 f9 bc 5b 64 b0 bc
       -0.08783582 0.03952314 -0.030504469 -0.021532228
0003c0 a5 86 25 bd 50 8b 95 3e 83 1a e1 bd ea 9e b1 3c
       -0.04041161 0.2920785 -0.10991385 0.021682221
0003d0 71 98 b2 3e d8 07 80 be e5 e6 fc bb 6d 59 c3 bd
       0.3488193 -0.25005984 -0.0077179545 -0.09538541
0003e0 0e 6e 86 be 94 66 5e 3e 2d 97 ea 3d 54 cd d9 3d
       -0.2625584 0.21718818 0.11454616 0.10634866
0003f0 55 bf ce bd da 8c 7e 3e a4 60 0a be 63 71 43 be
       -0.100950874 0.24858418 -0.13513428 -0.19086222

actor.2.bias f4 [64]
000000 ed c6 98 3d 91 47 4f 3d c4 3c 01 3e 39 35 3a 3e
       0.07459817 0.05060536 0.12620836 0.18184365
000010 55 8e 80 3e 08 39 21 3e 13 43 95 bd 90 2c 53 3d
       0.2510859 0.15744412 -0.07288184 0.05155617
000020 77 1f 63 3d b2 90 e6 bd dc d6 05 be ad 28 2f 3e
       0.05544993 -0.11258067 -0.13070244 0.1710536
000030 09 95 05 3d f9 3a 98 3c 17 11 aa 3d c5 20 11 bd
       0.032612834 0.018582808 0.08304041 -0.035431642
000040 bc 8d 80 3b 0e 0e d5 3d 89 fc 03 3e 52 77 27 3d
       0.003923146 0.10403071 0.12889303 0.040885277
000050 c2 71 00 bd 3e 77 9b 3d ae 43 b1 bd 15 72 3b 3e
       -0.031358488 0.07591103 -0.08655487 0.18305238
000060 09 33 62 bc 1f cc 52 bd 35 5b 22 bd 2d 7a 59 3d
       -0.013806113 -0.051464196 -0.039637763 0.05309503
000070 57 a2 69 be 7f 8c 64 ba 8d d3 6f bb 6d d8 13 be
       -0.22815834 -0.00087184453 -0.00365946 -0.14438029
000080 7e 92 54 3d 6b 7c 1e 3d b6 bf 2c be 84 1b 87 3c
       0.05189752 0.038692873 -0.16870007 0.016492613
000090 fd f7 b7 3d 05 85 20 3e d6 5c 31 be 72 81 43 bb
       0.08982847 0.15675743 -0.1732057 -0.0029831794
0000a0 0d c7 0c 3d 6b f1 41 be 96 cb c1 3c ff fc b6 bc
       0.034369517 -0.1893975 0.023656648 -0.022337435
0000b0 d2 65 4c 3e 95 ab 37 be b6 be 9c 3d 0b 10 fe bd
       0.19960716 -0.17936547 0.07653563 -0.12405404
0000c0 c4 0b 32 3e 39 89 b5 bc 4c 69 10 bd 47 58 60 3e
       0.173873 -0.02216016 -0.03525667 0.21908675
0000d0 d3 7b 27 3d 83 e4 49 3e 2d d2 6f 3c e1 45 5c bd
       0.040889572 0.19716077 0.014637512 -0.05377758
0000e0 24 7a c7 3b cd a2 f2 bc 80 11 2d bd b7 44 ec 3d
       0.0060875583 -0.029618645 -0.042253017 0.11536544
0000f0 90 4f 46 3d c1 c0 28 bc f0 ca d0 bd d6 43 de 3d
       0.04841572 -0.010299862 -0.10194957 0.108527824

actor.4.weight f4 [16, 64]
000000 19 31 fc be 5a 6d 20 3c 2a 7e 9f 3f e3 b4 9d 3e
       -0.4925621 0.009791696 1.2460377 0.30802068
000010 23 c3 85 3e 95 b3 7a 3e 73 61 25 bf 57 69 2e bf
       0.2612544 0.24482568 -0.6460182 -0.68129486
000020 58 0c 09 be 72 9e 63 bf 9d 73 eb 3d 75 10 b6 bd
       -0.13383615 -0.88913643 0.11496661 -0.08889858
000030 c1 f8 c0 be 46 a4 8e 3e 69 6d 9a 3e 45 a3 95 3d
       -0.37689784 0.27859706 0.30161598 0.07306532
000040 3e 1d 30 3d ac 4a f9 3e 62 aa 10 3f 7b 3e 6c be
       0.042996638 0.48689783 0.56509984 -0.2307071
000050 2f d9 2d bf 97 d7 3b 3e db 56 d2 3e e5 d5 06 3f
       -0.6790952 0.1834396 0.4108189 0.5267013
000060 2c 32 10 be 26 d3 43 bd a5 83 ae 3e 62 87 1a bf
       -0.14081639 -0.04780879 0.34084812 -0.6036283
000070 26 27 14 bf e4 fe 71 be 69 3a b8 3e 68 3f d5 3e
       -0.57872236 -0.2363239 0.35982063 0.41649938
000080 92 3c 22 3f 1d e0 a3 be 07 56 e6 3b d7 29 75 3e
       0.6337367 -0.32006922 0.007029298 0.23941742
000090 e2 a4 dc be 46 de 59 3f a2 a6 8b bb 7d c5 50 bf
       -0.43094546 0.8510479 -0.0042618075 -0.81551343
0000a0 0d d8 b7 3e 1d 57 c2 be a0 8a b8 be 6e 7a 7d 3f
       0.3590702 -0.37957087 -0.36043262 0.9901494
0000b0 7b e7 aa bd ab bf a9 be 15 e6 64 3e 83 43 05 3f
       -0.08344933 -0.33154044 0.22353394 0.5205614
0000c0 76 02 3c 3f 86 0b e2 3e ca 4b 8b 3c 50 f1 d5 bd
       0.73441255 0.44149417 0.017003912 -0.10446417
0000d0 79 c3 b7 3e 3c 6d a3 3e 24 ec 7d 3f a1 63 81 3e
       0.3589132 0.31919277 0.99188447 0.25271323
0000e0 ae b9 ab 3e 9c d3 0d bf 58 99 ce 3e 15 27 60 be
       0.335401 -0.55401015 0.40351367 -0.21889909
0000f0 ee 5e a6 3f 72 3d 68 be 8b 16 96 bf 5e 58 64 3e
       1.299772 -0.2267969 -1.172563 0.22299334
000100 a1 29 4d bd 02 15 3d bc 5a b2 1d bf 0b 13 10 3f
       -0.05008853 -0.011540653 -0.6160027 0.5627906
000110 b2 bd a0 bc 9b 29 36 3e 17 b8 98 3e a5 4b 37 3d
       -0.019621704 0.17789309 0.2982795 0.044749875
000120 bf 2d 3b bf ac e1 70 3e b8 75 0f 3f 71 da d8 be
       -0.7311668 0.23523587 0.56039 -0.42354158
000130 60 7d bc 3e 4e 79 a9 3e 05 a8 9f be a3 7e 5a 3e
       0.36814404 0.3310036 -0.31182876 0.2133737
000140 43 a3 ba be a9 e6 14 3f 2f 6f 9a bf 79 b9 c6 3e
       -0.36452684 0.5816446 -1.206518 0.3881338
000150 48 c7 b9 3e ed 73 78 3f 84 b4 22 3e 6c 94 16 3f
       0.36284852 0.9705189 0.15889174 0.58820224
000160 cb c1 4f bf f1 11 8a be f3 c6 2b 3f e4 41 40 be
       -0.8115508 -0.26966813 0.6710045 -0.18775135
000170 46 09 96 bf 3e 2d 3b 3d 5f e5 c5 3b 78 3e 3e 3f
       -1.172158 0.045697443 0.006039306 0.7431407
000180 a9 77 85 3f b0 f2 ab 3e 9f 85 89 be 03 98 eb be
       1.0427142 0.33583593 -0.26859757 -0.46014413
000190 af 59 52 be 0c 27 71 bf 30 89 68 be 32 96 61 bf
       -0.20542024 -0.94200206 -0.22708583 -0.88119805
0001a0 38 4a 0c 3e 13 21 51 bf 13 b1 71 3e 93 ff 3b bf
       0.13700187 -0.8169109 0.23602705 -0.7343685
0001b0 53 d9 13 be 27 15 07 be d4 c5 10 bf 44 d3 ef 3e
       -0.14438371 -0.13191663 -0.5655186 0.4684087
0001c0 d1 64 96 be ff 12 0e 3f 9e 50 f0 3e bd 6e 6b bf
       -0.29373792 0.55497736 0.46936506 -0.9196585
0001d0 96 48 6f 3f d7 94 bf 3b 98 15 70 3d d9 f6 6f 3b
       0.9347013 0.0058466005 0.058614343 0.0036615639
0001e0 b0 5c e1 be 4e 7b ec bc 03 6b bd 3e 33 4e 7e bc
       -0.44016027 -0.02886739 0.36995706 -0.015521574
0001f0 f6 84 91 bf b2 24 63 bd 9a 46 0d be 55 39 0f be
       -1.1368701 -0.055454917 -0.13796464 -0.13986714
000200 9a 00 2a 3e f0 8c a4 3e 26 1e f3 be ff 56 e5 be
       0.16601792 0.32138777 -0.4748394 -0.44792935
000210 4c 97 c6 be 68 9c 12 3b 3d dc 42 3f 70 ac 2d 3e
       -0.38787305 0.0022371057 0.76117307 0.16960311
000220 cc f7 98 bf b6 d5 9d 3f 50 c7 9b 3f 48 b1 20 bf
       -1.1950622 1.2330844 1.21702 -0.6277051
000230 12 e6 c2 bd df ad c2 3f d0 f5 7f bf 6d 58 cc be
       -0.09516539 1.5209311 -0.99984455 -0.39911214
000240 17 68 c6 3e bf df 4d bf a9 e0 19 be e5 27 68 be
       0.3875129 -0.80419534 -0.15027107 -0.22671469
000250 1e f1 19 3e 31 e1 a0 3e 67 a6 9c 3e 1a f3 cd bf
       0.15033385 0.31421807 0.30595705 -1.6089814
000260 bf 22 80 3e 3a 21 28 bf 26 14 6b 3f e7 85 1f 3f
       0.2502651 -0.656757 0.9182762 0.62313694
000270 e1 c7 d8 3f b2 ef 3a bf 50 d2 92 be 0b f4 9d 3f
       1.6935998 -0.73021996 -0.2867608 1.2340101
000280 88 9e 65 3f b0 7d 01 3f 3d 87 9e 3c 74 33 e0 3c
       0.89695024 0.5058241 0.019351596 0.027368285
000290 84 b0 7b bf cd 84 39 bf c2 f1 3f 3f 71 41 c7 bd
       -0.98316216 -0.7246826 0.7497827 -0.09729279
0002a0 0b b1 95 bd 3d f9 6b 3f 28 6c 54 bc 5a 89 0d bf
       -0.07309159 0.9217718 -0.01296524 -0.55287707
0002b0 44 ec 2b bf 55 9a 0d 3b c4 4a 23 bf 08 65 c3 3d
       -0.6715739 0.0021606882 -0.6378596 0.095407546
0002c0 97 01 34 bf 1c 60 f2 3e 3b 15 79 be da be d5 be
       -0.70314926 0.4733895 -0.24324505 -0.4174717
0002d0 3d 95 79 3b 5b d9 f4 be 47 d1 8c be 25 64 71 bc
       0.0038083338 -0.4782208 -0.27503416 -0.014733349
0002e0 14 52 17 bf a2 53 c9 3e da 0e 8b 3f c9 79 3b 3e
       -0.59109616 0.3932162 1.0863907 0.18308176
0002f0 a0 6c ce be 92 07 0e 3e cb 40 46 3f 2b 15 88 bf
       -0.4031725 0.13870075 0.77442616 -1.063146
000300 bd 4a e6 3f d2 35 f1 bd 05 11 ac 3e 36 b0 04 3f
       1.7991558 -0.117778435 0.33606735 0.51831377
000310 97 a8 bb 3e eb 58 09 bf 84 21 8b be 07 ff eb 3e
       0.3665206 -0.53651303 -0.27174008 0.46093008
000320 c1 9b 19 bc 05 1e 94 be c9 b7 c5 3e 89 9e 50 3f
       -0.0093755135 -0.28929153 0.3861678 0.81491905
000330 6d b0 d5 bd 54 85 bd 3d 7e 9a d1 be 82 c5 1a bf
       -0.10434041 0.09253946 -0.4093818 -0.60457623
000340 6a 50 f1 be 36 71 03 bf 0a 08 51 3f 69 46 cb 3e
       -0.47131664 -0.5134462 0.8165289 0.39702156
000350 2a ad ce be 41 2e 92 be 20 e1 cd be d6 78 df 3d
       -0.4036649 -0.28550914 -0.4021082 0.109117195
000360 d6 ae ee be 78 96 40 bd 64 39 0d bf 80 4c 45 bc
       -0.46617764 -0.0470185 -0.55165696 -0.012042165
000370 94 1a 7e bd b5 ca e7 3e f4 37 f1 be eb a8 3d bf
       -0.062037066 0.4527184 -0.47113 -0.74085873
000380 18 e5 b2 be a1 44 7e 3d cd c7 f1 bd d8 98 90 be
       -0.3494041 0.06207717 -0.11805687 -0.2824161
000390 ce 55 03 3f 9d a5 10 3e ba 28 36 be 94 89 1d 3f
       0.513028 0.14125676 -0.17788973 0.6153805
0003a0 55 92 a3 bf fa d9 9f 3b a0 09 f4 3d 13 a5 3a be
       -1.2779032 0.0048782798 0.11915898 -0.18227033
0003b0 d3 c7 c5 be df f9 5d 3e 7a fb 00 3d 26 c4 5a bf
       -0.38629016 0.2167735 0.031489827 -0.8545555
0003c0 d6 d1 54 3e db 62 9a bf 24 1b cc be e9 97 66 3f
       0.20783171 -1.2061418 -0.39864457 0.90075547
0003d0 80 c1 08 bf 88 c2 ba 3d e7 bd a8 3e 8c f4 00 bf
       -0.5342026 0.09119135 0.32957384 -0.5037315
0003e0 15 b4 7e bf 3c 55 37 bf 9f b5 5c 3f 34 6b d5 be
       -0.99493533 -0.7161443 0.8621463 -0.41683352
0003f0 14 7c 9f be 50 04 30 bf 7a 03 d7 be cd 73 34 3f
       -0.31149352 -0.6875658 -0.4199484 0.704892

actor.4.bias f4 [16]
000000 eb c2 49 3e 81 00 08 3e a8 54 13 3c e2 ce bb bd
       0.19703262 0.13281442 0.008992352 -0.09170319
000010 ff 1a dd be 73 71 41 bf 07 8e 74 bd 3b 0c 2f bd
       -0.4318466 -0.75563735 -0.05970576 -0.042736273
000020 1d 0f 56 bf 99 76 87 3b f4 a9 72 bd da 70 63 bf
       -0.8361681 0.004134011 -0.05924411 -0.8884407
000030 5a 63 eb be 7d 7e 2d be b4 75 29 bf 15 54 f4 3e
       -0.45974237 -0.16942783 -0.66195226 0.477204

critic.0.weight f4 [128, 35]
000000 80 1d 38 3c e6 f1 ca bd 11 01 b7 ba 0c b0 a6 bd
       0.011237502 -0.0990942 -0.001396211 -0.08139047
000010 9f c4 94 bc 41 59 94 bd 27 7e 9c bd 2f 4c 89 bd
       -0.018160162 -0.07243586 -0.07641249 -0.06703984
000020 bf 1b bb bd fa 04 ef 3b 01 d4 d8 3f 3f 3c 06 be
       -0.091361515 0.0072942944 1.6939698 -0.1310892
000030 46 cf 3a bf 69 f7 9b bf b7 1c 88 bf 2f 3a 3f be
       -0.72972524 -1.2184879 -1.0633763 -0.18674539
000040 44 ac e1 3e 5f 99 cf 3e e2 22 d8 3d 64 b1 22 3e
       0.4407674 0.405467 0.10553528 0.15887982
000050 cb 2a 12 bd 4e a3 be 3d 62 ef 97 3d fc 97 1a 3d
       -0.03568534 0.09308492 0.074187055 0.0377426
000060 47 c7 ba bd d8 38 cf be 7d 33 ac 3d 8f 0d ef bd
       -0.091200404 -0.40473056 0.08408258 -0.11672508
000070 f3 36 3d 3d 73 ef 3c 3e 63 5a d1 3e 63 91 20 3e
       0.04619498 0.18450718 0.40889272 0.1568046
000080 16 a6 b2 be 4a 90 91 3e 59 91 59 3f 5f 02 20 3e
       -0.3489234 0.28430396 0.8498741 0.15625905
000090 f5 8c e2 3d 28 82 13 3e 44 76 9a 3d 67 ae 4b 3e
       0.11062042 0.1440512 0.07542089 0.19890748
0000a0 84 67 10 3e ec be 2a 3e 82 f5 df 3d 0a 24 00 3e
       0.14101988 0.16674393 0.10935499 0.12513748
0000b0 27 c8 12 3e 4d 11 5e 3f b9 1c 76 bf b7 fb 14 3f
       0.14334165 0.8674515 -0.9613758 0.58196586
0000c0 c4 47 1f 3f 7f b3 47 3f 6b 26 30 3f a1 04 a4 3e
       0.6221888 0.78008264 0.6880862 0.32034782
0000d0 19 7d 67 bd 00 33 ae be 78 01 54 be a2 97 10 3e
       -0.056515787 -0.34023285 -0.20703685 0.14120343
0000e0 b8 66 bd be 11 10 37 bd c4 5a 91 3d a3 59 03 be
       -0.3699243 -0.044693056 0.0709739 -0.12827162
0000f0 ee 16 92 be 73 1b 06 3f 04 e6 60 3e 12 94 c3 bc
       -0.2853312 0.52385634 0.21962744 -0.023874316
000100 9b bc 71 3e 5b 8a 67 be 73 c5 b2 be 5b db bc be
       0.23607104 -0.22611372 -0.34916267 -0.36886105
000110 51 7d 95 bc 4f fb 8c be 15 5d 6a 3b 94 dd 2f bb
       -0.018248232 -0.27535483 0.0035761048 -0.0026834952
000120 37 ca 3b bc 82 b1 c8 bc ff 31 41 3c ef 98 71 bc
       -0.011461786 -0.024498705 0.011791705 -0.014745935
000130 ad a3 87 3c 5e c5 0a bc 15 19 81 bc f4 6e 8d 3b
       0.016557539 -0.008469908 -0.01575903 0.004316205
000140 0b 99 d5 39 0e e4 34 3f 78 27 ba 3f 45 47 83 3f
       0.00040740552 0.70660484 1.4543295 1.0256125
000150 1d 6e a5 3f 6b 81 10 3f 86 ef ad 3e 67 8f b9 3e
       1.2924229 0.56447476 0.33971804 0.3624222
000160 42 97 bb 3e a2 46 bd 3e 49 da 62 bc 5f 96 21 be
       0.36638838 0.3696795 -0.013845989 -0.15780018
000170 60 60 f0 bd 42 de c9 3e bb 9a da 3d d4 d8 a8 be
       -0.11737132 0.39427382 0.10674044 -0.32977927
000180 30 c1 66 bf 78 55 c5 bc 84 43 e7 bc 4b b7 76 3e
       -0.9013853 -0.024088606 -0.028230436 0.24093358
000190 c5 1d 01 3e 2c a1 29 3e f7 c7 bb bd 2b 6c d5 be
       0.12609012 0.16565388 -0.09169 -0.41684088
0001a0 f4 2e 7d 3e f6 49 b4 3d 21 61 89 3d e2 16 9c 3d
       0.24724942 0.088031694 0.06707979 0.07621552
0001b0 b0 ed aa 3d 2d cb 94 3d 22 9d 30 3d f1 b6 48 3d
       0.083461165 0.07265315 0.043118604 0.04900259
0001c0 cd 8d 8e 3c 45 d7 36 3d 36 04 aa 3d 55 92 d7 bf
       0.0174016 0.04463889 0.083015844 -1.6841532
0001d0 31 3a 6f 3f 51 0f 12 3f bd 1c 94 3e 42 a8 42 bf
       0.9344817 0.5705462 0.28928176 -0.7603799
0001e0 fc b0 bc 3e a3 60 17 3e 63 d9 ab 3e 55 fd eb 3e
       0.36853778 0.14782958 0.3356429 0.46091715
0001f0 97 0f 07 3f b4 ec 8b be 5f 1d 45 3d 51 f9 43 bd
       0.52758163 -0.27329028 0.048123714 -0.04784519
000200 c6 19 5c be 02 46 20 bf b1 c9 f5 be 41 c3 aa 3d
       -0.21494207 -0.62606823 -0.4800544 0.08338023
000210 d4 65 90 3c 19 8a 30 3d 2e 6f 14 3e 1c 10 f2 3d
       0.01762668 0.04310045 0.14495537 0.11819479
000220 00 52 de 3e d6 a7 a2 3e b7 47 1a 3f 8e 43 4e 3f
       0.43421936 0.31768674 0.6026568 0.8057183
000230 5d 6e 26 bd 49 d2 f0 bc 55 9e ad bc 6a 58 44 bb
       -0.040632594 -0.029397147 -0.021193663 -0.0029959925
000240 f6 a3 cc bc f1 fe ff bc f5 8f 38 3c a2 10 0d bd
       -0.024980526 -0.031249495 0.011264791 -0.03443969
000250 23 01 6a bd 17 5b 45 bd 95 1f 0d bf 80 22 ac 3d
       -0.05712999 -0.048182573 -0.55126315 0.08405018
000260 75 19 68 be cb 6a 95 3e a4 a8 e7 3c de c9 a8 3f
       -0.22665961 0.2918304 0.028278656 1.3186605
000270 93 9a fd 3e e6 60 ad bd c2 f7 35 bc 90 6a af 3b
       0.49531993 -0.084657475 -0.011106433 0.0053532794
000280 2a 38 91 3e cb b0 21 3e 0e 0d 8a 3d 36 3c 2e be
       0.28363162 0.15790097 0.06740771 -0.17015156
000290 2c b7 1d be 54 63 b1 3e 59 86 19 bf c1 db 30 3d
       -0.15401906 0.34646094 -0.59970623 0.043178324
0002a0 ee 2e e7 3d 34 30 9b bd 62 b6 46 3e c5 3d ab be
       0.11288248 -0.075775534 0.19405511 -0.33445564
0002b0 08 e7 ec be a2 39 40 be 46 f4 f3 3e 26 2c 73 3d
       -0.46270013 -0.18771985 0.47647303 0.059368275
0002c0 3c 75 e3 3c d9 99 b4 3d 96 90 1b 3d c7 c6 33 bc
       0.027765863 0.088184066 0.037979685 -0.010972685
0002d0 e2 fe f2 ba 1a f3 2f 3d 15 70 fa 3b ff 39 f1 3d
       -0.0018539096 0.04295645 0.0076427558 0.1177864
0002e0 37 d4 29 3e 2f 16 14 c0 99 48 a3 bf b2 70 2c bf
       0.1658486 -2.313854 -1.275653 -0.6735946
0002f0 8f 72 6e bf ff bc 2e bf c4 cd ba 3f 4f 28 6f 3e
       -0.9314355 -0.68257135 1.4594045 0.2335522
000300 5c 84 ab 3e 03 86 27 be 4d 78 e6 3e 07 3a 8e be
       0.3349942 -0.16359715 0.45013657 -0.27778646
000310 03 42 a1 3c f1 a9 96 bd 36 24 12 3e 64 9b 1c bd
       0.019684797 -0.073566325 0.14271626 -0.03823413
000320 a3 bb 21 3e 45 bf 3c 3d 90 56 84 bd 7b 3e e6 3d
       0.15794234 0.046080846 -0.06461823 0.11242386
000330 39 6f 57 3d 4e f1 5b bd f9 1e 84 be 60 30 98 3d
       0.052596305 -0.053696923 -0.2580488 0.07431102
000340 74 19 0d be 43 e0 6a 3e fc 32 03 bd 1b 19 3f bd
       -0.13779241 0.22937112 -0.032031044 -0.0466548
000350 44 de 0c bd 60 01 3a bd 54 45 94 bd 90 49 34 bd
       -0.034391657 -0.045411468 -0.07239786 -0.044015467
000360 18 61 23 bd a7 d5 10 bc ca 23 9f bd 6f a8 17 be
       -0.039887518 -0.008840001 -0.07770498 -0.14810346
000370 d6 a0 46 bf fe 82 88 bf 44 18 1b bf c4 c8 a1 bd
       -0.77589166 -1.0664976 -0.605839 -0.07899621
000380 19 cf e6 be c3 5c d0 3c 1c 54 1d be 4e 29 4c 3d
       -0.45079878 0.025434857 -0.15364116 0.04984408
000390 de bd 6d 3e ce 16 3b bd ff 94 87 bc 8d b5 99 3c
       0.2321696 -0.045676045 -0.016550539 0.018763328
0003a0 35 67 81 bd 22 f7 c3 be 75 2f 38 3e c1 42 2c 3c
       -0.06318513 -0.38274485 0.17986853 0.010513962
0003b0 af cb b6 3e 1e 2d 00 bd bf b3 5b 3e 1c 3e a2 3e
       0.35702273 -0.031293027 0.21455286 0.3168801
0003c0 4f 35 c8 3e e1 99 a1 be 4a 1c 0f 3e c7 d0 0d 3f
       0.3910317 -0.31562713 0.13975635 0.55396694
0003d0 97 a1 5e 3f 51 1f 97 3d 70 c7 0b 3d 18 99 07 3d
       0.86965317 0.0737902 0.034125745 0.033104986
0003e0 71 c5 83 3d ab 46 00 3d f6 8d 1e 3d 8f d4 35 3d
       0.06434143 0.031317394 0.038709603 0.044392165
0003f0 3c fb 0e 3d bb ba 98 bb da 10 34 bb dd 03 ec bf
       0.034907565 -0.004660932 -0.0027475865 -1.8438679

critic.0.bias f4 [128]
000000 d2 27 56 3f e7 b3 4e bf ba 3f 23 be 85 b3 45 be
       0.8365451 -0.8074326 -0.15942279 -0.19306763
000010 7b 47 1d bf ce 57 05 bf 3f 8c ab 3d 7e df 4d bf
       -0.61437196 -0.52087104 0.08376359 -0.80419147
000020 1c 46 14 3f a1 6c b5 be 97 d1 28 3f 17 8a 1d 3d
       0.5791948 -0.3543444 0.6594481 0.03846177
000030 40 6c 04 3f 85 79 51 3e 58 8c a1 3e 96 6a 8e 3d
       0.51727676 0.20456512 0.31552386 0.069539234
000040 bd 11 83 3f c2 bd 94 be c4 e9 0f bf cb 9f 55 3f
       1.0239788 -0.29051024 -0.56216073 0.8344695
000050 ca 51 d5 be a4 fe 49 bf 3a 72 59 bf 99 ba e4 3e
       -0.41663963 -0.78904176 -0.8493992 0.44673613
000060 2e cc b2 3e a6 fb 09 bf 34 64 7e 3b d3 9f ef 3d
       0.34921402 -0.5389961 0.003881705 0.11700406
000070 18 99 5b 3d 56 ae ef 3e b4 cf 15 3d 09 dd 67 bd
       0.0536128 0.46812695 0.036575034 -0.05660728
000080 71 16 36 3c 0a 6a 9a be db 74 07 bf dd ee c9 bd
       0.011113749 -0.30159026 -0.5291268 -0.09860013
000090 2e 17 52 bf c7 98 3a bd 24 6e 81 3e 18 18 86 3d
       -0.8206662 -0.045555856 0.25279343 0.06547564
0000a0 80 cb 7c 3e bb 87 76 be f7 f0 17 bf 58 97 7b be
       0.24687004 -0.24075215 -0.5935206 -0.24569452
0000b0 22 eb 43 be ae a8 80 bf 36 9e c9 bb dc a1 7b 3e
       -0.19132665 -1.0051477 -0.0061528934 0.24573463
0000c0 33 27 fb 3c a5 44 21 bc 3c b4 99 be 62 c1 46 bc
       0.03065834 -0.009843026 -0.3002032 -0.012131067
0000d0 f8 10 39 3d 1e 11 85 bf 52 2a 06 bf af 70 fd bd
       0.0451822 -1.0395849 -0.52408326 -0.12375008
0000e0 34 c4 50 be 9c 06 1d bf c6 b3 d0 3e da 82 b6 bd
       -0.20387346 -0.6133821 0.40762156 -0.08911677
0000f0 95 5a 10 3e 92 ba 83 3e 60 09 27 be c9 d2 02 3f
       0.14097054 0.2572828 -0.1631217 0.5110288
000100 c8 6e b7 3d 7c 62 47 bf 9a 3a 44 bf 0e 75 55 be
       0.08956677 -0.7788465 -0.7665192 -0.20845434
000110 fc 89 5a 3d b3 f7 25 3e 8a 30 a0 3e cb 04 32 3f
       0.05335425 0.16207771 0.31287032 0.69538563
000120 d3 ed 1c 3f 89 7c 87 3e f7 51 b8 bd fd 2d f2 3e
       0.6130039 0.264622 -0.090000086 0.4730071
000130 06 af fb bd ee 2b 5c 3e 28 f1 41 3d ae fa b9 3e
       -0.122892424 0.21501133 0.047349125 0.36324066
000140 6b db 29 3d 08 6a 8a 3d 6f 39 48 3f 87 8c 89 3e
       0.04146902 0.06758505 0.78212637 0.26865026
000150 79 a4 bf bd 72 c6 56 3f b4 99 8d 3d 2c af 78 3e
       -0.093575425 0.83896554 0.06914082 0.24285573
000160 d0 fb da 3e a0 e8 d7 bd 9d 07 98 bd 42 70 28 3f
       0.42770243 -0.105424166 -0.07423327 0.6579629
000170 84 60 52 be 4a aa bd be ba fd 35 bf e8 20 2b 3f
       -0.2054463 -0.37043983 -0.7109028 0.66847086
000180 9b f1 73 3e a8 59 0d 3f c5 69 04 bf f0 3f 25 3e
       0.23822634 0.5521493 -0.5172389 0.16137671
000190 41 ae 41 be 82 d1 79 bf 2e 59 f8 3e 5a 4e 25 3f
       -0.18914129 -0.9758531 0.4850554 0.6457268
0001a0 eb a6 4b be d9 3c d5 be 3b 63 43 3e 6d 43 67 3d
       -0.19887893 -0.41647986 0.19080822 0.056460787
0001b0 9c 3a 82 be a6 7f bf 3d 78 19 30 bf 52 e9 61 3f
       -0.2543534 0.09350519 -0.6878886 0.88246644
0001c0 4e bd 96 3f 77 7f a4 bd a9 df 9d bf b2 d0 23 be
       1.1776521 -0.080321245 -1.2333881 -0.1599758
0001d0 5e 78 85 3f 87 ee c3 be b6 3f bf 3e 02 04 11 be
       1.0427358 -0.3826792 0.37353295 -0.14161685
0001e0 a4 14 33 bf 75 ea 8c 3d f3 03 09 3e 25 07 d7 3d
       -0.6995337 0.06880657 0.13380413 0.104994096
0001f0 e9 ea f3 be 2d ea ab be 4d 26 3c be ba 2f 00 3e
       -0.4764016 -0.335771 -0.18373986 0.12518206

critic.2.weight f4 [64, 128]
000000 cd 7f 33 bd ec f8 13 be c7 17 73 3d 78 56 aa bd
       -0.043823052 -0.14450425 0.059348848 -0.08317274
000010 d5 a7 1c bd 19 b7 7a bd f8 ce 01 be 7b 70 aa be
       -0.038245995 -0.06120977 -0.12676609 -0.3328894
000020 e8 4f b5 bc 0c 11 e7 bd 62 86 11 bd 70 48 f0 3b
       -0.022132829 -0.11282548 -0.035528548 0.007332854
000030 ea fd 7a 3d a5 be 45 bd 38 d2 35 be 1d 2f fc bd
       0.061277308 -0.048277516 -0.17755973 -0.12313674
000040 bf 29 df bd d5 98 29 3e 3a 32 15 be 24 98 d7 3d
       -0.10896634 0.16562207 -0.14569941 0.105270654
000050 67 b5 97 bd 77 60 2c 3d bb f4 48 3c f6 08 ee bd
       -0.074076466 0.042084184 0.01226538 -0.11622803
000060 db f5 a3 3d 98 da d6 bd 92 c9 74 3d 40 eb bc 3d
       0.080058776 -0.10490912 0.059762545 0.09224558
000070 2e 4d 63 3d 3e 7d 82 bc a9 d9 2c 3d b2 85 91 bd
       0.055493526 -0.01592886 0.042199764 -0.071055785
000080 67 5b b1 bd d5 ec 21 be 8f a4 12 3d 67 3d f8 3d
       -0.08660012 -0.15813 0.035801467 0.121210866
000090 b0 a3 d3 bd bc 28 76 3d 73 0d 0f 3e ea a4 99 bc
       -0.10333955 0.06009744 0.13969974 -0.018755395
0000a0 cc 21 ea bc d4 fe c5 3d 69 5d c1 3d 9b 02 3c 3c
       -0.028580569 0.09667745 0.09441645 0.011475231
0000b0 bd 32 10 be 45 b8 24 be 71 64 3a 3d 99 45 a6 bd
       -0.14081855 -0.16085918 0.045505945 -0.081187434
0000c0 f2 a9 d5 3c 42 74 0a 3d b3 75 c6 bb 5e 56 2b be
       0.026082013 0.03380228 -0.0060565113 -0.16732165
0000d0 a8 63 39 be a5 77 9d bd d3 9d 4e be 17 46 d7 3d
       -0.18104422 -0.07688836 -0.20177393 0.105114155
0000e0 c2 a8 97 3d 7b f5 e5 bc dc 92 fb 3d 6c 37 0d be
       0.07405235 -0.028071156 0.122838706 -0.13790673
0000f0 0d a4 39 bc 02 c8 32 3d 06 d0 aa 3a f7 76 64 3d
       -0.011330617 0.043647774 0.0013031967 0.055777516
000100 ef bb 48 3d 93 89 0b be 44 cb 16 3d 0d a5 d9 bc
       0.049007352 -0.13626699 0.036814943 -0.02656796
000110 0c e9 55 3c 7f 8b 32 3d ff 9c 7a bc ec 26 c5 3d
       0.013056051 0.043590065 -0.01529622 0.096265644
000120 32 76 99 bd f5 00 98 3d 41 62 0c 3e 28 37 91 bc
       -0.07493247 0.074220575 0.13709356 -0.017726496
000130 92 ef c1 bd fb a6 94 3e 73 c6 35 3d bf 49 0e 3e
       -0.094695225 0.29033646 0.04437871 0.1389532
000140 bc ff a7 3d bd 2a 1c 3d 4f 3f ea bd d2 17 e4 bb
       0.08203074 0.038126696 -0.114378564 -0.0069608474
000150 52 68 63 3c dc ef eb 3d e3 4a 06 3e 4a de 80 3d
       0.013879852 0.11520359 0.13114505 0.06292398
000160 e2 1d fa 3d 10 c3 ac 3d f0 3a e0 bd 72 d5 39 3d
       0.12212731 0.08435643 -0.109487414 0.045369573
000170 82 c6 f9 bd ec 2d 9f bc 6c 71 c3 bd 3a e5 22 3d
       -0.121960655 -0.019431077 -0.09543118 0.03976939
000180 7c e2 4c be 77 0c 02 be c9 c4 7c bd 68 2e bf bd
       -0.20008272 -0.12700067 -0.061711106 -0.09335023
000190 3a bd d8 bd af e7 a1 bd 62 8f e3 3d 6c 5b 95 bd
       -0.10582967 -0.07905518 0.111113325 -0.07292828
0001a0 3f dc bd bd 38 48 9d bd a2 48 21 3e 95 49 d5 3d
       -0.09270524 -0.0767979 0.15750363 0.10414425
0001b0 ef 3e b4 bd 61 1d 2c be 3d 88 ff bc 8f d0 37 bc
       -0.08801066 -0.16808082 -0.031192893 -0.011219158
0001c0 37 a7 92 bd 1c 4f be 3d ea f4 18 be 08 ab 72 be
       -0.071608 0.09292433 -0.14937177 -0.23698056
0001d0 47 84 44 bd 61 c9 41 bd 55 8c 6a bd 33 e3 a1 bd
       -0.047977712 -0.04731119 -0.057262737 -0.07904663
0001e0 aa a3 44 bd 77 10 81 bd 63 e3 10 bd 54 d1 02 be
       -0.048007645 -0.063019685 -0.035373103 -0.12775165
0001f0 dd 3a c8 bd 78 c8 ef 3c 8c d1 00 3d 57 f4 a9 bc
       -0.09776852 0.029270396 0.03144984 -0.020746393
000200 f0 33 22 be 11 f0 56 be 45 61 0a be 38 1e 41 be
       -0.15840125 -0.20990016 -0.13513668 -0.18859184
000210 3a d2 4c 3e ae a0 82 3d d0 0f df bd 54 48 79 bb
       0.2000207 0.063783035 -0.10891688 -0.0038037496
000220 20 bc 9b bd 58 43 c7 bd ff e0 8d be 34 9d a9 3e
       -0.07604241 -0.09729642 -0.2771072 0.3312775
000230 36 47 0b bd ff 42 e7 3d 6c ae 03 be 68 1d 86 be
       -0.03400346 0.11292075 -0.12859505 -0.2619431
000240 65 b8 5e be 03 c6 cd 3d df 6e fb be bb 3b 0e 3d
       -0.21750028 0.10047533 -0.49108025 0.034724932
000250 cb 63 b0 bd 47 43 56 bd 5b 00 27 bd c1 67 88 3d
       -0.08612784 -0.052310254 -0.040771823 0.066604145
000260 6f 1e 85 be 4c 72 8a be 56 1b 01 be ea 76 a5 3b
       -0.2599978 -0.27040327 -0.12608084 0.005049576
000270 41 08 b8 bb 03 9f b8 be 8f b5 c7 be b5 ad d8 3d
       -0.0056162183 -0.36058816 -0.39005706 0.10580007
000280 e9 95 32 be eb 16 98 bd 91 a2 98 bd f9 7e a3 bd
       -0.17439999 -0.07426246 -0.07452882 -0.079832025
000290 28 96 7f be aa ae 53 3d 21 1f 2c bf fe 6a fd bd
       -0.24959624 0.051680245 -0.67235 -0.12373923
0002a0 c5 32 6c be fa ed b3 be a6 93 52 be 6f 38 15 bf
       -0.23066242 -0.351425 -0.20564136 -0.58289236
0002b0 d1 e7 82 bd f7 01 60 be 00 9a 30 be 13 5e 38 bd
       -0.06391872 -0.2187575 -0.17246246 -0.04501159
0002c0 d2 03 d3 3d e8 94 49 3c cc bc 77 3d 9c c9 9b be
       0.10303463 0.012303568 0.060482785 -0.30427253
0002d0 9b 2b 3c be 85 fe 17 bd 4d 87 2b 3e 5c ee 66 be
       -0.18376009 -0.037107963 0.16750832 -0.22551864
0002e0 90 37 c6 3b c1 5a 10 3f 42 04 7e be 99 39 4b be
       0.006049104 0.5638848 -0.24806312 -0.1984619
0002f0 61 c2 f7 bd a9 49 25 bd a1 f1 84 3c 65 69 14 bf
       -0.12097622 -0.04035345 0.016228499 -0.5797332
000300 e1 94 41 3e 10 70 96 3c 7f d1 7e be 78 51 70 be
       0.18904449 0.018363982 -0.24884604 -0.23468578
000310 be 63 8a 3c 82 14 6f be f8 9c f3 3d 42 c6 92 3e
       0.016893264 -0.23347667 0.11895174 0.28666884
000320 d9 07 f8 3d 3f 7f c0 be 5b 47 d6 bd b3 2f a3 be
       0.12110872 -0.3759708 -0.10462829 -0.3187233
000330 69 73 c8 bd 40 12 9a 3e bd 77 a6 be ec ed 45 3e
       -0.09787638 0.3009205 -0.32513228 0.19329041
000340 b1 01 6e be 8d d0 f6 bd 0a 95 76 bd fa 82 d6 3d
       -0.23242833 -0.12051497 -0.06020073 0.104742005
000350 e7 02 08 3d 62 33 50 3d a5 32 c5 3c d8 b8 78 be
       0.033205893 0.050830252 0.024072 -0.24289262
000360 4b ce 86 be 3d 86 e3 3e 2b a5 51 be 02 f2 af be
       -0.26329264 0.44438353 -0.20473163 -0.34364325
000370 46 2c 1d be ba 5a 07 bf b5 2e 54 be 15 e4 9c bd
       -0.1534892 -0.5287281 -0.20720942 -0.07660691
000380 d4 9e 8c be 3c b0 8f be 64 2e 74 be 55 7e 20 be
       -0.27464926 -0.28064144 -0.23845822 -0.15673192
000390 17 91 28 3c 0b 67 a9 bd 5e d1 e6 be d4 3b 07 be
       0.010288498 -0.08271607 -0.4508161 -0.13206416
0003a0 eb 40 fd bd 56 e9 59 be 0b f9 5e 3d 2b d2 b5 be
       -0.12365898 -0.21280417 0.054436725 -0.35511908
0003b0 b5 0d ce 3d 2c 5c ed bd 84 e1 cf bd 72 ce c7 be
       0.10061208 -0.11589846 -0.101504356 -0.39024693
0003c0 b7 ec 80 bf 98 d5 83 3d 17 3d 91 3c a1 39 0f bf
       -1.007224 0.06437224 0.017729325 -0.5594731
0003d0 1a dd d3 3e 7b 61 bd 3d 68 4f 86 3c 07 e4 dd 3d
       0.41379625 0.092471085 0.016395286 0.108345084
0003e0 46 d6 11 bf 4a 75 4a be 77 b0 97 be 10 8e e4 3d
       -0.5696758 -0.19771305 -0.2962682 0.11159909
0003f0 01 19 09 be 27 87 0c be a4 d4 70 bd 8b c3 0d bd
       -0.13388444 -0.13723432 -0.05879654 -0.034610312

critic.2.bias f4 [64]
000000 57 e5 82 bc 9b 72 40 3e 76 8d 4d 39 34 11 3a bf
       -0.015978498 0.18793719 0.00019603022 -0.726825
000010 6b b4 ff 3d d3 ee b2 3d 38 b1 a3 3c f9 b6 db ba
       0.12485584 0.08736958 0.019981965 -0.0016762904
000020 bd 3c 86 3d 09 1a 14 bc 7c c4 e9 bd 1e 97 0f bf
       0.06554554 -0.00903941 -0.114144295 -0.5608996
000030 9d 43 a5 3c 5d b5 f3 3c 87 7c cf be 89 fa 00 3e
       0.020173842 0.029749567 -0.40524694 0.12595572
000040 d3 11 b4 ba 5d b2 26 3d 0e 42 e6 3d 8d 21 52 3d
       -0.0013738222 0.040697444 0.11243068 0.051301528
000050 2f c5 f6 3b f8 4a 09 be a7 92 b1 bc 46 0b a4 bd
       0.0075308303 -0.13407505 -0.021676375 -0.08009963
000060 2a f8 97 3d ac d4 29 3d a2 4a 1c 3e 60 d6 23 bc
       0.074203804 0.041462585 0.15262845 -0.009999841
000070 d6 28 4b bd bb 53 47 be 02 03 a0 3d 80 07 10 3d
       -0.04959949 -0.19465534 0.07813074 0.035163403
000080 1d 61 0e 3e 69 3b 52 be e2 50 72 be 97 d0 4d bd
       0.13904233 -0.20530476 -0.23663667 -0.050247755
000090 dd a8 8f bd b7 24 8f be ad 5a 12 bd da fa 00 be
       -0.0701463 -0.279577 -0.035731006 -0.12595692
0000a0 1d 9a 28 be 67 df d0 3d e4 cf b2 3e 28 ea df 3d
       -0.1646504 0.101988606 0.34924233 0.10933334
0000b0 62 bd bf bd a5 ce e4 bd 21 76 06 3e 1d 4b db be
       -0.09362294 -0.11172227 0.13131 -0.42830744
0000c0 1a 5f 11 3e e8 92 07 bd 29 88 9d 3e aa 36 20 be
       0.14196435 -0.033099085 0.30767944 -0.15645853
0000d0 b9 9e c2 bc d9 6f 92 3d 8f 6c 80 3c 62 81 f1 bd
       -0.023757325 0.071502395 0.015676765 -0.11792256
0000e0 82 03 01 3e 48 48 71 bc 8a 38 f4 bc be 41 0e be
       0.12598994 -0.014726706 -0.029812116 -0.13892266
0000f0 ce c9 77 3d cd 7e 9b bd ff f4 af 3d a2 c4 86 3d
       0.06049519 -0.07592545 0.08591651 0.065804735

critic.4.weight f4 [1, 64]
000000 5a 7c a4 be 6d 04 0f 3f 2f 4f 0c bf d0 c7 b6 3e
       -0.32126123 0.5586613 -0.54808325 0.3569932
000010 96 18 08 bf c7 fb ac be 7c 00 f2 be 07 75 ff be
       -0.53162515 -0.3378584 -0.47265995 -0.49893972
000020 32 4b c1 3e a2 ac 0a 3c 10 79 a7 3d 2b a9 c9 3d
       0.37752682 0.00846401 0.08177388 0.09846719
000030 82 15 0c be 50 36 61 3e 62 9a 03 3f e6 18 15 3f
       -0.1368008 0.21993375 0.51407444 0.58241117
000040 3a 42 bd be 96 1b 94 be ea bc 15 3e de f5 08 be
       -0.3696459 -0.28927296 0.14622846 -0.13375041
000050 69 cd 9d 3d 1d a6 10 3f 97 14 e9 3e 6e c3 f3 be
       0.077051945 0.5650347 0.4552352 -0.4761004
000060 5d a2 ca 3e f2 9c 32 3f fc be 01 3f c6 b1 bb bd
       0.39576998 0.6977073 0.50682044 -0.09164767
000070 d1 69 df 3e 98 7d 1a be 9d ca c9 3e 4d 4e 6d be
       0.4363542 -0.15086973 0.39412394 -0.231744
000080 96 34 65 3e 85 1f db 3e 71 be dc 3e d8 57 f1 bd
       0.22383341 0.42797485 0.43114045 -0.11784333
000090 7d 5a f5 3d 7b 8e 14 3f 3f 17 d7 3e b0 4b a7 be
       0.1198015 0.5802991 0.42009923 -0.32674932
0000a0 09 ba 0c bf 80 53 48 be de 49 12 be a1 93 2a bf
       -0.5497137 -0.19563103 -0.1428599 -0.66631514
0000b0 cd 64 31 3e 77 fd fd be a5 ba c1 be 2a bc 01 3f
       0.17323609 -0.4960744 -0.3783771 0.5067774
0000c0 ce 5c ba 3e 19 7b ca 3e e5 09 e8 bd 3e 22 02 3f
       0.3639893 0.3954704 -0.11330012 0.508335
0000d0 6a 01 98 be e3 b9 fa bd 93 6a a9 be bb 8c b7 bd
       -0.2968858 -0.12242486 -0.33089122 -0.08962389
0000e0 ad 27 ec be a5 80 a2 3e e7 0b e3 3e 03 75 0a 3f
       -0.4612402 0.31738773 0.44345018 0.54084796
0000f0 9f 9e 29 3e de 3f d9 3e ed bc 04 3e b4 92 c3 3d
       0.16564415 0.4243154 0.12962694 0.09549466
