PPO_preTrained/20220510/PPO_20220510_0_700.pth (torch, 110785 bytes, 11 tensors)

actor.0.weight f4 [128, 35]
0.16882345 -0.13255504 0.1882974 0.16378127 -0.15750116 0.0029147556 -0.01722834 0.14619568
-0.10560799 0.026606446 0.40821382 0.13171169 -0.05624955 -0.7458906 0.5134935 0.041118827
-0.021277877 -0.03639181 0.021548921 -0.104896605 0.13427702 0.01920523 0.02089835 -0.04395389
-0.053225216 -0.121349275 -0.017945843 0.20953228 0.11512863 0.008365245 0.25305414 0.22375043
0.036424093 -0.95734847 -0.13305682 0.10889391 0.041969262 0.08158594 0.059778 0.06369815
0.2361567 0.1229347 -0.06560671 0.210867 0.13766246 -0.81030273 -0.18042499 -0.042866606
-0.45463035 0.8547717 0.20182145 0.08384502 0.13779259 0.08201495 0.16738296 0.22700706
-0.06383793 -0.2392214 -0.16560543 -0.020313405 -0.021856848 0.06419265 0.070255704 0.17066358
-0.06733906 0.08812372 0.030123586 -0.07729603 0.09708519 -0.3225224 -0.18415433 -0.09073316
0.082453355 0.17144404 -0.008484882 0.12079218 0.031737793 -0.10491945 0.1275259 0.16315517
1.0773716 0.37356347 -0.2287691 0.72782654 -0.74652064 -0.05890733 -0.030556217 0.22696276
0.24970002 0.30342096 -0.22085063 0.124943815 0.0909442 0.12367273 -0.15492621 0.028348763
0.11061315 -0.0976609 0.059406728 0.11710186 -0.09222046 0.1461411 0.3032858 0.067732684
0.10643316 -0.028344937 0.08004598 -0.1343203 -0.051430874 0.083593465 0.22959934 -0.064419694
0.17192504 0.020937502 -0.122351654 -0.36104748 0.052321233 0.68304825 -0.29705554 0.5151935
0.62293875 0.03683231 0.075969435 0.13310687 0.012529861 -0.114834435 0.00042498196 0.19495332
-0.008463405 0.19163123 -0.06653538 -0.018825335 0.043755744 -0.34813526 0.23369575 -0.061112676
0.29333115 0.32490265 0.109033376 0.011355379 -0.08467706 0.1935427 -0.07850237 -0.117870614
-0.016281188 0.11698754 -0.0051199524 -0.083412856 -0.040826388 0.0654251 0.27562946 -0.07488323
-0.39762348 0.07474121 -1.7336725 -0.37358567 -0.0132616805 0.18292014 0.21746863 -0.026509378
0.3167972 0.20332219 -0.14389808 0.07201025 -0.08955769 0.14110763 0.063165545 0.068805076
0.09973799 -0.008473023 0.0173124 -0.036125287 0.61041117 -0.29989028 0.23828514 -0.038410995
0.19535734 0.084114 0.21807031 -0.18289053 0.016122652 0.21670443 0.2557393 0.1501207
0.094214305 0.3019714 0.061173286 -0.49442878 -0.05282514 -0.31546193 -0.19955768 0.036115162
-0.09197405 -0.13834718 0.026384944 -0.18169747 0.09946141 -0.20533046 -0.08623848 -0.040917307
0.11755844 0.060236666 0.09205895 0.028810918 -0.24004884 0.08893515 0.11371588 -0.16511028
0.21716979 -0.097636215 -0.002616611 0.10053116 -0.10310502 0.0534358 0.19674408 -0.08291543
0.031960543 0.09399546 0.024166798 0.060291775 0.71268976 0.04464599 0.12635615 -0.16236599
-0.2146166 0.031909823 -0.10391359 0.17198902 -0.09156709 -0.114930846 -0.32880276 0.10629446
-0.13510716 -0.13763398 -0.13739562 0.082047574 0.057113312 -0.22732349 0.1045954 0.09249709
-0.4750651 0.23957118 0.036108855 -0.03218689 -0.169809 0.21119894 0.1159049 -0.10502152
0.004564669 0.1493626 0.15553035 -0.028928807 -0.10613361 0.14568883 0.31481072 -0.94583887
00000000: 0ee0 2c3e 82bc 07be 09d1 403e 47b6 273e
00000010: fc47 21be 7c05 3f3b 7322 8dbc 52b4 153e
00000020: 0049 d8bd c3f5 d93c 6701 d13e 6edf 063e
00000030: ee65 66bd b0f2 3ebf 4f74 033f 376c 283d
00000040: f14e aebc 940f 15bd 5d87 b03c 08d4 d6bd
00000050: ea7f 093e 4954 9d3c 0433 ab3c ff08 34bd
00000060: af02 5abd f885 f8bd 2903 93bc a18f 563e
00000070: 8fc8 eb3d 610e 093c 5090 813e d51e 653e
00000080: 6e31 153d ca14 75bf 0c40 08be c503 df3d
00000090: f6e7 2b3d 8816 a73d c7d9 743d 2d74 823d
000000a0: 10d3 713e 30c5 fb3d d05c 86bd 85ed 573e
000000b0: 63f7 0c3e 0070 4fbf 54c1 38be e594 2fbd
000000c0: 4fc5 e8be 51d2 5a3f 48aa 4e3e f0b6 ab3d
000000d0: 8019 0d3e 74f7 a73d 7066 2b3e 8a74 683e
000000e0: 76bd 82bd 74f6 74be 7894 29be 4c68 a6bc
000000f0: 220d b3bc 7077 833d 39e2 8f3d 6fc2 2e3e
00000100: 10e9 89bd 357a b43d bdc5 f63c 624d 9ebd
00000110: 9ad4 c63d a821 a5be f492 3cbe 4fd2 b9bd
00000120: 4edd a83d 078f 2f3e 2d04 0bbc e461 f73d
00000130: 7dff 013d 02e0 d6bd 2696 023e 2612 273e
00000140: 50e7 893f b643 bf3e 7242 6abe d752 3a3f
00000150: fa1b 3fbf d048 71bd 0851 fabc ed68 683e
00000160: 5db1 7f3e fe59 9b3e ab26 62be 8be2 ff3d
00000170: f440 ba3d 2148 fd3d faa4 1ebe aa3b e83c
00000180: 2689 e23d 7002 c8bd 7854 733d 1ad3 ef3d
00000190: 15de bcbd 03a6 153e 4748 9b3e 6fb7 8a3d
000001a0: a1f9 d93d a433 e8bc 26ef a33d 438b 09be
000001b0: 2ea9 52bd 0d33 ab3d 171c 6b3e 79ee 83bd
000001c0: 1e0d 303e 2085 ab3c 8193 fabd 37db b8be
000001d0: ca4e 563d 40dc 2e3f aa17 98be b9e3 033f
000001e0: ea78 1f3f 7add 163d dd95 9b3d 2b4d 083e
000001f0: 0c4a 4d3c 512e ebbd 1dd0 de39 d8a1 473e
00000200: 18aa 0abc fa3a 443e b443 88bd 9737 9abc
00000210: 3939 333d c93e b2be f04d 6f3e 4951 7abd
00000220: 802f 963e a459 a63e e44c df3d e90b 3a3c
00000230: 2b6b adbd 0f30 463e dac5 a0bd 2666 f1bd
00000240: 2060 85bc 2a97 ef3d 46c5 a7bb 5cd4 aabd
00000250: 9239 27bd 98fd 853d 4e1f 8d3e 615c 99bd
00000260: 4e95 cbbe eb11 993d fbe8 ddbf 9f46 bfbe
00000270: 8547 59bc 6b4f 3b3e 19b0 5e3e 322a d9bc
00000280: 3e33 a23e b133 503e 055a 13be 1c7a 933d
00000290: 066a b7bd 857e 103e f05c 813d ade9 8c3d
000002a0: 6e43 cc3d 6fd2 0abc bcd2 8d3c 1cf8 13bd
000002b0: e843 1c3f 388b 99be 0501 743e d954 1dbd
000002c0: c10b 483e f643 ac3d d34d 5f3e a847 3bbe
000002d0: a713 843c c4e7 5d3e 43f0 823e 3eb9 193e
000002e0: 6ef3 c03d ff9b 9a3e d790 7a3d c525 fdbe
000002f0: 2d5f 58bd 3a84 a1be d958 4cbe 7eed 133d
00000300: e45c bcbd e2aa 0dbe 3d25 d83c e70e 3abe
00000310: 6cb2 cb3d 2642 52be cd9d b0bd e898 27bd
00000320: 7bc2 f03d b9ba 763d 6789 bc3d e004 ec3c
00000330: 5dcf 75be a223 b63d dfe3 e83d ab12 29be
00000340: c261 5e3e 7ff5 c7bd 737b 2bbb 48e3 cd3d
00000350: ba28 d3bd 7fdf 5a3d 4877 493e 91cf a9bd
00000360: 0fe9 023d b180 c03d 73f9 c53c 82f4 763d
00000370: d672 363f b7de 363d 8263 013e 4543 26be
00000380: 74c4 5bbe e0b3 023d a6d0 d4bd e41d 303e
00000390: 8787 bbbd dd60 ebbd d658 a8be e9b0 d93d
000003a0: 8859 0abe ecef 0cbe 70b1 0cbe 8f08 a83d
000003b0: a6ef 693d 7dc7 68be 1d36 d63d 1d6f bd3d
000003c0: bc3b f3be 2652 753e e1e6 133d 66d6 03bd
000003d0: 69e2 2dbe 8944 583e 8c5f ed3d 8615 d7bd
000003e0: 3893 953b 82f2 183e 5943 1f3e 1bfc ecbc
000003f0: 945c d9bd 742f 153e df2e a13e 7f22 72bf

actor.0.bias f4 [128]
-0.027661117 -0.09869738 0.14363371 -0.093012124 -0.034013025 -0.13979098 0.091773264 -0.20241259
0.069897234 -0.07048871 0.08025695 0.08137389 0.07887726 -0.18736814 0.08896129 0.24463248
0.02375487 0.18037716 0.24225779 0.032666158 0.014828617 -0.14414099 0.04376199 0.09466497
-0.14642905 0.120797455 -0.018198155 0.27751672 -0.15580265 -0.114558265 -0.040781442 -0.17069444
0.020683918 0.30160996 0.021555707 -0.030917015 -0.045837764 -0.010917339 0.07822929 0.19726653
0.20017613 0.20780154 0.052505925 0.0013397342 0.1852913 0.122061014 0.11768695 -0.1599071
0.28128508 0.2746687 0.085211955 -0.09359517 -0.016013319 0.014758893 0.031291902 0.10361381
0.17344014 -0.06335815 -0.1639761 0.09204216 -0.07328697 -0.058125738 0.24101901 0.17891198
-0.10851216 0.15593211 0.14102997 0.05128726 -0.06562171 0.0016444253 -0.009196398 0.22957923
0.09471968 -0.038337026 -0.1889904 -0.05920188 -0.20400687 -0.16538282 -0.10605179 -0.0034238778
0.24372083 0.12382669 -0.25035915 -0.1187914 0.10565768 -0.078797296 -0.13369122 0.048847683
0.15385583 0.080751166 0.036356617 0.24666862 -0.0073833773 -0.14651108 0.123518616 0.07740547
0.021149315 -0.06930937 0.007530224 -0.22512396 -0.006741378 0.20684306 0.017730854 0.021863276
0.05387871 0.09960305 0.1332965 0.14200296 0.10217008 -0.21803261 -0.13094908 0.21658398
0.038549904 0.011262623 -0.036822923 -0.26142955 -0.106606014 0.15829168 -0.16094093 0.2170437
0.04587383 0.2627534 0.23285264 0.32125956 -0.17525487 0.048878886 0.2504441 -0.031640977
00000000: 9199 e2bc da21 cabd b714 133e 247d bebd
00000010: 3e51 0bbd 5e25 0fbe 9ff3 bb3d 3f45 4fbe
00000020: 4826 8f3d 635c 90bd c15d a43d 5ba7 a63d
00000030: 678a a13d 6fdd 3fbe 5631 b63d f080 7a3e
00000040: 9399 c23c cab4 383e 6d12 783e f3cc 053d
00000050: baf3 723c b299 13be c63f 333d b5df c13d
00000060: 7ff1 15be a864 f73d 4c14 95bc ac16 8e3e
00000070: bb8a 1fbe 869d eabd 710a 27bd 86ca 2ebe
00000080: 5271 a93c 9f6c 9a3e 9895 b03c ae45 fdbc
00000090: 61c0 3bbd a3de 32bc ae36 a03d 3d00 4a3e
000000a0: f9fa 4c3e edc9 543e 7410 573d 059a af3a
000000b0: 01bd 3d3e 20fb f93d db05 f13d b0be 23be
000000c0: 9904 903e 60a1 8c3e 9b83 ae3d d3ae bfbd
000000d0: 5d2e 83bc 49cf 713c f02b 003d 7a33 d43d
000000e0: 4b9a 313e ebc1 81bd 5ae9 27be 9a80 bc3d
000000f0: 7b17 96bd 4115 6ebd b0cd 763e b434 373e
00000100: a03b debd abac 1f3e 296a 103e 9712 523d
00000110: ad64 86bd c289 d73a 7dac 16bc d116 6b3e
00000120: 64fc c13d 4907 1dbd b386 41be ac7d 72bd
00000130: 2de7 50be 1d5a 29be ae31 d9bd 2363 60bb
00000140: f491 793e d998 fd3d 132f 80be e848 f3bd
00000150: 0e63 d83d 7a60 a1bd 5ae6 08be 8214 483d
00000160: 628c 1d3e de60 a53d adea 143d b396 7c3e
00000170: 42f0 f1bb 0007 16be 54f7 fc3d c286 9e3d
00000180: 5441 ad3c 12f2 8dbd 19c0 f63b e586 66be
00000190: c7e6 dcbb abce 533e 4c40 913c 9d1a b33c
000001a0: ecaf 5c3d affc cb3d e17e 083e 3969 113e
000001b0: 8c3e d13d f143 5fbe 8417 06be 31c8 5d3e
000001c0: 81e6 1d3d dd86 383c a2d3 16bd 18da 85be
000001d0: 4154 dabd 3717 223e b3cd 24be b440 5e3e
000001e0: 32e6 3b3d 9d87 863e ec70 6e3e 227c a43e
000001f0: 0376 33be 3a35 483d 363a 803e f899 01bd

actor.2.weight f4 [64, 128]
-0.32639933 0.083313406 0.023701321 -0.08323247 0.11086476 -0.041730653 -0.27303827 -0.32018209
0.1360789 -0.06178382 0.20549062 0.18386628 0.08436425 -0.018243095 0.05834721 -0.039645754
0.6008696 -0.0689591 0.050623123 0.081227295 -0.21807243 -0.1080431 0.025705801 0.034965888
0.16031884 0.04613783 -0.27672377 0.046775393 0.051667105 0.016400026 0.010193978 0.13630302
0.21872945 -0.25323898 0.03736356 0.15831864 -0.014483996 -0.0071131294 -0.14613472 -0.004652344
-0.08417819 -0.08859105 0.009432335 0.30658504 0.084960744 0.12243289 -0.19332713 -0.12545867
-0.2259322 0.013887556 -0.06505735 -0.19525056 0.054382533 0.077699624 -0.13664022 -0.106619745
0.11587283 0.12596251 -0.0012929525 -0.22709732 0.085076265 0.19048582 0.0059233624 -0.0067060725
0.009896499 -0.04930695 -0.05837555 0.1048676 0.023525402 -0.08326304 0.033262014 0.21897182
-0.024838489 0.14464913 -0.02179402 0.40793315 -0.00047645989 -0.06369294 0.095765576 0.08179202
0.3000337 -0.032040652 -0.18407129 -0.2247256 0.05064758 -0.20145446 0.049053956 -0.056012776
0.11417006 -0.34592447 0.36497372 0.040324196 -0.0893184 -0.12518132 0.14700954 0.120483786
-0.2430135 -0.015684519 0.009707954 0.17532739 -0.117400214 -0.0931372 -0.054574944 0.2574213
-0.19829853 -0.17130694 0.40715852 -0.027854374 -0.260917 0.023557479 0.08146963 -0.13602862
0.112857535 0.19733928 -0.17058507 0.10468696 0.014588778 0.19218881 -0.00025052208 0.16535969
-0.0555091 -0.01830629 -0.1653357 -0.0765667 0.10481515 -0.06924998 0.06309481 -0.053993177
0.14093286 -0.010083453 0.037387088 -0.037299026 -0.16178873 0.1792595 -0.014875959 -0.11345608
0.08120756 -0.2222714 0.46522388 -0.30206347 -0.117874905 0.06313258 -0.09277902 0.18477134
-0.38057166 -0.107967146 -0.058671877 -0.14425626 -0.084552385 -0.10019033 -0.2291806 0.2944923
-0.006565672 -0.005471864 -0.0017185515 -0.20584956 0.025587188 0.13456783 -0.20133638 0.23306371
0.2640606 0.0017510809 -0.15070309 0.032518316 -0.09121818 0.08136436 -0.058134656 -0.22358562
-0.19080362 0.1062163 0.0918305 0.2382969 -0.19515328 -0.048927087 -0.19642472 0.0340353
0.037616603 0.009485754 -0.036409147 0.23517215 0.21987535 0.12284951 0.003407625 -0.2098513
-0.038176034 0.24367945 -0.12532961 0.039135475 0.25224808 -0.03233085 0.17767812 -0.12241134
0.083027385 0.0030110127 -0.20590942 0.052242555 0.040430892 0.09699564 0.19059454 0.14230487
-0.09799199 0.14748353 -0.098902375 -0.08846399 -0.008045783 -0.041657083 0.03813759 0.04694465
-0.008556032 -0.18898067 0.075327165 0.32724294 -0.31465724 -0.12695993 -0.049374815 0.060136132
-0.2949873 -0.11575123 -0.018959654 -0.112424165 -0.08035428 0.18672846 -0.26210558 -0.09449045
0.0038052194 -0.30254138 -0.05577639 0.7898263 0.24712984 -0.038046125 -0.059429303 0.52536225
-0.2322227 0.13824551 -0.09673321 0.13093962 -0.06590804 0.074455485 -0.0033890007 -0.053685017
0.041950934 0.23192972 -0.033422966 0.05676168 0.30901748 -0.26316404 -0.023424638 -0.05466637
-0.23855294 0.20286019 0.12043858 0.12517065 -0.069937244 0.100294046 -0.12684537 -0.13631412
00000000: d01d a7be 38a0 aa3d 4629 c23c c975 aabd
00000010: 100d e33d c3ed 2abd accb 8bbe e8ee a3be
00000020: 4458 0b3e 0811 7dbd 226c 523e 7147 3c3e
00000030: 2ac7 ac3d 8b72 95bc 7cfd 6e3d 9663 22bd
00000040: 97d2 193f 6e3a 8dbd 315a 4f3d 7f5a a63d
00000050: 614e 5fbe b345 ddbd f994 d23c 6438 0f3d
00000060: 9f2a 243e 05fb 3c3d bdae 8dbe 8e97 3f3d
00000070: e3a0 533d 5959 863c a504 273c 0593 0b3e
00000080: 9dfa 5f3e 8aa8 81be 880a 193d 481e 223e
00000090: 484e 6dbc 4115 e9bb 57a4 15be b172 98bb
000000a0: 9d65 acbd 396f b5bd 158a 1a3c b7f8 9c3e
000000b0: e6ff ad3d 18be fa3d 8cf7 45be 3d78 00be
000000c0: c55a 67be a288 633c ca3c 85bd c3ef 47be
000000d0: 38c0 5e3d fb20 9f3d 6aeb 0bbe 745b dabd
000000e0: bc4e ed3d 51fc 003e 4978 a9ba 338c 68be
000000f0: 773c ae3d b70e 433e c418 c23b 9dbe dbbb
00000100: ed24 223c 16f6 49bd 331b 6fbd d3c4 d63d
00000110: 58b8 c03c d085 aabd c03d 083d 263a 603e
00000120: 167a cbbc e71e 143e 5f89 b2bc 9ddc d03e
00000130: 5dcd f9b9 7271 82bd be20 c43d 9382 a73d
00000140: 049e 993e 0f3d 03bd 2f7d 3cbe 781e 66be
00000150: d673 4f3d 144a 4ebe cdec 483d a76d 65bd
00000160: fed1 e93d 031d b1be d6dd ba3e fc2a 253d
00000170: 91ec b6bd 882f 00be ab89 163e 34c0 f63d
00000180: 88d8 78be d27c 80bc 1c0e 1f3c 0689 333e
00000190: 866f f0bd b7be bebd fa89 5fbd bacc 833e
000001a0: c50e 4bbe 166b 2fbe 1577 d03e db2e e4bc
000001b0: ea96 85be 9dfb c03c 8dd9 a63d 164b 0bbe
000001c0: da21 e73d 4f13 4a3e daad 2ebe 1e66 d63d
000001d0: c505 6f3c 25cd 443e 8158 83b9 0d54 293e
000001e0: 835d 63bd 13f7 95bc c34d 29be 01cf 9cbd
000001f0: 53a9 d63d efd2 8dbd da37 813d f327 5dbd
00000200: b450 103e 1135 25bc 3423 193d ddc6 18bd
00000210: f2ab 25be cd8f 373e 4bba 73bc a95b e8bd
00000220: 2650 a63d 1d9b 63be d331 ee3e 10a8 9abe
00000230: 6668 f1bd a74b 813d ed02 bebd b334 3d3e
00000240: 4ada c2be e11d ddbd ec51 70bd eab7 13be
00000250: cd29 adbd 9630 cdbd 52ae 6abe b2c7 963e
00000260: d924 d7bb 524d b3bb 0541 e1ba 3aca 52be
00000270: 399c d13c 26cc 093e 202b 4ebe 41a8 6e3e
00000280: f332 873e 8684 e53a e951 1abe ed31 053d
00000290: 99d0 babd 5ca2 a63d 9b1e 6ebd a1f3 64be
000002a0: 0662 43be ee87 d93d a111 bc3d 1a04 743e
000002b0: 43d6 47be c567 48bd 9023 49be 9968 0b3d
000002c0: de13 1a3d 236a 1b3c c221 15bd f8d0 703e
000002d0: 0127 613e 8698 fb3d 7652 5f3b 42e3 56be
000002e0: 795e 1cbd 1b87 793e 6856 00be 854c 203d
000002f0: a926 813e 5a6d 04bd 41f1 353e ccb2 fabd
00000300: 430a aa3d 6954 453b ebd9 52be 4afc 553d
00000310: dd9a 253d a6a5 c63d 372b 433e 5eb8 113e
00000320: 06b0 c8bd ec05 173e 548d cabd 9c2c b5bd
00000330: 76d2 03bc 9ea0 2abd 2936 1c3d 0949 403d
00000340: 992e 0cbc 2684 41be 2145 9a3d 638c a73e
00000350: c11a a1be c901 02be 3f3d 4abd 4e51 763d
00000360: 9308 97be fb0e edbd 4751 9bbc a43e e6bd
00000370: c990 a4bd bf35 3f3e b432 86be 3684 c1bd
00000380: fd60 793b b4e6 9abe c975 64bd 0e32 4a3f
00000390: 9b0f 7d3e 41d6 1bbd 246c 73bd 247e 063f
000003a0: cacb 6dbe 3b90 0d3e 101c c6bd 0915 063e
000003b0: cbfa 86bd 1e7c 983d ff19 5ebb d2e4 5bbd
000003c0: bed4 2b3d fc7e 6d3e 85e6 08bd ef7e 683d
000003d0: 8a37 9e3e 70bd 86be 07e5 bfbc d8e9 5fbd
000003e0: 3947 74be 95ba 4f3e 81a8 f63d bc2c 003e
000003f0: 423b 8fbd f766 cd3d c1e3 01be ee95 0bbe

actor.2.bias f4 [64]
0.0654168 -0.0030342815 0.13561396 0.18794118 0.13259906 0.11804751 -0.0584525 0.06774723
-0.017966937 -0.06638552 -0.100304015 0.10804691 0.03205368 0.06666046 0.02258653 -0.0307137
0.0011597553 0.09235378 0.0880907 0.057556808 -0.017714186 0.05574678 -0.022379586 0.11578459
-0.006860069 -0.048823792 0.030781567 0.018822698 -0.123613864 -0.07735929 0.02081854 -0.14597706
0.029370416 0.02823061 -0.08884177 -0.02073898 0.013202182 0.14107694 -0.12454092 -0.048119627
0.11186224 -0.11889198 0.042237505 -0.053024452 0.1091164 -0.02795345 0.017046517 -0.039668094
0.06941365 -0.021828776 0.022380207 0.18748245 0.003770766 0.1326932 0.02206904 0.019591242
0.024039287 -0.0035803718 0.015367086 0.04684146 0.045096155 0.008038919 -0.12072062 0.01991474
00000000: 3ef9 853d ccda 46bb 63de 0a3e a773 403e
00000010: 0cc8 073e e5c2 f13d e36b 6fbd 0fbf 8a3d
00000020: 662f 93bc 22f5 87bd 316c cdbd b347 dd3d
00000030: b84a 033d 4785 883d 6307 b93c 4c9b fbbc
00000040: ee02 983a fb23 bd3d e668 b43d b0c0 6b3d
00000050: 571d 91bc bc56 643d 6555 b7bc 7920 ed3d
00000060: 6eca e0bb 75fb 47bd a029 fc3c 0f32 9a3c
00000070: 4429 fdbd 8c6e 9ebd a58b aa3c 037b 15be
00000080: 3a9a f03c e143 e73c adf2 b5bd cbe4 a9bc
00000090: f74d 583c 7976 103e 4f0f ffbd 1619 45bd
000000a0: 0818 e53d a37d f3bd 3c01 2d3d 2b30 59bd
000000b0: 6b78 df3d a2fe e4bc 23a5 8b3c 037b 22bd
000000c0: be28 8e3d 43d2 b2bc b256 b73c 66fb 3f3e
000000d0: f51e 773b bae0 073e 22ca b43c d07d a03c
000000e0: 0aee c43c aca4 6abb 3bc6 7b3c d5dc 3f3d
000000f0: bfb6 383d acb5 033c 5f3c f7bd 3d24 a33c

actor.4.weight f4 [16, 64]
-0.610701 -0.17908123 0.96879596 0.2920156 0.35964173 0.06925022 -0.5811387 -0.69474036
0.37252307 -0.8088375 -0.3466734 0.2089723 -0.52359885 -0.1898863 0.3123652 0.22986215
0.049181618 0.33755 0.61459297 -0.43274283 -0.78689957 -0.03986051 0.5866614 0.39847937
-0.10368065 0.04815943 0.021524288 -0.8475008 -0.49360302 -0.22465579 0.31772077 -0.07234202
0.11347477 -0.3106831 0.15094279 0.17805018 -0.42498827 0.7889418 -0.018355893 -0.78338623
0.4307397 -0.2250017 -0.39230293 0.9742846 0.2602772 -0.27287102 0.37621862 0.13659243
0.65055007 0.0065472187 0.116105035 0.21861792 0.2539352 0.32439077 1.0041479 0.17586488
0.53839356 -0.40580675 -0.006609066 -0.028820502 0.9433913 -0.012044726 -0.9150986 0.2813484
0.11169317 -0.0013419831 -0.3459042 0.6251304 -0.0041536763 0.21399 0.22724672 0.2625734
-0.7192781 0.3004537 0.41372296 -0.45367554 0.32939956 0.27964556 -0.2551045 0.21285973
-0.38002506 0.62265694 -0.7001894 0.4122757 0.44498342 0.90787953 0.15189427 0.30169573
-0.86365545 -0.20173536 0.616207 -0.17373538 -0.58097243 0.19837406 0.025414266 0.54367954
0.87918437 0.33794358 -0.2702786 -0.35424307 -0.025592001 -0.56693655 -0.20481715 -0.81455433
-0.03275167 -0.769286 0.24881834 -0.5324058 -0.1597847 -0.107710265 -0.43334416 0.41144824
-0.38083866 0.5060494 0.49551886 -0.65701693 0.83162826 0.13099214 -0.091346465 -0.006645558
-0.5116102 -0.01267232 0.415348 -0.1005238 -0.68475795 -0.005260316 -0.19598714 -0.08863016
0.19577402 0.36805397 -0.42740738 -0.35454607 -0.2716783 0.005612281 0.68540734 0.04314094
-1.0600312 0.8626996 1.0782722 -0.44450158 -0.082334384 1.4346098 -0.71320856 -0.31672463
0.39823213 -0.7228475 -0.07457554 -0.17480503 0.1756849 0.13888176 0.28703168 -1.1797867
0.24129891 -0.6274461 0.6845635 0.5478478 1.4378302 -0.69539326 -0.31141645 1.1474869
0.78815717 0.52768254 0.17797247 0.049978826 -1.0135214 -0.63128746 0.69802886 0.0664662
-0.16752003 0.7985389 0.13156623 -0.44884753 -0.4827525 0.10056227 -0.5044284 0.005505129
-0.4525863 0.4634054 -0.2807135 -0.34589884 -0.2583307 -0.49102595 -0.28026032 -0.030608727
-0.6068241 0.19335797 1.0090504 0.21969138 -0.34413755 0.16911921 0.8090153 -0.7410782
1.3608146 -0.12183174 0.28772286 0.43834704 0.20591018 -0.36620337 -0.08613628 0.2595775
-0.18610306 -0.34396744 0.54277694 0.6870576 0.022139436 0.40334442 -0.43467167 -0.77252907
-0.4090291 -0.36421996 0.73818755 0.5592411 -0.17520995 -0.2828685 -0.5109815 0.2588447
-0.4219555 -0.07038016 -0.2802261 0.122262195 -0.13192958 0.32650334 -0.29513654 -0.44613162
-0.10770492 0.025407525 -0.32527605 -0.3090447 0.53451777 -0.023050375 -0.07549075 0.6233364
-0.989508 -0.056970503 -0.04280883 -0.27221695 -0.48866543 0.25613558 -0.31099167 -0.6923683
0.14656329 -0.8333576 -0.35582897 0.7707416 -0.31224716 0.02688632 0.22425784 -0.30068678
-0.9255381 -0.7287508 0.8022646 -0.378204 -0.34640208 -0.42267168 -0.43689427 0.5257155
00000000: e756 1cbf 1261 37be 0303 783f 1283 953e
00000010: f622 b83e 0fd3 8d3d 81c5 14bf 81da 31bf
00000020: 58bb be3e f90f 4fbf 2d7f b1be d6fc 553e
00000030: 930a 06bf 8e71 42be 55ee 9f3e fc60 6b3e
00000040: aa72 493d 5bd3 ac3e f755 1d3f 7890 ddbe
00000050: 4072 49bf c644 23bd 712f 163f 7d05 cc3e
00000060: 8556 d4bd d342 453d b453 b03c d0f5 58bf
00000070: 89b9 fcbe 2b0c 66be 4cac a23e 0e28 94bd
00000080: 7665 e83d db11 9fbe bf90 1a3e c952 363e
00000090: 1098 d9be 17f8 493f 195f 96bc 008c 48bf
000000a0: ea89 dc3e d866 66be eedb c8be b76a 793f
000000b0: 0e43 853e c0b5 8bbe ba9f c03e e3de 0b3e
000000c0: 738a 263f 0d8a d63b 7ac8 ed3d 60dd 5f3e
000000d0: cb03 823e 8c16 a63e eb87 803f ec15 343e
000000e0: 29d4 093f e7c5 cfbe dd90 d8bb f918 ecbc
000000f0: 1882 713f 3e57 45bc e743 6abf e60c 903e
00000100: 64bf e43d 7be5 afba 5b1a b1be 8c08 203f
00000110: 901b 88bb 3220 5b3e 5db3 683e 0570 863e
00000120: 9c22 38bf 11d5 993e 7fd3 d33e 2948 e8be
00000130: 0fa7 a83e b42d 8f3e 0f9d 82be e7f7 593e
00000140: a592 c2be 7266 1f3f 9d3f 33bf cd15 d33e
00000150: ded4 e33e cb6a 683f 2c8a 1b3e dd77 9a3e
00000160: 8618 5dbf b793 4ebe bebf 1d3f b0e7 31be
00000170: 9cba 14bf 9222 4b3e 9431 d03c 952e 0b3f
00000180: 3a12 613f f106 ad3e f561 8abe 595f b5be
00000190: 51a6 d1bc c122 11bf 96bb 51be a286 50bf
000001a0: 9d26 06bd edef 44bf 3cca 7e3e bf4b 08bf
000001b0: 9a9e 23be 3397 dcbd 49df ddbe 58a9 d23e
000001c0: 49fd c2be 748c 013f a6b4 fd3e 4332 28bf
000001d0: 97e5 543f ce22 063e db13 bbbd fbc2 d9bb
000001e0: e3f8 02bf 909f 4fbc 7ea8 d43e 6cdf cdbd
000001f0: 4c4c 2fbf bb5e acbb dab0 48be bb83 b5bd
00000200: fc78 483e 9271 bc3e 24d5 dabe 1087 b5be
00000210: 6b19 8bbe 3ae7 b73b db76 2f3f 8eb4 303d
00000220: 1aaf 87bf e2d9 5c3f d304 8a3f b695 e3be
00000230: ee9e a8bd 4ba1 b73f d694 36bf bb29 a2be
00000240: 15e5 cb3e 890c 39bf 10bb 98bd 1700 33be
00000250: bee6 333e 0537 0e3e d1f5 923e 4003 97bf
00000260: 1017 773e 4fa0 20bf 8e3f 2f3f c13f 0c3f
00000270: d20a b83f 4b05 32bf fa71 9fbe dae0 923f
00000280: abc4 493f 3416 073f 6a3e 363e 99b6 4c3d
00000290: 12bb 81bf 0e9c 21bf 05b2 323f 6e1f 883d
000002a0: 5f8a 2bbe 0c6d 4c3f 4cb9 063e 58cf e5be
000002b0: 562b f7be 97f3 cd3d 3822 01bf 5f64 b43b
000002c0: 64b9 e7be 7943 ed3e aeb9 8fbe a719 b1be
000002d0: ec43 84be c167 fbbe 487e 8fbe 27bf fabc
000002e0: d358 1bbf a2ff 453e 9028 813f c7f6 603e
000002f0: cc32 b0be 962d 2d3e a01b 4f3f 4db7 3dbf
00000300: 2c2f ae3f eb82 f9bd 6950 933e 066f e03e
00000310: 1eda 523e 027f bbbe 3868 b0bd 58e7 843e
00000320: cd91 3ebe 801c b0be 6ef3 0a3f 02e3 2f3f
00000330: c35d b53c 2983 ce3e 498d debe 77c4 45bf
00000340: 436c d1be 0a7b babe dcf9 3c3f 6d2a 0f3f
00000350: 3d6a 33be 24d4 90be afcf 02bf 4b87 843e
00000360: 8d0a d8be 7923 90bd cc79 8fbe 9a64 fa3d
00000370: 8c18 07be 722b a73e 231c 97be 5d6b e4be
00000380: 6694 dcbd 7123 d03c 958a a6be 1b3b 9ebe
00000390: 28d6 083f 24d4 bcbc e59a 9abd f992 1f3f
000003a0: 6550 7dbf e759 69bd 5058 2fbd 0560 8bbe
000003b0: 5b32 fabe 3424 833e 4d3a 9fbe 0d3f 31bf
000003c0: b014 163e ec56 55bf 372f b6be 524f 453f
000003d0: dcde 9fbe b340 dc3c d9a3 653e 9ef3 99be
000003e0: 11f0 6cbf 6a8f 3abf 3661 4d3f f4a3 c1be
000003f0: 9d5b b1be 6c68 d8be 9bb0 dfbe 4a95 063f

actor.4.bias f4 [16]
0.13948677 0.14486513 -0.024221884 0.055418544 -0.25747058 -0.7301738 0.0023941013 0.15814595
-0.72578937 0.10896755 -0.00036957252 -0.92376214 -0.4472387 -0.12824073 -0.5929117 0.28899097
00000000: 9fd5 0e3e 8657 143e f96c c6bc 8efe 623d
00000010: 2fd3 83be acec 3abf 5be6 1c3b 03f1 213e
00000020: 55cd 39bf 612a df3d 2fc3 c1b9 ad7b 6cbf
00000030: 79fc e4be 8a51 03be 10c9 17bf a0f6 933e

critic.0.weight f4 [128, 35]
0.0993991 -0.058402963 0.1046321 -0.02326914 0.039166093 -0.0019462479 0.021444572 -0.0025351327
0.017745452 0.17316087 1.8021702 -0.28496262 -0.80220807 -1.1395351 -1.0193284 -0.1372937
0.3268931 0.4125769 0.10917323 0.18334873 0.01613992 0.10383983 0.05504235 -0.07618586
-0.09191128 -0.4478335 0.022192288 -0.08586708 0.2004323 0.23126926 0.2966417 0.1874249
-0.46569732 0.28296092 0.59045255 0.12273286 0.13979653 0.19167867 0.11971606 0.28099996
0.1406828 0.10743573 0.08809549 0.14139058 0.22175787 0.05235681 -1.0375069 0.60802925
0.9423789 0.59350336 0.37275517 0.19594392 -0.09976811 -0.31622872 -0.2738941 0.185275
-0.2775466 -0.17875783 -0.08848444 -0.16979921 -0.22157593 0.43501934 0.25686413 0.10945905
0.21050783 -0.16617358 -0.44347963 -0.42216924 0.058883056 -0.38545012 -0.034312863 -0.024206778
-0.03282196 0.009466083 0.025824487 -0.037380524 0.04169047 0.00245075 0.036594067 0.042077318
-0.8451838 0.58799464 1.2790872 1.2386887 1.1506484 0.35541344 0.33040953 0.12967098
0.18331937 0.2869085 0.007119826 -0.18641153 -0.25014368 0.3516329 0.07379192 -0.26962823
-0.93547875 -0.024902726 0.022890262 0.06053632 0.1689163 0.1781701 -0.13544194 -0.42401493
0.42824644 0.21325985 0.1457624 0.13400601 0.13023964 0.13136923 0.09700237 0.105077446
0.06156733 0.104591936 0.09513425 -1.5145292 0.87523896 0.13916281 -0.021038396 -0.49431378
0.31416318 0.031812556 0.00437036 0.31268808 0.3906824 -0.21997035 0.11134262 0.017161427
-0.13510592 -0.7169446 -0.35514614 0.083706975 0.11490356 0.092084415 0.16504775 0.28185126
0.21572836 0.4407363 0.5458093 0.8431341 -0.043136515 -0.031873148 -0.04014892 0.032853503
-0.02242424 -0.038889788 -0.008695538 -0.027416678 -0.023156792 0.040545344 -0.5365352 -0.19656444
0.30850372 0.37443635 -0.06904364 1.2011882 0.32608223 0.03503495 -0.13681355 0.0697496
0.20239435 0.30276263 0.0058517028 -0.14108008 -0.20034407 0.24177867 -0.578679 0.079328395
0.19777542 -0.013149407 0.24865314 -0.20646794 -0.37533772 -0.29812908 0.19106662 0.064645626
0.029581418 0.12877478 0.065875605 -0.016377214 0.011602369 0.098993026 0.046008784 0.10167129
0.13357212 -2.4859297 -1.2815285 -0.9701371 -0.8420003 -0.7065647 1.0366452 0.22371139
0.3411197 -0.18557289 0.32914382 -0.22067076 -0.01632515 -0.080009595 0.18181805 -0.11756231
0.1795896 0.07238836 -0.073012546 0.12327899 0.15249589 0.093033195 -0.32577163 -0.08765667
-0.23542307 0.32380402 -0.11666648 -0.114924364 -0.10410088 -0.0776244 -0.12093682 -0.09679354
-0.11587655 -0.0584936 -0.18166478 -0.16694774 -0.6283314 -0.9034694 -1.0591215 -0.1470136
-1.4415079 0.03554687 -0.16742784 0.08262012 0.13452175 -0.31880173 -0.028563729 0.14447789
0.0081935525 -0.32513162 0.25084025 0.013069251 0.3672503 0.0034334084 0.114849575 0.2084626
0.2759032 -0.18923138 0.11663652 0.43519366 0.92847174 0.12378387 0.0781231 0.07948572
0.103236996 0.060460396 0.07308904 0.09503184 0.078192934 -0.006777517 0.021540817 -1.8632262
00000000: c191 cb3d f237 6fbd 5b49 d63d ec9e bebc
00000010: a06c 203d 3e19 ffba 87ac af3c 7824 26bb
00000020: e95e 913c 1551 313e 83ad e63f 9fe6 91be
00000030: 825d 4dbf 49dc 91bf 5a79 82bf b896 0cbe
00000040: 885e a73e 483d d33e 3796 df3d c5bf 3b3e
00000050: de37 843c faa9 d43d 1674 613d 5507 9cbd
00000060: fb3b bcbd 6f4a e5be 9acc b53c 14db afbd
00000070: 203e 4d3e d9d1 6c3e 6ce1 973e 50ec 3f3e
00000080: e16f eebe 41e0 903e e627 173f 5e5b fb3d
00000090: d226 0f3e 6a47 443e b22d f53d 3adf 8f3e
000000a0: 270f 103e 4407 dc3d 696b b43d b1c8 103e
000000b0: 7f14 633e 1874 563d 07cd 84bf cea7 1b3f
000000c0: be3f 713f d6ef 173f c4d9 be3e 86a5 483e
000000d0: 3953 ccbd bbe8 a1be d93b 8cbe bbb8 3d3e
000000e0: 971a 8ebe 4b0c 37be 5537 b5bd d8df 2dbe
000000f0: cde4 62be dbba de3e b283 833e 112c e03d
00000100: 5d8f 573e 6829 2abe c30f e3be 9126 d8be
00000110: 5c2f 713d b859 c5be a58b 0cbd 4b4d c6bc
00000120: 5270 06bd a117 1b3c e08d d33c 521c 19bd
00000130: a0c3 2a3d c39c 203b a9e3 153d 4459 2c3d
00000140: f75d 58bf d186 163f 21b9 a33f 5a8d 9e3f
00000150: 7248 933f c0f8 b53e 702b a93e 78c8 043e
00000160: 13b8 3b3e ace5 923e 6e4d e93b aae2 3ebe
00000170: d512 80be 3a09 b43e 3820 973d b60c 8abe
00000180: 897b 6fbf cd00 ccbc 5c84 bb3c eff4 773d
00000190: 65f8 2c3e 3972 363e 4bb1 0abe 7c18 d9be
000001a0: 1e43 db3e ca60 5a3e bd42 153e df38 093e
000001b0: 8a5d 053e a885 063e 2ea9 c63d d832 d73d
000001c0: 062e 7c3d 4c34 d63d bfd5 c23d 18dc c1bf
000001d0: a90f 603f b280 0e3e b758 acbc b216 fdbe
000001e0: ffd9 a03e e24d 023d 3d35 8f3b a718 a03e
000001f0: 8607 c83e e83f 61be 9907 e43d 1f96 8c3c
00000200: 3559 0abe ae89 37bf b7d5 b5be 906e ab3d
00000210: 8f52 eb3d c196 bc3d 4702 293e cf4e 903e
00000220: e5e7 5c3e 30a8 e13e 29ba 0b3f a3d7 573f
00000230: eaaf 30bd 6b8d 02bd 3273 24bd 6591 063d
00000240: 0ab3 b7bc e64a 1fbd bb77 0ebc f198 e0bc
00000250: 50b3 bdbc e012 263d 5f5a 09bf 3048 49be
00000260: 33f4 9d3e 1fb6 bf3e c066 8dbd 89c0 993f
00000270: 40f4 a63e cf80 0f3d da18 0cbe e1d8 8e3d
00000280: 7740 4f3e b403 9b3e a4bf bf3b 4c77 10be
00000290: ff26 4dbe d494 773e 4f24 14bf ed76 a23d
000002a0: a485 4a3e 9c70 57bc ee9e 7e3e 556c 53be
000002b0: 442c c0be 60a4 98be f8a6 433e ed64 843d
000002c0: bb54 f23c 89dd 033e cae9 863d 8229 86bc
000002d0: dd17 3e3c dbbc ca3d b573 3c3d 0a39 d03d
000002e0: 21c7 083e 7919 1fc0 2009 a4bf e85a 78bf
000002f0: 558d 57bf 6de1 34bf cab0 843f 9914 653e
00000300: 3ea7 ae3e d206 3ebe 8a85 a83e 84f7 61be
00000310: 52bc 85bc 12dc a3bd 832e 3a3e 82c4 f0bd
00000320: 56e6 373e 5940 943d 9a87 95bd b279 fc3d
00000330: e227 1c3e 3088 be3d 8acb a6be 5785 b3bd
00000340: bf12 71be a4c9 a53e d6ee eebd 775d ebbd
00000350: d832 d5bd 8bf9 9ebd b9ad f7bd b13b c6bd
00000360: af50 edbd fc96 6fbd 5506 3abe 59f4 2abe
00000370: 54da 20bf c549 67bf 4b91 87bf bc8a 16be
00000380: 5583 b8bf 9899 113d 3472 2bbe bd34 a93d
00000390: 12c0 093e fb39 a3be 7bfe e9bc 03f2 133e
000003a0: 403e 063c a777 a6be 226e 803e 6920 563c
000003b0: 3b08 bc3e 0903 613b 4136 eb3d 3877 553e
000003c0: 2f43 8d3e dfc5 41be 21df ee3d b4d1 de3e
000003d0: 53b0 6d3f 6682 fd3d 01ff 9f3d 69c9 a23d
000003e0: eb6d d33d 52a5 773d b5af 953d 0ea0 c23d
000003f0: 9e23 a03d ef15 debb 5e76 b03c 327e eebf

critic.0.bias f4 [128]
0.4844189 -0.61027753 -0.16100593 -0.13075846 -0.40178126 -0.28684086 -0.14597867 -0.3386879
0.3033433 -0.3543444 0.36993393 0.032173 0.6230851 -0.04012627 0.19949044 -0.111972146
0.5607654 -0.29051024 -0.22930844 0.52304256 -0.41663963 -0.4192784 -0.42997208 0.27126706
0.3527894 -0.4515984 0.003881705 0.11700406 0.04694384 0.09897723 0.036575034 -0.05660728
-0.16975452 -0.42934653 -0.33807415 -0.09860013 -0.5845008 -0.045555856 0.23975931 -0.1501912
0.18325518 -0.15078521 -0.574734 -0.24569452 -0.32021007 -0.6087865 -0.0061528934 0.06412228
0.108042315 0.12718341 -0.13518602 0.06347524 -0.0403477 -0.7649983 -0.52618945 -0.12375008
-0.20387346 -0.30606282 0.38805327 -0.2055111 -0.06702746 0.06541534 -0.07107852 0.17269336
0.08956677 -0.5667756 -0.44888362 -0.20845434 0.05335425 -0.02518575 -0.019540038 0.54371226
0.39310104 0.35285696 -0.08374094 0.177524 -0.09173274 0.21501133 0.13500328 0.36253795
0.04146902 0.12926187 0.40664488 0.12898146 -0.108764626 0.8024694 0.06914082 0.17809422
0.3834426 0.09335272 -0.3589383 0.56374407 -0.2753538 -0.37169325 -0.70677346 0.29600582
0.17793727 0.14205658 -0.3846712 0.017515758 -0.24806486 -0.6020473 0.36012876 0.26314384
-0.10273974 -0.2854281 0.18958467 0.056460787 -0.2543534 0.006847713 -0.29816926 0.6024396
0.68893063 -0.080321245 -0.76874596 -0.17549753 0.8843639 -0.41786662 0.32017216 0.13865225
-0.3654986 -0.10183048 -0.010323803 0.059776966 -0.09943472 -0.46580175 -0.16235143 0.07955897
00000000: c105 f83e 263b 1cbf bdde 24be 8ce5 05be
00000010: 46b6 cdbe cedc 92be 6f7b 15be 8068 adbe
00000020: d04f 9b3e a16c b5be fb67 bd3e d6c7 033d
00000030: 8182 1f3f 725b 24bd 3947 4c3e a751 e5bd
00000040: 528e 0f3f c2bd 94be d5cf 6abe 1ee6 053f
00000050: ca51 d5be a9ab d6be 4d25 dcbe 84e3 8a3e
00000060: d0a0 b43e e837 e7be 3464 7e3b d39f ef3d
00000070: 2f48 403d 93b4 ca3d b4cf 153d 09dd 67bd
00000080: 21d4 2dbe 4fd3 dbbe 0e18 adbe ddee c9bd
00000090: d8a1 15bf c798 3abd 7783 753e b9cb 19be
000000a0: 3fa7 3b3e 7067 1abe c421 13bf 5897 7bbe
000000b0: 93f2 a3be 6fd9 1bbf 369e c9bb 8b52 833d
000000c0: 4a45 dd3d 5e3c 023e 346e 0abe 4eff 813d
000000d0: a143 25bd eed6 43bf 5ab4 06bf af70 fdbd
000000e0: 34c4 50be 44b4 9cbe ebae c63e 8071 52be
000000f0: b145 89bd 7af8 853d 9d91 91bd 87d6 303e
00000100: c86e b73d 3518 11bf 13d4 e5be 0e75 55be
00000110: fc89 5a3d 5952 cebc 6e12 a0bc ba30 0b3f
00000120: 8a44 c93e aba9 b43e 5f80 abbd dac8 353e
00000130: 60de bbbd ee2b 5c3e 4d3e 0a3e 939e b93e
00000140: 6bdb 293d 395d 043e c233 d03e b713 043e
00000150: fdbf debd a26e 4d3f b499 8d3d 555e 363e
00000160: 9752 c43e b62f bf3d c3c6 b7be 8851 103f
00000170: 2cfb 8cbe 944e bebe 1bef 34bf 138e 973e
00000180: 3035 363e 4877 113e a0f3 c4be 357d 8f3c
00000190: b704 7ebe c61f 1abf cc62 b83e caba 863e
000001a0: 3669 d2bd a223 92be 7c22 423e 6d43 673d
000001b0: 9c3a 82be c862 e03b a4a9 98be 7b39 1a3f
000001c0: c25d 303f 777f a4bd 89cc 44bf a0b5 33be
000001d0: ac65 623f 9df2 d5be 9bed a33e dbfa 0d3e
000001e0: a222 bbbe 808c d0bd 2b25 29bc b1d8 743d
000001f0: 6ea4 cbbd 917d eebe 743f 26be d0ef a23d

critic.2.weight f4 [64, 128]
-0.043823052 -0.14450425 0.059348848 -0.08317274 -0.038245995 -0.06120977 -0.12676609 -0.3328894
-0.022132829 -0.11282548 -0.035528548 0.007332854 0.061277308 -0.048277516 -0.17755973 -0.12313674
-0.10896634 0.16562207 -0.14569941 0.105270654 -0.074076466 0.042084184 0.01226538 -0.11622803
0.080058776 -0.10490912 0.059762545 0.09224558 0.055493526 -0.01592886 0.042199764 -0.071055785
-0.08660012 -0.15813 0.035801467 0.121210866 -0.10333955 0.06009744 0.13969974 -0.018755395
-0.028580569 0.09667745 0.09441645 0.011475231 -0.14081855 -0.16085918 0.045505945 -0.081187434
0.026082013 0.03380228 -0.0060565113 -0.16732165 -0.18104422 -0.07688836 -0.20177393 0.105114155
0.07405235 -0.028071156 0.122838706 -0.13790673 -0.011330617 0.043647774 0.0013031967 0.055777516
0.049007352 -0.13626699 0.036814943 -0.02656796 0.013056051 0.043590065 -0.01529622 0.096265644
-0.07493247 0.074220575 0.13709356 -0.017726496 -0.094695225 0.29033646 0.04437871 0.1389532
0.08203074 0.038126696 -0.114378564 -0.0069608474 0.013879852 0.11520359 0.13114505 0.06292398
0.12212731 0.08435643 -0.109487414 0.045369573 -0.121960655 -0.019431077 -0.09543118 0.03976939
-0.20008272 -0.12700067 -0.061711106 -0.09335023 -0.10582967 -0.07905518 0.111113325 -0.07292828
-0.09270524 -0.0767979 0.15750363 0.10414425 -0.08801066 -0.16808082 -0.031192893 -0.011219158
-0.071608 0.09292433 -0.14937177 -0.23698056 -0.047977712 -0.04731119 -0.057262737 -0.07904663
-0.048007645 -0.063019685 -0.035373103 -0.12775165 -0.09776852 0.029270396 0.03144984 -0.020746393
-0.15840125 -0.20990016 -0.13513668 -0.18859184 0.2000207 0.063783035 -0.10891688 -0.0038037496
-0.07604241 -0.09729642 -0.2771072 0.3312775 -0.03400346 0.11292075 -0.12859505 -0.2619431
-0.21750028 0.10047533 -0.49108025 0.034724932 -0.08612784 -0.052310254 -0.040771823 0.066604145
-0.2599978 -0.27040327 -0.12608084 0.005049576 -0.0056162183 -0.36058816 -0.39005706 0.10580007
-0.17439999 -0.07426246 -0.07452882 -0.079832025 -0.24959624 0.051680245 -0.67235 -0.12373923
-0.23066242 -0.351425 -0.20564136 -0.58289236 -0.06391872 -0.2187575 -0.17246246 -0.04501159
0.10303463 0.012303568 0.060482785 -0.30427253 -0.18376009 -0.037107963 0.16750832 -0.22551864
0.006049104 0.5638848 -0.24806312 -0.1984619 -0.12097622 -0.04035345 0.016228499 -0.5797332
0.18904449 0.018363982 -0.24884604 -0.23468578 0.016893264 -0.23347667 0.11895174 0.28666884
0.12110872 -0.3759708 -0.10462829 -0.3187233 -0.09787638 0.3009205 -0.32513228 0.19329041
-0.23242833 -0.12051497 -0.06020073 0.104742005 0.033205893 0.050830252 0.024072 -0.24289262
-0.26329264 0.44438353 -0.20473163 -0.34364325 -0.1534892 -0.5287281 -0.20720942 -0.07660691
-0.27464926 -0.28064144 -0.23845822 -0.15673192 0.010288498 -0.08271607 -0.4508161 -0.13206416
-0.12365898 -0.21280417 0.054436725 -0.35511908 0.10061208 -0.11589846 -0.101504356 -0.39024693
-1.007224 0.06437224 0.017729325 -0.5594731 0.41379625 0.092471085 0.016395286 0.108345084
-0.5696758 -0.19771305 -0.2962682 0.11159909 -0.13388444 -0.13723432 -0.05879654 -0.034610312
00000000: cd7f 33bd ecf8 13be c717 733d 7856 aabd
00000010: d5a7 1cbd 19b7 7abd f8ce 01be 7b70 aabe
00000020: e84f b5bc 0c11 e7bd 6286 11bd 7048 f03b
00000030: eafd 7a3d a5be 45bd 38d2 35be 1d2f fcbd
00000040: bf29 dfbd d598 293e 3a32 15be 2498 d73d
00000050: 67b5 97bd 7760 2c3d bbf4 483c f608 eebd
00000060: dbf5 a33d 98da d6bd 92c9 743d 40eb bc3d
00000070: 2e4d 633d 3e7d 82bc a9d9 2c3d b285 91bd
00000080: 675b b1bd d5ec 21be 8fa4 123d 673d f83d
00000090: b0a3 d3bd bc28 763d 730d 0f3e eaa4 99bc
000000a0: cc21 eabc d4fe c53d 695d c13d 9b02 3c3c
000000b0: bd32 10be 45b8 24be 7164 3a3d 9945 a6bd
000000c0: f2a9 d53c 4274 0a3d b375 c6bb 5e56 2bbe
000000d0: a863 39be a577 9dbd d39d 4ebe 1746 d73d
000000e0: c2a8 973d 7bf5 e5bc dc92 fb3d 6c37 0dbe
000000f0: 0da4 39bc 02c8 323d 06d0 aa3a f776 643d
00000100: efbb 483d 9389 0bbe 44cb 163d 0da5 d9bc
00000110: 0ce9 553c 7f8b 323d ff9c 7abc ec26 c53d
00000120: 3276 99bd f500 983d 4162 0c3e 2837 91bc
00000130: 92ef c1bd fba6 943e 73c6 353d bf49 0e3e
00000140: bcff a73d bd2a 1c3d 4f3f eabd d217 e4bb
00000150: 5268 633c dcef eb3d e34a 063e 4ade 803d
00000160: e21d fa3d 10c3 ac3d f03a e0bd 72d5 393d
00000170: 82c6 f9bd ec2d 9fbc 6c71 c3bd 3ae5 223d
00000180: 7ce2 4cbe 770c 02be c9c4 7cbd 682e bfbd
00000190: 3abd d8bd afe7 a1bd 628f e33d 6c5b 95bd
000001a0: 3fdc bdbd 3848 9dbd a248 213e 9549 d53d
000001b0: ef3e b4bd 611d 2cbe 3d88 ffbc 8fd0 37bc
000001c0: 37a7 92bd 1c4f be3d eaf4 18be 08ab 72be
000001d0: 4784 44bd 61c9 41bd 558c 6abd 33e3 a1bd
000001e0: aaa3 44bd 7710 81bd 63e3 10bd 54d1 02be
000001f0: dd3a c8bd 78c8 ef3c 8cd1 003d 57f4 a9bc
00000200: f033 22be 11f0 56be 4561 0abe 381e 41be
00000210: 3ad2 4c3e aea0 823d d00f dfbd 5448 79bb
00000220: 20bc 9bbd 5843 c7bd ffe0 8dbe 349d a93e
00000230: 3647 0bbd ff42 e73d 6cae 03be 681d 86be
00000240: 65b8 5ebe 03c6 cd3d df6e fbbe bb3b 0e3d
00000250: cb63 b0bd 4743 56bd 5b00 27bd c167 883d
00000260: 6f1e 85be 4c72 8abe 561b 01be ea76 a53b
00000270: 4108 b8bb 039f b8be 8fb5 c7be b5ad d83d
00000280: e995 32be eb16 98bd 91a2 98bd f97e a3bd
00000290: 2896 7fbe aaae 533d 211f 2cbf fe6a fdbd
000002a0: c532 6cbe faed b3be a693 52be 6f38 15bf
000002b0: d1e7 82bd f701 60be 009a 30be 135e 38bd
000002c0: d203 d33d e894 493c ccbc 773d 9cc9 9bbe
000002d0: 9b2b 3cbe 85fe 17bd 4d87 2b3e 5cee 66be
000002e0: 9037 c63b c15a 103f 4204 7ebe 9939 4bbe
000002f0: 61c2 f7bd a949 25bd a1f1 843c 6569 14bf
00000300: e194 413e 1070 963c 7fd1 7ebe 7851 70be
00000310: be63 8a3c 8214 6fbe f89c f33d 42c6 923e
00000320: d907 f83d 3f7f c0be 5b47 d6bd b32f a3be
00000330: 6973 c8bd 4012 9a3e bd77 a6be eced 453e
00000340: b101 6ebe 8dd0 f6bd 0a95 76bd fa82 d63d
00000350: e702 083d 6233 503d a532 c53c d8b8 78be
00000360: 4bce 86be 3d86 e33e 2ba5 51be 02f2 afbe
00000370: 462c 1dbe ba5a 07bf b52e 54be 15e4 9cbd
00000380: d49e 8cbe 3cb0 8fbe 642e 74be 557e 20be
00000390: 1791 283c 0b67 a9bd 5ed1 e6be d43b 07be
000003a0: eb40 fdbd 56e9 59be 0bf9 5e3d 2bd2 b5be
000003b0: b50d ce3d 2c5c edbd 84e1 cfbd 72ce c7be
000003c0: b7ec 80bf 98d5 833d 173d 913c a139 0fbf
000003d0: 1add d33e 7b61 bd3d 684f 863c 07e4 dd3d
000003e0: 46d6 11bf 4a75 4abe 77b0 97be 108e e43d
000003f0: 0119 09be 2787 0cbe a4d4 70bd 8bc3 0dbd

critic.2.bias f4 [64]
-0.015978498 0.18793719 0.00019603022 -0.3512466 0.12485584 0.08736958 0.019981965 -0.0016762904
0.06554554 -0.00903941 -0.114144295 -0.34758747 -0.028700575 0.029749567 -0.39863458 0.12595572
-0.0013738222 0.040697444 0.11243068 0.051301528 0.0075308303 -0.13407505 -0.021676375 -0.027051298
0.074203804 0.041462585 0.15262845 -0.009999841 -0.04959949 -0.19465534 0.07813074 0.035163403
0.12796596 -0.20530476 -0.23663667 -0.050247755 -0.0701463 -0.279577 -0.035731006 -0.06744125
-0.1646504 -0.009986699 0.097478025 0.10933334 -0.09362294 -0.11172227 0.13131 -0.41943797
0.14505662 -0.035421018 0.05330199 -0.15645853 -0.023757325 0.071502395 0.025347212 -0.11792256
0.12598994 -0.014726706 -0.029812116 -0.13892266 0.06049519 -0.07592545 0.08591651 0.065804735
00000000: 57e5 82bc 9b72 403e 768d 4d39 98d6 b3be
00000010: 6bb4 ff3d d3ee b23d 38b1 a33c f9b6 dbba
00000020: bd3c 863d 091a 14bc 7cc4 e9bd fcf6 b1be
00000030: 781d ebbc 5db5 f33c d519 ccbe 89fa 003e
00000040: d311 b4ba 5db2 263d 0e42 e63d 8d21 523d
00000050: 2fc5 f63b f84a 09be a792 b1bc af9a ddbc
00000060: 2af8 973d acd4 293d a24a 1c3e 60d6 23bc
00000070: d628 4bbd bb53 47be 0203 a03d 8007 103d
00000080: 8209 033e 693b 52be e250 72be 97d0 4dbd
00000090: dda8 8fbd b724 8fbe ad5a 12bd a31e 8abd
000000a0: 1d9a 28be 409f 23bc 8fa2 c73d 28ea df3d
000000b0: 62bd bfbd a5ce e4bd 2176 063e 93c0 d6be
000000c0: b989 143e a115 11bd 3053 5a3d aa36 20be
000000d0: b99e c2bc d96f 923d f5a4 cf3c 6281 f1bd
000000e0: 8203 013e 4848 71bc 8a38 f4bc be41 0ebe
000000f0: cec9 773d cd7e 9bbd fff4 af3d a2c4 863d

critic.4.weight f4 [1, 64]
-0.32126123 0.5586613 -0.54808325 0.26482996 -0.53162515 -0.3378584 -0.47265995 -0.49893972
0.37752682 0.00846401 0.08177388 0.06937476 -0.09177069 0.21993375 0.51986754 0.58241117
-0.3696459 -0.28927296 0.14622846 -0.13375041 0.077051945 0.5650347 0.4552352 -0.30346438
0.39576998 0.6977073 0.50682044 -0.09164767 0.4363542 -0.15086973 0.39412394 -0.231744
0.18089506 0.42797485 0.43114045 -0.11784333 0.1198015 0.5802991 0.42009923 -0.40787464
-0.5497137 -0.16567212 -0.12344645 -0.66631514 0.17323609 -0.4960744 -0.3783771 0.50203025
0.3159279 0.3740061 -0.12348086 0.508335 -0.2968858 -0.12242486 -0.32253885 -0.08962389
-0.4612402 0.31738773 0.44345018 0.54084796 0.16564415 0.4243154 0.12962694 0.09549466
00000000: 5a7c a4be 6d04 0f3f 2f4f 0cbf cb97 873e
00000010: 9618 08bf c7fb acbe 7c00 f2be 0775 ffbe
00000020: 324b c13e a2ac 0a3c 1079 a73d 5b14 8e3d
00000030: 46f2 bbbd 5036 613e 0a16 053f e618 153f
00000040: 3a42 bdbe 961b 94be eabc 153e def5 08be
00000050: 69cd 9d3d 1da6 103f 9714 e93e af5f 9bbe
00000060: 5da2 ca3e f29c 323f fcbe 013f c6b1 bbbd
00000070: d169 df3e 987d 1abe 9dca c93e 4d4e 6dbe
00000080: 8e3c 393e 851f db3e 71be dc3e d857 f1bd
00000090: 7d5a f53d 7b8e 143f 3f17 d73e f2d4 d0be
000000a0: 09ba 0cbf f4a5 29be 7ed1 fcbd a193 2abf
000000b0: cd64 313e 77fd fdbe a5ba c1be 0e85 003f
000000c0: 4dc1 a13e ba7d bf3e 88e3 fcbd 3e22 023f
000000d0: 6a01 98be e3b9 fabd d023 a5be bb8c b7bd
000000e0: ad27 ecbe a580 a23e e70b e33e 0375 0a3f
000000f0: 9f9e 293e de3f d93e edbc 043e b492 c33d
