PPO_preTrained/20220510/PPO_20220510_0_1225.pth (torch, 110785 bytes, 11 tensors)

actor.0.weight f4 [128, 35]
0	0x3e1f0e4c	0.15532798
1	0xbde6bbf9	-0.11266322
2	0x3e464972	0.19363955
3	0x3e17f6aa	0.14840189
4	0xbe09002c	-0.13378972
5	0xbb52a6fd	-0.003214299
6	0x3c181d87	0.009284384
7	0x3e18ba15	0.14914735
8	0xbdad93be	-0.08475445
9	0x3d46bb8f	0.048518714
10	0x3ecbc257	0.39796707
11	0x3e2124ae	0.15736648
12	0xbdf48cb4	-0.119408995
13	0xbf7fe159	-0.9995323
14	0x3f371a58	0.7152457
15	0xbd529a32	-0.051416583
16	0x3cdcbf78	0.026946768
17	0x3bbeb2be	0.0058196476
18	0x3d4bca05	0.049753208
19	0xbda4a70d	-0.08039675
20	0x3e00ae53	0.125665
21	0xbc122dcc	-0.008922052
22	0x3d234750	0.03986293
23	0xbc41b2e1	-0.011822433
24	0xbd9cb688	-0.076520026
25	0xbd9e01ab	-0.07715162
26	0x3ce353db	0.027749946
27	0x3e719938	0.23593605
28	0x3dec84bb	0.11548754
29	0x3d0f5148	0.034989625
30	0x3e981d5f	0.29709908
31	0x3e8130e2	0.25232607
32	0xbc88105a	-0.01660936
33	0xbf61d476	-0.88214815
34	0xbd5ba101	-0.053620342
35	0x3dc6ae44	0.09701207
36	0x3d2dde8c	0.042448565
37	0x3d882ebf	0.06649541
38	0x3d404954	0.04694493
39	0x3d8701ca	0.06592138
40	0x3e66c584	0.22536284
41	0x3dec2d02	0.11532022
42	0xbd752773	-0.059852075
43	0x3e5ebdc8	0.21752083
44	0x3e1d4ce2	0.1536136
45	0xbf3144b0	-0.69245434
46	0xbdff7363	-0.1247318
47	0x3d42bb6d	0.047542024
48	0xbf286d2f	-0.657916
49	0x3f88ecb2	1.0697234
50	0x3e5a99ca	0.21347728
51	0x3de97e19	0.11401004
52	0x3e175c1e	0.14781234
53	0x3dd1fb0c	0.102529615
54	0x3e2d0621	0.16896869
55	0x3e884f64	0.2662307
56	0xbdb684a0	-0.08912015
57	0xbe624a16	-0.22098574
58	0xbe146437	-0.14491354
59	0xbcff20db	-0.031143596
60	0xbd0502e5	-0.032473464
61	0x3d8982ae	0.06714378
62	0x3d16fc3d	0.036861647
63	0x3e3715a1	0.17879345
64	0xbd1c95f3	-0.03822894
65	0x3dc6b284	0.09702018
66	0x3dc173ef	0.09445941
67	0xbe0a22fe	-0.13489911
68	0x3e2cd5f1	0.16878487
69	0xbea48f52	-0.32140595
70	0xbe1dab02	-0.15397266
71	0xbda2da23	-0.079517625
72	0x3db7e98d	0.08980093
73	0x3e2d00c9	0.16894831
74	0xbc857870	-0.01629278
75	0x3ddd53f3	0.10807028
76	0x3cd6228e	0.026139524
77	0xbdeb8f17	-0.115019016
78	0x3df10428	0.11768371
79	0x3e197906	0.14987573
80	0x3f799b5b	0.9750268
81	0x3e9cb58c	0.3060726
82	0xbee8b488	-0.45450234
83	0x3f5f6b9b	0.8727357
84	0xbf84d62a	-1.0377858
85	0xbda48b6d	-0.08034406
86	0xbd40e6a3	-0.047094952
87	0x3e694097	0.22778545
88	0x3e7ef0b0	0.24896502
89	0x3e9e792b	0.3095182
90	0xbe6d3749	-0.23165621
91	0x3e00f639	0.12593926
92	0x3dbf9311	0.093542226
93	0x3df39646	0.11893897
94	0xbe2b3a3c	-0.16721433
95	0x3ba07e96	0.0048979027
96	0x3df03a0b	0.11729821
97	0xbd9bd098	-0.076081455
98	0x3d0b13c0	0.033954382
99	0x3e000b53	0.1250432
100	0xbdb4f224	-0.08835247
101	0x3de02f1d	0.10946486
102	0x3e992652	0.2991205
103	0x3cce594f	0.02518907
104	0x3e0b0173	0.13574772
105	0xbc8ec6f0	-0.017428845
106	0x3dbd7a54	0.09251848
107	0xbdfeb510	-0.12436879
108	0xbd43f8b5	-0.047844607
109	0x3dc156f5	0.09440414
110	0x3e74266f	0.23842786
111	0xbd53af5e	-0.051680915
112	0x3e3bafc2	0.18328765
113	0x3cd4da9d	0.02598315
114	0xbdf24551	-0.11829627
115	0xbed95327	-0.42446253
116	0x3db016d8	0.08598107
117	0x3f248be0	0.6427593
118	0xbedf1d28	-0.43576932
119	0x3f029b2e	0.51018035
120	0x3f405460	0.75128746
121	0x3dc48dcb	0.09597357
122	0x3e066bc3	0.13127045
123	0x3e3b4395	0.18287499
124	0x3d5d53a6	0.05403485
125	0xbdbf36d5	-0.0933663
126	0xba5a4e8d	-0.0008327745
127	0x3e4e8966	0.20169601
128	0x3b8d47e4	0.0043115485
129	0x3e4ac223	0.1980062
130	0xbd460896	-0.048348032
131	0x3bff0425	0.0077824765
132	0x3d19663d	0.037451018
133	0xbe7f428c	-0.2492773
134	0x3e8320d5	0.25610986
135	0xbd9470f9	-0.0724811
136	0x3e9fedab	0.31236014
137	0x3ea11959	0.3146465
138	0x3e2115c7	0.15730964
139	0x3cb464ec	0.02202078
140	0xbd8abef4	-0.06774703
141	0x3e5017e0	0.20321608
142	0xbd7ea637	-0.062170234
143	0xbdd97761	-0.10618473
144	0xbca70cde	-0.020391878
145	0x3de71aec	0.11284432
146	0xbc58320e	-0.013195528
147	0xbdbd2d7f	-0.09237193
148	0xbd6a8a04	-0.05726053
149	0x3d35d944	0.044396654
150	0x3e8116b9	0.2521265
151	0xbe1a2f97	-0.15057217
152	0xbeffa130	-0.49927664
153	0x3d9cfb78	0.07665151
154	0xc00e2cf5	-2.221494
155	0xbee07382	-0.43838125
156	0x3c4bfe9a	0.012450838
157	0x3e5f3fc9	0.21801676
158	0x3e728514	0.23683578
159	0x3d15bf0f	0.03655916
160	0x3e9818db	0.29706463
161	0x3e4c92f4	0.19977933
162	0xbe08f4e7	-0.13374673
163	0x3d8a76e1	0.067609556
164	0xbd9b7ef4	-0.07592574
165	0x3e0893bc	0.13337606
166	0x3d96cc58	0.07363194
167	0x3db00ccf	0.08596193
168	0x3db02070	0.08599937
169	0xbb6cda57	-0.0036140883
170	0x3d81fd57	0.06347149
171	0xbdab3db2	-0.08361377
172	0x3f2156ad	0.6302288
173	0xbea82709	-0.3284228
174	0x3e881c50	0.265841
175	0xbd17449f	-0.036930677
176	0x3e505f66	0.20348892
177	0x3dccec84	0.10006049
178	0x3e5b937f	0.21442984
179	0xbe3123d7	-0.17298828
180	0x3d0192fa	0.03163431
181	0x3e6323d8	0.22181642
182	0x3e778bc3	0.24174409
183	0x3e2078a3	0.1567102
184	0x3dd6512c	0.10464701
185	0x3db1dc9e	0.086846575
186	0x3b44ad3e	0.0030010487
187	0xbf3b5fc2	-0.7319299
188	0xbdba8046	-0.091064975
189	0xbedd9cb5	-0.4328362
190	0xbe7cfaca	-0.24705043
191	0x3dba2171	0.0908841
192	0xbbc3091c	-0.0059520137
193	0xbd9f0708	-0.07765013
194	0x3bbf2b7a	0.00583404
195	0xbe3fe406	-0.18739328
196	0x3d9d582a	0.076828316
197	0xbe587f53	-0.2114232
198	0xbdae5616	-0.08512513
199	0xbd10cbba	-0.03535054
200	0x3dc137a1	0.094344385
201	0x3d2c8a24	0.04212393
202	0x3dd4bc9b	0.10387536
203	0x3ce42a05	0.027852068
204	0xbe2e0d52	-0.16997269
205	0x3dc07d28	0.09398872
206	0x3db3a607	0.087719016
207	0xbe362435	-0.1778725
208	0x3e3b0591	0.18263842
209	0xbcfbf38b	-0.030755779
210	0xbd7e2ac5	-0.062052507
211	0x3cc628e8	0.024189427
212	0xbe140ee8	-0.14458811
213	0x3cfdb1b0	0.030968517
214	0x3e00d990	0.12582994
215	0xbde850e0	-0.11343551
216	0x3cf018c5	0.029308686
217	0x3dc73660	0.09727168
218	0x3d8d1758	0.06889218
219	0x3e015362	0.12629464
220	0x3f28feaa	0.66013587
221	0xbc124579	-0.008927696
222	0x3d664bd8	0.056224674
223	0xbe3880a6	-0.18017825
224	0xbe82a4e4	-0.25516427
225	0x3dd55a68	0.10417634
226	0xbd54b02b	-0.05192582
227	0x3e1ff4f7	0.1562079
228	0xbda23ecc	-0.07922134
229	0xbda3d15b	-0.07998916
230	0xbea012c5	-0.3126432
231	0x3daf7cb8	0.0856871
232	0xbdb19171	-0.08670319
233	0xbdccb57c	-0.09995553
234	0xbe63c57f	-0.22243308
235	0x3db4711c	0.088106364
236	0x3d13e48d	0.036106635
237	0xbe63b1f4	-0.22235852
238	0x3da23eec	0.07922158
239	0x3de0839b	0.10962602
240	0xbf2b5120	-0.6692066
241	0x3e878497	0.26468346
242	0x3d8646be	0.06556462
243	0xbc57b5e0	-0.013165921
244	0xbe550ddc	-0.20806068
245	0x3e3c70cd	0.18402405
246	0x3dfb60cb	0.12274321
247	0xbdbfabc4	-0.093589336
248	0x3c5c3601	0.01344061
249	0x3e26367c	0.16231722
250	0x3e319380	0.17341423
251	0xb9473975	-0.00018999523
252	0xbda00c7c	-0.07814881
253	0x3e213016	0.15741
254	0x3eac6b9b	0.33675846
255	0xbf451553	-0.76985663

actor.0.bias f4 [128]
0	0x3be3eeb2	0.006955945
1	0xbdc636e0	-0.09678435
2	0x3e1e131d	0.15436979
3	0xbd97af8d	-0.074065305
4	0xbc5cd406	-0.013478285
5	0xbdf8f8cc	-0.12156829
6	0x3de97436	0.113991186
7	0xbe7894a8	-0.24275458
8	0x3d025c17	0.031826105
9	0xbd027af9	-0.031855557
10	0x3de159f2	0.11003484
11	0x3dd99635	0.10624353
12	0x3caa3452	0.020776901
13	0xbe2dd378	-0.169752
14	0x3d8877cc	0.066634744
15	0x3e89df69	0.2692826
16	0x3d96a3b4	0.07355443
17	0x3e5643d7	0.20924316
18	0x3eae6b86	0.3406641
19	0x3cd550a6	0.026039433
20	0x3c8fe80a	0.0175667
21	0xbe13b423	-0.14424185
22	0x3cc417a5	0.023937056
23	0x3dbc7bab	0.09203275
24	0xbe12746f	-0.14302228
25	0x3e1d4d37	0.15361486
26	0x3d211856	0.03932985
27	0x3e904d56	0.28184003
28	0xbe2d01ee	-0.16895267
29	0xbe12e4d4	-0.14345104
30	0xbd9f0d1d	-0.07766173
31	0xbe3d670e	-0.18496343
32	0x3ca91a61	0.020642461
33	0x3ea805a4	0.32816803
34	0xbcdb7c14	-0.026792563
35	0xbd729253	-0.059221577
36	0x3b7210b5	0.0036936228
37	0xbdae4c7d	-0.08510683
38	0x3e0d40e8	0.13794291
39	0x3e78375f	0.24239872
40	0x3e5bfc4d	0.21482964
41	0x3e4989f0	0.19681525
42	0x3d52a3fb	0.051425915
43	0x3b11b2b9	0.002223177
44	0x3e513726	0.20431194
45	0x3e208644	0.15676218
46	0x3deed449	0.11661584
47	0xbe14fb87	-0.14549075
48	0x3e89cb5e	0.2691297
49	0x3ea03519	0.3129051
50	0x3d67530d	0.056475688
51	0xbd74fe8f	-0.05981308
52	0xbc9c7698	-0.019099519
53	0x3d16672c	0.036719486
54	0x3cb20aa9	0.021733599
55	0x3dda7262	0.10666348
56	0x3e3e6c4e	0.18596002
57	0xbde4334a	-0.11142595
58	0xbe277eec	-0.1635701
59	0x3e02a1a6	0.12756976
60	0xbdc2acd2	-0.09505619
61	0xbda13060	-0.07870555
62	0x3e92a8b7	0.28644344
63	0x3e7797f3	0.24179058
64	0xbda9891d	-0.082781054
65	0x3e3ea836	0.18618855
66	0x3e0f51fb	0.13996117
67	0x3d39baee	0.045344286
68	0xbd9d4221	-0.07678629
69	0xbd23b0ee	-0.039963655
70	0xbcc718f2	-0.024303887
71	0x3e64eb31	0.22355343
72	0x3bb9de7c	0.005672274
73	0xbda02f04	-0.078214675
74	0xbe6347c6	-0.22195348
75	0xbd52b559	-0.051442478
76	0xbe872a73	-0.26399574
77	0xbe5db7a2	-0.21652082
78	0xbe1b3f6f	-0.15160917
79	0x3d4f4c93	0.050610136
80	0x3e77637d	0.24159046
81	0x3e100f82	0.14068416
82	0xbe9105ac	-0.2832464
83	0xbdd40a2e	-0.10353504
84	0x3d6a694b	0.05722932
85	0xbd89238c	-0.06696233
86	0xbe4ab2b8	-0.19794738
87	0xbb871a20	-0.0041229874
88	0x3e4bd9ab	0.19907252
89	0x3db801c8	0.08984715
90	0x3d0093e2	0.031391032
91	0x3e8b62e5	0.27223888
92	0xbcab0c54	-0.020879902
93	0xbd763b5e	-0.06011521
94	0x3dd5f212	0.10446562
95	0x3d89c5e0	0.06727195
96	0x3d4b1481	0.0495801
97	0xbd147df7	-0.036252942
98	0xbc856ba8	-0.016286686
99	0xbe29d866	-0.16586456
100	0xbd05f93a	-0.032708384
101	0x3e731f96	0.23742518
102	0xbc46f663	-0.012143704
103	0xbd0d1092	-0.03443963
104	0x3cd820e0	0.026382864
105	0x3dc1a15b	0.09454604
106	0x3e2589f8	0.16165912
107	0x3dfc83f9	0.12329859
108	0x3d80a40a	0.06281288
109	0xbe766019	-0.24060096
110	0xbe1da8e3	-0.15396456
111	0x3e7de7c6	0.24795446
112	0x3dac9bb1	0.08428133
113	0x3bc31b89	0.00595421
114	0xbcbc69a1	-0.022999587
115	0xbe6639c2	-0.2248297
116	0xbe05d4f6	-0.1306952
117	0x3e419378	0.18903911
118	0xbe1ff3e5	-0.15620382
119	0x3e9dd5f4	0.30827296
120	0x3d965e96	0.073422596
121	0x3e895156	0.26819867
122	0x3e74fbb2	0.23924139
123	0x3e9d4a78	0.30720878
124	0xbe3f9bea	-0.1871182
125	0x3d1d2d25	0.03837313
126	0x3e976071	0.29565766
127	0xbc2b6890	-0.010461941

actor.2.weight f4 [64, 128]
0	0xbea5ed6d	-0.32407704
1	0x3d215556	0.039388023
2	0x3d4ffc2b	0.050777595
3	0xbceedcf0	-0.029158086
4	0x3df2e550	0.11860144
5	0xbd0c51f3	-0.03425784
6	0xbe4fe44b	-0.2030193
7	0xbea0c6f9	-0.31401804
8	0x3e2d92d5	0.16950543
9	0xbd0bcdf9	-0.034131978
10	0x3d654582	0.05597449
11	0x3e0f0c17	0.13969456
12	0x3cf5e1a8	0.030014828
13	0xbd205457	-0.039142933
14	0x3d61859e	0.055059068
15	0x3d17bb16	0.037043653
16	0x3f1feb13	0.6246807
17	0xbde7406c	-0.11291584
18	0x3d919a31	0.07109488
19	0x3da1f0d3	0.07907262
20	0xbe55bd84	-0.20873076
21	0xbdba39ba	-0.09093042
22	0x3a71db4e	0.00092260994
23	0x3a0ade47	0.0005297404
24	0x3e16b11d	0.14716001
25	0x3d890c30	0.06691778
26	0xbe37be36	-0.17943653
27	0x3d8ad1f4	0.06778327
28	0x3d163232	0.036668964
29	0x3c876de3	0.01653189
30	0x3c749350	0.0149277
31	0x3df37a8f	0.118886106
32	0x3e7e0eb6	0.248103
33	0xbe82ea75	-0.25569502
34	0x3c3a7df5	0.01138257
35	0x3e3712da	0.17878285
36	0x3a0c5dc9	0.0005354551
37	0x3d016245	0.031587858
38	0xbe082781	-0.1329632
39	0x3c03bb25	0.008040224
40	0xbe08f36d	-0.1337411
41	0xbe30bad9	-0.17258777
42	0x3dfefee2	0.12450959
43	0x3ea1d4cb	0.3160766
44	0x3d2f0930	0.04273337
45	0x3e306705	0.17226799
46	0xbe4ae0bf	-0.19812296
47	0xbe090232	-0.13379744
48	0xbe98395c	-0.29731262
49	0x3cb5bfcb	0.02218618
50	0xbd545696	-0.051840387
51	0xbd8f2b94	-0.06990734
52	0x3d06fd5c	0.032956466
53	0x3d0a1d93	0.03371961
54	0xbe0d8f1c	-0.13824123
55	0xbdd70091	-0.10498155
56	0x3e2441fe	0.16040799
57	0x3e285e13	0.16442136
58	0xbd34ec67	-0.044170763
59	0xbe5f0e60	-0.21782827
60	0x3d9482c7	0.07251506
61	0x3e669e5c	0.22521347
62	0x3d6fea9f	0.05857336
63	0xbde26939	-0.11055226
64	0x3cbde638	0.023181066
65	0xbd991f1d	-0.074766375
66	0xbd2709a2	-0.04078067
67	0x3df1d913	0.11808982
68	0xbc8cf933	-0.017208671
69	0xbdbe98de	-0.09306501
70	0x3d488ce5	0.048962492
71	0x3e234158	0.15942895
72	0xbdae111d	-0.08499358
73	0x3e2119ff	0.15732573
74	0xbcd0939f	-0.025461016
75	0x3ecf4301	0.40480807
76	0xbc3e11be	-0.01160091
77	0xbb936723	-0.004498379
78	0x3dc60ffb	0.09671017
79	0x3e047215	0.12934144
80	0x3e964b8f	0.29354522
81	0xbd2da8c0	-0.04239726
82	0xbe1ee075	-0.15515311
83	0xbe54f77a	-0.2079753
84	0x3d3b6966	0.045754813
85	0xbe4a8daf	-0.1978061
86	0x3d98a959	0.074541755
87	0xbda3aee5	-0.07992343
88	0x3df99e04	0.12188342
89	0xbed567c4	-0.4168073
90	0x3e843799	0.25823668
91	0xbc1820af	-0.009285136
92	0xbd6c4607	-0.05768397
93	0xbdf2ef74	-0.11862078
94	0x3deaae1e	0.114589915
95	0x3e0a127a	0.13483611
96	0xbe937d63	-0.288066
97	0x3b46fcc1	0.0030363055
98	0x3d586f69	0.052840624
99	0x3e2bbeed	0.16772051
100	0xbde62157	-0.11236828
101	0xbd799467	-0.060932543
102	0x3b7f6e8f	0.003897581
103	0x3e87be62	0.26512438
104	0xbe50b5a2	-0.20381787
105	0xbe51d60b	-0.20491807
106	0x3eb09b3f	0.34493443
107	0xbd7ece24	-0.06220831
108	0xbe955f50	-0.2917428
109	0x3ce87df5	0.028380373
110	0x3daea793	0.08528056
111	0xbe1f3b1d	-0.15549894
112	0x3dfbab5b	0.12288543
113	0x3e54d33b	0.20783703
114	0xbe29f245	-0.16596325
115	0x3e324d70	0.17412353
116	0xbc19da73	-0.009390461
117	0x3e3ebcc9	0.18626703
118	0xbc1d73d6	-0.009610137
119	0x3e344873	0.17605762
120	0xbc555d7f	-0.0130227795
121	0xbc6fab2e	-0.014628215
122	0xbe0d6527	-0.13808118
123	0xbd614743	-0.0549996
124	0x3da3a17f	0.07989787
125	0xbd8c06ea	-0.06837256
126	0x3da27a6d	0.07933507
127	0xbd867dd4	-0.065669686
128	0x3db19ab0	0.086720824
129	0xbc854747	-0.01626934
130	0x3d6c9697	0.0577608
131	0xbd937c1a	-0.07201405
132	0xbe078c6f	-0.13237165
133	0x3e469498	0.19392622
134	0x3c02a6eb	0.007974367
135	0xbe225e49	-0.1585628
136	0x3d0a4064	0.033752814
137	0xbe6c22f2	-0.23060206
138	0x3f13bbe0	0.5770855
139	0xbe71a7d8	-0.23599184
140	0xbd8748d3	-0.06605687
141	0x3c63701a	0.013881708
142	0xbe0947ac	-0.13406247
143	0x3e8090de	0.25110525
144	0xbf030aa6	-0.51188123
145	0xbdf7b3a4	-0.120948106
146	0xbd405198	-0.046952814
147	0xbe462646	-0.19350538
148	0xbd292bbc	-0.041301474
149	0xbe46cdc5	-0.19414432
150	0xbe09fecf	-0.13476108
151	0x3e8920fa	0.26782972
152	0xbc53b313	-0.012921113
153	0xbb6c981d	-0.0036101409
154	0xbbf0ada4	-0.0073449183
155	0xbe6f13e9	-0.23347439
156	0x3c46e42c	0.012139361
157	0x3ddaccc9	0.10683591
158	0xbe4a6bd3	-0.19767694
159	0x3e76b928	0.24094069
160	0x3e8fd377	0.28091022
161	0x3cad6c5b	0.021169832
162	0xbe5258dd	-0.20541711
163	0x3d0d4555	0.03448995
164	0xbdb0fd87	-0.086421065
165	0x3d745a21	0.059656266
166	0xbde236ed	-0.110456325
167	0xbe53129a	-0.20612565
168	0xbf02292b	-0.5084407
169	0x3d9f0d40	0.07766199
170	0xbd204aed	-0.039133955
171	0x3e6360b4	0.22204858
172	0xbe573dbf	-0.21019648
173	0xbd1888e8	-0.03723994
174	0xbe3d9093	-0.18512182
175	0x3c43d23e	0.011951981
176	0xbca684fa	-0.02032708
177	0x3d04a2f8	0.03238198
178	0xbb507184	-0.0031805942
179	0x3e2da274	0.16956502
180	0x3e8eb934	0.27875674
181	0x3dc523b9	0.09625954
182	0xbbb0684f	-0.0053835283
183	0xbe675880	-0.22592354
184	0xbd922a1d	-0.07136939
185	0x3e71a181	0.23596765
186	0xbe12b3dd	-0.14326425
187	0x3c67bb54	0.014143784
188	0x3e87ed41	0.26548198
189	0xbc024f97	-0.007953546
190	0x3e35c7f4	0.17752057
191	0xbddbc7eb	-0.10731491
192	0x3e1501d9	0.14551486
193	0x3ceb5d61	0.02873105
194	0xbe1c2e99	-0.1525215
195	0x3ce4eb7b	0.027944317
196	0x3d2bdfbd	0.04196142
197	0x3dc6f43d	0.097145535
198	0x3e41ea53	0.18937044
199	0x3e2331b5	0.1593693
200	0xbe195e2f	-0.14977334
201	0x3e1228bf	0.14273356
202	0xbe2a73bf	-0.16645716
203	0xbe0142b9	-0.12623109
204	0xbd6185d9	-0.055059288
205	0x3cbef917	0.023312135
206	0x3d28e040	0.041229486
207	0x3c4d419a	0.012527848
208	0xbd4d7ef8	-0.050169915
209	0xbe49c705	-0.19704826
210	0x3d960161	0.07324482
211	0x3e8d1a50	0.27559137
212	0xbe88480f	-0.26617476
213	0xbe11fe20	-0.14257097
214	0xbdcd7695	-0.10032383
215	0x3d338f81	0.043838028
216	0xbe28d520	-0.1648755
217	0xbde3d4b6	-0.11124556
218	0xbcc68d18	-0.0242372
219	0xbd926ede	-0.071500525
220	0xbdfadbbc	-0.12248942
221	0x3e7e5a52	0.24839142
222	0xbea5ef9f	-0.3240938
223	0xbc0c3592	-0.008557694
224	0xbd9d343e	-0.0767598
225	0xbeb3eea0	-0.35142994
226	0xbd9e90bf	-0.07742452
227	0x3f37cb29	0.7179437
228	0x3e826d7c	0.25474155
229	0xbd300294	-0.04297121
230	0xbda08ef4	-0.07839766
231	0x3ee6b90f	0.45063064
232	0xbe73cd99	-0.23808898
233	0x3e000fbb	0.12506
234	0xbd9347b6	-0.07191412
235	0x3e0592b3	0.13044243
236	0xbdc5fd95	-0.096675076
237	0x3d757950	0.059930146
238	0xbc44e413	-0.012017268
239	0xbd9375a0	-0.072001696
240	0x3d1f5f45	0.038909215
241	0x3e7fd101	0.24982072
242	0xbda8241d	-0.08210013
243	0x3d8978d3	0.067124985
244	0x3e8bc0a1	0.27295402
245	0xbe555c25	-0.20835932
246	0x3803f9c6	3.1465454e-05
247	0xbd91a4c7	-0.07111507
248	0xbe844772	-0.25835758
249	0x3e7c98f9	0.2466773
250	0x3de07890	0.109604955
251	0x3e03cf81	0.12872125
252	0xbda772e7	-0.08176213
253	0x3e37abc6	0.1793662
254	0xbe0afc5d	-0.13572831
255	0xbde93d04	-0.11388591

actor.2.bias f4 [64]
0	0x3dac8929	0.08424599
1	0x3b6521a8	0.0034962688
2	0x3e1dcbe1	0.15409805
3	0x3e364d6f	0.17802976
4	0x3e429b73	0.19004612
5	0x3e304228	0.17212737
6	0xbd72759f	-0.059194203
7	0x3d5b036a	0.053470053
8	0x3d306a59	0.04307017
9	0xbda11de3	-0.078670286
10	0xbdd673bf	-0.104712956
11	0x3df19001	0.11795045
12	0x3d0d605e	0.03451573
13	0x3d703d16	0.058652006
14	0x3d361797	0.04445609
15	0xbd242ee2	-0.040083773
16	0x3d3ebe04	0.04656793
17	0x3d7dbe13	0.061948847
18	0x3de28371	0.11060227
19	0x3aea5db4	0.0017880709
20	0xbc80928c	-0.015694879
21	0x3dc0fc8a	0.09423168
22	0xbd85f6a1	-0.06541181
23	0x3e04a0e1	0.12951995
24	0xb86fcefe	-5.7174817e-05
25	0xbd937ce5	-0.07201556
26	0x39d07a17	0.00039763816
27	0x3d2311c8	0.03981188
28	0xbe347e2e	-0.17626259
29	0x3a8b5d9d	0.0010632757
30	0x3c281900	0.010259867
31	0xbe07638c	-0.13221568
32	0x3d7afad9	0.061274383
33	0x3d66809b	0.05627499
34	0xbe278819	-0.16360511
35	0xbc16c5e5	-0.009202455
36	0x3d403869	0.046928797
37	0x3e2fc871	0.17166306
38	0xbdf8c341	-0.12146617
39	0xbc6e2425	-0.014534985
40	0x3d5ae524	0.05344118
41	0xbe30c703	-0.17263417
42	0x3cfc20b6	0.030777317
43	0xbd0bf2ea	-0.034167208
44	0x3e3843d7	0.17994629
45	0xbe1bad05	-0.1520272
46	0x3d8048d8	0.06263894
47	0xbdc650c5	-0.09683374
48	0x3e312c05	0.17301948
49	0xbc897b20	-0.016782343
50	0xbd1af633	-0.03783245
51	0x3e3cfbdd	0.18455453
52	0x3d434b5a	0.047679283
53	0x3e24ae6f	0.16082166
54	0xbae65ee7	-0.001757589
55	0xbd2002a7	-0.03906503
56	0x3c300a48	0.010744639
57	0xbd825243	-0.063633464
58	0xbc12c794	-0.008958716
59	0x3e066311	0.13123728
60	0x3d79152a	0.0608112
61	0xbce165f1	-0.02751443
62	0xbde21d32	-0.11040725
63	0x3d865849	0.06559808

actor.4.weight f4 [16, 64]
0	0xbee4aa31	-0.44661096
1	0xbc3bfb11	-0.011473433
2	0x3f85bc42	1.0448077
3	0x3e9b7191	0.30360082
4	0x3e9adeef	0.3024821
5	0x3e2f61f2	0.17127207
6	0xbf08db5c	-0.53459716
7	0xbf2d5fed	-0.67724496
8	0xbca9ff17	-0.02075152
9	0xbf54e769	-0.83165604
10	0x3d03bcfd	0.032162655
11	0xbb8747e6	-0.004128444
12	0xbed1ad06	-0.4095232
13	0x3e55f517	0.20894276
14	0x3e81b548	0.2533362
15	0x3e23c0aa	0.15991464
16	0x3d781e23	0.060575616
17	0x3ea6673f	0.32500646
18	0x3eead357	0.45864365
19	0xbe8a20d7	-0.2697818
20	0xbf370c57	-0.71503204
21	0x3e1cd967	0.15317307
22	0x3ee38b2d	0.4444212
23	0x3ee98019	0.45605543
24	0xbe248c9e	-0.16069266
25	0xbcaebedb	-0.021331241
26	0x3e88aaf3	0.26692924
27	0xbf27d33d	-0.655567
28	0xbf07f60a	-0.531098
29	0xbe69900d	-0.22808857
30	0x3e9c43a7	0.30520365
31	0x3ea7c27c	0.32765567
32	0x3efdab55	0.49544778
33	0xbe8e986f	-0.27850673
34	0x3d521027	0.051284935
35	0x3e0280b8	0.12744415
36	0xbee29e88	-0.44261575
37	0x3f3c8f2a	0.7365595
38	0x3c82f0bd	0.015983934
39	0xbf49504f	-0.78638166
40	0x3e657312	0.22407177
41	0xbea09cdd	-0.31369677
42	0xbed74de0	-0.420516
43	0x3f5dd3de	0.8665141
44	0x3c0dfc7d	0.008666155
45	0xbe9d63f4	-0.3074032
46	0x3e73c527	0.23805676
47	0x3eabe3cb	0.3357223
48	0x3f1e812c	0.6191585
49	0x3e9a5705	0.30144516
50	0xbd1069f8	-0.03525731
51	0xbd9f2c0e	-0.07772075
52	0x3e801876	0.25018662
53	0x3e805264	0.2506286
54	0x3f8519d3	1.0398506
55	0x3e701f1d	0.23449369
56	0x3ead83af	0.3388953
57	0xbf062594	-0.5240109
58	0x3ea018d7	0.3126895
59	0xbe1bd413	-0.15217619
60	0x3f81586b	1.0105108
61	0xbd982693	-0.074292324
62	0xbf794ee6	-0.97386014
63	0x3e789b11	0.24277903
64	0x3d659371	0.056048814
65	0x3ca71c82	0.020399336
66	0xbeda53b7	-0.42641994
67	0x3f1328f6	0.57484376
68	0xbcd9d255	-0.026589552
69	0x3e677821	0.2260442
70	0x3e968194	0.29395735
71	0x3dc3a09a	0.09552117
72	0xbf22cd46	-0.6359447
73	0x3e8a2e53	0.26988468
74	0x3edfd5f6	0.43717927
75	0xbeccb0ba	-0.39978582
76	0x3e9a037c	0.30080783
77	0x3e87ff5e	0.26562017
78	0xbe93ef11	-0.2889333
79	0x3dec3375	0.11533252
80	0xbeb5811b	-0.35450062
81	0x3f04a329	0.5181146
82	0xbf6d6c30	-0.92743206
83	0x3ee1bd0b	0.4408954
84	0x3ecb5c85	0.39719024
85	0x3f6572f2	0.8962852
86	0x3e0679d5	0.13132413
87	0x3ed90d3d	0.42392913
88	0xbf4521be	-0.7700461
89	0xbe4bb2ca	-0.19892421
90	0x3f0e8137	0.55665916
91	0xbe1137bc	-0.14181417
92	0xbf506ce5	-0.8141616
93	0x3db26a09	0.08711631
94	0x3d5b411e	0.053528897
95	0x3f0fef1a	0.56224215
96	0x3f6873fd	0.90801984
97	0x3eb1d277	0.34730884
98	0xbe709094	-0.23492652
99	0xbebe7800	-0.37200928
100	0xbe019451	-0.12654234
101	0xbf3a7caa	-0.7284647
102	0xbe517284	-0.2045384
103	0xbf46960f	-0.7757272
104	0x3d5d0a99	0.053965185
105	0xbf3b03b2	-0.73052514
106	0x3e9774d9	0.29581335
107	0xbf1889de	-0.5958537
108	0xbe108afb	-0.14115517
109	0xbdded0ec	-0.108796924
110	0xbf05df04	-0.5229342
111	0x3eecbecd	0.4623932
112	0xbea43e7a	-0.32078916
113	0x3f00a16b	0.50246304
114	0x3efe0d7a	0.49619657
115	0xbf468fe5	-0.77563316
116	0x3f5e33ac	0.86797595
117	0x3d1c2f7a	0.038131215
118	0xbd38297e	-0.044961445
119	0xbd0c72a4	-0.034289017
120	0xbed5ae91	-0.41734746
121	0x3cfb8f51	0.030707987
122	0x3ea1cede	0.3160314
123	0xbd519dac	-0.05117576
124	0xbf6b3bac	-0.9188793
125	0x3cbbe718	0.022937343
126	0xbe02b4c9	-0.12764277
127	0xbd43ea24	-0.047830716
128	0x3e08f846	0.13375959
129	0x3ea61e01	0.32444766
130	0xbeecc4d4	-0.46243918
131	0xbebccb98	-0.3687408
132	0xbeb3b54b	-0.35099253
133	0xbb6f6b4f	-0.0036532467
134	0x3f371483	0.71515673
135	0x3e1619e2	0.14658311
136	0xbf9466b6	-1.1593845
137	0x3f853d20	1.0409279
138	0x3f93802d	1.1523491
139	0xbf087a33	-0.5331146
140	0xbd4ab43f	-0.049488302
141	0x3fb58a00	1.4182739
142	0xbf64bec5	-0.8935359
143	0xbe9d0edc	-0.306754
144	0x3ecb3875	0.3969151
145	0xbf4724d3	-0.77790564
146	0xbdf996bf	-0.12186956
147	0xbe6def51	-0.23235823
148	0x3e54ea69	0.20792545
149	0x3e72c467	0.23707734
150	0x3e95e5e7	0.29276964
151	0xbfa8020f	-1.3125628
152	0x3e902c70	0.28158903
153	0xbf29f192	-0.6638423
154	0x3f5300fc	0.8242338
155	0x3f1a3c7c	0.6024854
156	0x3fc49e96	1.5360897
157	0xbf33b3f6	-0.70196474
158	0xbe8b59ee	-0.27217048
159	0x3f9ad07e	1.2094877
160	0x3f4ec3a2	0.8076726
161	0x3efc9233	0.4933029
162	0x3dbb4736	0.09144442
163	0x3cb8597e	0.02250361
164	0xbf784964	-0.96986985
165	0xbf3467dc	-0.70470977
166	0x3f42d45b	0.7610528
167	0x3d0daafb	0.034586888
168	0xbd627b4f	-0.055293377
169	0x3f600f0a	0.8752295
170	0x3d608429	0.054813538
171	0xbf06bd49	-0.52632576
172	0xbf17a20e	-0.5923165
173	0x3c0c4428	0.008561172
174	0xbf09010a	-0.5351721
175	0x3d86e2d5	0.065862335
176	0xbf1e6870	-0.6187811
177	0x3ee02101	0.4377518
178	0xbea7b4e8	-0.32755208
179	0xbece31ba	-0.40272313
180	0xbe2a0ee2	-0.1660724
181	0xbee3e73d	-0.44512358
182	0xbe9b3cb0	-0.30319738
183	0xbb702f95	-0.0036649455
184	0xbf271b18	-0.65275717
185	0x3e9e6987	0.30939886
186	0x3f88bd60	1.0682793
187	0x3e8c95fb	0.27458176
188	0xbec7b155	-0.3900248
189	0x3e0ee3ae	0.1395404
190	0x3f4a9377	0.79131263
191	0xbf642135	-0.8911317
192	0x3fbc6561	1.4718438
193	0xbe0df54f	-0.13863109
194	0x3ea5301f	0.32263276
195	0x3f07f7cc	0.53112483
196	0x3e9569fd	0.29182425
197	0xbeba1fdd	-0.36352435
198	0xbe2c0400	-0.16798401
199	0x3ef1814e	0.47168964
200	0xbdfd7232	-0.12375297
201	0xbe890c1c	-0.2676705
202	0x3edb0161	0.4277449
203	0x3f337792	0.70104325
204	0xbde28a04	-0.11061481
205	0x3e8e9351	0.27846768
206	0xbec9468d	-0.39311638
207	0xbf1c6411	-0.6109019
208	0xbeca0828	-0.39459348
209	0xbed9a02c	-0.42505014
210	0x3f495e0a	0.7865912
211	0x3ecfc22f	0.40577838
212	0xbeae7668	-0.34074712
213	0xbe4fe6b2	-0.20302847
214	0xbecc44ba	-0.39896184
215	0x3e0ffa56	0.1406034
216	0xbefcb6fa	-0.4935835
217	0xbdc83cc4	-0.09777215
218	0xbecc257b	-0.39872345
219	0x3c792c97	0.015208385
220	0xbd9df301	-0.07712365
221	0x3ea914d6	0.3302371
222	0xbed252e6	-0.4107887
223	0xbf137aca	-0.57609236
224	0xbe0eba7f	-0.1393833
225	0x3d82e136	0.06390612
226	0xbe41da2f	-0.18930887
227	0xbe31cc33	-0.17363052
228	0x3f06583d	0.5247839
229	0x3d757e5e	0.059934966
230	0xbe522677	-0.20522486
231	0x3f0f1d74	0.55904317
232	0xbf8535b5	-1.0407015
233	0xbd198ae0	-0.037485957
234	0x3bc94b19	0.0061429855
235	0xbe6c564c	-0.23079795
236	0xbf004540	-0.5010567
237	0x3e327255	0.17426427
238	0xbe346742	-0.17617515
239	0xbf49c9ee	-0.78823745
240	0x3da3c058	0.07995671
241	0xbf82701a	-1.0190461
242	0xbeb98710	-0.36235857
243	0x3f574db4	0.8410294
244	0xbea4c6dc	-0.32182968
245	0x3cf48b47	0.029851569
246	0x3ea343bc	0.31887615
247	0xbed69bc2	-0.4191571
248	0xbf7b6503	-0.98201007
249	0xbf2653e2	-0.64971745
250	0x3f51f062	0.8200742
251	0xbece485b	-0.40289578
252	0xbe9a4167	-0.30128023
253	0xbf1213a2	-0.5706121
254	0xbee19f75	-0.4406697
255	0x3f11cba2	0.56951344

actor.4.bias f4 [16]
0	0x3e2f36bc	0.17110723
1	0x3df9e018	0.122009456
2	0x3c1fd207	0.009754664
3	0xbd68e579	-0.056859467
4	0xbe9af82e	-0.3026747
5	0xbf37754a	-0.71663344
6	0xbcf10064	-0.029419132
7	0x3db232a8	0.08701068
8	0xbf445115	-0.7668622
9	0x3b9bbe59	0.004752916
10	0x3b88d90d	0.004176265
11	0xbf6cd017	-0.9250502
12	0xbee1a502	-0.44071203
13	0xbe384d57	-0.17998253
14	0xbf2dd8a5	-0.679087
15	0x3ecddf42	0.40209395

critic.0.weight f4 [128, 35]
0	0x3d726644	0.05917956
1	0xbdb46e4f	-0.08810102
2	0x3ce41c56	0.027845543
3	0xbd99b4a7	-0.0750516
4	0xbc88627f	-0.01664853
5	0xbd71ee89	-0.059065375
6	0xbd657661	-0.056021098
7	0xbda20e36	-0.07912867
8	0xbdce528c	-0.10074338
9	0x3d08eb04	0.033427253
10	0x3ff0febb	1.8827738
11	0xbe05f8d2	-0.13083199
12	0xbf3e5681	-0.74350744
13	0xbf9a46bb	-1.2052835
14	0xbf80fcdd	-1.0077168
15	0xbe17e902	-0.14834979
16	0x3ec8c7cf	0.39214942
17	0x3eef886a	0.46783763
18	0x3db13298	0.08652228
19	0x3e250257	0.16114174
20	0x3d4fb98d	0.050714064
21	0x3d42ee70	0.047590673
22	0x3cc9f1b8	0.024651393
23	0x3ceaf950	0.028683335
24	0xbd17668f	-0.036963042
25	0xbed53a71	-0.4164615
26	0x3d8eb434	0.06967965
27	0xbe1a4c10	-0.15068078
28	0x3dae6e61	0.08517147
29	0x3e71e8c8	0.23623955
30	0x3ec29e3a	0.38011342
31	0x3e2e8976	0.17044625
32	0xbec63dfe	-0.3871917
33	0x3ea5c495	0.32376543
34	0x3f448967	0.7677216
35	0x3e09e051	0.13464476
36	0x3dfa67fc	0.12226865
37	0x3e2f33fe	0.17109677
38	0x3dcf72aa	0.10129292
39	0x3e787262	0.24262384
40	0x3e135320	0.14387178
41	0x3e14c7a7	0.14529286
42	0x3da03512	0.07822622
43	0x3e07684b	0.13223378
44	0x3e36ae79	0.17839994
45	0x3ed01193	0.40638408
46	0xbf874cf4	-1.0570359
47	0x3f3049e1	0.6886273
48	0x3f3e272f	0.7427854
49	0x3f5dfd80	0.86714935
50	0x3f0cda0f	0.5502023
51	0x3e710b4d	0.23539467
52	0xbe177280	-0.14789772
53	0xbe9f8c22	-0.311616
54	0xbe846152	-0.258555
55	0x3e5e4447	0.21705733
56	0xbe956b6b	-0.29183516
57	0xbd4acc04	-0.04951097
58	0x3c4983a4	0.012299452
59	0xbe1feca6	-0.15617618
60	0xbeaf6fc7	-0.34264967
61	0x3f008a39	0.5021091
62	0x3e817a8b	0.25288805
63	0x3c64e404	0.013970379
64	0x3e4e32a0	0.201365
65	0xbdd86f4e	-0.10568105
66	0xbee37c31	-0.44430688
67	0xbeece85d	-0.4627103
68	0xbd07992c	-0.03310506
69	0xbe77f033	-0.24212722
70	0x3c809140	0.01569426
71	0x3c6558b5	0.0139982
72	0xbbecb53a	-0.0072237523
73	0x3c1ee5c4	0.009698335
74	0x3d314c75	0.043285806
75	0xbb91adbb	-0.004445759
76	0x3d3416bf	0.043967005
77	0x3c556502	0.01302457
78	0x3d3f5c7c	0.04671906
79	0x3d2ed7ff	0.04268646
80	0xbefe2e7d	-0.49644843
81	0x3f024837	0.5089144
82	0x3fabe233	1.3428406
83	0x3f900d61	1.1254083
84	0x3fb017a8	1.3757219
85	0x3eb7c1a6	0.3588993
86	0x3e5d55c0	0.21614742
87	0x3dd7383a	0.10508771
88	0x3e610f5e	0.21978518
89	0x3e89e7b5	0.2693459
90	0x3d423574	0.047414258
91	0xbe24ff36	-0.1611298
92	0xbe16886a	-0.14700475
93	0x3eb10109	0.34571102
94	0x3c3cf916	0.011533996
95	0xbec026a2	-0.37529474
96	0xbf8442ce	-1.0332887
97	0x3c1fabb7	0.00974553
98	0xbb0b04cf	-0.0021212583
99	0x3e2ca2fb	0.16859047
100	0x3e5185e1	0.20461227
101	0x3c789dcf	0.015174343
102	0xbe3312ae	-0.17487594
103	0xbf0a90da	-0.54127276
104	0x3e8f7650	0.28019953
105	0x3e2ff49f	0.1718316
106	0x3de33969	0.110949345
107	0x3dc4a4f6	0.09601776
108	0x3ddaccac	0.10683569
109	0x3de516b0	0.11185968
110	0x3d8bb6dd	0.06821988
111	0x3d9a519c	0.07535097
112	0x3d30ab06	0.04313185
113	0x3d83ce73	0.064358614
114	0x3d792d0d	0.06083398
115	0xbfd36231	-1.6514341
116	0x3f723c4f	0.94623274
117	0x3ecb6aaf	0.3972983
118	0x3e1453e6	0.1448513
119	0xbf3fa488	-0.7486043
120	0x3e9cd7ff	0.30633542
121	0x3d4023fe	0.046909325
122	0x3e7a37ad	0.24435301
123	0x3ed06532	0.40702206
124	0x3ef2d8b2	0.4743095
125	0xbe6a47e3	-0.22878985
126	0x3e2ec7e2	0.17068437
127	0x3d2fc47a	0.042911984
128	0xbd88e5a4	-0.066844255
129	0xbf1fede2	-0.62472355
130	0xbed3a1e8	-0.41334462
131	0x3da43141	0.08017207
132	0x3cd217fc	0.025646202
133	0x3d604246	0.054750703
134	0x3e33f475	0.17573722
135	0x3e8bd6cd	0.27312317
136	0x3ee094d3	0.43863544
137	0x3ee1d0b9	0.44104555
138	0x3f27afaf	0.65502447
139	0x3f556f8c	0.8337333
140	0xbd8bec12	-0.06832136
141	0xbd529fc6	-0.051421903
142	0xbd588242	-0.0528586
143	0xbc6f667c	-0.0146118365
144	0xbd0828fb	-0.033242207
145	0xbd350c97	-0.04420146
146	0xbc93423e	-0.017975923
147	0xbd3671d6	-0.044542156
148	0xbd844228	-0.06457931
149	0xbcf3c5ba	-0.02975737
150	0xbf41d65f	-0.7571773
151	0xbdb28a0f	-0.08717739
152	0x3e2aedb1	0.16692235
153	0x3eacd4aa	0.33756
154	0x3d9743fd	0.073860146
155	0x3f9f6013	1.2451195
156	0x3ee7db82	0.4528466
157	0xbc6655c3	-0.014058533
158	0xbdfa6e0c	-0.12228021
159	0xbc8be27b	-0.017075768
160	0x3e265237	0.162423
161	0x3e6a8e2c	0.22905797
162	0x3ca7f6d9	0.020503448
163	0xbe384bde	-0.17997691
164	0xbe55c3d8	-0.2087549
165	0x3ece47f6	0.40289277
166	0xbf22efec	-0.6364734
167	0x3dd0124f	0.10159742
168	0x3df6b000	0.12045288
169	0x3d656b87	0.05601075
170	0x3e4621f5	0.19348891
171	0xbedb12ff	-0.4278793
172	0xbed60000	-0.41796875
173	0xbe721bb6	-0.23643383
174	0x3ec756f9	0.38933542
175	0x3d6a75e3	0.05724133
176	0x3be7069a	0.0070503475
177	0x3d9fd361	0.07803989
178	0x3cc5cdcf	0.024145989
179	0xbc377ab0	-0.011198685
180	0x3c0f182c	0.00873379
181	0x3d980ccc	0.07424316
182	0x3cf3f6a0	0.029780686
183	0x3dbadb56	0.09123866
184	0x3e0c15b8	0.1368016
185	0xc01a3cec	-2.4099684
186	0xbfae31fb	-1.3609003
187	0xbf496307	-0.7866673
188	0xbf8622f9	-1.0479423
189	0xbf3f5597	-0.74739975
190	0x3fa54e2a	1.2914479
191	0x3e536632	0.20644453
192	0x3e9e2b85	0.30892578
193	0xbe47b9d5	-0.19504483
194	0x3ec9e4ed	0.3943247
195	0xbe8ffc85	-0.28122345
196	0x3cfeadb7	0.031088693
197	0xbdc1e7e4	-0.09468058
198	0x3e1774dc	0.14790672
199	0xbdf66673	-0.120312594
200	0x3e2373cf	0.15962146
201	0x3d1c1c64	0.038113013
202	0xbcc507b1	-0.02405152
203	0x3db6a1c7	0.08917575
204	0x3dbb2b59	0.09139127
205	0x3d0563dc	0.032565936
206	0xbe9f6daa	-0.31138355
207	0x3d52bc3a	0.051449038
208	0xbe5c59a5	-0.21518572
209	0x3eaa8d20	0.33310795
210	0xbde78e19	-0.113064
211	0xbdd3f32f	-0.10349118
212	0xbd968ad3	-0.07350697
213	0xbda29ecf	-0.079404466
214	0xbde42ec4	-0.11141732
215	0xbdb38a63	-0.087666295
216	0xbdc8ee32	-0.09811057
217	0xbd0b626b	-0.034029406
218	0xbe04a2af	-0.12952684
219	0xbe2c85d5	-0.16847928
220	0xbf025ea9	-0.5092569
221	0xbf8670a3	-1.0503124
222	0xbf5eeeeb	-0.8708331
223	0xbe42f745	-0.19039638
224	0xbf55454a	-0.8330885
225	0x3dec4e98	0.11538428
226	0xbe1a5432	-0.1507118
227	0x3d32e409	0.043674503
228	0x3e15c624	0.14626366
229	0xbe17eec2	-0.14837173
230	0x3d3f13a8	0.046649605
231	0x3d637c87	0.05553868
232	0x3c9347f8	0.017978653
233	0xbe8346c9	-0.25639942
234	0x3e8bcd1d	0.27304927
235	0x3d18b05a	0.037277557
236	0x3ec9e30a	0.3943103
237	0x3ce9f3ae	0.028558578
238	0x3e3ca500	0.18422318
239	0x3e835131	0.25647882
240	0x3ea19c25	0.3156444
241	0xbe9e79d2	-0.30952317
242	0x3dc72fc4	0.097259074
243	0x3f002815	0.5006116
244	0x3f6cadcb	0.9245269
245	0x3e0e6c26	0.13908443
246	0x3d9c3c23	0.07628658
247	0x3d955897	0.07292288
248	0x3dc0f3b0	0.0942148
249	0x3d8b43d8	0.068000495
250	0x3d947065	0.07248
251	0x3db147d6	0.0865628
252	0x3d5287b7	0.05139896
253	0xbbfa07ce	-0.007630325
254	0x3b9fc458	0.004875701
255	0xc009cdfc	-2.1531973

critic.0.bias f4 [128]
0	0x3f2daf5e	0.67845714
1	0xbf3215f7	-0.69564766
2	0xbe601561	-0.21883155
3	0xbe02ed7a	-0.12785903
4	0xbf06d371	-0.52666384
5	0xbece463a	-0.40287954
6	0x3c24c05d	0.010055629
7	0xbf10f927	-0.56630176
8	0x3f019b95	0.50628024
9	0xbeb56ca1	-0.3543444
10	0x3f026dde	0.50948894
11	0x3d2a6465	0.04159965
12	0x3f05f9f9	0.52334553
13	0x3d899f09	0.06719787
14	0x3e9910bf	0.2989559
15	0xbd4762f5	-0.048678357
16	0x3f4e17f8	0.80505323
17	0xbe94bdc2	-0.29051024
18	0xbea98d22	-0.33115488
19	0x3f3fcbf2	0.7492057
20	0xbed551ca	-0.41663963
21	0xbf1b3d7b	-0.60640687
22	0xbf26c809	-0.6514898
23	0x3ea7471b	0.32671437
24	0x3eb4a0d0	0.3527894
25	0xbedc0748	-0.42974305
26	0x3b7e6434	0.003881705
27	0x3def9fd3	0.11700406
28	0x3d96785c	0.073471755
29	0x3e956989	0.2918208
30	0x3d15cfb4	0.036575034
31	0xbd67dd09	-0.05660728
32	0xbe0b4cdc	-0.13603538
33	0xbedbd34f	-0.42934653
34	0xbefd9607	-0.49528524
35	0xbdc9eedd	-0.09860013
36	0xbf41707e	-0.75562274
37	0xbd3a98c7	-0.045555856
38	0x3e327ebe	0.17431161
39	0xbd45f826	-0.048332356
40	0x3e3504f6	0.17677674
41	0xbe5bf60f	-0.21480583
42	0xbf10a2d4	-0.56498456
43	0xbe7b9758	-0.24569452
44	0xbe752e3e	-0.23943421
45	0xbf53a7cf	-0.8267793
46	0xbbc99e36	-0.0061528934
47	0x3db0039a	0.08594437
48	0x3ddb3bed	0.10704789
49	0x3df1c9be	0.118060574
50	0xbe8fa321	-0.28054145
51	0x3d16e4b1	0.03683919
52	0x3cec608f	0.028854636
53	0xbf6851a1	-0.90749556
54	0xbf02c37b	-0.5107953
55	0xbdfd70af	-0.12375008
56	0xbe50c434	-0.20387346
57	0xbee8ff4e	-0.45507282
58	0x3ecc52e0	0.3990698
59	0xbe21203c	-0.15734953
60	0xbcd4f2f1	-0.02599475
61	0x3e2bd9cb	0.167823
62	0xbdd01e23	-0.10161998
63	0x3eb22320	0.34792423
64	0x3db76ec8	0.08956677
65	0xbf3c5492	-0.73566544
66	0xbf243902	-0.64149487
67	0xbe55750e	-0.20845434
68	0x3d5a89fc	0.05335425
69	0x3e074029	0.13208069
70	0x3e2e62f6	0.17029938
71	0x3f286590	0.6577997
72	0x3eff7fce	0.49902195
73	0x3e927153	0.28602085
74	0xbdb851f7	-0.090000086
75	0x3eab79b7	0.334913
76	0xbdefa0d0	-0.117005944
77	0x3e5c2bee	0.21501133
78	0x3e2522c4	0.16126543
79	0x3eba9feb	0.36450133
80	0x3d29db6b	0.04146902
81	0x3dafa355	0.08576075
82	0x3f1a6f24	0.6032584
83	0x3e22d2d1	0.15900733
84	0xbdfe2c02	-0.124107376
85	0x3f5e8df6	0.86935365
86	0x3d8d99b4	0.06914082
87	0x3e6d08e1	0.23147918
88	0x3ede0bab	0.43368277
89	0x3c814b5d	0.015783006
90	0xbe681e0f	-0.22667716
91	0x3f1b4400	0.60650635
92	0xbe95801b	-0.291993
93	0xbebdaa4a	-0.37043983
94	0xbf34d528	-0.7063775
95	0x3f021746	0.5081676
96	0x3e94ce82	0.29063803
97	0x3ec14ffa	0.3775633
98	0xbee16397	-0.44021294
99	0x3cb535f2	0.02212045
100	0xbe3be5dd	-0.18349405
101	0xbf45d806	-0.7728275
102	0x3ee9f81c	0.45697105
103	0x3ef75f97	0.48315117
104	0xbe042a88	-0.1290685
105	0xbec6c8a1	-0.38824943
106	0x3e42227c	0.18958467
107	0x3d67436d	0.056460787
108	0xbe823a9c	-0.2543534
109	0x3d58f07f	0.05296373
110	0xbf012833	-0.50451964
111	0x3f3b0060	0.7304745
112	0x3f757444	0.9588053
113	0xbda47f77	-0.080321245
114	0xbf839b09	-1.0281688
115	0xbe349c67	-0.17637788
116	0x3f7775aa	0.96663916
117	0xbeb7c9bf	-0.35896108
118	0x3e9b7e01	0.3036957
119	0xbbeecd25	-0.0072876387
120	0xbf0a6f9e	-0.54076564
121	0x3cf58d1c	0.029974513
122	0x3d99d4a4	0.07511261
123	0x3e0b2c98	0.1359123
124	0xbe898b84	-0.26864254
125	0xbebeafcb	-0.37243494
126	0xbde06729	-0.10957176
127	0x3da2efd0	0.07955897

critic.2.weight f4 [64, 128]
0	0xbd337fcd	-0.043823052
1	0xbe13f8ec	-0.14450425
2	0x3d7317c7	0.059348848
3	0xbdaa5678	-0.08317274
4	0xbd1ca7d5	-0.038245995
5	0xbd7ab719	-0.06120977
6	0xbe01cef8	-0.12676609
7	0xbeaa707b	-0.3328894
8	0xbcb54fe8	-0.022132829
9	0xbde7110c	-0.11282548
10	0xbd118662	-0.035528548
11	0x3bf04870	0.007332854
12	0x3d7afdea	0.061277308
13	0xbd45bea5	-0.048277516
14	0xbe35d238	-0.17755973
15	0xbdfc2f1d	-0.12313674
16	0xbddf29bf	-0.10896634
17	0x3e2998d5	0.16562207
18	0xbe15323a	-0.14569941
19	0x3dd79824	0.105270654
20	0xbd97b567	-0.074076466
21	0x3d2c6077	0.042084184
22	0x3c48f4bb	0.01226538
23	0xbdee08f6	-0.11622803
24	0x3da3f5db	0.080058776
25	0xbdd6da98	-0.10490912
26	0x3d74c992	0.059762545
27	0x3dbceb40	0.09224558
28	0x3d634d2e	0.055493526
29	0xbc827d3e	-0.01592886
30	0x3d2cd9a9	0.042199764
31	0xbd9185b2	-0.071055785
32	0xbdb15b67	-0.08660012
33	0xbe21ecd5	-0.15813
34	0x3d12a48f	0.035801467
35	0x3df83d67	0.121210866
36	0xbdd3a3b0	-0.10333955
37	0x3d7628bc	0.06009744
38	0x3e0f0d73	0.13969974
39	0xbc99a4ea	-0.018755395
40	0xbcea21cc	-0.028580569
41	0x3dc5fed4	0.09667745
42	0x3dc15d69	0.09441645
43	0x3c3c029b	0.011475231
44	0xbe1032bd	-0.14081855
45	0xbe24b845	-0.16085918
46	0x3d3a6471	0.045505945
47	0xbda64599	-0.081187434
48	0x3cd5a9f2	0.026082013
49	0x3d0a7442	0.03380228
50	0xbbc675b3	-0.0060565113
51	0xbe2b565e	-0.16732165
52	0xbe3963a8	-0.18104422
53	0xbd9d77a5	-0.07688836
54	0xbe4e9dd3	-0.20177393
55	0x3dd74617	0.105114155
56	0x3d97a8c2	0.07405235
57	0xbce5f57b	-0.028071156
58	0x3dfb92dc	0.122838706
59	0xbe0d376c	-0.13790673
60	0xbc39a40d	-0.011330617
61	0x3d32c802	0.043647774
62	0x3aaad006	0.0013031967
63	0x3d6476f7	0.055777516
64	0x3d48bbef	0.049007352
65	0xbe0b8993	-0.13626699
66	0x3d16cb44	0.036814943
67	0xbcd9a50d	-0.02656796
68	0x3c55e90c	0.013056051
69	0x3d328b7f	0.043590065
70	0xbc7a9cff	-0.01529622
71	0x3dc526ec	0.096265644
72	0xbd997632	-0.07493247
73	0x3d9800f5	0.074220575
74	0x3e0c6241	0.13709356
75	0xbc913728	-0.017726496
76	0xbdc1ef92	-0.094695225
77	0x3e94a6fb	0.29033646
78	0x3d35c673	0.04437871
79	0x3e0e49bf	0.1389532
80	0x3da7ffbc	0.08203074
81	0x3d1c2abd	0.038126696
82	0xbdea3f4f	-0.114378564
83	0xbbe417d2	-0.0069608474
84	0x3c636852	0.013879852
85	0x3debefdc	0.11520359
86	0x3e064ae3	0.13114505
87	0x3d80de4a	0.06292398
88	0x3dfa1de2	0.12212731
89	0x3dacc310	0.08435643
90	0xbde03af0	-0.109487414
91	0x3d39d572	0.045369573
92	0xbdf9c682	-0.121960655
93	0xbc9f2dec	-0.019431077
94	0xbdc3716c	-0.09543118
95	0x3d22e53a	0.03976939
96	0xbe4ce27c	-0.20008272
97	0xbe020c77	-0.12700067
98	0xbd7cc4c9	-0.061711106
99	0xbdbf2e68	-0.09335023
100	0xbdd8bd3a	-0.10582967
101	0xbda1e7af	-0.07905518
102	0x3de38f62	0.111113325
103	0xbd955b6c	-0.07292828
104	0xbdbddc3f	-0.09270524
105	0xbd9d4838	-0.0767979
106	0x3e2148a2	0.15750363
107	0x3dd54995	0.10414425
108	0xbdb43eef	-0.08801066
109	0xbe2c1d61	-0.16808082
110	0xbcff883d	-0.031192893
111	0xbc37d08f	-0.011219158
112	0xbd92a737	-0.071608
113	0x3dbe4f1c	0.09292433
114	0xbe18f4ea	-0.14937177
115	0xbe72ab08	-0.23698056
116	0xbd448447	-0.047977712
117	0xbd41c961	-0.04731119
118	0xbd6a8c55	-0.057262737
119	0xbda1e333	-0.07904663
120	0xbd44a3aa	-0.048007645
121	0xbd811077	-0.063019685
122	0xbd10e363	-0.035373103
123	0xbe02d154	-0.12775165
124	0xbdc83add	-0.09776852
125	0x3cefc878	0.029270396
126	0x3d00d18c	0.03144984
127	0xbca9f457	-0.020746393
128	0xbe2233f0	-0.15840125
129	0xbe56f011	-0.20990016
130	0xbe0a6145	-0.13513668
131	0xbe411e38	-0.18859184
132	0x3e4cd23a	0.2000207
133	0x3d82a0ae	0.063783035
134	0xbddf0fd0	-0.10891688
135	0xbb794854	-0.0038037496
136	0xbd9bbc20	-0.07604241
137	0xbdc74358	-0.09729642
138	0xbe8de0ff	-0.2771072
139	0x3ea99d34	0.3312775
140	0xbd0b4736	-0.03400346
141	0x3de742ff	0.11292075
142	0xbe03ae6c	-0.12859505
143	0xbe861d68	-0.2619431
144	0xbe5eb865	-0.21750028
145	0x3dcdc603	0.10047533
146	0xbefb6edf	-0.49108025
147	0x3d0e3bbb	0.034724932
148	0xbdb063cb	-0.08612784
149	0xbd564347	-0.052310254
150	0xbd27005b	-0.040771823
151	0x3d8867c1	0.066604145
152	0xbe851e6f	-0.2599978
153	0xbe8a724c	-0.27040327
154	0xbe011b56	-0.12608084
155	0x3ba576ea	0.005049576
156	0xbbb80841	-0.0056162183
157	0xbeb89f03	-0.36058816
158	0xbec7b58f	-0.39005706
159	0x3dd8adb5	0.10580007
160	0xbe3295e9	-0.17439999
161	0xbd9816eb	-0.07426246
162	0xbd98a291	-0.07452882
163	0xbda37ef9	-0.079832025
164	0xbe7f9628	-0.24959624
165	0x3d53aeaa	0.051680245
166	0xbf2c1f21	-0.67235
167	0xbdfd6afe	-0.12373923
168	0xbe6c32c5	-0.23066242
169	0xbeb3edfa	-0.351425
170	0xbe5293a6	-0.20564136
171	0xbf15386f	-0.58289236
172	0xbd82e7d1	-0.06391872
173	0xbe6001f7	-0.2187575
174	0xbe309a00	-0.17246246
175	0xbd385e13	-0.04501159
176	0x3dd303d2	0.10303463
177	0x3c4994e8	0.012303568
178	0x3d77bccc	0.060482785
179	0xbe9bc99c	-0.30427253
180	0xbe3c2b9b	-0.18376009
181	0xbd17fe85	-0.037107963
182	0x3e2b874d	0.16750832
183	0xbe66ee5c	-0.22551864
184	0x3bc63790	0.006049104
185	0x3f105ac1	0.5638848
186	0xbe7e0442	-0.24806312
187	0xbe4b3999	-0.1984619
188	0xbdf7c261	-0.12097622
189	0xbd2549a9	-0.04035345
190	0x3c84f1a1	0.016228499
191	0xbf146965	-0.5797332
192	0x3e4194e1	0.18904449
193	0x3c967010	0.018363982
194	0xbe7ed17f	-0.24884604
195	0xbe705178	-0.23468578
196	0x3c8a63be	0.016893264
197	0xbe6f1482	-0.23347667
198	0x3df39cf8	0.11895174
199	0x3e92c642	0.28666884
200	0x3df807d9	0.12110872
201	0xbec07f3f	-0.3759708
202	0xbdd6475b	-0.10462829
203	0xbea32fb3	-0.3187233
204	0xbdc87369	-0.09787638
205	0x3e9a1240	0.3009205
206	0xbea677bd	-0.32513228
207	0x3e45edec	0.19329041
208	0xbe6e01b1	-0.23242833
209	0xbdf6d08d	-0.12051497
210	0xbd76950a	-0.06020073
211	0x3dd682fa	0.104742005
212	0x3d0802e7	0.033205893
213	0x3d503362	0.050830252
214	0x3cc532a5	0.024072
215	0xbe78b8d8	-0.24289262
216	0xbe86ce4b	-0.26329264
217	0x3ee3863d	0.44438353
218	0xbe51a52b	-0.20473163
219	0xbeaff202	-0.34364325
220	0xbe1d2c46	-0.1534892
221	0xbf075aba	-0.5287281
222	0xbe542eb5	-0.20720942
223	0xbd9ce415	-0.07660691
224	0xbe8c9ed4	-0.27464926
225	0xbe8fb03c	-0.28064144
226	0xbe742e64	-0.23845822
227	0xbe207e55	-0.15673192
228	0x3c289117	0.010288498
229	0xbda9670b	-0.08271607
230	0xbee6d15e	-0.4508161
231	0xbe073bd4	-0.13206416
232	0xbdfd40eb	-0.12365898
233	0xbe59e956	-0.21280417
234	0x3d5ef90b	0.054436725
235	0xbeb5d22b	-0.35511908
236	0x3dce0db5	0.10061208
237	0xbded5c2c	-0.11589846
238	0xbdcfe184	-0.101504356
239	0xbec7ce72	-0.39024693
240	0xbf80ecb7	-1.007224
241	0x3d83d598	0.06437224
242	0x3c913d17	0.017729325
243	0xbf0f39a1	-0.5594731
244	0x3ed3dd1a	0.41379625
245	0x3dbd617b	0.092471085
246	0x3c864f68	0.016395286
247	0x3ddde407	0.108345084
248	0xbf11d646	-0.5696758
249	0xbe4a754a	-0.19771305
250	0xbe97b077	-0.2962682
251	0x3de48e10	0.11159909
252	0xbe091901	-0.13388444
253	0xbe0c8727	-0.13723432
254	0xbd70d4a4	-0.05879654
255	0xbd0dc38b	-0.034610312

critic.2.bias f4 [64]
0	0xbc82e557	-0.015978498
1	0x3e40729b	0.18793719
2	0x394d8d76	0.00019603022
3	0xbf10046a	-0.56256735
4	0x3dffb46b	0.12485584
5	0x3db2eed3	0.08736958
6	0x3ca3b138	0.019981965
7	0xbadbb6f9	-0.0016762904
8	0x3d863cbd	0.06554554
9	0xbc141a09	-0.00903941
10	0xbde9c47c	-0.114144295
11	0xbef4c86c	-0.4780916
12	0xbcfd8b39	-0.030950176
13	0x3cf3b55d	0.029749567
14	0xbecf7c87	-0.40524694
15	0x3e00fa89	0.12595572
16	0xbab411d3	-0.0013738222
17	0x3d26b25d	0.040697444
18	0x3de6420e	0.11243068
19	0x3d52218d	0.051301528
20	0x3bf6c52f	0.0075308303
21	0xbe094af8	-0.13407505
22	0xbcb192a7	-0.021676375
23	0xbdc5a4d0	-0.09650576
24	0x3d97f82a	0.074203804
25	0x3d29d4ac	0.041462585
26	0x3e1c4aa2	0.15262845
27	0xbc23d660	-0.009999841
28	0xbd4b28d6	-0.04959949
29	0xbe4753bb	-0.19465534
30	0x3da00302	0.07813074
31	0x3d100780	0.035163403
32	0x3e030982	0.12796596
33	0xbe523b69	-0.20530476
34	0xbe7250e2	-0.23663667
35	0xbd4dd097	-0.050247755
36	0xbd8fa8dd	-0.0701463
37	0xbe8f24b7	-0.279577
38	0xbd125aad	-0.035731006
39	0xbdd90c88	-0.10598093
40	0xbe289a1d	-0.1646504
41	0x3d6140d2	0.054993458
42	0x3e674dc1	0.22588255
43	0x3ddfea28	0.10933334
44	0xbdbfbd62	-0.09362294
45	0xbde4cea5	-0.11172227
46	0x3e067621	0.13131
47	0xbedb4b1d	-0.42830744
48	0x3e115f1a	0.14196435
49	0xbd0792e8	-0.033099085
50	0x3e35695c	0.17715973
51	0xbe2036aa	-0.15645853
52	0xbcc29eb9	-0.023757325
53	0x3d926fd9	0.071502395
54	0x3c92e957	0.01793353
55	0xbdf18162	-0.11792256
56	0x3e010382	0.12598994
57	0xbc714848	-0.014726706
58	0xbcf4388a	-0.029812116
59	0xbe0e41be	-0.13892266
60	0x3d77c9ce	0.06049519
61	0xbd9b7ecd	-0.07592545
62	0x3daff4ff	0.08591651
63	0x3d86c4a2	0.065804735

critic.4.weight f4 [1, 64]
0	0xbea47c5a	-0.32126123
1	0x3f0f046d	0.5586613
2	0xbf0c4f2f	-0.54808325
3	0x3e8075b3	0.25089797
4	0xbf081896	-0.53162515
5	0xbeacfbc7	-0.3378584
6	0xbef2007c	-0.47265995
7	0xbeff7507	-0.49893972
8	0x3ec14b32	0.37752682
9	0x3c0aaca2	0.00846401
10	0x3da77910	0.08177388
11	0x3da3711b	0.079805575
12	0xbdb47b89	-0.08812625
13	0x3e613650	0.21993375
14	0x3f039a62	0.51407444
15	0x3f1518e6	0.58241117
16	0xbebd423a	-0.3696459
17	0xbe941b96	-0.28927296
18	0x3e15bcea	0.14622846
19	0xbe08f5de	-0.13375041
20	0x3d9dcd69	0.077051945
21	0x3f10a61d	0.5650347
22	0x3ee91497	0.4552352
23	0xbed90c85	-0.42392364
24	0x3ecaa25d	0.39576998
25	0x3f329cf2	0.6977073
26	0x3f01befc	0.50682044
27	0xbdbbb1c6	-0.09164767
28	0x3edf69d1	0.4363542
29	0xbe1a7d98	-0.15086973
30	0x3ec9ca9d	0.39412394
31	0xbe6d4e4d	-0.231744
32	0x3e393c8e	0.18089506
33	0x3edb1f85	0.42797485
34	0x3edcbe71	0.43114045
35	0xbdf157d8	-0.11784333
36	0x3df55a7d	0.1198015
37	0x3f148e7b	0.5802991
38	0x3ed7173f	0.42009923
39	0xbec8bf40	-0.39208412
40	0xbf0cba09	-0.5497137
41	0xbe2a8a5e	-0.16654345
42	0xbde55bc3	-0.11199143
43	0xbf2a93a1	-0.66631514
44	0x3e3164cd	0.17323609
45	0xbefdfd77	-0.4960744
46	0xbec1baa5	-0.3783771
47	0x3f01bc2a	0.5067774
48	0x3eba5cce	0.3639893
49	0x3eca7b19	0.3954704
50	0xbddd6080	-0.108094215
51	0x3f02223e	0.508335
52	0xbe98016a	-0.2968858
53	0xbdfab9e3	-0.12242486
54	0xbeaa77d4	-0.33294547
55	0xbdb78cbb	-0.08962389
56	0xbeec27ad	-0.4612402
57	0x3ea280a5	0.31738773
58	0x3ee30be7	0.44345018
59	0x3f0a7503	0.54084796
60	0x3e299e9f	0.16564415
61	0x3ed93fde	0.4243154
62	0x3e04bced	0.12962694
63	0x3dc392b4	0.09549466
