PPO_preTrained/20220510/PPO_20220510_0_725.pth (torch, 110785 bytes, 11 tensors)

actor.0.weight f4 [128, 35]
0.16880716 -0.13165632 0.19170147 0.16357131 -0.15878151 -0.001481308 -0.013724923 0.15316345
-0.104215324 0.03243533 0.4059204 0.12566452 -0.06266001 -0.75558734 0.5172653 0.030947074
-0.030188631 -0.038670048 0.01765146 -0.11654372 0.13069981 0.025289737 0.025051791 -0.042503312
-0.04988361 -0.114550784 -0.011110732 0.20884012 0.10772907 0.008090386 0.2583051 0.22052918
0.028869297 -0.95433354 -0.13510306 0.1082083 0.038850963 0.0792767 0.049911246 0.06437203
0.23558891 0.12647237 -0.060235746 0.21520753 0.13990894 -0.8054657 -0.1609482 -0.060619466
-0.46414644 0.8766083 0.2069883 0.08346257 0.13468172 0.08028191 0.16499831 0.23220824
-0.06372813 -0.23009992 -0.16276196 -0.015875012 -0.023351772 0.06613496 0.06290355 0.17016949
-0.067945234 0.09183264 0.036868226 -0.090545006 0.09788137 -0.3189166 -0.18153952 -0.0911366
0.089105405 0.17504156 -0.01118983 0.12087758 0.034668032 -0.10882885 0.12162731 0.16181536
1.0732026 0.36489093 -0.24704903 0.7367922 -0.7715469 -0.06540476 -0.037741385 0.22212525
0.2456539 0.30726177 -0.22074135 0.1250924 0.09185015 0.12637295 -0.157053 0.027243413
0.11144807 -0.09611129 0.054792874 0.1186578 -0.09522303 0.1391639 0.3033525 0.06388607
0.09734593 -0.025975544 0.08101 -0.13355567 -0.05314924 0.08564542 0.23059107 -0.06711698
0.17604816 0.022706248 -0.123482086 -0.3567423 0.055776257 0.6792299 -0.30849633 0.52392435
0.64120346 0.047758494 0.09000785 0.143888 0.021603486 -0.11221894 0.0018944077 0.19615576
-0.009114012 0.19368397 -0.066166386 -0.016907878 0.036440417 -0.34783274 0.23984239 -0.060418468
0.3047655 0.3309728 0.11536766 0.01691778 -0.08775054 0.19351335 -0.07742678 -0.114745714
-0.015623275 0.117033444 -0.0049436498 -0.09056243 -0.04221449 0.069156416 0.2636236 -0.09171055
-0.3958675 0.06624332 -1.784033 -0.38656497 -0.013267924 0.18131362 0.21106417 -0.02595769
0.3127731 0.19858374 -0.14172615 0.076518945 -0.09253153 0.14014648 0.062241245 0.07038584
0.0974332 -0.009836627 0.014743622 -0.040530443 0.610159 -0.3026029 0.23905294 -0.03625849
0.20273094 0.09119441 0.22153163 -0.1829677 0.016270135 0.2185639 0.2630972 0.152823
0.09739976 0.29608968 0.030039443 -0.5068376 -0.06526058 -0.3490486 -0.20269659 0.037728146
-0.08980652 -0.13882539 0.031569857 -0.17879294 0.09866206 -0.20680395 -0.084650055 -0.04308104
0.116434835 0.060560793 0.09654375 0.02055761 -0.23108694 0.091211274 0.11947586 -0.15135857
0.22798422 -0.10898668 -0.015107579 0.085421026 -0.11547269 0.04599217 0.19088425 -0.08793367
0.019736914 0.078866646 0.020313479 0.05211056 0.704756 0.04941339 0.1338301 -0.17515366
-0.21530552 0.037230123 -0.108824976 0.15842283 -0.094734065 -0.12251404 -0.33149868 0.11262872
-0.1295844 -0.14751807 -0.14851181 0.06778907 0.04939089 -0.23498186 0.1021417 0.09859179
-0.47435102 0.23998585 0.055736523 -0.046676848 -0.16741206 0.21326491 0.11519207 -0.10993778
-0.0010686105 0.14718832 0.1536021 -0.02922688 -0.096376516 0.14522837 0.31329918 -0.93113357
00000000: c9db 2c3e ead0 06be 644d 443e 3d7f 273e
00000010: 9f97 22be 7328 c2ba 80de 60bc e1d6 1c3e
00000020: d86e d5bd e9da 043d ccd4 cf3e 33ae 003e
00000030: e453 80bd 2c6e 41bf 806b 043f b884 fd3c
00000040: 264e f7bc 7c64 1ebd cb99 903c 79ae eebd
00000050: 2cd6 053e 6c2c cf3c 6a39 cd3c f417 2ebd
00000060: c252 4cbd 9a99 eabd ca09 36bc 2fda 553e
00000070: 0fa1 dc3d 8a8d 043c 9140 843e 67d2 613e
00000080: 4e7f ec3c 344f 74bf 7558 0abe 509c dd3d
00000090: 3022 1f3d d35b a23d bc6f 4c3d 7cd5 833d
000000a0: 383e 713e f981 013e c2b9 76bd 5d5f 5c3e
000000b0: 4a44 0f3e 0033 4ebf 9bcf 24be 1e4c 78bd
000000c0: 9aa4 edbe 6769 603f bef4 533e 6dee aa3d
000000d0: 01ea 093e d86a a43d 51f5 283e ffc7 6d3e
000000e0: e583 82bd 509f 6bbe 12ab 26be 500c 82bc
000000f0: 374c bfbc c471 873d 94d3 803d e940 2e3e
00000100: df26 8bbd c012 bc3d 2303 173d a96f b9bd
00000110: 0776 c83d 0949 a3be 7fe5 39be d3a5 babd
00000120: e57c b63d 183e 333e 8c55 37bc aa8e f73d
00000130: 1100 0e3d a9e1 debd bd17 f93d edb2 253e
00000140: b45e 893f fcd2 ba3e 6cfa 7cbe 6a9e 3c3f
00000150: 1984 45bf eef2 85bd b696 1abd cd74 633e
00000160: b28c 7b3e 6a51 9d3e 050a 62be 3918 003e
00000170: ee1b bc3d e967 013e 80d2 20be 942d df3c
00000180: e33e e43d ffd5 c4bd 7e6e 603d dc02 f33d
00000190: 4b04 c3bd fb80 0e3e 0551 9b3e b3d6 823d
000001a0: 4e5d c73d aaca d4bc 92e8 a53d d1c2 08be
000001b0: 04b3 59bd de66 af3d 1120 6c3e a174 89bd
000001c0: f845 343e 7402 ba3c 2de4 fcbd eda6 b6be
000001d0: a575 643d 03e2 2d3f 3bf3 9dbe e81f 063f
000001e0: e925 243f 699e 433d 0956 b83d 6057 133e
000001f0: cbf9 b03c 0bd3 e5bd c64d f83a 0edd 483e
00000200: f052 15bc 1755 463e 3e82 87bd 6482 8abc
00000210: 8c42 153d 2217 b2be 3e99 753e 5b79 77bd
00000220: 390a 9c3e 4475 a93e e145 ec3d 2897 8a3c
00000230: 8eb6 b3bd 5d28 463e ee91 9ebd cdff eabd
00000240: c4f8 7fbc 3baf ef3d 57fe a1bb cc78 b9bd
00000250: 1ae9 2cbd e1a1 8d3d acf9 863e bed2 bbbd
00000260: 25af cabe 94aa 873d 315b e4bf d8eb c5be
00000270: b561 59bc 47aa 393e 3521 583e 39a5 d4bc
00000280: cc23 a03e 8959 4b3e a920 11be f7b5 9c3d
00000290: 2c81 bdbd 8f82 0f3e adf0 7e3d 7426 903d
000002a0: 0f8b c73d ce29 21bc 3c8f 713c 4003 26bd
000002b0: 6133 1c3f c4ee 9abe 4bca 743e c883 14bd
000002c0: b398 4f3e 23c4 ba3d 30d9 623e e25b 3bbe
000002d0: f248 853c 37cf 5f3e adb4 863e a27d 1c3e
000002e0: 8679 c73d 1199 973e 4715 f63c 1cc0 01bf
000002f0: 57a7 85bd 80b6 b2be b28f 4fbe d488 1a3d
00000300: 7bec b7bd 3e28 0ebe 654f 013d 7f15 37be
00000310: 560f ca3d 6ac4 53be 025d adbd bf75 30bd
00000320: 6375 ee3d 980e 783d bbb8 c53d 6f68 a83c
00000330: 0ea2 6cbe facc ba3d c2af f43d befd 1abe
00000340: b274 693e 6934 dfbd c785 77bc 38f1 ae3d
00000350: f27c ecbd 4962 3c3d 2977 433e 9116 b4bd
00000360: 4faf a13c d684 a13d 7468 a63c e271 553d
00000370: e46a 343f b265 4a3d c20a 093e 7b5b 33be
00000380: 0d79 5cbe 9d7e 183d a1df debd 9839 223e
00000390: ef03 c2bd a4e8 fabd 32ba a9be e3a9 e63d
000003a0: c6b1 04be fa0e 17be 7b13 18be ffd4 8a3d
000003b0: 1a4e 4a3d 169f 70be ab2f d13d 7eea c93d
000003c0: 23de f2be dabe 753e fb4b 643d 3930 3fbd
000003d0: 116e 2bbe 1e62 5a3e d2e9 eb3d 0f27 e1bd
000003e0: 9e10 8cba 89b8 163e de49 1d3e 366d efbc
000003f0: 0d61 c5bd bfb6 143e c068 a03e c55e 6ebf

actor.0.bias f4 [128]
-0.025655504 -0.099031016 0.14448695 -0.09017882 -0.03312987 -0.13684696 0.08564546 -0.20646924
0.0689304 -0.06486677 0.07763416 0.083819635 0.08369615 -0.19034107 0.08625714 0.23770908
0.017661138 0.18422069 0.25429717 0.034957986 0.018788427 -0.16305983 0.046162777 0.0930466
-0.14243641 0.12133586 -0.011681888 0.27937227 -0.15633915 -0.11702735 -0.04131626 -0.17375055
0.017748015 0.29677665 0.020694872 -0.030110216 -0.04065179 -0.021017706 0.07836732 0.20919695
0.2042518 0.20102508 0.035449233 0.009220416 0.18842095 0.12277612 0.117757685 -0.16096479
0.27780515 0.27643532 0.083816394 -0.09712013 -0.036484316 0.014716315 0.028809067 0.10936565
0.17496063 -0.06273784 -0.15501733 0.0953633 -0.074476354 -0.059887953 0.24946584 0.16965535
-0.120380014 0.15877362 0.14294192 0.054180633 -0.06706077 -0.004239791 -0.009384963 0.23473954
0.09400298 -0.034293775 -0.18347122 -0.057852656 -0.19848895 -0.16622938 -0.087754674 0.0022289068
0.2404878 0.12522322 -0.25324893 -0.124055944 0.10585512 -0.07920514 -0.13282833 0.044219077
0.1682074 0.07906097 0.0348126 0.24623036 -0.02069894 -0.13280289 0.120164044 0.07364377
0.026687806 -0.063335516 0.002763479 -0.23622073 -0.00849834 0.2092053 0.018527256 0.030174116
0.04641121 0.09202283 0.1351141 0.13783996 0.090019114 -0.22175038 -0.13079411 0.21540444
0.04517523 0.00867882 -0.03332961 -0.25542456 -0.100088395 0.15727666 -0.16455042 0.21683879
0.048109 0.25915053 0.22454855 0.31888783 -0.17135522 0.050334286 0.26200107 -0.026140265
00000000: 7e2b d2bc c6d0 cabd 63f4 133e acaf b8bd
00000010: 30b3 07bd 9c21 0cbe e366 af3d ac6c 53be
00000020: 622b 8d3d ded8 84bd a9fe 9e3d a1a9 ab3d
00000030: e368 ab3d c5e8 42be 95a7 b03d 026a 733e
00000040: 17ae 903c 59a4 3c3e 3d33 823e 1b30 0f3d
00000050: 30ea 993c 28f9 26be 2e15 3d3d 378f be3d
00000060: dada 11be ef7e f83d 6465 3fbc e209 8f3e
00000070: 5f17 20be 09ac efbd 3d3b 29bd aaeb 31be
00000080: 4964 913c 1cf3 973e 4b88 a93c b3a9 f6bc
00000090: 7e82 26bd 532d acbc 0c7f a03d ba37 563e
000000a0: 6227 513e 85d9 4d3e 3733 113d 3a11 173c
000000b0: 6cf1 403e 0c72 fb3d f12a f13d f4d3 24be
000000c0: 7a3c 8e3e ee88 8d3e eea7 ab3d ebe6 c6bd
000000d0: 9470 15bd b31c 713c fe00 ec3c 19fb df3d
000000e0: e128 333e b27c 80bd ddbc 1ebe d54d c33d
000000f0: 0f87 98bd 124d 75bd f973 7f3e 22ba 2d3e
00000100: cc89 f6bd 8d95 223e 5e5f 123e 83ec 5d3d
00000110: 2857 89bd f2ed 8abb 63c3 19bc 905f 703e
00000120: a284 c03d a177 0cbd e1df 3bbe e8f6 6cbd
00000130: b040 4bbe 0938 2abe b9b8 b3bd da12 123b
00000140: 6f42 763e 843a 003e d8a9 81be 0b11 febd
00000150: 92ca d83d 4e36 a2bd 2604 08be 101f 353d
00000160: 903e 2c3e b8ea a13d a897 0e3d d023 7c3e
00000170: d390 a9bc 7bfd 07be 9118 f63d 8bd2 963d
00000180: 63a0 da3c 0db6 81bd 7c1b 353b d9e3 71be
00000190: 9f3c 0bbc ea39 563e 79c6 973c b52f f73c
000001a0: ae19 3e3d 7776 bc3d 5a5b 0a3e eb25 0d3e
000001b0: f15b b83d 8812 63be e4ee 05be fb92 5c3e
000001c0: a909 393d 9c31 0e3c a184 08bd 02c7 82be
000001d0: 25fb ccbd 220d 213e e87f 28be fd0a 5e3e
000001e0: f10d 453d 61af 843e 0ef0 653e 4445 a33e
000001f0: be77 2fbe 532b 4e3d 0125 863e 1c24 d6bc

actor.2.weight f4 [64, 128]
-0.33502463 0.07248289 0.025833528 -0.08521453 0.105574824 -0.052342195 -0.2494924 -0.32365718
0.13288975 -0.058221467 0.20184202 0.17540035 0.08808035 -0.021325577 0.059687186 -0.03532405
0.58571875 -0.06279588 0.053290576 0.07960687 -0.20618096 -0.12102783 0.032579005 0.03364628
0.15405531 0.058913607 -0.26759794 0.04492017 0.036481068 0.0105499355 0.0033431193 0.13969289
0.21542293 -0.26251808 0.022779657 0.15385771 -0.01881008 -0.0030160819 -0.14677113 -0.015713928
-0.083734065 -0.08665865 0.004636125 0.31592026 0.08370064 0.118117444 -0.19770716 -0.116541944
-0.23454101 0.008325216 -0.06695561 -0.15163259 0.035627972 0.07170402 -0.14874655 -0.09936881
0.12718306 0.11783903 -0.008022872 -0.22293928 0.07338887 0.18808894 0.028125018 0.0037005895
0.03126341 -0.05599735 -0.068270855 0.11144311 0.011485482 -0.091329746 0.014511551 0.2154834
-0.02433353 0.1381426 -0.0047181337 0.46086717 -0.011301673 -0.065754846 0.10554514 0.08737908
0.30245662 -0.02541121 -0.18651411 -0.23519376 0.0482694 -0.20652221 0.06442239 -0.06278701
0.11887544 -0.34379888 0.35492328 0.03415593 -0.0935526 -0.13047968 0.1470193 0.109662466
-0.24901818 0.0018449473 -0.0011017713 0.16323155 -0.12050806 -0.09591134 -0.05048009 0.26293397
-0.19996688 -0.19294335 0.37647292 -0.0362906 -0.2672839 0.014158068 0.07914342 -0.14294665
0.105793536 0.19459069 -0.17431447 0.10089876 0.032975987 0.17586657 0.004267178 0.1672217
-0.056696042 -0.00787751 -0.17405443 -0.08060474 0.09671474 -0.07528961 0.06260336 -0.06339038
0.15199366 -0.0031329128 0.029399049 -0.0346319 -0.15915537 0.19014105 -0.0070798974 -0.116312996
0.08045196 -0.21901993 0.4557639 -0.290632 -0.11277922 0.052288674 -0.09547302 0.19632983
-0.39615723 -0.11128502 -0.06427311 -0.14729767 -0.07567378 -0.09494384 -0.2302461 0.28791368
0.005826101 -0.018150456 0.008227104 -0.20367482 0.030722229 0.13531663 -0.19856781 0.23713255
0.26835114 0.005356273 -0.14846386 0.025459979 -0.09698425 0.07895197 -0.04548377 -0.22513707
-0.21617347 0.10109306 0.100434475 0.23238032 -0.18924232 -0.04241123 -0.19396466 0.042001367
0.037425727 0.016462293 -0.02989008 0.22902639 0.2400883 0.120155364 0.009989342 -0.20916262
-0.042239975 0.2470781 -0.124378994 0.03343213 0.24875234 -0.027264975 0.17725787 -0.1182935
0.09096105 0.009549094 -0.1935029 0.055735495 0.044821553 0.10050634 0.20314795 0.13962474
-0.1054004 0.1494834 -0.09796859 -0.08443795 -0.0016271772 -0.0396106 0.0094933845 0.036320947
-0.011524543 -0.19980408 0.08679561 0.32913435 -0.31155902 -0.12013275 -0.05157543 0.047079995
-0.28086478 -0.10086777 -0.016031433 -0.12083175 -0.096445344 0.21297435 -0.26112083 -0.08873122
0.0019737277 -0.29467577 -0.054725032 0.7685964 0.25031835 -0.039799757 -0.0574312 0.54250664
-0.2483938 0.1427553 -0.07521275 0.12948269 -0.061762027 0.07719108 -0.0026595856 -0.060894165
0.0401894 0.23473659 -0.030909173 0.06405247 0.30930498 -0.25055164 -0.01931595 -0.066625215
-0.23822123 0.20108303 0.12422497 0.12892967 -0.0683263 0.11883913 -0.12696105 -0.12162917
00000000: 5988 abbe e971 943d d6a0 d33c f584 aebd
00000010: 9d37 d83d c564 56bd f07a 7fbe 65b6 a5be
00000020: 4014 083e a279 6ebd adaf 4e3e 269c 333e
00000030: 7863 b43d fab2 aebc 8d7a 743d f3af 10bd
00000040: aaf1 153f 209b 80bd 3847 5a3d ed08 a33d
00000050: 1a21 53be 70dd f7bd 9071 053d afd0 093d
00000060: adc0 1d3e 654f 713d 9902 89be 36fe 373d
00000070: 2c6d 153d a3d9 2c3c 3c18 5b3b a70b 0f3e
00000080: d497 5c3e c568 86be 679c ba3c e08c 1d3e
00000090: 9917 9abc 75a9 45bb 2c4b 16be 7fba 80bc
000000a0: c47c abbd 177a b1bd a3ea 973b 4dc0 a13e
000000b0: 3e6b ab3d 8fe7 f13d bf73 4abe 8bad eebd
000000c0: 852b 70be 7d66 083c 0620 89bd 9345 1bbe
000000d0: a3ee 113d 8fd9 923d 0451 18be e081 cbbd
000000e0: 473c 023e 9755 f13d 5d72 03bc 324a 64be
000000f0: e74c 963d 639a 403e 7066 e63c 9785 723b
00000100: 100e 003d 7a5d 65bd 97d1 8bbd 493c e43d
00000110: 9a2d 3c3c 170b bbbd dbc1 6d3c aea7 5c3e
00000120: 1c57 c7bc 4175 0d3e 939a 9abb c8f6 eb3e
00000130: a72a 39bc 7aaa 86bd 0d28 d83d cef3 b23d
00000140: 98db 9a3e 2b2b d0bc 8efd 3ebe a2d6 70be
00000150: 22b6 453d 8f7a 53be e3ef 833d 7a96 80bd
00000160: f774 f33d 6806 b0be 81b8 b53e 17e7 0b3d
00000170: 8198 bfbd 779c 05be 3a8c 163e b796 e03d
00000180: 9ffe 7ebe 29d2 f13a 4f69 90ba 2c26 273e
00000190: eecc f6bd 2a6d c4bd 36c4 4ebd 489f 863e
000001a0: 1ec4 4cbe f192 45be 0fc1 c03e 74a5 14bd
000001b0: 6fd9 88be 3ef7 673c f215 a23d 9b60 12be
000001c0: 48aa d83d c842 473e 7e7f 32be 02a4 ce3d
000001d0: d411 073d 5e16 343e afd3 8b3b 2a3c 2b3e
000001e0: 1c3a 68bd ac10 01bc 533b 32be 1914 a5bd
000001f0: 6112 c63d 7031 9abd 3136 803d d1d2 81bd
00000200: 3aa4 1b3e 8e51 4dbb 46d6 f03c 2eda 0dbd
00000210: a0f9 22be 56b4 423e 7cfe e7bb 8235 eebd
00000220: ffc3 a43d c346 60be e359 e93e b8cd 94be
00000230: cbf8 e6bd a62c 563d 5c87 c3bd b00a 493e
00000240: 1fd5 cabe 67e9 e3bd 9fa1 83bd 33d5 16be
00000250: dbfa 9abd ea71 c2bd a2c5 6bbe 6c69 933e
00000260: e1e8 be3b 44b0 94bc faca 063c 2290 50be
00000270: 2fad fb3c 7190 0a3e 5c55 4bbe e0d2 723e
00000280: 5265 893e ad83 af3b e906 18be 7291 d03c
00000290: ae9f c6bd 92b1 a13d 314d 3abd 558a 66be
000002a0: 945c 5dbe e109 cf3d 97b0 cd3d 1bf5 6d3e
000002b0: bdc8 41be 66b7 2dbd ac9e 46be a009 2c3d
000002c0: b84b 193d eedb 863c 0bdc f4bc e585 6a3e
000002d0: b5d9 753e 0414 f63d 56aa 233c ba2e 56be
000002e0: d303 2dbd 0b02 7d3e 6aba febd 21f0 083d
000002f0: efb8 7e3e cc5a dfbc 1683 353e dd43 f2bd
00000300: c949 ba3d ce73 1c3c a025 46be e74a 643d
00000310: ce96 373d 45d6 cd3d 0406 503e caf9 0e3e
00000320: 2adc d7bd 2d12 193e c2a3 c8bd ceed acbd
00000330: 0247 d5ba b93e 22bd 248a 1b3c 46c5 143d
00000340: 70d1 3cbc 7199 4cbe e6c1 b13d 4c84 a83e
00000350: aa84 9fbe 2908 f6bd c240 53bd f4d6 403d
00000360: 82cd 8fbe c393 cebd 5a54 83bc a376 f7bd
00000370: 2385 c5bd f315 5a3e a1b1 85be b7b8 b5bd
00000380: a859 013b bedf 96be 5b27 60bd bcc2 443f
00000390: ba29 803e 1205 23bd fa3c 6bbd b7e1 0a3f
000003a0: f25a 7ebe 722e 123e 2409 9abd 1c97 043e
000003b0: 2efa 7cbd 5b16 9e3d 714c 2ebb 296c 79bd
000003c0: a49d 243d ca5e 703e 3c35 fdbc f12d 833d
000003d0: 395d 9e3e 4e48 80be 7c3c 9ebc cd72 88bd
000003e0: 44f0 73be b6e8 4d3e a969 fe3d 2406 043e
000003f0: a9ee 8bbd ee61 f33d 1402 02be b718 f9bd

actor.2.bias f4 [64]
0.06821111 -0.009069546 0.14318584 0.1836437 0.12429231 0.1193965 -0.05284207 0.069255985
-0.0129801035 -0.07032059 -0.09739108 0.10854271 0.033914316 0.064786986 0.024141274 -0.021526143
0.009969493 0.095055684 0.087043494 0.047472212 -0.020431109 0.055207074 -0.02279652 0.11543655
-0.010373691 -0.0492038 0.024105152 0.026973035 -0.123925835 -0.07146737 0.02887106 -0.14700508
0.03034086 0.030224118 -0.09797996 -0.024901183 0.011909572 0.14685139 -0.11987835 -0.04682876
0.104920335 -0.11221342 0.041547853 -0.041294616 0.11148119 -0.03921288 0.015610174 -0.046163604
0.076734744 -0.031440064 0.025707867 0.18782605 0.006513009 0.12661462 0.02265221 0.017283555
0.020789573 -0.013628098 0.014497101 0.04297136 0.047477756 -0.0047210176 -0.12355765 0.01935827
00000000: 44b2 8b3d 6f98 14bc 4f9f 123e 180d 3c3e
00000010: f78c fe3d 2786 f43d ed70 58bd 15d6 8d3d
00000020: 80aa 54bc 3e04 90bd f974 c7bd a44b de3d
00000030: bde9 0a3d 0aaf 843d ecc3 c53c 9857 b0bc
00000040: 1657 233c 8eac c23d dc43 b23d 3972 423d
00000050: 245f a7bc d020 623d c4bf babc ff69 ec3d
00000060: 6af6 29bc ec89 49bd 2b78 c53c 8ef6 dc3c
00000070: d4cc fdbd 7c5d 92bd 0083 ec3c 8088 16be
00000080: 658d f83c 9298 f73c b8a9 c8bd 91fd cbbc
00000090: 5e20 433c 3660 163e c882 f5bd 84cf 3fbd
000000a0: 79e0 d63d 26d0 e5bd 152e 2a3d 8b24 29bd
000000b0: 4050 e43d af9d 20bd d1c1 7f3c 0c16 3dbd
000000c0: 1b27 9d3d 4cc7 00bd 4e99 d23c 7955 403e
000000d0: 146b d53b 43a7 013e 2191 b93c 3e96 8d3c
000000e0: e54e aa3c 6348 5fbc 4085 6d3c bd02 303d
000000f0: 0978 423d c4b2 9abb cb0b fdbd 3c95 9e3c

actor.4.weight f4 [16, 64]
-0.6061022 -0.17442547 0.97628987 0.2955643 0.35065767 0.07801525 -0.57432294 -0.6870254
0.37324187 -0.813537 -0.3408545 0.20265444 -0.521412 -0.18071924 0.30720133 0.23442526
0.05269817 0.34405375 0.61995274 -0.42985922 -0.80316865 -0.046264395 0.5780028 0.40147728
-0.11725793 0.060798623 0.012913647 -0.8559107 -0.49946234 -0.22852626 0.31347692 -0.056978002
0.11676311 -0.31284353 0.14743489 0.18790361 -0.4248885 0.79252166 -0.029731669 -0.79729646
0.4184107 -0.24367434 -0.39129534 0.9525286 0.23439963 -0.27894753 0.36715367 0.12639461
0.657032 0.010508861 0.10191772 0.21783753 0.25102687 0.3337347 1.0092245 0.17627794
0.5245392 -0.4183984 -0.0021101658 -0.030048575 0.94086945 -0.025608301 -0.9198924 0.28405744
0.109633304 0.0012264088 -0.34494734 0.6371919 0.005261959 0.22517087 0.22129671 0.2482575
-0.7253001 0.30200058 0.4274219 -0.45784685 0.32555458 0.28342465 -0.23398066 0.1889427
-0.39008927 0.61881423 -0.7077464 0.4339266 0.44603017 0.9105907 0.14211228 0.3078477
-0.84996825 -0.20875004 0.6120669 -0.17127676 -0.59100384 0.20857745 0.02178406 0.5357699
0.87821424 0.33325508 -0.26814517 -0.36251295 -0.017595792 -0.5579686 -0.22390474 -0.7966503
-0.016917339 -0.76407564 0.2473176 -0.531992 -0.15679978 -0.09659273 -0.45092803 0.40115106
-0.37381572 0.5089071 0.5096993 -0.6488448 0.8359209 0.11937944 -0.07464353 -0.013096509
-0.5015764 -0.012040639 0.4224047 -0.10689585 -0.68316 -0.0050955573 -0.18645467 -0.08588891
0.18445057 0.34968102 -0.42858618 -0.3577049 -0.27501372 0.0002858415 0.6895162 0.040096845
-1.062829 0.88264275 1.0779909 -0.43142128 -0.081400104 1.4352927 -0.7288543 -0.3177077
0.3932771 -0.72925735 -0.074944034 -0.17875637 0.17149185 0.14749783 0.2975266 -1.2096382
0.23992032 -0.60967916 0.7025013 0.5503849 1.4401116 -0.7064353 -0.31983417 1.1580546
0.79702777 0.5379387 0.1875784 0.04229038 -1.0205913 -0.6349785 0.70080084 0.056341674
-0.1418369 0.8032149 0.12495473 -0.4535712 -0.50028056 0.09489657 -0.50802207 0.010974888
-0.46684155 0.45918882 -0.2870109 -0.34746712 -0.2501478 -0.48587474 -0.28264818 -0.029934447
-0.6180554 0.19676252 0.9984943 0.22976774 -0.3459521 0.17103545 0.79858464 -0.7488985
1.38875 -0.111259 0.28768903 0.43694723 0.2077619 -0.3835123 -0.078976676 0.28171358
-0.19092712 -0.32285625 0.5617283 0.7064162 0.03174692 0.39477235 -0.44869685 -0.76045805
-0.42426717 -0.37018895 0.7361345 0.5782826 -0.1802426 -0.2968101 -0.52417886 0.26517165
-0.4261481 -0.09105303 -0.29294905 0.12327748 -0.12015072 0.3051686 -0.29818562 -0.46869192
-0.119612314 0.014901876 -0.336648 -0.30480552 0.5487889 -0.025920445 -0.08973116 0.63542926
-1.0005448 -0.04559569 -0.05093724 -0.2620847 -0.5086909 0.27968898 -0.32126573 -0.67955804
0.16107139 -0.85658103 -0.3675079 0.7646137 -0.32673854 0.033011176 0.22488917 -0.28435573
-0.94196445 -0.72487473 0.8083802 -0.39036614 -0.36084735 -0.43157688 -0.43736497 0.5547386
00000000: 8429 1bbf 979c 32be 22ee 793f 3454 973e
00000010: 6789 b33e 76c6 9f3d d406 13bf e6e0 2fbf
00000020: 8f19 bf3e f643 50bf 7b84 aebe a584 4f3e
00000030: 427b 05bf 770e 39be 7e49 9d3e 2d0d 703e
00000040: 09da 573d d027 b03e 39b5 1e3f 8216 dcbe
00000050: 769c 4dbf bc7f 3dbd fef7 133f 6e8e cd3e
00000060: ed24 f0bd fa07 793d c393 533c f71c 5bbf
00000070: 87b9 ffbe ca02 6abe 0c80 a03e c461 69bd
00000080: 7f21 ef3d 072d a0be 2cf9 163e ce69 403e
00000090: fc8a d9be b3e2 4a3f d48f f3bc 9f1b 4cbf
000000a0: ed39 d63e c485 79be dd57 c8be ead8 733f
000000b0: 7506 703e 36d2 8ebe 91fb bb3e 976d 013e
000000c0: 4033 283f 5c2d 2c3c 3dba d03d cd10 5f3e
000000d0: 9886 803e 46df aa3e 452e 813f 3482 343e
000000e0: 3348 063f 5138 d6be b54a 0abb 6e28 f6bc
000000f0: d2dc 703f 80c8 d1bc 117e 6bbf fa6f 913e
00000100: 6d87 e03d 73bf a03a f09c b0be 021f 233f
00000110: 836c ac3b 3193 663e 9b9b 623e 3737 7e3e
00000120: 44ad 39bf d29f 9a3e 0bd7 da3e e76a eabe
00000130: 17af a63e 091d 913e a098 6fbe 327a 413e
00000140: c8b9 c7be 9c6a 1e3f de2e 35bf a12b de3e
00000150: 115e e43e 791c 693f e285 113e 379e 9d3e
00000160: 8597 59bf 92c2 55be 6bb0 1c3f 2d63 2fbe
00000170: 074c 17bf 5495 553e 7c74 b23c 3728 093f
00000180: a6d2 603f 69a0 aa3e 534a 89be 4c9b b9be
00000190: 0d25 90bc 08d7 0ebf 4947 65be 46f1 4bbf
000001a0: 3b96 8abc 769a 43bf d340 7d3e a130 08bf
000001b0: 1f90 20be 69d2 c5bd 0ae0 e6be ac63 cd3e
000001c0: c664 bfbe bc47 023f a77b 023f b11a 26bf
000001d0: e9fe 553f 357d f43d b5de 98bd bd92 56bc
000001e0: 5067 00bf 1a46 45bc 6e45 d83e 36ec dabd
000001f0: 93e3 2ebf a2f8 a6bb f9ed 3ebe 86e6 afbd
00000200: 9ce0 3c3e 6409 b33e a66f dbbe 1925 b7be
00000210: 99ce 8cbe ffdc 9539 2284 303f 973c 243d
00000220: c80a 88bf e0f4 613f 9bfb 893f 40e3 dcbe
00000230: 19b5 a6bd acb7 b73f 3296 3abf 95aa a2be
00000240: 9e5b c93e 9cb0 3abf 427c 99bd e90b 37be
00000250: 8f9b 2f3e ac09 173e 6855 983e 6dd5 9abf
00000260: acad 753e ef13 1cbf 20d7 333f 06e6 0c3f
00000270: 9455 b83f f2d8 34bf 4ec1 a3be 223b 943f
00000280: 030a 4c3f 5ab6 093f 8d14 403e ad38 2d3d
00000290: bca2 82bf f38d 22bf af67 333f 87c6 663d
000002a0: b13d 11be 7e9f 4d3f 44e8 ff3d 7c3a e8be
000002b0: 6312 00bf 2259 c23d bc0d 02bf 04d0 333c
000002c0: db05 efbe cc1a eb3e 18f3 92be 36e7 b1be
000002d0: 5f13 80be 93c4 f8be 43b7 90be 1639 f5bc
000002e0: e138 1ebf 1d7c 493e 539d 7f3f 3c48 6b3e
000002f0: a220 b1be eb23 2f3e 0b70 4c3f d0b7 3fbf
00000300: 8fc2 b13f c2db e3bd fa4b 933e 8cb7 df3e
00000310: 89bf 543e b95b c4be 86be a1bd c33c 903e
00000320: 6682 43be 6a4d a5be 6dcd 0f3f b1d7 343f
00000330: 0f09 023d 9a1f ca3e 98bb e5be 61ad 42bf
00000340: 8c39 d9be 6889 bdbe 5073 3c3f 540a 143f
00000350: 8491 38be 7ef7 97be 9630 06bf 94c4 873e
00000360: 1530 dabe 037a babd 6bfd 95be e778 fc3d
00000370: 9511 f6bd 0f3f 9c3e c9ab 98be 63f8 efbe
00000380: 4df7 f4bd 0027 743c 205d acbe 780f 9cbe
00000390: 6e7d 0c3f 1d57 d4bc f8c4 b7bd 7eab 223f
000003a0: da11 80bf 8cc2 3abd 91a3 50bd f72f 86be
000003b0: 9139 02bf 6533 8f3e f17c a4be 84f7 2dbf
000003c0: e6ef 243e e548 5bbf ff29 bcbe b9bd 433f
000003d0: 464a a7be ba36 073d 5949 663e 1397 91be
000003e0: 9524 71bf 6491 39bf 01f2 4e3f 12de c7be
000003f0: fcc0 b8be a5f7 dcbe 4dee dfbe 5903 0e3f

actor.4.bias f4 [16]
0.13992259 0.13998769 -0.02401043 0.067055665 -0.2579213 -0.73331773 0.0026490374 0.1593106
-0.7399328 0.1182642 -0.010797463 -0.91663945 -0.44444945 -0.13024208 -0.60998213 0.29068214
00000000: de47 0f3e ef58 0f3e 85b1 c4bc 7b54 893d
00000010: 430e 84be b6ba 3bbf 799b 2d3b 5122 233e
00000020: 3c6c 3dbf 8034 f23d d8e7 30bc e2a8 6abf
00000030: e18e e3be 2e5e 05be ca27 1cbf 4ad4 943e

critic.0.weight f4 [128, 35]
0.0808867 -0.07725035 0.08881398 -0.03866978 0.020396067 -0.024071679 -0.0005240117 -0.023248995
-0.012595221 0.14819168 1.7981529 -0.27330205 -0.8263566 -1.1765128 -1.0504907 -0.1442071
0.3275539 0.4336497 0.10544506 0.1937421 -0.004522577 0.08923984 0.037560716 -0.08375203
-0.108223416 -0.45490935 0.018641384 -0.07935857 0.19887951 0.23748378 0.2900868 0.17302509
-0.48751187 0.29357055 0.57639694 0.13253911 0.1431567 0.20147364 0.11908847 0.28152007
0.156804 0.12168845 0.09723756 0.16277286 0.2322099 0.10798264 -1.0505538 0.600908
0.9708999 0.5917063 0.39648038 0.21308589 -0.095441505 -0.32102594 -0.27050218 0.17347783
-0.26500282 -0.15793347 -0.043531273 -0.15616898 -0.21695349 0.45017406 0.23987032 0.092542194
0.21667641 -0.17512119 -0.44351718 -0.3721618 0.08098782 -0.3674505 -0.033460967 -0.021667533
-0.030671578 0.005115002 0.026153611 -0.036374696 0.037096232 -0.00565647 0.031795662 0.04019505
-0.8444533 0.57955354 1.29408 1.1993996 1.1440965 0.33860034 0.31368983 0.09335537
0.14130491 0.23961893 0.018071022 -0.18397464 -0.24249436 0.36667717 0.07414744 -0.28343904
-0.94655406 -0.018924788 -0.0041801864 0.018689433 0.15510291 0.18384978 -0.1451785 -0.47387472
0.38985908 0.20706038 0.1409181 0.12651972 0.12335365 0.12569526 0.091618925 0.104776405
0.0651843 0.10705643 0.0988459 -1.5740277 0.8862905 0.16815165 -0.046701618 -0.47036758
0.28586596 0.009713071 -0.0020099946 0.30839956 0.36681932 -0.2347633 0.10133671 0.0016416027
-0.14871773 -0.7474541 -0.3665596 0.038171493 0.07898335 0.07496995 0.16060013 0.27326182
0.2118788 0.40973428 0.5062992 0.83199704 -0.06407269 -0.050515868 -0.053830262 0.014799924
-0.033227608 -0.050567225 -0.017326038 -0.038181264 -0.027403789 0.031967025 -0.57882106 -0.2282628
0.27708557 0.36663467 -0.055867087 1.166339 0.31099546 -0.011768907 -0.13956194 0.022300467
0.21085984 0.28286013 0.0005104519 -0.18444908 -0.21530661 0.23600194 -0.6188389 0.04797365
0.18803078 -0.027169205 0.22978 -0.24694155 -0.42805466 -0.3585364 0.18659616 0.06621204
0.026478527 0.12772548 0.06086425 -0.018983644 0.0053215525 0.09024131 0.03993096 0.095043875
0.12818062 -2.5001535 -1.3069699 -0.94279504 -0.8344713 -0.682543 1.0515594 0.22302002
0.3314885 -0.19505571 0.31507692 -0.2010253 0.01271555 -0.079725355 0.19793531 -0.11168592
0.1782318 0.06098505 -0.06558985 0.10755595 0.14208205 0.09565796 -0.33074853 -0.090387605
-0.24305758 0.3180482 -0.11416244 -0.11286816 -0.09734132 -0.08392327 -0.1252268 -0.098089986
-0.12556452 -0.07093072 -0.19461583 -0.17788257 -0.6334472 -0.91389495 -1.0948796 -0.16239692
-1.4322001 0.04968359 -0.16152772 0.10743891 0.1213298 -0.30957592 0.004989707 0.14720131
0.0087745 -0.27515736 0.2720272 0.0448932 0.37383214 0.03495233 0.121171385 0.21358368
0.26410386 -0.1785033 0.12416439 0.46506166 0.90052193 0.11631095 0.0633061 0.06738741
0.08635648 0.05049477 0.0627237 0.08089432 0.06650772 -0.015061086 0.009292667 -1.8976512
00000000: eda7 a53d 6e35 9ebd 1be4 b53d 3464 1ebd
00000010: a715 a73c f831 c5bc d45d 09ba ad74 bebc
00000020: 305c 4ebc 8fbf 173e e029 e63f 3fee 8bbe
00000030: 1b8c 53bf f997 96bf 7b76 86bf 07ab 13be
00000040: 25b5 a73e 5507 de3e 94f3 d73d 5464 463e
00000050: 2032 94bb 61c3 b63d 44d9 193d 2f86 abbd
00000060: 3da4 ddbd e1e9 e8be d1b5 983c bf86 a2bd
00000070: 12a7 4b3e f32e 733e 4286 943e 7d2d 313e
00000080: 289b f9be e14e 963e c08e 133f 55b8 073e
00000090: ac97 123e 1b4f 4e3e a8e4 f33d 6623 903e
000000a0: 3a91 203e cb37 f93d 7c24 c73d eead 263e
000000b0: 6fc8 6d3e 0126 dd3d 8c78 86bf 1bd5 193f
000000c0: e58c 783f 107a 173f 7aff ca3e 3033 5a3e
000000d0: d676 c3bd 835d a4be 437f 8abe 2ca4 313e
000000e0: 73ae 87be 50b9 21be d94d 32bd c3ea 1fbe
000000f0: 0e29 5ebe 377d e63e 91a0 753e c386 bd3d
00000100: 6ce0 5d3e f852 33be af14 e3be fe8b bebe
00000110: f1dc a53d 7922 bcbe 5e0e 09bd 1c80 b1bc
00000120: f642 fbbc bf9b a73b 1940 d63c a2fd 14bd
00000130: 38f2 173d e959 b9bb 2b3c 023d 91a3 243d
00000140: 172e 58bf 9f5d 143f 6aa4 a53f ed85 993f
00000150: c171 923f 065d ad3e f49b a03e 1a31 bf3d
00000160: 3cb2 103e aa5e 753e ae09 943c d963 3cbe
00000170: 7150 78be 1cbd bb3e 9dda 973d ec1e 91be
00000180: 5e51 72bf 2808 9bbc f2f9 88bb 951a 993c
00000190: 4cd3 1e3e 1e43 3c3e aca9 14be b59f f2be
000001a0: 9c9b c73e a307 543e d64c 103e 638e 013e
000001b0: d7a0 fc3d 42b6 003e b4a2 bb3d 0395 d63d
000001c0: 597f 853d 6740 db3d b86f ca3d bd79 c9bf
000001d0: efe3 623f f22f 2c3e 324a 3fbd 05d4 f0be
000001e0: 065d 923e 9323 1f3c 1dba 03bb 8ce6 9d3e
000001f0: becf bb3e ca65 70be 9f89 cf3d 0c2b d73a
00000200: 7649 18be 2759 3fbf b3ad bbbe b659 1c3d
00000210: 06c2 a13d d889 993d 5c74 243e f9e8 8b3e
00000220: c2f6 583e b1c8 d13e d39c 013f c2fd 543f
00000230: 8b38 83bd bae9 4ebd 1f7d 5cbd 617b 723c
00000240: ac19 08bd 941f 4fbd 56ef 8dbc f563 1cbd
00000250: e97d e0bc dbef 023d 9e2d 14bf b9bd 69be
00000260: 29de 8d3e 8ab7 bb3e e3d4 64bd 994a 953f
00000270: cc3a 9f3e 60d2 40bc 53e9 0ebe 78af b63c
00000280: a4eb 573e 0bd3 903e d9cf 053a 38e0 3cbe
00000290: 5679 5cbe 7eaa 713e 3a6c 1ebf 0580 443d
000002a0: 248b 403e f491 debc 734b 6b3e 3fde 7cbe
000002b0: fb29 dbbe 1592 b7be 1013 3f3e 2e9a 873d
000002c0: 7fe9 d83c 78ca 023e cb4c 793d 9683 9bbc
000002d0: 6b60 ae3b 70d0 b83d a58e 233d 5da6 c23d
000002e0: c841 033e 8402 20c0 ca4a a7bf 045b 71bf
000002f0: e99f 55bf 23bb 2ebf 8099 863f 5c5f 643e
00000300: dcb8 a93e afbc 47be c351 a13e 94d9 4dbe
00000310: e254 503c 0c47 a3bd 8eaf 4a3e 96bb e4bd
00000320: 6682 363e 76cb 793d f953 86bd 4b46 dc3d
00000330: f57d 113e 52e8 c33d df57 a9be 231d b9bd
00000340: 16e4 78be 37d7 a23e ffcd e9bd 6c27 e7bd
00000350: e35a c7bd f7df abbd 743b 00be 67e3 c8bd
00000360: fc93 00be 2044 91bd 5f49 47be d926 36be
00000370: 9829 22bf 05f5 69bf 0425 8cbf 614b 26be
00000380: 5552 b7bf 0581 4b3d 8667 25be ee08 dc3d
00000390: c27b f83d bc80 9ebe b280 a33b f1bb 163e
000003a0: ecc2 0f3c 6de1 8cbe 2647 8b3e efe1 373d
000003b0: ed66 bf3e 2d2a 0f3d b428 f83d aeb5 5a3e
000003c0: 9f38 873e 92c9 36be e649 fe3d 901c ee3e
000003d0: 9b88 663f 6f34 ee3d a1a6 813d 6902 8a3d
000003e0: abdb b03d 9bd3 4e3d 4975 803d ecab a53d
000003f0: 3335 883d c6c2 76bc 4540 183c 3ce6 f2bf

critic.0.bias f4 [128]
0.4901762 -0.602422 -0.18562049 -0.15969719 -0.44705924 -0.29559413 -0.122360624 -0.36006323
0.31030482 -0.3543444 0.3797153 0.051924236 0.61083776 -0.025229901 0.19839709 -0.09629308
0.57875353 -0.29051024 -0.24191418 0.5386642 -0.41663963 -0.43318576 -0.4497846 0.27769575
0.3527894 -0.44467804 0.003881705 0.11700406 0.057128735 0.09897655 0.036575034 -0.05660728
-0.17169146 -0.42934653 -0.36622894 -0.09860013 -0.602236 -0.045555856 0.20163216 -0.1435104
0.17232811 -0.13926588 -0.56161934 -0.24569452 -0.33168617 -0.63027745 -0.0061528934 0.06453278
0.12369649 0.10914866 -0.14234096 0.055777572 -0.05547638 -0.77669245 -0.52618945 -0.12375008
-0.20387346 -0.32320395 0.3941559 -0.20758723 -0.050658133 0.05912207 -0.086505465 0.18405862
0.08956677 -0.5730934 -0.46596274 -0.20845434 0.05335425 0.0056370697 -0.013458907 0.53606063
0.397632 0.3737205 -0.08374094 0.19751287 -0.054937035 0.21501133 0.1484635 0.35847455
0.04146902 0.13848782 0.43014196 0.14043514 -0.09308522 0.83175206 0.06914082 0.17973655
0.37571165 0.08475116 -0.34847575 0.56477356 -0.27279946 -0.37169325 -0.71930474 0.3064287
0.21836631 0.15136501 -0.39246032 0.013895791 -0.24522549 -0.6105745 0.35574222 0.27749884
-0.07875712 -0.3165978 0.18958467 0.056460787 -0.2543534 0.016652806 -0.31948683 0.62051153
0.68664354 -0.080321245 -0.78900856 -0.18355289 0.89449316 -0.39732328 0.30682498 0.11789015
-0.38274637 -0.10659083 -0.009715584 0.07563303 -0.11226398 -0.45017022 -0.1480595 0.07955897
00000000: 60f8 fa3e 5438 1abf 4c13 3ebe a987 23be
00000010: f3e4 e4be 1d58 97be 3598 fabd 355a b8be
00000020: 46e0 9e3e a16c b5be 0b6a c23e 82ae 543d
00000030: dd5f 1c3f f0ae cebc 9b28 4b3e 4e35 c5bd
00000040: 3129 143f c2bd 94be 5ab8 77be e6e5 093f
00000050: ca51 d5be 86ca ddbe 2b4a e6be 232e 8e3e
00000060: d0a0 b43e d7ac e3be 3464 7e3b d39f ef3d
00000070: d2ff 693d 38b4 ca3d b4cf 153d 09dd 67bd
00000080: e3cf 2fbe 4fd3 dbbe 5c82 bbbe ddee c9bd
00000090: 232c 1abf c798 3abd a978 4e3e 64f4 12be
000000a0: c876 303e b79b 0ebe 49c6 0fbf 5897 7bbe
000000b0: c5d2 a9be dd59 21bf 369e c9bb c329 843d
000000c0: 9654 fd3d 5589 df3d d4c1 11be 0677 643d
000000d0: 333b 63bd 51d5 46bf 5ab4 06bf af70 fdbd
000000e0: 34c4 50be fd7a a5be cdce c93e bf91 54be
000000f0: e77e 4fbd fc29 723d c729 b1bd dd79 3c3e
00000100: c86e b73d 40b6 12bf ab92 eebe 0e75 55be
00000110: fc89 5a3d 2bb7 b83b bf82 5cbc 453b 093f
00000120: 6c96 cb3e 4b58 bf3e 5f80 abbd d040 4a3e
00000130: a805 61bd ee2b 5c3e d106 183e fa89 b73e
00000140: 6bdb 293d c0cf 0d3e 913b dc3e 3bce 0f3e
00000150: 77a3 bebd b4ed 543f b499 8d3d dc0c 383e
00000160: 475d c03e 0492 ad3d 6a6b b2be 0095 103f
00000170: 5fac 8bbe 944e bebe 5b24 38bf 39e4 9c3e
00000180: 6b9b 5f3e 6eff 1a3e 8ff0 c8be 2cab 633c
00000190: 641c 7bbe 9c4e 1cbf d823 b63e 5414 8e3e
000001a0: 6a4b a1bd 1b19 a2be 7c22 423e 6d43 673d
000001b0: 9c3a 82be 776b 883c c793 a3be d8d9 1e3f
000001c0: dfc7 2f3f 777f a4bd 77fc 49bf 4af5 3bbe
000001d0: 81fd 643f f56d cbbe 2a18 9d3e 6470 f13d
000001e0: 55f7 c3be 4b4c dabd 1d2e 1fbc 7de5 9a3d
000001f0: a8ea e5bd b67c e6be e99c 17be d0ef a23d

critic.2.weight f4 [64, 128]
-0.043823052 -0.14450425 0.059348848 -0.08317274 -0.038245995 -0.06120977 -0.12676609 -0.3328894
-0.022132829 -0.11282548 -0.035528548 0.007332854 0.061277308 -0.048277516 -0.17755973 -0.12313674
-0.10896634 0.16562207 -0.14569941 0.105270654 -0.074076466 0.042084184 0.01226538 -0.11622803
0.080058776 -0.10490912 0.059762545 0.09224558 0.055493526 -0.01592886 0.042199764 -0.071055785
-0.08660012 -0.15813 0.035801467 0.121210866 -0.10333955 0.06009744 0.13969974 -0.018755395
-0.028580569 0.09667745 0.09441645 0.011475231 -0.14081855 -0.16085918 0.045505945 -0.081187434
0.026082013 0.03380228 -0.0060565113 -0.16732165 -0.18104422 -0.07688836 -0.20177393 0.105114155
0.07405235 -0.028071156 0.122838706 -0.13790673 -0.011330617 0.043647774 0.0013031967 0.055777516
0.049007352 -0.13626699 0.036814943 -0.02656796 0.013056051 0.043590065 -0.01529622 0.096265644
-0.07493247 0.074220575 0.13709356 -0.017726496 -0.094695225 0.29033646 0.04437871 0.1389532
0.08203074 0.038126696 -0.114378564 -0.0069608474 0.013879852 0.11520359 0.13114505 0.06292398
0.12212731 0.08435643 -0.109487414 0.045369573 -0.121960655 -0.019431077 -0.09543118 0.03976939
-0.20008272 -0.12700067 -0.061711106 -0.09335023 -0.10582967 -0.07905518 0.111113325 -0.07292828
-0.09270524 -0.0767979 0.15750363 0.10414425 -0.08801066 -0.16808082 -0.031192893 -0.011219158
-0.071608 0.09292433 -0.14937177 -0.23698056 -0.047977712 -0.04731119 -0.057262737 -0.07904663
-0.048007645 -0.063019685 -0.035373103 -0.12775165 -0.09776852 0.029270396 0.03144984 -0.020746393
-0.15840125 -0.20990016 -0.13513668 -0.18859184 0.2000207 0.063783035 -0.10891688 -0.0038037496
-0.07604241 -0.09729642 -0.2771072 0.3312775 -0.03400346 0.11292075 -0.12859505 -0.2619431
-0.21750028 0.10047533 -0.49108025 0.034724932 -0.08612784 -0.052310254 -0.040771823 0.066604145
-0.2599978 -0.27040327 -0.12608084 0.005049576 -0.0056162183 -0.36058816 -0.39005706 0.10580007
-0.17439999 -0.07426246 -0.07452882 -0.079832025 -0.24959624 0.051680245 -0.67235 -0.12373923
-0.23066242 -0.351425 -0.20564136 -0.58289236 -0.06391872 -0.2187575 -0.17246246 -0.04501159
0.10303463 0.012303568 0.060482785 -0.30427253 -0.18376009 -0.037107963 0.16750832 -0.22551864
0.006049104 0.5638848 -0.24806312 -0.1984619 -0.12097622 -0.04035345 0.016228499 -0.5797332
0.18904449 0.018363982 -0.24884604 -0.23468578 0.016893264 -0.23347667 0.11895174 0.28666884
0.12110872 -0.3759708 -0.10462829 -0.3187233 -0.09787638 0.3009205 -0.32513228 0.19329041
-0.23242833 -0.12051497 -0.06020073 0.104742005 0.033205893 0.050830252 0.024072 -0.24289262
-0.26329264 0.44438353 -0.20473163 -0.34364325 -0.1534892 -0.5287281 -0.20720942 -0.07660691
-0.27464926 -0.28064144 -0.23845822 -0.15673192 0.010288498 -0.08271607 -0.4508161 -0.13206416
-0.12365898 -0.21280417 0.054436725 -0.35511908 0.10061208 -0.11589846 -0.101504356 -0.39024693
-1.007224 0.06437224 0.017729325 -0.5594731 0.41379625 0.092471085 0.016395286 0.108345084
-0.5696758 -0.19771305 -0.2962682 0.11159909 -0.13388444 -0.13723432 -0.05879654 -0.034610312
00000000: cd7f 33bd ecf8 13be c717 733d 7856 aabd
00000010: d5a7 1cbd 19b7 7abd f8ce 01be 7b70 aabe
00000020: e84f b5bc 0c11 e7bd 6286 11bd 7048 f03b
00000030: eafd 7a3d a5be 45bd 38d2 35be 1d2f fcbd
00000040: bf29 dfbd d598 293e 3a32 15be 2498 d73d
00000050: 67b5 97bd 7760 2c3d bbf4 483c f608 eebd
00000060: dbf5 a33d 98da d6bd 92c9 743d 40eb bc3d
00000070: 2e4d 633d 3e7d 82bc a9d9 2c3d b285 91bd
00000080: 675b b1bd d5ec 21be 8fa4 123d 673d f83d
00000090: b0a3 d3bd bc28 763d 730d 0f3e eaa4 99bc
000000a0: cc21 eabc d4fe c53d 695d c13d 9b02 3c3c
000000b0: bd32 10be 45b8 24be 7164 3a3d 9945 a6bd
000000c0: f2a9 d53c 4274 0a3d b375 c6bb 5e56 2bbe
000000d0: a863 39be a577 9dbd d39d 4ebe 1746 d73d
000000e0: c2a8 973d 7bf5 e5bc dc92 fb3d 6c37 0dbe
000000f0: 0da4 39bc 02c8 323d 06d0 aa3a f776 643d
00000100: efbb 483d 9389 0bbe 44cb 163d 0da5 d9bc
00000110: 0ce9 553c 7f8b 323d ff9c 7abc ec26 c53d
00000120: 3276 99bd f500 983d 4162 0c3e 2837 91bc
00000130: 92ef c1bd fba6 943e 73c6 353d bf49 0e3e
00000140: bcff a73d bd2a 1c3d 4f3f eabd d217 e4bb
00000150: 5268 633c dcef eb3d e34a 063e 4ade 803d
00000160: e21d fa3d 10c3 ac3d f03a e0bd 72d5 393d
00000170: 82c6 f9bd ec2d 9fbc 6c71 c3bd 3ae5 223d
00000180: 7ce2 4cbe 770c 02be c9c4 7cbd 682e bfbd
00000190: 3abd d8bd afe7 a1bd 628f e33d 6c5b 95bd
000001a0: 3fdc bdbd 3848 9dbd a248 213e 9549 d53d
000001b0: ef3e b4bd 611d 2cbe 3d88 ffbc 8fd0 37bc
000001c0: 37a7 92bd 1c4f be3d eaf4 18be 08ab 72be
000001d0: 4784 44bd 61c9 41bd 558c 6abd 33e3 a1bd
000001e0: aaa3 44bd 7710 81bd 63e3 10bd 54d1 02be
000001f0: dd3a c8bd 78c8 ef3c 8cd1 003d 57f4 a9bc
00000200: f033 22be 11f0 56be 4561 0abe 381e 41be
00000210: 3ad2 4c3e aea0 823d d00f dfbd 5448 79bb
00000220: 20bc 9bbd 5843 c7bd ffe0 8dbe 349d a93e
00000230: 3647 0bbd ff42 e73d 6cae 03be 681d 86be
00000240: 65b8 5ebe 03c6 cd3d df6e fbbe bb3b 0e3d
00000250: cb63 b0bd 4743 56bd 5b00 27bd c167 883d
00000260: 6f1e 85be 4c72 8abe 561b 01be ea76 a53b
00000270: 4108 b8bb 039f b8be 8fb5 c7be b5ad d83d
00000280: e995 32be eb16 98bd 91a2 98bd f97e a3bd
00000290: 2896 7fbe aaae 533d 211f 2cbf fe6a fdbd
000002a0: c532 6cbe faed b3be a693 52be 6f38 15bf
000002b0: d1e7 82bd f701 60be 009a 30be 135e 38bd
000002c0: d203 d33d e894 493c ccbc 773d 9cc9 9bbe
000002d0: 9b2b 3cbe 85fe 17bd 4d87 2b3e 5cee 66be
000002e0: 9037 c63b c15a 103f 4204 7ebe 9939 4bbe
000002f0: 61c2 f7bd a949 25bd a1f1 843c 6569 14bf
00000300: e194 413e 1070 963c 7fd1 7ebe 7851 70be
00000310: be63 8a3c 8214 6fbe f89c f33d 42c6 923e
00000320: d907 f83d 3f7f c0be 5b47 d6bd b32f a3be
00000330: 6973 c8bd 4012 9a3e bd77 a6be eced 453e
00000340: b101 6ebe 8dd0 f6bd 0a95 76bd fa82 d63d
00000350: e702 083d 6233 503d a532 c53c d8b8 78be
00000360: 4bce 86be 3d86 e33e 2ba5 51be 02f2 afbe
00000370: 462c 1dbe ba5a 07bf b52e 54be 15e4 9cbd
00000380: d49e 8cbe 3cb0 8fbe 642e 74be 557e 20be
00000390: 1791 283c 0b67 a9bd 5ed1 e6be d43b 07be
000003a0: eb40 fdbd 56e9 59be 0bf9 5e3d 2bd2 b5be
000003b0: b50d ce3d 2c5c edbd 84e1 cfbd 72ce c7be
000003c0: b7ec 80bf 98d5 833d 173d 913c a139 0fbf
000003d0: 1add d33e 7b61 bd3d 684f 863c 07e4 dd3d
000003e0: 46d6 11bf 4a75 4abe 77b0 97be 108e e43d
000003f0: 0119 09be 2787 0cbe a4d4 70bd 8bc3 0dbd

critic.2.bias f4 [64]
-0.015978498 0.18793719 0.00019603022 -0.3712372 0.12485584 0.08736958 0.019981965 -0.0016762904
0.06554554 -0.00903941 -0.114144295 -0.3757987 -0.030637678 0.029749567 -0.39863458 0.12595572
-0.0013738222 0.040697444 0.11243068 0.051301528 0.0075308303 -0.13407505 -0.021676375 -0.021501416
0.074203804 0.041462585 0.15262845 -0.009999841 -0.04959949 -0.19465534 0.07813074 0.035163403
0.12796596 -0.20530476 -0.23663667 -0.050247755 -0.0701463 -0.279577 -0.035731006 -0.083877005
-0.1646504 0.0018654078 0.10662489 0.10933334 -0.09362294 -0.11172227 0.13131 -0.41943797
0.14505662 -0.03199621 0.07146453 -0.15645853 -0.023757325 0.071502395 0.025347212 -0.11792256
0.12598994 -0.014726706 -0.029812116 -0.13892266 0.06049519 -0.07592545 0.08591651 0.065804735
00000000: 57e5 82bc 9b72 403e 768d 4d39 cd12 bebe
00000010: 6bb4 ff3d d3ee b23d 38b1 a33c f9b6 dbba
00000020: bd3c 863d 091a 14bc 7cc4 e9bd b068 c0be
00000030: defb fabc 5db5 f33c d519 ccbe 89fa 003e
00000040: d311 b4ba 5db2 263d 0e42 e63d 8d21 523d
00000050: 2fc5 f63b f84a 09be a792 b1bc bd23 b0bc
00000060: 2af8 973d acd4 293d a24a 1c3e 60d6 23bc
00000070: d628 4bbd bb53 47be 0203 a03d 8007 103d
00000080: 8209 033e 693b 52be e250 72be 97d0 4dbd
00000090: dda8 8fbd b724 8fbe ad5a 12bd b5c7 abbd
000000a0: 1d9a 28be b380 f43a 265e da3d 28ea df3d
000000b0: 62bd bfbd a5ce e4bd 2176 063e 93c0 d6be
000000c0: b989 143e 750e 03bd ff5b 923d aa36 20be
000000d0: b99e c2bc d96f 923d f5a4 cf3c 6281 f1bd
000000e0: 8203 013e 4848 71bc 8a38 f4bc be41 0ebe
000000f0: cec9 773d cd7e 9bbd fff4 af3d a2c4 863d

critic.4.weight f4 [1, 64]
-0.32126123 0.5586613 -0.54808325 0.27819845 -0.53162515 -0.3378584 -0.47265995 -0.49893972
0.37752682 0.00846401 0.08177388 0.073622525 -0.094901346 0.21993375 0.51986754 0.58241117
-0.3696459 -0.28927296 0.14622846 -0.13375041 0.077051945 0.5650347 0.4552352 -0.3254161
0.39576998 0.6977073 0.50682044 -0.09164767 0.4363542 -0.15086973 0.39412394 -0.231744
0.18089506 0.42797485 0.43114045 -0.11784333 0.1198015 0.5802991 0.42009923 -0.40596002
-0.5497137 -0.18106306 -0.122410595 -0.66631514 0.17323609 -0.4960744 -0.3783771 0.50203025
0.3159279 0.38039377 -0.13272016 0.508335 -0.2968858 -0.12242486 -0.32253885 -0.08962389
-0.4612402 0.31738773 0.44345018 0.54084796 0.16564415 0.4243154 0.12962694 0.09549466
00000000: 5a7c a4be 6d04 0f3f 2f4f 0cbf 0770 8e3e
00000010: 9618 08bf c7fb acbe 7c00 f2be 0775 ffbe
00000020: 324b c13e a2ac 0a3c 1079 a73d 68c7 963d
00000030: a35b c2bd 5036 613e 0a16 053f e618 153f
00000040: 3a42 bdbe 961b 94be eabc 153e def5 08be
00000050: 69cd 9d3d 1da6 103f 9714 e93e f09c a6be
00000060: 5da2 ca3e f29c 323f fcbe 013f c6b1 bbbd
00000070: d169 df3e 987d 1abe 9dca c93e 4d4e 6dbe
00000080: 8e3c 393e 851f db3e 71be dc3e d857 f1bd
00000090: 7d5a f53d 7b8e 143f 3f17 d73e fed9 cfbe
000000a0: 09ba 0cbf 9868 39be 68b2 fabd a193 2abf
000000b0: cd64 313e 77fd fdbe a5ba c1be 0e85 003f
000000c0: 4dc1 a13e f9c2 c23e cbe7 07be 3e22 023f
000000d0: 6a01 98be e3b9 fabd d023 a5be bb8c b7bd
000000e0: ad27 ecbe a580 a23e e70b e33e 0375 0a3f
000000f0: 9f9e 293e de3f d93e edbc 043e b492 c33d
