PPO_preTrained/250/PPO_250_0_50.pth (torch, 239887 bytes, 15 tensors)

actor.0.weight f4 [128, 30]
0.0656314 0.2525838 0.023384858 0.2968401 0.02370375 -0.4011193 -0.08257266 0.03114373
-0.05836682 -0.07764529 -0.22674724 0.13138539 -0.10049917 -0.018310979 0.11023806 0.17853647
0.24617529 0.045270197 0.08263195 0.029228095 0.031925175 -0.026595647 -0.040159855 -0.031092018
-0.20631357 -0.1438189 -0.14913656 0.015642252 0.20157276 -0.14530534 0.0122751165 0.12456981
0.32159513 0.27841163 0.49843872 -0.13204116 -0.029615818 0.02353923 0.15777051 0.1181495
0.22186445 -0.12915738 -0.045326542 0.059609737 0.1102207 0.15262522 -0.14752829 0.032645673
-0.03959573 0.07249907 -0.08780851 0.06465299 -0.1424739 0.053236853 -0.26721355 0.07918063
-0.10730679 0.07852254 0.33694178 0.17911373 -0.12488368 -0.0645051 0.27106437 -0.1812169
0.06920956 -0.109711796 0.22464462 -0.005848646 -0.13852525 0.023154587 0.12680012 0.010200734
-0.08894437 0.17690265 0.111628994 -0.15483949 -0.04758482 -0.06067844 0.13166702 0.19303897
-0.19640613 -0.17729153 -0.016534058 -0.02016352 0.0024902984 0.14573227 0.19081816 -0.044690046
0.25767833 -0.2353948 -0.11278665 -0.18704173 0.016373841 0.08736815 -0.12374592 0.363759
0.09126669 0.07880669 0.007954212 0.039645907 0.047874033 0.03775712 0.05139833 0.12216569
0.14924641 -0.22394602 0.11419757 0.10448882 -0.1609528 -0.16681345 -0.012381615 0.10512797
0.09387347 -0.010769517 0.07831709 0.14393638 0.156491 0.15632832 -0.03780032 -0.046490982
0.062203012 0.0046986807 0.12373187 0.0092828795 -0.079863645 -0.12662536 0.08100136 0.027928758
0.052610606 -0.09724553 -0.033327524 -0.009026652 -0.011840866 -0.033146296 0.07898014 -0.111800395
-0.083883755 0.21619396 -0.168501 0.18708976 0.17655358 0.073169835 0.009308341 0.033518635
-0.071210094 0.21213618 -0.26265407 -0.055532347 -0.080560766 -0.118753426 0.17742635 -0.063962005
0.101129115 -0.12062544 0.13202135 -0.30660442 -0.14087604 -0.08130616 0.16858068 0.16421004
0.0028338542 0.06481154 -0.31866103 0.05107067 0.15652233 -0.016379623 0.13202776 0.28681952
-0.05505376 -0.22706349 -0.19231632 -0.057996057 0.123024546 0.037136097 -0.22133507 0.07783786
-0.12575571 0.14742853 0.17347665 0.034547225 0.22193491 -0.043620527 0.051849768 -0.10635902
0.037821367 0.54398906 -0.05273393 0.05549527 -0.029362053 -0.013009296 -0.12767872 -0.0515
-0.14092815 0.021213237 0.047909975 0.08757792 -0.0012998396 0.060247798 0.1762947 0.30575895
0.0056908326 0.03611422 -0.003684513 0.05044624 -0.036716245 0.01025806 0.04404701 -0.15495159
-8.379007e-05 -0.072441876 -0.16153473 -0.26420975 -0.063338764 -0.22212133 -0.18559115 0.52961767
0.10878231 -0.1036987 0.15949687 0.07936183 0.053846564 0.10261692 -0.044745978 0.021110913
0.13295722 -0.08320852 0.1747661 -0.13878228 -0.10149837 -0.120144896 -0.19055957 0.11511727
0.091098 0.15187591 0.019666 0.040608983 -0.14013544 0.16401811 -0.11693145 0.19730377
-0.10645108 0.13386253 0.0830265 -0.031873528 -0.038244054 -0.40300015 0.11710214 0.12650873
-0.010324827 -0.049799796 0.073382065 0.05164777 -0.080784366 -0.00083083747 0.13147049 -0.17184097
00000000: c169 863d aa52 813e 9a91 bf3c 6dfb 973e
00000010: 5e2e c23c 825f cdbe db1b a9bd 2321 ff3c
00000020: 0c12 6fbd 7e04 9fbd 6e30 68be e489 063e
00000030: 82d2 cdbd e800 96bc 7ec4 e13d 44d2 363e
00000040: 6015 7c3e 3e6d 393d f13a a93d c26f ef3c
00000050: f9c3 023d 1ddf d9bc a97e 24bd b0b4 febc
00000060: dd43 53be 4345 13be 41b7 18be 2e24 803c
00000070: 1769 4e3e ecca 14be 921d 493c 751e ff3d
00000080: 1ea8 a43e f88b 8e3e 5c33 ff3e cc35 07be
00000090: df9c f2bc 58d5 c03c 988e 213e 5df8 f13d
000000a0: 6f30 633e d541 04be 53a8 39bd 5729 743d
000000b0: 64bb e13d c949 1c3e a811 17be 78b7 053d
000000c0: 222f 22bd 647a 943d f3d4 b3bd c968 843d
000000d0: aee4 11be e30e 5a3d 37d0 88be 7429 a23d
000000e0: aac3 dbbd 6dd0 a03d a283 ac3e 9769 373e
000000f0: 04c3 ffbd 401b 84bd f3c8 8a3e ec90 39be
00000100: bebd 8d3d 94b0 e0bd 3d09 663e 00a6 bfbb
00000110: 90d9 0dbe b0ae bd3c e4d7 013e fb20 273c
00000120: 7728 b6bd f825 353e be9d e43d 3e8e 1ebe
00000130: 4de8 42bd f589 78bd b8d3 063e 02ac 453e
00000140: b01e 49be e98b 35be 6f72 87bc f72d a5bc
00000150: 4634 233b d73a 153e d665 433e e90c 37bd
00000160: 6aee 833e 560b 71be b0fc e6bd de87 3fbe
00000170: 6f22 863c 13ee b23d 806e fdbd 9f3e ba3e
00000180: 08ea ba3d 6765 a13d 6252 023c bf63 223d
00000190: 9017 443d 36a7 1a3d 0e87 523d 0132 fa3d
000001a0: 0dd4 183e 1b52 65be 6ae0 e93d 3cfe d53d
000001b0: d0d0 24be 25d1 2abe 42dc 4abc 554d d73d
000001c0: bc40 c03d a172 30bc b664 a03d 0f64 133e
000001d0: 2d3f 203e 8814 203e 82d4 1abd 546d 3ebd
000001e0: 96c8 7e3d 64f7 993b 2267 fd3d 3817 183c
000001f0: 8d8f a3bd 14aa 01be 0be4 a53d daca e43c
00000200: 387e 573d aa28 c7bd 7182 08bd 86e4 13bc
00000210: 3100 42bc 69c4 07bd 57c0 a13d 9bf7 e4bd
00000220: 3fcb abbd f361 5d3e 878b 2cbe 7594 3f3e
00000230: 76ca 343e 11da 953d 0382 183c d64a 093d
00000240: 99d6 91bd 3a3a 593e 987a 86be e375 63bd
00000250: 0bfd a4bd ff34 f3bd 41af 353e 83fe 82bd
00000260: c81c cf3d 780a f7bd 9b30 073e 41fb 9cbe
00000270: cf41 10be d883 a6bd 6aa0 2c3e ad26 283e
00000280: 2fb8 393b eabb 843d 8a27 a3be 7b2f 513d
00000290: 6447 203e 8f2e 86bc 4932 073e 02da 923e
000002a0: 0d80 61bd 5583 68be 92ee 44be 468d 6dbd
000002b0: 4bf4 fb3d 051c 183d a9a5 62be 7569 9f3d
000002c0: 1bc6 00be 81f7 163e dda3 313e 6481 0d3d
000002d0: e842 633e 70ab 32bd 6c60 543d c2d2 d9bd
000002e0: 94ea 1a3d de42 0b3f 89ff 57bd 024f 633d
000002f0: b088 f0bc f124 55bc 36be 02be aaf1 52bd
00000300: 784f 10be 62c7 ad3c 403d 443d 0d5c b33d
00000310: 615f aaba 65c6 763d 9986 343e 708c 9c3e
00000320: 2a7a ba3b 81ec 133d df77 71bb b7a0 4e3d
00000330: c663 16bd 6c11 283c a36a 343d a1ab 1ebe
00000340: 74b8 afb8 685c 94bd 5c69 25be 8046 87be
00000350: c1b7 81bd c673 63be 9b0b 3ebe 0695 073f
00000360: 42c9 de3d fc5f d4bd 2653 233e 7588 a23d
00000370: 378e 5c3d d228 d23d 8f47 37bd cbf0 ac3c
00000380: f025 083e 3b69 aabd e2f5 323e f11c 0ebe
00000390: 61de cfbd 870e f6bd 0c22 43be 9ac2 eb3d
000003a0: 9791 ba3d 5c85 1b3e 971a a13c 9b55 263d
000003b0: aa7f 0fbe 5df4 273e c279 efbd 000a 4a3e
000003c0: 0603 dabd 4213 093e cc09 aa3d d18d 02bd
000003d0: cca5 1cbd 0956 cebe 3fd3 ef3d 818b 013e
000003e0: 7729 29bc dffa 4bbd 5649 963d 9d8c 533d
000003f0: 4672 a5bd 8fcc 59ba 33a0 063e 14f7 2fbe

actor.0.bias f4 [128]
0.01947869 0.06264269 -0.13861084 -0.08201653 -0.13472421 -0.12901007 -0.038007896 0.17663226
0.037133347 0.18685281 -0.08683069 0.010026404 0.09777342 0.023917967 0.06392595 0.044718694
0.011778908 -0.09440123 -0.13989629 -0.037438408 -0.15569618 0.21164022 0.066455975 0.09550413
-0.010559396 -0.25302967 0.22144648 -0.10025786 0.023479985 0.083599165 0.11506865 -0.042019326
-0.012050451 0.06339937 0.027304845 0.0804728 -0.0005679968 0.18505687 -0.16322011 -0.017101768
0.14495026 -0.12937248 0.007235608 -0.10364799 -0.053472374 0.024666931 0.044662014 0.10584202
-0.10130658 -0.20803854 0.060270008 -0.008224112 -0.07244814 -0.054731604 -0.1560353 -0.12746815
0.158469 -0.05046355 -0.027684923 0.16811526 -0.124768965 0.18545924 0.12830652 0.074031465
-0.053444948 0.206113 -0.13149318 -0.00072157505 -0.061229758 -0.017250707 -0.07414659 -0.03803853
-0.077006616 -0.14406922 0.14464824 0.22024004 0.079876564 0.12452939 -0.15350531 0.045452375
0.090510964 0.036355857 0.12270479 0.037560586 -0.057172 0.0757918 -0.09386849 -0.13138321
0.09907885 -0.04650028 -0.15675098 0.14660653 0.011344003 -0.08719227 0.13234363 0.15990397
0.045794103 0.035428327 -0.13186279 0.14532344 0.06584609 -0.1168617 0.08194839 0.09836366
0.11536343 0.14993778 0.06991321 -0.019636681 -0.10733567 -0.18492809 0.14069062 0.027745115
0.11028567 0.16671224 0.16185741 -0.055442438 -0.10630179 -0.15101412 -0.13604964 0.020252272
-0.08201582 0.08339711 0.040593937 0.17313647 0.10938166 0.124445565 -0.049585085 0.023175573
00000000: c691 9f3c d04a 803d 00f0 0dbe 48f8 a7bd
00000010: 25f5 09be 371b 04be 2bae 1bbd 16df 343e
00000020: 2319 183d 5856 3f3e 4ad4 b1bd c945 243c
00000030: 6e3d c83d 9def c33c 9ceb 823d f32a 373d
00000040: 52fc 403c 6f55 c1bd f940 0fbe 0459 19bd
00000050: d26e 1fbe 37b8 583e 121a 883d ab97 c33d
00000060: 5101 2dbc 1b8d 81be dec2 623e fe53 cdbd
00000070: 1959 c03c 0a36 ab3d 1da9 eb3d 751c 2cbd
00000080: 416f 45bc 87d7 813d 69ae df3c ecce a43d
00000090: 9fe5 14ba 8c7f 3d3e 2c23 27be 0219 8cbc
000000a0: d76d 143e 387a 04be ae18 ed3b 6645 d4bd
000000b0: d905 5bbd 4e12 ca3c 84ef 363d b3c3 d83d
000000c0: d379 cfbd 0e08 55be afdd 763d 6dbe 06bc
000000d0: b15f 94bd 3f2e 60bd b8c7 1fbe 0387 02be
000000e0: b345 223e deb2 4ebd 7ecb e2bc 6826 2c3e
000000f0: df86 ffbd 07e9 3d3e c962 033e cf9d 973d
00000100: 17e9 5abd 490f 533e 26a6 06be 1528 3dba
00000110: 0ecc 7abd 5b51 8dbc 2bda 97bd 4ace 1bbd
00000120: a5b5 9dbd e286 13be ab1e 143e 9b86 613e
00000130: 5396 a33d 4409 ff3d 7f30 1dbe 452c 3a3d
00000140: d05d b93d e1e9 143d a64c fb3d 21d9 193d
00000150: 302d 6abd bb38 9b3d 1f3e c0bd 5289 06be
00000160: dae9 ca3d 1477 3ebd 5483 20be 0620 163e
00000170: 32dc 393c dc91 b2bd 1785 073e debd 233e
00000180: 9992 3b3d 4b1d 113d 0a07 07be abcf 143e
00000190: 51da 863d 3055 efbd 8fd4 a73d e372 c93d
000001a0: a943 ec3d 4a89 193e a82e 8f3d 1bdd a0bc
000001b0: ced2 dbbd ca5d 3dbe 3411 103e b949 e33c
000001c0: 74dd e13d 9db6 2a3e f3bd 253e 9c17 63bd
000001d0: c1b4 d9bd 72a3 1abe 9950 0bbe 18e8 a53c
000001e0: e9f7 a7bd 1bcc aa3d d445 263d b04a 313e
000001f0: 7e03 e03d 51dd fe3d bb19 4bbd b3da bd3c

actor.2.weight f4 [128, 128]
-0.043826476 0.14093025 0.028303754 0.060497075 0.120792575 0.1366951 0.14366458 -0.00872486
-0.09196695 -0.085319184 -0.09298925 -0.04898523 0.015212916 -0.0054758457 -0.04298341 -0.01098524
-0.0017730263 -0.092430145 -0.18754227 -0.14692527 -0.05317382 -0.12787345 0.13349803 0.115681954
0.06703287 0.07469742 -0.0030422935 0.10427109 -0.09124496 -0.11510914 -0.009419608 0.0932235
-0.008828839 0.035965048 0.019635556 -0.020987293 -0.13585384 -0.061269294 0.009689482 0.05364476
0.13023072 0.024030754 0.060702424 0.1446906 0.1517772 -0.006477633 -0.029878955 0.06039242
-0.072524376 0.09948665 0.08935036 0.032064293 -0.011169704 0.07214678 0.15087345 0.0007174395
-0.03683884 -0.16366945 0.104420446 -0.15453598 -0.017288085 -0.012405349 0.120013714 -0.18551812
0.055960905 0.12587938 -0.04802577 0.13633439 0.2607179 -0.16041718 -0.007239321 0.034676112
0.05584009 0.043010067 -0.091103576 0.093209215 -0.12190368 0.09378782 -0.1460157 -0.07160512
0.13319738 -0.051659327 -0.03023957 0.124241956 -0.041237127 -0.016301792 -0.0027963808 0.036565304
-0.1485362 0.041003365 -0.047597982 0.009070642 0.085363984 0.044031337 -0.16039886 -0.12674616
-0.035863806 -0.060404275 -0.11051778 0.05683899 0.12887982 -0.08657718 -0.05630458 -0.035501767
0.043325655 0.06061723 0.088474974 0.02061096 -0.02206242 0.050410844 0.22053999 -0.08539863
0.06254343 0.09739056 -0.012904533 -0.07307681 -0.07847679 0.05301802 -0.15389813 -0.12540434
0.13046612 0.05070593 0.089133315 0.09183315 0.065507345 -0.01637862 0.0013424067 0.18142152
-0.048549183 -0.13442028 0.08026237 0.08761236 -0.03379653 -0.007993901 -0.023231171 -0.0040443665
-0.07445373 0.054267496 -0.09488117 -0.046897583 0.043856222 -0.07291267 0.07441612 -0.10098912
-0.09928758 -0.19038871 -0.031927243 -0.14135896 0.10008967 0.002747057 0.043034118 -0.07725531
0.09523813 -0.021412691 0.06855677 0.012614156 0.01740586 -0.253511 0.008690828 -0.05112271
-0.033111807 -0.18989694 0.013000616 -0.07248514 -0.12699793 -0.081147976 0.021725867 0.015269236
-0.0652347 -0.18805307 0.069170706 -0.020939503 -0.02272379 -0.02754631 0.0787482 0.070228025
0.006114259 0.038607832 -0.009944096 -0.0072028707 -0.009446451 -0.03104813 0.005393255 0.098710686
0.016503854 0.0059167976 0.020521695 0.06275152 -0.007067698 -0.08128805 -0.019245336 0.09481204
0.064944595 -0.081401 -0.08074558 -0.04794848 0.17176877 0.15310962 -0.036196157 0.055927794
0.042121146 -0.09926926 0.14667892 0.12166795 0.072151236 0.06962755 -0.09497617 -0.10627247
-0.105680555 -0.018260164 0.078753866 0.08782748 -0.107826166 0.05085436 -0.08315592 -0.029110547
-0.08002347 -0.029275836 0.00017961825 0.0069410955 0.00408654 0.029886894 -0.12686083 0.043178063
-0.03898968 -0.023181671 -0.017465929 0.09289373 0.114579104 0.1287495 0.06549237 0.1054096
0.044336457 -0.04194121 -0.08624098 -0.0547546 0.01015847 0.058758147 -0.064033486 -0.074905686
-0.025029834 0.07480828 -0.006831683 -0.04760072 0.07475036 -0.051894803 -0.023845503 0.09946746
0.008930756 -0.0011240806 0.043296717 0.027249353 0.0645712 0.005760244 -0.018585596 -0.090383776
00000000: 6483 33bd 0550 103e 46dd e73c c8cb 773d
00000010: 1962 f73d cdf9 0b3e cf1c 133e b7f2 0ebc
00000020: 2b59 bcbd d3bb aebd 2671 bebd bda4 48bd
00000030: 983f 793c b96e b3bb 5f0f 30bd 70fb 33bc
00000040: e464 e8ba 044c bdbd 150b 40be 9473 16be
00000050: cbcc 59bd 42f1 02be b5b3 083e a9ea ec3d
00000060: 8848 893d f6fa 983d 3761 47bb 158c d53d
00000070: a3de babd 57be ebbd b354 1abc f6eb be3d
00000080: d6a6 10bc 1650 133d bfda a03c 8bed abbc
00000090: 451d 0bbe 83f5 7abd a2c0 1e3c 9cba 5b3d
000000a0: 345b 053e 25dc c43c 1ba3 783d c629 143e
000000b0: 7b6b 1b3e 5342 d4bb b6c4 f4bc 0b5e 773d
000000c0: a987 94bd a8bf cb3d 52fd b63d d955 033d
000000d0: 2201 37bc b1c1 933d 927e 1a3e 8d12 3c3a
000000e0: 53e4 16bd f798 27be 63da d53d ae3e 1ebe
000000f0: be9f 8dbc ce3f 4bbc c0c9 f53d 76f8 3dbe
00000100: 4337 653d 86e6 003e abb6 44bd 3e9b 0b3e
00000110: d17c 853e 6744 24be d337 edbb 8a08 0e3d
00000120: 94b8 643d 532b 303d 8394 babd 79e4 be3d
00000130: a3a8 f9bd d413 c03d 2485 15be b5a5 92bd
00000140: e564 083e bb98 53bd fab8 f7bc 9172 fe3d
00000150: 43e8 28bd 568b 85bc 7c43 37bb 80c5 153d
00000160: e019 18be 25f3 273d 1af6 42bd 089d 143c
00000170: 50d3 ae3d 345a 343d 993f 24be bfc9 01be
00000180: ede5 12bd 796a 77bd 2557 e2bd 00d0 683d
00000190: 12f9 033e 604f b1bd a29f 66bd 4d6a 11bd
000001a0: 3e76 313d c649 783d 5e32 b53d 51d8 a83c
000001b0: 40bc b4bc 9a7b 4e3d 3cd5 613e 7ae5 aebd
000001c0: c516 803d b474 c73d 896d 53bc 4ba9 95bd
000001d0: 70b8 a0bd 6c29 593d 7997 1dbe ff69 00be
000001e0: e998 053e 05b1 4f3d 878b b63d 0513 bc3d
000001f0: b728 863d 752c 86bc b2f3 af3a 90c6 393e
00000200: 82db 46bd 78a5 09be 9960 a43d 1c6e b33d
00000210: 3b6e 0abd daf8 02bc 4c4f bebc 9b86 84bb
00000220: 327b 98bd 9847 5e3d 0f51 c2bd ae17 40bd
00000230: 95a2 333d 3d53 95bd 7b67 983d 62d3 cebd
00000240: 4957 cbbd 42f5 42be 24c6 02bd 67c0 10be
00000250: d0fb cc3d f807 343b 8b44 303d 0838 9ebd
00000260: 350c c33d ab69 afbc 7e67 8c3d 9bab 4e3c
00000270: bc96 8e3c 32cc 81be fa63 0e3c 0c66 51bd
00000280: 3fa0 07bd 5874 42be 8900 553c 1773 94bd
00000290: bf0b 02be e930 a6bd 72fa b13c d12b 7a3c
000002a0: c599 85bd fc90 40be 5fa9 8d3d 5289 abbc
000002b0: 3e27 babc cda8 e1bc bc46 a13d b6d3 8f3d
000002c0: 1f5a c83b 3f23 1e3d 90ec 22bc 0f06 ecbb
000002d0: 4ac5 1abc a658 febc e7b9 b03b d428 ca3d
000002e0: 1733 873c b2e1 c13b 1d1d a83c de83 803d
000002f0: 2698 e7bb 597a a6bd 65a8 9dbc d12c c23d
00000300: ac01 853d 91b5 a6bd f05d a5bd a065 44bd
00000310: 27e4 2f3e c5c8 1c3e 6c42 14bd 8b14 653d
00000320: 3987 2c3d af4d cbbd 0033 163e 0c2d f93d
00000330: 07c4 933d e498 8e3d de82 c2bd 61a5 d9bd
00000340: 0c6f d8bd 5796 95bc b549 a13d e5de b33d
00000350: f7d3 dcbd a94c 503d a74d aabd 3e79 eebc
00000360: 58e3 a3bd e1d3 efbc e857 3c39 2172 e33b
00000370: 62e8 853b 5cd5 f43c cee7 01be 7bdb 303d
00000380: a5b3 1fbd 7de7 bdbc b514 8fbc 113f be3d
00000390: 73a8 ea3d e9d6 033e dd20 863d fde0 d73d
000003a0: 259a 353d 8cca 2bbd 1c9f b0bd 5c46 60bd
000003b0: b66f 263c 62ac 703d fd23 83bd 2768 99bd
000003c0: 5e0b cdbc 1535 993d 50dc dfbb f9f8 42bd
000003d0: b716 993d a58f 54bd a557 c3bc 98b5 cb3d
000003e0: 4e52 123c e355 93ba e657 313d 093a df3c
000003f0: e83d 843d 6ec0 bc3b d240 98bc 211b b9bd

actor.2.bias f4 [128]
-0.005459411 0.024446743 -0.02012666 0.09131104 -0.005034348 -0.10693717 0.015977811 -0.050416384
0.036456842 0.036911577 -0.026231233 0.061522916 -0.07337271 0.069376245 0.07979599 -0.057510044
-0.029546183 0.015871964 0.08628668 0.060770627 -0.06592966 0.0886162 0.09094711 0.013288946
0.063648425 -0.015055161 -0.041995447 0.023311099 0.04011102 -0.06306293 0.06993314 0.08242499
-0.019584147 -0.053039625 -0.005050792 0.012306023 -0.04700376 -0.008189708 -0.042855475 -0.067085944
-0.041577764 -0.005195594 0.04057014 -0.021724477 0.037593067 0.012802909 -0.0050032935 0.06422579
0.05191035 0.019126361 0.008677685 0.061657824 -0.071357735 -0.097152255 -0.085589446 -0.02906205
0.024369957 0.034234595 0.032524068 -0.012957187 -0.052769363 -0.09188419 0.048659436 0.0800237
0.08527448 -0.017177776 0.0055476674 -0.00424129 0.017799158 0.020873545 -0.054035228 -0.011355588
0.076511726 -0.016304351 0.0034350466 -0.041076053 0.095640324 -0.0069452026 0.121912 -0.0069784345
-0.031675715 0.08653429 -0.017929178 -0.06632503 0.069505975 0.07250945 -0.050893463 0.04630119
-0.044310253 -0.072414145 -0.05433287 -0.0053532925 -0.022350933 -0.034646913 -0.09394127 -0.0038477653
0.0696033 0.07545743 0.014264233 0.062097684 0.05350802 -0.08489068 0.01374228 -0.050971106
-0.001243785 -0.11019573 -0.0714355 0.06050932 -0.01215711 -0.06541265 0.039728746 -0.055432394
0.016196888 -0.025944954 0.04690136 -0.05351347 -0.0038903963 0.053899657 -0.055558678 -0.050883625
-0.00023442223 -0.047696546 0.016348671 0.0287561 0.059308425 0.0030222335 -0.060234085 0.018387243
00000000: dce4 b2bb 8944 c83c aae0 a4bc 4801 bb3d
00000010: 2cf7 a4bb e001 dbbd e6e3 823c 6981 4ebd
00000020: c553 153d 9830 173d e2e2 d6bc 74ff 7b3d
00000030: 6e44 96bd 2215 8e3d 146c a33d a78f 6bbd
00000040: d60a f2bc ec05 823c 12b7 b03d 9fea 783d
00000050: 2106 87bd 697c b53d 7a42 ba3d e1b9 593c
00000060: 1b5a 823d eca9 76bc 6b03 2cbd ebf6 be3c
00000070: 744b 243d 2327 81bd 1b39 8f3d 6fce a83d
00000080: ef6e a0bc 1440 59bd 1d81 a5bb 349f 493c
00000090: 0487 40bd 202e 06bc 3989 2fbd 5b64 89bd
000000a0: 724d 2abd cd3f aabb e02c 263d 88f7 b1bc
000000b0: 30fb 193d 4bc3 513c abf2 a3bb d088 833d
000000c0: f29f 543d e3ae 9c3c d92c 0e3c ea8c 7c3d
000000d0: 0124 92bd c3f7 c6bd 8549 afbd 8913 eebc
000000e0: 81a3 c73c 9339 0c3d f537 053d 624a 54bc
000000f0: b024 58bd c72d bcbd 1e4f 473d 77e3 a33d
00000100: 63a4 ae3d 68b8 8cbc 35c9 b53b 85fa 8abb
00000110: 8acf 913c fffe aa3c 0b54 5dbd ca0c 3abc
00000120: 2eb2 9c3d b490 85bc 851e 613b 5d3f 28bd
00000130: 13df c33d 9594 e3bb 00ad f93d 5aab e4bb
00000140: 65be 01bd e438 b13d 36e0 92bc 6bd5 87bd
00000150: 2659 8e3d d67f 943d aa75 50bd 51a6 3d3d
00000160: ab7e 35bd de4d 94bd 258c 5ebd ac6a afbb
00000170: 4e19 b7bc ece9 0dbd 4864 c0bd ca2a 7cbb
00000180: 2d8c 8e3d 6d89 9a3d 88b4 693c 245a 7e3d
00000190: 3a2b 5b3d 2adb adbd 4d27 613c 14c7 50bd
000001a0: 8006 a3ba 4dae e1bd c74c 92bd 9fd8 773d
000001b0: 9d2e 47bc 11f7 85bd 9cba 223d 140d 63bd
000001c0: 56af 843c 838a d4bc a41b 403d f130 5bbd
000001d0: 05f6 7ebb e3c5 5c3d 7f91 63bd 596b 50bd
000001e0: 3dcf 75b9 745d 43bd a6ed 853c ea91 eb3c
000001f0: 64ed 723d aa10 463b 04b8 76bd d8a0 963c

actor.4.weight f4 [64, 128]
0.14682887 0.063570715 0.123662874 0.08444593 0.060990933 -0.07544152 0.024186125 -0.018598389
0.13264196 -0.09351115 -0.051154684 0.09184444 -0.14106533 0.035279766 -0.021657359 -0.03475757
0.122961745 -0.06279981 -0.041897025 0.06206278 -0.014566103 0.14858316 0.03950868 0.048385613
0.0001016975 0.12108607 0.009255811 -0.10085353 0.034317162 -0.05623321 0.05637578 0.011041748
-0.07236129 0.14348581 -0.0070427503 -0.12483195 -0.03146886 0.061698902 -0.27090696 0.15972315
0.09512479 0.042733792 0.16206758 -0.035303056 0.131697 -0.019154562 0.006856856 -0.016773213
0.063894026 0.05845366 0.10357565 0.15041839 -0.0042090295 0.01136397 -0.023502987 0.10526088
0.0014451068 0.05829065 -0.038020507 0.11813908 -0.23207057 -0.10758346 -0.026122762 -0.094642274
-0.0072034053 0.07854767 0.044451345 -0.07744248 0.11160994 -0.1290836 -0.18460274 -0.040038764
-0.015112246 -0.00873781 -0.09635317 0.06847845 -0.054972462 0.13486113 -0.03616822 0.055749375
0.016311895 0.10849695 -0.011135291 0.0043991297 0.027702034 -0.078025185 -0.003853452 -0.025610734
-0.17956662 -0.010110332 0.02992426 0.0236404 0.08812111 0.11279256 0.0001132534 0.1526779
0.070631966 -0.05202323 0.0112965945 0.0043468415 -0.016003411 -0.017186895 0.16592667 0.15345483
-0.08420413 0.058196906 -0.17955692 0.10766373 -0.0027889884 -0.03030656 -0.08951942 -0.06329545
0.08029959 0.05380032 0.06428948 -0.03465082 -0.035785686 -0.2795118 0.19935617 -0.083282605
-0.030513657 -0.045958105 -0.0040405355 -0.0039289272 0.05020356 -0.14386311 0.037888985 0.08310678
-0.063814685 0.02495008 0.016839683 -0.061085194 0.11802031 -0.054991417 -0.009135074 -0.07716949
-0.04982134 0.005599228 -0.07007632 0.012907963 -0.032072864 0.036180653 0.052192587 0.18335415
-0.026908914 -0.098197944 0.026050972 0.2478938 -0.034124125 0.13224861 0.05512784 -0.10466853
0.006876286 0.16417667 0.013031494 -0.021417594 0.0030808693 -0.1991925 -0.008304894 -0.001600937
0.14142726 0.0635955 -0.08557086 0.039541617 -0.027468551 -0.07183447 -0.061648622 0.058603425
-0.05007797 0.061270785 0.13064857 0.028874714 0.14909199 -0.009453041 0.10112697 0.006829499
0.1187903 0.031269226 0.12119533 0.040181465 0.05384451 0.08298855 -0.03809362 0.12636396
0.09717939 0.1706381 0.06333642 -0.060242683 0.06428478 0.03910094 0.048744924 -0.14023846
-0.07388879 0.021332 -0.020218177 0.038451724 0.030007683 -0.07196891 -0.033784483 0.10365014
0.08169628 0.05755966 0.10095662 0.10248451 0.034936424 0.12301937 0.09000408 -0.1329217
-0.09220227 0.1851324 -0.03345884 -0.091249995 0.059940144 -0.041508075 -0.010393722 0.05902829
-0.16723083 0.00916097 -0.066158324 0.1684779 0.043844096 -0.022587892 0.122447446 -0.09035694
-0.009819592 0.09703315 0.14913426 0.0042207977 0.048308466 0.07986916 -0.028364234 0.026308501
0.14929225 0.018657178 0.03000937 0.08052802 0.044390675 0.018518588 0.08007924 -0.11018798
0.10324882 0.014184211 0.18381482 -0.23699759 0.014618039 0.0016599873 -0.113288626 -0.076895826
-0.08880616 -0.104810126 0.098164864 -0.18693815 -0.06863735 0.008086972 -0.06312214 -0.12836628
00000000: 4f5a 163e 5d31 823d f642 fd3d fdf1 ac3d
00000010: a1d1 793d 1581 9abd fb21 c63c a65b 98bc
00000020: 4bd3 073e c682 bfbd 9387 51bd f018 bc3d
00000030: 6e73 10be 8481 103d c66a b1bc f45d 0ebd
00000040: 5ed3 fb3d 309d 80bd 379c 2bbd 8b35 7e3d
00000050: aaa6 6ebc 2f26 183e dbd3 213d fe2f 463d
00000060: 6e46 d538 f9fb f73d afa5 173c 4c8c cebd
00000070: 2790 0c3d cb54 66bd 4aea 663d 73e8 343c
00000080: 2832 94bd f2ed 123e dfc6 e6bb e5a7 ffbd
00000090: 7ee5 00bd fdb7 7c3d 51b4 8abe 778e 233e
000000a0: c9d0 c23d a109 2f3d 0bf5 253e f099 10bd
000000b0: 94db 063e 07ea 9cbc 7aaf e03b fa67 89bc
000000c0: dfda 823d 1b6d 6f3d 781f d43d 4707 1a3e
000000d0: e6eb 89bb f22f 3a3c 5689 c0bc 0493 d73d
000000e0: bd69 bd3a 2dc2 6e3d 64bb 1bbd e7f2 f13d
000000f0: e8a3 6dbe b854 dcbd 67ff d5bc cfd3 c1bd
00000100: 8b0a ecbb 9add a03d 9d12 363d 2a9a 9ebd
00000110: c193 e43d 7e2e 04be 8008 3dbe b0ff 23bd
00000120: 5b99 77bc 0829 0fbc d054 c5bd 6e3e 8c3d
00000130: ce2a 61bd 0919 0a3e 2125 14bd 7559 643d
00000140: 86a0 853c a633 de3d cc70 36bc 9326 903b
00000150: 60ef e23c abcb 9fbd 328a 7cbb 9acd d1bc
00000160: 50e0 37be cea5 25bc b923 f53c 83a9 c13c
00000170: d778 b43d c9ff e63d 7582 ed38 9857 1c3e
00000180: 7ea7 903d 4f16 55bd 5a15 393c f36f 8e3b
00000190: 9619 83bc 88cb 8cbc aee8 293e 4323 1d3e
000001a0: 3773 acbd e15f 6e3d c5dd 37be cd7e dc3d
000001b0: 76c7 36bb 7745 f8bc f555 b7bd 0ba1 81bd
000001c0: 1d74 a43d b95d 5c3d 34aa 833d 05ee 0dbd
000001d0: 0394 12bd 2c1c 8fbe 0624 4c3e 1290 aabd
000001e0: c7f7 f9bc 913e 3cbd 7866 84bb 3bbe 80bb
000001f0: 40a2 4d3d da50 13be 7b31 1b3d e333 aa3d
00000200: 46b1 82bd 1c64 cc3c 60f3 893c 7834 7abd
00000210: a2b4 f13d ae3e 61bd 47ab 15bc 0a0b 9ebd
00000220: 7611 4cbd bb79 b73b 2c84 8fbd ec7b 533c
00000230: d65e 03bd 2a32 143d e5c7 553d 31c1 3b3e
00000240: 1570 dcbc 011c c9bd d968 d53c dfd7 7d3e
00000250: bdc5 0bbd 2e6c 073e bbcd 613d 745c d6bd
00000260: 7852 e13b ee1d 283e 0c82 553c f373 afbc
00000270: 69e8 493b 1ef9 4bbe 4011 08bc 88d6 d1ba
00000280: 4fd2 103e 5c3e 823d c63f afbd 64f6 213d
00000290: ba05 e1bc f31d 93bd 4483 7cbd 250a 703d
000002a0: 8f1e 4dbd 13f7 7a3d bdc8 053e aa8a ec3c
000002b0: 92ab 183e ede0 1abc a81b cf3d fdc9 df3b
000002c0: 5448 f33d 2914 003d 4235 f83d 5295 243d
000002d0: 108c 5c3d e7f5 a93d 0e08 1cbd 8e65 013e
000002e0: fd05 c73d c1bb 2e3e 86b6 813d 08c1 76bd
000002f0: bda7 833d 4f28 203d c2a8 473d ac9a 0fbe
00000300: 0253 97bd 72c0 ae3c 97a0 a5bc 8e7f 1d3d
00000310: acd2 f53c 7064 93bd 9961 0abd 8646 d43d
00000320: 6150 a73d aec3 6b3d 58c2 ce3d 66e3 d13d
00000330: 7f19 0f3d 94f1 fb3d 0f54 b83d a01c 08be
00000340: 8bd4 bcbd 5993 3d3e 230c 09bd 47e1 babd
00000350: cc83 753d 5f04 2abd 6e4a 2abc a6c7 713d
00000360: 8f3e 2bbe e517 163c 047e 87bd 7885 2c3e
00000370: de95 333d 3e0a b9bc bac5 fa3d 0f0d b9bd
00000380: 5be2 20bc 51b9 c63d a7b6 183e 9e4e 8a3b
00000390: 19df 453d 7192 a33d 1c5c e8bc ed84 d73c
000003a0: 11e0 183e f0d6 983c 36d6 f53c e0eb a43d
000003b0: ffd2 353d 4bb4 973c 9600 a43d 3caa e1bd
000003c0: 1e74 d33d e564 683c f439 3c3e 7faf 72be
000003d0: 8080 6f3c ee93 d93a de03 e8bd 8f7b 9dbd
000003e0: 01e0 b5bd b1a6 d6bd a90a c93d b76c 3fbe
000003f0: bd91 8cbd 387f 043c 2e46 81bd 7372 03be

actor.4.bias f4 [64]
0.11841728 -0.012185974 0.022169858 -0.010910195 0.110504456 0.089501545 -0.006157551 0.019483605
0.06709413 0.026325647 0.07240197 0.09568816 -0.047503777 -0.054493204 0.08413415 -0.041637946
-0.04616165 0.0006513494 0.027208779 0.10187018 0.019599885 -0.036892757 0.10032306 -0.027560579
-0.080428466 0.034757085 -0.023309864 -0.079328716 0.04709634 -0.06456323 -0.062921904 -0.059201278
-0.037337083 -0.06093761 0.0751384 0.069243886 0.028262341 0.08729764 0.06211382 0.045333043
-0.06191786 0.01593431 0.026093211 -0.021256205 0.012953112 0.0016811771 0.08227326 0.09050965
0.09061871 0.03201783 -0.0043280874 0.01643899 0.017619302 0.02838554 0.0614506 0.063757874
0.08049322 0.049966656 -0.021871194 0.048434447 -0.055767752 0.0486796 0.05143236 -0.057964172
00000000: c284 f23d aea7 47bc 909d b53c adc0 32bc
00000010: 2950 e23d 964c b73d 48c5 c9bb 159c 9f3c
00000020: a668 893d e2a8 d73c 7c47 943d 27f8 c33d
00000030: 5293 42bd 4434 5fbd 864e ac3d 8d8c 2abd
00000040: 0014 3dbd 51bf 2a3a f2e4 de3c 50a1 d03d
00000050: f08f a03c dc1c 17bd 2d76 cd3d b9c6 e1bc
00000060: aeb7 a4bd 725d 0e3d 54f4 bebc 1877 a2bd
00000070: 18e8 403d ba39 84bd 33dd 80bd 0a7d 72bd
00000080: c5ee 18bd b799 79bd 29e2 993d bdcf 8d3d
00000090: 6d86 e73c 1bc9 b23d 106b 7e3d 24af 393d
000000a0: 959d 7dbd ac88 823c 6ec1 d53c 7e21 aebc
000000b0: 4a39 543c f15a dc3a e27e a83d 205d b93d
000000c0: 4d96 b93d 2125 033d a1d2 8dbb 10ab 863c
000000d0: 5b56 903c cb88 e83c a0b3 7b3d 7d93 823d
000000e0: a1d9 a43d d6a9 4c3d 382b b3bc 3363 463d
000000f0: ba6c 64bd 4364 473d bdaa 523d d76b 6dbd

actor.6.weight f4 [16, 64]
0.036682073 -0.20586105 -0.11750201 -0.20077121 0.09705676 -0.056081194 -0.22531481 0.21627761
0.0240374 -0.22165126 -0.20729226 -0.108689524 0.017774072 0.052608684 0.10778667 0.20335576
-0.19175504 -0.16373229 -0.21067376 0.16083798 0.1496745 0.24236879 -0.33376768 -0.16509685
-0.028083198 0.12069194 0.05564605 0.07115076 -0.17740965 -0.20647475 -0.08207328 -0.11355308
-0.18378328 0.23839693 -0.15554638 -0.027128069 -0.27327058 -0.20605557 -0.007984339 0.16641761
-0.05929393 -0.09626201 0.05764201 -0.0004401572 -0.1425017 0.14170837 -0.06871461 -0.012104141
-0.014369285 -0.030383408 -0.21489519 0.08504206 0.18743521 0.16205281 0.0326088 -0.17010948
0.23644415 0.25906554 0.046533264 -0.09740205 -0.008963539 0.0023979903 0.045496024 -0.100924164
-0.13251372 0.12427094 0.010065794 0.096766315 0.037291784 -0.23205593 0.20296633 -0.23286259
-0.16800418 0.17909847 -0.21248987 0.13727638 -0.21635082 -0.029295914 0.092914745 0.08286379
-0.027619325 -0.20201391 0.024850503 0.12372565 0.0071367077 0.07477126 0.23948438 0.054849394
-0.011857438 -0.0644847 -0.16606466 0.14989753 -0.039410558 0.17288065 0.13543528 0.11937894
0.117011726 -0.4293457 0.20754927 -0.07768467 0.1535898 0.13750678 -0.08742206 0.16718452
0.17947458 0.06262679 0.10602203 -0.2137626 -0.257678 -0.024098597 0.12727448 -0.14748515
-0.21563879 0.13679257 0.3284488 -0.20025457 -0.19382106 0.15733647 0.057884123 0.09186152
-0.18778919 -0.20376888 -0.20953192 0.046846103 0.16904306 0.13170943 0.054213513 -0.0495318
0.10907145 0.13887073 -0.12594745 -0.11141387 -0.07274708 0.25215974 -0.085153125 0.08116857
0.14585273 -0.07374307 0.108880654 0.028201537 0.02475048 -0.073330104 -0.17889236 -0.17473435
0.12982582 0.10363809 0.058949314 -0.23308758 -0.008662632 -0.28618523 -0.03387013 0.20086287
0.24358243 -0.021051863 0.2367442 0.047193088 -0.11464599 -0.059721436 -0.12357977 -0.040351342
-0.09820764 0.21437417 -0.12022264 0.08993428 0.12345561 0.14639078 0.13705468 0.031675935
-0.11279686 -0.15289342 -0.20216443 0.04997567 0.13656163 -0.26357454 -0.1388024 -0.13430668
0.0065243295 0.04467412 -0.18979822 0.08940118 -0.19265786 -0.016016299 -0.022227323 -0.13636298
-0.002854563 -0.054120477 0.1333914 -0.19067602 -0.21831518 -0.16670369 -0.04541159 -0.15602525
0.0033245 0.013503825 0.24248217 -0.20990227 0.18801019 0.124770746 0.03645602 -0.17335066
0.1431462 -0.100932255 0.25125435 -0.16163996 0.2932038 0.18795568 -0.006059622 -0.18131633
0.065496564 0.035273924 -0.09264019 0.20376544 0.12389033 0.09957441 -0.39311448 -0.20045298
-0.13730615 0.16387486 0.008977557 -0.1582692 -0.027916944 0.09632957 0.2224317 0.10525885
0.12867299 0.3466367 -0.13715534 0.045257937 -0.1354808 -0.07550109 -0.0013227405 0.1003977
0.20796171 -0.11887204 0.024646122 0.007976644 0.017772906 0.15311421 0.008904705 -0.18947339
-0.03870108 -0.049825087 -0.08837519 -0.11665899 0.26914078 -0.0036620195 0.12808876 0.07972816
-0.112263635 0.08951665 0.010729285 -0.13360809 0.10488957 -0.028108327 -0.06750194 -0.14998414
00000000: f13f 163d 3dcd 52be e5a4 f0bd f896 4dbe
00000010: b2c5 c63d 65b5 65bd edb8 66be e177 5d3e
00000020: 15ea c43c 8cf8 62be 6c44 54be 9d98 debd
00000030: ee9a 913c 347c 573d 42bf dc3d 7e3c 503e
00000040: 6f5b 44be 70a9 27be ddba 57be b6b2 243e
00000050: 4644 193e 862f 783e 99e3 aabe 260f 29be
00000060: bc0e e6bc 562d f73d 1ded 633d 7db7 913d
00000070: e0aa 35be 1e6e 53be 0916 a8bd 848e e8bd
00000080: af31 3cbe 531e 743e 8d47 1fbe af3b debc
00000090: 1fea 8bbe 3b00 53be bfd0 02bc 6169 2a3e
000000a0: 31de 72bd 0425 c5bd 071a 6c3d e6c4 e6b9
000000b0: f7eb 11be 001c 113e 3fba 8cbd 7250 46bc
000000c0: 266d 6bbc a0e6 f8bc 7c0d 5cbe 882a ae3d
000000d0: 04ef 3f3e 2cf1 253e ce90 053d 2e31 2ebe
000000e0: 6a1e 723e 3da4 843e aa99 3e3d ba7a c7bd
000000f0: cfdb 12bc 9a27 1d3b 0a5a 3a3d 54b1 cebd
00000100: adb1 07be c381 fe3d 00eb 243c 6b2d c63d
00000110: 45bf 183d 12a0 6dbe 68d6 4f3e 8873 6ebe
00000120: 4a09 2cbe 9765 373e f296 59be 2e92 0c3e
00000130: 128b 5dbe fcfd efbc 164a be3d 7eb4 a93d
00000140: ec41 e2bc bcdc 4ebe 4893 cb3c e063 fd3d
00000150: 0bdb e93b ad21 993d 653b 753e c2a9 603d
00000160: b345 42bc 8e10 84bd db0c 2abe bd7e 193e
00000170: f76c 21bd a007 313e 8caf 0a3e f27c f43d
00000180: d8a3 ef3d 33d3 dbbe cc87 543e 2419 9fbd
00000190: a546 1d3e 94ce 0c3e 560a b3bd 6b32 2b3e
000001a0: 2fc8 373e 7942 803d 1422 d93d 95e4 5abe
000001b0: 5fee 83be 6c6a c5bc 3e54 023e 5906 17be
000001c0: 6ad0 5cbe 5a13 0c3e 712a a83e 890f 4dbe
000001d0: 0779 46be d01c 213e e717 6d3d e521 bc3d
000001e0: cf4b 40be caa8 50be 898f 56be b3e1 3f3d
000001f0: a019 2d3e d6de 063e fd0e 5e3d dbe1 4abd
00000200: da60 df3d 2134 0e3e 5ef8 00be f42c e4bd
00000210: 6cfc 94bd 151b 813e c364 aebd b53b a63d
00000220: 6b5a 153e 9b06 97bd d2fc de3d e906 e73c
00000230: 85c1 ca3c 182e 96bd 8f2f 37be 90ed 32be
00000240: 0ff1 043e 3540 d43d d674 713d 83ae 6ebe
00000250: b6ed 0dbc df86 92be 68bb 0abd ffae 4d3e
00000260: ac6d 793e f574 acbc 126d 723e 8a4d 413d
00000270: 84cb eabd 779e 74bd 6417 fdbd 7347 25bd
00000280: 1621 c9bd e784 5b3e 4a37 f6bd 772f b83d
00000290: 4bd6 fc3d 77e7 153e 1058 0c3e a0be 013d
000002a0: 0a02 e7bd 1890 1cbe 3104 4fbe 4ab3 4c3d
000002b0: d0d6 0b3e 3ef3 86be 3722 0ebe b187 09be
000002c0: 0bca d53b 36fc 363d 775a 42be f717 b73d
000002d0: 1a48 45be 9d34 83bc 1316 b6bc bda2 0bbe
000002e0: 9f13 3bbb 6fad 5dbd c197 083e 9340 43be
000002f0: 048e 5fbe 5fb4 2abe 8101 3abd 15c5 1fbe
00000300: dbdf 593b 263f 5d3c 3f4d 783e 9ff0 56be
00000310: be85 403e ce87 ff3d e852 153d d682 31be
00000320: eb94 123e 92b5 cebd 69a4 803e f284 25be
00000330: cf1e 963e 7477 403e cb8f c6bb fdaa 39be
00000340: 1023 863d 647b 103d 24ba bdbd e3a7 503e
00000350: 37ba fd3d abed cb3d 4d46 c9be 8c43 4dbe
00000360: fc99 0cbe d0ce 273e 9a16 133c 5211 22be
00000370: 13b2 e4bc 7048 c53d 23c5 633e f491 d73d
00000380: dac2 033e 5e7a b13e 7372 0cbe 6360 393d
00000390: 7bbb 0abe 51a0 9abd ce5f adba 4f9d cd3d
000003a0: eaf3 543e 2f73 f3bd aae6 c93c 78b0 023c
000003b0: 7c98 913c f9c9 1c3e 0ae5 113c 5005 42be
000003c0: 0685 1ebd 6415 4cbd 0dfe b4bd e9ea eebd
000003d0: d2cc 893e 7efe 6fbb b329 033e 8448 a33d
000003e0: 7aea e5bd 8154 b73d e2c9 2f3c 8fd0 08be
000003f0: 58d0 d63d 6f43 e6bc 753e 8abd 7195 19be

actor.6.bias f4 [16]
-0.10156318 -0.12565869 -0.023152525 -0.06790175 -0.020866143 0.079095885 -0.036741395 0.08761516
0.010691723 0.07698176 0.12888557 -0.052156944 0.026813116 0.120810434 0.0029907685 0.03268265
00000000: 5b00 d0bd acac 00be 5daa bdbc 1310 8bbd
00000010: 79ef aabc 06fd a13d 257e 16bd 946f b33d
00000020: 562c 2f3c 9da8 9d3d 94fa 033e 85a2 55bd
00000030: 2ea7 db3c 766b f73d c500 443b 3ede 053d

critic.0.weight f4 [128, 30]
-0.07952861 0.10640736 -0.07550406 0.16619068 0.23471332 0.11119298 0.28851932 0.2553208
0.16336994 0.047243174 0.2795594 0.14589459 0.19199358 -0.1525718 -0.07959876 0.10557714
0.2052688 0.13712396 -0.15782614 -0.030411089 -0.42240047 0.04058822 0.22891569 0.008209975
-0.0032873382 -0.020678794 -0.16572887 -0.11454253 0.19367363 0.41998798 0.27194127 -0.0115633495
0.05971142 0.03169145 0.05366706 -0.04465902 -0.042839687 0.17437078 0.22978368 0.12281289
-0.013512778 -0.06837821 0.07384901 -0.026193779 0.18416183 0.17640467 0.15526332 0.13188644
-0.18384188 0.4426698 0.04843363 0.057042513 0.07320496 0.117736116 0.06160655 0.009576599
-0.28988516 0.13216962 0.30758512 -0.18238719 0.18618597 0.07130151 0.29741532 0.24632674
0.41497943 -0.02011783 0.20208244 0.009129213 0.2591639 0.21245384 -0.2884315 0.086374976
0.13702618 0.07211982 0.0859813 0.19806479 0.16270186 0.39025775 0.27416337 0.23881555
0.14645241 0.29517916 -0.17774226 -0.034621574 0.101347424 -0.008703923 0.030007167 -0.008325699
-0.11156552 0.06878341 0.015537714 0.009686515 -0.023663066 -0.077795066 0.22600839 -0.1035355
-0.13392645 0.037487436 0.30302694 0.013244037 0.18603432 0.0355837 0.06702249 -0.021527639
0.07841992 0.11947062 -0.07366276 0.064541765 0.2812837 0.1225399 -0.15953696 -0.11417036
0.016972018 0.096480116 0.04254308 0.18323849 0.13056934 0.084528066 0.09891497 -0.044465933
-0.178314 -0.038162872 -0.06072562 0.09309629 -9.514969e-05 -0.18147695 -0.3674862 -0.12299562
-0.07052362 -0.29513043 0.2935535 -0.19049513 -0.37904438 -0.14758663 0.07962128 0.0018718871
0.1628647 0.032110233 -0.06979418 -0.6263997 -0.22798565 -0.23018804 0.19476143 -0.3526454
-0.23781636 0.039149966 0.2946407 0.33999288 -0.034721065 -0.48905218 -0.1042478 -0.19101268
0.059868958 0.20022522 0.1564113 -0.07369105 -0.008092466 0.026711598 0.28194362 0.18112336
0.18239747 0.15908755 0.12194001 0.10822872 0.21099184 0.15981063 -0.3973999 0.017186834
0.022167 0.013063698 0.05152089 0.24369837 0.14552417 0.120723784 -0.06866862 -0.006096276
0.07579025 -0.050845884 0.046471257 -0.1560105 -0.025776133 -0.046185292 0.095525734 -0.05131095
-0.047226172 -0.090583175 0.032510072 -0.109481364 -0.060649678 -0.14881358 0.14180179 -0.08506899
0.008758446 -0.14590949 0.12575242 -0.076383054 -0.19059382 0.2798639 -0.032049984 -0.34571403
0.0678711 -0.019751117 -0.020151211 0.056390114 0.042770058 -0.025266608 0.0854826 -0.028087327
0.17328283 0.01531591 -0.18748876 0.12228397 0.18306756 -0.0016408871 0.045024723 0.13030738
-0.15437636 -0.077617854 -0.035327747 0.048569232 -0.109321095 -0.05272212 -0.1258191 -0.030734116
-0.1571337 -0.06271128 -0.47927505 0.03171759 0.096574396 -0.2751493 -0.007757813 -0.11104431
-0.1372946 -0.051329207 0.09498457 0.04984654 0.06305215 -0.12199151 -0.40028673 -0.16549711
0.17405246 -0.06922814 0.061650988 0.19084351 0.15377083 0.11981236 0.08808435 -0.0029120988
0.064888686 0.29355022 0.12104118 0.018073162 -0.06975078 -0.035961624 0.114535116 0.16007365
00000000: e5df a2bd 1aec d93d dfa1 9abd e42d 2a3e
00000010: b058 703e 25b9 e33d ceb8 933e 68b9 823e
00000020: 734a 273e 0f82 413d 6922 8f3e 6465 153e
00000030: f799 443e c83b 1cbe ad04 a3bd d438 d83d
00000040: fc31 523e 396a 0c3e 2d9d 21be ad20 f9bc
00000050: e044 d8be d53f 263d e068 6a3e 2283 063c
00000060: 6270 57bb 9366 a9bc d4b4 29be 4695 eabd
00000070: 6152 463e aa08 d73e e33b 8b3e 3474 3dbc
00000080: f693 743d e5ce 013d fed1 5b3d 60ec 36bd
00000090: ab78 2fbd 418e 323e 6a4c 6b3e 5385 fb3d
000000a0: b364 5dbc e009 8cbd 263e 973d 5694 d6bc
000000b0: eb94 3c3e 6da3 343e 59fd 1e3e 3d0d 073e
000000c0: 0c41 3cbe 9ea5 e23e 5862 463d 69a5 693d
000000d0: 7bec 953d a21f f13d 2657 7c3d 2be7 1c3c
000000e0: d46b 94be 7957 073e cc7b 9d3e b5c3 3abe
000000f0: 89a7 3e3e 8706 923d d246 983e 143d 7c3e
00000100: 2f78 d43e 26ce a4bc b3ee 4e3e b292 153c
00000110: 21b1 843e 808d 593e 4bad 93be 5de5 b03d
00000120: 9750 0c3e 8eb3 933d f716 b03d 7fd1 4a3e
00000130: 519b 263e ddcf c73e 245f 8c3e 108c 743e
00000140: 9ff7 153e b921 973e 1102 36be 5acf 0dbd
00000150: 3d8f cf3d e69a 0ebc 97d1 f53c 8368 08bc
00000160: 777c e4bd 51de 8c3d e591 7e3c 30b4 1e3c
00000170: 0cd9 c1bc 0553 9fbd be6e 673e 6c0a d4bd
00000180: 0424 09be 6d8c 193d 5926 9b3e 84fd 583c
00000190: c87f 3e3e 37c0 113d 1643 893d bb5a b0bc
000001a0: 9f9a a03d 03ad f43d 80dc 96bd 792e 843d
000001b0: 6b04 903e 33f6 fa3d a85d 23be 26d2 e9bd
000001c0: e708 8b3c 5e97 c53d a741 2e3d dfa2 3b3e
000001d0: f8b3 053e 0d1d ad3d ef93 ca3d e921 36bd
000001e0: f297 36be ac50 1cbd 6dbb 78bd 45a9 be3d
000001f0: 1a8b c7b8 18d5 39be 2727 bcbe 21e5 fbbd
00000200: b06e 90bd 561b 97be a54c 963e 2811 43be
00000210: 1b12 c2be f320 17be 7b10 a33d 1c5a f53a
00000220: 01c6 263e 0586 033d 40f0 8ebd bb5b 20bf
00000230: 1275 69be 6ab6 6bbe 8a6f 473e f08d b4be
00000240: 2286 73be b75b 203d 25db 963e 8c13 ae3e
00000250: ad37 0ebd 0c65 fabe df7f d5bd d498 43be
00000260: 2739 753d d707 4d3e 492a 203e 55eb 96bd
00000270: 4396 04bc 48d2 da3c ea5a 903e 6778 393e
00000280: 67c6 3a3e d9e7 223e afbb f93d 05a7 dd3d
00000290: 3f0e 583e 66a5 233e 0078 cbbe 67cb 8c3c
000002a0: 9297 b53c 1f09 563c 9207 533d 118c 793e
000002b0: 4a04 153e 083e f73d 22a2 8cbd 45c3 c7bb
000002c0: eb37 9b3d c643 50bd a558 3e3d 37c1 1fbe
000002d0: 7828 d3bc ca2c 3dbd ffa2 c33d 6e2b 52bd
000002e0: 3b70 41bd ac83 b9bd 4829 053d c437 e0bd
000002f0: cc6b 78bd 9662 18be 7d34 113e a738 aebd
00000300: 967f 0f3c 4c69 15be 3ec5 003e b86e 9cbd
00000310: 072b 43be 524a 8f3e d846 03bd 6e01 b1be
00000320: 0100 8b3d 18cd a1bc 2714 a5bc 52f9 663d
00000330: a82f 2f3d ebfb cebc 8011 af3d 6517 e6bc
00000340: 0e71 313e 95ef 7a3c 0efd 3fbe 0570 fa3d
00000350: 1076 3b3e 0913 d7ba d86b 383d 4c6f 053e
00000360: d614 1ebe 1cf6 9ebd d4b3 10bd 88f0 463d
00000370: bde3 dfbd 26f3 57bd b9d6 00be 1dc6 fbbc
00000380: a8e7 20be c66e 80bd 8a63 f5be 4eea 013d
00000390: ccc8 c53d 5ee0 8cbe 4135 febb 336b e3bd
000003a0: f596 0cbe 933e 52bd 4587 c23d e32b 4c3d
000003b0: 7c21 813d afd6 f9bd 62f2 ccbe 1378 29be
000003c0: cf3a 323e 7cc7 8dbd bf85 7c3d 7b6c 433e
000003d0: 1a76 1d3e 2f60 f53d 9165 b43d e9d8 3ebb
000003e0: 5ce4 843d 374c 963e 70e4 f73d 2b0e 943c
000003f0: 7fd9 8ebd 7f4c 13bd 6391 ea3d 59ea 233e

critic.0.bias f4 [128]
0.07780557 -0.21612789 -0.017652899 0.0473992 -0.09642866 0.012804021 0.13457516 -0.13040063
0.17090167 0.10218299 -0.14228153 -0.15090342 -0.061289348 0.045192055 -0.15398063 0.034241766
-0.037012815 -0.092749394 0.04932099 0.0029845184 0.021270132 -0.09899527 -0.41197002 -0.16374785
-0.14102465 0.22280945 0.17670149 0.19777054 -0.17134534 -0.107770845 0.09165524 0.19615689
0.20170373 0.110651515 -0.14657941 0.1807498 0.3149619 -0.18323535 0.043638438 0.02584833
0.09298136 0.097383685 0.21523456 0.0869673 -0.10021184 0.15616262 -0.18500079 0.04552977
0.03851559 -0.053728893 -0.15742986 -0.02202564 0.12551905 -0.08976597 -0.048522778 -0.08476027
0.23665017 -0.15870468 -0.07094453 0.13557258 -0.10981316 0.09507513 -0.007242057 -0.13145007
0.06467951 0.18432045 0.0135233095 0.12944998 0.2331394 0.064592294 0.18107584 0.2130272
-0.25264236 -0.14308712 -0.21418092 0.07007209 0.18638726 -0.03430732 -0.013391507 -0.05936212
-0.21260722 -0.1821406 -0.21355584 0.26213658 0.09554877 0.037701253 0.021667637 0.007122761
-0.07601674 -0.23614809 -0.1909707 -0.26157945 -0.04868345 0.0254177 -0.041485574 -0.12297144
-0.02727319 -0.21868551 -0.01304228 -0.033044923 0.2209334 -0.0819531 0.12233736 0.07317942
-0.08914352 -0.16309099 0.10512556 -0.15298168 -0.0020867616 0.2552225 -0.07849402 0.07705111
-0.13391362 0.05256891 0.24819697 -0.14829503 0.16496174 0.09100186 -0.10523992 -0.057928685
0.033191565 0.10362131 0.08749099 -0.009434373 -0.13851115 0.0063368734 -0.13720459 0.08740807
00000000: 8758 9f3d a150 5dbe d09c 90bc aa25 423d
00000010: 647c c5bd f5c7 513c 12ce 093e be87 05be
00000020: d900 2f3e 5145 d13d 40b2 11be 6d86 1abe
00000030: 8a0a 7bbd 4e1b 393d 19ad 1dbe 1841 0c3d
00000040: c09a 17bd 65f3 bdbd ce04 4a3d e997 433b
00000050: b33e ae3c 08be cabd bced d2be 84ad 27be
00000060: c468 10be 2928 643e 3cf1 343e 5c84 4a3e
00000070: 2775 2fbe f6b6 dcbd beb5 bb3d 5add 483e
00000080: 6c8b 4e3e 439d e23d ea18 16be 7a16 393e
00000090: b042 a13e 0ca2 3bbe 38be 323d e1bf d33c
000000a0: 036d be3d 1971 c73d 7366 5c3e e91b b23d
000000b0: dd3b cdbd 18e9 1f3e d970 3dbe 6d7d 3a3d
000000c0: 86c2 1d3d d412 5cbd 4b35 21be 1d6f b4bc
000000d0: 1188 003e 39d7 b7bd d2bf 46bd cb96 adbd
000000e0: 6c54 723e 7b83 22be 5e4b 91bd 8ad3 0a3e
000000f0: b9e5 e0bd c0b6 c23d c74e edbb d99a 06be
00000100: b176 843d 80be 3c3e df90 5d3c 898e 043e
00000110: 18bc 6e3e f748 843d f26b 393e cd23 5a3e
00000120: 575a 81be 6e85 12be 3e52 5bbe f581 8f3d
00000130: 4ddc 3e3e d585 0cbd 0d68 5bbc b225 73bd
00000140: b5b5 59be 1183 3abe 62ae 5abe c436 863e
00000150: 13af c33d a16c 1a3d 5480 b13c 0d66 e93b
00000160: aaae 9bbd ced0 71be d38d 43be beed 85be
00000170: 4c68 47bd c838 d03c c7ec 29bd 73d8 fbbd
00000180: 066c dfbc 18ef 5fbe 4aaf 55bc 1d5a 07bd
00000190: 5d3c 623e 07d7 a7bd 038c fa3d 17df 953d
000001a0: e190 b6bd 5301 27be 124c d73d 3ba7 1cbe
000001b0: 0dc2 08bb 86ac 823e 79c1 a0bd f9cc 9d3d
000001c0: a720 09be 7f52 573d 5927 7e3e a7da 17be
000001d0: bbeb 283e 2f5f ba3d 0788 d7bd a146 6dbd
000001e0: e1f3 073d 6937 d43d 7a2e b33d a192 1abc
000001f0: ded5 0dbe 8ca5 cf3b 5c7f 0cbe 0103 b33d

critic.2.weight f4 [128, 128]
0.0929185 0.09800974 0.09372031 0.021227986 0.1750006 0.036830287 -0.024531495 -0.0016108749
-0.14124078 0.07926515 0.18217072 -0.24206483 -0.14818642 0.12666273 -0.18214758 -0.28898236
0.10959427 0.013854254 0.011695627 0.06498465 0.08860627 0.032486476 -0.11914909 -0.057624485
0.07385028 -0.11375099 0.096228264 -0.04869181 -0.0027161967 0.02596507 -0.15344957 -0.13558142
0.13151665 -0.07793011 -0.0340743 0.077902555 -0.06939138 0.109445006 -0.051049042 0.030451033
0.052504566 -0.0038948196 -0.046103068 -0.012706746 0.083158955 -0.020720989 -0.27916443 -0.0074444413
0.10092373 0.06884583 -0.025541188 0.11651363 -0.11480075 -0.04686828 0.07532606 0.023991672
0.11153649 0.0054350793 -0.08495487 -0.0921154 -0.0775253 0.11639533 -0.23025581 0.18461218
-0.017287249 -0.14310737 -0.002990451 0.101453714 -0.11062102 -0.008672521 -0.03995651 -0.057033386
-0.4225511 -0.021357194 -0.122103885 -0.04220751 -0.101937294 0.10451946 0.089078926 0.019154385
-0.088462226 0.057607677 0.15569496 -0.05139565 0.012509695 -0.0863225 -0.044935543 -0.020532696
-0.06277436 0.15483211 0.075622685 -0.090797246 -0.05551296 0.020905687 0.010818775 0.02455356
0.124718785 -0.14024639 -0.0889614 0.09784478 -0.19859983 -0.14737496 0.09344547 -0.025594214
0.09168219 -0.1408699 -0.2015941 -0.03455384 0.089932345 -0.040864594 -0.012808665 -0.12651312
-0.04379038 -0.027520165 0.27845868 -0.11002911 -0.03907212 0.12803607 -0.046181627 0.09274045
-0.18031651 -0.025875075 0.117054515 0.36444816 -0.018706424 0.02055115 0.051008143 0.051021557
-0.044616517 0.06453103 -0.13730568 -0.11060517 -0.04358952 -0.008429352 0.049120557 0.048687957
-0.062486596 -0.010926146 0.018625222 -0.073565274 -0.013049587 -0.06878594 0.091544166 0.056273084
0.03257832 -0.044786904 -0.06317021 0.07218716 -0.0733869 -0.019922607 0.009070583 0.0050975075
0.06203752 0.018797655 -0.10053111 -0.07920429 0.068025805 -0.06356666 -0.020121556 0.060854446
-0.020329526 0.026813727 -0.045945548 0.023583435 0.02198441 0.018165305 -0.081183486 0.028886126
0.035887536 0.060138226 -0.07050041 0.08514881 0.007141956 0.06918783 0.16532333 0.034974918
-0.1351401 -0.006430614 0.020972228 -0.09175979 0.12687553 0.037404172 -0.0037082245 -0.044414397
0.0017162206 0.029275978 0.030546123 0.07571433 0.07579801 -0.04310775 0.08174597 -0.16820975
-0.1072176 0.011683376 -0.047892246 -0.08933906 -0.006856582 0.028559674 0.06314644 -0.056972533
-0.011473541 -0.08013431 -0.055216074 0.063053146 -0.048386283 0.022627978 -0.021598738 0.06974136
0.043635372 -0.10821057 0.05039541 0.034183934 0.06192881 -0.009452587 -0.05039702 0.053441226
0.046774305 -0.16045694 -0.035947837 -0.018376367 -0.06365622 -0.06381163 0.035353925 0.058589097
-0.08306498 0.42312968 -0.030992124 -0.21388514 -0.07593896 0.047277745 0.020005912 -0.01545643
0.024372 -0.02319129 -0.0024630046 -0.37880492 0.045294255 -0.08801487 -0.1357624 0.0035946912
0.06333263 -0.043876663 -0.09220613 9.96699e-05 0.059407886 -0.08306172 -0.022362735 -0.05712604
0.027392644 0.0512218 0.039863043 -0.027942412 -0.032383975 -0.030586207 -0.014875234 -0.043828145
00000000: 0e4c be3d 55b9 c83d 6ff0 bf3d 50e6 ad3c
00000010: 5b33 333e 5bdb 163d 46f6 c8bc fe23 d3ba
00000020: 6ca1 10be c455 a23d f68a 3a3e d8df 77be
00000030: 2ebe 17be e0b3 013e e584 3abe 7ff5 93be
00000040: f672 e03d f4fc 623c 049f 3f3c ac16 853d
00000050: 3477 b53d 8a10 053d 7004 f4bd a707 6cbd
00000060: d13e 973d 47f6 e8bd 5313 c53d 1071 47bd
00000070: 3802 32bb b3b4 d43c e221 1dbe dbd5 0abe
00000080: 4dac 063e d299 9fbd 7e91 0bbd 608b 9f3d
00000090: 111d 8ebd b424 e03d cd18 51bd 7274 f93c
000000a0: 070f 573d 3b40 7fbb 92d6 3cbd f52f 50bc
000000b0: 3e4f aa3d 10bf a9bc a4ee 8ebe 80f0 f3bb
000000c0: 1ab1 ce3d 0bff 8c3d c13b d1bc b39e ee3d
000000d0: a81c ebbd f4f8 3fbd 8d44 9a3d 2f8a c43c
000000e0: 3e6d e43d c018 b23b d2fc adbd 00a7 bcbd
000000f0: 96c5 9ebd ad60 ee3d 2ec8 6bbe fa0a 3d3e
00000100: fd9d 8dbc bd8a 12be 71fb 43bb f7c6 cf3d
00000110: 468d e2bd 3117 0ebc 70a9 23bd d79b 69bd
00000120: 9e58 d8be 48f5 aebc 9a11 fabd c8e1 2cbd
00000130: 80c4 d0bd 4c0e d63d 036f b63d a8e9 9c3c
00000140: af2b b5bd 07f6 6b3d 806e 1f3e 3f84 52bd
00000150: 77f5 4c3c dac9 b0bd 550e 38bd 2f34 a8bc
00000160: d88f 80bd 4f8c 1e3e 11e0 9a3d e8f3 b9bd
00000170: 8f61 63bd 6742 ab3c 3b41 313c 8c24 c93c
00000180: 906c ff3d c09c 0fbe 6531 b6bd d862 c83d
00000190: c15d 4bbe 76e9 16be 5760 bf3d f5aa d1bc
000001a0: dfc3 bb3d 3340 10be af6e 4ebe 5488 0dbd
000001b0: 732e b83d a261 27bd 6fdb 51bc a88c 01be
000001c0: 8b5d 33bd f871 e1bc 2392 8e3e f156 e1bd
000001d0: 160a 20bd e31b 033e f228 3dbd b4ee bd3d
000001e0: e4a4 38be f7f7 d3bc 47ba ef3d f398 ba3e
000001f0: 373e 99bc e35a a83c eaed 503d fbfb 503d
00000200: cfbf 36bd d828 843d dc99 0cbe f784 e2bd
00000210: ed8a 32bd 441b 0abc a332 493d 066d 473d
00000220: f2f1 7fbd 9403 33bc ec93 983c 64a9 96bd
00000230: efcd 55bc a5df 8cbd 827b bb3d 9b7e 663d
00000240: d870 053d 7972 37bd 625f 81bd ddd6 933d
00000250: df4b 96bd bc34 a3bc c89c 143c fe08 a73b
00000260: 0e1b 7e3d 8afd 993c 41e3 cdbd dc35 a2bd
00000270: 1d51 8b3d 3d2f 82bd f6d5 a4bc 8342 793d
00000280: 1b8a a6bc 76a8 db3c 6631 3cbd 0c32 c13c
00000290: a618 b43c 68cf 943c 8743 a6bd 99a2 ec3c
000002a0: cffe 123d 8053 763d 8562 90bd 8062 ae3d
000002b0: 1207 ea3b 59b2 8d3d 854a 293e dc41 0f3d
000002c0: 2b62 0abe e6b7 d2bb f3cd ab3c 8fec bbbd
000002d0: a9eb 013e 1e35 193d af05 73bb dfeb 35bd
000002e0: cff2 e03a 2dd4 ef3c dd3b fa3c 1d10 9b3d
000002f0: fd3b 9b3d c191 30bd 6e6a a73d 2d3f 2cbe
00000300: e794 dbbd a16b 3f3c a92a 44bd 66f7 b6bd
00000310: 2ead e0bb faf5 e93c ec52 813d 085c 69bd
00000320: 85fb 3bbc 751d a4bd 402a 62bd 0222 813d
00000330: b230 46bd 4f5e b93c d6ef b0bc 8fd4 8e3d
00000340: 01bb 323d 819d ddbd 6b6b 4e3d 7404 0c3d
00000350: 10a9 7d3d 06df 1abc 1b6d 4ebd 30e5 5a3d
00000360: 6a96 3f3d d34e 24be 0a3e 13bd 098a 96bc
00000370: 315e 82bd acaf 82bd 47cf 103d 1ffb 6f3d
00000380: f91d aabd 74a4 d83e 32e3 fdbc b504 5bbe
00000390: e385 9bbd 4fa6 413d 70e3 a33c f73c 7dbc
000003a0: caa7 c73c a9fb bdbc 5c6a 21bb b8f2 c1be
000003b0: 7886 393d 2441 b4bd 4c05 0bbe e994 6b3b
000003c0: 8ab4 813d 04b8 33bd 91d6 bcbd df05 d138
000003d0: af55 733d 431c aabd 0e32 b7bc fffc 69bd
000003e0: 8a66 e03c f3cd 513d 6e47 233d 7ce7 e4bc
000003f0: 0fa5 04bd ed8f fabc 41b7 73bc 2485 33bd
