PPO_preTrained/250/PPO_250_0_250.pth (torch, 239887 bytes, 15 tensors)

actor.0.weight f4 [128, 30]
000000 98 1b b2 3d 6c d5 15 3e 55 8f ef bc 37 ab 86 3e
       0.08696669 0.14632195 -0.02924315 0.26302502
000010 af 6d 78 3d 94 7e 02 bf 72 2b ea bd ba 55 5d 3d
       0.060651477 -0.5097439 -0.11434068 0.054036833
000020 0e f4 88 bd 74 f2 ba bc ef 35 85 be e9 dc d2 3d
       -0.06687175 -0.022820689 -0.2601771 0.102960415
000030 56 97 03 be 8e 51 3e 3c 0b 8c 03 3e 27 b3 38 3e
       -0.12850699 0.011616124 0.12846391 0.18037091
000040 d3 06 9b 3e 2f 34 01 3e 15 a3 0c 3e 41 26 37 3e
       0.30278644 0.12617563 0.13734086 0.17885686
000050 2e 56 f1 bd 52 af 53 ba 0e 46 10 bd 12 80 af bd
       -0.117840156 -0.0008075136 -0.03522306 -0.08569349
000060 4e 90 d4 bd b7 e3 dd bd dc a4 54 be b6 10 fb 3d
       -0.103790864 -0.10834449 -0.20766014 0.12259047
000070 ac 29 a4 3e 8f d3 f6 3d df ca ac 3d 65 9e 14 3e
       0.32063043 0.1205207 0.08437132 0.14513548
000080 cf 34 b3 3e 90 f2 c7 3e bb b6 04 3f b8 6d 71 be
       0.35001227 0.39052248 0.51841325 -0.2357701
000090 21 59 9f ba e7 a4 5b 3d 01 07 37 3e 7f 23 00 3e
       -0.00121573 0.05362406 0.17873766 0.1251354
0000a0 dc 43 57 3e d5 b4 b1 bd a5 e3 ac bb 39 34 af 3d
       0.2102198 -0.08677069 -0.005276161 0.085548826
0000b0 41 5a ff 3d 62 23 eb 3d db c4 75 be 59 e6 98 bd
       0.124683864 0.11481358 -0.24000876 -0.0746581
0000c0 38 8a c8 bd f8 8c c6 3d d8 9c d5 bd de 7d b6 3d
       -0.09791988 0.096948564 -0.10430306 0.08910726
0000d0 c6 b4 f9 bd a4 5f 9b 3d 31 4f 7c be 45 f3 c3 3d
       -0.12192683 0.075866014 -0.24639584 0.09567884
0000e0 ab d2 0c be d5 90 98 3d cf dd 38 3e 9c 7b ad 3e
       -0.13752238 0.074494995 0.18053363 0.3388337
0000f0 3c 52 6b 3c d1 08 a0 bd cd c3 ec 3e e6 21 84 be
       0.014362868 -0.078141816 0.46243134 -0.25807112
000100 c4 75 0a bd b6 f9 ca be 14 71 fd 3d 05 22 80 bd
       -0.033803716 -0.3964364 0.123750836 -0.06256489
000110 1a 95 d0 bd 00 3b f4 3c 55 3c 39 3d 9f 20 a1 bd
       -0.10184689 0.02981329 0.045223553 -0.0786755
000120 68 bc 1b be 32 94 0b 3e 85 6e 0c 3d b3 b5 93 be
       -0.1520859 0.13630751 0.034285087 -0.28849563
000130 09 5a 75 bb f9 55 58 bc 12 44 47 3e 4c fe 66 3e
       -0.0037437698 -0.013204091 0.1945956 0.22557944
000140 cd 73 8f be 54 57 4f be bd 6c 86 bd 49 12 da bd
       -0.28018036 -0.20248157 -0.06563709 -0.10648019
000150 5b 3e 33 3d 02 cb 3a 3e d4 92 81 3e 4c 79 41 3d
       0.04376064 0.18241504 0.25307333 0.04723482
000160 25 57 68 3e 82 d8 30 be f0 a5 15 be 98 61 30 be
       0.22689493 -0.17270091 -0.14614081 -0.17224729
000170 82 05 70 3d 07 dc 9e 3d 66 48 2a be a0 fa c3 3e
       0.058599003 0.07756811 -0.1662918 0.3827715
000180 c0 21 c7 3d dc 86 9c 3d a4 98 15 3b bc 79 4f 3d
       0.09723234 0.0764291 0.0022826577 0.050653204
000190 bd eb 00 3d bf 89 f6 3c e7 90 36 3d 87 50 f1 3d
       0.031474818 0.03009498 0.044571783 0.117829375
0001a0 a3 e3 1c 3e f9 b5 85 be 9a 30 09 3e c7 ea d3 3d
       0.15321212 -0.26115397 0.13397446 0.103475146
0001b0 45 5a 3b be da f2 20 be 76 f4 db bc b7 5a d9 3d
       -0.18296154 -0.1571764 -0.026849966 0.106130056
0001c0 14 1d b4 3d 4d 50 97 bc b2 1d a8 3d 3e 87 25 3e
       0.08794609 -0.018470908 0.08208789 0.16164872
0001d0 1f e1 44 3e 2d 07 25 3e f8 94 5a 3b 1b 50 43 bd
       0.19226502 0.16116019 0.0033352952 -0.047683816
0001e0 de 6e 58 3d 19 97 1b bd c3 57 90 3d d8 66 ca bb
       0.052840106 -0.037985895 0.07047989 -0.0061768107
0001f0 92 d4 e3 bc db 84 49 be 7d 3c e0 3d 0a 0f 99 3c
       -0.027811322 -0.19679587 0.10949037 0.018683929
000200 4c 0e 40 3d ae 2c f5 bd e5 88 30 bd ea 24 96 bc
       0.046888635 -0.119714126 -0.043099303 -0.018328149
000210 aa 3d ea bc 0a ad 27 bd 61 61 61 3d 3a 60 08 be
       -0.028593857 -0.040936507 0.05502451 -0.13317958
000220 3e 52 c9 bd 55 c9 8f 3e 08 18 18 be 1a 3a 91 3e
       -0.098301396 0.28083292 -0.14852917 0.2836464
000230 91 32 39 3e 2d 44 b5 3d 78 1d 29 3c 5f 56 35 3c
       0.18085696 0.08850894 0.010321967 0.011067956
000240 73 a6 8e bd 95 06 16 3e f3 94 87 be 07 3a c7 bb
       -0.069653414 0.14650948 -0.26480827 -0.0060799154
000250 f9 59 0b bd fc 63 29 be 89 56 5c 3e 1a 9b 29 bd
       -0.03402135 -0.16542047 0.21517386 -0.041407682
000260 e2 72 e0 3c 55 85 c3 bd 2f 5e 5b 3e a4 5a c7 be
       0.02739853 -0.095469154 0.21422647 -0.3893634
000270 73 59 ee bd 48 b7 a7 bd f1 e3 30 3e 97 aa 43 3e
       -0.11638155 -0.08189255 0.17274453 0.19108044
000280 75 db d1 3c 8f 16 9e 3d 25 ab 91 be 1e 42 b1 3d
       0.02561734 0.077191465 -0.28450885 0.08655189
000290 75 ef 1c 3e 69 e9 4b 3b 38 21 21 3e 40 68 91 3e
       0.1532572 0.0031114465 0.15735328 0.2839985
0002a0 ed 0d 78 bd f6 c5 0b be 21 81 2a be 22 66 5b 3b
       -0.060560156 -0.13649735 -0.16650821 0.0033477624
0002b0 30 d4 f5 3d e2 85 b0 3d b3 88 69 be ec 6b 33 3d
       0.12003362 0.08619286 -0.22806053 0.043804094
0002c0 0f 54 37 be 1b 42 7c 3e 04 05 60 3e 5e 28 f1 3c
       -0.1790316 0.24634592 0.21876913 0.029438194
0002d0 71 5d 56 3e 92 e8 23 bc b4 e1 a8 3d cb 98 1c be
       0.20934083 -0.01000418 0.082461745 -0.15292661
0002e0 2c af a0 bc 4e 02 33 3f ec 82 0b bd 57 8b a8 3d
       -0.019614778 0.6992539 -0.034060404 0.08229702
0002f0 78 cc df bc 69 bf b1 bc 7e cb 34 be 11 dd 42 bd
       -0.027319178 -0.021697717 -0.17655751 -0.047574107
000300 08 52 09 be ce 59 af 3a e8 ad f1 3c 45 0a 13 3e
       -0.13410199 0.0013378204 0.02950187 0.14359386
000310 af bd b5 bc 43 3a 9b 3d c3 b2 3c 3e 42 73 d0 3e
       -0.022185175 0.07579472 0.18427567 0.40712935
000320 3c 13 1b bd 84 ac bc 3c fb d9 a1 3c 9b 8f 35 3d
       -0.03786014 0.02303148 0.019757261 0.044326406
000330 29 3d 55 bd 6e 88 03 bb 2b 48 c7 3d c2 6e 06 be
       -0.05206028 -0.0020070332 0.09730562 -0.13128188
000340 c0 23 04 3c f2 94 b8 bd af 61 7e be 31 66 9f be
       0.008065164 -0.09012784 -0.24841951 -0.31132653
000350 a2 a8 97 bd 81 00 73 be d5 ab 93 be dc 8b 0e 3f
       -0.07405211 -0.23730661 -0.28842035 0.5568216
000360 e5 69 c5 3d 40 6b ed bd 5c 5a 17 3e 7d 02 89 3d
       0.096393384 -0.11592722 0.14780563 0.06689928
000370 d6 4f 17 3d ed 9a c4 3d 01 fb 6b bd 17 33 96 3b
       0.03694137 0.09599862 -0.057612423 0.004583727
000380 d2 85 f0 3d 13 68 02 be a4 b4 15 3e 56 e6 57 be
       0.11744274 -0.12735014 0.1461969 -0.2108396
000390 9d 58 34 be 4e 7c 50 be c9 02 4f be 3a 09 d4 3d
       -0.17611928 -0.20359918 -0.20215906 0.10353322
0003a0 47 57 70 3d 11 61 1f 3e c1 b2 79 3c 6b 13 9d 3d
       0.058676984 0.15564372 0.015240372 0.07669719
0003b0 aa 36 21 be 69 cd 24 3e da c2 17 be 3e 23 70 3e
       -0.15743509 0.16093983 -0.14820424 0.23450944
0003c0 9b 47 e5 bd 44 d5 31 3d 1e aa 97 bb f1 ee d4 bd
       -0.11195298 0.043416277 -0.004628434 -0.10397137
0003d0 71 ac be bd da 6e f3 be fa 03 de 3d 87 88 f1 3d
       -0.09310234 -0.4754551 0.10840602 0.11793619
0003e0 30 15 99 bc cc 33 5a bd 75 b4 93 3d 74 9a 5f 3d
       -0.01868686 -0.053272054 0.07212154 0.054590657
0003f0 bc cc a4 bd 3e f1 b5 bb 31 a0 08 3e 8e f0 3b be
       -0.080468625 -0.00555244 0.13342358 -0.18353483

actor.0.bias f4 [128]
000000 27 ef 3f bc 97 82 84 3d 71 6b 34 be 55 fc af bd
       -0.011714733 0.064702205 -0.1761911 -0.085930504
000010 f5 08 0e be f7 9a d3 bd 65 cf 60 bd d9 49 21 3e
       -0.13870604 -0.103322916 -0.054885287 0.15750827
000020 37 5d 19 3d eb 51 36 3e a9 3b 98 bd 94 fc 30 3d
       0.037442412 0.17804687 -0.07433254 0.043209627
000030 c6 78 8b 3d b8 be 9b 3c 9c eb 82 3d cc 03 b6 bc
       0.06810145 0.01901184 0.06392595 -0.022218607
000040 b8 92 38 3c 6b aa ce bd c2 63 ec bd e3 1e c6 bc
       0.011265449 -0.100910984 -0.11542465 -0.02418465
000050 16 53 40 be 85 62 53 3e 95 35 a9 3d 56 53 d4 3d
       -0.18781695 0.20643051 0.08262173 0.103674576
000060 37 bc d2 bc 79 45 5d be 7e 02 a6 3e 42 cb c1 bd
       -0.025724513 -0.21608533 0.32423776 -0.094625965
000070 0e 9f 0a 3d 87 72 7c 3d 70 82 d2 3d bc ed fd bc
       0.033843093 0.06163266 0.10278785 -0.03099715
000080 98 85 9d bc 4b 2d 37 3d 73 aa 7d 3b e8 0c c8 3d
       -0.019228742 0.04472093 0.0038706332 0.09768087
000090 39 05 82 bb a0 f7 17 3e 22 d2 0b be f2 b2 ea bb
       -0.0039679077 0.14840555 -0.13654378 -0.007162445
0000a0 bd 74 df 3d d4 d9 06 be 61 11 26 3d 73 02 b6 bd
       0.10910938 -0.13169032 0.040543918 -0.08887186
0000b0 47 3e 2c bd 01 a9 e9 3c 04 e9 2b 3d 78 0a 13 3e
       -0.04205158 0.02852297 0.041970268 0.14359462
0000c0 39 74 b8 bd 4e 70 5d be 43 81 84 3d 8f f4 12 bc
       -0.09006543 -0.21624872 0.06469967 -0.00896944
0000d0 8b db 2d bd 42 c1 55 bd 2d 25 0e be 25 04 b8 bd
       -0.0424457 -0.052186258 -0.13881369 -0.089851655
0000e0 bc 5e 2f 3e 55 ea 5a bd 99 66 c1 bc 04 63 5a 3e
       0.17125982 -0.053446133 -0.023608493 0.21326834
0000f0 d4 85 f7 bd 0e c3 27 3e 1e 8f 04 3e b7 c3 5e 3d
       -0.120860726 0.16383001 0.1294522 0.054385867
000100 22 61 4d bd 25 3f 57 3e f9 bd f0 bd 49 50 94 bb
       -0.05014146 0.21020181 -0.117549844 -0.0045261723
000110 e6 55 64 bd df a4 14 bb 71 e2 92 bd 06 3c 91 bc
       -0.05574598 -0.0022681279 -0.071720965 -0.017728817
000120 58 62 a3 bd 85 60 3d be c4 37 2f 3e aa 6c 63 3e
       -0.07977742 -0.1849385 0.17111117 0.22209421
000130 47 e8 c1 3d 58 21 96 3d 1d 7f 03 be e5 59 02 3d
       0.094681315 0.073305786 -0.12841459 0.03182401
000140 84 37 9e 3d 63 35 a9 3d 72 09 e5 3d 1d 2f a2 b9
       0.077254325 0.08262136 0.11183442 -0.0003093415
000150 a7 0b 4a bd 9d b5 82 3d 8f 52 b8 bd 21 5f f6 bd
       -0.04932752 0.06382296 -0.09000122 -0.12029863
000160 55 c2 f6 3d 67 0b b2 bc ff 0d 11 be 83 52 0c 3e
       0.12048785 -0.021733953 -0.14165495 0.1370335
000170 65 2b 91 3c 90 78 9f bd 87 41 1c 3e ab d4 19 3e
       0.017720887 -0.07786667 0.15259372 0.15022533
000180 f2 77 c1 bb 68 e9 14 3d 43 8d 08 be 58 c7 0a 3e
       -0.005904191 0.036355406 -0.13335137 0.13552606
000190 a9 d2 8a 3d 21 be e4 bd 20 60 93 3d 27 28 af 3d
       0.067784615 -0.11169077 0.07196069 0.0855258
0001a0 47 ac e3 3d 9d 74 b9 3d 56 1e ae 3d d6 a4 2c bd
       0.11116844 0.09055445 0.0850188 -0.042149387
0001b0 d1 a0 0b be 09 38 3b be b3 77 0e 3e c2 e5 45 3d
       -0.13635565 -0.18283094 0.13912849 0.048314817
0001c0 0d 4d d8 3d 67 5e 12 3e 6a 8d 2e 3e 71 f9 4c bd
       0.10561571 0.14293824 0.17046133 -0.050042573
0001d0 c1 b4 d9 bd 6f c7 13 be db b5 0e be 4b f3 27 3d
       -0.10630179 -0.14431547 -0.1393656 0.041003507
0001e0 25 d7 a7 bd 2e 42 a7 3d 38 fb af 3d 7e ac 32 3e
       -0.081953324 0.0816692 0.08592838 0.17448613
0001f0 92 6b ed 3d e5 98 ed 3d 73 c2 6a bd 23 9c 77 3b
       0.11592783 0.11601428 -0.057314347 0.0037782274

actor.2.weight f4 [128, 128]
000000 6a b0 a1 bd 0e 5a a9 ba 98 9a 60 3e c3 b4 18 3b
       -0.078949764 -0.0012920515 0.21933973 0.0023301102
000010 ca 23 eb b9 02 3b 25 3e d3 7e 87 3e 22 a0 00 bd
       -0.00044849358 0.16135791 0.26463947 -0.031402715
000020 2f 4b 26 be ec be 2b be d2 89 c6 be 2d f2 3d bd
       -0.16239618 -0.1677205 -0.38777024 -0.046373535
000030 22 68 4b 3c 40 77 4a be 5f 0f 30 bd a0 d6 83 be
       0.012414964 -0.19772053 -0.04298341 -0.25749683
000040 6c fc 18 3d 5b a0 a4 bd 53 f7 7e be 81 ff 00 bf
       0.037350103 -0.08038398 -0.24899034 -0.5038987
000050 24 ed 42 be 53 81 15 be b5 97 08 3e 86 24 41 3e
       -0.19035774 -0.14600115 0.13339122 0.18861589
000060 5f 8a ac 3c fb 5e c4 bc 8c f9 22 3d d9 8b 30 3e
       0.021062074 -0.023971071 0.039788768 0.17240848
000070 db 01 50 bd ca 42 80 bd 5d 86 dd ba 7f 4d 40 3e
       -0.05078302 -0.06262739 -0.0016901005 0.18779562
000080 1a 58 10 be f5 79 dc 3b bb 5c 38 3d 2b a1 7a bc
       -0.14096108 0.0067284056 0.04501031 -0.0152972145
000090 20 66 84 be c3 15 d5 bd f5 e4 9a be 33 67 08 3e
       -0.25859165 -0.10404541 -0.30252805 0.13320617
0000a0 67 ef 17 3e 5a e6 49 be 5e 44 58 3e fd 58 50 3e
       0.14837418 -0.19716778 0.2111983 0.20346446
0000b0 e8 12 46 3c ec 11 d2 bb a5 01 85 bd 9d e3 fd bc
       0.012089469 -0.006410828 -0.06494454 -0.030992324
0000c0 24 06 29 be 76 79 18 3d 22 ff 95 3d 07 aa e2 bd
       -0.16506249 0.03722521 0.07324053 -0.110675864
0000d0 5b 9e 03 be b7 02 b9 3d 04 67 af 3d 9e 3f 42 3e
       -0.12853377 0.09033721 0.085645705 0.1896958
0000e0 c5 b2 d6 bd b5 fb 73 be 93 69 38 3d 01 d5 19 be
       -0.10483316 -0.23826487 0.04502256 -0.15022661
0000f0 c9 79 a0 bd 5c f8 4c 3d bf cc 50 3d 69 49 84 be
       -0.07835729 0.05004154 0.05097651 -0.25837258
000100 41 b9 7a be 82 82 da 3d 3c f3 ce bd 9c 56 00 3e
       -0.24484731 0.10669424 -0.10104987 0.12533039
000110 05 e6 57 3e c3 25 c6 bd f2 7f d9 bd 98 d0 04 bd
       0.21083839 -0.09675171 -0.10620107 -0.032425493
000120 7d 19 b7 bd cc e2 a8 be 79 1c 4d be e5 25 20 3e
       -0.089404084 -0.32985532 -0.20030393 0.15639456
000130 27 de 7e be 5d f0 26 be bd 95 f0 bd c1 80 21 be
       -0.24889432 -0.16302629 -0.1174731 -0.15771772
000140 82 d3 75 3d 7d 3f 1c be 53 74 2a 3d 8d b8 5c 3e
       0.060016163 -0.15258594 0.04161484 0.21554776
000150 d3 e3 91 bd 8b b8 d9 bd 77 73 2e 3d c4 01 7e 3b
       -0.07123532 -0.10630902 0.042590585 0.0038758377
000160 28 bb 76 be 7c 9f 37 be c5 f9 30 be 30 3f 4e ba
       -0.24094832 -0.17931932 -0.1728278 -0.0007867692
000170 4c bd ba 3d af 92 3e 3d 59 e3 bb bd 71 05 f5 be
       0.09118137 0.046526607 -0.091742225 -0.47855714
000180 97 c1 c5 bd 69 ce da 3c 58 8f 06 bf ea 65 86 3d
       -0.09656065 0.026709752 -0.52562475 0.06562407
000190 6d 0e 39 3e 2d b7 3a be 05 0e c7 bd d8 9e 24 bd
       0.18071909 -0.18233939 -0.09719471 -0.040190548
0001a0 e7 ba 15 3d b9 27 82 bd a9 71 c1 3d c6 0c bd 3d
       0.036555197 -0.06355233 0.09445507 0.09230952
0001b0 d7 1b 76 bd d0 e0 83 bd c2 7b 47 3e db f9 9a bd
       -0.060085144 -0.06439364 0.19480804 -0.075671874
0001c0 02 e4 87 3b 0d de 9e bd d3 86 63 3d fd a6 6e be
       0.0041470537 -0.077571966 0.0555485 -0.23305888
0001d0 70 b8 a0 bd 0d b0 e2 bc e8 41 1c be c2 88 9f be
       -0.07847679 -0.027671838 -0.15259516 -0.31159025
0001e0 e9 f2 ab 3e 5d 31 a8 bd 33 10 19 3d 91 26 86 bd
       0.33583763 -0.0821254 0.037368964 -0.06550325
0001f0 56 0d 74 3d d6 66 f6 bd 13 34 d8 bc 5c 39 a9 3d
       0.05958303 -0.12031333 -0.026392018 0.082628936
000200 e8 d2 ab bd 3a 6e 0a be dd 90 a9 3e 5b 73 c3 3d
       -0.083898365 -0.1351861 0.33118334 0.09543487
000210 1b 9d 85 bd 01 78 03 bd d4 52 7c 3c 92 57 44 3c
       -0.06524106 -0.032096867 0.015400607 0.011983769
000220 58 89 63 bd 07 94 85 3d 26 57 83 bc 18 10 4c bd
       -0.055550903 0.065223746 -0.016032767 -0.049820036
000230 5c 98 76 bd 74 a6 aa bd 7b 67 98 3d 92 c7 00 be
       -0.060203895 -0.0833253 0.07441612 -0.1257613
000240 7a b7 0d be b1 62 d6 be a6 1f 7f 3c 2a 7c f7 bd
       -0.13839522 -0.4187217 0.01557151 -0.12084229
000250 d5 7d 7f 3d 70 50 f1 3c 46 ea cd 3c 37 7e 58 bd
       0.062375862 0.0294573 0.025136124 -0.052854743
000260 4b 9d bf 3d cd 2d c0 bd a0 89 20 3e 2c 89 d8 3c
       0.09356173 -0.09383736 0.156775 0.026432596
000270 a7 67 a5 3c e9 5a b9 be d5 ea d8 3c ea 35 f1 bc
       0.020191027 -0.3620217 0.026479164 -0.029444654
000280 e6 29 f5 bc 31 ea 59 be 1a c6 1f bd 6f de bb bd
       -0.029927205 -0.21280743 -0.039007284 -0.09173285
000290 85 70 f5 bd 92 56 a9 bd 96 05 51 3d 55 de 61 3d
       -0.11984352 -0.08268465 0.051030718 0.055143673
0002a0 80 61 8a bd 95 61 82 be d0 09 3a 3d ad ea 94 bd
       -0.06756878 -0.25465074 0.045419514 -0.07271323
0002b0 21 b6 4d bd 6e 1e 8c bd 6c a7 34 3e 71 a9 df 3d
       -0.05022252 -0.068417415 0.17641991 0.1092099
0002c0 02 3f 2a 3c 9f a2 52 3d 0c cf a3 39 b3 75 e8 3c
       0.010390999 0.05142462 0.00031244045 0.028376436
0002d0 5c 60 19 bc 8c 1f 9b bc b5 67 19 bd 52 ab 0f 3e
       -0.009361353 -0.018935941 -0.03745242 0.14030197
0002e0 1a 30 0e 3d 95 26 36 3d 2d 34 3f 3d c9 63 f3 3d
       0.034713842 0.04447039 0.046680618 0.11884267
0002f0 ee 08 bd bb e5 eb 1a be 9a 07 7a bc d4 c9 a8 bb
       -0.005768887 -0.15129049 -0.015260601 -0.005151013
000300 c8 fa 6e 3d 28 d7 a2 bd d1 04 9b bd 72 78 4c bd
       0.058344632 -0.07951194 -0.07569278 -0.049919553
000310 97 84 61 3e ac 6d 8a 3e fd 1d de bc d9 c3 88 3d
       0.22023235 0.27036798 -0.027113909 0.0667798
000320 fb 20 30 3d a6 6b 1c be ea da 28 3e 6b 49 11 3e
       0.043000203 -0.1527544 0.16489759 0.14188163
000330 2a ff 70 3d 14 1f de 3d 63 3e ad bd 32 7b 97 bd
       0.058837093 0.108457714 -0.08459165 -0.073965445
000340 e6 00 1c be 26 a7 a0 bb 80 54 90 3d bb 6a 41 3d
       -0.15234718 -0.004902738 0.07047367 0.047220927
000350 9f 7a da bd 39 a4 55 3d 92 21 77 bd 1c 61 12 bd
       -0.10667919 0.052158568 -0.06033475 -0.035737142
000360 04 20 43 bd 0d 22 d7 bc 00 35 91 bc e4 6f 1b 3c
       -0.047637954 -0.026261354 -0.017725468 0.009487126
000370 4d 0f 33 bb 79 07 14 3d 22 ff 28 be e7 36 87 3d
       -0.0027322352 0.03613994 -0.16503575 0.06602269
000380 71 a6 be bd 75 10 b2 bd 95 74 5e 3b d8 3e 06 3e
       -0.0930909 -0.08694545 0.0033944 0.1310991
000390 62 7c 00 3e 14 a6 14 3e 6f fc d8 3d 0f 97 e2 3d
       0.12547448 0.14516479 0.10595023 0.110639684
0003a0 e8 db 3d 3d 00 84 e9 bd 9e 0f 9f bd aa af 27 bd
       0.046352297 -0.1140213 -0.077666506 -0.04093901
0003b0 5f 0c ca 3c 1e 21 9e 3d 83 8e 82 bd a2 60 93 bc
       0.024664102 0.0772116 -0.06374838 -0.017990414
0003c0 2f 17 ad 3c cf 52 34 3d 55 40 9c 3c 5d 5d b1 bc
       0.021129219 0.044024285 0.019073645 -0.021650964
0003d0 b7 16 99 3d 6a 2f 08 bd 43 51 eb b8 5e 74 cf 3d
       0.07475036 -0.033248343 -0.000112208094 0.10129617
0003e0 8b 8f 40 3d aa 2e 2b be 8b 38 92 3c 4f 26 a4 bd
       0.047011893 -0.1671702 0.017849227 -0.08015119
0003f0 b6 66 a2 3d c7 63 2b bc aa e8 f1 bb ec c4 37 bd
       0.07929747 -0.0104608005 -0.007382472 -0.044865534

actor.2.bias f4 [128]
000000 1c 33 48 bb 0a a8 26 3d 7f 76 a9 bc a8 36 ef 3d
       -0.0030548042 0.0406876 -0.020686386 0.11680347
000010 11 02 e2 3b af e2 fc bd 2d e3 9d 3c ec ff ed bd
       0.006897219 -0.12347924 0.019273365 -0.11621079
000020 77 4b 27 3d 7f b7 cd bc 36 12 8a bc 34 71 32 3d
       0.040843453 -0.025111912 -0.016854387 0.04356499
000030 6e 3f 7d bd f4 8a 6a 3d 26 9e ba 3d 44 1c 53 bd
       -0.06182807 0.057261422 0.09112196 -0.051540628
000040 ca 85 13 bd db ed 09 3d d7 3d ce 3d 9e 92 a6 3d
       -0.036016263 0.033674102 0.10070389 0.08133434
000050 5e da 81 bd 71 ee d9 3d 65 fd 97 3d 23 7f 31 3c
       -0.06340478 0.10641182 0.07421378 0.010833534
000060 87 b2 a5 3d e2 e2 05 3c f2 02 db bd 7d 50 a5 3c
       0.08090692 0.008171769 -0.10693921 0.020179981
000070 24 99 ce 3c 9c 1d 20 bd d4 e4 98 3d 09 52 c2 3d
       0.025219508 -0.039090738 0.074655205 0.09488303
000080 3a 16 bd 3c 2b 5c 23 bd be 6f a3 3c c4 07 47 3c
       0.023081888 -0.03988282 0.019950744 0.012147848
000090 fa 5a 84 bd 60 dc 39 bc 7e 44 3c bd 8b a0 86 bd
       -0.06462665 -0.011344045 -0.045963757 -0.0657359
0000a0 75 be 77 bd 56 8c aa b9 3f 76 f8 3c 5e 83 16 bd
       -0.06048437 -0.00032529485 0.030329822 -0.036746375
0000b0 74 05 c6 39 39 2e e4 3c 6a 76 9e bc d7 17 8b 3d
       0.00037769566 0.027854072 -0.019343574 0.067916565
0000c0 0b bf 62 3d 09 6d 47 3d 06 d9 d5 3c 5c 60 7f 3d
       0.055357974 0.04868797 0.026104461 0.062347755
0000d0 17 03 cb bc 11 99 dc bd 47 c5 d1 bd 31 b7 02 bd
       -0.024781747 -0.107713826 -0.10242706 -0.031912986
0000e0 d9 a2 c4 3c 60 20 09 3d a3 ab 50 3c 56 ef 04 bd
       0.024003433 0.03347814 0.012736234 -0.03245481
0000f0 95 0c 6b bd f8 4f 80 bd 9c e1 76 3d 4a f5 ac 3d
       -0.057385046 -0.06265253 0.06027375 0.08445223
000100 28 99 b6 3d 62 1c 90 bc a6 df 0d 3d a2 df 18 3d
       0.08915931 -0.017591659 0.034637116 0.037322648
000110 f3 5c b9 3c 2c c1 62 3c be 70 3b bd 36 4f 10 b9
       0.02262733 0.013840001 -0.045761816 -0.00013762419
000120 82 a5 b8 3d 88 49 88 bc a4 a1 7e 3b 17 dc 29 bd
       0.09015943 -0.016636625 0.003885367 -0.04146966
000130 30 44 bc 3d fb eb ed bb 13 de c5 3d 91 c3 b6 bc
       0.09192693 -0.007260797 0.09661498 -0.02231005
000140 e7 21 de bc 3a b8 bf 3d 3a 36 24 ba 99 d5 9f bd
       -0.027115775 0.0936131 -0.0006264184 -0.078044124
000150 1b 8f 5c 3d b9 91 88 3d 4a 54 46 bd 1c ab 1b 3d
       0.053847414 0.066684194 -0.048420228 0.03800498
000160 6a ff 46 bd 4f 27 5c bd 08 d5 97 bd 42 e0 6c bc
       -0.048583426 -0.053748425 -0.07413679 -0.014457764
000170 5e 07 84 3a b5 c2 92 bb b2 58 e7 bd 89 4d 05 bb
       0.0010072996 -0.0044787773 -0.11296214 -0.0020340404
000180 5b 9c 68 3d 0a ab 9e 3d d2 bc d1 3c 33 a1 87 3d
       0.056789737 0.07747467 0.025602732 0.06622543
000190 6d ec 7c 3d 3e 35 b3 bd f8 32 c3 3c 9b ed 64 bd
       0.06174891 -0.087503895 0.023828015 -0.05589066
0001a0 0b 36 6d 3b a3 cd 0c be 83 bf 54 bd 08 c2 4f 3d
       0.0036195542 -0.13750319 -0.051940452 0.050722152
0001b0 d5 ae 18 bd e4 24 87 bd f5 f4 fb 3c ef 2f 63 bd
       -0.037276108 -0.06598833 0.030756453 -0.055465635
0001c0 ce ca ae 3c e4 7a 56 b9 20 ab 53 3d d2 1f 55 bd
       0.02133694 -0.0002045441 0.05167687 -0.0520323
0001d0 43 83 83 3a 7b a0 86 3d 89 df bc bd dc ce 48 bd
       0.0010033626 0.06573578 -0.092223234 -0.0490254
0001e0 be 5d f7 ba a4 ee 5f bd e7 0d 64 3c 10 d2 cf 3c
       -0.0018872542 -0.054670945 0.01391933 0.02536872
0001f0 50 ff 59 3d ff 57 d9 bc 77 39 83 bd ff 3b 43 3d
       0.053222 -0.026531218 -0.06407445 0.04766464

actor.4.weight f4 [64, 128]
000000 c5 c4 e7 3e 0a 05 42 3e 2d ed d9 3c 82 48 02 3e
       0.4526731 0.18947235 0.026602352 0.12722972
000010 d3 c9 9d 3c 13 9a 29 be 8c 56 a6 ba e2 99 2e be
       0.019261276 -0.16562681 -0.0012690588 -0.17050889
000020 79 9c 80 3e 00 18 b5 bc d1 7a 8d bd e6 60 f4 3d
       0.2511938 -0.02210617 -0.06908191 0.119325444
000030 c1 31 71 be 99 46 be 3d 52 31 b7 bd 4f 9b d5 bd
       -0.23554136 0.09290809 -0.08944954 -0.104300134
000040 6d 34 b1 3d 60 14 13 3d f8 bf e5 3d c8 11 40 bd
       0.086525775 0.035908103 0.11218256 -0.046891958
000050 47 2e 18 bc ff 66 ea 3d a3 20 e8 bd 0f 22 b5 3c
       -0.009288377 0.11445426 -0.1133435 0.022110967
000060 ec b6 26 bd 59 6b 31 3e 5f 50 4d bd f3 2b dc bd
       -0.04070179 0.17326106 -0.050125476 -0.1075057
000070 60 89 40 bd ad 1e 8e bd 66 6e d2 3d 1b 7b 8c 3d
       -0.04700601 -0.06939445 0.10274963 0.06859418
000080 7b 83 40 3d e8 8a 2e 3e 2e ea d7 3c 0f c8 2f be
       0.04700039 0.17045176 0.026356783 -0.1716616
000090 33 2e 43 be 4b a3 94 3d 17 da 95 be c7 c6 79 3e
       -0.19060592 0.07257708 -0.29267952 0.24392234
0000a0 5f 84 64 3e 44 6f be bd 7d 6f 33 3d b3 dc e8 bd
       0.2231612 -0.09298566 0.043807495 -0.1137022
0000b0 32 56 3f 3e f5 54 c8 bc a6 63 4c bd 21 3a 54 3d
       0.18685225 -0.024454573 -0.04989972 0.05181325
0000c0 36 63 f6 bb 00 31 da 3d 6f 95 85 3e 65 83 7d 3e
       -0.007519151 0.10653877 0.2609057 0.24757154
0000d0 da 09 53 bd ea cb 80 bd fa 5d 4d bc ba a6 86 3e
       -0.051523067 -0.062888935 -0.012534613 0.26299077
0000e0 e8 d2 0e 3d e2 a1 36 3e 03 5d f3 bd 5b 2c 20 3e
       0.034869105 0.17835191 -0.11882975 0.1564192
0000f0 45 53 df be 0d f4 96 bd f7 c1 6c bd 97 b6 63 be
       -0.43618217 -0.07370768 -0.057802167 -0.22237621
000100 4e 9c 67 3d 26 04 80 3d cb 1f 6d 3d a2 57 1c bd
       0.05654555 0.06250791 0.05789165 -0.03816951
000110 ec 29 ff 3d 16 00 b1 bd 27 c5 ba be 54 c2 21 be
       0.12459168 -0.086425945 -0.3647854 -0.15796787
000120 c0 7f f4 3c 1c 6a 5d bd 4b 48 01 bd ff 2a 26 bc
       0.029846072 -0.054056272 -0.031563085 -0.010142087
000130 f0 79 05 be 31 bf 21 3e f1 dc bf bd 55 4e 94 3d
       -0.13034797 0.1579559 -0.09368313 0.07241503
000140 f8 61 5b 3e 24 d8 9f 3d dd 4a 68 3d 00 ac d4 3b
       0.21424091 0.078048974 0.05671202 0.0064902306
000150 e6 af 54 3c 34 15 56 bd 57 c3 1f 3d bd de 92 3c
       0.012981391 -0.052266315 0.03900465 0.017928476
000160 0c 08 e3 bd 00 f4 fa 3c c8 33 8b 3d 67 53 9c bb
       -0.11085519 0.030633926 0.06796986 -0.0047706845
000170 93 37 92 3e b0 92 56 3e da a7 46 bd ab 3e f4 3e
       0.28558025 0.20954394 -0.04849992 0.47704062
000180 06 3a b3 3d 0d e6 23 bd a1 fa b5 bc 1d 16 8a bb
       0.087513015 -0.040014315 -0.022214236 -0.004214062
000190 d7 70 5e 3d 53 89 71 bd 80 16 3c 3e f5 f7 55 3e
       0.05430683 -0.058968853 0.18367958 0.2089537
0001a0 20 85 1f be e1 fa 38 3e 0b 35 46 be b0 60 f7 3d
       -0.15578127 0.18064453 -0.19356172 0.120789886
0001b0 5c a1 2f 3e 93 f7 b6 3d 95 05 94 bd f0 3c ad 38
       0.17151397 0.0893394 -0.07227627 8.260633e-05
0001c0 64 36 1d 3d e9 0e 36 bc 34 a2 98 3d fe 1a 51 3c
       0.03838195 -0.011111953 0.07452813 0.012762783
0001d0 c8 98 32 bd 13 f5 cb be 17 77 bb 3e 44 02 13 bd
       -0.043602735 -0.39835414 0.36614296 -0.035890833
0001e0 ce 43 91 bc 2e 39 93 bd bc ab ab 3c 37 03 ca 3d
       -0.017732527 -0.071886405 0.020955913 0.098638944
0001f0 6b 6e 02 bd a6 b4 0b be 67 7d ec 3d c9 e3 d4 3d
       -0.031843584 -0.1364313 0.11547356 0.10395009
000200 cd 37 0a be 08 44 85 3d 18 7c 22 bd 9a 51 ae bd
       -0.13497849 0.065071166 -0.039669126 -0.08511658
000210 aa f8 2a 3e d7 8c c9 bd ee 15 4c bc e3 d4 21 bd
       0.1669642 -0.09841316 -0.0124564 -0.039509665
000220 1d 9d 01 be a6 d7 73 bc f3 93 aa bd 9e ec 53 3d
       -0.1265759 -0.014882958 -0.08329 0.051739328
000230 c2 91 23 bd 0c 98 95 3d 5d a0 ba 3d 20 29 5e 3e
       -0.039933927 0.07304391 0.09112618 0.21695375
000240 4b 5b 18 bc b7 0c fc bd b0 38 a2 3c 1f 60 d1 3e
       -0.00929911 -0.12307113 0.019802421 0.40893647
000250 93 85 69 bd ff b9 66 3e 8f 43 c8 bc 88 8f 0e be
       -0.057012152 0.2253189 -0.024446277 -0.1392194
000260 c8 35 d1 3b 6a f0 8c 3e 7f 01 39 3d c8 e9 ad 3b
       0.006384585 0.2752717 0.045167442 0.00530741
000270 0b 56 ac 3d b3 be 6a be 09 df fc bc 22 ab 71 3d
       0.08414849 -0.22924308 -0.03086807 0.059001096
000280 72 14 46 3e 59 3c 45 3d 82 99 15 3c 45 6f ad 3b
       0.19343737 0.048153255 0.009130837 0.0052928054
000290 ab 05 8f bd 7c 49 89 bd a8 a0 55 bc 99 37 a0 3d
       -0.06983503 -0.06703469 -0.013038792 0.078231044
0002a0 cd 27 9e bd d0 c4 4e 3d 85 7a e6 3d 82 c1 bc 3c
       -0.07722435 0.050480664 0.112538375 0.02304149
0002b0 b6 05 12 3e b5 37 ba bc 55 7f d6 3d b7 a7 7e 3d
       0.14259991 -0.022731641 0.104735054 0.062171664
0002c0 e2 04 4a 3e f6 33 0f 3d ff 58 1d 3e a3 92 8a 3d
       0.19728425 0.034961663 0.1536598 0.0676625
0002d0 ca 29 c0 3c 26 f4 3b 3e c5 d8 34 3c 46 29 37 3e
       0.023457427 0.18354854 0.01103801 0.17886838
0002e0 db 6c 38 3e 0a 1b 61 3e 9c 67 a6 3d 7a 8d 3c bd
       0.18010275 0.21982971 0.08125231 -0.04603336
0002f0 6b 81 5b 3e 68 8c 51 3d 86 2b 10 bd de b2 10 be
       0.21436088 0.051159292 -0.035197757 -0.14130732
000300 56 55 7d bd c6 c8 0a 3d 37 81 69 3c 0c 5b a1 3d
       -0.06184896 0.03388288 0.014251999 0.07878694
000310 46 29 f1 ba e3 d5 b1 bd fa ea 6a bd dd 7a 40 3e
       -0.0018399141 -0.08683374 -0.057352997 0.18796869
000320 68 1d da 3d a7 b4 bb bb 41 b2 c8 3d 50 1b 0c 3e
       0.1065014 -0.0057283225 0.09799624 0.13682294
000330 66 da 20 3d f4 5a 1d 3e 50 2e 19 3d 95 69 59 be
       0.03927078 0.15366727 0.037397683 -0.21231683
000340 19 3b 9e bd ad 86 55 3e c8 c6 eb bc ac 7b 14 be
       -0.07726116 0.20852156 -0.02878131 -0.14500302
000350 00 be ba 3b 3f 1f c1 ba 51 6a 9a bd db c7 1d 3e
       0.0056989193 -0.0014734044 -0.075398095 0.1540827
000360 d3 f8 dc bd 24 51 4f 3d 83 08 c8 bd 78 4e bc 3d
       -0.10789647 0.05061449 -0.097672485 0.09194654
000370 09 41 91 3d 76 1b ce bd e7 8a 34 3e 0f f6 2a be
       0.070924826 -0.100638315 0.17631112 -0.16695426
000380 d2 ac a9 bc 8b fb ac 3d 0d 3b 08 3e 7b 8a 6b 3d
       -0.02071229 0.084464155 0.13303776 0.057505112
000390 d0 22 7a 3c 85 8e e5 3c da ae 95 bc ff 0d 08 3e
       0.015267089 0.02802206 -0.018271852 0.13286589
0003a0 48 95 4b 3e 84 01 b0 bd da 3e 0e bc c1 94 f9 3d
       0.19881165 -0.08594039 -0.008681977 0.12186576
0003b0 3f 70 a2 3d c9 fe 5d 3d 62 0e 2e 3e db ad f4 bd
       0.079315655 0.05419806 0.16997674 -0.11947223
0003c0 81 83 30 3e fb 29 82 3d ba 24 66 3e f7 29 80 be
       0.17237665 0.063556634 0.22474948 -0.25032017
0003d0 e3 c6 17 3d 95 65 42 3a ed b7 2c be d5 cc 07 be
       0.037054908 0.00074156496 -0.16867037 -0.13261731
0003e0 9b 3b 02 be f0 50 13 be b8 86 e4 3d 7b 8e 53 be
       -0.1271805 -0.14386344 0.11158508 -0.2065982
0003f0 b7 ff 85 3c 29 94 a9 3d 2e 58 93 bd 2a c1 34 be
       0.016357286 0.082802124 -0.07194553 -0.17651811

actor.4.bias f4 [64]
000000 d6 0c f6 3d 15 44 e1 3c 09 40 2a 3d ad b6 c4 3c
       0.12014167 0.027498284 0.041564975 0.024012888
000010 3e b1 32 3e b6 8e b2 3d 18 40 c7 3b 49 36 13 bc
       0.17450425 0.08718626 0.0060806386 -0.008985111
000020 80 c7 d2 3d 27 53 a6 3c cc 0c bf 3d 44 3e f0 3d
       0.10291958 0.020303322 0.09328613 0.11730626
000030 71 34 3c bb 64 35 16 bd 58 7d f4 3d ef 37 3f 3d
       -0.002871778 -0.03667201 0.1193797 0.0466842
000040 64 66 44 bc 96 81 0c bd 2d b0 41 3d 9a d3 e9 3d
       -0.011987302 -0.03430327 0.047287155 0.11417313
000050 68 87 88 3d 92 ae 56 bd b9 85 c9 3d 83 03 b0 3a
       0.06666452 -0.052412577 0.09839959 0.0013428781
000060 a3 51 4b bc 94 cf a3 3d 64 7c 9b bd 39 66 18 be
       -0.0124096 0.07998577 -0.07592085 -0.14882745
000070 f9 72 16 3d 21 96 fb bc c4 0f 08 bc d4 de 48 bd
       0.03673074 -0.030711235 -0.00830454 -0.04904063
000080 2b b5 1f bd ce ad 79 bd 58 9c c4 3d e9 96 a9 3d
       -0.038991135 -0.06095677 0.09600133 0.08280737
000090 65 e2 22 3d a0 8a f1 3d 6b 78 34 3d dd 8d 8d 3d
       0.039766688 0.11794019 0.044060152 0.06911824
0000a0 e4 22 c4 bd dd 30 c7 3c 91 4b 74 3d 6e c4 7d 3c
       -0.09576967 0.024315292 0.05964238 0.015488727
0000b0 5d 17 0c 3d bb 2d cf 3c 62 ee 97 3d 24 0c 0b 3e
       0.03420197 0.02529036 0.07418515 0.1357885
0000c0 51 4d eb 3d e5 7d 8a 3d 97 b0 8e bb 95 a9 37 3d
       0.11489356 0.06762294 -0.0043545472 0.04483946
0000d0 f6 ca 19 3c 49 25 4a 3d da 37 15 3e b7 b4 93 3d
       0.009386769 0.049351964 0.14572087 0.07212203
0000e0 6c 27 f2 3d a4 3f a7 3d 7e c3 74 bc a7 3f f9 3c
       0.118239254 0.08166435 -0.014939187 0.03042586
0000f0 1a 81 42 bd 07 d6 80 3d 8e 26 3b 3d 7b 13 06 bd
       -0.047486402 0.062908225 0.045691065 -0.03273342

actor.6.weight f4 [16, 64]
000000 7e aa c6 3d f3 e1 b9 be 15 f0 e1 bd 59 41 8b be
       0.097004876 -0.36305198 -0.1103212 -0.27198294
000010 74 4d f4 3d c8 43 bd 3e 5f 0f 8e be d3 fc 24 3e
       0.119288355 0.36965775 -0.27746102 0.1611207
000020 6f 85 85 3e 04 1a c4 be 01 63 c9 be fe 6a 1f be
       0.26078364 -0.38301098 -0.39333346 -0.15568158
000030 c1 4c a1 3d e9 f7 f7 3d 30 3d 12 3e 36 13 76 3e
       0.07875968 0.12107832 0.14281154 0.24030766
000040 ba a0 9a be 0e 1c ad be 16 c4 90 be 4e 1d 49 3e
       -0.3020075 -0.33810467 -0.28274602 0.19640085
000050 be 17 5a 3e 09 44 8e 3e bb 32 cf be b9 c7 32 be
       0.2129812 0.27786282 -0.40468392 -0.17459
000060 ed d8 7d 3c 9e f3 39 3e 5d ef 1d 3e a7 8f c0 3c
       0.015493614 0.18159339 0.15423341 0.023505999
000070 95 57 95 be 51 97 b0 be 2f 96 a7 bd 5d a9 25 be
       -0.29168382 -0.34490445 -0.08182942 -0.16177888
000080 2a ea 91 be c9 87 96 3e d8 48 5b be 97 04 a7 bc
       -0.28498966 0.2940047 -0.21414506 -0.02038793
000090 92 7c de be ca 8d 9d be 1e 7c 1e bd c9 2f 42 3e
       -0.43454415 -0.3077224 -0.038692586 0.18963541
0000a0 04 e7 14 be 58 84 d4 bd 12 9a 8e 3d 5e 18 ec 3c
       -0.1454125 -0.10376805 0.0696298 0.028820213
0000b0 1f 0f 13 be fa 87 41 3e 2d f7 39 be dc 08 7b 3d
       -0.14361237 0.18899527 -0.18160696 0.061287746
0000c0 01 f4 9b 3c 26 15 98 bd ed 10 89 be e2 cd 06 3e
       0.019037249 -0.07425909 -0.26770726 0.13164476
0000d0 1d d9 81 3e 88 c1 6e 3e d2 79 5f 3b 11 0d 47 be
       0.25360957 0.23316014 0.003409971 -0.19438578
0000e0 a6 a1 9e 3e a3 a0 ae 3e 75 d0 be 3d 3e 6e 6f bd
       0.30982703 0.3410693 0.09317104 -0.058454745
0000f0 29 c8 d6 bb e8 cc ee bb 94 3a 58 3d 11 b1 29 be
       -0.0065546227 -0.0072876103 0.05279024 -0.16571452
000100 39 eb 32 be d2 c7 31 3e 8b 1b e7 3c 00 07 37 3e
       -0.17472543 0.17361382 0.028211376 0.17873764
000110 cc 64 5e 3d 7d 47 eb be 60 83 7d 3e 2f 63 bf be
       0.054295346 -0.4595298 0.24757147 -0.3738036
000120 e9 4f a5 be af 05 a0 3e c3 54 89 be 8c d2 33 3e
       -0.3228753 0.31254336 -0.2682248 0.17560786
000130 04 3e 8b be 93 fc 89 bd 0b e9 dc 3d 58 2d c9 3d
       -0.27195752 -0.06737628 0.10786637 0.09823102
000140 a6 94 1e bd 3a 9d c7 be 17 6c 9d 3d 82 fb 0c 3e
       -0.03871598 -0.38987142 0.07686632 0.13767818
000150 b1 d1 e9 bc ce f0 f4 3c 02 07 a1 3e 1b f7 26 3d
       -0.028542371 0.02989998 0.3145066 0.040763002
000160 1e eb 06 bd 3a d7 8d bd f2 71 99 be 7d e4 7e 3e
       -0.03293907 -0.06925817 -0.29969746 0.24891849
000170 49 32 17 bd 2e c7 9d 3e 68 7c 07 3e b4 b1 30 3e
       -0.03691319 0.30816025 0.13231051 0.17255288
000180 c1 bc 29 3e 8d a7 05 bf 54 65 92 3e 97 8c ef bd
       0.1657591 -0.5220879 0.28592932 -0.11696737
000190 38 3c 76 3e cf 25 4d 3e 14 cb 8d be 32 e7 14 3e
       0.24046409 0.20033954 -0.27694 0.14541319
0001a0 27 e8 81 3e e6 23 cb 3d 8f 11 08 3e e3 3d c8 be
       0.2537243 0.099189565 0.13287948 -0.39109716
0001b0 c9 a1 b9 be 38 5e 14 bd 7a c6 6c 3e 44 5c 2f be
       -0.36256245 -0.036222667 0.23122588 -0.1712504
0001c0 be cc a0 be 9b 25 34 3e 17 82 d6 3e 83 54 53 be
       -0.31406206 0.1759247 0.41896126 -0.20637707
0001d0 2d 5d c3 be 35 2b 3c 3e f1 60 d9 3d b6 72 ff 3d
       -0.38157025 0.18375857 0.10614193 0.12473051
0001e0 d2 6e 94 be 40 5b 9d be c7 5a 94 be 59 fa 48 3c
       -0.289908 -0.3073368 -0.28975508 0.012266719
0001f0 a1 18 6e 3e 69 ce 3a 3e af 5f 7d 3d c7 9f a2 3b
       0.23251583 0.18242802 0.06185883 0.0049628946
000200 07 80 23 3e b5 16 5d 3e 2e d9 e1 bd 28 49 f4 3c
       0.15966807 0.21590693 -0.11027752 0.02982004
000210 96 1d fb bd f2 32 97 3e 7f 01 50 be 16 4a 8d 3e
       -0.122615024 0.29531056 -0.2031307 0.27595586
000220 78 58 30 3e 89 12 3b 3c f6 de ca 3d 66 5a 23 3c
       0.17221248 0.011417993 0.09905808 0.009970283
000230 bd f6 9d bc 6d 1a 40 be d3 9c db be 51 99 ef be
       -0.019282693 -0.1876008 -0.42893085 -0.4679666
000240 2a 6b 07 3e 22 86 cb 3d 0a b2 e0 3d 4d 29 4e be
       0.13224474 0.09937693 0.10971458 -0.20132942
000250 ab 2a 89 be 15 03 9c be 9f c6 12 3d ef 1f a0 3e
       -0.26790366 -0.304711 0.03583395 0.31274363
000260 e0 fc f9 3e 57 ee 35 3c 73 b0 d8 3e 0d 8c b8 3c
       0.4882574 0.011104188 0.4232212 0.022527719
000270 5d aa 0a bd 3a 30 3a 3d e5 bf 2d be 37 cf 6f 3d
       -0.033853877 0.04545615 -0.16967733 0.058547225
000280 a0 3f be bd 46 bf 4d 3e 78 ad da bd 07 e2 21 3e
       -0.09289479 0.20092496 -0.10677618 0.15808879
000290 84 00 3b 3e ea e6 90 3e 2d 7a 51 3e 4c 5b d9 3d
       0.18261915 0.28301173 0.20456763 0.106131166
0002a0 7d 5a f0 bd 0b 88 61 be b6 1e ac be a1 c8 4e 3c
       -0.11736009 -0.22024553 -0.3361718 0.012621076
0002b0 d8 d5 07 3e fd 9c 18 bf cf cb 0f be 5c d7 19 be
       0.13265169 -0.59614545 -0.1404259 -0.1502356
0002c0 c4 20 99 3b 33 b1 eb 3d 6d 98 2a be c9 e1 db 3d
       0.0046730954 0.115084074 -0.16659708 0.107364245
0002d0 7e f4 f6 bd 11 1c c1 bd 75 95 5d bd 37 96 92 bd
       -0.12058352 -0.09429181 -0.05409761 -0.071575575
0002e0 f5 8d 9e bc b4 71 88 3d 8b f7 79 3e f9 41 3c be
       -0.0193548 0.06662312 0.24410836 -0.18384542
0002f0 d8 14 b5 be 0d d2 94 be b5 1d 4d be cd 87 11 be
       -0.35367465 -0.29066506 -0.20030864 -0.1421196
000300 67 2f 93 3d a9 4b cf 3c 30 c4 90 3e c3 01 01 bf
       0.07186776 0.025304632 0.2827468 -0.50393313
000310 a2 13 87 3e 91 ce 94 3e cd 07 20 bc 81 3d 6e be
       0.26382166 0.29063848 -0.009767485 -0.2326565
000320 40 34 58 3e 60 58 64 be c5 cd be 3e 8b c7 bc be
       0.21113682 -0.22299337 0.37266365 -0.3687099
000330 b7 e0 d0 3e c1 59 62 3e bd 26 af 3d f7 ce 4f be
       0.40796444 0.22104551 0.085523106 -0.20293795
000340 36 1f 09 3e c7 7c 1c 3d c7 23 36 be f3 a5 ad 3e
       0.13390812 0.038204934 -0.17787085 0.33915672
000350 2c d9 4c 3e 8d b8 36 3d e1 fc 24 bf 69 20 10 be
       0.2000472 0.044609595 -0.6444836 -0.14074863
000360 54 5c 4e be 59 73 74 3e d1 88 2d 3e a8 0f 24 3e
       -0.20152408 0.23872127 0.16946723 0.16021597
000370 d8 3d 76 bd c4 03 65 3d a7 27 95 3e 82 0b 51 3d
       -0.060117573 0.055911794 0.29131815 0.051036365
000380 78 0e 05 3e 3b 00 fa 3e 66 49 8c be 38 58 e5 3c
       0.129938 0.488283 -0.2739975 0.027996168
000390 af f6 8e be 87 ae 5e be 09 96 c3 3d ba 6d 13 3e
       -0.2792258 -0.21746264 0.09550101 0.14397326
0003a0 db 4b 49 3e d2 ad 7c be 63 7b 03 bd 35 5e f4 3d
       0.19657843 -0.24675682 -0.032100093 0.11932031
0003b0 3d 47 4a bd 14 12 7b 3e 1b 72 ba bd 07 ce f1 be
       -0.049384344 0.24518615 -0.09103795 -0.472275
0003c0 01 44 8b bd 73 cc 90 bc 9a b1 da bd 62 0c 27 bd
       -0.0680008 -0.017675614 -0.10678406 -0.040783294
0003d0 eb 18 01 3f f7 5a 0d be 1f 71 8c 3e b2 c8 4a bd
       0.50428647 -0.13804232 0.27430055 -0.049507804
0003e0 54 08 3d be 91 2f 82 3e 2e 19 44 3d 79 4d 89 be
       -0.18460208 0.25426915 0.047875576 -0.2681692
0003f0 91 9b 02 3e fa a8 92 bd e6 56 cf bd 27 71 48 be
       0.12754656 -0.07161136 -0.101239964 -0.19574414

actor.6.bias f4 [16]
000000 05 37 bc bd 07 b4 00 be 79 c7 da bb 69 26 9a bd
       -0.09190182 -0.12568675 -0.006676611 -0.075268574
000010 5f 55 ce bc 7f 98 41 3d 23 e6 be bd 30 29 d3 3d
       -0.025187192 0.047264572 -0.09321239 0.1031059
000020 50 07 ae bc 02 a1 c3 3d 99 70 f6 3d b7 dd 78 bd
       -0.021243721 0.09552194 0.12033195 -0.06075832
000030 05 34 a3 3c 66 d0 23 3e 9b f0 c0 3c 2f c0 0a 3d
       0.019922266 0.15997466 0.02355223 0.033874687

critic.0.weight f4 [128, 30]
000000 7a 7f 06 be 8e f8 80 be 0e 23 e7 be 51 c6 09 be
       -0.13134566 -0.25189632 -0.45143932 -0.13454558
000010 0a 1c 4a be 68 f9 bd 3e 87 e9 d1 3d 7d 10 89 bc
       -0.19737259 0.37104344 0.1024962 -0.016731495
000020 b1 cb ea 3d b4 8b 44 3e b2 29 02 3f 57 ee 0f be
       0.11464632 0.19193918 0.5084487 -0.14055763
000030 c8 ea 52 bd c3 8f 64 be fd e4 47 be 6c fe 7f 3d
       -0.051493436 -0.22320466 -0.19520946 0.062498495
000040 83 4e 7b 3e f1 71 98 3e d5 51 fb 3d d7 2a e0 3e
       0.24541669 0.2977443 0.122714676 0.43782684
000050 c6 7f 68 bf ef 08 f6 bd 7b db af 3d 1b 2d 6b be
       -0.90819967 -0.12013423 0.085867845 -0.22966425
000060 d0 01 01 3e 41 72 5d be 62 a0 32 bf b3 10 db 3e
       0.12598348 -0.21625616 -0.69775975 0.42786178
000070 fa ab 1a 3f 14 0f 2c 3f d0 fd 58 be 09 68 82 be
       0.60418665 0.6721051 -0.21190572 -0.25469998
000080 84 2f 63 bd 22 ad 96 3d e9 2d 88 3e 9b 9a 03 bf
       -0.055465236 0.07357241 0.26597527 -0.51407784
000090 4d c6 44 3e b0 d3 16 3f 5a 07 a8 3e dd 4b 30 3e
       0.1921627 0.5891676 0.3281811 0.1721644
0000a0 6e 6f ec be 1e 3b f6 3d cf 61 28 3e e4 c7 d8 3c
       -0.46178764 0.120229945 0.16443561 0.026462503
0000b0 04 d4 e1 3e b6 fb 17 3e a0 4c 85 be 3a eb 11 b9
       0.44107068 0.14842114 -0.26035023 -0.00013915906
0000c0 6a c1 b7 bd 84 4f 83 be 40 a8 12 3e 4a 48 cb bd
       -0.08972438 -0.25646603 0.14321995 -0.099258974
0000d0 a5 d7 85 3d ac ea 8c 3e 4d 15 d2 bd a3 6e 51 be
       0.065352716 0.2752279 -0.10257969 -0.20452361
0000e0 2c 36 46 bf c0 bd 1e 3f c7 11 1b be 2b 7e 6c bf
       -0.7742641 0.62008286 -0.151435 -0.9238002
0000f0 98 3a 81 3e 7b 90 9d 3e c4 df 07 3f 55 f2 f1 3e
       0.25240016 0.30774292 0.53075814 0.47255197
000100 17 89 4b 3f 6a 9f fa 3b b6 81 7b 3e df 9d 2e 3e
       0.7950606 0.007648398 0.245612 0.1705241
000110 a5 29 93 3e ac 25 59 3e d0 62 c6 be 53 b1 08 3e
       0.2874271 0.21205777 -0.38747263 0.13348894
000120 05 e1 bd 3e 40 b5 c4 3d 51 c2 8e 3e 2a a3 79 3e
       0.3708574 0.09604883 0.27882627 0.24378648
000130 cd da 77 3e c5 f7 43 3e 30 14 60 3e ca 26 da 3e
       0.2420456 0.19137485 0.21882701 0.4260772
000140 12 b8 7c 3e 42 1c 9f 3e 86 21 91 be b7 13 25 3d
       0.24679592 0.31076247 -0.2834589 0.040302005
000150 58 98 98 3e 52 ae 0d 3e b1 11 46 bd 12 6f b1 be
       0.2980373 0.13836029 -0.048356716 -0.34655052
000160 c1 44 70 3e c7 61 89 be e6 5a a1 be eb b4 31 bf
       0.23463728 -0.2683241 -0.31514663 -0.69416684
000170 84 57 09 bf db 1c 33 bf 0b af 9a be 26 8e bb be
       -0.53649163 -0.69965905 -0.30211672 -0.36631888
000180 1b 22 ad be 6e 73 00 be 28 46 95 3e 0b e3 b7 3d
       -0.33815083 -0.12544033 0.29155087 0.08978852
000190 94 6d 2b be 05 2d 17 bb ad 3a cb 3d af a0 ab bd
       -0.1674102 -0.0023067605 0.09923301 -0.08380257
0001a0 ea 2c 61 3e f3 40 4a be bd a9 1e be 5a 7b de be
       0.2198979 -0.19751339 -0.15494438 -0.43453485
0001b0 c1 4c d7 3e 1c 1f 63 3e ec ac bb be 55 06 17 bf
       0.42050746 0.22179836 -0.36655366 -0.58994037
0001c0 63 94 3d 3b 60 b3 e1 bc f0 12 15 3d 10 91 e3 3d
       0.0028927557 -0.027551353 0.036395013 0.11111653
0001d0 8f eb 7c 3e d1 24 e9 be d3 aa 28 bf 82 5d 8f bf
       0.24699233 -0.455359 -0.6588566 -1.1200411
0001e0 61 d6 d5 be b5 10 a3 be 86 06 d1 be 16 42 74 be
       -0.4176512 -0.31848684 -0.4082529 -0.23853335
0001f0 4c e9 06 be 60 c7 34 bd c2 91 42 bf 23 1d c1 be
       -0.13174933 -0.04413545 -0.7600366 -0.37717542
000200 32 5b 29 be a7 14 b6 be c6 59 e0 bb cc a2 f2 be
       -0.16538695 -0.3556263 -0.0068466393 -0.4738983
000210 5e 9e 18 bf e1 7a da be 39 ee bc 3c 95 8b c2 3d
       -0.5961665 -0.42671874 0.023062812 0.094992794
000220 7b 46 56 3e 3e d5 d0 3d 77 5d e3 3c d2 aa 97 bf
       0.20925324 0.10196923 0.027754528 -1.1849005
000230 77 b5 2a be 87 34 0f be 11 a5 99 3e bf 71 07 bf
       -0.16670786 -0.13984881 0.30008748 -0.5290794
000240 9a d1 e0 be d2 90 26 be 4f 3f 8a 3f e9 2a 10 3e
       -0.43909913 -0.16266182 1.080057 0.14078869
000250 42 d8 d7 3d 3d fa 4a bf ad d6 ad be 20 1c b5 be
       0.10539295 -0.79288083 -0.33952847 -0.3537302
000260 df 57 3e bd 3c 3c 18 be 6e d7 29 bc b9 b2 84 be
       -0.04647052 -0.14866728 -0.010366304 -0.25917605
000270 89 23 c1 be 83 32 23 bf 09 2f 8f bd ec 00 02 bd
       -0.37722424 -0.6374895 -0.06991393 -0.03173916
000280 6b be e9 3e 60 db 1a 3e 01 6c b1 be 10 08 5f bd
       0.4565309 0.15122747 -0.34652713 -0.05445105
000290 bf 99 61 3d 39 d8 2d be f6 3a 9f bf a6 ec 30 be
       0.055078264 -0.16977014 -1.2439868 -0.17277774
0002a0 0f b3 01 be d8 06 ab be 7e c1 3a be d3 82 0e 3e
       -0.12665962 -0.3340366 -0.18237874 0.13917093
0002b0 5f 1c cb bc af f6 17 be 21 33 f3 be f7 cc ce bd
       -0.024793802 -0.14840196 -0.47499946 -0.10097688
0002c0 9d 3a 23 bc 17 a1 1b bf 11 c9 c2 3c 9f fe 69 be
       -0.009962705 -0.6079268 0.023777517 -0.22851036
0002d0 32 dc cc be 05 d7 c0 be 4c ee 93 be 66 56 01 bf
       -0.40011746 -0.37664047 -0.28892744 -0.5052246
0002e0 75 cd fe be 4a f0 54 3d 3b cf cb 3e f8 d3 3b bd
       -0.49766126 0.05198697 0.39806542 -0.045856446
0002f0 fe f3 b6 3d ad dd 87 bd c9 1b 85 3e 50 f4 30 be
       0.089332566 -0.06634078 0.2599776 -0.17280698
000300 f0 26 24 be 58 e6 11 3c 8e 02 54 3e 59 67 92 3b
       -0.16030478 0.008905016 0.207041 0.0044678864
000310 aa ea e2 38 b7 a2 93 3e 4c 39 ca bd 7f 3d e9 3d
       0.00010820229 0.2883508 -0.0987421 0.113886826
000320 fe 87 e1 be b9 2c f6 bd c6 2f f3 3d d9 50 2d be
       -0.44049066 -0.12020249 0.118743464 -0.16925372
000330 bc 11 6b 3c 06 0e 20 be 0a 8b b0 be 74 61 66 be
       0.01434749 -0.1563035 -0.34481078 -0.22498113
000340 0f ed 26 3e fa 2d 2f 3f 97 02 5e be 91 96 c1 3d
       0.16301368 0.6842953 -0.21680675 0.094525464
000350 e5 4d 1e 3e fa c2 fd bc 4b 7d 7f 3c 4c 6f 05 3e
       0.15459402 -0.030976761 0.015593837 0.13030738
000360 d6 14 1e be 1c f6 9e bd d4 b3 10 bd 88 f0 46 3d
       -0.15437636 -0.077617854 -0.035327747 0.048569232
000370 bd e3 df bd 26 f3 57 bd b9 d6 00 be 1d c6 fb bc
       -0.109321095 -0.05272212 -0.1258191 -0.030734116
000380 a8 e7 20 be d5 f9 be bd 8a 63 f5 be 4e ea 01 3d
       -0.1571337 -0.093249954 -0.47927505 0.03171759
000390 cc c8 c5 3d 5e e0 8c be 41 35 fe bb 33 6b e3 bd
       0.096574396 -0.2751493 -0.007757813 -0.11104431
0003a0 f5 96 0c be 93 3e 52 bd 45 87 c2 3d 11 30 d0 3c
       -0.1372946 -0.051329207 0.09498457 0.025413545
0003b0 7c 21 81 3d af d6 f9 bd 62 f2 cc be 13 78 29 be
       0.06305215 -0.12199151 -0.40028673 -0.16549711
0003c0 9e a1 a1 3e 2f ea 1a 3e ad 77 75 3e 00 42 ce 3e
       0.31568617 0.15128396 0.23971434 0.4028473
0003d0 67 26 8d 3e df 95 2d 3f 56 e6 c5 3e 0a a0 39 3e
       0.2756836 0.6780681 0.38652295 0.18127456
0003e0 eb e7 af 3d e7 0a c8 3e cc c0 43 be 2a 86 aa 3d
       0.08589157 0.39070818 -0.19116515 0.08326371
0003f0 d2 b8 c4 bd b7 51 0a be 35 bb 00 3e 87 cc 1e 3e
       -0.09605564 -0.13507734 0.12571414 0.15507708

critic.0.bias f4 [128]
000000 09 66 96 bd 5b 85 08 bf da b9 3b be 44 3d 39 bd
       -0.073436804 -0.53328484 -0.18332615 -0.045224443
000010 8a c2 17 bd c6 27 1e 3d 81 31 09 3e c6 c5 1e be
       -0.03705076 0.03861215 0.1339779 -0.15505132
000020 52 b4 7d be 96 1a 34 3f cd 82 90 be 21 51 14 bf
       -0.24775818 0.70353067 -0.28224793 -0.5793629
000030 8e ea 0f be 0e 1a b0 be ee f2 c2 be 87 e3 68 3c
       -0.1405432 -0.34394878 -0.38075966 0.014214403
000040 92 7b a4 bd 03 df 84 3d 78 66 6e be 36 76 8a be
       -0.08031382 0.064878486 -0.23281276 -0.27043313
000050 8c de 99 bd a3 ca f1 be 0d 92 15 bf 4f fe f8 3d
       -0.075131506 -0.47224912 -0.5842598 0.121578805
000060 c4 68 10 be 24 2f 53 3d f6 38 14 3d 63 69 a2 3e
       -0.14102465 0.05155863 0.036187135 0.3172103
000070 3e 06 09 be d6 ff 59 be 7b cd fc 3b a4 cb 73 bc
       -0.13381287 -0.21289 0.007714925 -0.014880095
000080 26 a1 ce 3e c4 1f 37 be f7 51 95 be ad a3 a0 3d
       0.40357322 -0.17883211 -0.29164097 0.07843719
000090 54 b1 f2 3e 2a f6 8e be e1 4c 39 be 1e 9d 9c 3d
       0.47400916 -0.27922183 -0.18095733 0.07647155
0000a0 de f0 41 3e 62 0d 51 be a1 a9 cf 3e 7a fe b4 bd
       0.1893954 -0.20415261 0.40559104 -0.088376
0000b0 8b 13 c9 be 2f 48 36 be 94 db ad bd 69 db 76 be
       -0.39272723 -0.17800973 -0.08489147 -0.24107136
0000c0 95 29 bc 3d 16 fd 74 be 67 6e 5c be 98 63 e2 be
       0.09187619 -0.2392467 -0.2152649 -0.4421661
0000d0 cc e8 fd 3e 1f e3 6d bc aa 07 b7 be d5 6e 15 bf
       0.49591672 -0.014519482 -0.35748035 -0.5837224
0000e0 8d 36 0b 3f 20 99 ca 3d f6 c0 2c be 54 b7 9d 3d
       0.5438011 0.098924875 -0.16870484 0.07700983
0000f0 03 33 cf be 17 58 2f be 7e 6a 67 3e 87 1e a0 be
       -0.40468606 -0.17123447 0.22599217 -0.3127329
000100 0a b8 5d be 1f c5 6b 3e bc 5b f7 bd ec 3d 09 3e
       -0.21652237 0.23024414 -0.12078044 0.13402528
000110 cf 7b c9 3e 79 1c 07 bd 77 15 9d 3e d8 87 8e 3b
       0.3935227 -0.032986138 0.3068044 0.00434969
000120 d2 8a da be 3e 17 44 be f8 05 f6 be ae 8f 91 3c
       -0.42684036 -0.19149491 -0.4805143 0.017768707
000130 8f e5 18 3f 6d fd 66 3e 64 2c 53 3e 72 53 98 be
       0.5972528 0.22557612 0.20622402 -0.29751164
000140 13 e4 43 bf 23 e2 59 be 3a e4 80 be 96 ea 05 3d
       -0.7651989 -0.2127767 -0.25174123 0.03269442
000150 b4 64 66 be 63 e5 ac 3d c3 9b 22 be 89 3b 91 be
       -0.22499353 0.084421895 -0.15879731 -0.28365734
000160 90 7e 29 3d aa 81 d8 be e5 bb 08 be 24 5e 15 be
       0.041380465 -0.42286426 -0.13352926 -0.14586693
000170 5d 98 60 be f1 b0 0d be a4 10 a9 3d fc 67 6e be
       -0.21933122 -0.13837029 0.08255127 -0.23281854
000180 5e 80 bd bd a6 bf 91 be 54 64 ac be 25 36 5e 3d
       -0.09253 -0.2846653 -0.33670294 0.054250855
000190 34 ad b3 bc 41 ec 90 be 19 85 c9 3e 32 7d 1c 3e
       -0.021933176 -0.28305247 0.39359358 0.15282133
0001a0 81 61 6b be ab 5b d6 be 00 57 4c 3d 2b 1c 13 3e
       -0.22986414 -0.41866812 0.049887657 0.14366214
0001b0 d5 fd bc 3c 3c 4c 05 3f 87 0e a1 be e8 3f 78 3d
       0.023070255 0.5206945 -0.31456396 0.06060782
0001c0 4b fd 49 3e a7 69 aa be b7 8c ec 3e 33 fc 6c be
       0.1972553 -0.3328373 0.46201107 -0.23143081
0001d0 27 0d c7 3d 8f 5a 0c be 9b 02 e0 bd ee ff a4 be
       0.097193055 -0.1370642 -0.10937997 -0.3222651
0001e0 4d d2 22 be 3b dd b4 3d cc 84 a3 bd a4 0f f2 3d
       -0.15900536 0.08831259 -0.07984313 0.118193895
0001f0 7f db 89 bd 80 49 bd 3b 4d 81 38 bf d2 5b 9b 3e
       -0.06731319 0.005776584 -0.720723 0.3034349
