PPO_preTrained/add retent_rate/PPO_add retent_rate_0_800.pth (torch, 110785 bytes, 11 tensors)

actor.0.weight f4 [128, 35]
00000000: 06da 023c 7116 15be 8072 9abd 14b7 de3b
00000010: 385b cf3d 4b4f 0c3d 5e12 ab3d cc3f d4bc
00000020: 9db3 b3bd 5a46 d0bd 3e5c 963f 617c 3abe
00000030: c1d6 7fbe 3204 2fbf 3ef0 e73e 5824 c83e
00000040: 13a4 c7bd b95e ad3d ce1b 3f3d 726d 833e
00000050: bbbe e5bd 0639 84bd 27f2 ce3c 175b 2f3d
00000060: 3bde a33d 440f f73d d051 733d 2507 42bd
00000070: 949b e4bb 4347 e93d f80c a8bd 95e0 4dbc
00000080: aa33 9bbe 6d1e 3abe 34db bdbd 17b3 303e
00000090: 2975 073e b17b b2bc 7ed8 683d d00e 853d
000000a0: 1a76 56bd 1aea 9d3d 967a f3bd 4139 db3d
000000b0: 0fef 043e b219 743f 7b30 78be e463 b93d
000000c0: 0a91 f33d b17e 123f 4e0b e5bd 6ecd 95bd
000000d0: 5b9e 4fbe 84bd a9bd 3da6 a43c 987e cabe
000000e0: 55d2 04be bed0 093d b0a0 823d 81a7 863d
000000f0: d94f 383e 4853 dc3c 6bb3 ad3d 6beb 8c3d
00000100: ebde a13c 9536 47be 8cfe 403e 487d b53c
00000110: 8472 cb3d 4698 903e 456b 49bc 1a81 223d
00000120: 809e d13c f306 31bc 058f 23bc b9d7 eb3d
00000130: 5b44 2a3e 23eb 43bc 8eed 203e 08db 1fbd
00000140: 1a34 913f eaa6 df3d db0c 77be 08ec 2abf
00000150: 0846 c83e 1f86 e1be cfd0 613e d59d a93c
00000160: 1160 293d f737 863e f76c 9bbe 50d6 2a3e
00000170: 597d 15bc 4e0b cbbb c045 6f3e e72a a9bd
00000180: 079b 99bc e56f 213e efdd 82bc 1502 063d
00000190: bee8 6dbe 74d7 26be 3182 ac3d 4eb6 2c3e
000001a0: 9e72 3cbd 0931 86bd 0e99 823d 8303 dbbc
000001b0: 8e0b 01be f8ba aabd 54e9 273e b12b 223d
000001c0: 5cfd 0f3e 24d7 90bd d56c 8b3e b1c8 71bf
000001d0: 75be f23e 177c 003f 91a5 983f 5f5f 30c0
000001e0: 2eef 133e cc41 8a3d b8ef b2bd 408c 793d
000001f0: 29d5 fe3e a82c 923e 1dda bb3d 809a 1b3e
00000200: 86de a0bc 867e 98bd 6423 c43c 4712 b73d
00000210: 5666 c73d 3ba0 553e 2af5 f43c 9912 68bf
00000220: 3ad9 223e e845 8f3d 8861 113d a86a af3e
00000230: 25da 3f3c 8c74 bbbc 3dfa 703d e18a 1dbd
00000240: b465 073e 67be 84bd 0328 28bd 2998 b83d
00000250: 2146 be3d f09b 8c3d 5ded 183f 8d57 c83e
00000260: f4ee 83be 3d58 9a3e 40f6 243f aa90 283f
00000270: d087 4abe 99e9 38bd c2b0 2fbe 1a28 fdbd
00000280: 9c6e 42be e716 d3bc db11 8cbc 0e23 663d
00000290: ee69 afbc b642 92be 23b8 a03d 15cc 913c
000002a0: 5256 fa3d 320f aebd 52fe 62ba 68b0 143d
000002b0: a5e9 9c3c c914 da3b 1e8a 603e 2d7b c53d
000002c0: c9c9 9fbc 79d0 213e e588 ac3d d27f 403e
000002d0: c925 9abc bc78 2c3c 2eb3 cbbb fefd 1abc
000002e0: 78c5 513e c89e 20bf 8424 233f d35c 85bd
000002f0: 45a3 de3c a0e2 cfbf bd55 083f 0362 4ebd
00000300: 9730 313e 687b 1dbc 35b9 793e 8e7d 23bd
00000310: 2b5e e639 1d33 90bc 243b bc3d 78b9 3b3d
00000320: b07a 0b3e 9be7 4ebd 19c8 953d e9a1 423e
00000330: 83f4 3bbd 465e 3c3e 31f8 8bbd 7281 81be
00000340: 1fe7 56be 4e3d 27be 2f00 d93d adaf 04be
00000350: 03cc b5bd 224d 183e 554e 213c dc91 963d
00000360: 7d46 293e a995 e1bd b2b5 2f3d 4e33 313d
00000370: 4350 0bbf 0156 ae3d 555e 12be 49a0 943e
00000380: 754d 4fbf ff25 1f3f 7c9c 16bd c2c6 f8bc
00000390: a13d 6cbd fbd7 693c 3faa 2fbc a433 febd
000003a0: d6ad 61bd b291 a43d 5338 d23d c52a 9f3d
000003b0: c137 803d c28b e6bd cc04 c93d 4467 4abe
000003c0: 5550 d83d cee3 63bd b154 0cbe d609 efbd
000003d0: 64dd 68be ee10 cabd 0e20 b83d 97cb cc3c
000003e0: eb58 683e 8290 913d e11b 173e 7cb3 013d
000003f0: 3e55 00bd 9f02 143e 3b20 10bd a33d 863e
0.007986551 -0.14559342 -0.075413704 0.006796727 0.101248205 0.034255307 0.08353113 -0.025909327
-0.08774493 -0.101696685 1.17469 -0.1821151 -0.24984266 -0.68365777 0.45300478 0.39090228
-0.097480915 0.084653325 0.046657376 0.25669438 -0.112180196 -0.06456189 0.025261952 0.04281148
0.080013715 0.120634586 0.059404194 -0.047370095 -0.006976554 0.11390545 -0.082055986 -0.012565752
-0.30312854 -0.18175669 -0.09270325 0.17255817 0.13228287 -0.021787496 0.056847088 0.06496966
-0.052358724 0.07710667 -0.11888616 0.1070428 0.12981819 0.9535171 -0.24237244 0.09052256
0.118928984 0.57224566 -0.11183797 -0.07314573 -0.20275252 -0.082881 0.0200988 -0.39549708
-0.1297086 0.033646338 0.06378305 0.065749176 0.1799921 0.02689518 0.08481487 0.0688084
0.019759616 -0.19454415 0.18847102 0.022154465 0.099339515 0.28241175 -0.012293641 0.039673902
0.025588274 -0.0108048795 -0.009982829 0.11515755 0.16627638 -0.011957916 0.1571562 -0.039027244
1.1344025 0.10920508 -0.24125998 -0.66766405 0.3911593 -0.4404764 0.2205231 0.020705143
0.04135138 0.26214573 -0.3035657 0.16683316 -0.0091241235 -0.006196416 0.23366451 -0.08260136
-0.01875068 0.1576534 -0.015974967 0.03271683 -0.23233315 -0.16293126 0.084232695 0.16866419
-0.046007745 -0.065523215 0.06376849 -0.026735073 -0.12602064 -0.08336443 0.16397601 0.03959245
0.14061493 -0.07072285 0.2723147 -0.94446856 0.47410932 0.50189346 1.1925527 -2.755821
0.14446709 0.06750831 -0.08737129 0.06092477 0.49772003 0.28549695 0.09172461 0.15195656
-0.019637357 -0.074460074 0.023942657 0.08939033 0.09736316 0.20861904 0.02990206 -0.9065338
0.15903178 0.069957554 0.035493404 0.3426106 0.011709725 -0.022882722 0.058832396 -0.038462523
0.1322239 -0.06481629 -0.041053783 0.09013397 0.0929072 0.0686568 0.5973719 0.39129296
-0.25768244 0.30145445 0.6443825 0.6584574 -0.19778371 -0.04514465 -0.17157272 -0.123611644
-0.18987507 -0.025767757 -0.017098358 0.056185775 -0.021412816 -0.2856652 0.07847621 0.01779751
0.122234955 -0.08498992 -0.00086591125 0.036301047 0.01915438 0.00665531 0.21927688 0.096426345
-0.019505398 0.15802182 0.08424548 0.1879876 -0.018816845 0.010526832 -0.0062164282 -0.0094599705
0.20485485 -0.6274228 0.63727593 -0.065118454 0.027177462 -1.6241035 0.53255826 -0.05038644
0.17303692 -0.009611942 0.24387057 -0.03991466 0.0004393918 -0.017602498 0.09190968 0.045831174
0.1362102 -0.050513845 0.07313556 0.19007076 -0.04588748 0.18395337 -0.06834448 -0.2529407
-0.20986603 -0.1633198 0.10595738 -0.1295764 -0.08876803 0.14873174 0.009845336 0.07352039
0.16530795 -0.110148735 0.042897888 0.04326182 -0.54419345 0.08512498 -0.14293797 0.29028538
-0.80977565 0.6216735 -0.03677033 -0.030368213 -0.05767596 0.014272685 -0.010721742 -0.124121934
-0.055097423 0.08035602 0.10264649 0.077718295 0.06260634 -0.112571254 0.09815368 -0.19765955
0.10562197 -0.055637173 -0.13704182 -0.11671798 -0.22740704 -0.0986651 0.08990489 0.024999423
0.2269017 0.07107641 0.14756729 0.03166531 -0.031331293 0.14454125 -0.035186987 0.262189

actor.0.bias f4 [128]
00000000: 5931 7e3e cef0 653d 5289 b13e 1fd1 913d
00000010: b46a 3abd 3114 a73d 05f2 6ebe a85e ccbd
00000020: d2b2 d93e 37a0 27bd 284a af3e 96d9 f1bd
00000030: 2601 cb3e 81b0 903e bd2e 52bd 1c43 363e
00000040: 464a fbbc 9d5a 863e 199e 633d 8d2d 91bd
00000050: 23f2 243d ab61 5ebd 7eab 4bbe e68a df3c
00000060: 83a3 923e e563 e53e 5c3a 36bb 5c5e b93c
00000070: 3f80 4f3e 636e f73d d966 01bd f077 c03e
00000080: 2c29 773e 646e 283c c9f3 b83d 0155 ec3d
00000090: 07a9 e9bd ae1c 9d3d 2a35 f53e 5b0a a93e
000000a0: 4598 933d ad5b 33bd 47a8 c43e 1d6d 353e
000000b0: e4ed 743e 9756 5f3e 8b1b 5abd e08e 80be
000000c0: 90f4 cd3d 8f73 063e 8641 a23e a603 2b3c
000000d0: 8c86 22bd 7c4e ce3e 06e1 053b d30a 4cbe
000000e0: 9b46 68bd 0f7a edbc 8c92 4dbc 1955 b33d
000000f0: e83e debc d50f 0e3d 7227 4cbe c80b 54be
00000100: 0e42 513e ec06 1a3e bcea 943e cde8 503e
00000110: 53ab 893e a627 143e ee3f 563e 4c15 b13e
00000120: 8e1d 563e b6db febd c287 a93e ae74 943e
00000130: 4dd0 12be 5be3 123d b169 7bbd 4af7 1dbe
00000140: d392 b9bd 7421 a23d 213f 17be 1250 853e
00000150: 64c4 2f3d da61 313d 47cf d03d 9e50 803e
00000160: f496 c9bd 429b fdbd 715b bc3e a489 0bbe
00000170: 35e0 913d 4677 a8be 32a4 47be 1c1d 853e
00000180: ab33 b6bd bdce 26bd 4841 1f3e 27ab 10bd
00000190: 94ac 143d df91 2dbe 48ae aa3c 062e f73c
000001a0: 0990 9d3d 2f6a 143d 1fcf 14be 1391 633e
000001b0: 48dc 23bd b380 493d 9146 ce3d 5258 a5bd
000001c0: d7fd 293e 9cdb 9dbe 4ec3 a53e d3c4 1f3e
000001d0: 555b 82be 7f33 a7bd 4a6a d2bd 5d0c 51be
000001e0: 9f9c f83d 3110 61be f2bb f03d ea74 7b3d
000001f0: 07fb b43e 6c3c cb3d c399 4bbd 5b60 023e
0.24823512 0.056137852 0.3467508 0.07119965 -0.045511916 0.08158148 -0.2333451 -0.09978992
0.42519242 -0.040924277 0.34236264 -0.11809079 0.39649314 0.28259662 -0.051314104 0.17799038
-0.030675065 0.26241007 0.055570696 -0.07088766 0.040269982 -0.054292362 -0.19889638 0.027287912
0.28640375 0.44802776 -0.002780578 0.022628002 0.20263766 0.120816015 -0.031592224 0.37591505
0.241368 0.010280225 0.09030873 0.11539651 -0.114091925 0.07671486 0.47892123 0.33015713
0.072067775 -0.0437886 0.38409635 0.17717405 0.23918873 0.21810375 -0.053248923 -0.25109005
0.10056412 0.1313002 0.31690615 0.010437882 -0.039679095 0.40294254 0.0020428314 -0.19926004
-0.05670796 -0.028988866 -0.0125471465 0.087564655 -0.027129605 0.034683067 -0.19936922 -0.20707619
0.20435354 0.15041703 0.29085338 0.20401306 0.26888523 0.1446825 0.20922825 0.3458656
0.20909712 -0.1244425 0.33111387 0.2899527 -0.14337273 0.035861354 -0.061380092 -0.15426365
-0.090612076 0.07916537 -0.14770176 0.2603765 0.042911902 0.04330621 0.10195785 0.25061506
-0.09843245 -0.12383129 0.36788514 -0.13626724 0.07122842 -0.32903498 -0.1949623 0.2599877
-0.08896574 -0.040724505 0.15552247 -0.035319474 0.036297396 -0.16950177 0.020835057 0.030173313
0.07693488 0.036234077 -0.14532135 0.2222331 -0.040005 0.049195003 0.10072053 -0.080734864
0.16600738 -0.3083161 0.32375568 0.15602426 -0.25460306 -0.08164119 -0.10274179 -0.20414872
0.12139248 -0.21978833 0.11754598 0.061390795 0.3534777 0.09923634 -0.049707185 0.12732069

actor.2.weight f4 [64, 128]
00000000: e32d f2bd dd32 abbd 689e cabe a52a 1f3e
00000010: ad0f 983d e07a 3a3e 9a86 193e 5b62 913c
00000020: 0f49 babd 8aa7 1bbe 6bd7 453e b403 24bd
00000030: ee71 e83d 6eed 103c af9e 9ebe 1760 363e
00000040: 0fff e7bd 35ad ba3d 7075 053e 6e70 4dbe
00000050: caf1 983d 7c18 23be cdcb 8c3d a3c7 ffbd
00000060: 199c 64bd 148d d03d 394a 6abe f78e 0f3e
00000070: 5288 dbbd f98a d13c 652f 31be 8d8a 923d
00000080: 12a8 1d3e 69d3 2b3c 1979 393e c20b 5c3d
00000090: 117e 84bc 1702 d13d ee77 11bd e1af 28bc
000000a0: bc62 07be 5e07 98bd 92e2 c9bd 3421 eb3b
000000b0: ce48 f0bb da18 fc3c 5e5a 4c3d 95bf 5abd
000000c0: a97b bfbd dbdd b0bd c397 23bc cba3 f0bc
000000d0: 6dd8 873d 2bc5 cdbd a7e2 14bd 8591 473e
000000e0: 68c4 d4bd 751b 3b3e f389 8f3c 54d0 9f3c
000000f0: 87af b4bd 966f 01bd 3745 283e 5327 673e
00000100: 4586 29be 3e6a f9bd b94f 07be 4841 5e3d
00000110: dad3 a53d 3300 373b 562c 8bbe 4191 4cbe
00000120: 110f ddbd da5e 163e 839c 83be 8497 49bd
00000130: a046 9f3d 8eab ea3c 0bf0 86bd e5ac 013e
00000140: feaa 16be fb61 023b d4d2 173e 3623 67bd
00000150: 6c1b d9bd 3227 16bd bd7d 9c3c 2680 bfbd
00000160: ef4e eb3d 32da f2bc 0d76 b4be 31be 863c
00000170: af3d 05bd f9b0 3b3e 807a 3b3e ee82 4abd
00000180: ad04 d23d b355 533d 997a 1fbc a01f 21bd
00000190: 989a e83d 10a2 543e 53e9 dd3c 452e 7ebd
000001a0: 7074 19be bc62 8c3d 7ff7 c53b 1592 7d3d
000001b0: 34d9 ce3d 5350 423d e851 213e b43f 373e
000001c0: e186 513d 04bd a53d 9181 253e 3ea1 99bd
000001d0: 866a a73d 6380 c23d 749e ea3c c524 463e
000001e0: 8975 8e3d e19e 4b3c 12d1 35bd a5a1 8dbc
000001f0: e152 ea3d f6c9 e1bd ebb8 713d 7edd 61bd
00000200: c079 af3a 1c6f a7bd bbef b13e 2317 1f3c
00000210: 9381 a9bd 4996 9bbc 35de 59bd c49f 1cbe
00000220: a827 023e 4220 05be 09d1 bc3d a860 13ba
00000230: a131 0c3e 9815 5c3e 67a9 9a3e 7fd8 803d
00000240: 1c2b 3abd ecfa 9d3d aa8e bc3d 0e7b 88bd
00000250: ead3 8cbd 6b76 2abd f6a1 b53d f2b8 c7bc
00000260: d1f9 52bc e285 033e 2d7d d7bd 0a21 033d
00000270: 4d4b 3b3e 1ac3 e83c c15c 56be ea33 993a
00000280: 16af 783d 3a71 513a de51 5fbd 53fe 003d
00000290: 990c d0bc 05d2 da3d 3436 e03d 4bcd fc3d
000002a0: 9873 7dbc 7dcc 11bd cd0a 23be ca69 493e
000002b0: aabc a8bd 98ff e43d bf97 a43d 2b82 a3bd
000002c0: 09a2 0b3d cf0a 923e 2e65 fd3d 3255 483e
000002d0: c5ba 83bd dae6 2a3e 8979 84bc 3e71 fe3c
000002e0: e9c9 24be 089b d5bc ec2c 043e 47ae a1bd
000002f0: 188b 23bd d24b 9e3c 01b5 b53c aa82 d83c
00000300: 4c3a b73b 06b8 273e 8674 3f3e f822 47bd
00000310: c23a b03e 4ac5 293d 8115 b13e 6a98 703d
00000320: 7e32 28bd 89d4 a2bd 380d 973e da34 0d3e
00000330: 4ef4 b4bd 9191 f4bd 8b58 a0bd 86c5 28be
00000340: d74d 833c f7e0 873e 7cb9 e13c 8559 35bd
00000350: ad15 35be f307 c8bc bd0a 593c 033a 593e
00000360: 7797 713c 4803 5fbd 5c01 993e 761b 57bd
00000370: b6bd 833d 78b3 8cbd c7be 4fbd b586 5b3e
00000380: 033a 323d bf12 a33d 7cb8 843d ec7c 23bd
00000390: 4f1c 97bd a6fb 873d 413d 493e 126a 2a3e
000003a0: 96de 223e aae6 b2bc 9446 56bc a404 b5bd
000003b0: 8721 acbd 4059 163e 0d89 323d 1853 ba3b
000003c0: 894d 6b3c e9b5 59be 8a6e 61bc c227 c83d
000003d0: 401a 0bbe 4577 b1bc 8784 d2bd 3532 b5bd
000003e0: 94f0 4bbd 0bce fcbd b844 c03d 54fc 85be
000003f0: d20d 313e 5fc1 283e 3624 5bbc 15a3 89bd
-0.118251584 -0.08359311 -0.3957398 0.15543611 0.07424865 0.18210936 0.14992753 0.017747095
-0.09095966 -0.1520063 0.19320457 -0.040042594 0.11349855 0.00884567 -0.3098044 0.17810093
-0.113279454 0.09115068 0.1303308 -0.2006242 0.074679926 -0.15927309 0.068748094 -0.124892496
-0.05581293 0.101831585 -0.22879876 0.1401938 -0.107193604 0.025578963 -0.17303236 0.07155333
0.15396145 0.010487416 0.18112601 0.05372215 -0.016173394 0.10205477 -0.035514764 -0.010295839
-0.13221258 -0.0742328 -0.09857668 0.007175589 -0.0073328977 0.030773569 0.04989087 -0.053405363
-0.09349758 -0.086360656 -0.009984913 -0.029374978 0.06633077 -0.100473724 -0.036348965 0.19489105
-0.10389024 0.18272193 0.017521834 0.019508518 -0.08822542 -0.031600557 0.16432653 0.22573595
-0.16555126 -0.12178467 -0.13214006 0.054261476 0.08097048 0.0027923703 -0.27182263 -0.19977285
-0.10793889 0.1468462 -0.25705346 -0.049216762 0.077771425 0.028646257 -0.06588753 0.1266361
-0.14713666 0.0019894827 0.14826518 -0.056430064 -0.106009334 -0.036658473 0.019102925 -0.09350614
0.11489665 -0.02964506 -0.35246316 0.016448112 -0.03252953 0.18329228 0.18308449 -0.04944127
0.10254798 0.0515954 -0.009733819 -0.0393368 0.113576114 0.20764947 0.027088797 -0.062055845
-0.14985824 0.068547696 0.0060414667 0.061906893 0.10100022 0.047439884 0.15753901 0.17895395
0.05115402 0.080926925 0.16162707 -0.07501458 0.081746146 0.09497144 0.02864001 0.19349964
0.06956012 0.012428016 -0.044388838 -0.017288992 0.11441589 -0.11024849 0.059014242 -0.055142872
0.0013387725 -0.08175489 0.34753212 0.009710106 -0.082766674 -0.01899256 -0.05319043 -0.15295321
0.1271044 -0.13000587 0.09219558 -0.0005622008 0.13690807 0.21492612 0.3020737 0.06291293
-0.04545127 0.07713875 0.092068985 -0.06664096 -0.06876357 -0.04161684 0.08868782 -0.024380181
-0.012876944 0.12844041 -0.10521922 0.03201393 0.18290444 0.028413344 -0.2093382 0.0011688445
0.06071385 0.00079895894 -0.054521434 0.031492542 -0.025396632 0.10684589 0.109478384 0.12343844
-0.015469454 -0.035595406 -0.15922089 0.19669262 -0.0823911 0.11181563 0.08036756 -0.07983812
0.034090076 0.2852387 0.12372814 0.1956375 -0.06432108 0.16689625 -0.016171234 0.031059857
-0.16092648 -0.026074901 0.12907761 -0.07894569 -0.039927572 0.019323263 0.022181036 0.026429493
0.0055916663 0.16378793 0.18696794 -0.048617333 0.3441983 0.041447915 0.3458672 0.058739103
-0.041063778 -0.07950694 0.29502273 0.13789693 -0.0883566 -0.11941827 -0.07829388 -0.16481599
0.016028328 0.26538822 0.027554266 -0.044274826 -0.1768405 -0.024417853 0.013247189 0.21213536
0.014745585 -0.05444649 0.2988385 -0.052516423 0.06432669 -0.068701684 -0.05071905 0.21438105
0.043512356 0.0796256 0.064805 -0.039914057 -0.07378446 0.06639795 0.19652273 0.16642025
0.15905222 -0.021838505 -0.013078351 -0.08838776 -0.08404832 0.14682484 0.043587733 0.005686175
0.014361748 -0.212608 -0.013759265 0.09773208 -0.13584232 -0.021663317 -0.10279184 -0.08847467
-0.04978998 -0.12343987 0.09388107 -0.26169074 0.17290428 0.16480015 -0.013375333 -0.067205586

actor.2.bias f4 [64]
00000000: 1e74 cdbd 9cc4 283e 3010 3fbe a654 2a3e
00000010: 97e4 a7b9 2d64 f63d e950 eb3d 4921 423e
00000020: dbc7 293e 8578 23bd 4864 e2bc e190 72bd
00000030: 20e2 26bb 6a43 5dbe 62d5 153e b7ed babd
00000040: 8df5 c6bd db43 a9bd 1cf5 d83d c129 5cbe
00000050: 284f 7c3e 805d 8e3d 7f30 11bd ea73 fcbc
00000060: 1835 023e 0853 92bd e862 853d 7d3d 8a3e
00000070: 25da 6b3e 0085 c2bb d9f5 e23d 7a3d d83d
00000080: 529e e2bb d02a 1abd 54ae 59be 986f 113e
00000090: e35a 943c 47da 9c3e 832a 08bd e496 473e
000000a0: bfea 8b3d e7ae 2a3e 481f 0dbe 042a 553e
000000b0: 0f5e 36bd c4d6 003e d96a 32bc b3b9 093b
000000c0: f7da 7e3e f0e7 88bd a3bc c73d 20a8 c4bd
000000d0: 3892 0e3e 781f 93bd ad0f 0bbc 3876 36bd
000000e0: 7f5a 5bbd 1a94 783e abbc 34bd 2ada 1d3e
000000f0: f625 163e da6f 7ebc f39f c4bd 3ece 113e
-0.10031913 0.1648125 -0.18658519 0.16633853 -0.00032023035 0.12030826 0.11490042 0.1895801
0.16580145 -0.03990986 -0.027635708 -0.0592202 -0.002546437 -0.21607748 0.1463218 -0.09127372
-0.09714804 -0.082648955 0.10593626 -0.21500303 0.2463957 0.069514275 -0.03544664 -0.03081699
0.12715566 -0.07144743 0.065130055 0.27000037 0.23032434 -0.005936265 0.11082048 0.10558601
-0.006915846 -0.037638485 -0.21257907 0.14202726 0.018109744 0.30635282 -0.033243667 0.19491154
0.06831884 0.16668282 -0.13781464 0.20816809 -0.044523295 0.12581927 -0.010889732 0.0021015226
0.24888216 -0.066848636 0.097527765 -0.0960238 0.13922966 -0.071837366 -0.008487624 -0.044546336
-0.0535531 0.24275246 -0.04412524 0.15415254 0.14662918 -0.015529597 -0.096008204 0.14238831

actor.4.weight f4 [16, 64]
00000000: 9ffd 31be 0f65 983d fba5 733c 43f5 24be
00000010: 8f7d 38be 9aaa 683e 1b6c 593d c9a5 78ba
00000020: 34b5 e5bd 3855 a7be 700b 0fbf 0969 a7bd
00000030: 867e b0be 3c24 2ebe f66d 3fbe 0a0a e5be
00000040: 2ab1 223f a3c2 443d acf8 f3bd 7a5e 99bc
00000050: d931 cdbd 3202 0f3f 953b 0abe af10 b33e
00000060: bc53 333e 3bcb 24bf c6c8 433e 411d 543e
00000070: 4656 5f3e 0817 883e aef8 d3bd 1421 893e
00000080: 51cd dcbd 5005 27be be5e 23bf 5d41 a23e
00000090: f22c 87bf 3f29 ad3d 48fa 443e a526 163e
000000a0: 1183 b2be 896b fbbe 89b0 0dbe d562 01bd
000000b0: aa40 17bf a8ba 39be 8447 e53c cb1a adbd
000000c0: 7ce2 953d b94f 8e3e 59d3 d2bd 0af2 e8bd
000000d0: d8ee 233e c040 e83d bb40 07bf c705 d4bd
000000e0: 3795 3b3e 203c 6e3e aa24 b0be 231f 8e3e
000000f0: 1ba3 9bbb e5a5 2d3e 0f76 00be 8341 293e
00000100: 01b9 913e f642 aebe 3a82 853d 0a10 e9be
00000110: b037 4fbe 136f 2fbe 4458 efbd 8b4e bebd
00000120: 2c3e a8be 2fd7 7bbe 5e05 383e ef34 883e
00000130: c257 1dbe 7863 a33e c4a4 9f3d 3fd1 bb3e
00000140: c0fd 85be 2bdb 00be aadc aabd 67d0 993e
00000150: a6f4 f2be ca58 833f 83d6 943d 00ab 90bd
00000160: 4e24 95bd f0d1 cd3d 3b19 083e 3969 eabe
00000170: f681 d33c c4f3 2b3e c1eb 56be 8b73 923e
00000180: 0769 3fbd 1b8e b03e b768 833e 1568 9fbe
00000190: a6ac 053f 8865 17be 4102 2c3d d736 49bd
000001a0: 3fc3 92ba 351f a3be d882 ba3e f4b0 0bbe
000001b0: a4b6 9b3e 61a0 27be ae32 443e 0d69 cd3d
000001c0: f401 033d fd52 423f 3018 e9be 88ca 953e
000001d0: 4f4f cebd 4c42 c7bd ba57 10bd 9ded afbd
000001e0: 9d8c 3b3e 9312 3cbd a589 29be 5274 16be
000001f0: f788 8dbe a959 3f3e 4dec 093e 9ada fa3d
00000200: bead 4d3e 8d99 aabe 3e25 2a3d 2255 573c
00000210: 6b07 7ebc 397a 0d3e 4e36 2fbf f2c3 6abe
00000220: 366c 2dbd 01d9 333e 3699 853e 141a 933d
00000230: 4670 043e 19cd 923e 4b3e a93d 0515 8b3e
00000240: dcbc b13e b028 80be a386 a2bd a105 d53d
00000250: 09ad 613c 8899 253f 274c 8f3c b627 8b3d
00000260: dee9 32be eba9 e03e bd92 ae3b 6470 0d3f
00000270: bdf4 f8be 48c2 39bf 34e6 09be 4393 3c3f
00000280: d75d 74bd fc90 e33e 07ef 8d3e 8672 10b9
00000290: be71 763d 8715 21be 53b9 213e ca85 47bf
000002a0: 4c92 413e 157e 46be 2ac6 143e bb07 46be
000002b0: debf 003f ad65 80bd feec 963e 24a9 703d
000002c0: 1d5f 223d 2d63 da3e 6730 e23d 9452 943d
000002d0: 056a 01be dd55 b43d cd57 02be 40e0 3ebe
000002e0: ea7c b7bc 216d 35bf 1979 5c3e 1235 88bf
000002f0: b7e7 13be b7c1 033e 68b3 fe3d bbdc a83d
00000300: b6c1 4fbe 3c11 853d 70c6 7b3d 54f2 bb3e
00000310: a70d 14bf ff10 10bf 014b a23e e8f1 8f3c
00000320: 0fab b6be 4630 a23e b80c ca3d 5189 a8be
00000330: 9d67 cbbe 1a7e d7bd bd39 1c3f 9838 cb3e
00000340: 3bcc f0be 6002 9d3e d3c3 443c ab04 15bf
00000350: feaf 1f3f 0da1 1abf 9bb8 ff3e 094e 08bf
00000360: 38b6 623d 179f 2e3e 3669 033e 36a5 b63e
00000370: 442e 243e 63f9 b33e 6c20 8bbd ae97 8fbd
00000380: a800 81bd 6e3f 7c3e dcc2 8cbd 3a94 afbe
00000390: e8de 3a3f d5dd 0abd 12ca cbbe 11ef 323d
000003a0: c5ba c93e b802 ed3e f1ef f13d 214f 72bc
000003b0: 3fce 3abe d959 853d 3907 81be b8d7 bebd
000003c0: 5899 403d b5e7 27bf 5083 f13e 2320 7fbe
000003d0: a775 ae3e f062 8e3d c289 b03e 59e3 3a3e
000003e0: e7ac c0bc 98d0 c6bd d560 b73e 5d99 7f3e
000003f0: 0b75 b33e b440 41bd 8644 a3bd 09a4 ff3d
-0.17381905 0.074411504 0.014871116 -0.16109185 -0.18016647 0.2272133 0.053081613 -0.0009485153
-0.112162024 -0.32682204 -0.5587683 -0.08174331 -0.3447153 -0.1700601 -0.1869429 -0.44734222
0.6355158 0.048037183 -0.11912665 -0.018721808 -0.10019273 0.55862725 -0.13499291 0.34973666
0.17512411 -0.64372605 0.19119558 0.20714284 0.21810254 0.2658007 -0.10350166 0.2678305
-0.107813485 -0.1631062 -0.6381644 0.31690493 -1.0560591 0.08455133 0.192361 0.14663179
-0.3486562 -0.4910548 -0.13836874 -0.031588394 -0.59083045 -0.1813761 0.027988203 -0.08452376
0.07318589 0.277952 -0.102942176 -0.1137429 0.1600908 0.11340475 -0.52833146 -0.103526644
0.1831864 0.23265123 -0.34402972 0.2775813 -0.0047496683 0.16957815 -0.12545036 0.16528897
0.2846146 -0.34035462 0.06518979 -0.4552005 -0.20236087 -0.17132215 -0.11686757 -0.09292325
-0.32859933 -0.24593805 0.17970797 0.26602885 -0.15365508 0.31911826 0.077950984 0.3668308
-0.26170158 -0.12583606 -0.083428696 0.3004181 -0.47452277 1.0261471 0.07267477 -0.07063866
-0.07282315 0.10049808 0.13290875 -0.45783404 0.025818806 0.16792208 -0.2098837 0.28603777
-0.04673102 0.34483418 0.2566583 -0.31134096 0.52216566 -0.14784825 0.041994337 -0.049124565
-0.0011197104 -0.31859747 0.3642795 -0.13641721 0.3041278 -0.16369773 0.19159958 0.100298025
0.031984285 0.7590788 -0.45526266 0.29256082 -0.10073721 -0.09729442 -0.035239913 -0.08590243
0.18315358 -0.04591615 -0.16556413 -0.1469281 -0.27643558 0.18686546 0.13469048 0.12248726
0.20085809 -0.33320275 0.041539423 0.013142856 -0.015504698 0.13816155 -0.6844224 -0.2292631
-0.042339526 0.17563249 0.26093453 0.071827084 0.12933454 0.28672102 0.082638346 0.27164474
0.347144 -0.25031042 -0.07935836 0.10401464 0.013774165 0.64687395 0.017492367 0.06794684
-0.17472026 0.43879637 0.005327551 0.5524962 -0.4862422 -0.72562075 -0.13466722 0.73662204
-0.059659805 0.44446552 0.27721426 -0.00013775573 0.060167067 -0.15730868 0.15793352 -0.7793852
0.18903464 -0.19384034 0.14528719 -0.19338886 0.50292766 -0.06269393 0.29477686 0.058755055
0.03964149 0.4265379 0.11044388 0.07242313 -0.126381 0.088054396 -0.12728806 -0.18640232
-0.02239843 -0.7086964 0.2153057 -1.0641196 -0.14443861 0.12866865 0.12436563 0.08245226
-0.20288739 0.06497428 0.06146854 0.3670832 -0.5783333 -0.56275934 0.31697848 0.017571405
-0.35677382 0.31677455 0.09865707 -0.32917264 -0.39727488 -0.10522099 0.610256 0.39691615
-0.47030815 0.30665874 0.012009579 -0.5821025 0.6237792 -0.60401994 0.4994553 -0.5324407
0.05534956 0.17052875 0.12833104 0.3567292 0.16033274 0.35151204 -0.06793293 -0.070113525
-0.06298953 0.24633572 -0.06873104 -0.34292775 0.7299638 -0.03390296 -0.39802605 0.043685023
0.39400306 0.46291137 0.11813343 -0.014789374 -0.18242739 0.06511278 -0.25200823 -0.09318489
0.04702124 -0.6558793 0.47170496 -0.24914603 0.34074137 0.069524646 0.344801 0.18250789
-0.023519946 -0.09707755 0.35816064 0.24960847 0.35050234 -0.047180846 -0.07972054 0.12482459

actor.4.bias f4 [16]
00000000: 67b0 723e c4c8 3ebe 164b 45bd 9d90 bd3c
00000010: f581 91bd b5ff e7bd 1462 4d3e 2c4a a63c
00000020: 12a1 61be 40bd 113d 3df1 373d 89a2 1abe
00000030: a1e4 a63d c844 2bbe c306 87be eb94 6c3d
0.23700105 -0.18631274 -0.04816731 0.023140246 -0.071048655 -0.11328069 0.20056945 0.02029904
-0.220341 0.035580873 0.044907797 -0.15101065 0.08149076 -0.16725457 -0.26372346 0.057759207

critic.0.weight f4 [128, 35]
00000000: 46ab 6abe ce80 b2be 17f5 80be aa18 8abe
00000010: e4ec b5be d087 a9be 1497 a5be 5aab aebe
00000020: 35fd 4fbe a648 63be 0393 b23e 8a54 b03e
00000030: de02 d13a 1114 74be cf27 3bbe 5dbd 173e
00000040: 1bcd 7bbe 3603 a0be a286 37be d467 833c
00000050: f560 24be 8b89 87be 33aa fd3d 7c2d 69bc
00000060: d533 e1bc f978 c0be 9063 84be 967a 253d
00000070: 5d5b 62bd 2c02 5fbe fe4b 07be c8d4 cc3e
00000080: 4133 02be a67b 873d c84e 0bbc d030 e0be
00000090: ecab d1be 7dfa 8fbe 2c19 adbe 3fbd 52be
000000a0: 4079 49be 6fc2 acbe d9de 84be b3b7 e0be
000000b0: a1a9 cdbe 98f7 24bf 5cff cd3e 52fe 403e
000000c0: 731e 333f 7f74 07bf 5de3 2c3f c3f2 0d3e
000000d0: e63f af3e 2e20 a4bd 694d 253d ce24 c8bd
000000e0: c36a 73be aedb 80be 8777 95be 904b 39be
000000f0: 9b50 14be c5f9 363e 58e5 f63e 1755 3cbd
00000100: e481 5dbf f42f 8ebd 39fd 2e3e d350 a5bf
00000110: 8a3b 7bbf d849 efbe 4e54 0d3e 0429 973d
00000120: 0e0f ec3d 39c1 cf3d f9cd d13d 02bb 88bc
00000130: 74ca e03d 4b17 a53c 12d8 ed3d f9c0 8ebd
00000140: 39bf debf 3758 3cbf 3cb5 bb3e 553b 83bf
00000150: a43d 7e3d dab1 da3e 2a0b fa3e 76c3 c7bd
00000160: 36d6 cb3e a753 7b3e fa47 573e 3d51 393e
00000170: c74e 44bd 2ba1 be3d 90ba a63d 6c81 0ebe
00000180: 2647 163d d1e3 393e 070d 6b3c 4c69 473e
00000190: 6c00 4dbb ef3b b5be 4b42 b6be 6a81 ddbc
000001a0: a260 29be ce78 0fbe 00a1 c5bd dbd2 bbbd
000001b0: eebe dbbd 2eb0 bdbd 1268 0ebe 398a f4bd
000001c0: e55f 21be ad53 d3bd 2cae 19be 03ed 0fc0
000001d0: b7fa 2cbf a17a 64be ebbb 953e 2b1f 753f
000001e0: 11f3 823f 9813 93be 12a8 c5be f08e 2cbf
000001f0: 88e9 6fbe 6a0d 55be db0c c3bd 46c2 5fbc
00000200: 281c 0cbd cc4f 3e3d 6bc1 75be f25e f03c
00000210: f203 9d3b 7ad0 aabd 4d33 29bd 5691 963e
00000220: ea32 92bc cbf6 ab3d bd78 ba3d 9862 7c3d
00000230: e291 54be eecf d1be 51d4 93be ce71 85be
00000240: c159 8bbe 4b86 b8be 371f a5be 9c26 a9be
00000250: 481b bbbe 3aa2 28bf 5a0e 733f 9fe3 41bf
00000260: e75b b03e 6015 353e e7a7 c53d 944e 9cbe
00000270: 774d 8f3e 6b5d 4f3d 1b43 4ebd d994 8f3e
00000280: 834f 18bd d603 4abd 1328 95bd bcc6 d53d
00000290: 446a 0cbd ef68 e3be c704 e7bd 7e04 52be
000002a0: d8e0 24be 1b25 933d f83e a23e 9cab 79be
000002b0: 3e37 1dbf c7d5 21bf 44ce 10be f1b9 d2bd
000002c0: 82de 113d bc38 a7bd 58e7 4fbe 9ca9 b4bd
000002d0: ff5c e6bd 0519 26bd 64dc 52be ca36 94be
000002e0: 3216 a7be 80b7 a13e ee15 71be 892a 613d
000002f0: 31fe a63e c31b d03d 10d0 143d 5073 403e
00000300: 544a 3f3e 8ba6 683e dd67 183e fabd 04be
00000310: 99aa 0cbe 2108 69be e54c 97be 6acd 04be
00000320: c308 0dbe b83a 36be de19 12bd 9d99 093c
00000330: ed94 06be 6733 d7bc 7165 283d a0c8 0cbd
00000340: d3be 09bc 54a0 a7bd ae23 49bd ed16 1cbd
00000350: 17b1 3dbd b2ff e8bc 355a c9bc 81ac cbbc
00000360: 181a aebd 840a e8bd 90c1 f8bd d950 10be
00000370: 46a3 fe3f 028a fbbf 3ffc 903e c97b eabd
00000380: aa35 6c3e 1942 0540 36ac b53e ce24 e43d
00000390: 3c04 fbbc e1a0 31bd c3f7 233e 4e63 78bc
000003a0: a6e7 71ba 8ce3 14bd 5610 ee3c a5ca 98bf
000003b0: 0653 0c3d ec57 513d 31f5 3d3d 3d4c 7b3c
000003c0: bfde 463f 8afb 48be c277 6bbe 2179 4cbe
000003d0: 4b7e 983d 69c5 263e b287 233e 97cc 023e
000003e0: a295 ef3d 1dec d23d 39b8 353e d058 f13d
000003f0: c8f7 86bd 283b 38be 4ea2 6fbd f9e1 2040
-0.22916898 -0.34863895 -0.2518699 -0.26971942 -0.35532296 -0.3311143 -0.32341826 -0.34115106
-0.20311435 -0.22195682 0.34877786 0.34439498 0.0015946289 -0.2383578 -0.18276905 0.1481833
-0.2458996 -0.3125245 -0.17922452 0.01604072 -0.16052611 -0.26472124 0.123859785 -0.014232036
-0.027490536 -0.37592295 -0.2585721 0.04040011 -0.055262912 -0.21778172 -0.13212582 0.4000609
-0.12714864 0.06615381 -0.00850267 -0.4378724 -0.40951478 -0.28120795 -0.33808267 -0.20580004
-0.1967516 -0.3374209 -0.2595127 -0.4389015 -0.4016848 -0.644403 0.40233886 0.18847016
0.69968337 -0.52912134 0.6753443 0.13862137 0.34228438 -0.0801395 0.040357027 -0.09772645
-0.23771195 -0.25167602 -0.29192755 -0.18095231 -0.14483874 0.17868717 0.4822185 -0.045979585
-0.8652632 -0.0694274 0.17088784 -1.291529 -0.98137724 -0.46736026 0.13801691 0.0738087
0.11526309 0.10144276 0.10244364 -0.016690735 0.10976115 0.020152709 0.11613478 -0.069704
-1.7402107 -0.73572105 0.36661708 -1.0252482 0.062070504 0.42713815 0.48836643 -0.09754078
0.39811867 0.2454363 0.2102355 0.18097396 -0.04792669 0.09308084 0.08141053 -0.13916558
0.036688946 0.18153311 0.014346368 0.19473761 -0.003128077 -0.35397288 -0.35597453 -0.027039248
-0.16540769 -0.14010927 -0.09649849 -0.09171077 -0.10729776 -0.09262119 -0.13906887 -0.119404264
-0.15759237 -0.10318694 -0.15007848 -2.248841 -0.6757006 -0.22312404 0.29244933 0.95750684
1.0230428 -0.28725886 -0.3860479 -0.67405605 -0.23428929 -0.20805898 -0.09523936 -0.013657158
-0.03420654 0.04646282 -0.23999564 0.029342148 0.00479173 -0.08340545 -0.04130869 0.29407758
-0.017846543 0.083966814 0.0910506 0.061617464 -0.20758775 -0.4097895 -0.28872922 -0.2606339
-0.27216914 -0.36039957 -0.32250378 -0.3303727 -0.3654425 -0.6587254 0.94943774 -0.7573795
0.34445116 0.17683935 0.096511655 -0.305287 0.27988788 0.0506262 -0.050356966 0.2804325
-0.037185203 -0.049320064 -0.07283034 0.10438296 -0.03428103 -0.44415995 -0.11280208 -0.20509526
-0.16101396 0.07184812 0.31688666 -0.2438187 -0.6141242 -0.63216823 -0.14141184 -0.10289372
0.03561259 -0.08165118 -0.20303094 -0.08821413 -0.11248206 -0.040551204 -0.20591885 -0.2894805
-0.3263412 0.31585312 -0.23543522 0.054972205 0.32615808 0.10161545 0.036331236 0.18793988
0.18680698 0.22719781 0.1488337 -0.12963095 -0.13736953 -0.22757007 -0.29550853 -0.12968984
-0.13772874 -0.17795837 -0.0356692 0.008398441 -0.13142748 -0.026269628 0.041112367 -0.03437102
-0.008407312 -0.08184877 -0.049106292 -0.0381078 -0.046311464 -0.028442238 -0.024579147 -0.02486253
-0.08501071 -0.11330131 -0.12146294 -0.14093341 1.9893577 -1.9651492 0.28317448 -0.114493914
0.23067346 2.0821593 0.3548295 0.111398324 -0.030641668 -0.043366317 0.16012482 -0.015160395
-0.0009227939 -0.036349818 0.029060524 -1.1936842 0.034258865 0.05110924 0.04637641 0.015338001
0.77683634 -0.19627205 -0.22994903 -0.19968082 0.074459635 0.16286243 0.15969732 0.12773357
0.11698462 0.10298941 0.17746057 0.11784518 -0.06590229 -0.17991316 -0.058504395 2.5137923

critic.0.bias f4 [128]
00000000: afe6 7dbe 0163 bcbe 29ca 3dbe 9184 3dbf
00000010: c257 5a3e 7525 a9bd 5b2f fabe 818d 1fbf
00000020: b713 66bf 7dfe 9bbe 951c 0e3f a973 e63e
00000030: 21ed df3d 0219 b3be f337 f8be 1196 0ebf
00000040: aafd 10bf 67bc 1a3e 628c 173e 8bec d83d
00000050: 8f63 09bd 08c9 27bf 4088 2ebf 7d26 72be
00000060: 897c cc3e f451 a53e 3d6d 8b3e eba9 453f
00000070: 2d5d 2d3e 0b03 eebe 7164 643e 234f d1be
00000080: 3378 eb3f f952 333e 0cea e9bc c8e7 173f
00000090: 09cd 47be 92e3 143e bdf1 0d3e 22fe cabe
000000a0: 2a06 19be 5cc3 36be 2447 b6be dcd9 06be
000000b0: 775d 3a3e 5418 85be 5ed6 70bf 3c98 d6bd
000000c0: 95ae e33e ca9b 50bd 39cf 5dbf f419 0dbf
000000d0: 0311 e93e 5134 59bf 4d88 33bf cc53 243f
000000e0: bd56 bb3d e6ff a3bd 598a abbe 8c56 723b
000000f0: 549e 10bc 9e06 803f b2df da3c 1630 103f
00000100: 92c1 97bd 44f5 27bf 2c1e db3e 80fa e43e
00000110: 6edc e33d cad2 98bf 252a 83be 38b3 2cbe
00000120: d9b5 42be 8ddf 7cbe 1476 d23c 2fd4 dcbe
00000130: 5390 9abe 72ef 563e cb7a fd3c 4999 3c3f
00000140: d606 77bd 0697 dbbe 2db9 723e c3df 03bf
00000150: a2de 9e3d 8ab2 c53d 472f 2dbe 8d49 47bd
00000160: 82ee aabd 0ab5 473d d20b c4bd 71ff a73e
00000170: 0c6c 85be 95a6 273d 675b 0ebf 6b00 0ebf
00000180: d21d c1be c6dd 783f f373 223f 73c9 0bbe
00000190: fc38 603d 4cf6 4c3d 098c 503f b21f 4cbe
000001a0: 5eb5 483f a875 923e 1a86 debe 3664 a83e
000001b0: 7f24 293e 28c5 2c3e 9364 333f ed2e 14bf
000001c0: c41b 753c 1632 013e f4e1 263e 9deb 313e
000001d0: 1108 4cbf a5d5 b6be 1e97 173f 2e27 6cbc
000001e0: eecb e3be 8cdc 98be c67a 22bf 968e 1dbf
000001f0: b55a 943e 4441 383f a7fb 1dbf ff20 143f
-0.2479503 -0.36794284 -0.18534149 -0.74030405 0.2132254 -0.082590975 -0.48864254 -0.6232529
-0.8987383 -0.30467597 0.5551236 0.45010117 0.109339006 -0.34980017 -0.48480186 -0.55697733
-0.5663706 0.15110932 0.14799646 0.10591992 -0.033542212 -0.65541124 -0.6817665 -0.23647495
0.39938763 0.32289088 0.2723178 0.772124 0.16930075 -0.46486697 0.2230394 -0.4088069
1.8396057 0.1751212 -0.028553985 0.59338045 -0.19511808 0.14539936 0.13861747 -0.39647013
-0.14943758 -0.17847961 -0.3560115 -0.13169044 0.18199717 -0.25995123 -0.940771 -0.10478255
0.44469133 -0.050929822 -0.8664432 -0.55117726 0.4552079 -0.84845454 -0.70129853 0.64190364
0.091474034 -0.08007793 -0.33503988 0.0036977855 -0.008826811 1.000202 0.026717994 0.56323373
-0.074099675 -0.6560862 0.42796457 0.44722366 0.11126028 -1.1939328 -0.2561809 -0.16865242
-0.19014682 -0.24694653 0.02569107 -0.43130633 -0.30188236 0.20989779 0.030942341 0.73671395
-0.060309254 -0.4288866 0.23703451 -0.5151331 0.077573076 0.09653194 -0.16912566 -0.048654128
-0.08346273 0.048756637 -0.09572567 0.32812074 -0.26058996 0.04093035 -0.5560822 -0.5546939
-0.37718064 0.972134 0.63458174 -0.13651066 0.054741845 0.050039575 0.81463677 -0.19933966
0.78401744 0.2860539 -0.43461686 0.32888955 0.16517828 0.16872084 0.7007534 -0.57884103
0.014960233 0.12616763 0.16297132 0.17375036 -0.7969981 -0.35709873 0.5921496 -0.014413638
-0.44491524 -0.29855764 -0.6346859 -0.61545694 0.28975454 0.7197459 -0.61712116 0.5786285

critic.2.weight f4 [64, 128]
00000000: 8ee4 19be a0a0 53be 4b41 0dbd 834e 3fbe
00000010: 76db d93e 0e33 1f3e 9bdc 243d 9de1 9e3d
00000020: 4c76 abbe ed35 093f 8f08 7d3f 6945 633f
00000030: 093f c2be aa09 d6bc dd26 e33d 3e2f ff3e
00000040: e870 173d 36f2 3a3f 8e0d 92be 76f9 1f3f
00000050: febb 8b3f 952f 0bbe 51f3 11bf 2f60 32be
00000060: 3ffb 623f 593a 4c3d 909a 5b3e f037 aa39
00000070: 6b29 273e ee11 72be 6a84 423e b60a 823e
00000080: 2181 003f 909d 1e3e 6fb8 a6be c1cb 283e
00000090: d024 8cba 0800 9e3f 339c 283d c666 813e
000000a0: 9db4 26bf f1ef e13d f744 02bd 60b5 363f
000000b0: 2138 983f 746f f53e 46d1 633c da0a 633e
000000c0: 020d 843f f536 893d e6d0 f5bd 8600 f4be
000000d0: 2888 1c3f 8187 97be 95cd 003e abe9 303e
000000e0: 96b6 663f 90fc 88be 64d7 1cbd 82b6 97be
000000f0: 143f 373e 3575 9a3e b433 c2be 6090 4e3f
00000100: 0e27 223f 8ee3 d1be 9182 a13e 0987 323e
00000110: 8297 3f3f 81d0 a2bf ed04 a53e 3802 373e
00000120: aa90 d03d ffdf 1e3e 7ccc f33e 1ebb e43d
00000130: df82 0d3f adc4 2d3e 0148 323c 20dc 4d3e
00000140: a864 7c3f 449e 9cbc 6ebe 4b3e 156a 2cbe
00000150: 8726 debe c70a a8be 95b3 da3e d77e 80be
00000160: ccf9 ed3d a507 e73c b99a 18bd d6eb 2b3f
00000170: 37fe e4bd a79e 83be 0734 eb3e 5e01 afbd
00000180: 491f f5bc c0ca 223e 02b8 a03e f601 703f
00000190: dfe0 3fbe f7ff 843e 8c07 6c3e ac70 293f
000001a0: 1540 3f3e a578 2b3e 2794 193f f6f5 613f
000001b0: 9c2a fe3e 24ba 173e 83a6 e83d 1373 843e
000001c0: 3fc4 a6bc 8148 833e 342a 023e d758 283f
000001d0: bbe3 56be 82c9 9d3f 25c5 953d 1785 5e3f
000001e0: 310f 19be 86e1 c0bd b64f 0f3f 81aa 66be
000001f0: b337 a83f 6a5b 273e 3e5b 433c 34c9 1b3e
00000200: 3841 203e 4b3c 81be c436 51be 3e80 4dbd
00000210: b598 58be 0852 1c3e 3fc3 abba b01e 59be
00000220: 6a2d 62be 8ad4 d53d da67 85be 713d 7b3d
00000230: 1a31 10bf f7a4 c53a ef0a 4fbd 947a a7bd
00000240: 15fa 82be c5eb 263d 3782 933d 9868 273e
00000250: b96e 3fbe 7ddc ebbd 247d 17be 58a0 863e
00000260: 811e e5bc 7b6f eabd f854 05bd ee47 c53c
00000270: eae5 51be 99ce 433d dc05 59be f0f0 0fbd
00000280: 27cd 41be b1ff 373d 3014 fe3c 543e 19be
00000290: c9d2 84be 2e82 96bc 8c50 833d 7b9e 0abe
000002a0: f142 2fbd 58c0 cebc e531 ba3b e0a0 85bd
000002b0: 6aef bcbb 4267 90bd de81 8f3d deec af3d
000002c0: 8613 af3d 9a4e e7bd 2aaf 0fbc 2356 e9bd
000002d0: 4b19 cabd d2f2 373e e94e 82be f92a f4bd
000002e0: 5767 70be e258 d33c a12d 9c3d 0b8a d0bd
000002f0: 06cc fd3d 599c 523e eb92 6b3e 4b3e 4c3d
00000300: 34ee 01bf 1cc6 bbbd a991 16be 6fc7 4fbe
00000310: ec39 91be 0fdc 6bbd 512a 4f3d 8d41 89bd
00000320: b913 743d 7e75 b23d 06cf 8fbc 7801 13be
00000330: 6667 5f3e 4e39 a2bb 2acb 54bd d60c 94be
00000340: 1ddd a3bd bf71 2ebe e1d1 663d 0775 51be
00000350: b0ef 8fbd e7fc 393d 7e7b 903e 38f8 c23c
00000360: ab97 843c ff97 1bbd 27b0 0bbe 6655 a4bd
00000370: 880a 583d 813e 66bd 72f9 1bbe 5c46 ab3d
00000380: 595a 6dbe 85e7 8c3d 2521 3f3c 9839 b43d
00000390: e216 66be 9867 3bbe ad1d aebd 9153 01be
000003a0: ac98 8abd 6421 71be f9ea c3be 2b83 df3d
000003b0: 67cf 25be 678d 9bbb 1439 153d ca27 fabd
000003c0: b205 85be f7f7 2ebe af38 92bd b725 14be
000003d0: 15b5 5ebe 5747 4abe b906 fcbd c7b4 ac3c
000003e0: a108 cebd 5090 fabd fe54 49bd 6b73 0abd
000003f0: d905 e93c 8ea0 7dbd 6b80 17bd d647 19be
-0.15028593 -0.20666742 -0.034486096 -0.18682294 0.42550248 0.1554682 0.04024945 0.07757876
-0.3348869 0.5359791 0.98841184 0.88777786 -0.37938717 -0.026127655 0.11091397 0.4984073
0.03697291 0.73025835 -0.28525966 0.6249002 1.0916746 -0.1359237 -0.57011896 -0.17419504
0.8866462 0.049860332 0.2144568 0.00032466603 0.16324393 -0.23639652 0.18995824 0.25398797
0.50197035 0.15489793 -0.32562587 0.16483976 -0.0010692123 1.234376 0.04116459 0.25273722
-0.65119344 0.11032093 -0.03180405 0.71370506 1.1892129 0.47936594 0.013904875 0.22172108
1.031647 0.06699935 -0.12002735 -0.4765665 0.6114526 -0.2959557 0.12578423 0.17276637
0.90122354 -0.2675519 -0.03829135 -0.2963143 0.17895156 0.30167547 -0.3793007 0.8068905
0.6334084 -0.40993923 0.31544927 0.17434324 0.7484056 -1.271988 0.3223032 0.1787194
0.101838425 0.15515135 0.47616947 0.11168502 0.5527782 0.16969557 0.010881425 0.20103502
0.9859109 -0.019118436 0.19896862 -0.16837342 -0.4338877 -0.32820722 0.42715135 -0.2509677
0.116199106 0.028201887 -0.03725693 0.6715673 -0.111813 -0.2570698 0.4593813 -0.08545183
-0.029922144 0.15897655 0.31390387 0.9375299 -0.18738125 0.25976536 0.23049754 0.6618755
0.18676789 0.16745241 0.5999169 0.8826593 0.49641883 0.14817101 0.113598846 0.25869045
-0.02035725 0.25641254 0.12711412 0.6576056 -0.2098531 1.232712 0.07312993 0.8692183
-0.14947201 -0.09418015 0.55981004 -0.2252598 1.3141998 0.16343465 0.011923609 0.15213472
0.15649879 -0.25241312 -0.20431048 -0.05017113 -0.21152003 0.15265667 -0.0013104453 -0.21203113
-0.22087637 0.10440929 -0.26055795 0.061337892 -0.56324923 0.001507907 -0.050547536 -0.08177677
-0.25581422 0.04075219 0.07202571 0.16348493 -0.18694581 -0.11516664 -0.14793831 0.26294208
-0.027968647 -0.114470445 -0.032551736 0.02408215 -0.20497862 0.04780445 -0.21193641 -0.035141885
-0.18925916 0.04492158 0.031015486 -0.14965183 -0.25942066 -0.018372621 0.064118475 -0.13537018
-0.04278845 -0.025238201 0.0056822174 -0.06524825 -0.005765845 -0.07050945 0.07007192 0.08590101
0.08548646 -0.11294289 -0.00876979 -0.113933824 -0.098681055 0.17963722 -0.2545083 -0.11922259
-0.23476921 0.025799219 0.076258905 -0.101825796 0.1239243 0.20567454 0.23005264 0.049864095
-0.50754094 -0.09168646 -0.14704002 -0.20290922 -0.28364503 -0.05758291 0.050577465 -0.06701956
0.05958912 0.08713816 -0.017554771 -0.14356029 0.21816787 -0.004950679 -0.051951565 -0.28916043
-0.080011584 -0.17035578 0.0563525 -0.20454799 -0.07028139 0.045407202 0.28219217 0.0238
0.016185602 -0.03798675 -0.13641416 -0.08024101 0.05274442 -0.056211952 -0.15231875 0.08363029
-0.23178996 0.06880096 0.011665617 0.08800048 -0.22469667 -0.18301237 -0.08501754 -0.12629534
-0.06767401 -0.23547894 -0.38265207 0.1091369 -0.16192399 -0.004747081 0.036431387 -0.122146204
-0.25980908 -0.17086779 -0.07139718 -0.14467512 -0.21748765 -0.19753776 -0.1230597 0.021082295
-0.100602396 -0.12234557 -0.04915332 -0.033801477 0.028445171 -0.061920695 -0.036987703 -0.1496881

critic.2.bias f4 [64]
00000000: f5a6 843e bd7e 5dbd 5d66 a23d ef2f 5e3e
00000010: 3b53 c1bd 09ca 913d 98be a43d 8853 cebd
00000020: a69d 143e b3dd 65bc 50ea f43d cdcc 88be
00000030: ec5f 39be fe98 c93d 18e5 2e3d 7195 0f3d
00000040: 2a0d 1d3e ecb3 943d 133a d13c abcb 2b3d
00000050: 8768 b93b 8f65 093d 6c2f 20be 63e3 2f3e
00000060: 33b5 46bd d574 ceba 1612 0fbf d82d 3dbc
00000070: 4619 2abd 0916 85be bcc7 683e 4103 0f3e
00000080: efd9 be3d d45f 4ebe d50d a83d 0e28 a9bd
00000090: 58e6 27be c0db 2f3e 748a c3bd 708e 9c3b
000000a0: 6428 43be ecf6 223d eca2 5bbe a313 98bd
000000b0: 5492 a53e 5d15 26be 6af0 a23d 38fb a63d
000000c0: 2470 55be 1d24 ed3c cfd6 8cbc a2f4 4ebe
000000d0: f9c1 413d b960 093e 06b2 41be dc6d 8bbd
000000e0: fdf4 cb3d 38a7 5dbd d414 383e 2b42 873c
000000f0: cc7b 363d 309f eebd a7e3 753e ac73 fe3d
0.25908628 -0.054075945 0.079296805 0.21697973 -0.09439703 0.07118613 0.080441654 -0.10074526
0.14513263 -0.014029908 0.11958754 -0.2671875 -0.18102998 0.09843634 0.04269895 0.035054628
0.15337053 0.0726088 0.025540387 0.04194228 0.0056582126 0.03354412 -0.1564309 0.17176585
-0.04851265 -0.0015751371 -0.5588697 -0.0115465745 -0.04152801 -0.25993374 0.22732443 0.13966085
0.09318911 -0.20153743 0.08205763 -0.08259593 -0.16396463 0.17173672 -0.09547892 0.004777722
-0.19058377 0.039786264 -0.21448869 -0.074256204 0.32338202 -0.16219087 0.079560116 0.08153385
-0.2084356 0.028947884 -0.017192272 -0.20210508 0.047304127 0.13415803 -0.18915567 -0.068080634
0.09958837 -0.05411455 0.17976695 0.016511044 0.044551656 -0.11651456 0.24012624 0.124244064

critic.4.weight f4 [1, 64]
00000000: 8a0b 9bbe 92bc 6b3e 6789 fd3e 030a 84bf
00000010: 9930 aabd 4146 553e 686d 8bbe 58d0 a33d
00000020: e117 86bf e817 1e3e f581 90be ce31 ab3e
00000030: 2f6c 3d3d b6d6 11bf 6d72 79be f481 6a3e
00000040: bb26 3cbf 8b57 cab9 e1c9 dd3d 5193 99be
00000050: 16f2 efbe 1c8a cebd d1b7 553e afcf 80bf
00000060: f04a 533e fd59 41be f5e8 223f ae2b 603e
00000070: 9394 f23e 73fa f63e 9b28 69bf fa1e 69bf
00000080: 04b5 87bf 8627 073f 72bf d43e d62a b33d
00000090: 6024 4fbe c278 8cbf 7ea3 5d3e 984f 023f
000000a0: e006 473f 7e25 aabe 254b 843e 0f5e 09bf
000000b0: 07d4 7ebf 60e0 70be 0bc3 593f a374 11be
000000c0: 6151 43be e2d2 5cbe 08d6 963e 6075 14bf
000000d0: 3a60 c83e 6a65 89bf 4df1 a43e 56e7 2bbf
000000e0: 31f8 25bf ab01 913e f2a9 25bf fe9a df3e
000000f0: 7cf8 b83e 9ce0 7ebf a8df 29bf cc1e a9be
-0.3028224 0.23021153 0.49518892 -1.0315555 -0.083100505 0.20827581 -0.27231908 0.07998723
-1.0476037 0.15438807 -0.2822415 0.33436435 0.04624575 -0.5696825 -0.24360056 0.22901136
-0.734966 -0.00038593667 0.10829521 -0.29995206 -0.46864384 -0.10084936 0.20870902 -1.006338
0.20634055 -0.18881984 0.63636714 0.21891662 0.47378978 0.48237953 -0.91077584 -0.9106289
-1.0602117 0.5279468 0.4155231 0.08748405 -0.2022872 -1.0974352 0.21644399 0.509027
0.77744865 -0.3323173 0.2583858 -0.5365915 -0.9954228 -0.23523092 0.85063237 -0.1420465
-0.19074012 -0.2156482 0.29460168 -0.579916 0.39135915 -1.0734074 0.32215348 -0.67149866
-0.64831835 0.28321585 -0.6471244 0.43672937 0.3612708 -0.99561477 -0.663569 -0.3303131
