PPO_preTrained/add retent_rate/PPO_add retent_rate_0_675.pth (torch, 110785 bytes, 11 tensors)

actor.0.weight f4 [128, 35]
00000000: 0c96 bdbc 88ec 13be d0e8 a9bd 7167 8b3b
00000010: d298 c23d 4a72 063d 539f 9a3d 3620 abbc
00000020: 5e2d b7bd 92df dcbd afef 8b3f 468d 47be
00000030: a497 9ebe 9c31 36bf 6995 fc3e 740f ca3e
00000040: 51eb d3bd 099e c63d 849a 593d 0b89 793e
00000050: cf9a fdbd c37b a3bd eda5 f33c 6662 1f3d
00000060: 1179 853d b19a dd3d 1c8d 753d c30f 6abd
00000070: f994 e6bc 0ff5 ea3d c01f c0bd 644d 4cbd
00000080: 5bb6 a7be edda 62be af5a d8bd 0063 183e
00000090: dace fa3d 9b45 ccbc 09c5 273d 9218 f73c
000000a0: 5d1a a4bd f1ac 733d 42b6 febd 33ce ba3d
000000b0: 77d8 c83d 8b9d 673f ef22 73be b9c3 1d3d
000000c0: 8346 de3d 38e3 133f 7f7b 0bbe bebe a8bd
000000d0: c356 67be b283 babd eebe 8cbc 9915 e0be
000000e0: 7cf8 19be b624 173d 1c7f 583d cec8 613d
000000f0: 17a3 283e 5e5d 7a3c 20f7 5a3d 428c 5f3d
00000100: 31ff 993c c724 55be 2dce 303e 0eba ea3a
00000110: 3cf9 b33d ff1d 973e 2513 5dbc b305 333d
00000120: 0f63 093d c027 7dbc 6ccd 1abc a58c ef3d
00000130: 3030 273e feda 1cbc c1db 353e 0cca 32bd
00000140: ddd6 903f 0148 c23d 3394 7fbe c3af 23bf
00000150: 43fd d23e 793f e5be 4636 693e d39e 5c3c
00000160: 9e7c 5c3d a8ba 823e 08fa 9abe 1f34 273e
00000170: 47ec 18bc cdec 27bc 6933 6e3e 3b47 b8bd
00000180: e361 66bc ed0b 213e c459 8cbc 3273 013d
00000190: b04a 7dbe c4d1 32be addb a13d fb89 1c3e
000001a0: 0ed1 4abd 8d17 85bd a224 6f3d d84e 03bd
000001b0: 9b8a d6bd c37c 9ebd ae55 283e dfea 223d
000001c0: ac2b 0e3e bc2d 99bd 5591 8b3e aab5 6ebf
000001d0: ce62 e53e 5bcb 033f 565c 9a3f 1d1c 33c0
000001e0: fb9e 0d3e 8ff3 8d3d f4b1 a8bd 8afe 743d
000001f0: fcd5 f63e 06b9 8e3e 1d5b db3d 4e57 0a3e
00000200: 3ad0 a9bc 17aa b0bd 65dd e63c cd6f ad3d
00000210: 935e d23d e1da 5e3e c843 bb3c 3b2b 5cbf
00000220: c98e 453e f798 993d 6343 7b3d 3f72 b63e
00000230: 5db4 7d3b 30f2 6dbc 3741 783d 9d2e 97bc
00000240: b29d 193e f39e 83bd f559 14bd fe8a ce3d
00000250: af43 cf3d b488 863d 1022 083f 3266 ce3e
00000260: 4445 82be 0650 843e 73c4 2d3f 8af9 2e3f
00000270: f677 3dbe 2d85 ebbc 18aa 29be a5c1 f4bd
00000280: 0a5d 31be 11b9 c63a 9c3e ce3b aab0 a13d
00000290: dfa5 6abb b2a0 7dbe 4057 af3d a06c 793c
000002a0: 118e f33d d8a8 bbbd 598b 9a3c 4196 913c
000002b0: 037c 9e3c 183c b23c 7e25 603e ab7e b23d
000002c0: 0dcb ecbc f48f 133e aab3 b73d 682a 4b3e
000002d0: 4e63 b7bc 0c14 4e3c e7f9 00bc 3e7a 86bc
000002e0: a665 503e c403 20bf 32b3 233f 3292 95bd
000002f0: 6909 e43c d1c5 d1bf 47c5 0b3f 41f6 31bd
00000300: a8a2 333e 4d2a e6bb 19f4 6d3e 1223 19bd
00000310: 9749 d03b 9917 a0bc f7a9 b83d c8ed 213d
00000320: 1a66 0d3e e881 57bd 67c6 933d 4d85 423e
00000330: 7188 28bd 0708 413e a06a 4ebd 6f6b 80be
00000340: d530 54be 79e8 28be 6cec da3d 7814 01be
00000350: 33de b4bd e0c0 1e3e 0a8a c53c 03a4 be3d
00000360: f065 3b3e 9d6a dbbd bd77 243d f213 613d
00000370: 2cc9 0dbf a180 b13d 232c 11be 91b9 963e
00000380: 21f4 50bf 1279 223f e9c6 efbc 03f5 89bc
00000390: 583d 3ebd 504a 933c a7f6 9bbb a4a9 fdbd
000003a0: 9121 46bd 9bbd a83d c513 d43d 8329 c23d
000003b0: 5edc ab3d 5fea f7bd b433 d43d 1a34 43be
000003c0: 51b9 f13d 8c6e 34bd e371 10be 183e dabd
000003d0: c87f 5ebe b09a bdbd 8e61 c93d 4bd4 e03c
000003e0: b786 713e cd24 8b3d 7288 0f3e 263a 103d
000003f0: 6799 92bc f2ea 063e 2b10 16bd 23c1 223e
-0.023142837 -0.14445698 -0.082963586 0.0042542745 0.095018044 0.03282384 0.0754992 -0.020889383
-0.089442 -0.1078483 1.0932521 -0.19487485 -0.30975068 -0.7116945 0.4933274 0.39464915
-0.103476174 0.096981116 0.053125873 0.24368684 -0.12383043 -0.0798259 0.029742206 0.0389122
0.06517232 0.10820521 0.059949026 -0.057143938 -0.028147208 0.114725225 -0.09381056 -0.049878493
-0.32756314 -0.22153826 -0.105641715 0.14881516 0.12246485 -0.024935534 0.04095939 0.030163083
-0.08012841 0.0594911 -0.12437107 0.09121361 0.098069124 0.90474766 -0.23743795 0.038516734
0.10853293 0.57768583 -0.13621329 -0.08239506 -0.2259169 -0.0910715 -0.017180886 -0.43766478
-0.15036196 0.036900245 0.052855596 0.055123143 0.16468464 0.01528105 0.053458333 0.05457712
0.018798443 -0.2081481 0.1726615 0.0017908232 0.08787772 0.29515073 -0.013493334 0.043706607
0.033541735 -0.015451372 -0.00944839 0.11696748 0.16326976 -0.009573696 0.1775961 -0.04364972
1.1315571 0.0948639 -0.24958877 -0.63940066 0.41208848 -0.44774988 0.2277461 0.013465601
0.05382978 0.25533032 -0.30268884 0.16328476 -0.009333677 -0.010249329 0.23261799 -0.08997961
-0.014061424 0.15727206 -0.017132647 0.031604 -0.24735522 -0.17462832 0.07903228 0.1528701
-0.049515776 -0.064986326 0.058384545 -0.032057613 -0.10475656 -0.0773864 0.16438934 0.03977477
0.13883847 -0.07479426 0.27259317 -0.9324595 0.44801944 0.5148217 1.2059429 -2.798591
0.13830177 0.06931221 -0.08237067 0.05981306 0.48210132 0.27875537 0.10710738 0.13509867
-0.020729173 -0.08626192 0.028181741 0.0846859 0.10271945 0.21763183 0.022859469 -0.86003464
0.1929275 0.07499879 0.06134356 0.35634038 0.0038712241 -0.014523074 0.06060907 -0.018454844
0.15001562 -0.064268015 -0.036218602 0.100851044 0.101203315 0.06569043 0.53176975 0.40312344
-0.2544347 0.25842303 0.6787788 0.68349516 -0.18502793 -0.028750027 -0.16568792 -0.11950997
-0.17320648 0.0015161355 0.0062940847 0.07895024 -0.0035804433 -0.24768332 0.085615635 0.015223652
0.118923314 -0.09163064 0.018865274 0.017771842 0.019346243 0.02175717 0.21889302 0.08715566
-0.028905416 0.14410383 0.08969815 0.19840395 -0.02238622 0.012578022 -0.007872081 -0.016415711
0.20351276 -0.62505746 0.63945305 -0.07303275 0.027836518 -1.6388494 0.54597896 -0.043447737
0.17542517 -0.0070240856 0.23237647 -0.03738696 0.006356429 -0.019542502 0.09016793 0.039533406
0.1380848 -0.052614123 0.072155766 0.18996163 -0.041145746 0.18850718 -0.050394654 -0.25081965
-0.20721753 -0.16494931 0.10689625 -0.12605464 -0.08831444 0.15503263 0.024113674 0.093086265
0.18300605 -0.10713694 0.040153254 0.054950662 -0.5538509 0.08667112 -0.14176993 0.2943845
-0.8162251 0.6346599 -0.029269652 -0.016840464 -0.04644522 0.01797977 -0.004759628 -0.12385872
-0.048371855 0.082392894 0.10355333 0.09480574 0.08391641 -0.121052496 0.10361424 -0.19062844
0.118029244 -0.04405074 -0.14105944 -0.10656375 -0.21728432 -0.0925802 0.0983306 0.02744498
0.23586546 0.067941286 0.14016894 0.035211705 -0.017895414 0.13175562 -0.036636513 0.15893988

actor.0.bias f4 [128]
00000000: a988 793e 74a6 103d e4e9 ae3e 3024 8d3d
00000010: eaa9 e6bc 650f a93d 46a2 64be 0fd5 c2bd
00000020: f62c d53e 7879 17bd 6a72 ad3e 104c d8bd
00000030: a3fb c73e 2d07 933e 83b4 11bd daba 383e
00000040: 0758 d3bc adeb 833e 75fe 573d 72de 77bd
00000050: 8f1b 473d 1a0f 8abd e479 36be fa60 f63c
00000060: adbb 913e 77ae df3e 558d 35bc 9aa6 983b
00000070: ac87 3d3e e086 ec3d 9217 00bd dfc9 c13e
00000080: 9d2f 783e 7c66 833c c758 c43d c252 f13d
00000090: 3171 d5bd ef0b ae3d dad5 f43e 48e8 a43e
000000a0: 5e54 9f3d 2d2b 01bd 412c b83e dcff 3f3e
000000b0: 6152 713e d36d 553e 8db0 56bd 5146 7dbe
000000c0: bf2c e13d 0f49 ff3d 0b24 9a3e d08d d93b
000000d0: 105b 46bd 8c5c c93e 4b04 e939 e98d 45be
000000e0: a371 56bd 64d1 f7bc 14b8 39bd 147b c33d
000000f0: 3f9c 65bc b5a9 683d 437c 5cbe 91ae 5bbe
00000100: d491 553e 62f8 163e e538 943e 920b 543e
00000110: 2e09 843e 7a12 0f3e de6e 7e3e 5281 ac3e
00000120: f9eb 633e 6aba e2bd 9054 a63e 1d9c 913e
00000130: 5e49 10be 7580 843d eae1 6bbd 9f88 18be
00000140: cd34 afbd 1413 993d df7c 0ebe f411 813e
00000150: db1e 5d3d a27e 343d 3eaa f53d 4f19 763e
00000160: 5d4d 9ebd 27de f1bd 9ec7 bd3e a7cd 02be
00000170: 7e16 853d a366 9dbe 3b46 4bbe 6f7a 7b3e
00000180: cda4 82bd d800 f1bc e257 1c3e 72bb debc
00000190: 27ee 243d 2e63 2abe 5e0b 933c 2226 d83c
000001a0: d38f 9b3d 5a03 253d d3c1 1ebe d840 663e
000001b0: f36a 37bd bd9b 3e3d 5ef5 da3d 0ecf 9fbd
000001c0: c3c1 223e 8fa5 a1be 5a77 a33e bcc6 163e
000001d0: ae45 81be 6c79 99bd 7818 dbbd 4a78 48be
000001e0: 3e32 ff3d 53d9 55be 3f8b cd3d f7ff 793d
000001f0: ec2e b03e fa60 c23d d645 66bd 6b6e 073e
0.24368538 0.035314992 0.3416282 0.06891668 -0.028157193 0.082548894 -0.22327527 -0.09513294
0.41635865 -0.036981076 0.33876354 -0.10561383 0.3905917 0.28716412 -0.03557254 0.18040028
-0.02579881 0.25765744 0.052732904 -0.060514875 0.048610266 -0.06741162 -0.17819935 0.030075539
0.28463498 0.43687794 -0.011081059 0.0046585323 0.18508786 0.11549163 -0.03127248 0.37849328
0.24236913 0.01604008 0.095872454 0.11783363 -0.1042198 0.0849837 0.47819406 0.32208467
0.07779764 -0.031535316 0.35971263 0.18749946 0.23566581 0.20842676 -0.052414466 -0.24733855
0.10994863 0.12465107 0.30105624 0.00663922 -0.048426688 0.3932842 0.00044444422 -0.19292416
-0.052354466 -0.030251212 -0.045341566 0.0954496 -0.014014303 0.05680247 -0.21531777 -0.2145331
0.2085641 0.14743188 0.28949657 0.20707539 0.25788254 0.13971892 0.2484698 0.33692414
0.22257985 -0.11070712 0.3248639 0.28439417 -0.14090487 0.06469814 -0.057588495 -0.14895867
-0.08554993 0.07474342 -0.13914822 0.2520901 0.053984504 0.04406608 0.11995362 0.24033092
-0.077295996 -0.1180995 0.37066358 -0.12773763 0.06498431 -0.30742368 -0.1985101 0.24558423
-0.063790895 -0.029419348 0.152679 -0.02718899 0.040266182 -0.16639397 0.017949756 0.02638537
0.07595792 0.0402864 -0.15503626 0.22485673 -0.04477973 0.046535242 0.10691331 -0.078031644
0.15894227 -0.31571624 0.31926996 0.14724249 -0.25248474 -0.074938625 -0.106980264 -0.19577137
0.12460755 -0.20883684 0.10036325 0.061035123 0.344108 0.09491153 -0.056218944 0.13225715

actor.2.weight f4 [64, 128]
00000000: e7f2 f8bd 52d5 88bd 731a cebe 1b50 193e
00000010: 83c1 4b3d 5bcc 3e3e bada 253e 0273 e93c
00000020: 5a8f d8bd c6a0 13be 0ff0 353e b227 3abd
00000030: 3620 e73d 212d 6cba 7b08 a0be 99ae 393e
00000040: 3f77 e6bd a985 ae3d f8de fc3d 2543 3bbe
00000050: df1c 973d 79b9 23be 1c49 9d3d 71b0 1fbe
00000060: 3aa3 95bd d0d2 df3d 6ea1 50be 0c6f f83d
00000070: d478 f2bd e69b ad3c 5fb5 39be 879d 833d
00000080: 44dd 183e 21f6 0ebb ebc6 3d3e e5fa 513d
00000090: bb11 d4bc 99a5 e33d e244 1bbd 46c2 39bc
000000a0: 9f6c dfbd 042c aebd cf97 bfbd 2698 4b3c
000000b0: 4ce1 7fbb ea96 c73c edaa 493d 9b45 e3bd
000000c0: ffca cbbd 6201 b0bd bd99 8ebc 0dd3 03bd
000000d0: e5dc 703d 45d5 24be 6763 3ebd a899 413e
000000e0: 8442 f1bd fe3c 303e 35fe bd3c db38 013d
000000f0: 8489 bcbd 3099 0fbd c335 293e 6f57 623e
00000100: 389f 3bbe e7d2 03be ff98 18be 97a8 843d
00000110: c1b0 af3d 15fc d2bb e42b 48be 85bf 4dbe
00000120: 20d7 f1bd 5030 1b3e 3570 80be 8faa 3abd
00000130: 65ce 873d d466 093d d718 96bd abae 073e
00000140: 565e 22be 8dc5 e3bb d9ad 0a3e 2157 49bd
00000150: 3a0e dabd 7c42 1abd 99e9 113c 1098 abbd
00000160: 508d c13d 132c 10bd 37b0 a2be 0131 8d3c
00000170: e9ad 51bd 0064 333e ae81 583e 92ac 38bd
00000180: 5342 df3d 4598 723d 82c3 cebc 7cad eebc
00000190: 15f0 f43d 9f47 623e d443 ea3c b2af 7dbd
000001a0: 5852 26be 93f3 863d 297c 80bc 5dba 6d3d
000001b0: 24d9 d53d 3788 8d3d 7197 163e 45db 353e
000001c0: 0280 683d a84c c43d cb53 283e ede5 89bd
000001d0: 814b a43d 20a7 b23d e875 d13c 3ca5 533e
000001e0: efb2 0e3d af36 8c3a 40b2 b9bc f55f d3bc
000001f0: 942f ee3d a05f f8bd 8324 403d 6406 73bd
00000200: 9d54 a8b8 72f6 cabd 69a0 b13e 718a 263c
00000210: 907a 82bd 3af9 babc 17bd 4ebd a6d7 1cbe
00000220: 4f82 f63d de49 08be c2f6 c03d a48d 3c3a
00000230: ce8d 0d3e 644b 643e 9809 a33e ea53 7c3d
00000240: 90d6 62bd c857 a13d 85f1 bd3d 4241 48bd
00000250: e77c 7fbd 2931 07bd 3b77 b83d 12a5 2dbb
00000260: d6e5 0abc 18c1 013e 68c0 12be 09fd ef3c
00000270: 0cf1 343e c87e d63c 1727 4fbe 61eb 343b
00000280: fd29 5e3d f609 71bc 617e 8bbd 3978 e03c
00000290: d979 d2bc f52b d33d 917e ef3d f658 003e
000002a0: 7baf b1bc b791 1bbc e039 10be 4db3 3c3e
000002b0: afed c2bd 63ad ee3d de67 a93d 125c 19bd
000002c0: 18da 693d 80b8 a13e b2a2 f93d 4c02 5c3e
000002d0: cd16 77bd 453f 533e f519 90bc 782b e93c
000002e0: 4172 1abe 8024 88bc d3f6 0e3e 5820 bfbd
000002f0: 4e76 f6bc 9675 2a3d e44d e43c 6544 0a3d
00000300: fabe b33c 947f 2b3e d55f 4e3e d3ce 5ebd
00000310: 788f ab3e 9a82 8f3d a8c5 9e3e 4c1c 7c3d
00000320: 98fd 26bd edce b2bd dbe2 963e 7b78 0d3e
00000330: 6cd5 9dbd 6fcd 03be b1ef 96bd 9e8a 35be
00000340: af0b 933c 0621 903e f52f fd3c 5b63 45bd
00000350: 7e35 39be c0c5 c0bc 675a 003b 118e 493e
00000360: fa8d 313d ac52 1bbd 70de 853e 458d 66bd
00000370: 0a9a a53d c08b 8fbd a023 54bd 87ed 583e
00000380: 3693 1e3d aca3 253d 1b8e 6d3d 9733 5bbd
00000390: 279d 9fbd 0dbd 783d 67f6 463e 3d1b 273e
000003a0: 64ab 2b3e 4952 fbbc ead2 30bc 5af5 aabd
000003b0: dfeb 9dbd 6b6f 253e dad6 4b3d 408a 2e3c
000003c0: cf75 713c 368e 6abe 3208 f2bb 389c d83d
000003d0: 8d75 0fbe b12f a7bc 9b24 d4bd 6577 c8bd
000003e0: 8763 12bd 470d ecbd 491f c93d 5a3b 84be
000003f0: f39a 263e a5b5 363e a447 f3bb 4212 92bd
-0.12155705 -0.066813126 -0.40254554 0.14971964 0.049745094 0.18632643 0.16196719 0.028497223
-0.10574217 -0.14416799 0.17767356 -0.045448013 0.112854406 -0.000900941 -0.3125647 0.1813301
-0.11253213 0.085215874 0.123472154 -0.18287332 0.073785536 -0.15988721 0.0767996 -0.15594651
-0.073065236 0.10928881 -0.2037408 0.121305555 -0.118394524 0.021192502 -0.18135594 0.0642653
0.14928156 -0.0021814185 0.18532912 0.051264662 -0.02588736 0.111155696 -0.03790749 -0.011337822
-0.1090939 -0.08504489 -0.09355127 0.012426412 -0.00390442 0.024363954 0.049235273 -0.110972606
-0.09950828 -0.08594014 -0.017407293 -0.032183696 0.05880441 -0.16096981 -0.046481516 0.18906271
-0.11780265 0.17210767 0.023192504 0.031548362 -0.092059165 -0.0350582 0.16524415 0.22103666
-0.18322456 -0.12873422 -0.14902113 0.064774685 0.08578635 -0.006438742 -0.19547993 -0.2009259
-0.1180861 0.15155149 -0.25085607 -0.045572814 0.066311635 0.03354533 -0.073289566 0.13250224
-0.15856299 -0.00695104 0.1354288 -0.04915536 -0.10647245 -0.03766106 0.008905792 -0.08378613
0.09450781 -0.035198282 -0.31775066 0.017235281 -0.051191244 0.17518616 0.21143219 -0.04508645
0.10901322 0.059227247 -0.02523971 -0.029135458 0.119598545 0.22097634 0.028596796 -0.061935134
-0.16242349 0.06589427 -0.015684204 0.058039058 0.10441807 0.069107465 0.14706208 0.17759426
0.056762703 0.095849335 0.16438214 -0.06733308 0.08022214 0.08723283 0.025568917 0.206685
0.034838613 0.0010697449 -0.022668004 -0.025802592 0.116301686 -0.12127614 0.04690982 -0.059332266
-8.026625e-05 -0.09910287 0.34692696 0.010164843 -0.06371033 -0.022823919 -0.0504733 -0.15316638
0.12036573 -0.13309428 0.09422065 0.0007192737 0.13823625 0.22294384 0.31843257 0.061603464
-0.055380404 0.07878071 0.09274582 -0.04889036 -0.062374976 -0.033005867 0.090071164 -0.0026496095
-0.008477649 0.12671316 -0.1433121 0.029295461 0.17670077 0.0261835 -0.20229755 0.0027606117
0.054239262 -0.0147118475 -0.06811214 0.027401077 -0.025692867 0.103111185 0.116940625 0.12533936
-0.02169012 -0.00949519 -0.14084578 0.18427773 -0.09517991 0.11654165 0.08271764 -0.03744132
0.057092756 0.31586075 0.12189235 0.21485251 -0.06032448 0.20629604 -0.017590502 0.02846311
-0.15082647 -0.016618967 0.13961343 -0.09332341 -0.030085709 0.041616045 0.027869172 0.033756632
0.02194165 0.16747886 0.20153745 -0.05439646 0.33507895 0.07007332 0.31010175 0.061550424
-0.04076919 -0.08730874 0.29469952 0.13815491 -0.077067226 -0.12871335 -0.07369936 -0.1772866
0.017949907 0.28150195 0.030906657 -0.048190456 -0.18086812 -0.023531795 0.0019585134 0.196831
0.04334829 -0.03792064 0.2614627 -0.05628707 0.08086021 -0.07009077 -0.051791787 0.2118436
0.03871461 0.040439293 0.05799685 -0.053515997 -0.07793646 0.060727168 0.19429933 0.16318984
0.16764599 -0.030678885 -0.010792473 -0.08347578 -0.077110045 0.16155784 0.049765445 0.010653079
0.01473756 -0.22905812 -0.007386231 0.10576671 -0.14009686 -0.020408483 -0.103585444 -0.09788398
-0.035739448 -0.1152597 0.0982042 -0.25826532 0.16270046 0.1784273 -0.0074243117 -0.07132389

actor.2.bias f4 [64]
00000000: 4ecc cebd 529d 213e d3fc 37be e19c 273e
00000010: e47e 31bb eb13 063e c0e2 de3d 4e2b 3c3e
00000020: e329 1e3e 7a1e 5ebc 9d7d 70bc 7702 52bd
00000030: e773 19bc 0bde 59be ac15 0e3e 7e3a b0bd
00000040: b125 b0bd 6b78 b8bd 636c dc3d 1581 59be
00000050: c036 783e 3f12 743d 6c7d 0fbd fed0 babc
00000060: a895 063e e69a 6bbd ec05 6c3d 8d15 853e
00000070: 6f41 693e 98cd 9dbb 7ba9 ef3d 5b01 073e
00000080: 529e e2bb d020 01bd bf0e 58be 3f13 143e
00000090: d89e 983c aa9d 983e d44e 06bd 5bf8 3f3e
000000a0: 9a33 8c3d 8f3d 2b3e 16b3 03be 3d74 4f3e
000000b0: 2ca9 5dbd 7473 ec3d 4373 9dbc b3b9 093b
000000c0: 2d53 7c3e c25e 52bd 0a5f ad3d b9c0 c1bd
000000d0: 9c2c 203e 781f 93bd e79c 3d3c befc 38bd
000000e0: bcbd 57bd aaf9 753e 82bc 69bd 1d33 0f3e
000000f0: e55a 1c3e 8aa8 8ebc 3b2e d1bd ef5e 103e
-0.10097562 0.15782669 -0.17967539 0.16368438 -0.002708369 0.13093536 0.10883093 0.18375894
0.15445666 -0.013557071 -0.014678386 -0.051271882 -0.009366012 -0.21276109 0.13875455 -0.086049065
-0.08600939 -0.09007343 0.107628606 -0.21240647 0.24239635 0.059587713 -0.03503172 -0.022804733
0.13143027 -0.05752077 0.057622835 0.25993004 0.22778867 -0.0048157685 0.11702248 0.13184111
-0.006915846 -0.031525433 -0.21099375 0.14460467 0.01863043 0.29807788 -0.03279002 0.18747084
0.0684578 0.16722701 -0.12861285 0.20259185 -0.054116413 0.115454584 -0.01922 0.0021015226
0.24641104 -0.0513599 0.08465393 -0.09460587 0.15642017 -0.071837366 0.011573053 -0.04516291
-0.05267118 0.2402102 -0.05706454 0.13984342 0.15269049 -0.01741435 -0.10213896 0.14098714

actor.4.weight f4 [16, 64]
00000000: 3ce9 37be 6707 8c3d 5773 d9bb 6529 eabd
00000010: e033 48be 8b5d 6a3e ce87 6f3d bc53 7dbc
00000020: 272d 04be 6c93 95be 2266 06bf fa46 9abd
00000030: c791 c4be e793 27be 985d 2fbe 10e6 d1be
00000040: 561c 1f3f 504d 913d 938c d3bd 6db9 c3bc
00000050: f862 d1bd 196e fd3e 77e5 11be 27ee b03e
00000060: 8ccf 243e df4b 2cbf 735d 493e 56d2 4c3e
00000070: f208 653e 2fb2 953e ac7e 03be 9a61 8f3e
00000080: 51cd dcbd 4c81 1cbe 9c0d 22bf 8fc8 a93e
00000090: a01e 82bf 23f9 b03d 6196 403e 04d3 153e
000000a0: aaa9 a2be 5e56 fcbe 0180 02be 249b fabc
000000b0: 0c53 1fbf 14eb 45be 7c71 f63c cb1a adbd
000000c0: b6d2 ad3d dfcf 7e3e f8fa b0bd 06d1 e8bd
000000d0: 06aa 343e c040 e83d 063e 06bf f9cd 87bd
000000e0: 5ccc 443e b134 723e cb25 bebe a2e2 8c3e
000000f0: 772f a3b9 6b9a 333e e9e3 eebd 1348 343e
00000100: 093b 963e 88c0 b6be 14bc 6b3d f7d7 e1be
00000110: 95cd 58be a455 20be 5f96 06be a018 cabd
00000120: 5bfa a8be d20b 52be 3e94 4a3e 4444 8b3e
00000130: 6958 11be ed4a a93e a62e 813d e072 c23e
00000140: 6f2f 84be 7793 14be 3e16 bcbd ac6a 9d3e
00000150: f675 f5be 4d6a 853f a119 973d 4827 96bd
00000160: b196 98bd fc99 d93d 43ee 033e a9dc eebe
00000170: 6598 853c 2df0 113e 38eb 5abe 8797 8c3e
00000180: 0769 3fbd 2319 b43e 938f 8a3e e1e0 9bbe
00000190: 4687 0a3f 06e8 1cbe 1b8c 393d e3b4 83bd
000001a0: eae1 bb3c 48da 99be 698a ba3e f68e 0fbe
000001b0: cee1 9d3e b0d7 2abe c625 4b3e 0d69 cd3d
000001c0: 7322 ee3c d734 453f 1527 e3be db38 993e
000001d0: 8e0e c3bd 4c42 c7bd f600 22bd bfcb d0bd
000001e0: 4ad4 3b3e 8bbf 84bd 8508 f1bd 6c70 34be
000001f0: 6c6b 91be e766 3f3e ffd7 0a3e 7a2e fa3d
00000200: c127 483e 12a4 9ebe de92 7a3d f72f 4d3c
00000210: 9ab5 913b 7ceb 093e 70fa 2cbf 2275 54be
00000220: ce27 c9bc 6d92 563e 8934 8b3e 3195 8a3d
00000230: 99ea 0a3e 4783 8f3e 11ed d43d e56e 863e
00000240: 3da1 b53e 968f 66be cd18 78bd 6c96 a53d
00000250: 6345 ec3c 41ab 363f 5ccb fd3c d171 393d
00000260: 0fdd 2cbe 639c e63e 68e9 e2bb 76a9 143f
00000270: 6280 f8be a5d9 2bbf 02b3 ecbd 7380 573f
00000280: d75d 74bd 6d0f df3e aee0 893e 2442 e23c
00000290: 5021 5c3d 4961 1bbe 54e3 143e 4a80 42bf
000002a0: 85a3 363e 4700 15be 2148 133e 7196 3cbe
000002b0: 83ac ec3e 76b8 3abd 2e02 933e 24a9 703d
000002c0: 192f 0a3d 45c7 ff3e 0b53 f63d 19c8 8b3d
000002d0: 2d18 eebd dd55 b43d 4d30 d5bd bf08 59be
000002e0: 371f 17bd 29e0 2dbf ea79 4a3e 02fa 6fbf
000002f0: 8923 14be 5528 f93d b61a fc3d 4403 8c3d
00000300: 19e6 56be cb4e 983d 288e 0c3d 041c a93e
00000310: 2473 13bf e2f6 17bf b51e a13e 8a3d 9a3c
00000320: 7f5c b7be 6bf3 933e f681 8b3d 360d b0be
00000330: 9b69 c5be 14fd 0bbe 59b0 1e3f 0f17 c73e
00000340: b561 f1be 37aa 983e 4e8a fd3b 5ae6 16bf
00000350: 127b 233f 3737 24bf 84e5 033f f105 0dbf
00000360: cf25 5e3d ef32 043e afe7 023e 1eb6 b33e
00000370: 737b 1f3e 3294 c33e ab20 75bd e49c 96bd
00000380: a800 81bd f9fe 6b3e aab7 a5bd 3946 bfbe
00000390: 88cc 3a3f d8af 0dbd 89e9 d1be 394e 393d
000003a0: 7497 c03e 6544 fc3e 07b0 e13d d1f8 8dbc
000003b0: 037e 0fbe 549e 8f3d 7f2d 85be b8d7 bebd
000003c0: f9a0 203d 93f3 23bf 722a fa3e 4297 82be
000003d0: 0272 993e f062 8e3d 3638 c73e 9ff0 423e
000003e0: 91c7 fcbc 8f11 06be 8b56 c33e 27b6 683e
000003f0: b262 b53e 824a 64bd c640 afbd 5cfc e93d
-0.17960066 0.068373494 -0.006636064 -0.11433677 -0.19551039 0.22887246 0.058479123 -0.015461858
-0.12907849 -0.29214036 -0.5249959 -0.07533069 -0.3839247 -0.16365014 -0.17125547 -0.40995836
0.6215261 0.07094824 -0.10329547 -0.023892129 -0.10223955 0.4949806 -0.1424769 0.34556696
0.16094798 -0.6730327 0.19664554 0.20002112 0.22366694 0.29237506 -0.1284129 0.28004152
-0.107813485 -0.15283698 -0.63302016 0.33160827 -1.0165596 0.08641269 0.18807365 0.14631277
-0.31770068 -0.49284643 -0.12744142 -0.030591555 -0.62236094 -0.19327956 0.03008341 -0.08452376
0.084874555 0.24883984 -0.086416185 -0.11367993 0.17642984 0.11340475 -0.5243839 -0.06631083
0.19218582 0.23652913 -0.3713821 0.27516657 -0.00031125147 0.17539375 -0.11664564 0.17605619
0.29341915 -0.35693765 0.057552412 -0.4411008 -0.21172173 -0.1565767 -0.131433 -0.09867978
-0.33003506 -0.20512322 0.19783112 0.2720052 -0.14193882 0.33064976 0.063077256 0.37978268
-0.2581744 -0.14509378 -0.0918393 0.30745447 -0.4794156 1.0423065 0.07377935 -0.07331711
-0.07450617 0.10625073 0.12883858 -0.46652725 0.016308019 0.14251776 -0.21378791 0.27459356
-0.04673102 0.35175428 0.27062663 -0.30445006 0.5411266 -0.15322885 0.04529963 -0.06430986
0.022934873 -0.30049348 0.36433724 -0.14019379 0.30836338 -0.16683841 0.19838628 0.100298025
0.029069161 0.7703375 -0.44365755 0.2992619 -0.095242605 -0.09729442 -0.039551698 -0.101951115
0.183427 -0.064818464 -0.11769203 -0.1762101 -0.2840227 0.18691598 0.13558958 0.12215896
0.19546415 -0.3098455 0.06117522 0.012523643 0.0044466974 0.13468736 -0.6756964 -0.20747808
-0.024555113 0.20954295 0.2718852 0.06766737 0.13566054 0.28029844 0.10396779 0.2625648
0.35474578 -0.22515711 -0.060570527 0.08085331 0.02884168 0.7135506 0.030980758 0.04527456
-0.16881202 0.4504119 -0.006924797 0.58071077 -0.48535448 -0.67128974 -0.115575805 0.8418037
-0.059659805 0.43566456 0.2692923 0.027619429 0.053742707 -0.1517383 0.14539844 -0.75977004
0.17835815 -0.14550887 0.14382984 -0.18416764 0.46225366 -0.045586072 0.287126 0.058755055
0.033736322 0.49956718 0.12027558 0.06825275 -0.11625705 0.088054396 -0.10409603 -0.21194743
-0.036895003 -0.67920166 0.19773069 -0.93740857 -0.1446668 0.12165896 0.12309782 0.0683656
-0.20986213 0.074369036 0.03431526 0.33029187 -0.57597566 -0.5936109 0.3146874 0.018828172
-0.35812756 0.2889665 0.068118975 -0.3438508 -0.38557133 -0.1367076 0.61987835 0.3888478
-0.47144857 0.29817364 0.0077374345 -0.5894524 0.63859665 -0.6414675 0.5152209 -0.5508719
0.054235276 0.12910055 0.12783693 0.35099882 0.15574436 0.38199002 -0.059845608 -0.07354143
-0.06298953 0.23046483 -0.08091672 -0.37358263 0.7296834 -0.034591526 -0.40998486 0.045240615
0.3761555 0.4927093 0.11019903 -0.017330559 -0.14012913 0.070126206 -0.26011273 -0.09318489
0.039216015 -0.6404354 0.48860508 -0.25506026 0.29969794 0.069524646 0.38910073 0.19037102
-0.03085688 -0.13092636 0.38151965 0.22725736 0.3542686 -0.05573512 -0.085572764 0.11425087

actor.4.bias f4 [16]
00000000: be93 753e 46dd 3cbe 1029 47bd 2b4d 8a3c
00000010: ab6c 75bd 4a79 c9bd f102 493e 1799 9b3c
00000020: dcbd 4cbe 2767 2a3d 6424 3c3d 39e0 0abe
00000030: 3d14 9f3d 9195 30be 0b22 80be bd77 413d
0.2398214 -0.18443784 -0.048623145 0.0168825 -0.059918087 -0.09837587 0.19630028 0.018993897
-0.199943 0.04160228 0.045933142 -0.13562097 0.07767532 -0.17244555 -0.25025973 0.047233332

critic.0.weight f4 [128, 35]
00000000: 46ab 6abe ce80 b2be 17f5 80be aa18 8abe
00000010: e4ec b5be d087 a9be 1497 a5be 5aab aebe
00000020: 35fd 4fbe a648 63be 0393 b23e 8a54 b03e
00000030: de02 d13a 1114 74be cf27 3bbe 5dbd 173e
00000040: 1bcd 7bbe 3603 a0be a286 37be d467 833c
00000050: f560 24be 8b89 87be 33aa fd3d 7c2d 69bc
00000060: d533 e1bc f978 c0be 9063 84be 967a 253d
00000070: 5d5b 62bd 2c02 5fbe fe4b 07be c8d4 cc3e
00000080: 4133 02be a67b 873d c84e 0bbc 6560 00bf
00000090: 1446 f0be 8a52 adbe 4aac c9be a9f6 82be
000000a0: a189 82be 7254 cdbe 061e a6be 87ec 02bf
000000b0: e2f0 f3be f1b1 3cbf 123b b93e b80a 4d3e
000000c0: 0c52 313f 1639 1ebf ac5e 1b3f 2042 c23d
000000d0: 2cb7 9a3e 632e e5bd 32e9 f6bc da91 2bbe
000000e0: a1ba 9ebe dd56 90be 3c29 c7be 416a d3bd
000000f0: 5d17 65be 6649 1e3e 8ac4 d13e 3c47 36be
00000100: 7ff7 73bf 2e82 42bd 68da b13d 5ba7 a2bf
00000110: d383 69bf a351 c7be 3862 0c3e 3f88 953d
00000120: 298f e73d 2412 ce3d c736 de3d 9292 79bc
00000130: 08ad da3d 7baf 9a3c 6bfd cd3d 93bd a6bd
00000140: 350e e1bf b687 2cbf 6b12 b83e dc7b 7abf
00000150: 48ea 1b3d c537 cc3e ec1f e13e 35bb 10be
00000160: a2f3 af3e e48e 2c3e 4ad2 723e be83 523e
00000170: 2c52 c5bc 3ce7 bf3d 907d b23d 901f 00be
00000180: 0126 4c3d 0b13 533e 84da 013d 94ec 3d3e
00000190: 5053 25bc 8760 bfbe 5b00 c3be 5066 083d
000001a0: 40e5 11be ce78 0fbe 00a1 c5bd dbd2 bbbd
000001b0: eebe dbbd 2eb0 bdbd 1268 0ebe 398a f4bd
000001c0: e55f 21be ad53 d3bd 2cae 19be 03ed 0fc0
000001d0: b7fa 2cbf a17a 64be ebbb 953e 2b1f 753f
000001e0: 11f3 823f 9813 93be 12a8 c5be f08e 2cbf
000001f0: 88e9 6fbe 6a0d 55be db0c c3bd 46c2 5fbc
00000200: 281c 0cbd cc4f 3e3d 6bc1 75be f25e f03c
00000210: f203 9d3b 7ad0 aabd 4d33 29bd 5691 963e
00000220: ea32 92bc cbf6 ab3d bd78 ba3d 9862 7c3d
00000230: e291 54be eecf d1be 51d4 93be ce71 85be
00000240: c159 8bbe 4b86 b8be 371f a5be 9c26 a9be
00000250: 481b bbbe 3aa2 28bf 5a0e 733f 9fe3 41bf
00000260: e75b b03e 6015 353e e7a7 c53d 944e 9cbe
00000270: 774d 8f3e 6b5d 4f3d 1b43 4ebd d994 8f3e
00000280: 834f 18bd d603 4abd 1328 95bd bcc6 d53d
00000290: 446a 0cbd ef68 e3be c704 e7bd 7e04 52be
000002a0: d8e0 24be 1b25 933d f83e a23e 9cab 79be
000002b0: 3e37 1dbf c7d5 21bf 44ce 10be f1b9 d2bd
000002c0: 82de 113d bc38 a7bd 58e7 4fbe 9ca9 b4bd
000002d0: ff5c e6bd 0519 26bd 64dc 52be ca36 94be
000002e0: 3216 a7be 80b7 a13e ee15 71be 892a 613d
000002f0: 31fe a63e c31b d03d 10d0 143d 5073 403e
00000300: 544a 3f3e 8ba6 683e dd67 183e fabd 04be
00000310: 99aa 0cbe 2108 69be e54c 97be 6acd 04be
00000320: c308 0dbe b83a 36be de19 12bd 9d99 093c
00000330: ed94 06be 6733 d7bc 7165 283d a0c8 0cbd
00000340: d3be 09bc 54a0 a7bd 86ce ccbc d11c fdbc
00000350: 6b59 cfbc b991 f4bc a357 d4bc 8573 30bd
00000360: ea37 c6bd 7226 e4bd fc3d 0cbe 8913 09be
00000370: 6b3a eb3f c2f9 f7bf b695 913e 153c 03be
00000380: 033b 623d 44bb 0440 c68b b63e 0b11 2e3e
00000390: b7dd 2abd 67e6 7cbd fc46 783e 17af cfbc
000003a0: 99d0 5cbc 339b 05bd e975 6a3d bf0d 93bf
000003b0: 7413 943d fd53 1e3d 509e 5c3d 236d b1bc
000003c0: 9ad4 3b3f 6f8d 00be 1e18 36be a556 87bd
000003d0: 8768 353e 6cd0 273e bafc 273e 89e2 0b3e
000003e0: e1d9 f53d 4265 d63d 4c43 393e 4ae6 f43d
000003f0: 6093 8cbd 96dc 39be 0e3f 81bd 2bf7 2440
-0.22916898 -0.34863895 -0.2518699 -0.26971942 -0.35532296 -0.3311143 -0.32341826 -0.34115106
-0.20311435 -0.22195682 0.34877786 0.34439498 0.0015946289 -0.2383578 -0.18276905 0.1481833
-0.2458996 -0.3125245 -0.17922452 0.01604072 -0.16052611 -0.26472124 0.123859785 -0.014232036
-0.027490536 -0.37592295 -0.2585721 0.04040011 -0.055262912 -0.21778172 -0.13212582 0.4000609
-0.12714864 0.06615381 -0.00850267 -0.50147086 -0.46928465 -0.33852035 -0.3938926 -0.25578812
-0.25495628 -0.4010349 -0.3244478 -0.5114216 -0.47644717 -0.7370902 0.3617788 0.2002362
0.6926582 -0.61805856 0.6069133 0.094852686 0.30217874 -0.11190488 -0.030140493 -0.16754857
-0.31001762 -0.2819127 -0.38898647 -0.10323001 -0.22372194 0.15457687 0.4097026 -0.17800611
-0.95299524 -0.04748743 0.08684236 -1.2707323 -0.9121677 -0.3892947 0.13709342 0.073013775
0.113066025 0.10062054 0.10850292 -0.015232699 0.10677534 0.018882504 0.10058101 -0.08141627
-1.7582461 -0.6739458 0.35951552 -0.97845244 0.038065225 0.398863 0.43969667 -0.14133914
0.34365565 0.16851383 0.23713031 0.20558068 -0.024087034 0.09370276 0.087153554 -0.1251204
0.04984093 0.20612733 0.031702533 0.18547279 -0.010090664 -0.37378332 -0.3808621 0.033300698
-0.14247608 -0.14010927 -0.09649849 -0.09171077 -0.10729776 -0.09262119 -0.13906887 -0.119404264
-0.15759237 -0.10318694 -0.15007848 -2.248841 -0.6757006 -0.22312404 0.29244933 0.95750684
1.0230428 -0.28725886 -0.3860479 -0.67405605 -0.23428929 -0.20805898 -0.09523936 -0.013657158
-0.03420654 0.04646282 -0.23999564 0.029342148 0.00479173 -0.08340545 -0.04130869 0.29407758
-0.017846543 0.083966814 0.0910506 0.061617464 -0.20758775 -0.4097895 -0.28872922 -0.2606339
-0.27216914 -0.36039957 -0.32250378 -0.3303727 -0.3654425 -0.6587254 0.94943774 -0.7573795
0.34445116 0.17683935 0.096511655 -0.305287 0.27988788 0.0506262 -0.050356966 0.2804325
-0.037185203 -0.049320064 -0.07283034 0.10438296 -0.03428103 -0.44415995 -0.11280208 -0.20509526
-0.16101396 0.07184812 0.31688666 -0.2438187 -0.6141242 -0.63216823 -0.14141184 -0.10289372
0.03561259 -0.08165118 -0.20303094 -0.08821413 -0.11248206 -0.040551204 -0.20591885 -0.2894805
-0.3263412 0.31585312 -0.23543522 0.054972205 0.32615808 0.10161545 0.036331236 0.18793988
0.18680698 0.22719781 0.1488337 -0.12963095 -0.13736953 -0.22757007 -0.29550853 -0.12968984
-0.13772874 -0.17795837 -0.0356692 0.008398441 -0.13142748 -0.026269628 0.041112367 -0.03437102
-0.008407312 -0.08184877 -0.025000822 -0.03089753 -0.025311192 -0.029854642 -0.025920695 -0.043078918
-0.096786335 -0.11140145 -0.1369552 -0.13386358 1.8377203 -1.9373095 0.28434533 -0.12815888
0.05523206 2.0739298 0.35653514 0.16998689 -0.04171535 -0.061743166 0.24245828 -0.025352044
-0.013477468 -0.032618713 0.057241354 -1.148857 0.07230273 0.038654316 0.053861916 -0.021658486
0.7337128 -0.12553953 -0.17782637 -0.06608323 0.17715655 0.163881 0.16405001 0.13660635
0.12004448 0.10468532 0.18092078 0.11957987 -0.06864047 -0.18150553 -0.06310855 2.577586

critic.0.bias f4 [128]
00000000: afe6 7dbe b54f d7be f7a4 43be 9184 3dbf
00000010: c257 5a3e 7525 a9bd 497e ffbe 8022 23bf
00000020: 9bb3 54bf 7dfe 9bbe fbb0 0e3f 4842 e03e
00000030: 21ed df3d 1cb6 aabe f337 f8be 9a8f 05bf
00000040: aafd 10bf 67bc 1a3e 628c 173e 2b89 493d
00000050: 8f63 09bd 7ea3 20bf 57bf 23bf 4852 57be
00000060: a340 d23e 5a7b 8b3e 3d6d 8b3e c9b0 493f
00000070: 3b7e 2f3e 0a5f f9be 9ac0 573e 234f d1be
00000080: 0bc2 e63f b48e 3c3e 4570 32bd 8635 0a3f
00000090: 09cd 47be 92e3 143e 5de6 4d3d 183a cebe
000000a0: 2a06 19be 5cc3 36be 2447 b6be dcd9 06be
000000b0: 775d 3a3e 5418 85be 7da8 70bf 3c98 d6bd
000000c0: c640 d03e bfef 25bd febb 69bf f419 0dbf
000000d0: fe0d d43e e5e2 59bf d094 32bf 3d9d 1b3f
000000e0: bd56 bb3d e6ff a3bd 4244 b5be 8c56 723b
000000f0: 549e 10bc 3ceb 803f f766 da3c 9a44 053f
00000100: c226 8abd c394 30bf 5c47 c03e 3ca3 db3e
00000110: 6edc e33d 2414 92bf 252a 83be 38b3 2cbe
00000120: d9b5 42be 8ac5 6fbe 3c11 76bd ae59 d4be
00000130: 1047 97be 72ef 563e cb7a fd3c 78bc 2f3f
00000140: 939d 9ebb 1c44 c8be 74f5 603e b342 08bf
00000150: a2de 9e3d 8ab2 c53d 472f 2dbe 6072 08b7
00000160: 82ee aabd 53c6 243d d20b c4bd 71ff a73e
00000170: bc38 bebe 95a6 273d 675b 0ebf 28df 09bf
00000180: d21d c1be 6b9e 7b3f 6262 1c3f 73c9 0bbe
00000190: fc38 603d 4cf6 4c3d df84 523f 87c7 61be
000001a0: 1ca6 483f 42b9 873e a6e3 f7be 53a4 b33e
000001b0: 7f24 293e dbb4 183e 7214 343f a2ed fdbe
000001c0: f0af 463c 277f e73d 716e 443e 9deb 313e
000001d0: 3c12 51bf a5d5 b6be 4ddb 143f 9270 37bd
000001e0: 4cb4 dabe 240a 8abe c01c 1ebf 81ae 1ebf
000001f0: b55a 943e 40ff 383f 50ff 1fbf e12d 123f
-0.2479503 -0.42053 -0.19105898 -0.74030405 0.2132254 -0.082590975 -0.49901035 -0.6372452
-0.83086556 -0.30467597 0.557388 0.4380057 0.109339006 -0.33342063 -0.48480186 -0.52172244
-0.5663706 0.15110932 0.14799646 0.04920308 -0.033542212 -0.6274947 -0.63963836 -0.21027482
0.4106494 0.27242547 0.2723178 0.7878538 0.17137997 -0.48705322 0.21069565 -0.4088069
1.8027967 0.18413812 -0.0435641 0.5398792 -0.19511808 0.14539936 0.05026852 -0.40278697
-0.14943758 -0.17847961 -0.3560115 -0.13169044 0.18199717 -0.25995123 -0.9400709 -0.10478255
0.40674418 -0.040511843 -0.9130248 -0.55117726 0.41416925 -0.8511184 -0.6975832 0.607868
0.091474034 -0.08007793 -0.3540364 0.0036977855 -0.008826811 1.0071788 0.026660426 0.520578
-0.06745674 -0.6897699 0.37554443 0.42897975 0.11126028 -1.1412396 -0.2561809 -0.16865242
-0.19014682 -0.23415199 -0.06007503 -0.4147467 -0.29546404 0.20989779 0.030942341 0.68646955
-0.0048405617 -0.39114463 0.21968633 -0.53226775 0.077573076 0.09653194 -0.16912566 -8.132862e-06
-0.08346273 0.0402282 -0.09572567 0.32812074 -0.3715266 0.04093035 -0.5560822 -0.53856134
-0.37718064 0.982886 0.6108762 -0.13651066 0.054741845 0.050039575 0.82233995 -0.2204877
0.7837846 0.26508528 -0.4841587 0.35086307 0.16517828 0.14912741 0.703437 -0.49595362
0.012126908 0.11303549 0.19182755 0.17375036 -0.8166845 -0.35709873 0.58147126 -0.04478509
-0.4271568 -0.26960862 -0.6176262 -0.6198502 0.28975454 0.7226448 -0.6249895 0.57101256

critic.2.weight f4 [64, 128]
00000000: 8ee4 19be 3528 63be a5c2 19bd 834e 3fbe
00000010: 76db d93e 0e33 1f3e dfd4 de3b 84ee 9e3d
00000020: 6893 7dbe ed35 093f fdfd 813f b405 573f
00000030: 093f c2be 8d3d 01bd dd26 e33d 03ca 043f
00000040: e870 173d 36f2 3a3f 8e0d 92be 79d8 113f
00000050: febb 8b3f 7cb0 0bbe 27cd 1fbf ddb3 2cbe
00000060: d933 653f 89c1 813c 909a 5b3e 54c1 3e3a
00000070: 8f0e 253e d719 66be 33c2 463e b60a 823e
00000080: 42f9 f73e 0b75 1e3e 07c2 a2be f066 2a3e
00000090: d024 8cba 0800 9e3f 8edb 5e3b b6a5 763e
000000a0: 9db4 26bf f1ef e13d f744 02bd 60b5 363f
000000b0: 2138 983f 746f f53e db2a 7c3c da0a 633e
000000c0: 4a78 803f 33fc 8e3d cf0a 00be 8600 f4be
000000d0: 6a4a 093f d646 9ebe 8e9e 073e 9030 353e
000000e0: 96b6 663f 90fc 88be cbf7 ad3b 82b6 97be
000000f0: 143f 373e e2a4 9a3e 7bdf b0be 8aca 5c3f
00000100: 5b34 233f 5677 d7be abe9 8d3e 9068 373e
00000110: 8297 3f3f b45e a4bf ed04 a53e 3802 373e
00000120: aa90 d03d d324 133e 5918 ec3e 39f8 ed3d
00000130: 3a5a 0f3f adc4 2d3e 0148 323c b810 4d3e
00000140: c905 843f 1201 9bbc 1ef4 5d3e 65fd 3bbe
00000150: 8726 debe c70a a8be 95b3 da3e 2714 a0be
00000160: ccf9 ed3d 8c54 943c b99a 18bd d6eb 2b3f
00000170: b894 84bd a79e 83be 0734 eb3e fcca a2bd
00000180: 491f f5bc aed3 1f3e 8ada a13e f601 703f
00000190: dfe0 3fbe f7ff 843e 4c53 6c3e c8d5 1c3f
000001a0: 49b6 343e 3b23 253e d347 f33e 8473 783f
000001b0: 9c2a fe3e a130 203e aa3a eb3d 2900 a13e
000001c0: bc59 11bd ff3e 503e fbb6 2e3e d758 283f
000001d0: 7e63 56be 82c9 9d3f 79f2 863d 68da 553f
000001e0: 0451 2ebe c6fb cfbd 9f78 123f dd42 44be
000001f0: b337 a83f 75aa 273e 92e6 643c 5bde 1e3e
00000200: 3841 203e 4b3c 81be c436 51be 3e80 4dbd
00000210: b598 58be 0852 1c3e 3fc3 abba b01e 59be
00000220: 6a2d 62be 8ad4 d53d da67 85be 713d 7b3d
00000230: 1a31 10bf f7a4 c53a ef0a 4fbd 947a a7bd
00000240: 15fa 82be c5eb 263d 3782 933d 9868 273e
00000250: b96e 3fbe 7ddc ebbd 247d 17be 58a0 863e
00000260: 811e e5bc 7b6f eabd f854 05bd ee47 c53c
00000270: eae5 51be 99ce 433d dc05 59be f0f0 0fbd
00000280: 27cd 41be b1ff 373d 3014 fe3c 543e 19be
00000290: c9d2 84be 2e82 96bc 8c50 833d 7b9e 0abe
000002a0: f142 2fbd 58c0 cebc e531 ba3b e0a0 85bd
000002b0: 6aef bcbb 4267 90bd de81 8f3d deec af3d
000002c0: 8613 af3d 9a4e e7bd 2aaf 0fbc 2356 e9bd
000002d0: 4b19 cabd d2f2 373e e94e 82be f92a f4bd
000002e0: 5767 70be e258 d33c a12d 9c3d 0b8a d0bd
000002f0: 06cc fd3d 599c 523e eb92 6b3e 4b3e 4c3d
00000300: 34ee 01bf 1cc6 bbbd a991 16be 6fc7 4fbe
00000310: ec39 91be 0fdc 6bbd 512a 4f3d 8d41 89bd
00000320: b913 743d 7e75 b23d 06cf 8fbc 7801 13be
00000330: 6667 5f3e 4e39 a2bb 2acb 54bd d60c 94be
00000340: 1ddd a3bd bf71 2ebe e1d1 663d 0775 51be
00000350: b0ef 8fbd e7fc 393d 7e7b 903e 38f8 c23c
00000360: ab97 843c ff97 1bbd 27b0 0bbe 6655 a4bd
00000370: 880a 583d 813e 66bd 72f9 1bbe 5c46 ab3d
00000380: 595a 6dbe 85e7 8c3d 2521 3f3c 9839 b43d
00000390: e216 66be 9867 3bbe ad1d aebd 9153 01be
000003a0: ac98 8abd 6421 71be f9ea c3be 2b83 df3d
000003b0: 67cf 25be 678d 9bbb 1439 153d ca27 fabd
000003c0: b205 85be f7f7 2ebe af38 92bd b725 14be
000003d0: 15b5 5ebe 5747 4abe b906 fcbd c7b4 ac3c
000003e0: a108 cebd 5090 fabd fe54 49bd 6b73 0abd
000003f0: d905 e93c 8ea0 7dbd 6b80 17bd d647 19be
-0.15028593 -0.22183307 -0.037539143 -0.18682294 0.42550248 0.1554682 0.0068002786 0.07760337
-0.24763262 0.5359791 1.0155636 0.8399308 -0.37938717 -0.03155284 0.11091397 0.51870745
0.03697291 0.73025835 -0.28525966 0.56970936 1.0916746 -0.13641542 -0.6242241 -0.16865487
0.8953224 0.015839355 0.2144568 0.0007276733 0.16118835 -0.22470795 0.19410019 0.25398797
0.48432356 0.15474336 -0.31788656 0.1664083 -0.0010692123 1.234376 0.0034005377 0.24086651
-0.65119344 0.11032093 -0.03180405 0.71370506 1.1892129 0.47936594 0.015391077 0.22172108
1.0036709 0.06981697 -0.12504123 -0.4765665 0.5362917 -0.3091342 0.13244078 0.17694306
0.90122354 -0.2675519 0.0053090802 -0.2963143 0.17895156 0.3020392 -0.34545502 0.8624655
0.63751763 -0.42083234 0.27717337 0.17910981 0.7484056 -1.2841401 0.3223032 0.1787194
0.101838425 0.14369516 0.46112326 0.1161961 0.5599705 0.16969557 0.010881425 0.20025909
1.0314265 -0.018921409 0.21675155 -0.18358381 -0.4338877 -0.32820722 0.42715135 -0.31265375
0.116199106 0.018106721 -0.03725693 0.6715673 -0.06473678 -0.2570698 0.4593813 -0.079488724
-0.029922144 0.15608093 0.31612045 0.9375299 -0.18738125 0.25976536 0.2307865 0.61263704
0.17647661 0.1612672 0.47515735 0.9705126 0.49641883 0.1564355 0.11485799 0.31445435
-0.035485968 0.20336531 0.17061989 0.6576056 -0.20936391 1.232712 0.06589217 0.83536386
-0.17023093 -0.10155444 0.57215303 -0.19166131 1.3141998 0.16373618 0.013970988 0.1551451
0.15649879 -0.25241312 -0.20431048 -0.05017113 -0.21152003 0.15265667 -0.0013104453 -0.21203113
-0.22087637 0.10440929 -0.26055795 0.061337892 -0.56324923 0.001507907 -0.050547536 -0.08177677
-0.25581422 0.04075219 0.07202571 0.16348493 -0.18694581 -0.11516664 -0.14793831 0.26294208
-0.027968647 -0.114470445 -0.032551736 0.02408215 -0.20497862 0.04780445 -0.21193641 -0.035141885
-0.18925916 0.04492158 0.031015486 -0.14965183 -0.25942066 -0.018372621 0.064118475 -0.13537018
-0.04278845 -0.025238201 0.0056822174 -0.06524825 -0.005765845 -0.07050945 0.07007192 0.08590101
0.08548646 -0.11294289 -0.00876979 -0.113933824 -0.098681055 0.17963722 -0.2545083 -0.11922259
-0.23476921 0.025799219 0.076258905 -0.101825796 0.1239243 0.20567454 0.23005264 0.049864095
-0.50754094 -0.09168646 -0.14704002 -0.20290922 -0.28364503 -0.05758291 0.050577465 -0.06701956
0.05958912 0.08713816 -0.017554771 -0.14356029 0.21816787 -0.004950679 -0.051951565 -0.28916043
-0.080011584 -0.17035578 0.0563525 -0.20454799 -0.07028139 0.045407202 0.28219217 0.0238
0.016185602 -0.03798675 -0.13641416 -0.08024101 0.05274442 -0.056211952 -0.15231875 0.08363029
-0.23178996 0.06880096 0.011665617 0.08800048 -0.22469667 -0.18301237 -0.08501754 -0.12629534
-0.06767401 -0.23547894 -0.38265207 0.1091369 -0.16192399 -0.004747081 0.036431387 -0.122146204
-0.25980908 -0.17086779 -0.07139718 -0.14467512 -0.21748765 -0.19753776 -0.1230597 0.021082295
-0.100602396 -0.12234557 -0.04915332 -0.033801477 0.028445171 -0.061920695 -0.036987703 -0.1496881

critic.2.bias f4 [64]
00000000: 1ed6 7c3e bd7e 5dbd 5d66 a23d 73dd 743e
00000010: 3b53 c1bd cfeb 993d 98be a43d 8853 cebd
00000020: a69d 143e b3dd 65bc 604b dc3d cdcc 88be
00000030: 6fb7 21be fe98 c93d 18e5 2e3d 7195 0f3d
00000040: 2a0d 1d3e ecb3 943d 133a d13c abcb 2b3d
00000050: 8768 b93b 8f65 093d 6c2f 20be 63e3 2f3e
00000060: 33b5 46bd d574 ceba bd82 08bf d82d 3dbc
00000070: 4619 2abd 0916 85be bcc7 683e 4103 0f3e
00000080: efd9 be3d d45f 4ebe d50d a83d 0e28 a9bd
00000090: 58e6 27be c0db 2f3e 748a c3bd 708e 9c3b
000000a0: 6428 43be ecf6 223d eca2 5bbe a313 98bd
000000b0: 5492 a53e 5d15 26be d972 b53d 38fb a63d
000000c0: 2470 55be 1d24 ed3c cfd6 8cbc a2f4 4ebe
000000d0: f9c1 413d b960 093e 06b2 41be dc6d 8bbd
000000e0: fdf4 cb3d 38a7 5dbd d414 383e 2b42 873c
000000f0: c805 6c3d 309f eebd a7e3 753e ac73 fe3d
0.24691054 -0.054075945 0.079296805 0.23912601 -0.09439703 0.0751568 0.080441654 -0.10074526
0.14513263 -0.014029908 0.10756564 -0.2671875 -0.1579263 0.09843634 0.04269895 0.035054628
0.15337053 0.0726088 0.025540387 0.04194228 0.0056582126 0.03354412 -0.1564309 0.17176585
-0.04851265 -0.0015751371 -0.5332449 -0.0115465745 -0.04152801 -0.25993374 0.22732443 0.13966085
0.09318911 -0.20153743 0.08205763 -0.08259593 -0.16396463 0.17173672 -0.09547892 0.004777722
-0.19058377 0.039786264 -0.21448869 -0.074256204 0.32338202 -0.16219087 0.08859796 0.08153385
-0.2084356 0.028947884 -0.017192272 -0.20210508 0.047304127 0.13415803 -0.18915567 -0.068080634
0.09958837 -0.05411455 0.17976695 0.016511044 0.0576227 -0.11651456 0.24012624 0.124244064

critic.4.weight f4 [1, 64]
00000000: e07e 9ebe 92bc 6b3e 6789 fd3e 9f29 86bf
00000010: 9930 aabd 8310 573e 686d 8bbe 58d0 a33d
00000020: e117 86bf e817 1e3e c245 94be ce31 ab3e
00000030: 27b0 3a3d b6d6 11bf 6d72 79be f481 6a3e
00000040: bb26 3cbf 8b57 cab9 e1c9 dd3d 5193 99be
00000050: 16f2 efbe 1c8a cebd d1b7 553e afcf 80bf
00000060: f04a 533e fd59 41be 45f2 1d3f ae2b 603e
00000070: 9394 f23e 73fa f63e 9b28 69bf fa1e 69bf
00000080: 04b5 87bf 8627 073f 72bf d43e d62a b33d
00000090: 6024 4fbe c278 8cbf 7ea3 5d3e 984f 023f
000000a0: e006 473f 7e25 aabe 254b 843e 0f5e 09bf
000000b0: 07d4 7ebf 60e0 70be ad81 573f a374 11be
000000c0: 6151 43be e2d2 5cbe 08d6 963e 6075 14bf
000000d0: 3a60 c83e 6a65 89bf 4df1 a43e 56e7 2bbf
000000e0: 31f8 25bf ab01 913e f2a9 25bf fe9a df3e
000000f0: 60b2 bb3e 9ce0 7ebf a8df 29bf cc1e a9be
-0.30956173 0.23021153 0.49518892 -1.0481452 -0.083100505 0.21002392 -0.27231908 0.07998723
-1.0476037 0.15438807 -0.2895947 0.33436435 0.04557815 -0.5696825 -0.24360056 0.22901136
-0.734966 -0.00038593667 0.10829521 -0.29995206 -0.46864384 -0.10084936 0.20870902 -1.006338
0.20634055 -0.18881984 0.616978 0.21891662 0.47378978 0.48237953 -0.91077584 -0.9106289
-1.0602117 0.5279468 0.4155231 0.08748405 -0.2022872 -1.0974352 0.21644399 0.509027
0.77744865 -0.3323173 0.2583858 -0.5365915 -0.9954228 -0.23523092 0.84182245 -0.1420465
-0.19074012 -0.2156482 0.29460168 -0.579916 0.39135915 -1.0734074 0.32215348 -0.67149866
-0.64831835 0.28321585 -0.6471244 0.43672937 0.36659527 -0.99561477 -0.663569 -0.3303131
