PPO_preTrained/add retent_rate/PPO_add retent_rate_0_950.pth (torch, 110785 bytes, 11 tensors)

actor.0.weight f4 [128, 35]
0	0xba4d408d	-0.0007829748
1	0xbddecc68	-0.10878831
2	0xbd9b23ba	-0.07575174
3	0x3ce271b3	0.027642107
4	0x3dc39fd2	0.09551968
5	0x3cd60dab	0.026129564
6	0x3dae371e	0.085066065
7	0xbd1ab64a	-0.0377715
8	0xbdda8828	-0.10670501
9	0xbde07131	-0.109590895
10	0x3fa6dbf5	1.3035876
11	0xbe2d62c8	-0.16932213
12	0xbe898f27	-0.2686703
13	0xbf3b3190	-0.731225
14	0x3ef1703e	0.47155946
15	0x3ec8fb1e	0.39254087
16	0xbda5f1b3	-0.08102741
17	0x3dc942e4	0.098272115
18	0x3d7bce14	0.06147583
19	0x3e8280fe	0.25489038
20	0xbddd7b0a	-0.108144835
21	0xbd7d7168	-0.06187573
22	0x3c4c6c67	0.012477017
23	0x3d4da582	0.05020667
24	0x3da4f203	0.080539726
25	0x3df94929	0.12172157
26	0x3d997e73	0.074948214
27	0xbd01809f	-0.031616803
28	0xbbc400e9	-0.005981554
29	0x3e0f3444	0.13984782
30	0xbd7f859b	-0.062383275
31	0xbc142f95	-0.009044548
32	0xbe943521	-0.28946784
33	0xbe222213	-0.15833311
34	0xbd9e302f	-0.07724034
35	0x3e3fadc2	0.18718627
36	0x3e12c584	0.14333159
37	0xbbb3d8c3	-0.0054884865
38	0x3d843d17	0.064569645
39	0x3d902c62	0.07039715
40	0xbd28d0ad	-0.041214634
41	0x3da459c4	0.08024934
42	0xbde83d96	-0.113398716
43	0x3dec156a	0.11527522
44	0x3e0b3383	0.13593869
45	0x3f708f71	0.93968874
46	0xbe685bf7	-0.22691332
47	0x3e034ad5	0.12821515
48	0x3db40f37	0.087919645
49	0x3f0dc15b	0.5537316
50	0xbded04cb	-0.1157318
51	0xbdbd946a	-0.09256823
52	0xbe62678f	-0.22109817
53	0xbdb6f415	-0.08933274
54	0x3b7fc1f5	0.003902552
55	0xbec4d161	-0.38440993
56	0xbe06f8bb	-0.1318082
57	0x3cf76129	0.030197697
58	0x3d93820e	0.0720254
59	0x3d936bbe	0.071982846
60	0x3e32eb4f	0.17472576
61	0x3d213bfb	0.039363842
62	0x3dac7641	0.08420993
63	0x3d94a6ec	0.072584
64	0x3cb8ac46	0.022543084
65	0xbe4bcc9e	-0.19902274
66	0x3e49c579	0.19704236
67	0x3c8dd8c8	0.017315283
68	0x3d83f505	0.06443218
69	0x3e891a93	0.26778087
70	0xbbc7c86d	-0.0060968907
71	0x3d3ab76f	0.045585092
72	0x3d08847c	0.033329472
73	0xbc4e8051	-0.012603835
74	0xbbea7725	-0.0071553164
75	0x3dee81ca	0.11645849
76	0x3e2e6851	0.17031981
77	0xbcaeef39	-0.021354305
78	0x3e28143d	0.1641397
79	0xbd26fe6f	-0.04076999
80	0x3f8c5c65	1.0965697
81	0x3db58598	0.088633716
82	0xbe5f32f5	-0.21796782
83	0xbf2c0db3	-0.67208403
84	0x3ec8460a	0.39115936
85	0xbee0adf6	-0.43882722
86	0x3e466937	0.19376074
87	0x3c280c42	0.010256829
88	0x3d504e25	0.050855774
89	0x3e6b59e7	0.22983514
90	0xbe9b47f0	-0.3032832
91	0x3e27a626	0.16371974
92	0xbc6ce31d	-0.014458445
93	0xbbb5eade	-0.00555168
94	0x3e71cc03	0.2361298
95	0xbda44dc2	-0.080226436
96	0xbc6922e2	-0.014229508
97	0x3e230444	0.15919596
98	0xbcba6146	-0.022751462
99	0x3d09fedb	0.033690315
100	0xbe7905ef	-0.2431867
101	0xbe2bbacf	-0.1677048
102	0x3da7f1d0	0.08200419
103	0x3e11cd99	0.14238586
104	0xbceac76e	-0.028659549
105	0xbda00bae	-0.07814728
106	0x3d6d8d68	0.057996184
107	0xbc1bef09	-0.00951744
108	0xbe017df6	-0.12645707
109	0xbd9cc814	-0.076553494
110	0x3e28eee1	0.16497375
111	0x3d553260	0.052049994
112	0x3e0fa447	0.1402751
113	0xbdaaabd3	-0.08333554
114	0x3e8f0a8e	0.2793774
115	0xbf65f577	-0.89827675
116	0x3ef6ccea	0.48203212
117	0x3ee5c9a0	0.4488039
118	0x3f9be41c	1.2178988
119	0xc02d62b0	-2.7091484
120	0x3e1a9ae8	0.15098155
121	0x3d6eb960	0.058282256
122	0xbd8ac3a2	-0.06775595
123	0x3d6b8e2b	0.05750863
124	0x3f090d15	0.53535587
125	0x3e8be10a	0.2732013
126	0x3dcdca3a	0.10048337
127	0x3e1d6b30	0.1537292
128	0xbd1756e1	-0.03694809
129	0xbddd038f	-0.107916944
130	0x3c8a6d16	0.01689772
131	0x3daf1b7c	0.08550164
132	0x3db11c18	0.086479366
133	0x3e54790f	0.20749305
134	0x3ca7c366	0.020478915
135	0xbf6fe56d	-0.9370945
136	0x3e0f3f4d	0.13988991
137	0x3cec4497	0.0288413
138	0xba2e9a3e	-0.0006660557
139	0x3eb1969d	0.3468522
140	0x3cb0596c	0.021527015
141	0xbb67162c	-0.0035261018
142	0x3d88262d	0.066479065
143	0xbc2477d8	-0.010038339
144	0x3e1421cb	0.14466016
145	0xbd480432	-0.048832126
146	0xbcf85abb	-0.030316701
147	0x3de98347	0.11401992
148	0x3dcf1bd2	0.10112728
149	0x3db17f24	0.08666828
150	0x3f309d34	0.6898987
151	0x3ee339db	0.44380078
152	0xbe76fd0f	-0.24119972
153	0x3ea13760	0.3148756
154	0x3f2596a8	0.6468301
155	0x3f294ae0	0.66129875
156	0xbe37930b	-0.17927186
157	0xbd18877f	-0.037238594
158	0xbe34e291	-0.17664553
159	0xbdee3c61	-0.1163261
160	0xbe3a7dee	-0.18212101
161	0xbc3a4d98	-0.011371039
162	0xbb1fc4f5	-0.002437887
163	0x3d99d28e	0.07510863
164	0xbc038721	-0.008027823
165	0xbe8d47c1	-0.27593806
166	0x3d79200f	0.06082159
167	0x3d102ec1	0.035200838
168	0x3e015111	0.1262858
169	0xbdb2ca2a	-0.08729966
170	0xbc7d2884	-0.015451554
171	0x3d1d2f9b	0.03837548
172	0x3d1409b8	0.03614208
173	0x3cad4b75	0.021154145
174	0x3e621d2c	0.2208144
175	0x3db23a0e	0.08702479
176	0xbcff9186	-0.03119732
177	0x3e23cc7a	0.1599597
178	0x3dc753ca	0.09732778
179	0x3e493434	0.1964882
180	0xbc8a1a46	-0.016858231
181	0x3c974954	0.018467583
182	0x3b26b433	0.0025436997
183	0xbc0f4f2c	-0.008746903
184	0x3e4d1bc3	0.20030122
185	0xbf165c69	-0.58734757
186	0x3f1f5485	0.6223834
187	0xbe091513	-0.13386945
188	0x3cdb9648	0.026805058
189	0xbfcdeb3b	-1.6087412
190	0x3f06d512	0.5266887
191	0xbd86a9c4	-0.06575349
192	0x3e3307f4	0.17483503
193	0xbcdc764d	-0.026911879
194	0x3e80c7ad	0.2515234
195	0xbd718b5b	-0.05897079
196	0x3bcf7fe9	0.0063323868
197	0xbc486b79	-0.012232655
198	0x3dbe9cbb	0.09307238
199	0x3d2e8914	0.042611197
200	0x3e0ed618	0.13948858
201	0xbd250334	-0.040286258
202	0x3da21f3d	0.079161145
203	0x3e44e30f	0.19227241
204	0xbd432303	-0.04764081
205	0x3e4dea23	0.20108847
206	0xbd762f30	-0.060103595
207	0xbe7409cc	-0.23831862
208	0xbe4db789	-0.20089544
209	0xbe17e822	-0.14834645
210	0x3db8e2fd	0.090276696
211	0xbe040bcd	-0.12895127
212	0xbdce1e21	-0.100643404
213	0x3e1b1ffe	0.15148923
214	0x3a9f5ae1	0.0012157821
215	0x3d9815c5	0.07426027
216	0x3e264ec6	0.16240987
217	0xbdde6b38	-0.10860294
218	0x3cff47b5	0.031162122
219	0x3d230fe8	0.03981009
220	0xbeee7770	-0.465755
221	0x3d9215e9	0.07133085
222	0xbe34f5df	-0.17671917
223	0x3e9ad7f3	0.3024288
224	0xbf377966	-0.71669614
225	0x3f1fb368	0.6238313
226	0xbcee1d0f	-0.02906659
227	0xbcb59a74	-0.022168376
228	0xbd888e42	-0.066677585
229	0x3b5cceb9	0.0033692552
230	0xbc8a7835	-0.016903022
231	0xbde478a2	-0.111558214
232	0xbd47e08b	-0.048798125
233	0x3daaf3a8	0.08347255
234	0x3dd80395	0.10547558
235	0x3d984bb2	0.07436313
236	0x3d85bbcd	0.06529961
237	0xbdf25485	-0.11832527
238	0x3ddd2a29	0.10799057
239	0xbe5f3254	-0.21796542
240	0x3decdcc0	0.11565542
241	0xbd0f8409	-0.035038028
242	0xbe098e98	-0.13433301
243	0xbd938942	-0.07203914
244	0xbe47f319	-0.19526328
245	0xbdb513d3	-0.08841672
246	0x3dc6dd14	0.09710136
247	0x3c359bf3	0.0110845445
248	0x3e7002cc	0.23438567
249	0x3d9680ab	0.0734876
250	0x3e20933a	0.15681162
251	0x3d002776	0.031287633
252	0xbcb73a88	-0.022366777
253	0x3df702e3	0.120610975
254	0xbca67583	-0.020319706
255	0x3eacf4de	0.3378057

actor.0.bias f4 [128]
0	0x3e84c786	0.25933474
1	0x3d7acd14	0.061230734
2	0x3eb4bcbc	0.35300243
3	0x3d9c41dd	0.0762975
4	0xbd1ff28b	-0.039049666
5	0x3d945b59	0.07243986
6	0xbe77976c	-0.24178857
7	0xbdd006da	-0.10157557
8	0x3edb3c61	0.42819503
9	0xbd12f3fe	-0.03587722
10	0x3eb1bdb5	0.34715047
11	0xbe013acf	-0.1262009
12	0x3ed0e427	0.40799066
13	0x3e8eb365	0.27871242
14	0xbd1852c4	-0.037188306
15	0x3e2db4f5	0.16963561
16	0xbc9cf023	-0.019157475
17	0x3e8ad054	0.27112067
18	0x3d9132d1	0.070897706
19	0xbdc07283	-0.093968414
20	0x3d19ea46	0.037576936
21	0xbd0e8620	-0.03479588
22	0xbe4777e6	-0.19479331
23	0xbb4610d2	-0.0030222428
24	0x3e978ef8	0.29601264
25	0x3eeae371	0.4587665
26	0x3c8ce979	0.017201172
27	0x3c15291b	0.009104039
28	0x3e594bae	0.21220276
29	0x3dcf6b56	0.101278946
30	0xbd064adf	-0.032786246
31	0x3ec43b5a	0.38326532
32	0x3e6f0842	0.23342994
33	0x3b66bdbb	0.0035208303
34	0x3da4378d	0.08018408
35	0x3de4e527	0.1117652
36	0xbdf43415	-0.11923996
37	0x3d92fefd	0.071775414
38	0x3ef38dac	0.47569025
39	0x3ead9f0f	0.33910415
40	0x3d5a494e	0.053292565
41	0xbd2b0375	-0.041751344
42	0x3ec6e3e2	0.38845736
43	0x3e385125	0.17999704
44	0x3e68b758	0.2272619
45	0x3e5fd978	0.21860301
46	0xbd918a08	-0.071064055
47	0xbe78df3b	-0.24303906
48	0x3dd1dd3b	0.102472745
49	0x3df5ee9d	0.120084025
50	0x3ea4f256	0.32216138
51	0xbaabafd1	-0.0013098662
52	0xbd3e17dc	-0.046409473
53	0x3edbb77c	0.42913425
54	0x3c005f5f	0.007835238
55	0xbe574f67	-0.21026383
56	0xbd339c49	-0.043850217
57	0xbce7fd41	-0.028319003
58	0xbd517d56	-0.05114492
59	0x3da56c74	0.080773264
60	0xbc44c7c6	-0.01201052
61	0x3d776fa0	0.06040919
62	0xbe558856	-0.2085279
63	0xbe58eb60	-0.21183538
64	0x3e5dc0fb	0.21655647
65	0x3e232b64	0.15934521
66	0x3e933b33	0.28756103
67	0x3e49947b	0.19685547
68	0x3e8a1fa4	0.26977265
69	0x3e30295c	0.17203277
70	0x3e848e2e	0.25889724
71	0x3eb62205	0.3557283
72	0x3e41a5cb	0.18910901
73	0xbdfca6d7	-0.1233651
74	0x3eac24b0	0.3362174
75	0x3ea05151	0.3131204
76	0xbe052a97	-0.13004528
77	0x3d1e0c92	0.038586207
78	0xbd8980cd	-0.0671402
79	0xbe23dbb9	-0.16001786
80	0xbdb3a165	-0.08771018
81	0x3d86b522	0.06577517
82	0xbe23f006	-0.1600953
83	0x3e89f5e0	0.269454
84	0x3d152228	0.036409527
85	0x3d20ff1c	0.03930579
86	0x3dfc5583	0.123209976
87	0x3e8a52ff	0.27016446
88	0xbdce727f	-0.10080432
89	0xbe06fe10	-0.13182855
90	0x3ec0a568	0.37626195
91	0xbe13fd1a	-0.1445202
92	0x3dae1a0f	0.08501064
93	0xbeaaf7f3	-0.33392295
94	0xbe518996	-0.20462641
95	0x3e81aeed	0.2532877
96	0xbdbde867	-0.09272843
97	0xbd17d945	-0.03707244
98	0x3e23356b	0.15938346
99	0xbd34474c	-0.044013306
100	0x3cdc2fe6	0.026878309
101	0xbe29546d	-0.16536112
102	0x3ce210d9	0.027595924
103	0x3d150002	0.03637696
104	0x3da7f43b	0.0820088
105	0x3cf7a9f3	0.030232405
106	0xbe16e2d1	-0.14734961
107	0x3e61a459	0.2203535
108	0xbd1c2fe9	-0.03813163
109	0x3d8c9602	0.06864549
110	0x3de1fdd2	0.110347405
111	0xbdb2d4ee	-0.08732019
112	0x3e2a65c4	0.16640383
113	0xbea3217f	-0.31861493
114	0x3ea3680c	0.3191532
115	0x3e27d278	0.16388881
116	0xbe876f2f	-0.26452014
117	0xbda80e43	-0.08205845
118	0xbdd1d085	-0.1024485
119	0xbe5caecb	-0.21551053
120	0x3dfb2caa	0.12264378
121	0xbe4ad24a	-0.19806781
122	0x3dddf4a0	0.10837674
123	0x3d88c50b	0.06678208
124	0x3eb78f79	0.35851648
125	0x3dc7d8f3	0.09758177
126	0xbd4a2b8b	-0.049357932
127	0x3e01c979	0.12674512

actor.2.weight f4 [64, 128]
0	0xbdd0dd72	-0.10198487
1	0xbdc9f116	-0.098604366
2	0xbec9cbf7	-0.39413425
3	0x3e1d4df6	0.15361771
4	0x3da58000	0.08081055
5	0x3e3c10b8	0.18365753
6	0x3e14afab	0.14520137
7	0x3c59334c	0.013256859
8	0xbdcde83b	-0.1005406
9	0xbe2c49f1	-0.16825081
10	0x3e45d54a	0.19319645
11	0xbd53d26a	-0.05171434
12	0x3de2fdfe	0.110836014
13	0x3bfd61f1	0.007732623
14	0xbeb41422	-0.3517161
15	0x3e2f0c66	0.17094573
16	0xbdff0e34	-0.12453881
17	0x3da06bf2	0.07833089
18	0x3dea963e	0.11454438
19	0xbe55ab62	-0.20866159
20	0x3d812a76	0.06306927
21	0xbe1f16de	-0.15536067
22	0x3d9a3782	0.075301185
23	0xbe0744b4	-0.13209802
24	0xbd7c98fc	-0.061669335
25	0x3dc90b8e	0.09816657
26	0xbe6acd2e	-0.22929832
27	0x3e12f0ef	0.14349721
28	0xbde38968	-0.111101925
29	0x3d0081b6	0.031373702
30	0xbe4da45b	-0.20082228
31	0x3d8e1f3d	0.06939552
32	0x3e29e82c	0.16592473
33	0x3bcff505	0.0063463473
34	0x3e405882	0.18783763
35	0x3d52a2ae	0.051424675
36	0xbc8902a5	-0.016724894
37	0x3dd1f500	0.10251808
38	0xbd2a9cd4	-0.04165347
39	0xbc37e565	-0.0112241255
40	0xbe01ba5c	-0.12668747
41	0xbd31ffd4	-0.043456867
42	0xbdc86f10	-0.097868085
43	0xbbd8f026	-0.006620425
44	0xbc067724	-0.008207116
45	0x3cf864ea	0.030321557
46	0x3d27e048	0.040985376
47	0xbd2c0af1	-0.042002622
48	0xbda5875e	-0.0808246
49	0xbdb519dd	-0.08842824
50	0xbc1ff3a3	-0.009762677
51	0xbd131ce4	-0.035916224
52	0x3d728cc5	0.05921628
53	0xbdd50914	-0.10402122
54	0xbd1bddc4	-0.03805329
55	0x3e40d8f6	0.18832764
56	0xbdf80bb7	-0.121116094
57	0x3e404a8f	0.18778442
58	0xbbd3d68e	-0.006464786
59	0xbbc92138	-0.006137993
60	0xbde86cf8	-0.11348909
61	0xbcdb3ad7	-0.026761455
62	0x3e2ab338	0.16669929
63	0x3e636225	0.22205408
64	0xbe30d605	-0.17269142
65	0xbe030372	-0.12794283
66	0xbe2cb835	-0.16867144
67	0x3d2044ba	0.039128043
68	0x3d97b383	0.07407286
69	0x3cb6fbba	0.02233683
70	0xbe55481d	-0.2082829
71	0xbe4d9c0f	-0.20079063
72	0xbdf7d3b9	-0.1210093
73	0x3e1069f8	0.14102924
74	0xbe86073c	-0.26177394
75	0xbd3f6018	-0.0467225
76	0x3d8855e6	0.06657009
77	0x3cc86fac	0.024467312
78	0xbd8a1cfa	-0.06743808
79	0x3dd6672e	0.10468899
80	0xbe20cd63	-0.15703349
81	0x3c6932ab	0.014233272
82	0x3e0cd157	0.13751732
83	0xbd8543ab	-0.06507047
84	0xbdf4ac7f	-0.119469635
85	0xbd1e7c0c	-0.03869252
86	0x3ca6a6ad	0.02034315
87	0xbdbcc0d5	-0.09216467
88	0x3de841c7	0.11340671
89	0xbd16537f	-0.03670072
90	0xbec82320	-0.39089298
91	0x3c617ba8	0.013762392
92	0xbc918575	-0.017763833
93	0x3e28ade1	0.1647258
94	0x3e2f4a8c	0.17118281
95	0xbd443d90	-0.047910273
96	0x3dc76066	0.097351834
97	0x3d6ca1fc	0.057771668
98	0xbd1f195a	-0.038842537
99	0xbd2a2d20	-0.04154694
100	0x3de38045	0.1110845
101	0x3e51c154	0.20483905
102	0x3c9ecc9b	0.019384673
103	0xbd77ce7a	-0.060499646
104	0xbe1fef1d	-0.15618558
105	0x3d9c5755	0.07633845
106	0xbc1d19d3	-0.0095886765
107	0x3d64893b	0.055794936
108	0x3dd27a54	0.102772385
109	0x3d06f57d	0.03294896
110	0x3e00ade0	0.12566328
111	0x3e25ba02	0.16184238
112	0x3d42818b	0.047486823
113	0x3d932e82	0.07186605
114	0x3e1a2bf6	0.15055832
115	0xbda6557d	-0.08121774
116	0x3db00cda	0.08596201
117	0x3db30c63	0.08742597
118	0x3cb062d2	0.021531496
119	0x3e40b5b6	0.18819317
120	0x3d706382	0.058688648
121	0x3bc77cdd	0.006087883
122	0xbd33d464	-0.043903723
123	0xbcfa51b1	-0.030556532
124	0x3df29b05	0.11845974
125	0xbdf6564d	-0.12028179
126	0x3d68bc55	0.056820232
127	0xbd7ec4e0	-0.062199473
128	0x3c43f927	0.011961258
129	0xbda61ce6	-0.08110981
130	0x3eb05ab1	0.34444192
131	0x3b9382ee	0.004501692
132	0xbddf7e1f	-0.109127276
133	0xbcc58406	-0.024110805
134	0xbd26125b	-0.04054485
135	0xbe246b48	-0.1605655
136	0x3e1159ba	0.14194384
137	0xbe0822ab	-0.13294475
138	0x3dcabd13	0.09899344
139	0xbbb3ab9b	-0.0054831035
140	0x3e076b4d	0.13224526
141	0x3e579492	0.21052769
142	0x3e9450c5	0.28967872
143	0x3d744bac	0.05964248
144	0xbd281e96	-0.041044794
145	0x3da50ffd	0.0805969
146	0x3dc75038	0.097320974
147	0xbd9c8fc6	-0.0764461
148	0xbd88ff73	-0.06689348
149	0xbd1d3255	-0.03837808
150	0x3dafbc90	0.08580887
151	0xbd130d97	-0.035901632
152	0xbc814f26	-0.015784811
153	0x3df970c3	0.12179711
154	0xbe17a67b	-0.14809601
155	0x3ce7df9f	0.028304873
156	0x3e36efaf	0.1786487
157	0x3b8cc3d4	0.0042958055
158	0xbe4c1f80	-0.19933891
159	0x3ada790b	0.0016668154
160	0x3d34ec43	0.04417063
161	0xbabe7a2a	-0.0014532257
162	0xbd685ae5	-0.05672731
163	0x3cc0de48	0.023543492
164	0xbcbc1a99	-0.022961902
165	0x3dc805e6	0.0976675
166	0x3de55371	0.11197556
167	0x3ded787b	0.115952455
168	0xbccf5f6d	-0.025314057
169	0xbd61be62	-0.055113204
170	0xbe1b9939	-0.15195169
171	0x3e531c3e	0.20616242
172	0xbdba9609	-0.09110648
173	0x3ddaace4	0.106775075
174	0x3daed6e5	0.08537082
175	0xbdceb83c	-0.10093734
176	0x3ce3a3cd	0.027788067
177	0x3e91d798	0.28484797
178	0x3e060a40	0.13089848
179	0x3e497efd	0.19677348
180	0xbd8b1c80	-0.06792545
181	0x3e25c7ab	0.16189449
182	0xbc54fd77	-0.012999884
183	0x3d08153b	0.033223372
184	0xbe2724c2	-0.16322616
185	0xbd00d8d3	-0.03145678
186	0x3e0d9789	0.13827337
187	0xbdae9abb	-0.08525606
188	0xbd3a7818	-0.045524687
189	0x3c43c619	0.011949086
190	0x3c4f7a33	0.012663412
191	0x3cb3cb3a	0.021947492
192	0xbb7e5871	-0.003881004
193	0x3e285148	0.16437256
194	0x3e7794fc	0.24177927
195	0xbd77840c	-0.060428664
196	0x3eab745b	0.3348721
197	0x3d766fbf	0.060165163
198	0x3e9f868d	0.31157342
199	0x3d4805b8	0.04883358
200	0xbd8d0977	-0.06886571
201	0xbdb5fab8	-0.088857114
202	0x3e98ca66	0.29841918
203	0x3df84ab8	0.121236265
204	0xbda3e603	-0.08002856
205	0xbdf2cdbc	-0.11855647
206	0xbdadfc38	-0.084953725
207	0xbe2e2952	-0.1700795
208	0x3c5bc7e1	0.013414354
209	0x3e8241cb	0.2544082
210	0x3d87d552	0.066324845
211	0xbd3470c0	-0.04405284
212	0xbe41f212	-0.18939999
213	0xbcdbc3ee	-0.026826825
214	0x3c3174d7	0.010831079
215	0x3e7606dd	0.24026056
216	0x3c41750a	0.011807689
217	0xbd3e7a42	-0.046503313
218	0x3ed40e2b	0.4141706
219	0xbd6240ab	-0.055237453
220	0x3d014d5c	0.031567916
221	0xbd5e946d	-0.05434077
222	0xbd513d1c	-0.05108367
223	0x3e53e93b	0.20694439
224	0x3c8ba4da	0.01704638
225	0x3d4fab59	0.05070052
226	0x3d039020	0.03211987
227	0xbd295fe1	-0.041351203
228	0xbd9875dc	-0.07444355
229	0x3d8417a2	0.0644982
230	0x3e4ebbfe	0.20188901
231	0x3e1aef38	0.15130317
232	0x3e21f26b	0.15815131
233	0xbcf60c1b	-0.03003507
234	0xbc3c442a	-0.011490861
235	0xbdb236c5	-0.08701853
236	0xbdc1ec7c	-0.09468934
237	0x3e1628d0	0.14664006
238	0x3d5bb8c8	0.053643018
239	0x3c93bd38	0.018034562
240	0x3c91bb64	0.01778955
241	0xbe5bf7c1	-0.2148123
242	0xbccd2c0f	-0.025045423
243	0x3de15063	0.11001661
244	0xbe0f03ff	-0.13966368
245	0xbcbe35c1	-0.023218991
246	0xbde67768	-0.11253244
247	0xbdb70cc3	-0.08937981
248	0xbd0fde3e	-0.035124056
249	0xbe07f984	-0.13278776
250	0x3dc11d48	0.09429413
251	0xbe840691	-0.2578626
252	0x3e316538	0.17323768
253	0x3e23ec9d	0.1600823
254	0xbc43bf15	-0.011947413
255	0xbd8b4f0d	-0.06802187

actor.2.bias f4 [64]
0	0xbdd71285	-0.10501579
1	0x3e2ec180	0.17066002
2	0xbe3c6264	-0.18396908
3	0x3e1913d6	0.14948973
4	0xbc696dbc	-0.014247354
5	0x3e05101a	0.12994424
6	0x3dff21bd	0.12457607
7	0x3e4cd698	0.20003736
8	0x3e30725f	0.17231129
9	0xbd53c912	-0.051705427
10	0xbd806374	-0.06268969
11	0xbd8541a1	-0.06506658
12	0xbc8152f5	-0.015786627
13	0xbe664542	-0.22487357
14	0x3e151d50	0.14561963
15	0xbdb543f7	-0.08850854
16	0xbde4c25b	-0.11169883
17	0xbd8d3b70	-0.068961024
18	0x3dd51a6e	0.10405432
19	0xbe5a86d1	-0.21340491
20	0x3e7f4d6e	0.24931881
21	0x3d2624a8	0.040562302
22	0xbd406364	-0.046969786
23	0xbd346cf3	-0.044049215
24	0x3df2c1d0	0.11853373
25	0xbd9c1eeb	-0.07623085
26	0x3d8d9e82	0.069149986
27	0x3e841012	0.2579351
28	0x3e718b26	0.23588237
29	0x3b031fb0	0.00200079
30	0x3dc64fde	0.09683202
31	0x3db0f769	0.0864094
32	0xbbe29e52	-0.006915846
33	0xbd32f10e	-0.04368692
34	0xbe5b5bdc	-0.2142176
35	0x3e16c43a	0.14723292
36	0x3ca44920	0.0200544
37	0x3ea4ac8a	0.32162887
38	0xbd27cf6a	-0.04096929
39	0x3e5166cd	0.20449372
40	0x3d55426d	0.0520653
41	0x3e235ddf	0.15953778
42	0xbe1eca0a	-0.1550676
43	0x3e5d3bd5	0.21604855
44	0xbd399794	-0.04531057
45	0x3e0ecbbe	0.13944909
46	0xb6e412cc	-6.7971177e-06
47	0x3b09b9b3	0.0021015226
48	0x3e855f89	0.2604945
49	0xbda488d8	-0.080339134
50	0x3dcae7bf	0.09907483
51	0xbdc249c4	-0.09486726
52	0x3e14abf1	0.14518715
53	0xbd931f78	-0.071837366
54	0xbc4b9a00	-0.012426853
55	0xbc021ab7	-0.00794094
56	0xbd5b4297	-0.053530302
57	0x3e911491	0.28336003
58	0xbd1f2afb	-0.03885935
59	0x3e43c5b3	0.19118385
60	0x3e169d41	0.14708425
61	0xbc436b5a	-0.01192745
62	0xbdaface2	-0.08577897
63	0x3e168057	0.14697395

actor.4.weight f4 [16, 64]
0	0xbe45124e	-0.19245264
1	0x3d958fb5	0.073028006
2	0x3b1b3e64	0.002368831
3	0xbe570c00	-0.21000671
4	0xbe3caf94	-0.18426353
5	0x3e685b5f	0.22691105
6	0x3d609bf0	0.054836214
7	0xba0585fe	-0.0005093514
8	0xbdf20b13	-0.118185185
9	0xbeb72be9	-0.35775688
10	0xbf11417e	-0.5674056
11	0xbdae082e	-0.08497654
12	0xbeb24d58	-0.34824634
13	0xbe370a7d	-0.17875095
14	0xbe3ba7f3	-0.18325786
15	0xbf0496b1	-0.51792437
16	0x3f24fb8c	0.6444633
17	0x3c933e3a	0.017974008
18	0xbdc66c81	-0.09688664
19	0xbcbb9c4a	-0.022901673
20	0xbdcd93d6	-0.10037963
21	0x3f1a12d8	0.60185003
22	0xbe185c2e	-0.14878914
23	0x3eb3a9ce	0.35090488
24	0x3e2a500d	0.166321
25	0xbf284855	-0.6573537
26	0x3e3d3ad6	0.18479475
27	0x3e42f2a1	0.19037868
28	0x3e61d18f	0.22052597
29	0x3e7d4b1a	0.2473568
30	0xbdce66d0	-0.10078204
31	0x3e8c1b04	0.2736436
32	0xbddccd51	-0.107813485
33	0xbe3392af	-0.17536424
34	0xbf28df31	-0.65965563
35	0x3e9fbef0	0.3120036
36	0xbf8b1b7e	-1.0867765
37	0x3db05366	0.08609657
38	0x3e43bf58	0.1911596
39	0x3e16b8e7	0.14718972
40	0xbead66d5	-0.33867517
41	0xbf0491b6	-0.5178484
42	0xbe0e6aa0	-0.13907862
43	0xbce5446b	-0.027986726
44	0xbf2465f1	-0.6421805
45	0xbe36762d	-0.17818518
46	0x3c87b1a8	0.016564205
47	0xbdad1acb	-0.08452376
48	0x3da00c84	0.07814887
49	0x3e86f5db	0.26359448
50	0xbd9121ea	-0.07086547
51	0xbdfff698	-0.12498206
52	0x3de4bdea	0.11169036
53	0x3de840c0	0.11340475
54	0xbf0fec93	-0.5622036
55	0xbe2616a1	-0.1621957
56	0x3e386830	0.18008494
57	0x3e6691b6	0.22516522
58	0xbeaf607d	-0.34253302
59	0x3e8e3b34	0.27779543
60	0x3b2d40e4	0.0026436383
61	0x3e291675	0.16512473
62	0xbdfbb97b	-0.12291237
63	0x3e263c24	0.1623388
64	0x3e88aae9	0.26692894
65	0xbea0d346	-0.3141119
66	0x3d2dfcc5	0.042477388
67	0xbee4eb18	-0.44710612
68	0xbe424b57	-0.18974052
69	0xbe407003	-0.18792729
70	0xbdf4fc5b	-0.119621955
71	0xbdb66d5b	-0.08907577
72	0xbea44501	-0.32083896
73	0xbec037d1	-0.37542585
74	0x3e1729e4	0.14762074
75	0x3e81620e	0.25270122
76	0xbe34a647	-0.17641555
77	0x3e9c872e	0.30571884
78	0x3d81f254	0.063450485
79	0x3ebc7e5f	0.36815163
80	0xbe7e2625	-0.24819238
81	0xbde7fffa	-0.113281205
82	0xbdbf8f35	-0.093534864
83	0x3e96d668	0.29460454
84	0xbeec2c80	-0.461277
85	0x3f881425	1.0631148
86	0x3d398536	0.045293055
87	0xbd8e0295	-0.06934086
88	0xbd93cd8a	-0.07216938
89	0x3dc826aa	0.097729996
90	0x3e017589	0.12642492
91	0xbeeaaecd	-0.45836487
92	0x3cca2ab5	0.024678567
93	0x3e405a35	0.18784411
94	0xbe4f9c11	-0.20274378
95	0x3e849a2a	0.25898868
96	0xbd3f6907	-0.04673102
97	0x3ea3f525	0.32022968
98	0x3e79ebb0	0.24406314
99	0xbeada032	-0.33911282
100	0x3f02a838	0.5103793
101	0xbe103576	-0.14082894
102	0x3d395e31	0.045255844
103	0xbd053e98	-0.032530397
104	0xbdac3458	-0.08408421
105	0xbe9d005c	-0.30664337
106	0x3eb1c4c7	0.34720442
107	0xbe098732	-0.13430479
108	0x3ea94022	0.33056742
109	0xbe22bdac	-0.15892667
110	0x3e3a1a00	0.1817398
111	0x3dcd690d	0.100298025
112	0x3cf2c491	0.029634746
113	0x3f483b3a	0.7821537
114	0xbee93689	-0.4554942
115	0x3e91efef	0.28503367
116	0xbdc49bef	-0.096000545
117	0xbdc7424c	-0.09729442
118	0xbcb6125a	-0.022225548
119	0xbd103613	-0.03520782
120	0x3e35f8f2	0.17770746
121	0xbd870c50	-0.06594145
122	0xbe48b807	-0.19601451
123	0xbe0deefa	-0.13860694
124	0xbe885f35	-0.26635137
125	0x3e38f49a	0.18062058
126	0x3e02037e	0.12696645
127	0x3de9f7f8	0.114242494
128	0x3e5ca3b3	0.21546821
129	0xbebb0c63	-0.36532888
130	0x3d7327e1	0.059364203
131	0xbc1ec253	-0.009689885
132	0xbd351ee4	-0.044218913
133	0x3ca3fa2b	0.02001675
134	0xbf27037a	-0.6523968
135	0xbe7ab189	-0.24481787
136	0xbd5fe79c	-0.05466424
137	0x3dcba0d0	0.09942782
138	0x3e7b35fb	0.2453231
139	0x3db445fe	0.088024125
140	0x3dde9bee	0.10869585
141	0x3e9b72fe	0.3036117
142	0x3db8bf45	0.09020857
143	0x3e9aa678	0.3020513
144	0x3ea7e5cb	0.32792506
145	0xbea64c6d	-0.32480183
146	0xbd95b8e8	-0.07310659
147	0x3e04a757	0.1295446
148	0x3a7eb9f6	0.00097170414
149	0x3efcbfe5	0.49365154
150	0x3d205200	0.0391407
151	0x3dee94f5	0.11649505
152	0xbe279049	-0.16363634
153	0x3ee64323	0.44973096
154	0x3cda89f1	0.026677104
155	0x3effef1a	0.49987108
156	0xbeefb5bb	-0.46818337
157	0xbf4bd142	-0.7961618
158	0xbe27e1e6	-0.16394767
159	0x3f2a8c7a	0.666206
160	0xbd745dd7	-0.059659805
161	0x3ef2ae98	0.4739883
162	0x3e9240ff	0.28565213
163	0xbd15683c	-0.03647636
164	0x3dcdad68	0.1004284
165	0xbe2e15ee	-0.17000553
166	0x3e21080d	0.15725727
167	0xbf5369ac	-0.8258312
168	0x3e38aee3	0.18035464
169	0xbe69e5f9	-0.22841634
170	0x3e3419f5	0.17588027
171	0xbe4a33ce	-0.19746324
172	0x3f05a85f	0.5221004
173	0xbd9a9c0b	-0.07549294
174	0x3e9dfeb6	0.30858392
175	0x3d70a924	0.058755055
176	0x3d26c782	0.04071761
177	0x3ec2f8ec	0.38080537
178	0x3d8b47bd	0.06800792
179	0x3da31014	0.07962051
180	0xbe0d5270	-0.13800979
181	0x3db455dd	0.088054396
182	0xbe3bb6d2	-0.18331459
183	0xbe92c5bc	-0.28666484
184	0xbc14f271	-0.009091006
185	0xbf626da4	-0.8844855
186	0x3e71ffe8	0.23632777
187	0xbf9c30be	-1.2202375
188	0xbe2f4aff	-0.17118452
189	0x3e11a0bf	0.14221476
190	0x3e062ceb	0.13103072
191	0x3dd7afc2	0.1053157
192	0xbe55f9f1	-0.20896126
193	0x3d5e6406	0.05429461
194	0x3d03de4f	0.032194432
195	0x3ea3a6d0	0.31963205
196	0xbf1b30b1	-0.6062117
197	0xbf173676	-0.59067476
198	0x3e9e2449	0.30887058
199	0x3c6e84d2	0.014558034
200	0xbeb9b210	-0.36268663
201	0x3eacdcda	0.33762246
202	0x3d9ec7d0	0.07752955
203	0xbea68e9b	-0.32530674
204	0xbed1e773	-0.40996894
205	0xbdbff32c	-0.09372553
206	0x3f19b5e7	0.60043186
207	0x3ec9c45c	0.39407623
208	0xbec9351b	-0.3929833
209	0x3e9ee18e	0.3103146
210	0xbc72aac5	-0.014811222
211	0xbf1388cd	-0.57630616
212	0x3f20354a	0.6258131
213	0xbf146b47	-0.5797619
214	0x3efa1836	0.48846596
215	0xbf0adf3f	-0.54246897
216	0x3d66db6c	0.0563616
217	0x3e3d0ec6	0.18462667
218	0x3df3183c	0.11869857
219	0x3eb8b79e	0.3607759
220	0x3e1fb9bb	0.15598194
221	0x3eb5c59d	0.3550233
222	0xbd7e49e6	-0.062082194
223	0xbd1d7b9b	-0.038447957
224	0xbd8100a8	-0.06298953
225	0x3e7d9a63	0.24765925
226	0xbd87049e	-0.065926775
227	0xbeaee307	-0.34157583
228	0x3f362554	0.7115071
229	0xbd146284	-0.036226764
230	0xbec9a572	-0.39384037
231	0x3d4e14bf	0.050312754
232	0x3ec653ea	0.38735896
233	0x3ee35164	0.44398034
234	0x3dfbec72	0.12300958
235	0xbc675d8f	-0.014121427
236	0xbe191611	-0.14949824
237	0x3d519e03	0.051176082
238	0xbe838617	-0.2568824
239	0xbdbed7b8	-0.09318489
240	0x3d3ef276	0.046617948
241	0xbf1f5e47	-0.6225323
242	0x3eee55cd	0.46549836
243	0xbe7c0847	-0.24612533
244	0x3ec380f0	0.3818431
245	0x3d8e62f0	0.069524646
246	0x3ebe5cda	0.37180215
247	0x3e2eafab	0.170592
248	0xbcc6839e	-0.024232682
249	0xbd987757	-0.07444637
250	0x3eb74cf2	0.35800892
251	0x3e8ca513	0.27469692
252	0x3ebb4d11	0.36582235
253	0xbd5beef6	-0.053694688
254	0xbdb72a5a	-0.08943625
255	0x3e0219c8	0.12705147

actor.4.bias f4 [16]
0	0x3e6e4f70	0.2327249
1	0xbe3fa957	-0.18716942
2	0xbd5f10a0	-0.054459214
3	0x3cb0a33f	0.021562217
4	0xbdb37c77	-0.08763974
5	0xbdfee87e	-0.12446688
6	0x3e515d97	0.20445858
7	0x3cf2d888	0.029644266
8	0xbe6814b2	-0.22664145
9	0x3ceac03a	0.028656114
10	0x3d2ebe4e	0.042661957
11	0xbe2ae0b2	-0.16687277
12	0x3dbfa265	0.09357146
13	0xbe309585	-0.17244537
14	0xbe8bb428	-0.27285886
15	0x3d9ae372	0.07562913

critic.0.weight f4 [128, 35]
0	0xbe6aab46	-0.22916898
1	0xbeb280ce	-0.34863895
2	0xbe80f517	-0.2518699
3	0xbe8a18aa	-0.26971942
4	0xbeb5ece4	-0.35532296
5	0xbea987d0	-0.3311143
6	0xbea59714	-0.32341826
7	0xbeaeab5a	-0.34115106
8	0xbe4ffd35	-0.20311435
9	0xbe6348a6	-0.22195682
10	0x3eb29303	0.34877786
11	0x3eb0548a	0.34439498
12	0x3ad102de	0.0015946289
13	0xbe741411	-0.2383578
14	0xbe3b27cf	-0.18276905
15	0x3e17bd5d	0.1481833
16	0xbe7bcd1b	-0.2458996
17	0xbea00336	-0.3125245
18	0xbe3786a2	-0.17922452
19	0x3c8367d4	0.01604072
20	0xbe2460f5	-0.16052611
21	0xbe87898b	-0.26472124
22	0x3dfdaa33	0.123859785
23	0xbc692d7c	-0.014232036
24	0xbce133d5	-0.027490536
25	0xbec078f9	-0.37592295
26	0xbe846390	-0.2585721
27	0x3d257a96	0.04040011
28	0xbd625b5d	-0.055262912
29	0xbe5f022c	-0.21778172
30	0xbe074bfe	-0.13212582
31	0x3eccd4c8	0.4000609
32	0xbe023341	-0.12714864
33	0x3d877ba6	0.06615381
34	0xbc0b4ec8	-0.00850267
35	0xbeedb6e4	-0.46428597
36	0xbee04795	-0.43804613
37	0xbea2096c	-0.31647813
38	0xbec11258	-0.37709308
39	0xbe7e74fc	-0.24849313
40	0xbe7e3838	-0.24826133
41	0xbec4ace2	-0.3841315
42	0xbe9aa7ec	-0.3020624
43	0xbef37d74	-0.4755665
44	0xbee0d253	-0.43910465
45	0xbf215496	-0.6301969
46	0x3ea0979c	0.3136567
47	0x3e3d2426	0.18470821
48	0x3f3211a0	0.69558144
49	0xbf14458f	-0.5791864
50	0x3f2c31b4	0.6726334
51	0x3e331982	0.17490199
52	0x3eaa41ad	0.33253232
53	0xbe064fbe	-0.13116357
54	0x3ca28384	0.019838102
55	0xbd951d71	-0.07281006
56	0xbec9b4b1	-0.3939567
57	0xbe9d4e65	-0.30723873
58	0xbe67cb56	-0.2263616
59	0xbe58cc82	-0.21171764
60	0xbd9719b4	-0.07377949
61	0x3e02d651	0.12777068
62	0x3eea31c6	0.457411
63	0xbd859859	-0.06523199
64	0xbf548010	-0.8300791
65	0xbd1722f9	-0.036898587
66	0xbd5d56c9	-0.054037843
67	0xbfaf5762	-1.3698542
68	0xbf6c1f2c	-0.92235065
69	0xbf08c8d7	-0.5343146
70	0x3de9592b	0.113939606
71	0x3d4e85c9	0.050420556
72	0x3dc29d56	0.09502666
73	0x3db39022	0.087677255
74	0x3db3c4a8	0.087777436
75	0xbd46f14e	-0.04856997
76	0x3d954628	0.07288772
77	0x3b9ef635	0.0048511275
78	0x3df5f4f3	0.12009611
79	0xbd9de1bb	-0.0770907
80	0xbfe4948d	-1.7857834
81	0xbf4fc775	-0.8116372
82	0x3e822041	0.25415233
83	0xbf71590e	-0.9427651
84	0x3ca8325d	0.020531828
85	0x3eee95f5	0.46598783
86	0x3f057747	0.5213513
87	0xbd8b4e2b	-0.06802019
88	0x3eda138b	0.42593035
89	0x3e8eefb7	0.27917263
90	0x3e013ef4	0.12621671
91	0x3e0e30ba	0.13885775
92	0xbda9ad36	-0.082849905
93	0x3dcfccc4	0.10146478
94	0x3dbca994	0.09212032
95	0xbe08bf47	-0.13354217
96	0x3c5621e7	0.013069606
97	0x3e284aa0	0.16434717
98	0xbaa15222	-0.0012307803
99	0x3e485377	0.1956309
100	0xbca88473	-0.02057097
101	0xbec8deea	-0.3923257
102	0xbeb7735f	-0.3583021
103	0xbcc15dbd	-0.023604268
104	0xbe5645f8	-0.20925128
105	0xbe0f78ce	-0.14010927
106	0xbdc5a100	-0.09649849
107	0xbdbbd2db	-0.09171077
108	0xbddbbeee	-0.10729776
109	0xbdbdb02e	-0.09262119
110	0xbe0e6812	-0.13906887
111	0xbdf48a39	-0.119404264
112	0xbe215fe5	-0.15759237
113	0xbdd353ad	-0.10318694
114	0xbe19ae2c	-0.15007848
115	0xc00fed03	-2.248841
116	0xbf2cfab7	-0.6757006
117	0xbe647aa1	-0.22312404
118	0x3e95bbeb	0.29244933
119	0x3f751f2b	0.95750684
120	0x3f82f311	1.0230428
121	0xbe931398	-0.28725886
122	0xbec5a812	-0.3860479
123	0xbf2c8ef0	-0.67405605
124	0xbe6fe988	-0.23428929
125	0xbe550d6a	-0.20805898
126	0xbdc30cdb	-0.09523936
127	0xbc5fc246	-0.013657158
128	0xbd0c1c28	-0.03420654
129	0x3d3e4fcc	0.04646282
130	0xbe75c16b	-0.23999564
131	0x3cf05ef2	0.029342148
132	0x3b9d03f2	0.00479173
133	0xbdaad07a	-0.08340545
134	0xbd29334d	-0.04130869
135	0x3e969156	0.29407758
136	0xbc9232ea	-0.017846543
137	0x3dabf6cb	0.083966814
138	0x3dba78bd	0.0910506
139	0x3d7c6298	0.061617464
140	0xbe5491e2	-0.20758775
141	0xbed1cfee	-0.4097895
142	0xbe93d451	-0.28872922
143	0xbe8571ce	-0.2606339
144	0xbe8b59c1	-0.27216914
145	0xbeb8864b	-0.36039957
146	0xbea51f37	-0.32250378
147	0xbea9269c	-0.3303727
148	0xbebb1b48	-0.3654425
149	0xbf28a23a	-0.6587254
150	0x3f730e5a	0.94943774
151	0xbf41e39f	-0.7573795
152	0x3eb05be7	0.34445116
153	0x3e351560	0.17683935
154	0x3dc5a7e7	0.096511655
155	0xbe9c4e94	-0.305287
156	0x3e8f4d77	0.27988788
157	0x3d4f5d6b	0.0506262
158	0xbd4e431b	-0.050356966
159	0x3e8f94d9	0.2804325
160	0xbd184f83	-0.037185203
161	0xbd4a03d6	-0.049320064
162	0xbd952813	-0.07283034
163	0x3dd5c6bc	0.10438296
164	0xbd0c6a44	-0.03428103
165	0xbee368ef	-0.44415995
166	0xbde704c7	-0.11280208
167	0xbe52047e	-0.20509526
168	0xbe24e0d8	-0.16101396
169	0x3d93251b	0.07184812
170	0x3ea23ef8	0.31688666
171	0xbe79ab9c	-0.2438187
172	0xbf1d373e	-0.6141242
173	0xbf21d5c7	-0.63216823
174	0xbe10ce44	-0.14141184
175	0xbdd2b9f1	-0.10289372
176	0x3d11de82	0.03561259
177	0xbda738bc	-0.08165118
178	0xbe4fe758	-0.20303094
179	0xbdb4a99c	-0.08821413
180	0xbde65cff	-0.11248206
181	0xbd261905	-0.040551204
182	0xbe52dc64	-0.20591885
183	0xbe9436ca	-0.2894805
184	0xbea71632	-0.3263412
185	0x3ea1b780	0.31585312
186	0xbe7115ee	-0.23543522
187	0x3d612a89	0.054972205
188	0x3ea6fe31	0.32615808
189	0x3dd01bc3	0.10161545
190	0x3d14d010	0.036331236
191	0x3e407350	0.18793988
192	0x3e3f4a54	0.18680698
193	0x3e68a68b	0.22719781
194	0x3e1867dd	0.1488337
195	0xbe04bdfa	-0.12963095
196	0xbe0caa99	-0.13736953
197	0xbe690821	-0.22757007
198	0xbe974ce5	-0.29550853
199	0xbe04cd6a	-0.12968984
200	0xbe0d08c3	-0.13772874
201	0xbe363ab8	-0.17795837
202	0xbd1219de	-0.0356692
203	0x3c09999d	0.008398441
204	0xbe0694ed	-0.13142748
205	0xbcd73367	-0.026269628
206	0x3d286571	0.041112367
207	0xbd0cc8a0	-0.03437102
208	0xbc09bed3	-0.008407312
209	0xbda7a054	-0.08184877
210	0xbcc78546	-0.024355542
211	0xbcb9bdca	-0.022673506
212	0xbca0bec7	-0.01962222
213	0xbac74071	-0.00152017
214	0x3be3f553	0.006956735
215	0x3bb83c0e	0.0056223935
216	0xbd6ebbfb	-0.05828474
217	0xbda8375d	-0.08213685
218	0xbd99448b	-0.07483777
219	0xbdf32de0	-0.11873984
220	0x400fe075	2.2480748
221	0xbffe2d46	-1.9857566
222	0x3eadf965	0.33979335
223	0xbdf5f324	-0.12009266
224	0x3eb60003	0.35546884
225	0x4007ae1f	2.1200025
226	0x3ea8d0aa	0.32971698
227	0x3da2db5e	0.07951997
228	0xbc13c371	-0.009018765
229	0x3c83206f	0.016006676
230	0x3e21c9b3	0.15799598
231	0x3bd2b2a6	0.006429988
232	0x3b84e667	0.0040557864
233	0xbd170444	-0.036869302
234	0x3c7ae83f	0.015314161
235	0xbf9a9cf7	-1.2079152
236	0x3d089752	0.033347435
237	0x3d32c8bb	0.043648463
238	0x3cf50094	0.029907502
239	0xbd0f8985	-0.03504326
240	0x3f4bfe23	0.79684657
241	0xbe15c5c8	-0.14626229
242	0xbdc49fd4	-0.09600797
243	0xbe231f6b	-0.15929954
244	0x3cece603	0.028918272
245	0x3e1ab4af	0.15107988
246	0x3e1b94ef	0.15193532
247	0x3df19aa1	0.11797071
248	0x3de2d665	0.11076049
249	0x3dc50b97	0.09621351
250	0x3e2d7a70	0.16941237
251	0x3de4314a	0.11142214
252	0xbd8c9936	-0.0686516
253	0xbe40c435	-0.18824847
254	0xbd77373c	-0.06035541
255	0x401ecde7	2.4813173

critic.0.bias f4 [128]
0	0xbe7de6af	-0.2479503
1	0xbec9bf32	-0.39403683
2	0xbe3a4573	-0.18190555
3	0xbf3d8491	-0.74030405
4	0x3e5a57c2	0.2132254
5	0xbda92575	-0.082590975
6	0xbeea297e	-0.4573478
7	0xbf1daf00	-0.61595154
8	0xbf6d5b28	-0.9271722
9	0xbe9bfe7d	-0.30467597
10	0x3f069d2f	0.52583593
11	0x3edf1429	0.43570068
12	0x3ddfed21	0.109339006
13	0xbec196ef	-0.37810466
14	0xbefba712	-0.49150902
15	0xbf0e9611	-0.55697733
16	0xbf0ff296	-0.5622953
17	0x3e1abc67	0.15110932
18	0x3e178c62	0.14799646
19	0x3da43e47	0.08019691
20	0xbd20b5a6	-0.039235733
21	0xbf292539	-0.6607242
22	0xbf33d9e3	-0.70254344
23	0xbe7826b7	-0.24233519
24	0x3ed2a331	0.4114013
25	0x3eb51496	0.35367268
26	0x3e8b6d3d	0.2723178
27	0x3f43e269	0.7651735
28	0x3e2cac8d	0.16862698
29	0xbee8872b	-0.45415625
30	0x3e612703	0.21987538
31	0xbed14f23	-0.4088069
32	0x3fee415b	1.8613695
33	0x3e225907	0.15854274
34	0xbca95665	-0.020671079
35	0x3f157fc6	0.5839809
36	0xbe47cd09	-0.19511808
37	0x3e14e392	0.14539936
38	0x3e1045ba	0.14089099
39	0xbed65777	-0.41863605
40	0xbe19062a	-0.14943758
41	0xbe36c35c	-0.17847961
42	0xbeb64724	-0.3560115
43	0xbe06d9dc	-0.13169044
44	0x3e3a5d77	0.18199717
45	0xbe851854	-0.25995123
46	0xbf6e0855	-0.92981464
47	0xbdd6983c	-0.10478255
48	0x3ed82352	0.42214447
49	0xbd60b74c	-0.054862306
50	0xbf589f71	-0.8461829
51	0xbf1426f6	-0.5787195
52	0x3edf10f3	0.4356762
53	0xbf6c7e53	-0.92380255
54	0xbf3546af	-0.7081098
55	0x3f276ac1	0.6539727
56	0x3dbb56bd	0.091474034
57	0xbda3ffe6	-0.08007793
58	0xbe734e2b	-0.23760287
59	0x3b72568c	0.0036977855
60	0xbc109e54	-0.008826811
61	0x3f7eeb4e	0.99577796
62	0x3ca3ed62	0.020010654
63	0x3f13b10d	0.57692033
64	0xbd3a06ab	-0.045416515
65	0xbf32ffb2	-0.6992141
66	0x3ed9e4f7	0.425575
67	0x3ee976ea	0.45598537
68	0x3de3dc6e	0.11126028
69	0xbf9f52b7	-1.2447118
70	0xbe832a25	-0.2561809
71	0xbe2cb338	-0.16865242
72	0xbe42b5d9	-0.19014682
73	0xbe7cdf8d	-0.24694653
74	0x3c5f75ec	0.013638955
75	0xbee919a4	-0.45527375
76	0xbe9a9053	-0.30188236
77	0x3e56ef72	0.20989779
78	0x3cfd7acb	0.030942341
79	0x3f416b17	0.7555403
80	0xbd4ad0ea	-0.049515642
81	0xbef92ba7	-0.48666117
82	0x3e56cdd9	0.20976962
83	0xbef02b1c	-0.4690789
84	0x3d9edea2	0.077573076
85	0x3db656c8	0.08903271
86	0xbe2d2f47	-0.16912566
87	0xbbe9f9c1	-0.0071403687
88	0xbdaaee82	-0.08346273
89	0x3d9d4fb7	0.0768122
90	0xbdc40bd2	-0.09572567
91	0x3ea7ff71	0.32812074
92	0xbe873adc	-0.26412094
93	0x3d27a695	0.04093035
94	0xbf0e5b67	-0.5560822
95	0xbf06bb2e	-0.52629364
96	0xbec11dd2	-0.37718064
97	0x3f783290	0.9695215
98	0x3f2a3df2	0.6650077
99	0xbe0bc973	-0.13651066
100	0x3d6038fc	0.054741845
101	0x3d4cf64c	0.050039575
102	0x3f58dc3f	0.8471107
103	0xbe85ca7f	-0.26131055
104	0x3f4a0910	0.7892008
105	0x3e823a7d	0.25435248
106	0xbef49191	-0.47767308
107	0x3ea52706	0.32256335
108	0x3e29247f	0.16517828
109	0x3e32fc7f	0.17479132
110	0x3f324632	0.6963836
111	0xbf056b31	-0.52116686
112	0x3bcbf2d1	0.0062240143
113	0x3e044ea0	0.12920618
114	0x3e2ecc58	0.17070138
115	0x3e31eb9d	0.17375036
116	0xbf4b7331	-0.79472643
117	0xbeb6d5a5	-0.35709873
118	0x3f179f17	0.59227127
119	0x3c60052f	0.013673111
120	0xbeee10ab	-0.46497092
121	0xbea46200	-0.32106018
122	0xbf1ffcad	-0.6249493
123	0xbf078a03	-0.52944964
124	0x3e945ab5	0.28975454
125	0x3f2f97ee	0.685912
126	0xbf1f689f	-0.62269014
127	0x3f129794	0.5726254

critic.2.weight f4 [64, 128]
0	0xbe19e48e	-0.15028593
1	0xbe33e8b7	-0.17569242
2	0xbcebbcea	-0.028776605
3	0xbe3f4e83	-0.18682294
4	0x3ed9db76	0.42550248
5	0x3e1f330e	0.1554682
6	0x3d9b0507	0.07569318
7	0x3d9f0203	0.077640556
8	0xbeacdccb	-0.33762202
9	0x3f0935ed	0.5359791
10	0x3f778b8f	0.96697325
11	0x3f627d68	0.88472605
12	0xbec23f09	-0.37938717
13	0xbcc63008	-0.024192825
14	0x3dd69e0f	0.10479366
15	0x3eff2f3e	0.4984073
16	0x3d82581a	0.0636446
17	0x3f3af236	0.73025835
18	0xbe920d8e	-0.28525966
19	0x3f23b126	0.6394218
20	0x3f8b343a	1.0875313
21	0xbe09e862	-0.13467553
22	0xbf0f0a77	-0.55875343
23	0xbda137a8	-0.07871944
24	0x3f6739e3	0.90322703
25	0x3d595ec3	0.053068887
26	0x3e5b9a90	0.2144568
27	0x3bebfea4	0.0072019864
28	0x3e1be526	0.15224132
29	0xbe8ae7ea	-0.2713006
30	0x3e406373	0.18787937
31	0x3e820ab6	0.25398797
32	0x3f01a209	0.5063787
33	0x3e2b1580	0.1670742
34	0xbea64ca6	-0.32480353
35	0x3e3f4cd4	0.18681651
36	0xba8c24d0	-0.0010692123
37	0x3f9e0008	1.234376
38	0x3cd6ac0b	0.026205083
39	0x3e92b7fe	0.28656
40	0xbf26b49d	-0.65119344
41	0x3de1eff1	0.11032093
42	0xbd0244f7	-0.03180405
43	0x3f36b560	0.71370506
44	0x3f983821	1.1892129
45	0x3ef56f74	0.47936594
46	0xbbfdf6da	-0.0077503743
47	0x3e630ada	0.22172108
48	0x3f729baf	0.94768804
49	0x3d9c1bb7	0.07622474
50	0xbe0e5f6d	-0.1390359
51	0xbef1d17f	-0.47230145
52	0x3f223f6b	0.6337802
53	0xbe87e610	-0.2654271
54	0x3e02994a	0.12753788
55	0x3e2fa5ec	0.17153138
56	0x3f66b696	0.90122354
57	0xbe88fc90	-0.2675519
58	0xbe08137a	-0.1328868
59	0xbe97b682	-0.2963143
60	0x3e373f14	0.17895156
61	0x3e9e70db	0.30945477
62	0xbec186f1	-0.37798265
63	0x3f3d3a1d	0.739168
64	0x3f32246a	0.69586813
65	0xbeeb5b94	-0.45968306
66	0x3e9e1c49	0.30880955
67	0x3e2f9067	0.17144929
68	0x3f3f9782	0.7484056
69	0xbfa9cec9	-1.3266231
70	0x3ea504ed	0.3223032
71	0x3e370238	0.1787194
72	0x3dd090aa	0.101838425
73	0x3e1edfff	0.15515135
74	0x3ecf7e94	0.4052626
75	0x3de72601	0.112865455
76	0x3f0d82df	0.5527782
77	0x3e2dc4ad	0.16969557
78	0x3c324801	0.010881425
79	0x3e4c802b	0.19970767
80	0x3f8903e5	1.0704314
81	0xbc5dd81d	-0.013540295
82	0x3e67a2a3	0.22620635
83	0xbe45c8cb	-0.19314878
84	0xbede2687	-0.4338877
85	0xbea4ddf7	-0.32200596
86	0x3edab395	0.42715135
87	0xbe749bd9	-0.23887576
88	0x3dedf9cc	0.116199106
89	0xbc702091	-0.014656202
90	0xbd189ab9	-0.03725693
91	0x3f2bebd6	0.6715673
92	0xbdc5bcb8	-0.09655136
93	0xbe839ea7	-0.2570698
94	0x3eeb3407	0.4593813
95	0xbd8eb006	-0.069671676
96	0xbcf51f49	-0.029922144
97	0x3e27db3b	0.16392224
98	0x3e9904f3	0.29886588
99	0x3f7001f6	0.9375299
100	0xbe3fe0df	-0.18738125
101	0x3e84fff7	0.25976536
102	0x3e67401a	0.22583047
103	0x3f1f4fbb	0.62231034
104	0x3e192241	0.14954473
105	0x3e4427e7	0.19155847
106	0x3f12a193	0.5727779
107	0x3f58a146	0.84621084
108	0x3efe2a9c	0.49641883
109	0x3e12bf75	0.14330848
110	0x3df77ac3	0.12083962
111	0x3e9d7c26	0.3075878
112	0xbd25f4b9	-0.04051659
113	0x3e89109c	0.26770484
114	0x3d9f485c	0.07777473
115	0x3f2858d7	0.6576056
116	0xbe578ee2	-0.21050599
117	0x3f9dc982	1.232712
118	0x3d8f1d8f	0.0698806
119	0x3f634de1	0.8879071
120	0xbe36863e	-0.17824647
121	0xbdbc059e	-0.09180759
122	0x3f09ece4	0.5387709
123	0xbe1478a8	-0.14499152
124	0x3fa837b3	1.3141998
125	0x3df61e70	0.12017524
126	0x3c4381f6	0.011932841
127	0x3e199b7b	0.15000717
128	0x3e204138	0.15649879
129	0xbe813c4b	-0.25241312
130	0xbe5136c4	-0.20431048
131	0xbd4d803e	-0.05017113
132	0xbe5898b5	-0.21152003
133	0x3e1c5208	0.15265667
134	0xbaabc33f	-0.0013104453
135	0xbe591eb0	-0.21203113
136	0xbe622d6a	-0.22087637
137	0x3dd5d48a	0.10440929
138	0xbe8567da	-0.26055795
139	0x3d7b3d71	0.061337892
140	0xbf10311a	-0.56324923
141	0x3ac5a4f7	0.001507907
142	0xbd4f0aef	-0.050547536
143	0xbda77a94	-0.08177677
144	0xbe82fa15	-0.25581422
145	0x3d26ebc5	0.04075219
146	0x3d938237	0.07202571
147	0x3e276898	0.16348493
148	0xbe3f6eb9	-0.18694581
149	0xbdebdc7d	-0.11516664
150	0xbe177d24	-0.14793831
151	0x3e86a058	0.26294208
152	0xbce51e81	-0.027968647
153	0xbdea6f7b	-0.114470445
154	0xbd0554f8	-0.032551736
155	0x3cc547ee	0.02408215
156	0xbe51e5ea	-0.20497862
157	0x3d43ce99	0.04780445
158	0xbe5905dc	-0.21193641
159	0xbd0ff0f0	-0.035141885
160	0xbe41cd27	-0.18925916
161	0x3d37ffb1	0.04492158
162	0x3cfe1430	0.031015486
163	0xbe193e54	-0.14965183
164	0xbe84d2c9	-0.25942066
165	0xbc96822e	-0.018372621
166	0x3d83508c	0.064118475
167	0xbe0a9e7b	-0.13537018
168	0xbd2f42f1	-0.04278845
169	0xbccec058	-0.025238201
170	0x3bba31e5	0.0056822174
171	0xbd85a0e0	-0.06524825
172	0xbbbcef6a	-0.005765845
173	0xbd906742	-0.07050945
174	0x3d8f81de	0.07007192
175	0x3dafecde	0.08590101
176	0x3daf1386	0.08548646
177	0xbde74e9a	-0.11294289
178	0xbc0faf2a	-0.00876979
179	0xbde95623	-0.113933824
180	0xbdca194b	-0.098681055
181	0x3e37f2d2	0.17963722
182	0xbe824ee9	-0.2545083
183	0xbdf42af9	-0.11922259
184	0xbe706757	-0.23476921
185	0x3cd358e2	0.025799219
186	0x3d9c2da1	0.076258905
187	0xbdd08a0b	-0.101825796
188	0x3dfdcc06	0.1239243
189	0x3e529c59	0.20567454
190	0x3e6b92eb	0.23005264
191	0x3d4c3e4b	0.049864095
192	0xbf01ee34	-0.50754094
193	0xbdbbc61c	-0.09168646
194	0xbe1691a9	-0.14704002
195	0xbe4fc76f	-0.20290922
196	0xbe9139ec	-0.28364503
197	0xbd6bdc0f	-0.05758291
198	0x3d4f2a51	0.050577465
199	0xbd89418d	-0.06701956
200	0x3d7413b9	0.05958912
201	0x3db2757e	0.08713816
202	0xbc8fcf06	-0.017554771
203	0xbe130178	-0.14356029
204	0x3e5f6766	0.21816787
205	0xbba2394e	-0.004950679
206	0xbd54cb2a	-0.051951565
207	0xbe940cd6	-0.28916043
208	0xbda3dd1d	-0.080011584
209	0xbe2e71bf	-0.17035578
210	0x3d66d1e1	0.0563525
211	0xbe517507	-0.20454799
212	0xbd8fefb0	-0.07028139
213	0x3d39fce7	0.045407202
214	0x3e907b7e	0.28219217
215	0x3cc2f838	0.0238
216	0x3c8497ab	0.016185602
217	0xbd1b97ff	-0.03798675
218	0xbe0bb027	-0.13641416
219	0xbda45566	-0.08024101
220	0x3d580a88	0.05274442
221	0xbd663e81	-0.056211952
222	0xbe1bf972	-0.15231875
223	0x3dab465c	0.08363029
224	0xbe6d5a59	-0.23178996
225	0x3d8ce785	0.06880096
226	0x3c3f2125	0.011665617
227	0x3db43998	0.08800048
228	0xbe6616e2	-0.22469667
229	0xbe3b6798	-0.18301237
230	0xbdae1dad	-0.08501754
231	0xbe015391	-0.12629534
232	0xbd8a98ac	-0.06767401
233	0xbe712164	-0.23547894
234	0xbec3eaf9	-0.38265207
235	0x3ddf832b	0.1091369
236	0xbe25cf67	-0.16192399
237	0xbb9b8d67	-0.004747081
238	0x3d153914	0.036431387
239	0xbdfa27ca	-0.122146204
240	0xbe8505b2	-0.25980908
241	0xbe2ef7f7	-0.17086779
242	0xbd9238af	-0.07139718
243	0xbe1425b7	-0.14467512
244	0xbe5eb515	-0.21748765
245	0xbe4a4757	-0.19753776
246	0xbdfc06b9	-0.1230597
247	0x3cacb4c7	0.021082295
248	0xbdce08a1	-0.100602396
249	0xbdfa9050	-0.12234557
250	0xbd4954fe	-0.04915332
251	0xbd0a736b	-0.033801477
252	0x3ce905d9	0.028445171
253	0xbd7da08e	-0.061920695
254	0xbd17806b	-0.036987703
255	0xbe1947d6	-0.1496881

critic.2.bias f4 [64]
0	0x3e8863fa	0.26638776
1	0xbd5d7ebd	-0.054075945
2	0x3da2665d	0.079296805
3	0x3e4d23aa	0.20033136
4	0xbdc1533b	-0.09439703
5	0x3d8acd7f	0.067774765
6	0x3da4be98	0.080441654
7	0xbdce5388	-0.10074526
8	0x3e149da6	0.14513263
9	0xbc65ddb3	-0.014029908
10	0x3e01c92d	0.12674399
11	0xbe88cccd	-0.2671875
12	0xbe3e5f7b	-0.1859111
13	0x3dc998fe	0.09843634
14	0x3d2ee518	0.04269895
15	0x3d0f9571	0.035054628
16	0x3e1d0d2a	0.15337053
17	0x3d94b3ec	0.0726088
18	0x3cd13a13	0.025540387
19	0x3d2bcbab	0.04194228
20	0x3bb96887	0.0056582126
21	0x3d09658f	0.03354412
22	0xbe202f6c	-0.1564309
23	0x3e2fe363	0.17176585
24	0xbd46b533	-0.04851265
25	0xbace74d5	-0.0015751371
26	0xbf18a611	-0.596284
27	0xbc694868	-0.014238454
28	0xbd2a1946	-0.04152801
29	0xbe851609	-0.25993374
30	0x3e68c7bc	0.22732443
31	0x3e059afa	0.130474
32	0x3dbed9ef	0.09318911
33	0xbe4e5fd4	-0.20153743
34	0x3da80dd5	0.08205763
35	0xbda9280e	-0.08259593
36	0xbe1b0216	-0.15137514
37	0x3e2fdbc0	0.17173672
38	0xbdc38a74	-0.09547892
39	0x3b9c8e70	0.004777722
40	0xbe432864	-0.19058377
41	0x3d22f6ec	0.039786264
42	0xbe5ba2ec	-0.21448869
43	0xbd9813a3	-0.074256204
44	0x3ea59254	0.32338202
45	0xbe26155d	-0.16219087
46	0x3d9b491d	0.075823046
47	0x3da6fb38	0.08153385
48	0xbe557024	-0.2084356
49	0x3ced241d	0.028947884
50	0xbc8cd6cf	-0.017192272
51	0xbe4ef4a2	-0.20210508
52	0x3d41c1f9	0.047304127
53	0x3e0960b9	0.13415803
54	0xbe41b206	-0.18915567
55	0xbd8b6ddc	-0.068080634
56	0x3dcbf4fd	0.09958837
57	0xbd5da738	-0.05411455
58	0x3e3814d4	0.17976695
59	0x3c87422b	0.016511044
60	0x3d195ca1	0.037441853
61	0xbdee9f30	-0.11651456
62	0x3e75e3a7	0.24012624
63	0x3dfe73ac	0.124244064

critic.4.weight f4 [1, 64]
0	0xbe991c7f	-0.29904553
1	0x3e6bbc92	0.23021153
2	0x3efd8967	0.49518892
3	0xbf8290aa	-1.0200398
4	0xbdaa3099	-0.083100505
5	0x3e4fb1cf	0.20282672
6	0xbe8b6d68	-0.27231908
7	0x3da3d058	0.07998723
8	0xbf8617e1	-1.0476037
9	0x3e1e17e8	0.15438807
10	0xbe88d2bc	-0.26723278
11	0x3eab31ce	0.33436435
12	0x3d5c8246	0.053835176
13	0xbf11d6b6	-0.5696825
14	0xbe79726d	-0.24360056
15	0x3e6a81f4	0.22901136
16	0xbf3c26bb	-0.734966
17	0xb9ca578b	-0.00038593667
18	0x3dddc9e1	0.10829521
19	0xbe999351	-0.29995206
20	0xbeeff216	-0.46864384
21	0xbdce8a1c	-0.10084936
22	0x3e55b7d1	0.20870902
23	0xbf80cfaf	-1.006338
24	0x3e534af0	0.20634055
25	0xbe4159fd	-0.18881984
26	0x3f20c73e	0.6280402
27	0x3e60240d	0.21888752
28	0x3ef29493	0.47378978
29	0x3ef6fa73	0.48237953
30	0xbf69289b	-0.91077584
31	0xbf6724a4	-0.90290284
32	0xbf87b504	-1.0602117
33	0x3f072786	0.5279468
34	0x3ed4bf72	0.4155231
35	0x3db32ad6	0.08748405
36	0xbe88c7cf	-0.26714942
37	0xbf8c78c2	-1.0974352
38	0x3e5da37e	0.21644399
39	0x3f024f98	0.509027
40	0x3f4706e0	0.77744865
41	0xbeaa257e	-0.3323173
42	0x3e844b25	0.2583858
43	0xbf095e0f	-0.5365915
44	0xbf7ed407	-0.9954228
45	0xbe70e060	-0.23523092
46	0x3f57156f	0.8401708
47	0xbe1174a3	-0.1420465
48	0xbe435161	-0.19074012
49	0xbe5cd2e2	-0.2156482
50	0x3e96d608	0.29460168
51	0xbf147560	-0.579916
52	0x3ec8603a	0.39135915
53	0xbf89656a	-1.0734074
54	0x3ea4f14d	0.32215348
55	0xbf2be756	-0.67149866
56	0xbf25f831	-0.64831835
57	0x3e9101ab	0.28321585
58	0xbf25a9f2	-0.6471244
59	0x3edf9afe	0.43672937
60	0x3eb103a1	0.3457308
61	0xbf7ee09c	-0.99561477
62	0xbf29dfa8	-0.663569
63	0xbea91ecc	-0.3303131
