PPO_preTrained/add retent_rate/PPO_add retent_rate_0_1000.pth (torch, 110785 bytes, 11 tensors)

actor.0.weight f4 [128, 35]
000000 bd 27 03 3c 07 36 03 be ec f0 b4 bd b5 40 e3 3c
       0.00800508 -0.12813579 -0.08835015 0.027740816
000010 b8 63 a9 3d 8d c6 7b 3c af 53 91 3d e9 60 15 bd
       0.08270973 0.015367162 0.070960395 -0.036469374
000020 38 53 03 be a7 39 ec bd 3e 56 a9 3f bf b2 50 be
       -0.12824714 -0.11534434 1.3229444 -0.20380686
000030 49 37 9d be 65 5b 3d bf 38 c9 e5 3e 94 d8 c5 3e
       -0.30706242 -0.7396758 0.4488008 0.38641798
000040 0a c0 b2 bd 26 88 cf 3d 61 04 a0 3d 97 96 85 3e
       -0.08728035 0.1013339 0.07813335 0.26091453
000050 0c 9d f0 bd 1b c1 8a bd a2 7d b7 3a 52 6d 16 3d
       -0.11748704 -0.06775113 0.0013999233 0.03672535
000060 ad e3 8e 3d 79 c1 f7 3d 6d 9d a0 3d 86 ff 9c bc
       0.069770195 0.12097449 0.078425266 -0.019164812
000070 bd 4b 85 bb bb 8d 0d 3e a8 4a a7 bd 5f aa 13 bc
       -0.0040678666 0.13823597 -0.081685364 -0.009012788
000080 81 fd 97 be 17 c3 f9 bd 25 2b 7f bd ec 4f 3d 3e
       -0.29685596 -0.121954136 -0.062297005 0.18487519
000090 0e 8b 10 3e d1 7e ea ba 77 68 8f 3d 61 3c 96 3d
       0.14115545 -0.0017890577 0.07002347 0.07335735
0000a0 54 3e 28 bd c1 b9 9f 3d 77 3a e0 bd d0 57 ef 3d
       -0.041075066 0.077991016 -0.10948651 0.11686671
0000b0 d4 6c 06 3e 8b 45 73 3f dc 99 77 be c4 24 d1 3d
       0.13127452 0.9502799 -0.24179786 0.102120906
0000c0 39 35 c5 3d 5e 32 0b 3f 94 22 ec bd cf aa c6 bd
       0.09629292 0.5437373 -0.11530033 -0.09700548
0000d0 c9 2a 72 be ff cc b2 bd f3 1d 7c 3c d9 94 c2 be
       -0.23649134 -0.08730506 0.015388 -0.38004187
0000e0 80 72 fb bd 79 96 f3 3c dc c0 87 3d c7 31 8d 3d
       -0.122776985 0.029734837 0.06628582 0.0689426
0000f0 64 6d 33 3e 36 16 1a 3d 2b 5f bd 3d b5 63 9e 3d
       0.17522198 0.03761884 0.092466675 0.07733861
000100 10 63 aa 3c b9 86 43 be 4a 9e 33 3e c0 59 ca 3c
       0.02079919 -0.19094361 0.17540851 0.024701
000110 9d 0a b2 3d 63 00 88 3e 1c 8f 1d bc f7 1b 24 3d
       0.086934306 0.26562795 -0.009616639 0.04006573
000120 a8 59 00 3d 8f c2 3a bc 15 b1 58 bb 6f 42 ef 3d
       0.031335503 -0.011398925 -0.0033064533 0.11682593
000130 4a e0 2b 3e 3b 5a a5 bc b9 f6 28 3e 86 b0 37 bd
       0.16784778 -0.020184627 0.16500367 -0.04484608
000140 53 ff 8c 3f 49 03 b4 3d 8d b2 74 be 3b 02 2b bf
       1.1015419 0.08789689 -0.23896237 -0.6680028
000150 66 a8 c3 3e 4c 1b e1 be 20 9b 47 3e b7 93 16 bc
       0.38214415 -0.43966138 0.19492769 -0.009190491
000160 f3 48 27 3d 60 f4 73 3e a1 79 98 be 97 f0 28 3e
       0.040841054 0.2382369 -0.29780295 0.16498028
000170 38 8b 6c bc 9f 60 18 bc 88 3f 6f 3e 18 53 b0 bd
       -0.014437489 -0.00930038 0.23364079 -0.08609599
000180 38 b2 68 bc ec ed 23 3e 77 b7 ad bc 17 3e f7 3c
       -0.014202647 0.16008729 -0.021205647 0.030180974
000190 f2 9a 77 be af da 39 be 83 9d ab 3d 50 99 17 3e
       -0.241802 -0.18149827 0.08379652 0.14804578
0001a0 27 c3 1f bd 18 32 9f bd a2 49 88 3d 50 2b 9e bb
       -0.03900447 -0.077732265 0.06654669 -0.0048269406
0001b0 48 9f f3 bd 54 14 a5 bd 9f 2d 1b 3e b0 e2 70 3d
       -0.11895615 -0.08060518 0.15154122 0.058809936
0001c0 70 55 04 3e 70 5c a9 bd 4e 6b 91 3e 40 7d 62 bf
       0.12923217 -0.08269584 0.2840218 -0.88472366
0001d0 24 81 f9 3e 99 98 e8 3e 10 50 9f 3f 2c 5a 2c c0
       0.4873134 0.45428923 1.2446308 -2.6930037
0001e0 08 03 1d 3e 8b ec 92 3d d7 ad 6e bd e5 47 88 3d
       0.15333188 0.07174023 -0.058271255 0.06654338
0001f0 55 07 09 3f 13 06 8d 3e 4c 53 ad 3d 37 fe 16 3e
       0.5352681 0.27543697 0.08463153 0.14745413
000200 81 79 f4 bc f1 64 cb bd a3 f6 8e 3c 26 87 b2 3d
       -0.029843094 -0.099313624 0.01745159 0.08717184
000210 5b 46 a5 3d 5d 0f 50 3e c0 11 a5 3c 84 aa 71 bf
       0.0807006 0.2031836 0.020150065 -0.9440081
000220 3d c6 2a 3e 03 df df 3c 80 db d1 bb b5 05 ad 3e
       0.16677184 0.02732802 -0.0064043403 0.33793417
000230 ec 33 bd 3c 12 ea 0b bc a9 57 81 3d 4b de 7a bc
       0.023096047 -0.008539693 0.06315548 -0.015311788
000240 05 18 0c 3e bc f9 4d bd 4f 15 dc bc e5 b6 ee 3d
       0.13681038 -0.050286993 -0.02686563 0.11655978
000250 2b 1f d3 3d f2 a0 c6 3d 30 66 35 3f 7a 22 da 3e
       0.10308679 0.09698667 0.7085905 0.4260443
000260 a3 4a 73 be 41 f6 9d 3e d1 a6 23 3f 22 ad 28 3f
       -0.2375894 0.3085194 0.63926417 0.6588918
000270 ab 1b 3f be 86 fc c6 bc e4 29 25 be 7f 66 e7 bd
       -0.18662898 -0.024290334 -0.16129261 -0.112988465
000280 4f fc 3c be 08 81 80 bb 21 4e b6 ba c0 85 a5 3d
       -0.18455623 -0.0039216317 -0.0013908782 0.080821514
000290 35 11 07 bc c4 39 8a be 1d 53 60 3d 0e ad 31 3d
       -0.008243849 -0.26997197 0.054766763 0.04337793
0002a0 30 92 ed 3d e6 d2 9c bd 81 48 91 bc 9d 0b ea 3c
       0.11600149 -0.07657413 -0.017734768 0.02856999
0002b0 d0 4b 1e 3d 4d 5b 2f 3d cf 7c 59 3e 68 b8 c3 3d
       0.03864652 0.04281168 0.21239017 0.09556657
0002c0 0c ca ef bc a8 2f 22 3e b3 85 cb 3d 61 85 47 3e
       -0.029271148 0.15838492 0.099376105 0.19484474
0002d0 b6 6a 7c bc cf 97 9f 3c e6 6f af ba 90 2b 04 bc
       -0.015406301 0.019481568 -0.0013384789 -0.008067027
0002e0 3f 80 50 3e 12 16 17 bf ea 1a 1d 3f 5e 4b 00 be
       0.20361422 -0.5901805 0.6136919 -0.1252875
0002f0 a2 1d 38 3d 17 bb cc bf c3 ae 05 3f 76 3c 85 bd
       0.044950135 -1.5994595 0.5221979 -0.06505673
000300 c8 d2 43 3e 68 84 e0 ba d5 c5 80 3e 5b 9d 79 bd
       0.19123375 -0.0017129304 0.25150934 -0.06094108
000310 c9 9c c8 3a b4 1a 9e bc 80 66 c2 3d 7c 0a 2d 3d
       0.0015305515 -0.019299842 0.094922066 0.042246327
000320 1f 21 0f 3e 6b b3 2d bd a1 cc a6 3d 17 2c 42 3e
       0.13977478 -0.042407434 0.081444986 0.18962131
000330 62 bb 40 bd 17 c1 47 3e a1 b8 fd bc 8e 96 6a be
       -0.047053702 0.19507252 -0.030971827 -0.22908995
000340 82 e3 42 be 8c 23 16 be 3c de cb 3d 0d 20 05 be
       -0.190321 -0.14661998 0.09954497 -0.13000508
000350 22 a2 db bd 05 ca 1c 3e 1c d3 eb bb 65 03 98 3d
       -0.10724284 0.1531144 -0.007196797 0.074225225
000360 04 71 2c 3e ae 41 e7 bd 3d 47 ee 3c 80 58 41 3d
       0.16839987 -0.11291824 0.029086703 0.04720354
000370 88 54 ed be 48 bb 4e 3d 57 d5 3b be b9 a9 a3 3e
       -0.46353555 0.050471574 -0.18343101 0.31965426
000380 12 60 3c bf 46 86 1e 3f 24 15 28 bd 40 b0 e2 bb
       -0.7358409 0.61923635 -0.041035786 -0.0069179833
000390 37 bf 30 bd f3 1a 3b 3a 7d c1 b1 bc 6b 88 ef bd
       -0.043151107 0.00071374996 -0.021698708 -0.116959415
0003a0 9d 91 5e bd e5 b9 9f 3d 7a 22 d2 3d 65 bb a0 3d
       -0.054338086 0.077991284 0.10260482 0.07848243
0003b0 7a 09 8e 3d 9e 0c 02 be 7d e6 b6 3d 68 68 5a be
       0.06935401 -0.12700126 0.08930681 -0.2132889
0003c0 5a 35 e1 3d 61 c8 15 bc 5d cd 01 be 69 52 0d bd
       0.10996504 -0.009142012 -0.12675996 -0.03450242
0003d0 bd 9a 4c be 51 1a b0 bd 6a 37 c7 3d 45 0d a8 3c
       -0.19980903 -0.085987695 0.09727366 0.02051414
0003e0 8b 25 71 3e 36 01 7c 3d 42 39 1b 3e 49 50 04 3d
       0.23549478 0.061524592 0.15158561 0.03230313
0003f0 9e c4 c9 bc 8c 94 f9 3d 34 76 58 bc c7 13 b6 3e
       -0.024629887 0.12186536 -0.013211776 0.35561964

actor.0.bias f4 [128]
000000 64 b3 85 3e 08 32 84 3d d2 bd b5 3e ce f5 a3 3d
       0.26113427 0.06454855 0.35496384 0.08005868
000010 54 90 14 bd 71 bd 99 3d 90 d0 7a be 70 fa c6 bd
       -0.036270455 0.07506836 -0.24493623 -0.09715736
000020 fb 59 dc 3e 05 34 08 bd 2c b9 af 3e 8b e8 08 be
       0.430374 -0.033252735 0.34320962 -0.13369958
000030 cb 10 d3 3e f9 26 93 3e 3d 43 10 bd 92 d7 31 3e
       0.4122375 0.2874067 -0.035220373 0.1736739
000040 63 36 9e bc dd 4e 8c 3e 05 62 a1 3d 70 86 bf bd
       -0.019313043 0.27403918 0.07880024 -0.09351814
000050 0b e4 01 3d b7 e8 14 bd b4 28 4b be 97 fc b1 3b
       0.03171162 -0.036354747 -0.19839746 0.0054317224
000060 cf 02 95 3e 92 1a eb 3e 6c c3 4a 3b 0a 67 c2 3c
       0.29103705 0.4591871 0.0030939234 0.023730773
000070 14 ce 58 3e 33 2a d6 3d 39 da 0c bd 0e 00 c6 3e
       0.21172363 0.104572676 -0.0343878 0.38671917
000080 9d f4 6d 3e 61 ed 84 3c c5 0c 9c 3d 51 3f ea 3d
       0.23237844 0.016226472 0.07619623 0.11437858
000090 92 c7 e7 bd 79 72 a4 3d 64 b9 f4 3e 96 41 ad 3e
       -0.11317362 0.080296464 0.47797692 0.338391
0000a0 c5 2f 4e 3d 79 cb 38 bd 52 4d c6 3e 07 72 3b 3e
       0.050338525 -0.04511592 0.38730866 0.18305217
0000b0 f8 a1 69 3e 15 c1 5e 3e 78 6b ac bd 3f 2d 7b be
       0.22815692 0.21753342 -0.084189355 -0.24528979
0000c0 a5 93 df 3d be 51 fb 3d f2 2e aa 3e a8 e9 01 bc
       0.10916833 0.122714505 0.3323894 -0.007929243
0000d0 8d d1 45 bd 35 a4 de 3e 03 2d 6b 3c 2e cf 57 be
       -0.048295546 0.43484655 0.014353993 -0.21075127
0000e0 db 5e 4a bd 27 88 fd bc 9f 53 40 bd 84 62 ae 3d
       -0.049406867 -0.030948712 -0.046954747 0.08514884
0000f0 30 3a bc bb 1f 2a 81 3d 34 26 57 be ca 76 60 be
       -0.005744241 0.06306862 -0.21010667 -0.21920314
000100 db 85 5b 3e 87 2b 25 3e 64 57 94 3e 4d 16 45 3e
       0.2143778 0.16129886 0.28972924 0.19246788
000110 a0 43 8d 3e a5 84 3b 3e 23 e4 85 3e 8c 70 b7 3e
       0.27590656 0.18312319 0.26150617 0.35828054
000120 70 64 4c 3e 69 a9 f2 bd 54 70 ad 3e cb 6c a4 3e
       0.19960189 -0.11848719 0.33874762 0.32114252
000130 91 4e f6 bd 38 ee 82 3d 21 a5 99 bd e0 94 28 be
       -0.12026704 0.06393093 -0.07502199 -0.16463041
000140 3b a7 a8 bd 0b a5 9f 3d 38 47 36 be d0 c6 89 3e
       -0.08235022 0.07795151 -0.17800605 0.26909494
000150 17 33 36 3d 70 34 29 3d 95 b8 e8 3d de 04 87 3e
       0.044482317 0.041309774 0.11363331 0.263709
000160 f1 29 d1 bd 21 46 fe bd 7c 1b c2 3e 88 98 14 be
       -0.10213078 -0.1241572 0.37911594 -0.14511311
000170 9e 24 b6 3d a0 75 b0 be 3c b9 59 be b3 9e 83 3e
       0.08893703 -0.3446474 -0.21262068 0.25707015
000180 12 87 d4 bd 35 4a 15 bd 75 a4 26 3e d0 94 40 bd
       -0.10377325 -0.036447722 0.16273673 -0.04701692
000190 90 e6 c5 3c 16 46 2b be fb 68 f6 3c 91 26 23 3d
       0.024157792 -0.16725954 0.030079355 0.0398317
0001a0 7a 48 ac 3d a7 fa 0b 3d 3d 12 27 be 7c 0c 60 3e
       0.08412261 0.034174588 -0.16315551 0.21879762
0001b0 02 8b 39 bd 11 94 5b 3d 8c dc fe 3d 6a d8 ba bd
       -0.045298584 0.053608004 0.1244441 -0.09123309
0001c0 3a 17 2b 3e 9d 13 a5 be 2f a1 a3 3e 35 46 2a 3e
       0.16708079 -0.32241526 0.3195891 0.16628344
0001d0 72 1b 88 be f7 22 9c bd 1f 70 e3 bd a6 b6 5d be
       -0.2658344 -0.076238565 -0.1110537 -0.21651706
0001e0 bf af ec 3d 54 72 4a be 84 45 e1 3d a8 1c 8e 3d
       0.115569584 -0.19770175 0.10999587 0.069390595
0001f0 f0 32 b5 3e a3 13 c4 3d dd 8e 7a bd d7 00 06 3e
       0.35390425 0.09574058 -0.0611714 0.13086258

actor.2.weight f4 [64, 128]
000000 60 63 b2 bd 6a 09 b8 bd 9d 1c c9 be 7c 90 1b 3e
       -0.087103605 -0.089861706 -0.39279643 0.15191835
000010 77 1b a9 3d e8 18 42 3e 2c 65 15 3e 6e 4c ba 3c
       0.08257192 0.18954813 0.14589375 0.022741523
000020 18 a4 c4 bd 42 a8 26 be 34 c6 53 3e 5d cb 41 bd
       -0.09601611 -0.16275123 0.20681077 -0.047313083
000030 0d 51 f1 3d ce fa 43 3c 05 67 ba be 26 3b 34 3e
       0.11783037 0.011961652 -0.36406723 0.17600688
000040 46 68 f2 bd 6d d2 aa 3d f2 a4 f4 3d cc b3 52 be
       -0.11836295 0.08340917 0.11945523 -0.205764
000050 35 d9 8a 3d 31 10 1a be cc 12 ab 3d 65 24 ff bd
       0.0677971 -0.15045239 0.083531946 -0.124581136
000060 73 87 6a bd 75 f6 cd 3d 01 f7 62 be df a2 17 3e
       -0.05725808 0.100567736 -0.22164537 0.14808224
000070 04 68 d5 bd 9a b4 f9 3c b1 3c 4e be a2 34 89 3d
       -0.1042023 0.030481625 -0.2014034 0.06699492
000080 bd b7 2e 3e 25 a1 1c 3c ed b1 3e 3e 17 d9 61 3d
       0.17062278 0.009559904 0.18622561 0.055138674
000090 88 81 34 bc 0e 5c d6 3d a8 c8 13 bd a9 d6 10 bc
       -0.011017211 0.10466777 -0.036080033 -0.0088402415
0000a0 c3 11 f9 bd b8 a3 2c bd 0e 6d c9 bd 1f 18 0c 3c
       -0.12161591 -0.042148322 -0.09835254 0.008550673
0000b0 3b 85 f7 ba 25 b3 12 3d d0 97 2e 3d fb 1b 4e bd
       -0.001888431 0.035815377 0.04262525 -0.050319653
0000c0 30 4d b8 bd 27 a9 c1 bd 05 11 f3 39 02 ec 46 bd
       -0.08999097 -0.094560914 0.00046361252 -0.04856492
0000d0 56 6a 7f 3d 5e 87 c4 bd 1f 9a 06 bd c4 1b 46 3e
       0.06235727 -0.09596132 -0.032861825 0.19346529
0000e0 85 9f f4 bd 37 e6 48 3e 23 a3 1f bc a9 2f 91 3b
       -0.119444884 0.1961907 -0.009743485 0.0044307304
0000f0 35 bf c8 bd 54 8b 36 bd 92 1c 37 3e 4b c3 60 3e
       -0.09802095 -0.044566467 0.17881992 0.21949498
000100 10 fe 28 be bb 85 00 be ab a2 4a be 49 a4 02 3d
       -0.16503167 -0.12551014 -0.19788615 0.031894956
000110 69 3f 8d 3d 58 32 fb 3c d1 ac 34 be 54 61 49 be
       0.0689686 0.030663654 -0.17644049 -0.19666034
000120 81 28 01 be 04 6e 11 3e 31 33 83 be be 81 2b bd
       -0.12613107 0.14202124 -0.25624993 -0.04187178
000130 20 7e 88 3d 8a c1 0b 3d d2 09 82 bd 00 f6 cd 3d
       0.066646814 0.03412012 -0.06349529 0.100566864
000140 66 2f 1a be cd 2f ae 3c 25 5b 0a 3e 07 06 7c bd
       -0.15057144 0.021263028 0.13511331 -0.061529186
000150 71 96 fa bd 88 5b 19 bd 90 26 61 3c fb b9 c0 bd
       -0.12235726 -0.037440807 0.013742104 -0.09410473
000160 87 9d bd 3d 48 42 17 bd 8e d9 c2 be f8 dc 9e 3c
       0.092585616 -0.036928445 -0.38056606 0.019392475
000170 42 9f cb 3a cf 30 28 3e f1 e3 23 3e 74 a7 36 bd
       0.0015535133 0.16424869 0.16004921 -0.04459329
000180 98 aa c5 3d 1a 1e 8d 3d ce 3b 17 bd 57 83 06 bd
       0.09651679 0.06890507 -0.03692227 -0.0328401
000190 dd 45 ed 3d 73 e3 58 3e ff 5b d4 3c a1 b7 7b bd
       0.11585591 0.21180515 0.025922773 -0.06145442
0001a0 70 8c 16 be 84 c0 9c 3d 93 53 0f bc 19 c2 79 3d
       -0.1470201 0.07653907 -0.008747953 0.06097612
0001b0 c8 fd d7 3d b6 1d 43 3d 31 53 a6 3d c1 59 2b 3e
       0.10546452 0.047635756 0.08121336 0.16733457
0001c0 35 1d 51 3d ed ac a0 3d 0a 06 16 3e 90 94 ab bd
       0.051053245 0.07845483 0.14650741 -0.083779454
0001d0 cc 7b b8 3d 75 1d be 3d c0 58 cd 3c ad 29 45 3e
       0.090079874 0.09282962 0.025066733 0.1925418
0001e0 10 90 34 3d e1 65 a9 3b 86 e5 4a bd ae fd 93 bc
       0.0440827 0.0051696156 -0.049535297 -0.0180653
0001f0 27 b9 00 3e 45 7f 01 be e6 c0 75 3d 59 ec 55 bd
       0.1257063 -0.12646206 0.059998415 -0.05222735
000200 a1 e5 48 3c ac dc aa bd 67 47 af 3e 02 55 19 3c
       0.012261779 -0.08342871 0.34234163 0.009358646
000210 fc ee e7 bd d4 1b bc bc 54 14 39 bd b5 e7 24 be
       -0.113248795 -0.022962488 -0.045185402 -0.16104014
000220 b7 0e 18 3e bb 92 0b be c4 4d d7 3d 73 7d 12 bc
       0.14849363 -0.13630192 0.105128795 -0.008941042
000230 e1 92 0a 3e 43 34 5a 3e 68 0c 98 3e a5 23 6f 3d
       0.13532592 0.21308999 0.29696965 0.058383603
000240 a8 bf 44 bd 42 b4 a7 3d 89 9b cc 3d 8d 47 b2 bd
       -0.04803434 0.08188678 0.099906035 -0.087050535
000250 1f 5d 8a bd 03 c9 31 bd 81 43 bc 3d df 10 24 bd
       -0.06756043 -0.04340459 0.09192563 -0.040055152
000260 40 7b 8a bc 6f b6 f6 3d a2 98 35 be e3 a9 da 3c
       -0.016904473 0.12046515 -0.17734006 0.026692336
000270 5c 60 33 3e d5 6a a9 ba cd a8 52 be 3d 75 af 3b
       0.17517227 -0.0012925515 -0.20572205 0.005354552
000280 4c 31 3c 3d a9 26 4f 3c 53 37 6b bd cd ca b6 3c
       0.04594545 0.012643495 -0.05742581 0.0223135
000290 cc 00 b7 bc 77 c7 c5 3d 1e 0f e2 3d a4 88 ed 3d
       -0.022339247 0.096571855 0.110380396 0.11598328
0002a0 91 d9 e3 bc 29 8f 51 bd 4a dd 0c be 0e a5 4f 3e
       -0.027813705 -0.05116192 -0.1375629 0.20277807
0002b0 e8 32 c2 bd 09 75 dd 3d 59 ed af 3d c2 91 ac bd
       -0.09482366 0.10813338 0.08590192 -0.084262386
0002c0 a4 91 b8 3c a6 61 97 3e 12 17 00 3e 48 f5 3e 3e
       0.022530384 0.29566687 0.125088 0.18648255
0002d0 7d b4 85 bd c9 ba 2f 3e 89 b9 83 bc e0 2c 0a 3d
       -0.06528566 0.17161097 -0.016079681 0.033734202
0002e0 d2 d6 24 be 0a 95 f1 bc a1 a0 09 3e 21 ca b3 bd
       -0.16097572 -0.029490013 0.13440181 -0.087787874
0002f0 eb 04 2f bd fb 61 8f 3c 4e 4f f4 3b 41 d6 bf 3c
       -0.0427293 0.017502775 0.007455743 0.023417594
000300 02 69 0a bb d7 f3 2a 3e 01 97 98 3e 01 a8 79 bd
       -0.0021119718 0.1669458 0.29802707 -0.060951237
000310 c5 63 aa 3e a4 86 90 3d f6 08 95 3e f6 73 3c 3d
       0.33279243 0.07056931 0.291084 0.046009026
000320 18 88 81 bd 34 bd b4 bd 06 e3 96 3e cb b6 ef 3d
       -0.06324786 -0.0882515 0.2947008 0.11704787
000330 de ba a4 bd 07 82 ec bd b3 c4 ae bd ee 3d 2e be
       -0.080434546 -0.11548238 -0.08533611 -0.17015812
000340 52 a4 00 3c f7 e0 7e 3e da a1 8c 3d ab 33 44 bd
       0.007851677 0.24890505 0.06866808 -0.047900837
000350 e9 b4 49 be 6f 1a c9 bc 54 a8 16 bc 30 7e 7b 3e
       -0.19697918 -0.024548737 -0.009195406 0.24559855
000360 ac 59 af 3c 50 8a 2f bd 5b 79 e0 3e b9 ab 70 bd
       0.021405064 -0.042856514 0.43842587 -0.058757517
000370 2d 7c 09 3d 2a c6 5b bd be bf 47 bd c6 fd 54 3e
       0.03356569 -0.05365578 -0.048766844 0.20799932
000380 95 7e 13 3d b1 bb f2 3c 5c da a7 3c 6a 5f 37 bd
       0.03600939 0.029630514 0.020489864 -0.04476873
000390 03 a4 9c bd b2 5c 86 3d 99 cf 4b 3e d2 b8 1a 3e
       -0.0764847 0.06560649 0.19903411 0.15109566
0003a0 b9 49 21 3e 10 82 05 bd 1e 6e 5d bc 9b 33 b1 bd
       0.15750779 -0.03259474 -0.0135150235 -0.08652421
0003b0 94 99 c6 bd 34 83 1a 3e 82 a5 a0 3d 9a 94 91 3c
       -0.096972615 0.15089113 0.07844068 0.017771054
0003c0 a5 32 93 3c f3 04 5c be aa 4a 86 bc d7 b5 e0 3d
       0.017968485 -0.21486263 -0.016393024 0.10972183
0003d0 fe 3f 10 be 4f 7c bd bc de f8 e1 bd 82 23 b9 bd
       -0.14086911 -0.023130564 -0.11033796 -0.09039976
0003e0 5b 8a a3 bc 9e 76 06 be f7 bb af 3d ca 98 86 be
       -0.019963434 -0.13131186 0.08580773 -0.26288444
0003f0 0d ea 30 3e ab 38 26 3e 4d 7b 38 bc 61 d4 96 bd
       0.17276783 0.16232555 -0.011259866 -0.07364727

actor.2.bias f4 [64]
000000 80 ab d2 bd cd 60 30 3e 1d 86 45 be e1 71 0b 3e
       -0.10286617 0.17224427 -0.19289441 0.1361766
000010 a8 fb db bb 5e f3 03 3e 25 77 01 3e 62 3d 51 3e
       -0.0067133494 0.12885806 0.12643106 0.20433572
000020 95 e2 33 3e 93 0c 49 bd 70 92 84 bd 9d 3d 6c bd
       0.17566903 -0.049084257 -0.06473243 -0.057675947
000030 f2 e0 52 bc 25 7c 65 be 1c 0f 0d 3e 1d 4f b0 bd
       -0.012871014 -0.22410639 0.13775295 -0.0860884
000040 91 d4 ec bd cb 77 94 bd e7 ad d6 3d 09 6c 54 be
       -0.11563981 -0.07249411 0.10482388 -0.20744337
000050 4c 1d 7d 3e 29 bc 35 3d 18 21 77 bd 73 86 58 bd
       0.24718207 0.044368897 -0.060334295 -0.052862596
000060 63 ee f6 3d 4c 07 ac bd 86 dd 80 3d 4a 1c 7b 3e
       0.120571874 -0.08399829 0.06292252 0.2452251
000070 c2 eb 74 3e a6 3a 86 3c 6b c1 d7 3d 4b e7 89 3d
       0.2391806 0.016385388 0.105349384 0.06733569
000080 52 9e e2 bb 91 12 42 bd 2f 26 5d be 25 f3 13 3e
       -0.006915846 -0.047380988 -0.21596597 0.14448221
000090 bd 7f b4 3c 2f 1c a5 3e 04 cf 0f bd 28 b3 5b 3e
       0.022033567 0.32248065 -0.035109535 0.21455061
0000a0 35 9e 2c 3d 9e ca 25 3e f1 5a 24 be df 80 60 3e
       0.042143065 0.16190574 -0.16050316 0.2192416
0000b0 7e 9a 55 bd 85 aa 0d 3e 7d 90 8b 3a b3 b9 09 3b
       -0.05214929 0.1383458 0.0010647919 0.0021015226
0000c0 f3 32 85 3e 78 fd a9 bd 55 a9 c9 3d d8 5d c1 bd
       0.26015434 -0.083002985 0.09846751 -0.094417274
0000d0 e5 a8 0d 3e 78 1f 93 bd b6 f3 9d bc 95 1d af 3b
       0.1383396 -0.071837366 -0.01928125 0.0053441026
0000e0 77 35 4b bd e0 d0 96 3e 20 3a 41 bd 25 fd 48 3e
       -0.049611535 0.29456234 -0.047174573 0.19627817
0000f0 ca 60 1d 3e 60 45 6b bc 9b 6b af bd cc 42 1b 3e
       0.15368953 -0.014359802 -0.08565446 0.151622

actor.4.weight f4 [16, 64]
000000 f4 1d 3e be 4e b0 9e 3d df 62 c6 3c d0 6b 33 be
       -0.18566114 0.07748471 0.024217067 -0.17521596
000010 3e 0c 37 be 57 e5 70 3e da 8c 74 3d 8e 2f 97 3a
       -0.17875764 0.23524986 0.05970464 0.0011534558
000020 f1 5b e7 bd f8 4a b8 be 7e 41 11 bf b9 13 9e bd
       -0.11296833 -0.35994697 -0.5674056 -0.077186055
000030 4d 26 ad be 3e ce 32 be a1 20 39 be ff 66 01 bf
       -0.33818284 -0.17461488 -0.18078853 -0.50547785
000040 62 2a 27 3f 61 d1 fb 3c 96 b3 c1 bd f2 bd a0 bc
       0.65299046 0.030739488 -0.094580814 -0.019621823
000050 11 0b cd bd 0e 79 23 3f 60 14 10 be 37 63 b6 3e
       -0.100118764 0.6385659 -0.14070272 0.3562257
000060 12 e2 30 3e 2e 50 23 bf bd a5 3f 3e 17 48 47 3e
       0.17273739 -0.6379422 0.18715568 0.19461094
000070 d0 34 65 3e 9a 6a 7c 3e fc 31 bb bd 2e df 82 3e
       0.22383428 0.2465004 -0.09140393 0.25560898
000080 51 cd dc bd f5 00 2e be ea 75 2a bf d1 3c 97 3e
       -0.107813485 -0.16992553 -0.6658617 0.29538587
000090 ed 35 8a bf 29 27 a7 3d 65 f4 45 3e b8 91 13 3e
       -1.0797707 0.08161766 0.1933151 0.14411056
0000a0 24 d7 c1 be 3c 94 fa be bb 3a 09 be 38 8b 02 bd
       -0.37859452 -0.4894122 -0.1340131 -0.03187105
0000b0 8e f1 25 bf 7d 75 32 be ff ce 83 3c cb 1a ad bd
       -0.6482171 -0.1742763 0.016089914 -0.08452376
0000c0 0d d5 95 3d a2 23 8c 3e db ff 4f bd e4 83 01 be
       0.07316027 0.27370936 -0.050781112 -0.12647969
0000d0 9d e0 dd 3d c0 40 e8 3d 60 62 13 bf da 94 0e be
       0.10833857 0.11340475 -0.57571983 -0.1392397
0000e0 90 61 39 3e c1 9a 5d 3e 41 28 ab be 25 0c 90 3e
       0.18103623 0.21641065 -0.3342915 0.28134266
0000f0 d0 5a 34 bc 0c 92 29 3e 49 fa f3 bd 5b 9e 24 3e
       -0.0110079795 0.16559619 -0.119129725 0.16076033
000100 7b c1 82 3e 2d bb 98 be 7e 12 1e 3d ca 8c e2 be
       0.2553824 -0.29830304 0.038591854 -0.4424804
000110 0e f4 53 be cf c9 18 be ea 93 fc bd 99 9e c7 bd
       -0.20698568 -0.14920734 -0.123329 -0.09747047
000120 05 f0 a3 be ea 7a d8 be e4 29 17 3e fa ec 77 3e
       -0.32019058 -0.42281276 0.14762074 0.24211493
000130 05 c0 5b be 28 d4 98 3e 3d ea 73 3d 0b ba c2 3e
       -0.21459968 0.29849362 0.05954956 0.38032565
000140 26 21 83 be 67 4f c0 bd ed dc dd bd a9 6c 90 3e
       -0.25611228 -0.09390145 -0.10833154 0.282079
000150 96 18 ec be 28 4b 86 3f d9 3b b6 3c 21 29 89 bd
       -0.46112508 1.0491686 0.022245334 -0.06697298
000160 9f 68 92 bd f2 ff bf 3d 26 47 04 3e c0 98 e5 be
       -0.07148861 0.093749896 0.12917766 -0.44843102
000170 a2 e1 d9 3c a0 01 4e 3e 4d b9 59 be cb a5 75 3e
       0.026596848 0.20117807 -0.21262093 0.23989026
000180 07 69 3f bd 3d 63 9e 3e 38 d5 74 3e 54 d9 b2 be
       -0.04673102 0.30935088 0.23909461 -0.34931433
000190 6b 20 f8 3e 58 a8 0d be 27 89 49 3d 5e 17 ba bc
       0.48462233 -0.1383375 0.049203064 -0.02271622
0001a0 8d 99 08 be f0 48 8d be e5 c8 a9 3e 0c f8 09 be
       -0.13339825 -0.2759471 0.33161083 -0.13473529
0001b0 b2 50 ba 3e b0 fe 24 be ac ab 37 3e 0d 69 cd 3d
       0.3638969 -0.1611278 0.17936581 0.100298025
0001c0 e2 f8 e0 3c 04 55 4c 3f ff ea e7 be 48 d4 93 3e
       0.027462427 0.79817224 -0.45296475 0.28872895
0001d0 27 72 e2 bd 4c 42 c7 bd 8a b7 22 bd 20 d9 05 bd
       -0.11056929 -0.09729442 -0.039725818 -0.03267777
0001e0 20 2d 38 3e 96 65 6e bd 64 a8 52 be 94 70 06 be
       0.17985964 -0.05820235 -0.20572048 -0.13128883
0001f0 9a 8a 85 be 09 bd 38 3e 09 72 f5 3d ae c7 e5 3d
       -0.26082307 0.18040861 0.11984641 0.112197265
000200 1f 81 61 3e 64 7e c1 be 90 05 82 3d d1 5e d2 bc
       0.22021912 -0.3779174 0.06348717 -0.025679978
000210 d3 04 3d bd 64 b7 be 3a 20 cc 23 bf ce 4f 72 be
       -0.04614718 0.0014550504 -0.63983345 -0.23663256
000220 ea ba 63 bd 07 11 da 3d 17 36 7b 3e d2 a0 c3 3d
       -0.055598177 0.10647779 0.24532352 0.095521584
000230 1d 8d dd 3d 6b a5 9e 3e 08 e2 bc 3d c9 30 b1 3e
       0.10817931 0.3098558 0.092227995 0.34607533
000240 44 50 a9 3e 85 57 ae be ae 2c 7c bd 30 11 0d 3e
       0.3306905 -0.34051147 -0.061566047 0.13776088
000250 96 56 bc b9 61 48 f4 3e c7 02 34 3d b4 a8 ff 3d
       -0.00035922666 0.4771147 0.04394796 0.124833494
000260 06 a8 24 be a2 ca e6 3e 4e 60 e2 3c 56 f0 f6 3e
       -0.16079721 0.45076472 0.027633812 0.48230237
000270 6b b3 ec be b1 b8 52 bf 06 13 24 be 0a d9 2d 3f
       -0.46230635 -0.82313067 -0.16022882 0.679093
000280 d7 5d 74 bd 47 81 f7 3e c1 29 94 3e b5 21 57 bd
       -0.059659805 0.48340818 0.28938106 -0.05252238
000290 f2 3c ea 3d b6 f6 2f be f9 19 21 3e c9 67 55 bf
       0.11437406 -0.17183957 0.15732564 -0.8336149
0002a0 57 32 4c 3e 51 54 79 be f8 03 51 3e 43 50 48 be
       0.19941078 -0.2434857 0.2041167 -0.19561867
0002b0 41 08 05 3f 58 47 9a bd 7a 60 9f 3e 24 a9 70 3d
       0.5196572 -0.07533139 0.31128293 0.058755055
0002c0 b8 ac 3a 3d 69 6e c2 3e cb b9 69 3d b2 ef 9a 3d
       0.045574874 0.3797486 0.05706195 0.075652495
0002d0 3c 24 0c be dd 55 b4 3d cb 7a 3b be 4c ea a3 be
       -0.13685697 0.088054396 -0.1830856 -0.32014692
0002e0 87 17 05 bc a3 16 6e bf cd 8f 72 3e 91 94 9d bf
       -0.008123285 -0.9300329 0.23687668 -1.2310964
0002f0 8f 65 31 be 25 7d 16 3e 85 3c 0c 3e ea 11 eb 3d
       -0.17323898 0.14696176 0.13694961 0.11478026
000300 a0 89 62 be b7 51 3e 3d 5d 3e 1b 3d 19 db a3 3e
       -0.22122812 0.046464648 0.03790127 0.32003096
000310 f6 9a 1c bf 46 41 10 bf d4 eb 9b 3e 4f 9b 38 3c
       -0.6117395 -0.563496 0.3045336 0.011267497
000320 7a 0d b8 be bf e5 ae 3e 0a c8 9e 3d 08 7c a2 be
       -0.35947782 0.34159657 0.07752998 -0.31735253
000330 00 5e d7 be 7e 78 84 bd 63 39 18 3f 92 75 ce 3e
       -0.42063904 -0.064682946 0.59462565 0.40324074
000340 f3 61 cb be ed c6 98 3e 05 1e a9 bc 45 fc 14 bf
       -0.39723167 0.29839268 -0.020644197 -0.5819743
000350 12 08 1e 3f df ad 1d bf 85 bf ea 3e fd f6 08 bf
       0.61731064 -0.6159343 0.45849243 -0.53501874
000360 55 8d 69 3d 81 e5 3c 3e 4b 04 ec 3d ef b4 af 3e
       0.05701955 0.18446924 0.11524256 0.3431773
000370 ae 84 22 3e b5 2f b6 3e d7 84 79 bd 8a b9 8e bd
       0.15870926 0.35583273 -0.0609177 -0.069689825
000380 a8 00 81 bd c0 b5 80 3e 85 d0 7a bd 01 3b af be
       -0.06298953 0.25138664 -0.061234016 -0.34224704
000390 14 21 36 3f 29 9e 29 bd e7 9d c4 be ce 02 63 3d
       0.71144223 -0.0414106 -0.3840172 0.055422597
0003a0 54 69 ca 3e 9a fe da 3e f5 73 0f 3e 53 6d 8f bc
       0.39533484 0.4277237 0.14009078 -0.017508185
0003b0 04 cf 06 be b0 41 1b 3d a1 47 84 be b8 d7 be bd
       -0.13164908 0.03790444 -0.258359 -0.09318489
0003c0 3d 4f 3a 3d a0 83 18 bf 56 3f ea 3e 6b c8 80 be
       0.045485724 -0.59575844 0.45751446 -0.25152907
0003d0 38 27 c3 3e f0 62 8e 3d 38 11 c5 3e 0a 14 33 3e
       0.3811586 0.069524646 0.384897 0.17488113
0003e0 c9 0a a3 bc ef 45 97 bd 2c 71 ae 3e 4e 39 8d 3e
       -0.019902604 -0.07386386 0.34070718 0.27582783
0003f0 83 a5 bb 3e 31 db 40 bd 95 bc b4 bd ab 4c 08 3e
       0.36649713 -0.047084037 -0.08825032 0.13310497

actor.4.bias f4 [16]
000000 50 df 6e 3e 95 b8 3a be 1d 18 6f bd 98 ae 93 3c
       0.23327374 -0.18234475 -0.058372606 0.018027589
000010 fc 21 d2 bd d1 e3 fd bd 50 63 4d 3e 15 f2 f3 3c
       -0.10260388 -0.12396968 0.20057416 0.02977852
000020 01 29 6f be 28 a3 07 3d 78 d1 3b 3d ec 53 24 be
       -0.23355485 0.033114582 0.04585406 -0.16047639
000030 e1 43 c7 3d c0 22 30 be 29 c0 8c be 9a 56 9f 3d
       0.09729744 -0.17200756 -0.27490357 0.0778019

critic.0.weight f4 [128, 35]
000000 46 ab 6a be ce 80 b2 be 17 f5 80 be aa 18 8a be
       -0.22916898 -0.34863895 -0.2518699 -0.26971942
000010 e4 ec b5 be d0 87 a9 be 14 97 a5 be 5a ab ae be
       -0.35532296 -0.3311143 -0.32341826 -0.34115106
000020 35 fd 4f be a6 48 63 be 03 93 b2 3e 8a 54 b0 3e
       -0.20311435 -0.22195682 0.34877786 0.34439498
000030 de 02 d1 3a 11 14 74 be cf 27 3b be 5d bd 17 3e
       0.0015946289 -0.2383578 -0.18276905 0.1481833
000040 1b cd 7b be 36 03 a0 be a2 86 37 be d4 67 83 3c
       -0.2458996 -0.3125245 -0.17922452 0.01604072
000050 f5 60 24 be 8b 89 87 be 33 aa fd 3d 7c 2d 69 bc
       -0.16052611 -0.26472124 0.123859785 -0.014232036
000060 d5 33 e1 bc f9 78 c0 be 90 63 84 be 96 7a 25 3d
       -0.027490536 -0.37592295 -0.2585721 0.04040011
000070 5d 5b 62 bd 2c 02 5f be fe 4b 07 be c8 d4 cc 3e
       -0.055262912 -0.21778172 -0.13212582 0.4000609
000080 41 33 02 be a6 7b 87 3d c8 4e 0b bc ef bb ef be
       -0.12714864 0.06615381 -0.00850267 -0.4682307
000090 1d f0 e1 be c9 15 a6 be ae f0 c6 be 1e 64 85 be
       -0.44128504 -0.32438496 -0.388555 -0.26052946
0000a0 8d e1 85 be 19 53 cc be c7 38 a3 be 16 b8 fd be
       -0.26148644 -0.39907148 -0.31879255 -0.4955451
0000b0 65 d6 ee be 22 2d 24 bf af 18 74 3e 5f 88 26 3e
       -0.46647945 -0.6413137 0.23837541 0.16262959
0000c0 2f 95 35 3f 40 a8 1c bf ca 06 27 3f 0f b0 2e 3e
       0.7093076 -0.6119423 0.65244734 0.17059349
0000d0 3f a5 99 3e 04 45 35 be 82 6e 8f bc 49 d5 c1 bd
       0.30008885 -0.17702109 -0.017508749 -0.09464509
0000e0 89 46 e0 be ee 79 8b be b8 17 4f be b9 85 46 be
       -0.43803814 -0.27241462 -0.20223892 -0.19386949
0000f0 6c d5 a9 bd 0b cc c2 3d 36 dd df 3e c7 1d 92 bd
       -0.0829266 0.09511574 0.43723458 -0.07134586
000100 4b 39 57 bf e3 ca 25 bc 3e fb 1d bd f9 ee a8 bf
       -0.840718 -0.010119173 -0.03856968 -1.3197929
000110 2f 62 6f bf dd f7 fb be a7 b2 c6 3d 80 9a 20 3d
       -0.9350919 -0.49212542 0.09702044 0.039209843
000120 4a 4d ac 3d 1f 35 99 3d 90 8e 98 3d 8d 07 8e bd
       0.08413179 0.07480835 0.07449067 -0.06935034
000130 62 d4 6c 3d 1a f6 b9 ba 60 b0 e1 3d 63 c9 c7 bd
       0.05781973 -0.0014187724 0.11019969 -0.09755208
000140 a4 93 e8 bf 55 e0 5a bf be 9e 75 3e 59 72 7f bf
       -1.8170056 -0.85498554 0.23986337 -0.99783856
000150 3b d6 15 3d 1b 03 e1 3e 42 ec 04 3f 86 8e bd bd
       0.03658126 0.43947682 0.51923 -0.092557
000160 0c 05 d2 3e a6 fb 84 3e 32 a7 b3 3d b6 da cf 3d
       0.41019475 0.25973243 0.08772124 0.10149138
000170 61 82 fd bd c5 71 97 3d fe 5a 4e 3d 1e 54 20 be
       -0.123783834 0.07394747 0.050379746 -0.15657088
000180 71 87 ad bc 34 10 39 3e 2b 28 06 bc e3 02 66 3e
       -0.021182748 0.18072587 -0.008188288 0.22462039
000190 f7 ee e4 bc fd e4 d2 be c5 59 ac be bf ed 4e bc
       -0.027945979 -0.4119033 -0.3366224 -0.012629925
0001a0 d5 b1 19 be ce 78 0f be 00 a1 c5 bd db d2 bb bd
       -0.15009244 -0.14010927 -0.09649849 -0.09171077
0001b0 ee be db bd 2e b0 bd bd 12 68 0e be 39 8a f4 bd
       -0.10729776 -0.09262119 -0.13906887 -0.119404264
0001c0 e5 5f 21 be ad 53 d3 bd 2c ae 19 be 03 ed 0f c0
       -0.15759237 -0.10318694 -0.15007848 -2.248841
0001d0 b7 fa 2c bf a1 7a 64 be eb bb 95 3e 2b 1f 75 3f
       -0.6757006 -0.22312404 0.29244933 0.95750684
0001e0 11 f3 82 3f 98 13 93 be 12 a8 c5 be f0 8e 2c bf
       1.0230428 -0.28725886 -0.3860479 -0.67405605
0001f0 88 e9 6f be 6a 0d 55 be db 0c c3 bd 46 c2 5f bc
       -0.23428929 -0.20805898 -0.09523936 -0.013657158
000200 28 1c 0c bd cc 4f 3e 3d 6b c1 75 be f2 5e f0 3c
       -0.03420654 0.04646282 -0.23999564 0.029342148
000210 f2 03 9d 3b 7a d0 aa bd 4d 33 29 bd 56 91 96 3e
       0.00479173 -0.08340545 -0.04130869 0.29407758
000220 ea 32 92 bc cb f6 ab 3d bd 78 ba 3d 98 62 7c 3d
       -0.017846543 0.083966814 0.0910506 0.061617464
000230 e2 91 54 be ee cf d1 be 51 d4 93 be ce 71 85 be
       -0.20758775 -0.4097895 -0.28872922 -0.2606339
000240 c1 59 8b be 4b 86 b8 be 37 1f a5 be 9c 26 a9 be
       -0.27216914 -0.36039957 -0.32250378 -0.3303727
000250 48 1b bb be 3a a2 28 bf 5a 0e 73 3f 9f e3 41 bf
       -0.3654425 -0.6587254 0.94943774 -0.7573795
000260 e7 5b b0 3e 60 15 35 3e e7 a7 c5 3d 94 4e 9c be
       0.34445116 0.17683935 0.096511655 -0.305287
000270 77 4d 8f 3e 6b 5d 4f 3d 1b 43 4e bd d9 94 8f 3e
       0.27988788 0.0506262 -0.050356966 0.2804325
000280 83 4f 18 bd d6 03 4a bd 13 28 95 bd bc c6 d5 3d
       -0.037185203 -0.049320064 -0.07283034 0.10438296
000290 44 6a 0c bd ef 68 e3 be c7 04 e7 bd 7e 04 52 be
       -0.03428103 -0.44415995 -0.11280208 -0.20509526
0002a0 d8 e0 24 be 1b 25 93 3d f8 3e a2 3e 9c ab 79 be
       -0.16101396 0.07184812 0.31688666 -0.2438187
0002b0 3e 37 1d bf c7 d5 21 bf 44 ce 10 be f1 b9 d2 bd
       -0.6141242 -0.63216823 -0.14141184 -0.10289372
0002c0 82 de 11 3d bc 38 a7 bd 58 e7 4f be 9c a9 b4 bd
       0.03561259 -0.08165118 -0.20303094 -0.08821413
0002d0 ff 5c e6 bd 05 19 26 bd 64 dc 52 be ca 36 94 be
       -0.11248206 -0.040551204 -0.20591885 -0.2894805
0002e0 32 16 a7 be 80 b7 a1 3e ee 15 71 be 89 2a 61 3d
       -0.3263412 0.31585312 -0.23543522 0.054972205
0002f0 31 fe a6 3e c3 1b d0 3d 10 d0 14 3d 50 73 40 3e
       0.32615808 0.10161545 0.036331236 0.18793988
000300 54 4a 3f 3e 8b a6 68 3e dd 67 18 3e fa bd 04 be
       0.18680698 0.22719781 0.1488337 -0.12963095
000310 99 aa 0c be 21 08 69 be e5 4c 97 be 6a cd 04 be
       -0.13736953 -0.22757007 -0.29550853 -0.12968984
000320 c3 08 0d be b8 3a 36 be de 19 12 bd 9d 99 09 3c
       -0.13772874 -0.17795837 -0.0356692 0.008398441
000330 ed 94 06 be 67 33 d7 bc 71 65 28 3d a0 c8 0c bd
       -0.13142748 -0.026269628 0.041112367 -0.03437102
000340 d3 be 09 bc 54 a0 a7 bd ea b3 0b bd 73 59 09 bd
       -0.008407312 -0.08184877 -0.034107126 -0.03353257
000350 17 65 07 bd 53 39 93 bc 5a c1 6f bb ec 97 19 bc
       -0.03305539 -0.01797167 -0.0036583752 -0.0093746
000360 10 93 91 bd a1 94 d1 bd 9a 13 bd bd a9 29 0b be
       -0.07108128 -0.10233427 -0.09232254 -0.13590111
000370 f0 a0 15 40 d7 f4 fb bf 2f ff b2 3e ef a4 96 bd
       2.3379478 -1.9684094 0.34960315 -0.07355677
000380 43 c3 c1 3e b8 9b 07 40 2f 0d a1 3e 85 03 93 3d
       0.37844285 2.1188793 0.3145537 0.07178406
000390 10 db 17 bc 82 56 ae 3c 0b 92 f4 3d 32 09 ce bc
       -0.009268537 0.021281485 0.11941918 -0.025150869
0003a0 29 79 6d bc 06 60 63 bd d6 1e 03 3c 83 7f 9a bf
       -0.014494219 -0.055511497 0.008002957 -1.2070163
0003b0 ee 51 0f 3d 0e 91 81 3b fb 4e 12 3d 1c b0 a0 bc
       0.034990244 0.0039540594 0.035719853 -0.019615225
0003c0 d7 09 48 3f 44 7a 4b be 8b 63 88 bd d0 60 23 be
       0.78140014 -0.1987086 -0.06659611 -0.159549
0003d0 30 a6 98 3b 10 2c 21 3e 87 c9 20 3e f5 d7 f8 3d
       0.004658483 0.15739465 0.15701877 0.121505655
0003e0 00 fb ed 3d d9 a7 ca 3d 41 a0 30 3e cc 82 e8 3d
       0.1162014 0.09895296 0.17248632 0.113530725
0003f0 1c 5e 8d bd d7 8b 3e be 5f 67 80 bd 1b 99 1f 40
       -0.069027156 -0.18608032 -0.062697165 2.4937198

critic.0.bias f4 [128]
000000 af e6 7d be f1 07 d5 be ef eb 5c be 91 84 3d bf
       -0.2479503 -0.4160762 -0.21574377 -0.74030405
000010 c2 57 5a 3e 75 25 a9 bd c8 ab e8 be cc 3b 1d bf
       0.2132254 -0.082590975 -0.4544356 -0.6141937
000020 20 20 6c bf 7d fe 9b be 78 b1 07 3f 29 14 df 3e
       -0.9223652 -0.30467597 0.5300517 0.43570068
000030 21 ed df 3d ba 5a c7 be 12 a7 fb be 2a 48 11 bf
       0.109339006 -0.38936406 -0.49150902 -0.5675074
000040 11 0b 04 bf 67 bc 1a 3e 62 8c 17 3e 47 3e a4 3d
       -0.51579386 0.15110932 0.14799646 0.08019691
000050 a6 b5 20 bd d0 5d 29 bf e3 d9 33 bf fb bd 8a be
       -0.039235733 -0.6615877 -0.70254344 -0.2709807
000060 9f 69 c6 3e e0 85 b3 3e 3d 6d 8b 3e ec 77 41 3f
       0.38752457 0.35063076 0.2723178 0.7557361
000070 59 37 35 3e 6a b7 da be bd 10 62 3e 23 4f d1 be
       0.17696895 -0.4271806 0.22076698 -0.4088069
000080 d0 45 f1 3f 78 7f 1c 3e 5b c2 ad bc 3c cc 12 3f
       1.884943 0.15283 -0.02121084 0.57342887
000090 09 cd 47 be 92 e3 14 3e 72 5b 0d 3e 26 fc dd be
       -0.19511808 0.14539936 0.13804415 -0.43356436
0000a0 2a 06 19 be 5c c3 36 be 24 47 b6 be dc d9 06 be
       -0.14943758 -0.17847961 -0.3560115 -0.13169044
0000b0 77 5d 3a 3e e0 5a 89 be 22 f2 6c bf 3c 98 d6 bd
       0.18199717 -0.26827145 -0.92556965 -0.10478255
0000c0 74 46 c9 3e 45 7d 70 bd e7 d1 5d bf f6 26 14 bf
       0.39311564 -0.058713216 -0.8664841 -0.5787195
0000d0 f7 68 d9 3e 2d 09 6d bf 39 43 37 bf 1c 35 25 3f
       0.42462894 -0.92592126 -0.7158695 0.64534163
0000e0 bd 56 bb 3d e6 ff a3 bd bd 33 85 be 8c 56 72 3b
       0.091474034 -0.08007793 -0.26016036 0.0036977855
0000f0 54 9e 10 bc ed ea 7d 3f 62 ed a3 3c a9 3a 17 3f
       -0.008826811 0.99186593 0.020010654 0.59073883
000100 96 20 88 bd 85 59 39 bf 6c 77 dd 3e 70 cd ea 3e
       -0.0664684 -0.7240222 0.43255174 0.4585986
000110 6e dc e3 3d 31 42 a2 bf 25 2a 83 be 38 b3 2c be
       0.11126028 -1.267645 -0.2561809 -0.16865242
000120 47 74 48 be 8d df 7c be 48 84 e4 3c 49 7a f4 be
       -0.19575606 -0.24694653 0.027895108 -0.47749546
000130 53 90 9a be 72 ef 56 3e cb 7a fd 3c 57 9e 42 3f
       -0.30188236 0.20989779 0.030942341 0.7602286
000140 2e 7d 42 bd eb 13 01 bf a7 0c 6e 3e 4f 91 f0 be
       -0.047482662 -0.5042102 0.23247014 -0.46985862
000150 a2 de 9e 3d c8 56 b6 3d 47 2f 2d be d0 2c 03 bc
       0.077573076 0.08903271 -0.16912566 -0.00800629
000160 82 ee aa bd d6 be a1 3d 91 a1 ff bc 71 ff a7 3e
       -0.08346273 0.07897727 -0.03120497 0.32812074
000170 bd b7 4a be 95 a6 27 3d 67 5b 0e bf 1d b2 05 bf
       -0.19796653 0.04093035 -0.5560822 -0.52224904
000180 d2 1d c1 be 2d 10 78 3f 65 41 2e 3f 73 c9 0b be
       -0.37718064 0.9689968 0.68068534 -0.13651066
000190 fc 38 60 3d 4c f6 4c 3d 3a b7 5b 3f 00 7f 89 be
       0.054741845 0.050039575 0.85826457 -0.26854706
0001a0 78 86 4c 3f 1f f0 86 3e af f9 f5 be 94 40 93 3e
       0.79892683 0.26355073 -0.48042056 0.28760207
0001b0 7f 24 29 3e ca c7 31 3e 59 92 31 3f e6 c8 08 bf
       0.16517828 0.1736137 0.69363934 -0.53431547
0001c0 df 2a d6 3c c7 c3 01 3e cc 04 3e 3e 9d eb 31 3e
       0.02614349 0.1267234 0.18556517 0.17375036
0001d0 f3 1b 4c bf a5 d5 b6 be 34 7e 18 3f 17 5b a7 3c
       -0.7973015 -0.35709873 0.5956757 0.020429177
0001e0 79 71 eb be 4c c7 a0 be 72 8a 22 bf 62 d3 04 bf
       -0.4598501 -0.3140205 -0.634925 -0.51885045
0001f0 b5 5a 94 3e d1 f1 2f 3f 88 b8 25 bf 5e b2 13 3f
       0.28975454 0.6872836 -0.647347 0.5769404

critic.2.weight f4 [64, 128]
000000 8e e4 19 be 1b 6b 1d be 01 8e 02 bd 83 4e 3f be
       -0.15028593 -0.15372889 -0.031873707 -0.18682294
000010 76 db d9 3e 0e 33 1f 3e ab 80 84 3d 8a 29 9e 3d
       0.42550248 0.1554682 0.06469854 0.07722767
000020 63 6f ab be ed 35 09 3f 63 f5 73 3f 68 7d 62 3f
       -0.3348342 0.5359791 0.95296305 0.88472605
000030 09 3f c2 be 89 4d 9c bc 0f 9e d6 3d 06 5d fc 3e
       -0.37938717 -0.01907994 0.10479366 0.4928972
000040 26 fc 0e 3e 36 f2 3a 3f 8e 0d 92 be 26 b1 23 3f
       0.13963374 0.73025835 -0.28525966 0.6394218
000050 3a 34 8b 3f 7a 94 08 be 77 0a 0f bf 94 64 b5 bd
       1.0875313 -0.1333789 -0.55875343 -0.088570744
000060 04 dd 61 3f 43 08 66 3d 90 9a 5b 3e ec 73 b0 3b
       0.8822787 0.056160223 0.2144568 0.0053849127
000070 6f 45 17 3e 19 40 93 be 5e f6 43 3e b6 0a 82 3e
       0.1477258 -0.2875984 0.1913695 0.25398797
000080 80 f0 03 3f 60 72 25 3e dd 59 a5 be 0c df 28 3e
       0.5153885 0.16156912 -0.32295123 0.16491336
000090 d0 24 8c ba 08 00 9e 3f 1c 14 4a 3d 4b ec 86 3e
       -0.0010692123 1.234376 0.049335584 0.26352152
0000a0 9d b4 26 bf f1 ef e1 3d f7 44 02 bd 60 b5 36 3f
       -0.65119344 0.11032093 -0.03180405 0.71370506
0000b0 21 38 98 3f b7 ac f2 3e 5b 88 72 bc da 0a 63 3e
       1.1892129 0.47397396 -0.0148030175 0.22172108
0000c0 fc bf 6b 3f 61 3e 8b 3d 1c e2 f7 bd 7f d1 f1 be
       0.9208982 0.06799007 -0.12103674 -0.47230145
0000d0 64 48 24 3f 73 a6 93 be 66 7f fa 3d c9 9a 32 3e
       0.6417296 -0.28837928 0.122313306 0.17441858
0000e0 96 b6 66 3f 90 fc 88 be 95 8f 51 bd 82 b6 97 be
       0.90122354 -0.2675519 -0.05116232 -0.2963143
0000f0 14 3f 37 3e e4 b9 9d 3e f1 86 c1 be 54 0d 44 3f
       0.17895156 0.30805886 -0.37798265 0.7658284
000100 6d b1 2e 3f cf a2 c1 be f1 e4 a7 3e be 88 33 3e
       0.6823948 -0.37819526 0.32791856 0.17532632
000110 82 97 3f 3f f6 9d ab bf ed 04 a5 3e 38 02 37 3e
       0.7484056 -1.3407581 0.3223032 0.1787194
000120 91 61 c8 3d ff df 1e 3e 14 7c d8 3e d1 70 fb 3d
       0.09784234 0.15515135 0.42282164 0.122773774
000130 df 82 0d 3f ad c4 2d 3e 01 48 32 3c 17 38 4f 3e
       0.5527782 0.16969557 0.010881425 0.2023624
000140 e9 34 8b 3f e3 d4 91 bc dc 66 72 3e f1 9a 46 be
       1.0875522 -0.017801708 0.2367205 -0.19395043
000150 87 26 de be f7 dd a4 be 95 b3 da 3e 51 2f 33 be
       -0.4338877 -0.32200596 0.42715135 -0.17498519
000160 cc f9 ed 3d b6 6a 84 3c bc 93 92 bd d6 eb 2b 3f
       0.116199106 0.016164165 -0.07157084 0.6715673
000170 be 55 05 be a7 9e 83 be 07 34 eb 3e e8 b2 95 bd
       -0.1302099 -0.2570698 0.4593813 -0.07309514
000180 49 1f f5 bc 10 7e 25 3e e9 9e 98 3e f6 01 70 3f
       -0.029922144 0.1616137 0.2980874 0.9375299
000190 df e0 3f be f7 ff 84 3e 98 47 6e 3e 21 86 1e 3f
       -0.18738125 0.25976536 0.23269498 0.61923414
0001a0 0d 0b 28 3e 37 bf 39 3e 49 9a 12 3f 4f 47 44 3f
       0.16410466 0.18139349 0.5726667 0.7667131
0001b0 9c 2a fe 3e e4 fd 18 3e f3 c0 fc 3d be bf 89 3e
       0.49641883 0.14940602 0.1234149 0.269041
0001c0 7b 1d 00 bd a5 ef 8e 3e 4b 72 a6 3d d7 58 28 3f
       -0.031278115 0.2791721 0.081272684 0.6576056
0001d0 17 7e 5a be 82 c9 9d 3f e3 a8 9b 3d db 99 63 3f
       -0.21337162 1.232712 0.07600572 0.8890664
0001e0 da c7 3a be 97 47 94 bd 09 f1 06 3f df 97 02 be
       -0.182403 -0.07240217 0.5271154 -0.12753247
0001f0 b3 37 a8 3f 19 37 0a 3e e6 05 0e 3c c4 ca 19 3e
       1.3141998 0.1349758 0.0086683985 0.15018755
000200 38 41 20 3e 4b 3c 81 be c4 36 51 be 3e 80 4d bd
       0.15649879 -0.25241312 -0.20431048 -0.05017113
000210 b5 98 58 be 08 52 1c 3e 3f c3 ab ba b0 1e 59 be
       -0.21152003 0.15265667 -0.0013104453 -0.21203113
000220 6a 2d 62 be 8a d4 d5 3d da 67 85 be 71 3d 7b 3d
       -0.22087637 0.10440929 -0.26055795 0.061337892
000230 1a 31 10 bf f7 a4 c5 3a ef 0a 4f bd 94 7a a7 bd
       -0.56324923 0.001507907 -0.050547536 -0.08177677
000240 15 fa 82 be c5 eb 26 3d 37 82 93 3d 98 68 27 3e
       -0.25581422 0.04075219 0.07202571 0.16348493
000250 b9 6e 3f be 7d dc eb bd 24 7d 17 be 58 a0 86 3e
       -0.18694581 -0.11516664 -0.14793831 0.26294208
000260 81 1e e5 bc 7b 6f ea bd f8 54 05 bd ee 47 c5 3c
       -0.027968647 -0.114470445 -0.032551736 0.02408215
000270 ea e5 51 be 99 ce 43 3d dc 05 59 be f0 f0 0f bd
       -0.20497862 0.04780445 -0.21193641 -0.035141885
000280 27 cd 41 be b1 ff 37 3d 30 14 fe 3c 54 3e 19 be
       -0.18925916 0.04492158 0.031015486 -0.14965183
000290 c9 d2 84 be 2e 82 96 bc 8c 50 83 3d 7b 9e 0a be
       -0.25942066 -0.018372621 0.064118475 -0.13537018
0002a0 f1 42 2f bd 58 c0 ce bc e5 31 ba 3b e0 a0 85 bd
       -0.04278845 -0.025238201 0.0056822174 -0.06524825
0002b0 6a ef bc bb 42 67 90 bd de 81 8f 3d de ec af 3d
       -0.005765845 -0.07050945 0.07007192 0.08590101
0002c0 86 13 af 3d 9a 4e e7 bd 2a af 0f bc 23 56 e9 bd
       0.08548646 -0.11294289 -0.00876979 -0.113933824
0002d0 4b 19 ca bd d2 f2 37 3e e9 4e 82 be f9 2a f4 bd
       -0.098681055 0.17963722 -0.2545083 -0.11922259
0002e0 57 67 70 be e2 58 d3 3c a1 2d 9c 3d 0b 8a d0 bd
       -0.23476921 0.025799219 0.076258905 -0.101825796
0002f0 06 cc fd 3d 59 9c 52 3e eb 92 6b 3e 4b 3e 4c 3d
       0.1239243 0.20567454 0.23005264 0.049864095
000300 34 ee 01 bf 1c c6 bb bd a9 91 16 be 6f c7 4f be
       -0.50754094 -0.09168646 -0.14704002 -0.20290922
000310 ec 39 91 be 0f dc 6b bd 51 2a 4f 3d 8d 41 89 bd
       -0.28364503 -0.05758291 0.050577465 -0.06701956
000320 b9 13 74 3d 7e 75 b2 3d 06 cf 8f bc 78 01 13 be
       0.05958912 0.08713816 -0.017554771 -0.14356029
000330 66 67 5f 3e 4e 39 a2 bb 2a cb 54 bd d6 0c 94 be
       0.21816787 -0.004950679 -0.051951565 -0.28916043
000340 1d dd a3 bd bf 71 2e be e1 d1 66 3d 07 75 51 be
       -0.080011584 -0.17035578 0.0563525 -0.20454799
000350 b0 ef 8f bd e7 fc 39 3d 7e 7b 90 3e 38 f8 c2 3c
       -0.07028139 0.045407202 0.28219217 0.0238
000360 ab 97 84 3c ff 97 1b bd 27 b0 0b be 66 55 a4 bd
       0.016185602 -0.03798675 -0.13641416 -0.08024101
000370 88 0a 58 3d 81 3e 66 bd 72 f9 1b be 5c 46 ab 3d
       0.05274442 -0.056211952 -0.15231875 0.08363029
000380 59 5a 6d be 85 e7 8c 3d 25 21 3f 3c 98 39 b4 3d
       -0.23178996 0.06880096 0.011665617 0.08800048
000390 e2 16 66 be 98 67 3b be ad 1d ae bd 91 53 01 be
       -0.22469667 -0.18301237 -0.08501754 -0.12629534
0003a0 ac 98 8a bd 64 21 71 be f9 ea c3 be 2b 83 df 3d
       -0.06767401 -0.23547894 -0.38265207 0.1091369
0003b0 67 cf 25 be 67 8d 9b bb 14 39 15 3d ca 27 fa bd
       -0.16192399 -0.004747081 0.036431387 -0.122146204
0003c0 b2 05 85 be f7 f7 2e be af 38 92 bd b7 25 14 be
       -0.25980908 -0.17086779 -0.07139718 -0.14467512
0003d0 15 b5 5e be 57 47 4a be b9 06 fc bd c7 b4 ac 3c
       -0.21748765 -0.19753776 -0.1230597 0.021082295
0003e0 a1 08 ce bd 50 90 fa bd fe 54 49 bd 6b 73 0a bd
       -0.100602396 -0.12234557 -0.04915332 -0.033801477
0003f0 d9 05 e9 3c 8e a0 7d bd 6b 80 17 bd d6 47 19 be
       0.028445171 -0.061920695 -0.036987703 -0.1496881

critic.2.bias f4 [64]
000000 44 0e 8b 3e bd 7e 5d bd 5d 66 a2 3d df 6e 47 3e
       0.2715932 -0.054075945 0.079296805 0.19475888
000010 3b 53 c1 bd fb c7 75 3d 98 be a4 3d 88 53 ce bd
       -0.09439703 0.06000517 0.080441654 -0.10074526
000020 a6 9d 14 3e b3 dd 65 bc 9c 0f 07 3e cd cc 88 be
       0.14513263 -0.014029908 0.13189548 -0.2671875
000030 01 88 3b be fe 98 c9 3d 18 e5 2e 3d 71 95 0f 3d
       -0.183136 0.09843634 0.04269895 0.035054628
000040 2a 0d 1d 3e ec b3 94 3d 13 3a d1 3c ab cb 2b 3d
       0.15337053 0.0726088 0.025540387 0.04194228
000050 87 68 b9 3b 8f 65 09 3d 6c 2f 20 be 63 e3 2f 3e
       0.0056582126 0.03354412 -0.1564309 0.17176585
000060 33 b5 46 bd d5 74 ce ba a9 22 12 bf 68 48 69 bc
       -0.04851265 -0.0015751371 -0.5708414 -0.014238454
000070 46 19 2a bd 09 16 85 be 02 7a 70 3e fa 9a 05 3e
       -0.04152801 -0.25993374 0.23484042 0.130474
000080 ef d9 be 3d d4 5f 4e be d5 0d a8 3d 0e 28 a9 bd
       0.09318911 -0.20153743 0.08205763 -0.08259593
000090 9d 16 25 be c0 db 2f 3e 74 8a c3 bd 70 8e 9c 3b
       -0.16121908 0.17173672 -0.09547892 0.004777722
0000a0 64 28 43 be ec f6 22 3d ec a2 5b be a3 13 98 bd
       -0.19058377 0.039786264 -0.21448869 -0.074256204
0000b0 54 92 a5 3e 5d 15 26 be cb aa ab 3d 38 fb a6 3d
       0.32338202 -0.16219087 0.083821855 0.08153385
0000c0 24 70 55 be 1d 24 ed 3c cf d6 8c bc a2 f4 4e be
       -0.2084356 0.028947884 -0.017192272 -0.20210508
0000d0 f9 c1 41 3d b9 60 09 3e 06 b2 41 be c1 df 97 bd
       0.047304127 0.13415803 -0.18915567 -0.074157245
0000e0 fd f4 cb 3d 38 a7 5d bd d4 14 38 3e 2b 42 87 3c
       0.09958837 -0.05411455 0.17976695 0.016511044
0000f0 fe 55 03 3d 30 9f ee bd a7 e3 75 3e ac 73 fe 3d
       0.03206443 -0.11651456 0.24012624 0.124244064

critic.4.weight f4 [1, 64]
000000 6a 02 99 be 92 bc 6b 3e 67 89 fd 3e 70 76 7e bf
       -0.29884654 0.23021153 0.49518892 -0.9939947
000010 99 30 aa bd cf 25 50 3e 68 6d 8b be 58 d0 a3 3d
       -0.083100505 0.20326923 -0.27231908 0.07998723
000020 e1 17 86 bf e8 17 1e 3e e1 11 89 be ce 31 ab 3e
       -1.0476037 0.15438807 -0.26771453 0.33436435
000030 38 c3 82 3d b6 d6 11 bf 6d 72 79 be f4 81 6a 3e
       0.06384891 -0.5696825 -0.24360056 0.22901136
000040 bb 26 3c bf 8b 57 ca b9 e1 c9 dd 3d 51 93 99 be
       -0.734966 -0.00038593667 0.10829521 -0.29995206
000050 16 f2 ef be 1c 8a ce bd d1 b7 55 3e af cf 80 bf
       -0.46864384 -0.10084936 0.20870902 -1.006338
000060 f0 4a 53 3e fd 59 41 be 4f ad 32 3f 0d 24 60 3e
       0.20634055 -0.18881984 0.697957 0.21888752
000070 93 94 f2 3e 73 fa f6 3e ea af 6a bf a4 24 67 bf
       0.47378978 0.48237953 -0.91674674 -0.90290284
000080 04 b5 87 bf 86 27 07 3f 72 bf d4 3e d6 2a b3 3d
       -1.0602117 0.5279468 0.4155231 0.08748405
000090 a3 22 88 be c2 78 8c bf 7e a3 5d 3e 98 4f 02 3f
       -0.26588926 -1.0974352 0.21644399 0.509027
0000a0 e0 06 47 3f 7e 25 aa be 25 4b 84 3e 0f 5e 09 bf
       0.77744865 -0.3323173 0.2583858 -0.5365915
0000b0 07 d4 7e bf 60 e0 70 be 4a 25 56 3f a3 74 11 be
       -0.9954228 -0.23523092 0.8365065 -0.1420465
0000c0 61 51 43 be e2 d2 5c be 08 d6 96 3e 60 75 14 bf
       -0.19074012 -0.2156482 0.29460168 -0.579916
0000d0 3a 60 c8 3e 6a 65 89 bf 4d f1 a4 3e 74 91 2a bf
       0.39135915 -1.0734074 0.32215348 -0.66628194
0000e0 31 f8 25 bf ab 01 91 3e f2 a9 25 bf fe 9a df 3e
       -0.64831835 0.28321585 -0.6471244 0.43672937
0000f0 c1 7d af 3e 9c e0 7e bf a8 df 29 bf cc 1e a9 be
       0.3427563 -0.99561477 -0.663569 -0.3303131
