PPO_preTrained/add retent_rate/PPO_add retent_rate_0_75.pth (torch, 110785 bytes, 11 tensors)

actor.0.weight f4 [128, 35]
000000 28 58 a6 bb 51 2b f7 bd 54 b1 27 bd b0 cd 07 3c
       -0.005076427 -0.12068809 -0.040940598 0.008288786
000010 88 eb d2 3d f9 4e 42 3d c4 3b 7c 3d c0 f8 d9 3a
       0.1029883 0.047438595 0.061580434 0.0016629919
000020 3c 93 8f bd ae 2a cd bc 96 af 01 3f 28 38 b4 bc
       -0.070105046 -0.025044765 0.5065855 -0.021999434
000030 0c a8 76 be 8c 0a 78 be e0 5e 7a 3e 88 d9 81 3e
       -0.24087542 -0.24222773 0.24450254 0.25361276
000040 69 99 c0 bd df 1f 11 3e cd 9b 69 3d 13 c8 60 3e
       -0.09404261 0.14172314 0.05703335 0.21951322
000050 5c 1c 59 bd ae 90 83 bd 02 a3 33 3d 8c b3 55 3c
       -0.05300556 -0.0642408 0.04385663 0.013043296
000060 05 e0 a8 3d fd c8 04 3e f2 31 23 bc b9 fb 04 be
       0.08245853 0.12967296 -0.009960638 -0.1298665
000070 47 e5 46 3d 42 cb 39 3d e0 a6 9e be d6 e2 76 3d
       0.0485585 0.045359857 -0.3098669 0.06027492
000080 ac 5c e8 bc 8f dc 67 be 0a 73 00 3e 97 72 df 3d
       -0.028364502 -0.2264273 0.12543884 0.10910528
000090 0b bb d8 3d b1 4c 9e bc 6e d4 38 3d c9 a9 1d bc
       0.105825506 -0.019323679 0.045124464 -0.0096229995
0000a0 a5 ab b6 bd 0c 16 29 3d 3a d5 20 be af 81 91 3d
       -0.08919457 0.04128079 -0.1570634 0.07104813
0000b0 f0 6f cc 3d 2d 43 0d 3f fd 88 08 bd 8f bb d6 bc
       0.09982288 0.5518063 -0.033333767 -0.026212482
0000c0 92 35 63 3d f1 75 b3 3e 56 fd 0e 3b c0 98 91 bd
       0.05547101 0.3505092 0.002181848 -0.07109213
0000d0 31 61 81 bd 8c 0b 6e 3c bb 84 b7 3d a4 49 9c be
       -0.06317366 0.01452912 0.08960863 -0.30524933
0000e0 a6 fc fa bd 76 16 f2 3c 1c b5 c4 3d 20 0e 45 3d
       -0.1225522 0.029551726 0.09604856 0.048109174
0000f0 86 7c 3b 3e 1b 67 30 3d dd 23 ab bb 16 bf bc 3c
       0.1830922 0.04306708 -0.005222781 0.023040336
000100 b0 4e 1f 3e 2d 28 15 be 6f 2e de 3d 76 d7 48 bd
       0.1555736 -0.14566107 0.108487 -0.049033605
000110 1c a9 0b 3e 9b 5f 8c 3e 28 a1 5b bd 07 2b 03 3d
       0.13638729 0.2741669 -0.053620487 0.032023456
000120 78 eb 15 3c ee 66 3a bd 80 e0 f8 bc 70 6d dd 3d
       0.009150378 -0.045508318 -0.030380487 0.10811889
000130 8c 3d 18 3e 38 83 11 bd 6b 2b 1b 3e a9 63 9a bd
       0.14867228 -0.03552553 0.15153281 -0.0753854
000140 77 13 77 3f ad 0a ff 3c c7 7a 50 be 28 bf ed be
       0.96514076 0.03113302 -0.20359336 -0.46434903
000150 94 2e 97 3e 45 ce 9e be 63 ca 05 3e 89 b2 0e bd
       0.29527724 -0.31016746 0.13065486 -0.034838233
000160 a3 19 1d 3d dc b0 5a 3e 4d 4c 98 be 2c 00 28 3e
       0.038354527 0.21356529 -0.29745713 0.16406316
000170 d0 0c 5f bd 5e 71 28 bd 69 20 50 3e ec c2 e6 bd
       -0.05445558 -0.04112374 0.20324863 -0.11267647
000180 11 99 5d bd a0 f1 28 3e 02 72 6c bd e9 39 a9 bd
       -0.054101054 0.16498423 -0.057725914 -0.082629986
000190 b8 3b b4 be 98 ba 4c be 13 64 aa 3d 82 8a 3e 3e
       -0.35201812 -0.19993055 0.08319869 0.18607524
0001a0 6d 7a 9e bd 73 23 b9 bc 52 74 a2 3d 49 b1 55 bc
       -0.077381946 -0.022599911 0.079323426 -0.013042756
0001b0 c1 c1 ba bd 5c 8b 8b bd ac c4 38 3e 51 b3 12 3e
       -0.09118987 -0.0681369 0.18043774 0.14326216
0001c0 bc 3a 00 3e d7 90 a7 bd fe 22 71 3e 70 68 c7 bd
       0.12522405 -0.08181923 0.23548505 -0.09736717
0001d0 20 f4 5e 3e 2e 8a b8 3e 61 26 3b 3f 48 11 a1 bf
       0.21772814 0.36042923 0.73105437 -1.2583399
0001e0 b0 d4 7c 3d 7f 7a 2d 3d bd 4a ed bd 53 f2 02 bc
       0.061726272 0.04235315 -0.11586521 -0.007992345
0001f0 98 4c 80 3e 21 3b 12 3e 2c d7 02 3e 91 31 4d 3e
       0.25058436 0.14280368 0.12777394 0.2003844
000200 18 96 d8 3c 7e 2c 16 be 3d 10 d6 3c 15 42 ed 3d
       0.026438758 -0.1466541 0.02613079 0.1158487
000210 cb 1b c9 3d ad 8f 7c 3e 4c ee 18 bd 20 e2 9a be
       0.09819754 0.24664183 -0.037336633 -0.30250645
000220 dd 9a d3 3d 44 1c 37 3e 16 50 f1 3d a7 50 1c 3e
       0.10332272 0.17881876 0.11782853 0.15265141
000230 09 b8 ea bc d5 ac 5f bd b2 70 2b bc 36 6a 6e bd
       -0.028652208 -0.054608185 -0.01046388 -0.05820676
000240 a9 b0 06 3e 45 1d 97 bd 85 fd d7 bd c4 ce a2 3d
       0.13153328 -0.073786296 -0.10546402 0.07949594
000250 7e 53 6a 3d 47 33 3e 3d 80 ff 28 3e 58 8c b7 3e
       0.05720853 0.04643562 0.16503716 0.3584926
000260 fc c7 76 be 1c 03 f1 3d 2d 64 ea 3e 85 37 e7 3e
       -0.24099725 0.11768171 0.45779553 0.45159546
000270 3d d4 9b bd 0e df 5c 3c 06 30 2a bd c2 22 12 bc
       -0.076088406 0.013480915 -0.041549705 -0.00891942
000280 68 33 7c be f1 a1 4e 3c 89 6d 3b 3d 1a da d2 3d
       -0.24628985 0.012611852 0.045758758 0.10295506
000290 30 e8 73 3c c9 7a 10 be da 05 f8 3d da 71 db 3d
       0.014886901 -0.14109339 0.12110491 0.10715075
0002a0 13 d2 d7 3d a3 fc d0 bc a1 29 19 3c 5c d8 53 3c
       0.10538115 -0.025511092 0.009348304 0.012930002
0002b0 d3 b5 02 bc 61 67 76 bd 88 3f 69 3d 1c d1 c6 3d
       -0.007977921 -0.060157184 0.056945354 0.09707853
0002c0 bc 40 4d bd e2 80 0e 3e 1a 6a ad 3d fa 58 41 3e
       -0.050110564 0.13916352 0.08467503 0.18881598
0002d0 d0 22 95 3b 76 01 4a 3c 67 cc 3b bc 96 5e af bc
       0.004551269 0.01232945 -0.011462308 -0.021407407
0002e0 f5 2c 5e 3e f0 c8 22 bf 43 dd e8 3e 3e 15 be 3a
       0.21696837 -0.63587856 0.4548131 0.001450218
0002f0 33 e4 fe bb 9f 25 79 bf 39 63 b4 3e d4 7a 77 bc
       -0.0077786683 -0.9732303 0.3523195 -0.015104968
000300 a1 49 25 3e da 8c 94 bd 07 a8 03 3e 9b a5 5c bd
       0.16141368 -0.07253428 0.12857066 -0.05386887
000310 58 39 15 3d 5c 08 bc bc cc d3 c3 3d d2 5b d5 3c
       0.03643164 -0.022953205 0.095618814 0.02604476
000320 64 69 0a 3e 9f 46 9d bd d9 40 6a 3d be ab 42 3e
       0.13516766 -0.076794855 0.05719075 0.19010827
000330 06 44 ea bd fb 6c 56 3e 57 8e 1f bd ca 4f 59 be
       -0.11438756 0.2094001 -0.038954105 -0.21221843
000340 ad 13 53 be 80 22 4b be 78 7c d2 3d 3d cc 1a be
       -0.20612974 -0.1983738 0.10277647 -0.15116973
000350 94 51 e7 bd 3b 73 2a 3e 71 66 d8 3c d5 9a be 3d
       -0.11294857 0.1664552 0.026416035 0.093068756
000360 2e dd 3a 3e 88 67 b5 bd 9c fb 31 3d 12 3a 6e 3d
       0.18248436 -0.08857638 0.043452844 0.05816085
000370 79 53 39 bf ec 51 32 3d 03 d3 da bd 98 44 4e 3e
       -0.72392994 0.043535158 -0.106847785 0.20143354
000380 02 95 21 bf ed 10 e7 3e c7 4f 2e 3d e7 48 38 3d
       -0.6311799 0.451301 0.04255655 0.0449914
000390 20 50 77 3d be e6 07 3e b4 f0 38 bc aa de f1 bd
       0.060379148 0.13271615 -0.011287857 -0.11810048
0003a0 6b 87 0e bd 6e b4 a9 3d c7 1e d0 3d 49 d5 ed 3d
       -0.034797113 0.08286367 0.1016212 0.116129465
0003b0 b6 46 6e 3d f0 00 9f bd 1a 24 98 3d b3 ce 5a be
       0.058172904 -0.07763851 0.07428761 -0.21367912
0003c0 1f 03 44 3e 31 74 14 be a2 20 2f be 0e 84 e1 bd
       0.19141816 -0.14497449 -0.17102292 -0.110115156
0003d0 6e 80 0e be 0f 00 bf bd 44 fb ab 3d 35 f9 4e 38
       -0.1391618 -0.09326183 0.083975345 4.934632e-05
0003e0 dc 93 64 3e d5 27 7d 3d 2d f3 1d 3e 7f f1 ca 3a
       0.22322029 0.061805565 0.15424795 0.0015483348
0003f0 2c 81 55 bd b0 62 e0 3d cb 71 85 bd b1 29 a0 bb
       -0.05212514 0.10956323 -0.06515845 -0.0048877825

actor.0.bias f4 [128]
000000 e6 dd 67 3e 31 a6 53 bd 4e 5a 3f 3e 70 98 13 3e
       0.22643241 -0.051672164 0.18686792 0.14413619
000010 33 8c 99 3d 74 9b 2f 3e 43 bb c4 bd f0 bc ae bc
       0.07497444 0.17149144 -0.0960603 -0.021330327
000020 c1 d3 95 3e ca fd 26 3d ee 1f 61 3e 04 a5 61 3c
       0.29263118 0.040769376 0.21984836 0.013772253
000030 fd 90 72 3e 16 ea 41 3e 30 38 e5 bd a2 c6 8a 3e
       0.23688121 0.18936953 -0.111923575 0.2710467
000040 11 3e da bb 1a 27 24 3e fa 61 00 3e c3 42 91 bd
       -0.006660231 0.16030541 0.12537375 -0.07092812
000050 42 51 1b 3e 5a 02 e9 bd 67 1b 0c bd 69 36 06 bc
       0.15167716 -0.11377402 -0.03420582 -0.008191683
000060 b5 72 38 3e 22 4a 9d 3e 16 f2 e0 3d 39 5f 73 bc
       0.18012507 0.3072062 0.10983674 -0.014854246
000070 3b d1 8e 3d 6f b2 6f bc 1e a6 ad 3d 74 7e 88 3e
       0.06973501 -0.014629944 0.0847895 0.26658976
000080 be 25 04 3e 0b 8e ae bd d4 88 24 3e d9 36 59 3e
       0.12905023 -0.08523186 0.16067821 0.21212329
000090 30 77 9c bb a8 8c 0a 3e 4d bf 98 3e b8 32 f6 3d
       -0.0047749504 0.13530219 0.2983345 0.120213926
0000a0 6f 38 9d 3d f7 9a 49 3d f5 07 86 3e 00 6c 04 3d
       0.076767795 0.04922005 0.26177946 0.03232956
0000b0 06 14 53 3e d2 ab 00 3e 72 bf f9 3c a1 08 19 be
       0.20613107 0.12565544 0.030486796 -0.14944698
0000c0 82 b7 09 bd d3 80 dc bc 22 3c 4d 3e 72 1f e2 bd
       -0.033622272 -0.026916897 0.2004247 -0.11041154
0000d0 85 83 9c 3d 1b 7e 7c 3e 31 1e a2 bd 95 d4 ce bd
       0.07642273 0.2465748 -0.07915915 -0.100991406
0000e0 1d 51 5a 3d 16 16 85 3d 08 0a 03 3c 73 61 18 3e
       0.053300012 0.06498353 0.007997997 0.14880924
0000f0 5e bc dd bd d5 51 13 3d 3e 86 a1 bd e4 36 2b be
       -0.10826944 0.035966713 -0.07886933 -0.16720158
000100 26 ab ba 3d 5c af fe 3c f4 7d 58 3e 1d 6c e4 3d
       0.09114675 0.031089477 0.21141797 0.111534335
000110 87 58 1f 3e 66 c7 e9 3d 66 24 32 3e ef e1 ed 3d
       0.15561114 0.11414985 0.17396697 0.11615359
000120 b9 f5 7e 3e 04 ea 5a 3c 9d 9e 51 3e da 00 9e 3d
       0.24898423 0.013361458 0.20470662 0.07715006
000130 86 30 76 bd f1 93 b8 3c 23 57 25 3d c9 37 d0 bc
       -0.06010487 0.022531481 0.040366303 -0.025417225
000140 a4 03 0d bd 72 74 bd 3c 28 c0 4c bd 2f 91 21 3e
       -0.0344273 0.023126815 -0.049987942 0.1577804
000150 bb ee c1 3d e7 7e 19 3e 8f 38 ba 3d 59 ec f5 3d
       0.09469362 0.14989816 0.09092819 0.1200797
000160 15 be eb bd 00 4d 11 bd a3 6e 34 3e 21 f0 cd bc
       -0.11510865 -0.035473824 0.1762033 -0.025138916
000170 d1 96 8a bd 1e 31 4d be 8e ce dd bc c5 23 bb 3d
       -0.06767047 -0.20038268 -0.027076032 0.09137682
000180 4f 81 e0 3d 0d db fe bd b5 b8 93 3d 76 21 83 3d
       0.10962164 -0.12444124 0.072129644 0.064028665
000190 a4 ff 15 3e 88 62 b8 bd 26 4c ef bd ea d3 ab bd
       0.146483 -0.09003168 -0.11684446 -0.08390029
0001a0 5e e7 68 bd a6 39 d4 3d 66 b6 1d be f8 8e 64 3e
       -0.056861274 0.10362558 -0.1540161 0.22320163
0001b0 ca 05 86 3d 91 c5 43 3b 59 80 b2 3d 6b b5 c3 3c
       0.06544073 0.0029872397 0.087158866 0.023890218
0001c0 d9 84 14 3c dc 55 3a be 8a 33 79 3e 5a 2b 43 3c
       0.0090648765 -0.18196815 0.24336067 0.011912191
0001d0 24 4d 25 be d8 7f ea bc 7c f2 65 bc b7 f8 a7 bd
       -0.16142708 -0.028625414 -0.014034864 -0.082017355
0001e0 a1 de 58 3e cf 7b 0b be 2c fd 4e 3a 79 a1 c9 3d
       0.21178676 -0.13621448 0.0007896002 0.098452516
0001f0 92 be 82 3e fa a0 12 bc 9e a9 e1 3b 20 e0 36 3e
       0.2553602 -0.008949513 0.006886675 0.17858934

actor.2.weight f4 [64, 128]
000000 e3 99 0f be 85 3d 6d bd e3 47 a7 be b8 a9 9d 3d
       -0.14023547 -0.057919998 -0.32672033 0.07698387
000010 d1 c2 e5 3c d3 db 1c 3e 8c c1 03 3e e9 48 fe 3a
       0.028046997 0.15318231 0.12866801 0.0019400391
000020 d0 25 da bd 08 c5 e0 bd 66 39 e9 bb 78 d5 27 bd
       -0.106517434 -0.10975081 -0.007117438 -0.040975064
000030 08 9e b6 3c 49 14 9b bc c1 0e 5f be 76 df 14 3e
       0.022292152 -0.018930571 -0.21782972 0.14538369
000040 e4 3e c3 bd 31 88 8f 3d c0 92 d6 3d dd 51 00 be
       -0.0953348 0.07008398 0.10477209 -0.12531228
000050 e4 59 b1 3d 8f 3c c7 bd 72 6d b6 3c 7b 9a 11 be
       0.086597234 -0.097283475 0.022268984 -0.14219086
000060 22 3a 64 bd 6b e0 db 3d 46 d8 9c bd ba 30 f9 3c
       -0.055719502 0.10736164 -0.076584384 0.030418742
000070 58 02 cc bd 3f db 1d bb 55 aa 2b be fc b3 3d 3d
       -0.099613845 -0.002408698 -0.16764195 0.046314225
000080 50 be d1 3c 45 13 8c 3d 3b d1 5a 3e d7 e6 67 3d
       0.025603443 0.06839613 0.21368878 0.05661663
000090 58 93 9a bb 41 f2 b4 3d 52 94 1a bd 7b 96 68 bc
       -0.004717272 0.08835269 -0.037739106 -0.014196034
0000a0 bd cd 7e bd 39 53 d5 bd ef 96 9d bd ea 6e 38 3c
       -0.062207926 -0.10416264 -0.07694804 0.011256913
0000b0 8a 6f 7b 3c 67 f5 41 3d b2 51 2f 3d 34 d5 37 be
       0.015346417 0.047353175 0.04280252 -0.17952424
0000c0 96 cb 8a bd 49 0b 66 bc a7 cf 82 3c 43 e4 3d 3c
       -0.06777112 -0.0140407765 0.015968157 0.011590066
0000d0 75 14 5f 3d cf 84 6c bd 71 1e 34 bd 9b b8 1b 3e
       0.05446287 -0.057743844 -0.043974344 0.1520714
0000e0 6f f6 13 be 38 f6 09 3e f5 ff 64 3c 33 03 4b 3d
       -0.14449476 0.13472831 0.013977041 0.049563598
0000f0 17 38 0d bc 4f dc 06 bd f5 7f b6 3d 05 5a 30 3e
       -0.00861933 -0.032924946 0.089111246 0.1722184
000100 f6 c8 15 be 79 f0 b7 bd db f4 2e be ad 7e a5 3d
       -0.14627442 -0.089814134 -0.17085592 0.08080802
000110 f9 76 0c 3c a0 cd 4a 3d 6a ba 79 bd 2b 70 26 be
       0.008573287 0.049512506 -0.060968794 -0.16253726
000120 38 29 2a be 55 71 32 3e c1 fc 6b be 03 f9 2b bd
       -0.16617286 0.17426045 -0.23045637 -0.041985523
000130 42 6b 57 3d 17 5d b3 bc 20 7f a7 bd e7 59 e2 3d
       0.052592523 -0.021894975 -0.08178544 0.11052304
000140 d1 d5 24 be 83 84 62 3a 89 34 03 3e 65 12 32 bd
       -0.1609719 0.00086409616 0.1281301 -0.043474574
000150 a1 22 64 bd 4a 48 39 bd 4d 97 31 bd e4 68 b9 bd
       -0.055697087 -0.045234956 -0.043357182 -0.090532094
000160 b9 04 df 3c 5e 54 6a bd f8 d3 a6 be aa cd 6a 3c
       0.027223932 -0.057209365 -0.32583594 0.014331261
000170 bd 00 d3 bd 82 fc e2 3d fc 84 5e 3e 28 ad 97 bc
       -0.10302875 0.11083318 0.21730417 -0.018515185
000180 69 b6 e6 3d 65 a5 24 bd 78 26 23 bc 3b f3 97 bc
       0.11265261 -0.040196795 -0.009957902 -0.018548599
000190 bb 6a aa 3d fc 55 0e 3e 87 86 8b 3c 6b 6c 99 bd
       0.083211385 0.13899988 0.017031921 -0.07491382
0001a0 03 ed f4 bd 6c a3 56 3c bf 69 9f 3e 9d 67 71 3d
       -0.11959269 0.013100486 0.31135365 0.058936704
0001b0 cf 28 7f 3d ce 62 d2 bb 10 2d 4b bd e4 5e ff 3d
       0.062294777 -0.00642047 -0.04960352 0.12469271
0001c0 70 e5 68 3d 06 09 a5 3d 40 30 d8 3d 9b 6b 73 bd
       0.056859434 0.08058362 0.10556078 -0.059428792
0001d0 ea a4 67 3d 8f fa 8c 3d f4 e2 00 bb d4 1f 3b 3e
       0.05655376 0.06883728 -0.0019666525 0.1827386
0001e0 f0 e3 6a bb 78 e7 21 3d 6a 16 e9 3c fa 1b c1 bd
       -0.0035841428 0.039527386 0.02845307 -0.09429164
0001f0 18 9b 1f 3d 79 86 c0 bd 1f e3 23 3c 76 6b a2 bc
       0.03896627 -0.094006486 0.01000288 -0.019826632
000200 b5 ba 11 3d 4a 39 a6 bd 28 39 88 3e f6 a4 96 3c
       0.03557845 -0.08116396 0.26606107 0.018389206
000210 96 e3 10 bd 24 f8 de bc ca a7 3e bd ff ae b1 bd
       -0.035373293 -0.027217932 -0.046546735 -0.08675956
000220 ed a4 ad 3d 95 6d db bd 8d ae 30 3d 1f 4d cd 3c
       0.08478723 -0.107142605 0.043135215 0.025061188
000230 79 18 fd 3d 85 84 30 3e 1b 5d fc 3d 1b d0 a7 3d
       0.123581834 0.17238052 0.12322446 0.0819399
000240 5e 27 10 bd aa 3c 91 3d 2a 37 c0 3d d3 78 85 3c
       -0.035193793 0.07091649 0.09385522 0.016292965
000250 88 18 31 bd bc 45 8e bc 57 65 f7 3d da 29 99 3c
       -0.043236285 -0.017367236 0.12079876 0.018696714
000260 e0 d3 1f bd 1a d7 fb 3d b7 29 90 bd 8f 99 c8 3b
       -0.03902042 0.12296887 -0.070392065 0.0061218212
000270 e0 e3 27 3e b1 c9 be 3b e1 ad 37 be 4c 11 e8 bc
       0.16395521 0.0058223833 -0.17937423 -0.02832856
000280 19 a0 65 3d b7 48 e3 3a 0e b7 e9 bd e6 02 18 3d
       0.056060884 0.0017340396 -0.11411868 0.03711214
000290 c3 f4 84 bc 74 bf 01 3e 0d 86 c9 3d bd e8 d8 3d
       -0.016229993 0.1267069 0.09840021 0.10591266
0002a0 2c 93 b8 bc 4c cd 5f bc 11 de 4d bd c8 ac 27 3e
       -0.022531115 -0.013659786 -0.050260607 0.16374505
0002b0 b5 dd dd bd 0f f0 4d 3d a2 29 a8 3d 30 d9 ad 3c
       -0.10833303 0.050277766 0.08211066 0.021221727
0002c0 9d c3 4c 3c 3e 41 8f 3e 57 1d 55 3d c7 fe 14 3e
       0.01249781 0.27979463 0.052029934 0.14550315
0002d0 b5 91 69 bd ea 86 8e bc f6 c6 8c bc ac a7 fc 3c
       -0.057023723 -0.017398316 -0.017184716 0.03084167
0002e0 11 bf 07 be 60 db 39 bc d6 e2 05 3e e1 21 90 bd
       -0.1325648 -0.011343807 0.13074812 -0.07037712
0002f0 01 09 52 bd 98 66 32 3d 80 7a 3c 3d 87 cf ca 3c
       -0.051278118 0.043554872 0.046015263 0.02475716
000300 ff e8 86 3c fd 8b 0e 3e ff c8 13 3e 71 0e 4d bd
       0.016468523 0.13920589 0.14432143 -0.0500626
000310 b5 60 af 3e 09 4d 91 3c 2c 0b 7d 3e b6 a0 02 3b
       0.3425347 0.017736929 0.24711293 0.0019932217
000320 13 9b b5 3c 4c fd d3 bd c9 29 8a 3e 26 43 e9 3d
       0.022168672 -0.10351047 0.26985005 0.11389761
000330 47 03 1a bd 7d 07 56 bd 3f d1 40 bd c9 e9 c5 bd
       -0.03760078 -0.052253235 -0.047074553 -0.096637316
000340 96 68 66 3d 78 3c 88 3d c9 a1 94 3c a6 e8 7d bd
       0.056252085 0.066521585 0.018143551 -0.06198945
000350 6c 80 12 be 66 92 81 bb 0f 4d 57 3d e0 e7 1e 3e
       -0.14306802 -0.0039542196 0.052563723 0.15518141
000360 69 23 dd 3c 36 97 0b b9 b5 08 f6 3d f0 e8 8c bc
       0.026994424 -0.00013312403 0.120133795 -0.017200917
000370 f2 96 93 3d ec cb e9 bc bd d1 75 bd 13 65 19 3e
       0.07206525 -0.02853962 -0.060014475 0.14979963
000380 d0 ab 72 bc a1 ac 44 3d 36 29 6e 3d 02 8e 4f bd
       -0.014811471 0.048016194 0.05814477 -0.05067254
000390 67 13 6c bd 49 b5 9f 3d cb 8f 3e 3e fa 24 18 3e
       -0.05763569 0.07798249 0.1860954 0.14857855
0003a0 e0 a0 0b 3e 46 a6 46 3b 01 20 b8 bd a3 63 ab bd
       0.13635588 0.003031151 -0.08990479 -0.083686136
0003b0 57 18 3e bd d2 53 d2 3d e7 d9 82 3a c7 ce 35 3d
       -0.04640993 0.10269894 0.0009983153 0.04438665
0003c0 9f 9a 99 3c 8f b4 53 be 90 12 e6 bc ac 93 4e 3e
       0.018750487 -0.20674346 -0.028085023 0.2017352
0003d0 65 b0 0c be 2f 66 39 bc 61 2e 87 bd ea 73 a9 bd
       -0.13739164 -0.011315866 -0.06600643 -0.08274062
0003e0 89 98 54 bd 6d 92 b6 bd 16 28 08 3d 28 05 37 be
       -0.05190328 -0.08914647 0.033241354 -0.1787306
0003f0 35 b6 eb 3d 83 c8 19 3e a0 79 72 3b 7a 88 40 bd
       0.115093626 0.15017895 0.0036998764 -0.047005154

actor.2.bias f4 [64]
000000 f7 90 cd bb fd a2 25 3d 28 6f 92 bd 7e 49 60 3d
       -0.0062733847 0.04043864 -0.071501076 0.054757588
000010 d2 96 d2 bd fb eb 7f 3c 7a 32 dd 3b 1c 07 bf 3d
       -0.10282673 0.015620227 0.006750402 0.09327528
000020 62 8b 0c 3d 49 92 b5 bd 8a 0f 8b 3d 71 01 14 3d
       0.034312613 -0.08865792 0.06790073 0.036134187
000030 db 25 8f bd a8 a5 e4 bd 65 a1 cc 3d b5 2c ef 3c
       -0.06989642 -0.11164409 0.09991721 0.029196123
000040 24 8b 1d bb b9 3c c7 bd 77 02 0d 3d 73 98 ef bd
       -0.0024039233 -0.09728379 0.03442618 -0.11698999
000050 81 9e 04 3e a9 5b e3 3d c3 86 0c 3c 89 7a 2f 3a
       0.1295109 0.11101467 0.008577052 0.00066939794
000060 c0 cd 2d 3d cd c6 7f 3a 3e 18 d8 3d cf 79 10 3e
       0.042432547 0.00097571017 0.10551499 0.14108966
000070 17 93 01 3e a3 6a 49 3d 9d 0e fb 3c 7d ba 06 3e
       0.12653767 0.049173962 0.030646617 0.13157077
000080 52 9e e2 bb 9c 52 a0 3d 95 5d 0b be 13 df 7e 3d
       -0.006915846 0.078282565 -0.13609917 0.06222446
000090 97 dc e6 3d 02 59 38 3e 5f 65 ce bc 29 ca 79 3d
       0.11272543 0.18002704 -0.025194822 0.06098381
0000a0 a3 3a 24 3d 79 27 9e 3d ae e7 c8 bc 10 c7 9d 3d
       0.040094983 0.077223726 -0.024524536 0.07703984
0000b0 9f 7a 6b 3d f1 35 a9 3c b2 3c 74 3d b3 b9 09 3b
       0.057489987 0.020655604 0.059628196 0.0021015226
0000c0 a1 6b 32 3e 44 26 c4 3c be 02 0a 3c 1c 89 f9 bb
       0.1742387 0.023944028 0.008423505 -0.0076152217
0000d0 07 0b b9 3d f6 4e 89 bd 71 0c 1f bd e4 06 9a 3c
       0.090353064 -0.06704514 -0.038830224 0.018802114
0000e0 78 a9 78 3c 80 f2 f6 3d 0e 8b a9 bd 1d 65 f3 3c
       0.015177123 0.12057972 -0.08278476 0.0297113
0000f0 60 dd c5 bc 77 54 81 3d e0 ca 7f bd 8c da 36 3e
       -0.024153411 0.063149385 -0.062449336 0.17856807

actor.4.weight f4 [16, 64]
000000 8b 2c b1 bd a4 db 3f 3d 2e c2 d0 3c 55 4a 39 3e
       -0.08651074 0.046840325 0.025483217 0.18094762
000010 4f 1b ff bd 30 2c 20 3e 4b 11 0e 3d 24 de 86 bc
       -0.124563806 0.15641856 0.03468446 -0.016463347
000020 a4 4d a2 bd 93 73 61 be 34 a6 4d be 5d 5d 8b bd
       -0.07924965 -0.22016744 -0.20082933 -0.06804917
000030 b6 69 91 be 86 ad c8 bd 5d c3 00 be 9f ca f8 bd
       -0.28400964 -0.09798722 -0.12574525 -0.12148022
000040 04 bc d3 3e 3b 22 33 bd 1f 59 f8 bd 02 a0 8f bc
       0.41354382 -0.043733817 -0.121263735 -0.017532352
000050 b8 d9 fb bd c1 b5 ab 3e 15 e9 02 be 23 ac 8b 3e
       -0.12297386 0.33537105 -0.12784226 0.27279767
000060 ab 50 08 3e 76 4d b4 be 32 75 31 3e b5 d7 0e 3e
       0.13312022 -0.35215348 0.17329863 0.13949473
000070 a8 75 35 3e d7 ed 35 3e cc c6 98 bd b9 8c 6a 3e
       0.17720664 0.1776651 -0.074597925 0.22905244
000080 51 cd dc bd 72 2e 9a bd 64 8c 47 be 45 81 7c 3e
       -0.107813485 -0.0752839 -0.19487149 0.24658687
000090 b3 0b 2b be 3f d9 bb 3d d1 dc 1f 3e 8f 55 08 3e
       -0.16703682 0.09172296 0.15611579 0.13313888
0000a0 34 8b d2 bd 13 2c 78 be 30 8d 2d be 6a 90 21 bd
       -0.10280457 -0.24235563 -0.1694839 -0.039444365
0000b0 7d c3 09 be 3d e5 2c be 5b ff 36 3d cb 1a ad bd
       -0.13453479 -0.16884322 0.04467712 -0.08452376
0000c0 c9 68 96 3d 7b ba ed 3d 2e 0a 40 bd c3 f1 50 bd
       0.07344205 0.11607834 -0.046884708 -0.051011812
0000d0 f4 79 21 3e c0 40 e8 3d ac 5f 50 be 3c d8 c9 bd
       0.15769178 0.11340475 -0.20348996 -0.098556966
0000e0 06 41 21 3e a9 52 5c 3e 5b 1d 7a be b3 35 64 3e
       0.1574746 0.21515907 -0.2442526 0.2228611
0000f0 23 70 a0 3d 95 46 1c 3e 73 3e e2 bd 95 5a 11 3e
       0.078338884 0.152613 -0.110470675 0.1419471
000100 dd d0 81 3e 69 e3 a1 be 07 73 51 3c 33 da c6 be
       0.25354663 -0.31618813 0.012783772 -0.38838348
000110 c4 f9 1e be 2d 2e f4 bd e6 ab f1 bd 62 a1 a5 bd
       -0.15524966 -0.1192287 -0.11800365 -0.08087422
000120 e4 2d 72 be c7 44 0f be d2 e3 48 3e c0 dc 84 3e
       -0.23650318 -0.1399108 0.19618157 0.2594967
000130 89 fc f2 bd 63 8e 95 3e a6 c6 86 3d ce 17 a5 3e
       -0.118645735 0.29210195 0.06580858 0.32244724
000140 f5 6e b3 be 50 43 78 bd ac a4 5c bd 8c df 8c 3e
       -0.3504559 -0.06061107 -0.05386798 0.27514303
000150 9b db cd be c5 bd 66 3e 9b ce 94 3d 51 51 ce bd
       -0.40206608 0.22533329 0.07265969 -0.100741036
000160 1b 68 94 bd fd c0 f5 3d 0d c2 ba 3d 84 58 51 be
       -0.07246419 0.119997 0.091190435 -0.20443922
000170 fe 56 59 3b b2 87 de 3c fe 34 26 be 22 11 73 3d
       0.0033163424 0.027164314 -0.16231152 0.05934251
000180 07 69 3f bd 4e a7 9e 3e 3a d5 78 3e 24 b4 47 be
       -0.04673102 0.30987018 0.2430009 -0.19502312
000190 90 f0 92 3e 3a 23 07 be c1 1b 98 3c ac 0f 9b bd
       0.2869916 -0.13197032 0.018567922 -0.075713485
0001a0 c7 19 29 3d cb f6 09 be 73 88 ae 3e 36 54 dd bd
       0.04128435 -0.1347305 0.34088477 -0.108070776
0001b0 f4 b9 70 3e 2c df ee bd 28 c7 2d 3e 0d 69 cd 3d
       0.23508435 -0.116636604 0.16970503 0.100298025
0001c0 e2 0b d7 3c 2f 5b 7d 3e 80 a9 57 be e6 20 67 3e
       0.026250783 0.24741815 -0.21060753 0.22571144
0001d0 24 f2 94 bd f4 e4 d1 bd 60 2a 17 3c 81 ca 77 bd
       -0.07272747 -0.102487475 0.009226412 -0.060495857
0001e0 81 68 18 3e e2 be a0 bd 83 11 8d bd 28 e4 30 be
       0.14883615 -0.07848908 -0.06888106 -0.17274535
0001f0 b0 f8 4f be 2e 33 18 3e 78 d9 0a 3e fc 7d b0 3d
       -0.2030971 0.14863274 0.1355952 0.086177796
000200 ea e1 68 3d ce df 37 be 04 65 94 3b 97 c9 96 3d
       0.056856073 -0.17956468 0.0045286436 0.07362669
000210 b4 8c 4a 3d b2 98 f3 3d 74 46 37 bd 10 b7 99 bd
       0.04945059 0.11894359 -0.044744924 -0.075056195
000220 dc 37 85 bd d5 f3 17 3e db e9 13 3e 6c 41 83 bc
       -0.06504795 0.14839108 0.14444678 -0.016022407
000230 2b 4c 8c 3d 67 cf c8 3d f4 8a a1 3c 42 cb c8 bc
       0.068504654 0.09805184 0.019719578 -0.024510983
000240 6e c8 2b be fe d0 2e bd d0 c1 bc bd 4a 02 1f 3e
       -0.16775677 -0.04267978 -0.09216654 0.15528217
000250 a7 05 bf 3d a4 21 0c 3c 14 8c 01 bc dd e2 83 bc
       0.0932725 0.008552942 -0.007906932 -0.016099388
000260 4a b8 e2 bd fb 26 39 3e f4 a4 07 3d af c2 8b be
       -0.110703066 0.18081276 0.033116296 -0.2729697
000270 23 27 21 be 69 43 42 be 5d 61 bf bd 10 1a 38 bd
       -0.15737586 -0.18971027 -0.093447424 -0.04494673
000280 d7 5d 74 bd 74 59 37 3e c4 17 af 3d 52 cd 5e be
       -0.059659805 0.17905217 0.08549455 -0.21758011
000290 3f 91 83 bd 04 dd 2e bd ba b2 a3 3d 60 c1 04 be
       -0.06424188 -0.042691246 0.07993074 -0.12964392
0002a0 6c cd f0 3d c1 ab 00 be d1 66 9b 3c f1 df 06 be
       0.11757931 -0.12565519 0.018969925 -0.13171364
0002b0 3c 8b 64 3e 3c 6f 68 bd aa bb cb 3d 24 a9 70 3d
       0.22318739 -0.056746706 0.099479035 0.058755055
0002c0 2b 99 47 3d 45 4a 07 be fb f2 e5 bc 76 76 ff bd
       0.048730057 -0.13211925 -0.028069964 -0.124737665
0002d0 0f b6 e4 bd 58 81 b4 3d 89 85 d0 bd 17 9d f7 bd
       -0.111675374 0.08813733 -0.1018172 -0.120905094
0002e0 a3 25 3d bd b7 2e 06 be fe ae c6 3d dd e5 36 bb
       -0.04617847 -0.13103758 0.09701346 -0.0027908005
0002f0 42 c6 51 3d 09 d3 61 3d e0 82 97 3d 4c 10 d5 3d
       0.051214464 0.0551329 0.07398009 0.10403499
000300 12 00 2c be 1c 9f 82 3d 89 1b fc 3d c6 d1 17 be
       -0.16796902 0.06378004 0.123099394 -0.14826116
000310 33 29 84 be fe 3c ce be 98 1e 33 3e 2d fa c9 bc
       -0.25812683 -0.40280908 0.1749214 -0.024655426
000320 5a b9 aa be 66 f9 d3 3d 39 25 1b bd 26 90 66 be
       -0.33344537 0.10350303 -0.037877295 -0.22515926
000330 10 70 53 be 3b 37 3a be 8a 98 c0 3e 73 ba 6a bd
       -0.20648217 -0.18185131 0.37616378 -0.057306718
000340 66 af 17 be a5 72 21 3e 54 9e c8 bd 7a c9 d2 be
       -0.14813003 0.1576639 -0.09795824 -0.4116934
000350 24 a4 f6 3e 97 5f fc be e7 4c cb 3e 2d 27 a3 be
       0.48172104 -0.4929168 0.3970711 -0.31865826
000360 24 c8 20 3d 3a ec 13 bd 50 3c 00 3e ff 39 8b 3e
       0.03925337 -0.036113955 0.12523007 0.27192685
000370 4d 33 e0 3d 2a d5 9c 3e 14 12 eb bd cf a4 b2 3c
       0.10947285 0.3063138 -0.114780575 0.021807102
000380 a8 00 81 bd 0a 33 b2 3c 8e 77 b5 be e1 85 28 be
       -0.06298953 0.021752853 -0.35442775 -0.16457321
000390 22 56 96 bb c2 75 ac bd 59 8a 89 be ef f4 c3 3c
       -0.0045879046 -0.08420898 -0.26863363 0.023920504
0003a0 a1 ec 4c 3e b0 c8 4b 3e 10 ff ad 3d 09 9e 4e bd
       0.20012142 0.19900775 0.08495915 -0.050443683
0003b0 64 95 17 be 6e 51 97 3d 43 93 11 be b8 d7 be bd
       -0.14803082 0.07388578 -0.14216332 -0.09318489
0003c0 1a 96 7a bb 1f e6 8a be 48 2a 99 3e 19 9d 1a be
       -0.003823644 -0.27128693 0.2991507 -0.1509899
0003d0 61 5f 97 3d 6e 63 8e 3d 0a 91 34 3e 67 e6 a7 3d
       0.07391239 0.069525585 0.17633453 0.08198243
0003e0 a4 a7 82 3c 41 38 2b be 36 2e 53 3e db da f7 3d
       0.015949078 -0.16720678 0.20623097 0.1210229
0003f0 d8 0f 42 3d 2f 3c de bc db 45 24 bd 77 41 b6 3d
       0.04737839 -0.027128307 -0.040105682 0.08899205

actor.4.bias f4 [16]
000000 13 6f 3d 3e ff ed a2 bd 21 5a 3c 3d d7 c1 07 bd
       0.18499403 -0.079555504 0.04598439 -0.033143844
000010 89 e3 57 3d b2 c2 2d bc 87 53 98 3d d3 20 96 bc
       0.05270723 -0.010605501 0.074378066 -0.018326199
000020 08 d2 16 be 3f 0a 95 bc 18 30 34 bc 08 02 9c bd
       -0.14728558 -0.018193362 -0.010997795 -0.07617575
000030 aa ea 84 3c 6f d7 6d be e8 17 a7 bd 8c 56 37 bd
       0.016225178 -0.23226713 -0.08158857 -0.044760272

critic.0.weight f4 [128, 35]
000000 b3 a7 6a bd 14 8c 45 be 2b 73 b2 bd 85 73 eb bd
       -0.057288837 -0.19291717 -0.08713373 -0.11496643
000010 8b b5 50 be 02 81 4b be cc bc 66 be c5 49 90 be
       -0.20381753 -0.19873431 -0.22532958 -0.28181282
000020 cb e4 06 be 91 ef 58 be 58 b7 ca 3e 84 42 c4 3e
       -0.13173215 -0.21185137 0.39593005 0.38331997
000030 30 ba 1b 3e 10 41 29 be ba 2b 5e be 0e b2 c4 3e
       0.15207744 -0.16528726 -0.21696368 0.38417095
000040 9d 82 43 be e6 3a 04 be 9b 6a 8f bd b2 ab 78 bc
       -0.19092794 -0.12913093 -0.07002755 -0.015177654
000050 26 c9 bd bd 3d 5e 02 be b1 cc 99 3d 07 50 cd 3c
       -0.09266882 -0.12731262 0.07509745 0.025062574
000060 ac ba 07 3e e7 fa 22 be 55 c2 81 bd ef fe 13 3e
       0.13254803 -0.15916024 -0.06335894 0.14452718
000070 2d ac 93 3c ca ba 73 be f7 3d 31 3c c7 74 d1 3e
       0.018026436 -0.23801723 0.010817996 0.40909407
000080 d7 be 0c 3e 92 ff d4 3d c8 4e 0b bc 13 e6 49 3e
       0.13744675 0.10400309 -0.00850267 0.19716673
000090 b9 1a ce 3c f2 d2 57 3e c6 72 63 bd 3a 1c 9a 3d
       0.025159227 0.21076563 -0.05552938 0.07524915
0000a0 07 ba 5d 3e 2a c5 ed 3d db 58 92 3e 1b ab 69 3c
       0.21652995 0.11609872 0.28583416 0.014261986
0000b0 49 22 de 3d c4 2e 42 bf fd 5d 18 bf f5 a5 77 be
       0.10846383 -0.7585261 -0.59518415 -0.24184401
0000c0 4a 59 c9 bd ad 5b 6b be 2f 69 80 3e 40 de e2 bd
       -0.09831484 -0.2298419 0.2508025 -0.11077547
0000d0 83 b1 1a bd 93 44 73 3d a3 96 28 bd 4f 6d d8 3d
       -0.037766945 0.05939157 -0.041159283 0.10567724
0000e0 3b da 06 3e 03 ff d1 bd 23 08 d4 3d 18 f5 45 bd
       0.13169186 -0.10253718 0.103531145 -0.048329443
0000f0 01 af 79 bd 4d 79 20 3e d9 7b 06 bc 98 da a8 3d
       -0.060957912 0.15671273 -0.0082082385 0.082448184
000100 bf 63 98 3b 93 65 01 3e 6c e0 47 bd f6 1f dd 3d
       0.0046505625 0.12636404 -0.04879801 0.10797112
000110 e4 14 c0 3b f4 1d 26 be 30 25 c1 3d 95 98 44 3e
       0.0058618654 -0.16222364 0.09430921 0.1919883
000120 a2 67 2e 3e d2 80 6d 3e a5 f0 3d 3e ed cc 39 3b
       0.1703172 0.23193672 0.1854883 0.0028350905
000130 fb 02 18 3e 53 ce 53 bd 66 71 67 3e 7a 98 e6 bc
       0.14844887 -0.051710438 0.22601852 -0.028148878
000140 d0 42 1e bf c3 8a 36 bf 39 cc 93 3b 0f bd ad be
       -0.618207 -0.71305484 0.004510429 -0.33933303
000150 85 2f 1b be dc a2 ce 3d 6d 6a 6d 3d 15 1e 81 bd
       -0.15154846 0.10089657 0.057962824 -0.06304566
000160 d7 d9 36 3e 10 f5 fa bc 87 d9 bb 3d c8 bb be bd
       0.17856537 -0.030634433 0.091723494 -0.0931316
000170 e3 39 13 bd 71 21 16 bd 8e 1e 47 3e 0a 48 78 3d
       -0.035943877 -0.036652986 0.1944525 0.060615577
000180 8b 6b 8e 3c eb d4 38 bc b6 ce c6 3d f5 e1 9a bd
       0.017385265 -0.011281232 0.09707396 -0.07562629
000190 3a 14 56 3d 3a d2 8c bc 6e 31 01 3d 8c f0 86 be
       0.052265383 -0.017190088 0.03154128 -0.26355398
0001a0 4e 24 dc 3d 1a 09 cb 3d 4a a0 d4 3d 0a 36 2e 3e
       0.10749112 0.09913845 0.10382135 0.17012802
0001b0 56 ca 01 3e d7 74 1d 3e 28 dd f7 3a c5 52 00 bd
       0.12674841 0.15376602 0.0018910514 -0.031328935
0001c0 5c 29 09 be 03 47 2c be 4c e3 fc bd e1 02 7b bf
       -0.13394684 -0.16823964 -0.12348041 -0.9805127
0001d0 6f f7 1e be 37 a6 aa 3c dc 7d 2e be 11 84 13 3e
       -0.15524076 0.02083121 -0.17040199 0.14405848
0001e0 f9 df ad 3e 25 9f 97 bd 35 29 c9 bd ce 67 33 be
       0.3395994 -0.07403401 -0.09822313 -0.17520067
0001f0 b7 67 e9 bd 45 80 04 be b1 b6 55 3e 19 20 8c 3d
       -0.11396735 -0.12939556 0.20870472 0.0684206
000200 35 58 92 3b 2c 9d 04 3e f2 72 4c bd 71 ea 0e 3d
       0.0044660815 0.12950581 -0.049914308 0.03489155
000210 20 75 36 3d 08 9e d6 bc 36 a8 da 3d 68 bf 5a 3e
       0.044545293 -0.026198402 0.10676615 0.21362078
000220 86 d6 48 3e 42 a3 3d 3e 83 46 f8 3d 6d ca 11 3e
       0.19613084 0.18519309 0.12122824 0.14237376
000230 5b 72 c5 ba de 4a f6 bd bb 07 fe bc 9f 23 ab bc
       -0.0015063988 -0.120259985 -0.031009546 -0.020891009
000240 28 5c 2f bd 4e b9 f2 bd 26 b9 bc bd c0 ad 3e be
       -0.042812496 -0.1185175 -0.09215002 -0.18620968
000250 05 0c 66 be e5 85 c7 be 58 08 83 3f 48 54 47 bf
       -0.22465523 -0.3896934 1.0236921 -0.7786298
000260 3b 2a 8a 3d ec d5 15 3e ca ef dd 3e bf 80 fe bc
       0.06746336 0.14632386 0.43347007 -0.03106725
000270 6a 86 a8 3e 85 2b 61 3e a3 b6 1c 3e 03 86 c9 3e
       0.3291505 0.21989258 0.15304045 0.39360055
000280 6c 8b 0e 3e d8 34 c0 bc 16 bf a7 bd 14 e3 c9 3c
       0.13920373 -0.023462698 -0.081907436 0.024644412
000290 7a 20 b2 3c 8a 80 4a bd a0 3b e4 bd 1d 97 a5 3c
       0.021744002 -0.04943899 -0.11144185 0.020213658
0002a0 cf c2 40 bc c6 df ee 3d 9e 4b fd 3e 21 be 22 be
       -0.011765196 0.11663775 0.49471754 -0.15892841
0002b0 b6 72 81 3e 8f 85 06 be 26 96 05 be 2b d7 a1 bd
       0.2528283 -0.13136886 -0.13045558 -0.07902368
0002c0 d3 84 b1 3d 78 91 d9 bc 7f 1c 37 be f0 c9 a0 bd
       0.08667912 -0.026558623 -0.17881964 -0.078510165
0002d0 10 e9 e2 bd f3 b7 9c bd 34 db 38 be 70 6e 46 be
       -0.110796094 -0.07652273 -0.1805237 -0.19378066
0002e0 a4 07 11 be 40 84 dd 3e e7 8b 96 bd f0 9f 75 3e
       -0.14163071 0.4326496 -0.07350903 0.23986793
0002f0 10 a6 44 3e 7d 2c 87 3e 25 d8 70 3d 10 24 f2 3d
       0.19203973 0.2640113 0.05879988 0.118232846
000300 5b 44 f6 3d bf 66 21 3e c7 d7 f7 3d e2 66 42 be
       0.120247565 0.15761851 0.12101703 -0.18984559
000310 cb 03 ed 3c 84 72 04 be 38 58 14 be 30 ad d2 bd
       0.028932473 -0.12934309 -0.14486778 -0.10286939
000320 0b 55 1b bd b3 13 9e bd 63 e2 b1 3b b3 0e 1b 3d
       -0.0379229 -0.07718601 0.0054285987 0.037855815
000330 1a a1 87 bd 8e 60 04 3d 2c f4 de 3d cf 63 ec 3c
       -0.066225246 0.032318644 0.10886416 0.028856186
000340 44 75 0f bb 5e 2e 02 3e 99 5f c1 3d eb ed 92 bd
       -0.0021889964 0.12713 0.09442062 -0.071742855
000350 3e 5a 2a 3e b0 5b fd 3c 86 6d df 3d 20 c2 a9 bd
       0.16635987 0.03092751 0.10909562 -0.082889795
000360 98 c1 ed 3d bb cc b9 3d fb 91 2e 3e a0 02 4d 3e
       0.11609191 0.09072252 0.17047875 0.20020533
000370 58 9d 16 bf 05 0e 1c bf bd fa c2 3c 10 92 c9 bd
       -0.5883384 -0.6095889 0.023801202 -0.09842312
000380 9f 15 29 3e 8d 21 c0 3e ee 19 d6 bd d1 cb a6 3d
       0.16512154 0.37525597 -0.104541644 0.08144344
000390 9d 15 cb 3c 09 d5 20 3e 8e cb 3b 3e af cd 5a 3c
       0.02479058 0.15706266 0.18339369 0.013354703
0003a0 f7 f6 2c 3c 75 02 e5 bd 89 1e 20 3e 98 c4 a7 3a
       0.010556928 -0.11182109 0.15636648 0.0012799678
0003b0 70 30 e7 3d f1 42 bd bc af 7f 71 bd cf cd 0f 3e
       0.112885356 -0.02310321 -0.05895966 0.14043353
0003c0 ef 53 9d 3c 93 eb e0 3d 07 d1 db 3e ca 0d 61 3e
       0.019205062 0.10982432 0.42932913 0.21977916
0003d0 b6 6a 40 3e 7c e7 dd 3d e8 2d e2 3d e7 df f6 3d
       0.18790707 0.10835168 0.11043912 0.12054425
0003e0 27 2a c9 3d c7 50 2a 3e 33 a5 64 3e a4 d9 4f 3e
       0.09822493 0.16632377 0.22328644 0.20297867
0003f0 cf 2a e4 bc 32 76 cf bd 13 ee f8 3d 29 de b6 be
       -0.027852444 -0.10129966 0.12154784 -0.3571637

critic.0.bias f4 [128]
000000 74 4b 03 be df 62 63 bd 63 83 9a 3c 44 bd 60 be
       -0.12821752 -0.055514213 0.018861478 -0.21947199
000010 a2 14 9c 3e 2a ac ab bd 8d a6 84 be 0f a2 71 be
       0.30484492 -0.08382447 -0.25908318 -0.23596977
000020 e9 95 cd b9 0f 87 c9 bd 8a 3f 3e 3e 48 fe 90 3e
       -0.0003921234 -0.098402135 0.18578926 0.28319
000030 01 e2 33 3e 6d 62 9e be 3d 81 4b be 1c b1 ed bd
       0.17566682 -0.30934468 -0.19873519 -0.116060466
000040 5e 98 75 be c1 58 79 3e 5f 47 cd 3d f8 17 60 3e
       -0.23983905 0.24350263 0.100233786 0.21884143
000050 70 31 5e 3e 8c 05 40 be d0 9f 0a be b6 14 ce bd
       0.21698546 -0.18752116 -0.13537526 -0.10062544
000060 45 e6 d3 3e c9 4c fa bb 41 b3 c0 3d a1 b9 ba 3d
       0.4138662 -0.007638548 0.0940919 0.09117437
000070 44 5b c7 bc 1e 1b d4 3d 1e a9 40 3d e3 58 f3 3d
       -0.024335511 0.10356735 0.047036283 0.11882188
000080 48 44 c4 3e 71 87 f1 3d 67 fc 62 bc 7e 4d 2a 3e
       0.38333344 0.117934115 -0.013854123 0.16631123
000090 b0 6b ac bc 29 a3 82 bc 5d e6 4d 3d b6 93 3c bd
       -0.021047443 -0.015946941 0.05026852 -0.046039306
0000a0 c0 a3 27 bd 69 85 9f bd bc e2 6b be f7 d5 36 3e
       -0.04092765 -0.07789118 -0.23035711 0.17855059
0000b0 b8 a5 1e 3e cb b2 a4 3c 53 38 82 bc 27 e7 fa 3c
       0.15492904 0.020104786 -0.015895998 0.0306278
0000c0 62 3b 49 3e ec 25 90 be 7c 49 9b bb 09 07 8c be
       0.19651559 -0.28153932 -0.0047389846 -0.27349117
0000d0 22 a7 9d 3d 45 a5 98 be cd d6 80 be 79 e6 c3 3d
       0.07697894 -0.2981359 -0.2516388 0.095654435
0000e0 89 d6 31 3e 99 fb 94 3c fb 2c b5 bd 6a 14 d6 3d
       0.17366995 0.018186377 -0.0884647 0.104531124
0000f0 f5 b7 33 3e e0 7d 3c 3e 5c 15 f8 3d 11 25 a2 3d
       0.17550643 0.18407393 0.12113449 0.07917226
000100 a6 25 0b 3d a9 85 2b be 5c 34 a9 3e c2 70 38 3e
       0.03397145 -0.16750206 0.3304776 0.18011764
000110 f6 c1 3c 3e 72 2a 28 bc 2a 44 ee bc d6 95 c1 bc
       0.18433365 -0.010264026 -0.029085238 -0.023631018
000120 4d dc 93 bd 9d d5 02 bd f4 10 0e be 88 ed 6f be
       -0.072197534 -0.031942 -0.13873655 -0.23430455
000130 c9 45 9c bd fb 57 6e 3e cb 7a fd 3c ae 58 f2 3d
       -0.07630498 0.2327575 0.030942341 0.118333206
000140 51 1a 92 bc 91 1b e5 bd 5c e5 e6 3c 57 3a 26 3e
       -0.017834814 -0.111868985 0.028185539 0.16233192
000150 89 7e 50 3e 45 49 0a 3e b2 85 b1 3d 48 e2 bd 3d
       0.2036077 0.13504513 0.086680785 0.09271675
000160 be 63 a0 bd 18 6a 2f 3e 31 60 12 bd 7f 7e 83 3e
       -0.07831524 0.17130315 -0.035736267 0.25682446
000170 cb ce 51 bc bb 70 43 3e 65 04 80 3d a1 dd 16 3d
       -0.012805651 0.19085972 0.06250838 0.036832456
000180 29 c1 97 bd 48 3e 44 3e d6 31 19 be 1e 50 b3 3d
       -0.07409889 0.19164383 -0.14960417 0.087555155
000190 a2 ef 37 3e fe 5e 4c 3e 87 56 48 3e 07 9a 43 be
       0.17962506 0.19958112 0.19564258 -0.19101726
0001a0 81 94 9c 3c 17 d3 0a 3e 28 42 7d 3d 3d 85 af 3e
       0.01911378 0.13557087 0.06183067 0.3428134
0001b0 bb 4e a5 3e 80 e0 40 be e0 13 28 3e b2 d3 d2 bc
       0.3228663 -0.1883564 0.16413832 -0.02573571
0001c0 d3 4c 6c 3e 78 61 42 bd e7 4f be 3e d2 08 0f 3e
       0.23076181 -0.047456235 0.37170336 0.13968208
0001d0 55 83 63 be 1e ae 8f be 6d ab 8b 3e bc ab 2a 3d
       -0.22218068 -0.28062528 0.27279225 0.041667685
0001e0 c7 ad ab bd 66 85 f7 bd 2d 04 80 be 3a aa c3 be
       -0.08382755 -0.120859906 -0.25003186 -0.3821581
0001f0 e8 d7 a1 3e e5 3a 62 3e c0 9d 74 be 16 18 d7 3d
       0.31610036 0.22092779 -0.23888302 0.10502641

critic.2.weight f4 [64, 128]
000000 a2 6c 76 bd 8d f5 19 bd e1 75 52 bd f4 77 ab bd
       -0.060162194 -0.03758769 -0.05138195 -0.083724886
000010 09 2e 35 3e 20 68 86 3d 73 be c8 bc 38 60 b4 3d
       0.17693342 0.06562829 -0.024504876 0.08807415
000020 cb 86 9d bd b7 56 0d 3e 5f 5a fd 3e 4c 86 b5 3e
       -0.07691725 0.1380261 0.4948301 0.35454023
000030 c0 35 89 3d fa 99 bb 3c cc c2 8d bd 05 26 e9 3c
       0.06699705 0.02290057 -0.0692192 0.028460512
000040 18 23 e4 bd e3 a2 60 3e 13 05 c5 bd 60 a4 84 bc
       -0.11139506 0.21937136 -0.096201085 -0.016191661
000050 09 3c b0 3d 8a 69 e0 bd f4 bc 53 bd 5c 52 9b bd
       0.08605201 -0.1095763 -0.05169387 -0.07584068
000060 52 f3 d0 3d cb e3 d8 3b d8 fa b6 3d 13 0f e9 b9
       0.1020266 0.006618952 0.089345634 -0.00044452454
000070 ee 48 ae 3d 8a d4 9f bd 5c ad 24 3e b9 c1 57 bd
       0.08510004 -0.078042105 0.16081756 -0.052674983
000080 b1 86 84 3e 68 9f 29 3e b4 8c 06 3d 1e 07 b9 3d
       0.2588401 0.16564715 0.03284903 0.090345606
000090 d0 19 75 3c ca cf 54 3d 8e db 5e 3b c3 2e 7b bd
       0.014959767 0.051955976 0.0034005377 -0.061323892
0000a0 6f 8c c5 bd ab b2 e1 3d c3 c3 da bc b2 ef bd 3d
       -0.09645926 0.11020406 -0.026704675 0.09274234
0000b0 72 1b 41 3e 92 50 3d bd 81 03 65 bd bd 29 3e 3c
       0.18858126 -0.046219416 -0.055911545 0.011606631
0000c0 f2 e0 9a 3d 7c 90 9c 3c b9 95 5b bc 81 cb 6d be
       0.07562436 0.019111864 -0.013402396 -0.23222162
0000d0 33 b2 b6 3d 28 c8 05 be f7 5d 47 3e 8d aa fc 3d
       0.089207076 -0.13064635 0.19469438 0.123372175
0000e0 a9 e8 71 3d 40 f7 be bb a5 28 39 bd 17 70 50 be
       0.059059773 -0.0058278143 -0.045204777 -0.20355259
0000f0 d1 35 9a 3c e9 2b 59 3c 96 dd 61 bd 0d 29 f8 3c
       0.01882449 0.013255098 -0.05514296 0.030293012
000100 5f de b9 3d fc 98 9c bd 7d 2d 08 3e f6 d8 04 3e
       0.09075617 -0.07646367 0.13298602 0.12973389
000110 02 83 4f 3e 2b 12 48 bd fc 1e 9a 3d c7 69 55 3d
       0.2026482 -0.04884545 0.07525441 0.05210283
000120 02 48 07 bd a7 35 04 3e fd 9d ba 3d 36 a4 9f 3d
       -0.033027656 0.12911092 0.09112165 0.077949926
000130 df 57 20 bd 03 d8 cb 3d 01 48 32 3c 27 d3 94 3d
       -0.0391463 0.0995331 0.010881425 0.072668366
000140 d5 de 5c bd d5 97 f5 bc 67 51 b6 3d b8 e3 f9 bd
       -0.053923447 -0.029979626 0.08902245 -0.12201637
000150 85 6f ee 3c ba 79 7d be bf 3e 93 3e 62 56 df 3d
       0.029105911 -0.24753466 0.2875881 0.10905148
000160 98 1f ef 3d b6 04 c8 bd ce 4f df 3c ec b5 75 3d
       0.11675948 -0.097665235 0.027259734 0.059987947
000170 35 aa 29 bd 7a 89 00 3e 4c f7 20 3d 4f d3 1a 3e
       -0.041422088 0.12552443 0.03929834 0.1511967
000180 e6 6a 15 3e 4b d5 ee 3d 47 9b 05 3e f5 86 04 3e
       0.1459156 0.11661776 0.13047515 0.12942107
000190 5b 88 30 3e 23 af a4 3c 82 94 12 3d b8 d6 86 bc
       0.17239515 0.020103043 0.03578616 -0.016459808
0001a0 bf 1f be 3d cb fc 9a 3d c8 41 f1 3d 71 66 04 3e
       0.09283399 0.07567748 0.11780125 0.12929703
0001b0 db c6 13 bc 5a 3d a9 3d 61 19 93 bc 8f 04 10 be
       -0.009019579 0.08263655 -0.017956438 -0.14064239
0001c0 ef e3 da 3d 5f 54 49 3d a2 bd ab 3c 0a 20 12 3d
       0.10688006 0.04915273 0.020964447 0.035675086
0001d0 89 c4 33 be 06 67 6e 3e 87 e5 a2 3a c8 b2 09 3e
       -0.17555441 0.23281488 0.0012428024 0.13447106
0001e0 76 b4 9b bd b4 81 5a be 10 35 27 bc ea 58 d0 3d
       -0.076027796 -0.2133854 -0.010205522 0.10173209
0001f0 4d 33 59 3d 4a 64 64 3d 69 d0 8e 3d 1b fb ca 3d
       0.05302744 0.055759706 0.06973345 0.09911176
000200 38 41 20 3e 4b 3c 81 be 2b 71 31 be 3e 80 4d bd
       0.15649879 -0.25241312 -0.17328326 -0.05017113
000210 b5 98 58 be 08 52 1c 3e 3f c3 ab ba ec ef 38 be
       -0.21152003 0.15265667 -0.0013104453 -0.18060273
000220 21 62 42 be 8a d4 d5 3d ee 83 6a be 71 3d 7b 3d
       -0.18982746 0.10440929 -0.2290189 0.061337892
000230 1a 31 10 bf f7 a4 c5 3a ef 0a 4f bd 94 7a a7 bd
       -0.56324923 0.001507907 -0.050547536 -0.08177677
000240 15 fa 82 be c5 eb 26 3d 37 82 93 3d 98 68 27 3e
       -0.25581422 0.04075219 0.07202571 0.16348493
000250 b9 6e 3f be 7d dc eb bd 24 7d 17 be 58 a0 86 3e
       -0.18694581 -0.11516664 -0.14793831 0.26294208
000260 81 1e e5 bc 7b 6f ea bd f8 54 05 bd 80 d8 62 3d
       -0.027968647 -0.114470445 -0.032551736 0.05538225
000270 ea e5 51 be 99 ce 43 3d 50 06 39 be f0 f0 0f bd
       -0.20497862 0.04780445 -0.18068814 -0.035141885
000280 27 cd 41 be b1 ff 37 3d 30 14 fe 3c 56 94 f1 bd
       -0.18925916 0.04492158 0.031015486 -0.11795871
000290 c9 d2 84 be 2e 82 96 bc 8c 50 83 3d 7b 9e 0a be
       -0.25942066 -0.018372621 0.064118475 -0.13537018
0002a0 f1 42 2f bd 58 c0 ce bc e5 31 ba 3b e0 a0 85 bd
       -0.04278845 -0.025238201 0.0056822174 -0.06524825
0002b0 6a ef bc bb 42 67 90 bd de 81 8f 3d de ec af 3d
       -0.005765845 -0.07050945 0.07007192 0.08590101
0002c0 86 13 af 3d cf a8 a6 bd 2a af 0f bc 23 56 e9 bd
       0.08548646 -0.081376664 -0.00876979 -0.113933824
0002d0 4b 19 ca bd 45 69 58 3e d5 b2 64 be 5b 32 b3 bd
       -0.098681055 0.21133907 -0.22333844 -0.08749839
0002e0 57 67 70 be e2 58 d3 3c a1 2d 9c 3d 0b 8a d0 bd
       -0.23476921 0.025799219 0.076258905 -0.101825796
0002f0 06 cc fd 3d a3 07 73 3e eb 92 6b 3e b6 62 a6 3d
       0.1239243 0.23733382 0.23005264 0.08124296
000300 34 ee 01 bf 1c c6 bb bd a9 91 16 be 3a b3 2f be
       -0.50754094 -0.09168646 -0.14704002 -0.17158213
000310 ec 39 91 be 57 11 db bc 51 2a 4f 3d 8d 41 89 bd
       -0.28364503 -0.026741667 0.050577465 -0.06701956
000320 b9 13 74 3d 7e 75 b2 3d 06 cf 8f bc 9c 8b e5 bd
       0.05958912 0.08713816 -0.017554771 -0.11208269
000330 66 67 5f 3e 4e 39 a2 bb 2a cb 54 bd d6 0c 94 be
       0.21816787 -0.004950679 -0.051951565 -0.28916043
000340 1d dd a3 bd 37 fc 0d be 2a 61 b4 3d 07 75 51 be
       -0.080011584 -0.13865744 0.08807595 -0.20454799
000350 b0 ef 8f bd e7 fc 39 3d 7e 7b 90 3e 38 f8 c2 3c
       -0.07028139 0.045407202 0.28219217 0.0238
000360 ab 97 84 3c ff 97 1b bd 27 b0 0b be 66 55 a4 bd
       0.016185602 -0.03798675 -0.13641416 -0.08024101
000370 88 0a 58 3d 81 3e 66 bd 72 f9 1b be b8 2c ec 3d
       0.05274442 -0.056211952 -0.15231875 0.11531967
000380 59 5a 6d be 7c e9 cd 3d 25 21 3f 3c 98 39 b4 3d
       -0.23178996 0.10054299 0.011665617 0.08800048
000390 e2 16 66 be 98 67 3b be ad 1d ae bd 91 53 01 be
       -0.22469667 -0.18301237 -0.08501754 -0.12629534
0003a0 5a ac 29 bd 64 21 71 be f9 ea c3 be 2b 83 df 3d
       -0.041424133 -0.23547894 -0.38265207 0.1091369
0003b0 67 cf 25 be 04 da dc 3c 58 69 8a 3d ca 27 fa bd
       -0.16192399 0.026959427 0.06758374 -0.122146204
0003c0 b2 05 85 be 11 f2 0e be e5 8f 25 bd b7 25 14 be
       -0.25980908 -0.13959529 -0.04042043 -0.14467512
0003d0 ef 80 3e be 57 47 4a be a4 10 bb bd c7 b4 ac 3c
       -0.18603872 -0.19753776 -0.09134033 0.021082295
0003e0 a1 08 ce bd de ab b9 bd fe 54 49 bd 6b 73 0a bd
       -0.100602396 -0.09065984 -0.04915332 -0.033801477
0003f0 d9 05 e9 3c b5 12 f8 bc b0 5c ac bb d6 47 19 be
       0.028445171 -0.030282358 -0.0052600726 -0.1496881

critic.2.bias f4 [64]
000000 11 e0 66 3d 82 12 ba bc e0 d8 94 3d 43 1b e7 3d
       0.05636603 -0.022713903 0.07267928 0.11284497
000010 3b 53 c1 bd 32 20 3c bc 98 be a4 3d fb 0b c3 bd
       -0.09439703 -0.011482285 0.080441654 -0.095237695
000020 c8 74 64 bc 7d b4 38 3c e9 d3 6c bd fb 00 5b be
       -0.013943858 0.0112735005 -0.05781928 -0.21387093
000030 15 05 5c be fe 98 c9 3d 18 e5 2e 3d 00 03 b8 3d
       -0.21486314 0.09843634 0.04269895 0.08984947
000040 6f 82 00 3e ec b3 94 3d 16 29 01 3d b9 be 8d 3d
       0.12549756 0.0726088 0.031533323 0.06921143
000050 8e 3c af 3d 27 33 76 3d ec 08 8f bd 08 ab 13 3d
       0.08556472 0.060107376 -0.069841236 0.03605178
000060 2a 43 92 bc d5 74 ce ba 58 eb 8f 3c d8 2d 3d bc
       -0.017854292 -0.0015751371 0.017568275 -0.0115465745
000070 46 19 2a bd 65 cb 46 be b8 ab 85 3e b0 2c b8 3d
       -0.04152801 -0.19413526 0.26107574 0.089928985
000080 e0 ce 2b 3d 71 7f 82 bc fd ce f9 3d 0e 28 a9 bd
       0.04194534 -0.01592991 0.12197683 -0.08259593
000090 3c af 14 be 58 1f 37 3e 74 8a c3 bd 70 8e 9c 3b
       -0.14519972 0.1788305 -0.09547892 0.004777722
0000a0 27 72 c8 bd ec f6 22 3d 16 64 37 be a3 13 98 bd
       -0.09787398 0.039786264 -0.17909274 -0.074256204
0000b0 ee 24 79 3e 5d 15 26 be 32 cf 03 be 38 fb a6 3d
       0.24330494 -0.16219087 -0.12872007 0.08153385
0000c0 37 cd 4f be 1d 24 ed 3c cb 9d 8f bc a2 f4 4e be
       -0.20293127 0.028947884 -0.017531296 -0.20210508
0000d0 7b 7d 39 3d 76 d9 c6 3d 06 b2 41 be ab 83 0a bc
       0.045285683 0.09709446 -0.18915567 -0.008454244
0000e0 15 4a 25 3e 38 a7 5d bd 84 57 4c 3e 24 9d b5 3c
       0.16141541 -0.05411455 0.1995526 0.022169657
0000f0 fc 88 81 3a 88 8a a3 bc 01 3c 9f 3d ac 73 fe 3d
       0.0009882743 -0.019963518 0.07775117 0.124244064

critic.4.weight f4 [1, 64]
000000 17 90 fe bd 24 47 84 3e f3 2e 5e 3e bb 20 d6 be
       -0.12429827 0.25835526 0.21697597 -0.41821846
000010 99 30 aa bd ff 7d f5 3d 68 6d 8b be 56 d3 a3 3d
       -0.083100505 0.119869225 -0.27231908 0.079992935
000020 49 f9 67 be 78 2b 28 3e a1 09 10 be 6e 52 8b 3e
       -0.22653688 0.16422832 -0.14066173 0.27211326
000030 0a e8 74 3e b6 d6 11 bf 6d 72 79 be 61 de 53 3e
       0.23916641 -0.5696825 -0.24360056 0.206903
000040 6e 0d b0 be 8b 57 ca b9 a0 26 de 3d 80 da 8c be
       -0.34385246 -0.00038593667 0.10847211 -0.27510452
000050 09 c2 03 bf 2a ed cf bd d4 b3 1f 3e 58 8d 62 be
       -0.5146795 -0.10152657 0.15595943 -0.22124231
000060 d7 81 65 3e fd 59 41 be 74 8c 13 3e ae 2b 60 3e
       0.22412811 -0.18881984 0.14409047 0.21891662
000070 93 94 f2 3e 78 bf 99 3e b4 26 80 bf 8b cd 9a be
       0.47378978 0.30028892 -1.0011811 -0.30234942
000080 b2 b8 54 bf 78 3d 3b 3e 71 78 a4 3e d6 2a b3 3d
       -0.8309432 0.18285167 0.3212314 0.08748405
000090 d4 55 12 be d9 50 51 bf 7e a3 5d 3e 98 4f 02 3f
       -0.14290553 -0.8176399 0.21644399 0.509027
0000a0 be 59 35 3e 7e 25 aa be 42 6e 88 3e 0f 5e 09 bf
       0.17710015 -0.3323173 0.2664662 -0.5365915
0000b0 9d 26 19 bf 60 e0 70 be d3 97 54 3e a3 74 11 be
       -0.59824544 -0.23523092 0.20761041 -0.1420465
0000c0 89 6b 43 be e2 d2 5c be f2 d4 96 3e 60 75 14 bf
       -0.1908399 -0.2156482 0.2945934 -0.579916
0000d0 c9 e6 8d 3e 86 d1 ec be 4d f1 a4 3e 51 1a 09 bf
       0.27715138 -0.46253604 0.32215348 -0.5355578
0000e0 99 76 15 bf ab 01 91 3e 7c c9 25 bf 31 0d df 3e
       -0.5838409 0.28321585 -0.64760566 0.43564752
0000f0 1d c2 91 3e c7 64 78 bf 8c 3b 4a be cc 1e a9 be
       0.2846841 -0.97028774 -0.19749278 -0.3303131
