PPO_preTrained/20220509/PPO_20220509_0_400.pth (torch, 244021 bytes, 15 tensors)

actor.0.weight f4 [128, 35]
00000000: 0848 093b 973e 2cbe ec86 cbbc 7860 cd3d
00000010: a13c a13c f1f8 bc3d 478b 3f3e 54cd c6bd
00000020: 59c5 43bd 52ab d63d 2d6e 2bbf 453c cfbe
00000030: 0c07 22bc d65a 5b3d 59b4 663e 5ab3 dd3d
00000040: 3d0f c43d f2bb b6bd b113 993c aaf1 09be
00000050: 6936 b0bb b5ad 073e 21fd 7dbc 8ce6 bf3c
00000060: 08ce 9338 4e9d 3f3e dd2a 17be c6ad e13d
00000070: 0afb 65be 20e8 0f3d 94f0 de3c a416 1c3e
00000080: 2b9d 2f3d 1f5d 6b3e 0dac fc3d 61ab dcbd
00000090: 2993 25bd 408e f2bc c34f 7fbe 6905 e53d
000000a0: 27ed 3cbd 1d91 f4bd 474e 98bd e6de 0fbe
000000b0: 8646 26bc 1b0e c7be af19 06bf c260 cebd
000000c0: f373 48be 5329 483e 8f1f 823d 0ce1 e53c
000000d0: 46a6 383d 8161 a23d 4ecf 0fbd 7e2a 8c3c
000000e0: 93d1 73bd 70cb 1f3e 0e83 053d 8d96 8cbd
000000f0: be89 3a3d 2d07 91bd 8685 38bd fdc2 abbd
00000100: 5ada f03c 9f82 0f3e 58cf 773e 7cde 28be
00000110: 43fe 8a3c ce37 9f3e 87a1 943c 0520 03bd
00000120: 5a7c 9abc 1b9f b3bd 4470 1f3e b790 7d3b
00000130: d437 21bd 4166 2e3c c438 55bd bd22 d4bd
00000140: b65c 14bd d137 673c 37c8 413d 81be 4cbd
00000150: 6e1a 363e bb8f cb3d 028f 743e 1586 233d
00000160: 0f11 2abc a86b 203e 294e 3e3d 1e5a 12be
00000170: c5f4 3bbe 5b7b f3be 5cfb 7cbd e627 04bd
00000180: 1ef7 96bc ba6a 59be 3b8e 173e 4ec2 663e
00000190: f4da aabd 2376 c9bd 6ea5 62be ca8b b5bd
000001a0: 04ba bdbd 6c40 ab3d 40d9 20bd f12b 7a3c
000001b0: 54d0 8a3d 9594 e2bd 4ea8 aa3d 401d f8bd
000001c0: 2b28 3a3e bd06 703d fbce 3f3e 3965 ffbe
000001d0: 06bf 5bbe e32c 2bbe 22de c7be 6121 83bd
000001e0: aff9 bcbc 8d25 45be a01d 03be 037a bd3c
000001f0: 32e6 13bb ac01 253e 677f bb3d e7ff 43be
00000200: 730a f73d ee2c 463d 1d29 c3bc f14c 203c
00000210: 6e8c 77be 42be d73d 1945 02bc 6ad2 113e
00000220: 3e3c 193e a54c b63c d86f 9bbd 3b51 adbe
00000230: 1e2a 803c ac58 22be c274 57bd 670e 4e3e
00000240: 03ad 543e 288b d43c fcca 293e 964b d9bd
00000250: cb94 42be ea2f 693d d0f7 a63e 7b0e 983d
00000260: bb8c c93d 1a64 b6bd 5e1a 2a3c 447f 28be
00000270: ddcb ebbd 2aad 6dbc b4d7 1dbd 7a97 e83d
00000280: ad8d 34be 71ad d0bc a011 c83d b867 95bc
00000290: dcd8 3f3d 2c31 6d3e 0bd0 b43b c64e 0d3e
000002a0: 3bb6 6bbd 0369 3a3e b5b3 cbbd d638 34bd
000002b0: e774 60bd 4afc a0bd 5c25 a03d 8b33 693d
000002c0: db0a 053e 194a c6bc 0772 19bd f8aa 543d
000002d0: effc c5bd 0d3b 10bd df35 313e 8156 523e
000002e0: a2c6 f93d 4e0f e2be e9d7 a3be 2d51 02be
000002f0: fb33 ec3b 3ce4 17bd 0049 753d b3ba 193e
00000300: c41a f2bd e17f 6f3d 1f22 07be 392e 593c
00000310: 5a6d 19be 9042 d0bd 181a 163e 1074 e53d
00000320: 4b58 6e3e 7769 9cbd 8363 4fbd 42a1 df3d
00000330: 7d79 943d 0c1c 36bd e3de 103e 4658 543d
00000340: 61f1 bfbd 4f9d 803c 1c89 443e 1d31 083e
00000350: 04dd a4bb 57b7 1a3e 6abc b83c d976 17bd
00000360: 83fe c03d fccc b8ba 29d3 bf3d 7fb0 123e
00000370: 3b75 ffbe c039 1bbe e712 98bb af0a eebd
00000380: f441 9dbe b088 823c a3be f8bd c581 87bd
00000390: 0c3c 713d 134e c83d 0281 b2bb 93c7 4ebe
000003a0: 596f 683d d7aa 85bd 2c7b 81bc f952 893d
000003b0: cf12 c6bc e792 b3be e02c fdbc 5ca4 3f3e
000003c0: cb92 5dbe 4931 993e 36a9 25be cde1 01be
000003d0: 0e1a 253a 5b59 db3d 2446 83bc 2d1a a73d
000003e0: 1902 da3d 828c ccbd 6480 efbb 154e d53b
000003f0: 8d69 143c 7971 cd3d ce15 453e d66b fdbe
0.0020947475 -0.16820751 -0.02484461 0.100281656 0.01968223 0.09227169 0.18705474 -0.09707132
-0.047795627 0.104818955 -0.6696499 -0.4047567 -0.009889375 0.053553425 0.22529735 0.10825224
0.09573219 -0.089225665 0.018686147 -0.13471094 -0.00537758 0.13249858 -0.015502245 0.023425363
7.0478825e-05 0.1871235 -0.14762445 0.11019473 -0.22459045 0.03513348 0.027214326 0.15243012
0.042874496 0.22984742 0.123375036 -0.107748754 -0.040423546 -0.029608846 -0.2493277 0.111826725
-0.046124604 -0.11941741 -0.07436805 -0.14049873 -0.01014865 -0.3887795 -0.5238294 -0.10077049
-0.19575481 0.19547014 0.063536756 0.028061412 0.045080446 0.07928754 -0.03510981 0.017110106
-0.059526037 0.15604949 0.032595687 -0.06864653 0.045541517 -0.07081447 -0.045049213 -0.083868004
0.029400993 0.14014672 0.24200189 -0.16491121 0.016966945 0.31097263 0.018143428 -0.032012958
-0.018858124 -0.08770581 0.1557017 0.0038690993 -0.039359882 0.010644496 -0.05205609 -0.10358188
-0.03622123 0.014112429 0.04731008 -0.049986366 0.1778352 0.09939524 0.23882678 0.039922792
-0.010380044 0.15666068 0.046461258 -0.1429219 -0.18355091 -0.4755505 -0.061763152 -0.032264613
-0.018428382 -0.21232119 0.1480035 0.22535059 -0.08342543 -0.09836986 -0.22133419 -0.08864553
-0.09263995 0.08361897 -0.039269686 0.0152692655 0.06778017 -0.11063496 0.08332883 -0.12114954
0.18179385 0.058600176 0.187313 -0.49881914 -0.21459588 -0.16716342 -0.3903666 -0.06402851
-0.023068277 -0.19252606 -0.1280427 0.023129469 -0.0022567627 0.16113919 0.091551594 -0.19140588
0.1206254 0.048382692 -0.023823315 0.009783969 -0.24174663 0.10534336 -0.0079510445 0.14240423
0.14964387 0.022253344 -0.07589692 -0.33851036 0.015645083 -0.15854138 -0.052601583 0.20122682
0.20769124 0.025945261 0.16581339 -0.1061012 -0.19002073 0.05693046 0.3261094 0.07424637
0.09841295 -0.089058116 0.010382263 -0.16454798 -0.11513493 -0.014506618 -0.03853579 0.11357017
-0.1763217 -0.025473328 0.09768987 -0.018237934 0.046837673 0.23163289 0.0055179647 0.13799581
-0.057546835 0.18204121 -0.09946386 -0.043999515 -0.054798987 -0.0786062 0.07819626 0.05693392
0.12992422 -0.024205254 -0.03746226 0.05192086 -0.09667384 -0.035212565 0.17305706 0.20540811
0.12196089 -0.44152302 -0.32000664 -0.12726279 0.007208345 -0.037082896 0.05988407 0.15012626
-0.118215114 0.058471564 -0.1319661 0.013255649 -0.1498312 -0.10168946 0.14658391 0.11203778
0.23275869 -0.07637303 -0.05063201 0.10919429 0.072497346 -0.04446034 0.14147525 0.051841997
-0.09372211 0.01570001 0.19192928 0.13299985 -0.00503123 0.15109001 0.02255078 -0.036978576
0.09423544 -0.0014099176 0.093664475 0.1432514 -0.49894127 -0.15158749 -0.004640925 -0.116231315
-0.3071438 0.015934318 -0.12145736 -0.066165484 0.058895156 0.097805165 -0.005447508 -0.20193319
0.056746814 -0.06526726 -0.015805803 0.06705279 -0.02417889 -0.35073015 -0.030905187 0.18715042
-0.21638028 0.29920414 -0.1617783 -0.12683792 0.0006298133 0.107104026 -0.016024657 0.081592895
0.10644931 -0.09987737 -0.0073090065 0.0065095522 0.009058368 0.10031409 0.19246599 -0.49496335

actor.0.bias f4 [128]
00000000: 5a0a f53d a596 b23d 142a 3f3e a06b ddbb
00000010: 14a4 83bd 3574 303d 4546 543c 6460 2e3d
00000020: 0adb 453d e9bb 8dbd 2d4b 963d 643e 32bd
00000030: f7f8 21be 6cc7 0f3c eae0 4dbc ad7c bfbd
00000040: 8088 30be 76ea 2ebe f0f3 48bd 7d3c 6c3c
00000050: 4db5 813b 044b 0c3c 4813 fc3d 9d74 b03d
00000060: 6272 183e 3caf 9e3c 3871 41bd 368a 483e
00000070: 5a63 f2bd d618 f2bc e838 c13c 7c66 75bd
00000080: f150 4bbe 0acc b4bd e0e0 1c3d d4cd 8ebc
00000090: 4395 f73d e208 c0bd be80 413e 75d5 3c3e
000000a0: ef83 5a3e 81a9 a1bc f07e ab3d d81a 32bc
000000b0: 86b3 f1bd 1599 cf3d 5540 a2bc ddcd ae3d
000000c0: 7126 d53d 989e 593d 88c4 113a 4203 27be
000000d0: f220 d03d 5743 843d bb84 4c3e 3986 1c3e
000000e0: c19e ab3d 0b68 20be c962 0c3e e5ce 4ebe
000000f0: a2aa 743d 4b79 61bd f4d0 553c dab7 813d
00000100: 7c7a c8bd 332b 1b3d bd91 a7bd 51c5 afbd
00000110: fd29 493c 13f1 febc 13b2 fbbb 9784 f03d
00000120: 819e a7bb 4d63 15bd b729 ab3d d685 d2bd
00000130: d6ab a63d b371 433e 5a23 3dbd f1ee 953d
00000140: 265c 08be d6cc 25be c603 6dbe c780 52bc
00000150: bd3a 0b3e ea1b f53d cf58 5e3d 0998 eebc
00000160: 0ba0 c43d c857 813d d220 1dbe abdb b8bc
00000170: bcf6 a0bd 301e 753d 01da 33be dd2b 75bc
00000180: 3198 69bc d9d7 eebc 7ddf ae3a 90e8 633d
00000190: 29f3 0f3e 6314 fdbd 22ae ae3d d7cb be3d
000001a0: b94d d7bd 8d37 f93c 7b3a 143d f0be 0d3e
000001b0: e0da 333e 7f16 a03d 4db2 c93c 410c c9bd
000001c0: 91ca 033e 3228 c5bd f4c7 e8bc f01c 6a3d
000001d0: 6178 073e 66da 363d 90a8 c5bb 84fc 1f3e
000001e0: df13 853d fabb 073d db1f 42be af7d 27be
000001f0: b5ab 08bd 12df 373e 599d f9bd 0c64 c8bd
0.11964865 0.087201394 0.18668395 -0.0067572147 -0.0642778 0.043079574 0.012956207 0.042572394
0.048304595 -0.06920607 0.073385574 -0.04351653 -0.15817629 0.008775573 -0.012565831 -0.09349952
-0.1723957 -0.17081627 -0.049060762 0.014418718 0.0039583803 0.008562807 0.12308365 0.08615992
0.14887384 0.019370668 -0.047227114 0.19583973 -0.11835356 -0.029552858 0.023586705 -0.05991219
-0.19855095 -0.0882798 0.038300395 -0.01743213 0.12089016 -0.09376694 0.18896767 0.18440802
0.21339391 -0.019734146 0.08373821 -0.010870658 -0.118018195 0.1013662 -0.019806067 0.08535359
0.10407723 0.053129762 0.00055605965 -0.16309837 0.10162534 0.064581566 0.19972508 0.15285577
0.08379889 -0.15664689 0.13709559 -0.20196112 0.05973304 -0.055047315 0.013050307 0.06333895
-0.09788987 0.037882995 -0.08182094 -0.08582557 0.012278077 -0.031120813 -0.00768114 0.117440395
-0.0051153307 -0.036471654 0.08357566 -0.102794334 0.08138244 0.19086342 -0.046176292 0.07320965
-0.13316402 -0.1619142 -0.2314597 -0.012848086 0.13596626 0.11968215 0.054283913 -0.02912523
0.09600838 0.06315571 -0.15344551 -0.022565683 -0.07859561 0.059843242 -0.1756363 -0.014964071
-0.014257477 -0.029155659 0.0013341751 0.05564171 0.14057602 -0.12357404 0.08529307 0.09316223
-0.10512871 0.030421996 0.036188584 0.13842368 0.17563963 0.07816791 0.024621153 -0.0981679
0.12870242 -0.09626807 -0.028415658 0.057156503 0.13229515 0.044641875 -0.006032057 0.15623671
0.06497931 0.033138253 -0.18957464 -0.16356538 -0.033366878 0.17956188 -0.12188215 -0.097847074

actor.2.weight f4 [128, 128]
00000000: 0322 81bd daf1 3abe 237e f5bd 6e66 0dbd
00000010: ecb5 e2bd 0cec 363e 6c52 213d b28a a73d
00000020: aefe 93bd cce1 10bd e608 abbc c6c9 3ebd
00000030: 6a78 7d3e 10f6 173e f43e 193e ccb4 a63d
00000040: 3e9a 48bc 4d4a 133e 4ff0 86bd c076 2c3e
00000050: 1f46 5b3c 6c78 f73d b998 733d 401f 95bd
00000060: af65 e33c 6b42 083d fb3a 15be a43e 423e
00000070: 97b0 c33d a9ed 7fbc 18c6 373d b6b0 393e
00000080: f7cb 01bd 5cbc 1d3e 745d 16bc 9956 27be
00000090: 38e6 66be 036a 90bc a745 0abe 6833 fabc
000000a0: 4188 7e3e cd73 f4bd 706a b5bd 5bb6 dc3b
000000b0: 0b0b b73d ab61 1b3e 2e41 f73d cb9d 4f3c
000000c0: f9fb f6bd 90e7 20bd 122d 423e bdd4 f4bd
000000d0: c53d 2cbe 302b 51bc 5ec7 433e 8fa5 d7bd
000000e0: c377 f8bd f0a1 243c bf14 bd3d 3671 da3c
000000f0: 27d4 263e 3228 10bc 8400 6ebe 7a77 e2bd
00000100: a13f a13d bc23 4f3e 0dd6 fb3d f42c e8bd
00000110: 4200 663e 8038 9b3c b75f 5d3e 5788 26be
00000120: bafc 983d 5673 94be 800b 09be c312 c1bd
00000130: c249 dc3d 2b29 e0bd 3c65 233e 5486 39be
00000140: 6fb5 1bbe dfef ea3c eb9a 073e 758d 1bbe
00000150: 35ab 863e 0867 e83d 441a 86b9 37ff 99bd
00000160: 772e 90bd 3f1e 12be a18e d93d 68a9 6c3d
00000170: d1ab a9be bc27 de3d c904 ac3d 90e1 6dbd
00000180: c495 d2bd 13bf 70bd 5dd3 b63d 2327 a13d
00000190: f62d 8c3d 328f 02be 2e64 2c3d dc60 523d
000001a0: 5b12 8abe 0d5c febd a7fa a7bd dd96 123e
000001b0: 820a 03be 546e e43c c56d 4cbe 62a9 a13d
000001c0: 1287 2cbe ccc0 9dbd dda1 8abd dfc3 8fbd
000001d0: cb90 b03c 2b29 023c 1ebf 14be 5c25 b83d
000001e0: 73f9 723c fff5 753e 561b a53d 4d7e 94bd
000001f0: da65 d5bd 8b71 f63a 0745 543d 0964 813d
00000200: ef53 9fbd 9e84 bcbd 5a49 8fb9 d281 26be
00000210: 498a 93bd 3f3d c0bd 57b0 ebbc fe87 86bd
00000220: df0a ac3d 400c 093e 9ce8 5b3e 9ec7 953c
00000230: 17f3 d33d 6e33 843d f079 a53d fb80 9f3d
00000240: 74bd b0bd fe8d 723c e2d6 94bd 0c15 4a3d
00000250: 0096 c23d 50fb d0bd 30c7 923d 441f ab3d
00000260: 7799 543b 8ee4 be3c 2238 d1bd 3186 d93d
00000270: b20b 15bb 2f62 c5bd b020 e83d 08cc 333d
00000280: 365d f4bd 4c05 24bd 9f77 ccbd e30f 223d
00000290: c521 98be 2e0f 04bc b984 34bc fd3d a2bd
000002a0: b5c6 3d3e fdee 723e a9ba be38 f09e 9c3d
000002b0: 437a 643d 2db7 203d 6a41 a73d f557 74bc
000002c0: adfe 38be 1dba 8fbc 1c41 b73d 0637 1c3d
000002d0: 5f6a 3fbd dc6a fe3b b53f 3b3e 5dbb 223e
000002e0: f23b 863c 2fd6 ffba 72a5 b83c 25f6 173c
000002f0: a7f1 18bd 5a6a 543d 97c5 03bd 0fff 473d
00000300: 7993 a03c 8ef1 19bc ae3e 7cbe 6858 d7bd
00000310: b100 86bd ce5a 1a3d e897 c43d 4f79 ad3b
00000320: 8115 3bbd ea79 65be 3b03 33be 92dd 183d
00000330: 536d 143e de1e 7abd 7e63 6e3d d9cc 4fbd
00000340: 720e dc3d a6d4 67bd 0542 d43c 3522 623d
00000350: 3e07 0d3d 6082 613c d732 003d 28bf 8f3c
00000360: 703d 843c 95f4 60bc 08c5 ccbd 5432 dc3d
00000370: 9a66 a5be 1fa4 8abc c269 16bd 42a2 403d
00000380: cc33 c1bd 1c39 26be 3cce f23a ae63 0abd
00000390: a5a4 27be 3e50 f83c f5e1 abbd 9c4f 873c
000003a0: 10b2 f7bd 132a 153e 0bb6 953d 5a79 a93d
000003b0: 7e83 9d3d 540f 09bd 898a f8bd c770 933d
000003c0: c2da 0e3e fb3c 683d 96f5 00be ab1a c0bd
000003d0: 7851 ffbd be38 e2bd 0357 743d 6438 60bd
000003e0: 939e 003d 711c 453d de33 39be ab52 82bd
000003f0: 55db 753e 5959 013d 909b 27bd 6a8e 4e3d
-0.06305315 -0.18256322 -0.11986949 -0.034521513 -0.11069855 0.17863482 0.039385244 0.08180751
-0.07226311 -0.035371587 -0.020878267 -0.046579145 0.24752966 0.14839959 0.14965421 0.08139953
-0.012243805 0.14383812 -0.06588804 0.16842175 0.013383417 0.120835155 0.05947182 -0.07281351
0.027758447 0.033266466 -0.1457328 0.18969208 0.09555166 -0.015620627 0.04486665 0.18133816
-0.031688657 0.15403885 -0.009177554 -0.16341628 -0.22548759 -0.017628675 -0.13503133 -0.03054209
0.24856664 -0.1193615 -0.08858192 0.0067356057 0.08937653 0.15173976 0.12072979 0.012671898
-0.12059779 -0.039283335 0.18962505 -0.11954639 -0.16820438 -0.012766644 0.19119021 -0.10529625
-0.12132218 0.0100483745 0.09232473 0.026665311 0.16291867 -0.008798646 -0.23242384 -0.110579446
0.078734644 0.20228475 0.12296686 -0.11336699 0.22461036 0.01894784 0.21618544 -0.16262947
0.07470079 -0.28994244 -0.13383293 -0.09427407 0.10756256 -0.10945352 0.15956587 -0.18117648
-0.1520593 0.028678833 0.1324269 -0.1519068 0.26302496 0.11347777 -0.0002557804 -0.075193815
-0.070401125 -0.1426935 0.106229074 0.057778746 -0.33138898 0.108474225 0.0839935 -0.05807644
-0.10282472 -0.058775973 0.08927033 0.07868793 0.06844704 -0.12749937 0.042087726 0.051361904
-0.2696713 -0.12419901 -0.08202105 0.14315362 -0.12796977 0.02788464 -0.19963749 0.07893635
-0.168484 -0.07702789 -0.06769154 -0.07019781 0.021553418 0.0079443855 -0.1452603 0.08991501
0.014829981 0.24019621 0.080618545 -0.072506525 -0.10419817 0.0018802149 0.051823642 0.06317908
-0.07779681 -0.09204982 -0.00027329737 -0.1626046 -0.0720411 -0.09386682 -0.028770609 -0.06568907
0.08400511 0.13383579 0.21475452 0.018283661 0.103491 0.06455122 0.08079898 0.07788273
-0.08629885 0.014804361 -0.07267548 0.049336478 0.095012665 -0.10204184 0.07166898 0.08355573
0.0032440105 0.023302343 -0.102157846 0.10621298 -0.0022742567 -0.09637868 0.1133436 0.04389575
-0.11931841 -0.040044114 -0.099837534 0.039565932 -0.29713264 -0.00806026 -0.011017972 -0.079219796
0.18532832 0.2372398 9.094674e-05 0.076475024 0.05578066 0.03923719 0.081667736 -0.014913549
-0.18065901 -0.0175448 0.089479655 0.038138412 -0.046732303 0.0077642035 0.18286021 0.15891786
0.016386006 -0.0019518788 0.022539828 0.009274994 -0.037339833 0.051859237 -0.03217086 0.048827227
0.01960157 -0.00939597 -0.24633285 -0.10514909 -0.065431006 0.037684254 0.09599286 0.005294002
-0.045674805 -0.22409788 -0.17481701 0.03732068 0.14494829 -0.061064593 0.058200352 -0.050732467
0.10744943 -0.05659928 0.025910387 0.055208404 0.034430735 0.013763994 0.031298485 0.017547205
0.016142577 -0.013730188 -0.09998518 0.10751787 -0.3230484 -0.016923962 -0.036721952 0.04702974
-0.094337076 -0.16232723 0.0018524597 -0.03378647 -0.163714 0.0303117 -0.08392707 0.016517453
-0.120945096 0.14566831 0.073101126 0.08275099 0.07691096 -0.033461884 -0.121357985 0.07199245
0.13950637 0.05669878 -0.12593684 -0.093800865 -0.12466711 -0.11045979 0.059653293 -0.05474128
0.03140123 0.048122827 -0.18086192 -0.06363424 0.2400945 0.03157935 -0.04091984 0.050428785

actor.2.bias f4 [128]
00000000: 0500 4a3d 75aa 8e3d af72 81bc 7233 a1bd
00000010: daf2 28be d931 2e3d e911 51bd 2fb2 9d3d
00000020: 941f 223e d193 e3bd 4823 bb3c 64a1 cfbd
00000030: 8f07 afbc 5bd1 c13d 180f d8bc 39b2 883d
00000040: ff93 50bd 4da4 f13b cbc9 6a3c d723 163d
00000050: a51f 6a3d a757 d03c d42d ab3d 3b1b 47bd
00000060: eeef 03be 796e 063e 6857 d0bd dc8f 393d
00000070: 3f4f 6ebc d7ed aa3c 91e1 b4bd 26ef bd3d
00000080: bd2e 843d ea15 cdbd 6c75 b0bd 99c6 6c3b
00000090: 910d 64bd 7bb9 813d 25aa 053c 9133 8dbc
000000a0: a0b0 893d eb75 473b 8739 9cbc faea d83d
000000b0: 5831 483b d3ed 2cbe 0e9c 2fbd 961f 19bc
000000c0: f51b 6eba 1395 4dbd 0c8e 1e3d 7a10 86bd
000000d0: a7e7 68bd a6b6 fb3a be16 863d 83a7 583c
000000e0: 4112 abbc 2a63 9abd 81f3 f63d 6594 803d
000000f0: e8ce a0bc 83ce 70bd 9470 413d 41d0 113c
00000100: 29b3 a23d 504a 003b e36a dbbc fe75 54bd
00000110: d3ff d5bd 4ad2 523d deed 0ebd 7920 89bd
00000120: 5772 743d b643 18bd c6d5 c7bd bf8a 83bd
00000130: 0ccb 80ba 3f5c 213d dd81 d2bc 87b5 c23d
00000140: 06b2 373c 6c8e 40bc 9b1a 543d 66d4 553d
00000150: 9e78 8cbd f8e1 f6bd cc51 483d 227c e63c
00000160: b2cd c33d f15c aebd d6ee 71bd c921 983d
00000170: e0a1 233d 9ade 643d 4ccf bd3d dac2 41bd
00000180: 52fd 0c3e 33f7 9a3d d99a 20bc 2ca8 b7bd
00000190: ba7c edbd ab55 cbbc 5631 bfbc 4ff6 02ba
000001a0: 705a ecbc 8cbd c03c de00 cd3a a5ed a23d
000001b0: 4c00 053e d4eb 9abc 734a c63d 1d33 e9bd
000001c0: c1cc 003e fc23 d73c eb79 f1bd 9a57 133d
000001d0: 94c5 e9ba 6a22 c63c 402c e4bc 85ee dabd
000001e0: 0deb 7a3d f2e0 31bc b353 c53b 4887 a93d
000001f0: dbdf 83bd b239 b93d f11c d03d b28b 193e
0.049316425 0.06966106 -0.015801756 -0.078711405 -0.1649889 0.042528007 -0.05104247 0.077000014
0.15832359 -0.11112178 0.022843972 -0.10138205 -0.021365909 0.094637595 -0.026374385 0.06674618
-0.05092239 0.0073743225 0.014330338 0.036655273 0.057159085 0.02543242 0.083583504 -0.048609953
-0.12884495 0.1312808 -0.101729214 0.04530321 -0.014545261 0.020865364 -0.08832086 0.092741296
0.06454227 -0.100139454 -0.086161464 0.0036129116 -0.055677 0.06334206 0.008158241 -0.017236503
0.06723142 0.0030435275 -0.0190704 0.10591693 0.003054699 -0.16887598 -0.042873435 -0.00934591
-0.00090831454 -0.050190996 0.038709685 -0.065461114 -0.056861546 0.0019204214 0.065473065 0.013223532
-0.020882728 -0.07538445 0.120581634 0.06278304 -0.01962991 -0.058790695 0.047226503 0.008899749
0.07944328 0.0019575544 -0.026784366 -0.05187034 -0.10449185 0.05147008 -0.034894817 -0.06695647
0.059679355 -0.03717395 -0.09757571 -0.06422948 -0.0009826138 0.039394613 -0.02569669 0.0950728
0.011211878 -0.011752706 0.051783185 0.052204512 -0.068589434 -0.12054819 0.048906133 0.028135363
0.09560718 -0.08513821 -0.059065662 0.07428319 0.039949298 0.055876352 0.09268054 -0.047304966
0.13768509 0.07566681 -0.009802544 -0.08967623 -0.11596055 -0.024821123 -0.023338955 -0.0004995809
-0.028851718 0.023527883 0.0015640517 0.07955483 0.12988394 -0.01891128 0.09682169 -0.11386702
0.12578107 0.026262276 -0.11790832 0.035972215 -0.0017835372 0.024186332 -0.027853131 -0.10690025
0.06125932 -0.010856854 0.0060219406 0.08277756 -0.064391814 0.09044208 0.1016177 0.14994696

actor.4.weight f4 [64, 128]
00000000: 1e85 243d 7002 603e ccf1 2abe ae6c 1d3d
00000010: c16b d63c 89c3 24bd c1dd 3cbe dd67 aebc
00000020: 141d 873d 599b b33d 4e59 fd3c e585 863d
00000030: aaf5 a6bd a3f3 1ebc 267b c8bd 62c5 d2bd
00000040: 6a36 9bbc 8592 67be 6941 37be 93b2 f63c
00000050: 64a8 b23e 8036 a73b a11a cd3e 8fc9 f9bc
00000060: 05e6 03be 3bd9 73bd 33ef 5ebe 3586 82bd
00000070: f851 f83d d169 87be e002 6a3d b128 5c3d
00000080: fea4 0abe d496 f93d 2ba6 553d c12b 473d
00000090: 4002 ca3d 3df6 1d3e 69a6 0d3d 9007 25be
000000a0: c91b 653e 6b02 53be 4184 89be 69f3 9c3c
000000b0: 9df0 1f3d d4ef 233d 4b36 a33d e184 6cbc
000000c0: 8b21 08be 1c45 8fbe ca8a 203d 0b1e b8bd
000000d0: 84b7 8abe e6a7 c03d 8f33 153e 637d e8bd
000000e0: 17cb 943e 735d a1be f605 5d3e d5f6 563d
000000f0: aed8 573b 04d5 163d fb68 f73c 57fc 6abc
00000100: 193f e63d eed9 123d 72c2 9fbe bdd6 adbd
00000110: 923c 56bd 562b f03c badb 5e3d 3e4f b73d
00000120: 64b8 173e e1d2 3c3e 9f49 223e 7ead 5bbe
00000130: e323 a2be 4ace 6f3e 18af 28be 4aa5 423e
00000140: 1f0d 3e3d f50d b33c 7f07 703e b051 583e
00000150: e09c c4bd 7fb0 ea3d d859 4ebe 698b 3fbe
00000160: 2bb3 a93d 346c b93d 0ca4 adbe 59fb d33d
00000170: 5e1e 543e 3c15 f23d a639 233e e49e 0fbe
00000180: c281 fc3d 5b55 c5bd f7bc c13d b637 8abd
00000190: 8dd7 52be 12f4 653e b333 e0bd 4b4c e33a
000001a0: 7ef9 71be 2b88 9abc 5bc1 333c 9d3a 24bc
000001b0: f815 db3d b43b 1d3d 22c3 843e b988 313e
000001c0: d069 af3c ebb5 0dbe 58bf 77bb a776 ba3b
000001d0: 09cd 63bd 1432 ed3c b1eb 85be a253 06be
000001e0: 8b98 9cbc 8f39 1abc 7044 693e 0af7 1cbc
000001f0: 06f4 86be 69f8 293e 4ac3 0bbe f0e0 c63d
00000200: a00d 1c3e 66cc cdbd bdeb 85be 2a24 3e3d
00000210: e6a0 6bbe bbd0 2d3d 3e0d 2fbe bb45 f9bd
00000220: eaef 253d 0c58 58be 285b b8bd 197b 913d
00000230: 1576 38be 7352 c0bd 59f4 f3bc eceb 3a3e
00000240: 5078 86bc 7bdd cd3d e4c8 57be 6424 8a3d
00000250: 0374 b83b 95b7 9bbd bc8a f1bd ffbe 6dbd
00000260: 45ac 97bc 3a34 463e 9542 533e fc88 41be
00000270: e671 a8bd cceb f1ba 10cd 25be 05d5 c73d
00000280: 503b 313c b75e 313d fb84 bbbc e22e 6a3e
00000290: 4eec 4bbd 6009 01bd a509 29be 26ff b83d
000002a0: cf85 463e 80f7 78bd 9869 3e3e ed72 093e
000002b0: 1769 99ba 2010 b13d 32d5 ee3d 1a8c 673d
000002c0: 4db0 48bd 9712 98bd 1457 06be a6ba 2ebe
000002d0: c2d3 cd3d c01c ebbc c502 6dbc 29d0 303e
000002e0: 88a9 4fbd 7782 85be 45b6 113b 6d57 4a3c
000002f0: 6119 e8bd 727d 533d 06c9 ebbd d2b1 bf3c
00000300: 697b dbbd eb49 4a3e 226d 983d be24 6cbe
00000310: df9c 78be 4be8 fd3d 50f0 41bc 8357 253e
00000320: 7969 11be 22b4 5f3d 6a74 cd3d d5ef c9bd
00000330: 59b6 6d3d 4059 56be 0c38 46bc 5b3b 4ebc
00000340: d3e4 0d3b 9beb 873d 162f ec3d fc3f 9ebd
00000350: c4a7 c8bd 73c4 c53d 33d7 3e3e 3141 e1bd
00000360: aa66 533d aa0d 743d c1ed 963d 5945 7ebc
00000370: 7ef6 f3bb b950 263e 6620 bdbd 8412 49bd
00000380: 3ace a63c 22b1 f83d 59d8 3fbe fdd9 1ebe
00000390: aa70 e1bd b01d 56be 1cc0 683e 3116 fa3d
000003a0: 3a7d 14be 8ddb c2bd 1c8b 2a3e 9eff 2a3c
000003b0: 6b61 733e 560b 92bc a955 33bd 5fdc 103d
000003c0: ba95 833d 212b 67be bb98 9bbd a4e6 62bd
000003d0: f1f5 fabc ae85 223e 11f9 82be d88f 95bc
000003e0: e947 333e a247 f3bd c3d9 12bd e50d 1b3e
000003f0: df63 31bc 13ad cd3d 6011 4abe fa27 223e
0.040166013 0.2187593 -0.166938 0.038433723 0.026174428 -0.04022554 -0.18443967 -0.02128976
0.06597343 0.087698646 0.030926373 0.06568507 -0.081523255 -0.009701642 -0.09789114 -0.10291554
-0.018946845 -0.22614487 -0.17896046 0.030114448 0.34894097 0.0051029325 0.4005938 -0.030491618
-0.12880714 -0.05953334 -0.21770935 -0.06373254 0.12125009 -0.2644792 0.057131648 0.053749744
-0.13539502 0.12186971 0.052160423 0.04862571 0.098637104 0.15425964 0.03458253 -0.16116166
0.2237388 -0.20606391 -0.26858714 0.019159036 0.039047826 0.04002364 0.0796934 -0.014435978
-0.13294046 -0.27982414 0.03919486 -0.08990105 -0.27093136 0.09407024 0.1457045 -0.113520406
0.29061195 -0.3151661 0.21584305 0.05248149 0.0032935548 0.03682424 0.030201426 -0.014342389
0.11242504 0.035852365 -0.31203038 -0.08488224 -0.052303858 0.02931754 0.054408766 0.08950661
0.14816433 0.18439819 0.15848397 -0.21452901 -0.31668004 0.23418537 -0.16473043 0.19008365
0.046399232 0.021857241 0.2344036 0.21124911 -0.09600234 0.11459445 -0.2015146 -0.18705525
0.08286127 0.09053841 -0.3391422 0.10350675 0.20714709 0.118204564 0.1593996 -0.14025456
0.12329437 -0.09635421 0.0945987 -0.06748907 -0.20590039 0.22456387 -0.10947361 0.0017341463
-0.2363033 -0.018863758 0.0109713925 -0.01002374 0.106975496 0.038387015 0.25930125 0.17337312
0.02141276 -0.13838927 -0.0037803259 0.005690414 -0.05561546 0.028954543 -0.2615638 -0.13117841
-0.019115707 -0.009413137 0.22780013 -0.009580383 -0.2635805 0.16598667 -0.13648716 0.09710872
0.15239573 -0.100487515 -0.26156417 0.046421207 -0.23010597 0.04243539 -0.17094895 -0.12171503
0.040512003 -0.21127337 -0.09001762 0.07103557 -0.18013795 -0.09390726 -0.0297796 0.1825406
-0.016414791 0.1005201 -0.21072727 0.06745222 0.005629064 -0.07603375 -0.117940396 -0.058043476
-0.018514762 0.1935586 0.20630868 -0.18899912 -0.082248494 -0.0018457114 -0.16191506 0.09757427
0.010817364 0.043303218 -0.022890558 0.22869447 -0.049785905 -0.03150308 -0.16507585 0.09033041
0.19386981 -0.06078291 0.18594968 0.13422747 -0.0011704293 0.08645654 0.116617575 0.056530096
-0.04899626 -0.07425421 -0.13119155 -0.17063388 0.10050155 -0.028700233 -0.014465992 0.17266907
-0.050698787 -0.260761 0.0022233885 0.0123499455 -0.11332966 0.051633306 -0.115129516 0.023400221
-0.10716898 0.1975476 0.074426904 -0.23060891 -0.24278592 0.12397822 -0.01183708 0.16146664
-0.14200391 0.054615147 0.1003197 -0.098601975 0.05803523 -0.20932484 -0.012098324 -0.012587394
0.0021651282 0.06636735 0.115324184 -0.07727048 -0.09797624 0.0965661 0.1863678 -0.109987624
0.05161158 0.059583344 0.07369567 -0.015519463 -0.0074451556 0.16241731 -0.09234695 -0.049089924
0.020362008 0.121431604 -0.18734874 -0.15512843 -0.11007817 -0.20909762 0.22729534 0.12211264
-0.14500895 -0.09514532 0.16654629 0.01043692 0.23767631 -0.017827671 -0.043782864 0.035366412
0.064250425 -0.22575046 -0.075974904 -0.055395737 -0.030634852 0.15871307 -0.25580648 -0.018257067
0.175079 -0.11878897 -0.035852205 0.15142019 -0.010827034 0.10042777 -0.1973319 0.15835562

actor.4.bias f4 [64]
00000000: 68c4 823d 0775 cc3d 5fa9 e43d 0885 af3a
00000010: ed8e e03d c2ed c33d 025b b23c 89e8 123d
00000020: 0890 883c 4106 013c a3ac 8d3c ca1e 40bd
00000030: b57a e93d c737 d3bb 3aba 883c a200 8d3d
00000040: 0e28 653d 56ad 893d cb7e 4a3d 44c7 013e
00000050: 91d3 99bc 4e5a 5c3d fd2d 0bbd f1ee e43c
00000060: 583b d43d a201 bb3d f19e b33c dd70 523d
00000070: 7e70 6c3d b8fc 7a3d 1dbb 2c3e d2a7 223e
00000080: c57a 883d 4eed a13d e64f 4bbd d9f6 1a3c
00000090: 4af6 023d c0b3 b83d 0803 9c3d 5342 c13d
000000a0: 512c 873d 0ca5 a33d 1c87 a53c 1123 aa3d
000000b0: c6fe 833c 559b 443d 2d81 94bc b50e de3d
000000c0: b494 273d 48b1 be3c 72f5 c93d 7044 d93c
000000d0: a4e4 a6bc 2d89 603d d7e3 003d 13ec 80bd
000000e0: c079 a43d 593a aa3c 2162 853b 8efe 213e
000000f0: ece5 713d 3628 89bd 0327 cbbd 70a7 173c
0.06385118 0.09983259 0.111651175 0.0013391087 0.10964761 0.09566833 0.021771912 0.035866294
0.016670242 0.007875026 0.017294234 -0.046904363 0.11400358 -0.006445858 0.016690362 0.06884886
0.055946402 0.06722514 0.049437325 0.1267367 -0.01877764 0.05379706 -0.033979405 0.027945967
0.103628814 0.09131171 0.021926375 0.051377166 0.05772447 0.061276168 0.16868253 0.15884331
0.066640414 0.079065904 -0.049636744 0.009458267 0.03197316 0.090186596 0.07617766 0.094364785
0.066002496 0.079904646 0.020206027 0.0830747 0.016112696 0.0479997 -0.018128002 0.10842649
0.0409133 0.023277894 0.09861268 0.026521891 -0.020372696 0.05481832 0.031467285 -0.062950276
0.080310345 0.020779775 0.004070536 0.15819761 0.05905716 -0.06697123 -0.0991955 0.009256229

actor.6.weight f4 [16, 64]
00000000: b064 ec3d 0335 54be 1dc4 9d3e e183 28be
00000010: 8b80 153e 606e 763e 0c77 1ebe 1bd2 d5be
00000020: 4687 5dbe d050 ad3e ee1b 14be 5b14 8d3e
00000030: 4ead 7bbe 4030 983e 098b 7bbe 23ee 063e
00000040: e1c8 9e3e afac 1abe faa6 c9be 330f 8a3e
00000050: b5ec 90be e054 543e ab54 cfbe 7073 c5be
00000060: c14b 8d3e 1d4f 38bd 232b d03e 1be1 8a3e
00000070: 15a1 63be eee7 893c 0b06 2ebe 31bd d03d
00000080: 602c d13e e850 f5bd ee9b bdbe cd03 35be
00000090: 578a 9f3e d2b2 53be 228a 013e 45a7 94be
000000a0: 86df 973e 7872 403e ac1a 8bbd 7049 a83d
000000b0: 5751 4b3e c60f 773d fbac ad3e 1e48 43be
000000c0: 150b bb3e 3e85 bc3d 6f83 96be 5100 71bd
000000d0: 8121 95be c4fc c83d 049e 53be 177c dabd
000000e0: 4159 6c3e 3522 9bbe 8a3d da3e 21e8 213e
000000f0: 027e 8bbe 7e9a 913c d7cb c23d 9338 453e
00000100: d37c 9abe 6d92 913e ad35 ddbe df5d 43be
00000110: aa37 be3d 4b47 4abe e27f 003e 6832 843e
00000120: 297a 953e a30c 53be ca26 d2be 4c83 0fbf
00000130: 12bc 763e 8cf9 e7bd 2a3b 5e3e e9e7 25be
00000140: 1505 a7be 5eaa 01bb 4c03 cbbd 64c9 c23d
00000150: b89d 383e 9f67 5d3e eb27 7a3e 4b17 033e
00000160: 20b4 adbc 58d5 823e 6505 aabe 7167 61be
00000170: 37d8 00be c720 30be 92c2 733e 23c8 6c3e
00000180: 4b32 46bf 5941 74be 406d a33e 657c b6be
00000190: 29c2 31be a465 493e cd3e ccbe 57dc 4a3e
000001a0: 2237 5fbe 1987 1f3e b7dc 9c3e 2e09 e0bd
000001b0: 89a6 f53d 85e9 bf3b 1811 90be b513 bf3e
000001c0: 7a8d 14be 9978 8f3e 9242 613e 3e85 b93d
000001d0: b3bf 8c3e 1984 9abd ea42 323e 9102 0fbf
000001e0: 92c2 aebe c36d 43bd e71d febe 58ad 623e
000001f0: bd31 3a3e f77a 8c3e 3068 89bd 2605 12be
00000200: 9888 2e3d 080f 993d 9063 bdbd 5e7f 823e
00000210: 7b7d 19be 5247 153d 773a 97be 3f7f 68be
00000220: 9f24 2ebe 2ab2 febd e3ab b83e 991c b73e
00000230: d319 4f3d d8d9 c5be cda2 91be fa8f 0ebe
00000240: 6529 343c e2ad 3dbe 491a 0e3e 5939 74be
00000250: 2438 6cbb 68cd 9cbe ad6b d0bc 9b5f 3a3e
00000260: 5d66 c4be c720 9fbe 97bf b1be 3fc1 153e
00000270: da62 013e 2cfc 913d c765 8c3e d073 9ebe
00000280: 4d26 b73e 0126 b93e 2b2e 6d3e a89f 3e3e
00000290: 3432 a5bd 56a7 28be c945 b6be 0a49 2ebe
000002a0: 4d67 2abe 1cb6 0cbf edf4 30be 76f3 e5be
000002b0: cef6 9abe 6b04 30bd 4b4d 57be d6e9 83be
000002c0: 51af fcbe 8188 d4be e58d d23d bdce 54be
000002d0: 916f 623e adee 39be f829 8a3e 7f30 a23e
000002e0: 4142 2dbe d4fb 353e a977 e93d fd5b 90be
000002f0: 7df2 083e 9691 0cbf 7083 9c3d 749d 3fbe
00000300: ce46 383f ec91 37bd 000c 1abe 2be7 283f
00000310: 6393 1b3e dc42 90bc 9994 f63d db4d 00be
00000320: 9dfc c13e 8a96 003f f208 4cbe b0d0 773d
00000330: 1644 adbe 3a61 c73e cd7f 303f 25e6 cebc
00000340: 445f bebd 2bec 34bd e575 1ebf 5508 f33d
00000350: 0dc7 0bbf 0864 fb3c 0ef0 91be 9a0f ccbe
00000360: 6b0c 5a3e ee30 8bbd bf59 86bd de03 893e
00000370: 5ac1 d0bd 23b7 f9be ed4d ad3d 4ab5 acbc
00000380: 65a2 833e eece 1abe dd3b 69be 8bc7 063e
00000390: d807 d53e 97a7 943e 1582 463f c9e8 263f
000003a0: 178a 2b3e 56fd 3fbd 6a2e 88bd 506e 4f3e
000003b0: 66a7 fe3e 1850 2abf ced4 953e 9024 053f
000003c0: e376 c0bc ff5b 13bd dcf3 b8be 7885 11be
000003d0: efd2 f43d baa2 dd3d db4b 37be 111c a1be
000003e0: f2dc ce3d 46bd f2be f03e 893e 25b7 043e
000003f0: 3367 63be 1207 1c3e c2de e2be bbc4 6b3e
0.11542642 -0.20723347 0.30813685 -0.16456558 0.14599817 0.24065542 -0.154751 -0.4176186
-0.21633634 0.33850718 -0.1446378 0.27554592 -0.24577829 0.29724312 -0.24564756 0.1317678
0.31012633 -0.15104936 -0.39385206 0.2696472 -0.28305593 0.20735502 -0.40494284 -0.38564634
0.27596858 -0.044997323 0.4065791 0.27124867 -0.22229417 0.016834226 -0.16994493 0.101923354
0.40854168 -0.11978322 -0.37033027 -0.17677231 0.31160232 -0.20673683 0.1265035 -0.29033867
0.29662722 0.18793666 -0.06792197 0.08217132 0.19855247 0.060317777 0.33921036 -0.1907048
0.36531892 0.092051014 -0.2939715 -0.058838192 -0.29127124 0.09813836 -0.20665747 -0.106681995
0.23080923 -0.30299535 0.42625076 0.15811206 -0.27244574 0.017773863 0.095115356 0.19259863
-0.30173358 0.28432027 -0.43205014 -0.19078778 0.09287961 -0.19753759 0.12548783 0.25819707
0.29194763 -0.2061029 -0.4104522 -0.5605972 0.2409518 -0.11326894 0.21702257 -0.16201748
-0.32621065 -0.0019785385 -0.09912738 0.095110685 0.18028915 0.2162156 0.2442929 0.12801854
-0.021204054 0.25553393 -0.3320724 -0.22012116 -0.1258248 -0.17200004 0.23804691 0.23123221
-0.7742049 -0.23853053 0.3191929 -0.3564178 -0.17359222 0.19667679 -0.39891663 0.19810615
-0.21798375 0.1557888 0.30637142 -0.10939251 0.11994655 0.005856695 -0.28138041 0.37319723
-0.14507094 0.28021696 0.21998051 0.09058617 0.27490005 -0.07544727 0.17408338 -0.5586329
-0.3413282 -0.0477121 -0.4963219 0.22136438 0.18183036 0.27437565 -0.06709325 -0.14259776
0.042610735 0.0747357 -0.09247506 0.25487798 -0.14989273 0.03644497 -0.29536793 -0.2270479
-0.17006157 -0.12436326 0.3606864 0.35764006 0.050561737 -0.38642764 -0.2844452 -0.1392211
0.010996197 -0.18523362 0.13877214 -0.23850001 -0.0036044205 -0.30625463 -0.025441969 0.18200533
-0.38359347 -0.31079695 -0.34716484 0.14624499 0.12635365 0.07128176 0.274214 -0.30947733
0.3577141 0.36161807 0.23162143 0.18615592 -0.08066216 -0.16470084 -0.35600117 -0.1702005
-0.16640969 -0.54965377 -0.17280932 -0.44912308 -0.30266422 -0.042972963 -0.21025579 -0.2576434
-0.49352506 -0.41510394 0.102809705 -0.2078199 0.22112872 -0.18157454 0.26985145 0.31677625
-0.16919805 0.17771846 0.113997765 -0.2819518 0.13373752 -0.54909647 0.07642257 -0.18712407
0.7198304 -0.044816896 -0.1504364 0.65977734 0.15192942 -0.017610006 0.120400615 -0.125297
0.3788804 0.50229704 -0.19925287 0.060501754 -0.33841008 0.38941365 0.6894501 -0.025256226
-0.09295514 -0.04417054 -0.6189864 0.118668236 -0.546006 0.030687347 -0.2850346 -0.39855653
0.212938 -0.06796442 -0.065600865 0.26760763 -0.10193129 -0.48772535 0.08462129 -0.02108254
0.25709835 -0.15118 -0.22776742 0.13162057 0.41607547 0.2903411 0.7754224 0.6519895
0.16751896 -0.04687246 -0.06649478 0.20256925 0.4973709 -0.66528463 0.2926392 0.52008915
-0.02349419 -0.035976406 -0.3612355 -0.1421107 0.11954295 0.10822053 -0.1790003 -0.31466725
0.10100736 -0.4741003 0.2680583 0.12960489 -0.22207336 0.15237072 -0.44310576 0.23024265

actor.6.bias f4 [16]
00000000: 8aa7 c2bc 1cf4 e63a c409 2ebd fe04 62bd
00000010: bb5b 833d b155 94b9 a41a c43d 45ae e83d
00000020: 786b 893d 4dc3 06bc b4be 123e 8274 c03a
00000030: 833a 3bbe 869c c63d ea4b 71be 06c8 9fbc
-0.02376153 0.0017620358 -0.042489782 -0.055180542 0.064139806 -0.00028292605 0.09575394 0.11361364
0.06709951 -0.008225274 0.1433056 0.001468316 -0.18284039 0.09697823 -0.23564115 -0.019504558

critic.0.weight f4 [128, 35]
00000000: fccb a8be 3002 65be d6a3 68be 65aa 22be
00000010: a930 f2bd 7c26 febd 1f56 74be 659a 92be
00000020: 1f70 b2be 50d2 29bf c926 ed3f a007 d0be
00000030: a284 cf3f 66f2 183e 1c39 6fbf 17ce dfbd
00000040: 33b8 c53e 6844 223e b3a2 003f ea3a 9abd
00000050: b589 e4be 26bb cebd 0db5 383e fb43 373e
00000060: 86a4 2b3e a37d de3e 41d2 a8bc d6a1 593d
00000070: 4ee2 6a3e 6904 023e 275f d43d b030 aebe
00000080: ed21 953e ac21 433e 70f2 2e3c a96c 18be
00000090: 9225 1ebe edd3 02be fea8 75bd 376b a8bd
000000a0: 6838 aebd 3cdd aebd fbb7 c9bd 8a72 f2bd
000000b0: 1201 f4bd 302b 0abf 15b8 e13c bfa0 afbf
000000c0: d1e3 a2bf 4414 0dbf 5948 aabe 5a3e 0dbf
000000d0: 578b bcbe 7c75 e1be 7ca2 c9be ccb2 96be
000000e0: 9e51 89be 33a8 f7bd df5d 56be 1db5 eabe
000000f0: e085 ea3d 4d36 a53e a498 2dbf 2395 8bbe
00000100: e859 df3e 4188 c53d 6d87 883e 2062 d73d
00000110: 6932 76bd 7540 9e3d e55e b33d 88f7 44bc
00000120: 5f65 81bc a71a 4abe 7363 3ebe b57b 91be
00000130: dcbc 5ebe 067b ebbe 60bb 18bf 9f4a 7ebf
00000140: 9ca4 f73d f403 a7be 0a91 9abd 2a6f 6fbe
00000150: 063c 29be fd12 7a3d 4fbf 443d 147a d73d
00000160: e13f bbbc 9cd8 993e 33b2 24be 35c9 dbbd
00000170: 9557 c7be 1bb0 85bf ed1e dfbe 6265 0d3d
00000180: ebc9 87bd 329b 13bb c76e e6bd c665 47be
00000190: 4170 68bd b94c 213f cc88 c2be a05b 31bf
000001a0: 0fbf 8dbd 1f9d c4be 6fc0 b9be 438b acbe
000001b0: 5f0a 84be eea5 80be 7f54 9ebe 624d 69be
000001c0: 614a 8abe 6892 c2be 306e a9be 7bf8 9ebd
000001d0: 0a42 ae3e c4fc 273f 1905 203e 00e0 693e
000001e0: c946 0ebe 5e84 43bd b688 20bd 324d 89be
000001f0: cdbe 0fbe b26b ebbd bbec 4abe 82ce 8ebd
00000200: 55c5 48be be24 e53d 613d f7be 445f f1bd
00000210: 499a f8be 7665 3a3d aec1 233d 9f6d 5ebe
00000220: bcc6 e2bd c5fb 83be 9e70 36bf c496 bdbe
00000230: d05d 8fbd 304a a63c 0c16 01bd 9b16 37bd
00000240: 2b1f bcbc a5e0 883b bad4 22bd b34e 1fbc
00000250: 0ada ca3c ab79 3cbc b928 4f3f 7b99 563f
00000260: a6fb 1d3f 943e 773f 8588 54bf da19 15bf
00000270: bb66 82be 871e 5abe 40ab 5cbd 3ec6 f8bd
00000280: e036 2f3e 4fe1 423e ef95 3ebe 5dbb afbd
00000290: 942a bcbe c3cc 9d3e 6ad8 5abd 7fec 8fbd
000002a0: be3a bc3d 378e 593e b85e 4b3e 03ad f03e
000002b0: 1d94 863f 28a4 213f 41f6 c63e 8fbb b0be
000002c0: 6571 a9be 73c3 93be 090f 91be 1535 87be
000002d0: 3442 92be 4842 87be 4ca1 89be a2dc 93be
000002e0: 5543 a6be 11a3 c83c a91b 653f fe9f 223e
000002f0: c041 a63f 26e0 9a3d 0a38 98be 7031 b0bd
00000300: 90d8 96be 2a06 2bbe d67c 1b3e d60e 99be
00000310: 75df dfbe 9785 87be ac47 84be fd67 dfbe
00000320: 63f1 38bf 9d98 25bf 5e50 f13d 1a43 1abf
00000330: e163 223e a335 cd3d 1287 49bf 838e eabd
00000340: 5ff0 6fbf 41d0 08bd 894c 853d 48b8 e2bc
00000350: 187c d0bc 9ab1 94bd eac8 c5bd ae3f c2bd
00000360: ec25 c1bd b254 46be 3abe fbbd 88b8 85be
00000370: 1926 9bbe 9ddd bdbf 8918 f5be 1200 5a3f
00000380: b183 d2be 4c7f 333e e257 043e b321 be3d
00000390: 66bf a0bd cef9 10be 58b7 babd a8a9 0cbf
000003a0: 7ce6 10bf 2e24 75bd 8178 12bc 03e3 0b3d
000003b0: 6356 36be 1805 213e 05fd 9b3e 0cef 363e
000003c0: 0d9a 233e e7ca 5fbe 3a18 793f b7db 6fbf
000003d0: d3d8 d43d 063b 69be a53f 5ebe 835d 5bbe
000003e0: ce08 2bbe 62f7 31be 6d79 48be 2c37 3cbe
000003f0: 8f48 4ebe 6cea 6dbe c3cf 58be 22c1 45bf
-0.32968128 -0.22364116 -0.22718748 -0.15885313 -0.118256874 -0.12409684 -0.23860978 -0.2863342
-0.34851167 -0.66336536 1.8527461 -0.40630817 1.6212351 0.14936218 -0.93446517 -0.109279804
0.38617095 0.15846407 0.5024826 -0.07530768 -0.44636312 -0.100942895 0.18037815 0.17897026
0.1676198 0.43455228 -0.02060807 0.053132854 0.22937891 0.12696995 0.10369711 -0.3402152
0.29127446 0.19055814 0.010677919 -0.148852 -0.1544402 -0.12776156 -0.059975617 -0.082235746
-0.085068524 -0.08538291 -0.098495446 -0.11838253 -0.11914267 -0.5397215 0.027553597 -1.3720931
-1.2725774 -0.5510905 -0.33258322 -0.55173266 -0.36825058 -0.44034946 -0.39381778 -0.29433286
-0.2682008 -0.12092628 -0.20934246 -0.45841303 0.11451316 0.3226799 -0.67811036 -0.2726222
0.4362328 0.09645129 0.26665822 0.10516763 -0.06010667 0.07727138 0.08758334 -0.012021907
-0.015795408 -0.1973673 -0.18592624 -0.28414693 -0.21751732 -0.45992297 -0.5966091 -0.9933261
0.120919436 -0.32620203 -0.07547195 -0.2338225 -0.16526803 0.061053265 0.04803401 0.105213314
-0.022857608 0.30048072 -0.16083603 -0.107317366 -0.38934007 -1.0444368 -0.43578282 0.034520514
-0.0663031 -0.0022522924 -0.11251598 -0.19472417 -0.05674768 0.63007694 -0.37994993 -0.69280434
-0.06921207 -0.38401124 -0.36279628 -0.33699998 -0.25789163 -0.25126594 -0.3092384 -0.22783425
-0.27009872 -0.38002324 -0.3309188 -0.07762238 0.3403476 0.65620065 0.15626945 0.22839355
-0.1389419 -0.047733657 -0.039192878 -0.26816708 -0.14037628 -0.114951506 -0.19816868 -0.06972982
-0.19606526 0.11188649 -0.48289016 -0.117857486 -0.4855521 0.045506917 0.03997963 -0.21721505
-0.11073062 -0.25778022 -0.7126559 -0.37029088 -0.07000315 0.020299047 -0.031515166 -0.044699293
-0.02296408 0.0041771703 -0.039753653 -0.009723353 0.024762172 -0.011503617 0.8092151 0.8382794
0.6171211 0.9657986 -0.8302081 -0.5824257 -0.25469002 -0.21300708 -0.053874254 -0.12147187
0.17110777 0.19031261 -0.18611883 -0.085806586 -0.36751235 0.30820283 -0.053429045 -0.0702753
0.09190892 0.21245657 0.19860351 0.47006997 1.051395 0.6314111 0.38859752 -0.34518096
-0.33094326 -0.28860053 -0.28331783 -0.26407686 -0.28566134 -0.26417756 -0.26880872 -0.28879267
-0.32473245 0.024491819 0.8949533 0.15881345 1.2988815 0.07562284 -0.29730254 -0.086031795
-0.294621 -0.1670157 0.1518434 -0.2989413 -0.43725172 -0.26469108 -0.2583593 -0.43634024
-0.72243327 -0.64685994 0.11782907 -0.6025864 0.15858413 0.10019996 -0.78721726 -0.11452963
-0.9372615 -0.03340173 0.065087385 -0.027675763 -0.025449798 -0.07260437 -0.09657462 -0.09484802
-0.09431061 -0.19368246 -0.12292142 -0.2611735 -0.30302504 -1.4833256 -0.4787028 0.8515636
-0.41116098 0.17529029 0.1292415 0.09283771 -0.07849006 -0.14157793 -0.09117001 -0.54946375
-0.5660169 -0.059848957 -0.008939863 0.034152042 -0.17806391 0.157246 0.30466476 0.17864627
0.15976734 -0.21854745 0.9730259 -0.93694633 0.103929184 -0.22776422 -0.21703966 -0.2142239
-0.16702577 -0.17379525 -0.1957757 -0.18380421 -0.20144866 -0.23233956 -0.21173005 -0.7724782

critic.0.bias f4 [128]
00000000: 942f 8cbd 3bd5 afbe a1bc 733d 5316 a9bd
00000010: 5446 3dbf 0bdb 65be ddfd fbbd 6dca 4abf
00000020: 2cf0 0f3d af60 30bf 3481 d1be 502f 323e
00000030: a9d3 383d 4d74 66bf 4333 b3be a9ea 95be
00000040: 2686 c23d e827 1dbf 09d7 333e 3946 a6be
00000050: 6fcf b4bd 3b3a 44bf 5ef9 ec3d ac54 783e
00000060: 7c96 3b3e b54d 373d b09d 893f 6ab0 d3bd
00000070: 5ece 063f d8a0 2abf 2da0 03bf f6a8 28be
00000080: a8f7 8cbe 6176 f1bd e42c 74be 570e a33e
00000090: 4606 c9be 1e7b babe 0544 20bd 998b c13e
000000a0: ffc0 623e 1e16 01bf a7e9 7fbe 3273 68be
000000b0: 9584 1e3f f7d9 3bbb d9f0 babe 271b eabe
000000c0: 3ba2 123d 42d1 2e3e 3a4d 13be 4e60 543f
000000d0: fbde 9f3e 5ffa a63d bc00 bf3e b588 d23e
000000e0: 9894 053f 2ac1 20bf ed6c 27be 0a91 0fbf
000000f0: d0b0 da3e aa70 75bf 3980 ef3e 7876 27bf
00000100: 7926 d5bd e82e 3c3e 547f 9cbe c481 013f
00000110: 99b4 03bf 8f36 5e3f a70e 94bd 6281 b7be
00000120: 7f17 163e 93ea 13be 281c d83e 90be 193f
00000130: dfcc 603e 54a1 ba3c 02f9 8c3e 07da 36bf
00000140: 0b70 14bf 3add b03d 8ab6 87bd 117e 423f
00000150: 7621 653f f489 4bbf 4c89 b7be 318a 143f
00000160: 98c6 9b3e 48ae c43e ec2f 83bf 73f6 8bbe
00000170: c9ae debd edf8 863f f029 c5be ebf6 083f
00000180: e5f8 80bd f78a 893d 568c e23e 2582 0d3f
00000190: 4b65 e5bd 881d 513e db1a 2dbf fa33 5a3f
000001a0: a43e b2be 648a 68be 428e 86be 0963 24bd
000001b0: f88b 1fbb 06a4 3fbf c367 70be 8c27 64bf
000001c0: 2b47 b53d d614 713f 83d1 5c3e 804f be3e
000001d0: 8a99 df3e 8271 bcbd 7e29 87bd c8b0 543f
000001e0: 06ca 5a3d 88d7 cc3e b32f 02be a662 0d3f
000001f0: eada 0ebf be1f 963d 5a5f 6ebd 56fe 81bd
-0.06845012 -0.3434237 0.059506062 -0.08256211 -0.7393544 -0.2244684 -0.1230428 -0.7921513
0.035141155 -0.6889753 -0.40918887 0.17400861 0.04512373 -0.9002121 -0.35000047 -0.29280594
0.09498243 -0.6138902 0.17562498 -0.3247545 -0.08828627 -0.7665135 0.115710005 0.2425105
0.18319124 0.04475184 1.0751247 -0.10336383 0.5265864 -0.6665168 -0.51416284 -0.16470703
-0.27532697 -0.11790157 -0.2384525 0.31846878 -0.392626 -0.36422056 -0.03912737 0.37801817
0.22143935 -0.50424373 -0.24991475 -0.22700194 0.61921054 -0.0028663853 -0.36511877 -0.4572384
0.035799246 0.17072013 -0.14384928 0.8295945 0.31224808 0.08153223 0.37305248 0.41119924
0.5217986 -0.62794745 -0.16350146 -0.5608069 0.42713022 -0.95875037 0.46777514 -0.65415144
-0.10407729 0.18377268 -0.30565894 0.5058863 -0.51447445 0.86802 -0.07229357 -0.358409
0.146574 -0.14444952 0.42208982 0.600564 0.21953152 0.022782005 0.27533728 -0.71426433
-0.57983464 0.086359456 -0.066266134 0.7597361 0.8950418 -0.79507375 -0.35846937 0.58023363
0.30424953 0.38414216 -1.0249 -0.27336463 -0.108731814 1.0544716 -0.38508558 0.53501767
-0.06297473 0.067159586 0.44247693 0.5527671 -0.11200961 0.20421422 -0.67619103 0.8523556
-0.34813416 -0.22709042 -0.2628041 -0.04013351 -0.0024344902 -0.74859655 -0.23477082 -0.89122844
0.08851465 0.9417242 0.21564297 0.3717003 0.43671829 -0.092013374 -0.06599711 0.83082247
0.05341532 0.40008187 -0.12713508 0.5522865 -0.55802786 0.07330273 -0.058196403 -0.06347339

critic.2.weight f4 [128, 128]
00000000: e195 8bbc c87e 49be 6c9e 953d 9a6c 31be
00000010: ac9e 92bd 1708 04be d861 78be 5fa7 b23e
00000020: 7f25 eabd 1f3a 05bd 480b 263d 0646 94bd
00000030: 0755 93be 199a abbc ee56 693d ad6f 6bbe
00000040: 07a1 043e 5150 f9bd bab6 46bd 87c7 aabd
00000050: 882c 15bd 096c 8ebd 1141 893d 30be 15be
00000060: f099 0c3d 1bc6 123e 6b9e 3cbd c6ae d7bc
00000070: 0a56 7fbd fa96 173c 4c29 8f3c 93e0 a73d
00000080: 3bc1 12be 807b 5fbd b98d f23d 587b 7cbd
00000090: 0585 45bd a568 0fbe dda2 b43c 4ef0 b8bd
000000a0: b447 d73d 42a9 50bd e550 9abc 0c52 203c
000000b0: d671 48be 1782 8cbd 705f 073d a14b 65bd
000000c0: 14f2 223e 452f fc3d 44ef ffbe fe5f 903d
000000d0: 10bb 00be 7559 e0bd 6e26 1d3e cd36 a1bd
000000e0: 54a7 13be 67dd ccbd d083 abbe f693 cb3c
000000f0: 7c04 62be 81bf 16be 08ab cabd eb15 11be
00000100: 1591 133e 7983 fcbd 9a78 5b3d 442f 5ebd
00000110: 8ae5 073d 74f1 47bd 664e 67bd 0ce3 a7be
00000120: 3f43 253e f0b2 b7bd a4de e7bd d033 68be
00000130: 2820 9abd 1959 8fbe 20b9 643d 77d0 14bd
00000140: 20f1 41be 4cd5 55bc e873 543c 8b98 1d3e
00000150: 1ecb b1bc 8019 29be e723 34be 9f08 6fbd
00000160: 0e7c 6f3c ddd8 e7bd 3f6f ad3d 5952 f7bd
00000170: e55f 8fbd fc35 d83d b0c9 e0bd e604 143e
00000180: 0f99 02bd 3032 56be 4aab 923e 0560 6ebe
00000190: dd08 44be e54a 223e b493 27bf 51ef 54be
000001a0: d225 433e f05d 35bd 066d 41be 9736 a33b
000001b0: 0a3d 09bb baa8 c73d 4698 be3d c09f 14be
000001c0: 0adf 523e e9f6 8ebd 9e4c 923d 1bd8 a7bc
000001d0: 0e10 febc 2be0 4fbe e1d0 21bd 679b ab3d
000001e0: 6653 31bd f6ac 1cbe bc70 17bd 31d9 8fbd
000001f0: b385 1cbe 42ea d53d 18ed 1cbe a9dd ed3d
00000200: 41cf 2bbe d62b 77be f184 2a3e 6955 a9bd
00000210: 3553 29bd 6cdf b7bd b712 56be 07f9 6fbe
00000220: 7229 d23d 745d 71bd ad91 d8bd 435f 2f3e
00000230: e7b4 92be 59ed 25be 0126 36be 03dc b6bc
00000240: 8d03 003e 0914 143d d073 d53c aa81 1fbe
00000250: ca6a 38bc 6ff8 143e 3612 de3d 7088 2ebe
00000260: a041 5f3e b0cc b4bc 6c8b 34bc 1377 1a3d
00000270: cb05 d1bd d56c 1fbd f53d 22be 695d be3c
00000280: 549e 0fbe 57c4 273d ebec e2be 070c b8bd
00000290: 936e 8abe 5954 8abe 9677 0cbe 8eaf 1fbf
000002a0: 5a1f 78be 097d 153e 24c8 d6bd 20e3 833e
000002b0: cc4f 5abc e671 3d3e ec06 89bd 6951 b23c
000002c0: accd 8a3d fd16 9c3e fad5 f03d 42a4 10be
000002d0: f267 5bbe d4df 04bd 0387 7c3c 9ce5 91be
000002e0: f4b7 a7bd 73ff a2be 018d 03be 6f6f ec3c
000002f0: f9b0 37bd bb56 30be 3cfe 3a3d c4d5 eabc
00000300: f8a8 f63d 44ad 203e de87 43be f397 343d
00000310: 2c0d 05be 5f35 1b3e d2bc c03d ddb8 7abd
00000320: 8d54 8b3e 576d 51be 2d20 013d e49e 39be
00000330: eda3 1e3e b33a c63e 58a6 a53d e058 99bd
00000340: a183 053e c45d c93d f0ef a2be 4a1f 38bf
00000350: f723 37bd 601b 9fbd 37d7 aebe 0c17 74bc
00000360: a698 2b3e 006e 08bd 7c28 52be 8222 e1bd
00000370: f2fe 80be c974 c6bd d839 19be 11b4 adbe
00000380: 07d9 a0bd 0659 02bd c62b 4a3e f8ea 9cbd
00000390: 6df3 babc e087 443e 707a 00bf 4c2c c2bd
000003a0: 304d b63c 2293 98be 8c05 19be 5d19 0abd
000003b0: 9e1e 6b3e 9f1c 3e3d 9237 dd3c cedf 98be
000003c0: 71d4 46be a58a 523e a467 023e dff1 ef3c
000003d0: bf3d 173e 1a15 1fbd 0142 313d 135c 803c
000003e0: c6f9 67bd 8556 d03b d8e1 6cbe 85e1 a53c
000003f0: ea8f 1abe 4e1a b53d 63fa 48bd 31c7 4a3e
-0.017039241 -0.1967727 0.07305607 -0.17326584 -0.071591705 -0.12893711 -0.24256074 0.3489332
-0.11432933 -0.03252613 0.040538102 -0.072399184 -0.28775808 -0.020947503 0.05696767 -0.2299182
0.12952052 -0.12173522 -0.048514105 -0.08338838 -0.03641942 -0.069542 0.067018636 -0.14623332
0.034326494 0.14333384 -0.046049517 -0.026328456 -0.062337913 0.009252304 0.017475747 0.08197131
-0.14331524 -0.05456114 0.11843438 -0.061641067 -0.04822256 -0.14004762 0.022050316 -0.090302095
0.10511723 -0.050942667 -0.018837402 0.0097851865 -0.19574675 -0.0686075 0.03305 -0.05598033
0.15912658 0.123137034 -0.49987233 0.07049559 -0.12571359 -0.109545626 0.15346691 -0.078717805
-0.144193 -0.10003167 -0.33499002 0.024850827 -0.22072023 -0.1472149 -0.09895903 -0.14168517
0.14410813 -0.12329764 0.05358181 -0.054244295 0.03317789 -0.048814252 -0.05647125 -0.3279041
0.16138934 -0.089696765 -0.11321762 -0.22676015 -0.075256646 -0.27997664 0.05584061 -0.03633162
-0.18939638 -0.013051342 0.012967087 0.15390222 -0.0217033 -0.16513634 -0.1759182 -0.05835783
0.014616979 -0.1132066 0.08468484 -0.120762534 -0.07000712 0.10557172 -0.10975969 0.14454994
-0.03188425 -0.20917583 0.28646308 -0.23278816 -0.19144006 0.15848882 -0.6545975 -0.20794417
0.19057396 -0.04427904 -0.18889245 0.004980873 -0.0020940923 0.09748979 0.093063876 -0.14514065
0.20592895 -0.06980688 0.0714352 -0.02048879 -0.031013515 -0.20300357 -0.039505843 0.0837925
-0.043292426 -0.15300354 -0.036972746 -0.07023848 -0.15285377 0.10445072 -0.15324819 0.11614544
-0.1677828 -0.24137816 0.16652276 -0.08268244 -0.041339118 -0.08978161 -0.20905577 -0.2343484
0.10261811 -0.058927014 -0.105746605 0.17126183 -0.28653643 -0.16203822 -0.17787935 -0.022321707
0.12501355 0.03615192 0.0260562 -0.15576807 -0.011255929 0.14547895 0.10843317 -0.17044234
0.21802378 -0.022070259 -0.011019569 0.037711214 -0.10206183 -0.03892215 -0.15843947 0.0232379
-0.14025241 0.04095873 -0.4432138 -0.08986669 -0.27037486 -0.27017477 -0.13717493 -0.6237725
-0.2423071 0.14598478 -0.104873925 0.2575922 -0.013324689 0.1850048 -0.06690773 0.021767335
0.0677751 0.3048629 0.11759563 -0.1412516 -0.2142637 -0.03244002 0.015413049 -0.2849549
-0.08189383 -0.31835517 -0.12846757 0.02886173 -0.04484651 -0.17220585 0.045652613 -0.028666385
0.12043947 0.15691096 -0.19094798 0.044090223 -0.12993306 0.15157078 0.094110146 -0.061211456
0.27212945 -0.20451866 0.031524826 -0.18127018 0.1549222 0.3871666 0.08088368 -0.07487655
0.13038494 0.098323375 -0.31823683 -0.71922743 -0.044712033 -0.07768893 -0.3414857 -0.014898073
0.1675745 -0.03330803 -0.20523256 -0.1099291 -0.25194508 -0.09690244 -0.14963472 -0.33926442
-0.07853895 -0.03182318 0.1974326 -0.07662004 -0.022821153 0.19192457 -0.50186825 -0.09481105
0.022253603 -0.29799753 -0.14943522 -0.033715595 0.22960898 0.046414014 0.027004037 -0.2985825
-0.19416977 0.20560701 0.12734848 0.029290138 0.14769648 -0.038838483 0.043275837 0.015668904
-0.056634687 0.00635797 -0.23133028 0.020249138 -0.15093961 0.08842908 -0.049066912 0.19802548
